WARNING:root:Defaulting to PJRT_DEVICE=CPU
============================= test session starts ==============================
platform linux -- Python 3.11.13, pytest-8.4.2, pluggy-1.6.0 -- /localdev/ssalice/tt-torch/env/venv/bin/python3.11
cachedir: .pytest_cache
rootdir: /localdev/ssalice/tt-torch
configfile: pytest.ini
plugins: cov-7.0.0, forked-1.6.0, split-0.10.0, xdist-3.8.0
collecting ... Cannot import path: /localdev/ssalice/tt-torch/third_party/tt_forge_models/yoloworld/pytorch/loader.py: libGL.so.1: cannot open shared object file: No such file or directory
Cannot import path: /localdev/ssalice/tt-torch/third_party/tt_forge_models/yolov10/pytorch/loader.py: libGL.so.1: cannot open shared object file: No such file or directory
Cannot import path: /localdev/ssalice/tt-torch/third_party/tt_forge_models/yolov9/pytorch/loader.py: libGL.so.1: cannot open shared object file: No such file or directory
Cannot import path: /localdev/ssalice/tt-torch/third_party/tt_forge_models/yolov8/pytorch/loader.py: libGL.so.1: cannot open shared object file: No such file or directory
Cannot import path: /localdev/ssalice/tt-torch/third_party/tt_forge_models/yolov6/pytorch/loader.py: libGL.so.1: cannot open shared object file: No such file or directory
Cannot import path: /localdev/ssalice/tt-torch/third_party/tt_forge_models/rcnn/pytorch/loader.py: libGL.so.1: cannot open shared object file: No such file or directory
Cannot import path: /localdev/ssalice/tt-torch/third_party/tt_forge_models/yolov4/pytorch/loader.py: libGL.so.1: cannot open shared object file: No such file or directory
collected 1 item

tests/runner/test_models.py::test_all_models[qwen_3/embedding/pytorch-embedding_4b-full-eval] 
Running tests/runner/test_models.py::test_all_models[qwen_3/embedding/pytorch-embedding_4b-full-eval]
model_name: pytorch_qwen_3_embedding_embedding_4b_nlp_embed_gen_huggingface status: ModelStatus.EXPECTED_PASSING
Fetching 2 files:   0%|          | 0/2 [00:00<?, ?it/s]Fetching 2 files:  50%|â–ˆâ–ˆâ–ˆâ–ˆâ–ˆ     | 1/2 [00:27<00:27, 27.81s/it]Fetching 2 files: 100%|â–ˆâ–ˆâ–ˆâ–ˆâ–ˆâ–ˆâ–ˆâ–ˆâ–ˆâ–ˆ| 2/2 [00:27<00:00, 13.90s/it]
Loading checkpoint shards:   0%|          | 0/2 [00:00<?, ?it/s]Loading checkpoint shards: 100%|â–ˆâ–ˆâ–ˆâ–ˆâ–ˆâ–ˆâ–ˆâ–ˆâ–ˆâ–ˆ| 2/2 [00:00<00:00, 130.45it/s]
2025-09-23 12:45:23.356628: W torch_xla/csrc/runtime/profiler.cpp:88] Profiler API not found for PJRT plugin
[32m                 Always[0m | [1m[38;5;208m WARNING[0m | User provided a tensor of data type: Int64 which is not supported by runtime/ttnn. Casting to: Int32, this may impact throughput and the integrity of the data.
[32m                 Always[0m | [1m[38;5;208m WARNING[0m | User provided a tensor of data type: Int64 which is not supported by runtime/ttnn. Casting to: Int32, this may impact throughput and the integrity of the data.
#loc1 = loc("p0.1")
#loc2 = loc("p1.3")
module @SyncTensorsGraph.7 attributes {mhlo.cross_program_prefetches = [], mhlo.input_output_alias = [], mhlo.is_dynamic = false, mhlo.use_auto_spmd_partitioning = false} {
  vhlo.func_v1 @main(%arg0: !vhlo.tensor_v1<1x512x!vhlo.i32_v1> loc("p0.1"), %arg1: !vhlo.tensor_v1<151665x2560x!vhlo.bf16_v1> loc("p1.3")) -> (!vhlo.tensor_v1<1x512x2560x!vhlo.bf16_v1>) {
    %0 = "vhlo.reshape_v1"(%arg0) : (!vhlo.tensor_v1<1x512x!vhlo.i32_v1>) -> !vhlo.tensor_v1<512x!vhlo.i32_v1> loc(#loc3)
    %1 = "vhlo.gather_v2"(%arg1, %0) <{collapsed_slice_dims = #vhlo.tensor_v1<dense<0> : tensor<1xi64>>, index_vector_dim = #vhlo.integer_v1<1 : i64>, indices_are_sorted = #vhlo.bool_v1<false>, offset_dims = #vhlo.tensor_v1<dense<1> : tensor<1xi64>>, operand_batching_dims = #vhlo.tensor_v1<dense<> : tensor<0xi64>>, slice_sizes = #vhlo.tensor_v1<dense<[1, 2560]> : tensor<2xi64>>, start_index_map = #vhlo.tensor_v1<dense<0> : tensor<1xi64>>, start_indices_batching_dims = #vhlo.tensor_v1<dense<> : tensor<0xi64>>}> : (!vhlo.tensor_v1<151665x2560x!vhlo.bf16_v1>, !vhlo.tensor_v1<512x!vhlo.i32_v1>) -> !vhlo.tensor_v1<512x2560x!vhlo.bf16_v1> loc(#loc4)
    %2 = "vhlo.reshape_v1"(%1) : (!vhlo.tensor_v1<512x2560x!vhlo.bf16_v1>) -> !vhlo.tensor_v1<1x512x2560x!vhlo.bf16_v1> loc(#loc5)
    "vhlo.return_v1"(%2) : (!vhlo.tensor_v1<1x512x2560x!vhlo.bf16_v1>) -> () loc(#loc)
  } {arg_attrs = #vhlo.array_v1<[]>, res_attrs = #vhlo.array_v1<[]>, sym_visibility = #vhlo.string_v1<"">} loc(#loc)
} loc(#loc)
#loc = loc(unknown)
#loc3 = loc("reshape.2")
#loc4 = loc("gather.4")
#loc5 = loc("reshape.5")
#loc1 = loc("p0.1")
#loc2 = loc("p1.3")
module @SyncTensorsGraph.7 attributes {mhlo.cross_program_prefetches = [], mhlo.input_output_alias = [], mhlo.is_dynamic = false, mhlo.use_auto_spmd_partitioning = false} {
  func.func @main(%arg0: tensor<1x512xi32> loc("p0.1"), %arg1: tensor<151665x2560xbf16> loc("p1.3")) -> tensor<1x512x2560xbf16> {
    %0 = stablehlo.reshape %arg0 : (tensor<1x512xi32>) -> tensor<512xi32> loc(#loc3)
    %1 = "stablehlo.gather"(%arg1, %0) <{dimension_numbers = #stablehlo.gather<offset_dims = [1], collapsed_slice_dims = [0], start_index_map = [0], index_vector_dim = 1>, slice_sizes = array<i64: 1, 2560>}> : (tensor<151665x2560xbf16>, tensor<512xi32>) -> tensor<512x2560xbf16> loc(#loc4)
    %2 = stablehlo.reshape %1 : (tensor<512x2560xbf16>) -> tensor<1x512x2560xbf16> loc(#loc5)
    return %2 : tensor<1x512x2560xbf16> loc(#loc)
  } loc(#loc)
} loc(#loc)
#loc = loc(unknown)
#loc3 = loc("reshape.2")
#loc4 = loc("gather.4")
#loc5 = loc("reshape.5")
#loc1 = loc("p0.1")
#loc2 = loc("p1.3")
module @SyncTensorsGraph.7 attributes {mhlo.cross_program_prefetches = [], mhlo.input_output_alias = [], mhlo.is_dynamic = false, mhlo.use_auto_spmd_partitioning = false} {
  func.func @main(%arg0: tensor<1x512xi32> loc("p0.1"), %arg1: tensor<151665x2560xbf16> loc("p1.3")) -> tensor<1x512x2560xbf16> {
    %0 = stablehlo.reshape %arg0 : (tensor<1x512xi32>) -> tensor<512xi32> loc(#loc3)
    %1 = "stablehlo.gather"(%arg1, %0) <{dimension_numbers = #stablehlo.gather<offset_dims = [1], collapsed_slice_dims = [0], start_index_map = [0], index_vector_dim = 1>, slice_sizes = array<i64: 1, 2560>}> : (tensor<151665x2560xbf16>, tensor<512xi32>) -> tensor<512x2560xbf16> loc(#loc4)
    %2 = stablehlo.reshape %1 : (tensor<512x2560xbf16>) -> tensor<1x512x2560xbf16> loc(#loc5)
    return %2 : tensor<1x512x2560xbf16> loc(#loc)
  } loc(#loc)
} loc(#loc)
#loc = loc(unknown)
#loc3 = loc("reshape.2")
#loc4 = loc("gather.4")
#loc5 = loc("reshape.5")
#loc1 = loc("p0.1")
#loc2 = loc("p1.3")
module @SyncTensorsGraph.7 attributes {mhlo.cross_program_prefetches = [], mhlo.input_output_alias = [], mhlo.is_dynamic = false, mhlo.use_auto_spmd_partitioning = false} {
  sdy.mesh @mesh = <["x"=1, "y"=1]> loc(#loc)
  func.func @main(%arg0: tensor<1x512xi32> {ttcore.shard_status = #ttcore.shard_status<unsharded>} loc("p0.1"), %arg1: tensor<151665x2560xbf16> {ttcore.shard_status = #ttcore.shard_status<unsharded>} loc("p1.3")) -> (tensor<1x512x2560xbf16> {ttcore.shard_status = #ttcore.shard_status<unsharded>}) {
    %0 = stablehlo.reshape %arg0 : (tensor<1x512xi32>) -> tensor<512xi32> loc(#loc3)
    %1 = "stablehlo.gather"(%arg1, %0) <{dimension_numbers = #stablehlo.gather<offset_dims = [1], collapsed_slice_dims = [0], start_index_map = [0], index_vector_dim = 1>, slice_sizes = array<i64: 1, 2560>}> : (tensor<151665x2560xbf16>, tensor<512xi32>) -> tensor<512x2560xbf16> loc(#loc4)
    %2 = stablehlo.reshape %1 : (tensor<512x2560xbf16>) -> tensor<1x512x2560xbf16> loc(#loc5)
    return %2 : tensor<1x512x2560xbf16> loc(#loc)
  } loc(#loc)
} loc(#loc)
#loc = loc(unknown)
#loc3 = loc("reshape.2")
#loc4 = loc("gather.4")
#loc5 = loc("reshape.5")
#loc1 = loc("p0.1")
#loc2 = loc("p1.3")
module @SyncTensorsGraph.7 attributes {mhlo.cross_program_prefetches = [], mhlo.input_output_alias = [], mhlo.is_dynamic = false, mhlo.use_auto_spmd_partitioning = false, ttcore.meshes = #ttcore.meshes<[<"mesh" = 1x1>]>} {
  func.func @main(%arg0: tensor<1x512xi32> {ttcore.shard_status = #ttcore.shard_status<unsharded>} loc("p0.1"), %arg1: tensor<151665x2560xbf16> {ttcore.shard_status = #ttcore.shard_status<unsharded>} loc("p1.3")) -> (tensor<1x512x2560xbf16> {ttcore.shard_status = #ttcore.shard_status<unsharded>}) {
    %0 = ttir.empty() : tensor<512xi32> loc(#loc3)
    %1 = "ttir.reshape"(%arg0, %0) <{shape = [512 : i32]}> : (tensor<1x512xi32>, tensor<512xi32>) -> tensor<512xi32> loc(#loc3)
    %2 = ttir.empty() : tensor<512x2560xbf16> loc(#loc4)
    %3 = "ttir.gather"(%arg1, %1, %2) <{collapsed_slice_dims = array<i64: 0>, index_vector_dim = 1 : si64, indices_are_sorted = false, offset_dims = array<i64: 1>, operand_batching_dims = array<i64>, slice_sizes = array<i64: 1, 2560>, start_index_map = array<i64: 0>, start_indices_batching_dims = array<i64>}> : (tensor<151665x2560xbf16>, tensor<512xi32>, tensor<512x2560xbf16>) -> tensor<512x2560xbf16> loc(#loc4)
    %4 = ttir.empty() : tensor<1x512x2560xbf16> loc(#loc5)
    %5 = "ttir.reshape"(%3, %4) <{shape = [1 : i32, 512 : i32, 2560 : i32]}> : (tensor<512x2560xbf16>, tensor<1x512x2560xbf16>) -> tensor<1x512x2560xbf16> loc(#loc5)
    return %5 : tensor<1x512x2560xbf16> loc(#loc)
  } loc(#loc)
} loc(#loc)
#loc = loc(unknown)
#loc3 = loc("reshape.2")
#loc4 = loc("gather.4")
#loc5 = loc("reshape.5")
#dram = #ttnn.buffer_type<dram>
#loc1 = loc("p0.1")
#loc2 = loc("p1.3")
#system_desc = #ttcore.system_desc<[{role = host, target_triple = "x86_64-pc-linux"}], [{arch = <wormhole_b0>, grid = 8x8, coord_translation_offsets = 18x18, l1_size = 1499136, num_dram_channels = 12, dram_channel_size = 1073741824, noc_l1_address_align_bytes = 16, pcie_address_align_bytes = 32, noc_dram_address_align_bytes = 32, l1_unreserved_base = 100352, erisc_l1_unreserved_base = 98304, dram_unreserved_base = 32, dram_unreserved_end = 1073139712, supported_data_types = [<f32>, <f16>, <bf16>, <bfp_f8>, <bfp_bf8>, <bfp_f4>, <bfp_bf4>, <bfp_f2>, <bfp_bf2>, <u32>, <u16>, <u8>, <si32>], supported_tile_sizes = [ 4x16,  16x16,  32x16,  4x32,  16x32,  32x32], dst_register_size_tiles = 8, num_cbs = 32, num_compute_threads = 1, num_datamovement_threads = 2}], [0], [1 : i32], [ 0x0x0x0]>
#system_memory = #ttnn.buffer_type<system_memory>
#ttnn_layout = #ttnn.ttnn_layout<(d0, d1) -> (d0, d1), <1x1>, memref<1x16x!ttcore.tile<32x32, si32>, #dram>, <interleaved>>
#ttnn_layout1 = #ttnn.ttnn_layout<(d0, d1) -> (d0, d1), <1x1>, memref<4740x80x!ttcore.tile<32x32, bf16>, #dram>, <interleaved>>
#ttnn_layout2 = #ttnn.ttnn_layout<(d0, d1, d2) -> (d0 * 512 + d1, d2), <1x1>, memref<16x80x!ttcore.tile<32x32, bf16>, #dram>, <interleaved>>
#ttnn_layout3 = #ttnn.ttnn_layout<(d0, d1) -> (d0, d1), <1x1>, memref<4740x80x!ttcore.tile<32x32, bfp_bf8>, #dram>, <interleaved>>
#ttnn_layout4 = #ttnn.ttnn_layout<(d0) -> (0, d0), <1x1>, memref<1x16x!ttcore.tile<32x32, si32>, #dram>, <interleaved>>
#ttnn_layout5 = #ttnn.ttnn_layout<(d0) -> (0, d0), <1x1>, memref<1x16x!ttcore.tile<32x32, u32>, #dram>, <interleaved>>
#ttnn_layout6 = #ttnn.ttnn_layout<(d0) -> (0, d0), <1x1>, memref<1x16x!ttcore.tile<32x32, u32>, #system_memory>>
#ttnn_layout7 = #ttnn.ttnn_layout<(d0) -> (0, d0), <1x1>, memref<1x512xui32, #system_memory>>
#ttnn_layout8 = #ttnn.ttnn_layout<(d0) -> (0, d0), <1x1>, memref<1x512xui32, #dram>, <interleaved>>
#ttnn_layout9 = #ttnn.ttnn_layout<(d0, d1) -> (d0, d1), <1x1>, memref<16x80x!ttcore.tile<32x32, bf16>, #dram>, <interleaved>>
#ttnn_layout10 = #ttnn.ttnn_layout<(d0, d1) -> (d0, d1), <1x1>, memref<16x80x!ttcore.tile<32x32, bfp_bf8>, #dram>, <interleaved>>
module @SyncTensorsGraph.7 attributes {mhlo.cross_program_prefetches = [], mhlo.input_output_alias = [], mhlo.is_dynamic = false, mhlo.use_auto_spmd_partitioning = false, ttcore.meshes = #ttcore.meshes<[<"mesh" = 1x1>]>} {
  ttcore.device_module {
    builtin.module @SyncTensorsGraph.7 attributes {mhlo.cross_program_prefetches = [], mhlo.input_output_alias = [], mhlo.is_dynamic = false, mhlo.use_auto_spmd_partitioning = false, ttcore.meshes = #ttcore.meshes<[<"mesh" = 1x1>]>, ttcore.system_desc = #system_desc} {
      ttcore.device @default_device = <workerGrid = #ttcore.grid<8x8, (d0, d1) -> (0, d0, d1)>, l1Map = (d0, d1, d2)[s0] -> (0, d0, d1, d2 + s0), dramMap = (d0, d1, d2)[s0, s1, s2, s3, s4, s5, s6] -> (0, 0, (((d0 * s1) * (s2 * (s3 * s6)) + d1 * (s2 * (s3 * s6)) + d2) floordiv s4) mod 12, ((((d0 * s1) * (s2 * (s3 * s6)) + d1 * (s2 * (s3 * s6)) + d2) floordiv s4) floordiv 12) * s4 + ((d0 * s1) * (s2 * (s3 * s6)) + d1 * (s2 * (s3 * s6)) + d2) mod s4 + s5), meshShape = 1x1, chipIds = [0]> loc(#loc)
      func.func @main(%arg0: tensor<1x512xsi32, #ttnn_layout> {ttcore.shard_status = #ttcore.shard_status<unsharded>} loc("p0.1"), %arg1: tensor<151665x2560xbf16, #ttnn_layout1> {ttcore.shard_status = #ttcore.shard_status<unsharded>} loc("p1.3")) -> (tensor<1x512x2560xbf16, #ttnn_layout2> {ttcore.shard_status = #ttcore.shard_status<unsharded>}) {
        %0 = "ttnn.get_device"() <{mesh_offset = #ttnn<mesh_offset 0x0>, mesh_shape = #ttnn<mesh_shape 1x1>}> : () -> !ttnn.device loc(#loc6)
        %1 = "ttnn.typecast"(%arg1) <{dtype = #ttcore.supportedDataTypes<bfp_bf8>}> : (tensor<151665x2560xbf16, #ttnn_layout1>) -> tensor<151665x2560x!ttcore.tile<32x32, bfp_bf8>, #ttnn_layout3> loc(#loc3)
        "ttnn.deallocate"(%arg1) <{force = false}> : (tensor<151665x2560xbf16, #ttnn_layout1>) -> () loc(#loc3)
        %2 = "ttnn.reshape"(%arg0) <{shape = [512 : i32]}> : (tensor<1x512xsi32, #ttnn_layout>) -> tensor<512xsi32, #ttnn_layout4> loc(#loc4)
        "ttnn.deallocate"(%arg0) <{force = false}> : (tensor<1x512xsi32, #ttnn_layout>) -> () loc(#loc4)
        %3 = "ttnn.typecast"(%2) <{dtype = #ttcore.supportedDataTypes<u32>}> : (tensor<512xsi32, #ttnn_layout4>) -> tensor<512xui32, #ttnn_layout5> loc(#loc6)
        "ttnn.deallocate"(%2) <{force = false}> : (tensor<512xsi32, #ttnn_layout4>) -> () loc(#loc6)
        %4 = "ttnn.from_device"(%3) : (tensor<512xui32, #ttnn_layout5>) -> tensor<512xui32, #ttnn_layout6> loc(#loc6)
        "ttnn.deallocate"(%3) <{force = false}> : (tensor<512xui32, #ttnn_layout5>) -> () loc(#loc6)
        %5 = "ttnn.to_layout"(%4) <{layout = #ttnn.layout<row_major>}> : (tensor<512xui32, #ttnn_layout6>) -> tensor<512xui32, #ttnn_layout7> loc(#loc6)
        "ttnn.deallocate"(%4) <{force = false}> : (tensor<512xui32, #ttnn_layout6>) -> () loc(#loc6)
        %6 = "ttnn.to_device"(%5, %0) <{memory_config = #ttnn.memory_config<#dram, <interleaved>>}> : (tensor<512xui32, #ttnn_layout7>, !ttnn.device) -> tensor<512xui32, #ttnn_layout8> loc(#loc6)
        "ttnn.deallocate"(%5) <{force = false}> : (tensor<512xui32, #ttnn_layout7>) -> () loc(#loc6)
        %7 = "ttnn.typecast"(%1) <{dtype = #ttcore.supportedDataTypes<bf16>}> : (tensor<151665x2560x!ttcore.tile<32x32, bfp_bf8>, #ttnn_layout3>) -> tensor<151665x2560xbf16, #ttnn_layout1> loc(#loc6)
        "ttnn.deallocate"(%1) <{force = false}> : (tensor<151665x2560x!ttcore.tile<32x32, bfp_bf8>, #ttnn_layout3>) -> () loc(#loc6)
        %8 = "ttnn.embedding"(%6, %7) : (tensor<512xui32, #ttnn_layout8>, tensor<151665x2560xbf16, #ttnn_layout1>) -> tensor<512x2560xbf16, #ttnn_layout9> loc(#loc3)
        "ttnn.deallocate"(%7) <{force = false}> : (tensor<151665x2560xbf16, #ttnn_layout1>) -> () loc(#loc3)
        "ttnn.deallocate"(%6) <{force = false}> : (tensor<512xui32, #ttnn_layout8>) -> () loc(#loc3)
        %9 = "ttnn.typecast"(%8) <{dtype = #ttcore.supportedDataTypes<bfp_bf8>}> : (tensor<512x2560xbf16, #ttnn_layout9>) -> tensor<512x2560x!ttcore.tile<32x32, bfp_bf8>, #ttnn_layout10> loc(#loc6)
        "ttnn.deallocate"(%8) <{force = false}> : (tensor<512x2560xbf16, #ttnn_layout9>) -> () loc(#loc6)
        %10 = "ttnn.typecast"(%9) <{dtype = #ttcore.supportedDataTypes<bf16>}> : (tensor<512x2560x!ttcore.tile<32x32, bfp_bf8>, #ttnn_layout10>) -> tensor<512x2560xbf16, #ttnn_layout9> loc(#loc5)
        "ttnn.deallocate"(%9) <{force = false}> : (tensor<512x2560x!ttcore.tile<32x32, bfp_bf8>, #ttnn_layout10>) -> () loc(#loc5)
        %11 = "ttnn.reshape"(%10) <{shape = [1 : i32, 512 : i32, 2560 : i32]}> : (tensor<512x2560xbf16, #ttnn_layout9>) -> tensor<1x512x2560xbf16, #ttnn_layout2> loc(#loc5)
        "ttnn.deallocate"(%10) <{force = false}> : (tensor<512x2560xbf16, #ttnn_layout9>) -> () loc(#loc5)
        return %11 : tensor<1x512x2560xbf16, #ttnn_layout2> loc(#loc)
      } loc(#loc)
    } loc(#loc)
  } loc(#loc)
} loc(#loc)
#loc = loc(unknown)
#loc3 = loc("gather.4")
#loc4 = loc("reshape.2")
#loc5 = loc("reshape.5")
#loc6 = loc("gather.4_workaround"(#loc3))
[32m            RuntimeTTNN[0m | [1m[38;5;69m    INFO[0m | Executing operation: %0 = "ttnn.get_device"() <{mesh_offset = #ttnn<mesh_offset 0x0>, mesh_shape = #ttnn<mesh_shape 1x1>}> : () -> !ttnn.device loc("gather.4_workaround"("gather.4"))
[32m            RuntimeTTNN[0m | [1m[38;5;69m    INFO[0m | KCM DRAM View - Banks: 12 Size: 1023 MB TotalBytesAllocatedPerBank: 61 MB FreePerBank: 962 MB ContiguousFreePerBank: 900 MB
[32m            RuntimeTTNN[0m | [1m[38;5;69m    INFO[0m | Executing operation: %1 = "ttnn.typecast"(%arg1) <{dtype = #ttcore.supportedDataTypes<bfp_bf8>}> : (tensor<151665x2560xbf16, #ttnn.ttnn_layout<(d0, d1) -> (d0, d1), <1x1>, memref<4740x80x!ttcore.tile<32x32, bf16>, #ttnn.buffer_type<dram>>, <interleaved>>>) -> tensor<151665x2560x!ttcore.tile<32x32, bfp_bf8>, #ttnn.ttnn_layout<(d0, d1) -> (d0, d1), <1x1>, memref<4740x80x!ttcore.tile<32x32, bfp_bf8>, #ttnn.buffer_type<dram>>, <interleaved>>> loc("gather.4")
[32m            RuntimeTTNN[0m | [1m[38;5;69m    INFO[0m | KCM DRAM View - Banks: 12 Size: 1023 MB TotalBytesAllocatedPerBank: 61 MB FreePerBank: 962 MB ContiguousFreePerBank: 900 MB
[32m            RuntimeTTNN[0m | [1m[38;5;69m    INFO[0m | Executing operation: "ttnn.deallocate"(%arg1) <{force = false}> : (tensor<151665x2560xbf16, #ttnn.ttnn_layout<(d0, d1) -> (d0, d1), <1x1>, memref<4740x80x!ttcore.tile<32x32, bf16>, #ttnn.buffer_type<dram>>, <interleaved>>>) -> () loc("gather.4")
[32m            RuntimeTTNN[0m | [1m[38;5;69m    INFO[0m | KCM DRAM View - Banks: 12 Size: 1023 MB TotalBytesAllocatedPerBank: 94 MB FreePerBank: 929 MB ContiguousFreePerBank: 900 MB
[32m            RuntimeTTNN[0m | [1m[38;5;69m    INFO[0m | Executing operation: %2 = "ttnn.reshape"(%arg0) <{shape = [512 : i32]}> : (tensor<1x512xsi32, #ttnn.ttnn_layout<(d0, d1) -> (d0, d1), <1x1>, memref<1x16x!ttcore.tile<32x32, si32>, #ttnn.buffer_type<dram>>, <interleaved>>>) -> tensor<512xsi32, #ttnn.ttnn_layout<(d0) -> (0, d0), <1x1>, memref<1x16x!ttcore.tile<32x32, si32>, #ttnn.buffer_type<dram>>, <interleaved>>> loc("reshape.2")
[32m            RuntimeTTNN[0m | [1m[38;5;69m    INFO[0m | KCM DRAM View - Banks: 12 Size: 1023 MB TotalBytesAllocatedPerBank: 94 MB FreePerBank: 929 MB ContiguousFreePerBank: 900 MB
[32m            RuntimeTTNN[0m | [1m[38;5;69m    INFO[0m | Executing operation: "ttnn.deallocate"(%arg0) <{force = false}> : (tensor<1x512xsi32, #ttnn.ttnn_layout<(d0, d1) -> (d0, d1), <1x1>, memref<1x16x!ttcore.tile<32x32, si32>, #ttnn.buffer_type<dram>>, <interleaved>>>) -> () loc("reshape.2")
[32m            RuntimeTTNN[0m | [1m[38;5;69m    INFO[0m | KCM DRAM View - Banks: 12 Size: 1023 MB TotalBytesAllocatedPerBank: 94 MB FreePerBank: 929 MB ContiguousFreePerBank: 900 MB
[32m            RuntimeTTNN[0m | [1m[38;5;69m    INFO[0m | Executing operation: %3 = "ttnn.typecast"(%2) <{dtype = #ttcore.supportedDataTypes<u32>}> : (tensor<512xsi32, #ttnn.ttnn_layout<(d0) -> (0, d0), <1x1>, memref<1x16x!ttcore.tile<32x32, si32>, #ttnn.buffer_type<dram>>, <interleaved>>>) -> tensor<512xui32, #ttnn.ttnn_layout<(d0) -> (0, d0), <1x1>, memref<1x16x!ttcore.tile<32x32, u32>, #ttnn.buffer_type<dram>>, <interleaved>>> loc("gather.4_workaround"("gather.4"))
[32m            RuntimeTTNN[0m | [1m[38;5;69m    INFO[0m | KCM DRAM View - Banks: 12 Size: 1023 MB TotalBytesAllocatedPerBank: 94 MB FreePerBank: 929 MB ContiguousFreePerBank: 900 MB
[32m            RuntimeTTNN[0m | [1m[38;5;69m    INFO[0m | Executing operation: "ttnn.deallocate"(%2) <{force = false}> : (tensor<512xsi32, #ttnn.ttnn_layout<(d0) -> (0, d0), <1x1>, memref<1x16x!ttcore.tile<32x32, si32>, #ttnn.buffer_type<dram>>, <interleaved>>>) -> () loc("gather.4_workaround"("gather.4"))
[32m            RuntimeTTNN[0m | [1m[38;5;69m    INFO[0m | KCM DRAM View - Banks: 12 Size: 1023 MB TotalBytesAllocatedPerBank: 94 MB FreePerBank: 929 MB ContiguousFreePerBank: 900 MB
[32m            RuntimeTTNN[0m | [1m[38;5;69m    INFO[0m | Executing operation: %4 = "ttnn.from_device"(%3) : (tensor<512xui32, #ttnn.ttnn_layout<(d0) -> (0, d0), <1x1>, memref<1x16x!ttcore.tile<32x32, u32>, #ttnn.buffer_type<dram>>, <interleaved>>>) -> tensor<512xui32, #ttnn.ttnn_layout<(d0) -> (0, d0), <1x1>, memref<1x16x!ttcore.tile<32x32, u32>, #ttnn.buffer_type<system_memory>>>> loc("gather.4_workaround"("gather.4"))
[32m            RuntimeTTNN[0m | [1m[38;5;69m    INFO[0m | KCM DRAM View - Banks: 12 Size: 1023 MB TotalBytesAllocatedPerBank: 94 MB FreePerBank: 929 MB ContiguousFreePerBank: 900 MB
[32m            RuntimeTTNN[0m | [1m[38;5;69m    INFO[0m | Executing operation: "ttnn.deallocate"(%3) <{force = false}> : (tensor<512xui32, #ttnn.ttnn_layout<(d0) -> (0, d0), <1x1>, memref<1x16x!ttcore.tile<32x32, u32>, #ttnn.buffer_type<dram>>, <interleaved>>>) -> () loc("gather.4_workaround"("gather.4"))
[32m            RuntimeTTNN[0m | [1m[38;5;69m    INFO[0m | KCM DRAM View - Banks: 12 Size: 1023 MB TotalBytesAllocatedPerBank: 94 MB FreePerBank: 929 MB ContiguousFreePerBank: 900 MB
[32m            RuntimeTTNN[0m | [1m[38;5;69m    INFO[0m | Executing operation: %5 = "ttnn.to_layout"(%4) <{layout = #ttnn.layout<row_major>}> : (tensor<512xui32, #ttnn.ttnn_layout<(d0) -> (0, d0), <1x1>, memref<1x16x!ttcore.tile<32x32, u32>, #ttnn.buffer_type<system_memory>>>>) -> tensor<512xui32, #ttnn.ttnn_layout<(d0) -> (0, d0), <1x1>, memref<1x512xui32, #ttnn.buffer_type<system_memory>>>> loc("gather.4_workaround"("gather.4"))
[32m            RuntimeTTNN[0m | [1m[38;5;69m    INFO[0m | KCM DRAM View - Banks: 12 Size: 1023 MB TotalBytesAllocatedPerBank: 94 MB FreePerBank: 958 MB ContiguousFreePerBank: 900 MB
[32m            RuntimeTTNN[0m | [1m[38;5;69m    INFO[0m | Executing operation: "ttnn.deallocate"(%4) <{force = false}> : (tensor<512xui32, #ttnn.ttnn_layout<(d0) -> (0, d0), <1x1>, memref<1x16x!ttcore.tile<32x32, u32>, #ttnn.buffer_type<system_memory>>>>) -> () loc("gather.4_workaround"("gather.4"))
[32m            RuntimeTTNN[0m | [1m[38;5;69m    INFO[0m | KCM DRAM View - Banks: 12 Size: 1023 MB TotalBytesAllocatedPerBank: 94 MB FreePerBank: 958 MB ContiguousFreePerBank: 900 MB
[32m            RuntimeTTNN[0m | [1m[38;5;69m    INFO[0m | Executing operation: %6 = "ttnn.to_device"(%5, %0) <{memory_config = #ttnn.memory_config<<dram>, <interleaved>>}> : (tensor<512xui32, #ttnn.ttnn_layout<(d0) -> (0, d0), <1x1>, memref<1x512xui32, #ttnn.buffer_type<system_memory>>>>, !ttnn.device) -> tensor<512xui32, #ttnn.ttnn_layout<(d0) -> (0, d0), <1x1>, memref<1x512xui32, #ttnn.buffer_type<dram>>, <interleaved>>> loc("gather.4_workaround"("gather.4"))
[32m            RuntimeTTNN[0m | [1m[38;5;69m    INFO[0m | KCM DRAM View - Banks: 12 Size: 1023 MB TotalBytesAllocatedPerBank: 94 MB FreePerBank: 958 MB ContiguousFreePerBank: 900 MB
[32m            RuntimeTTNN[0m | [1m[38;5;69m    INFO[0m | Executing operation: "ttnn.deallocate"(%5) <{force = false}> : (tensor<512xui32, #ttnn.ttnn_layout<(d0) -> (0, d0), <1x1>, memref<1x512xui32, #ttnn.buffer_type<system_memory>>>>) -> () loc("gather.4_workaround"("gather.4"))
[32m            RuntimeTTNN[0m | [1m[38;5;69m    INFO[0m | KCM DRAM View - Banks: 12 Size: 1023 MB TotalBytesAllocatedPerBank: 94 MB FreePerBank: 929 MB ContiguousFreePerBank: 900 MB
[32m            RuntimeTTNN[0m | [1m[38;5;69m    INFO[0m | Executing operation: %7 = "ttnn.typecast"(%1) <{dtype = #ttcore.supportedDataTypes<bf16>}> : (tensor<151665x2560x!ttcore.tile<32x32, bfp_bf8>, #ttnn.ttnn_layout<(d0, d1) -> (d0, d1), <1x1>, memref<4740x80x!ttcore.tile<32x32, bfp_bf8>, #ttnn.buffer_type<dram>>, <interleaved>>>) -> tensor<151665x2560xbf16, #ttnn.ttnn_layout<(d0, d1) -> (d0, d1), <1x1>, memref<4740x80x!ttcore.tile<32x32, bf16>, #ttnn.buffer_type<dram>>, <interleaved>>> loc("gather.4_workaround"("gather.4"))
[32m            RuntimeTTNN[0m | [1m[38;5;69m    INFO[0m | KCM DRAM View - Banks: 12 Size: 1023 MB TotalBytesAllocatedPerBank: 94 MB FreePerBank: 929 MB ContiguousFreePerBank: 900 MB
[32m            RuntimeTTNN[0m | [1m[38;5;69m    INFO[0m | Executing operation: "ttnn.deallocate"(%1) <{force = false}> : (tensor<151665x2560x!ttcore.tile<32x32, bfp_bf8>, #ttnn.ttnn_layout<(d0, d1) -> (d0, d1), <1x1>, memref<4740x80x!ttcore.tile<32x32, bfp_bf8>, #ttnn.buffer_type<dram>>, <interleaved>>>) -> () loc("gather.4_workaround"("gather.4"))
[32m            RuntimeTTNN[0m | [1m[38;5;69m    INFO[0m | KCM DRAM View - Banks: 12 Size: 1023 MB TotalBytesAllocatedPerBank: 156 MB FreePerBank: 867 MB ContiguousFreePerBank: 838 MB
[32m            RuntimeTTNN[0m | [1m[38;5;69m    INFO[0m | Executing operation: %8 = "ttnn.embedding"(%6, %7) : (tensor<512xui32, #ttnn.ttnn_layout<(d0) -> (0, d0), <1x1>, memref<1x512xui32, #ttnn.buffer_type<dram>>, <interleaved>>>, tensor<151665x2560xbf16, #ttnn.ttnn_layout<(d0, d1) -> (d0, d1), <1x1>, memref<4740x80x!ttcore.tile<32x32, bf16>, #ttnn.buffer_type<dram>>, <interleaved>>>) -> tensor<512x2560xbf16, #ttnn.ttnn_layout<(d0, d1) -> (d0, d1), <1x1>, memref<16x80x!ttcore.tile<32x32, bf16>, #ttnn.buffer_type<dram>>, <interleaved>>> loc("gather.4")
[32m            RuntimeTTNN[0m | [1m[38;5;69m    INFO[0m | KCM DRAM View - Banks: 12 Size: 1023 MB TotalBytesAllocatedPerBank: 123 MB FreePerBank: 900 MB ContiguousFreePerBank: 838 MB
[32m            RuntimeTTNN[0m | [1m[38;5;69m    INFO[0m | Executing operation: "ttnn.deallocate"(%7) <{force = false}> : (tensor<151665x2560xbf16, #ttnn.ttnn_layout<(d0, d1) -> (d0, d1), <1x1>, memref<4740x80x!ttcore.tile<32x32, bf16>, #ttnn.buffer_type<dram>>, <interleaved>>>) -> () loc("gather.4")
[32m            RuntimeTTNN[0m | [1m[38;5;69m    INFO[0m | KCM DRAM View - Banks: 12 Size: 1023 MB TotalBytesAllocatedPerBank: 123 MB FreePerBank: 1677 MB ContiguousFreePerBank: 838 MB
[32m            RuntimeTTNN[0m | [1m[38;5;69m    INFO[0m | Executing operation: "ttnn.deallocate"(%6) <{force = false}> : (tensor<512xui32, #ttnn.ttnn_layout<(d0) -> (0, d0), <1x1>, memref<1x512xui32, #ttnn.buffer_type<dram>>, <interleaved>>>) -> () loc("gather.4")
[32m            RuntimeTTNN[0m | [1m[38;5;69m    INFO[0m | KCM DRAM View - Banks: 12 Size: 1023 MB TotalBytesAllocatedPerBank: 61 MB FreePerBank: 2578 MB ContiguousFreePerBank: 900 MB
[32m            RuntimeTTNN[0m | [1m[38;5;69m    INFO[0m | Executing operation: %9 = "ttnn.typecast"(%8) <{dtype = #ttcore.supportedDataTypes<bfp_bf8>}> : (tensor<512x2560xbf16, #ttnn.ttnn_layout<(d0, d1) -> (d0, d1), <1x1>, memref<16x80x!ttcore.tile<32x32, bf16>, #ttnn.buffer_type<dram>>, <interleaved>>>) -> tensor<512x2560x!ttcore.tile<32x32, bfp_bf8>, #ttnn.ttnn_layout<(d0, d1) -> (d0, d1), <1x1>, memref<16x80x!ttcore.tile<32x32, bfp_bf8>, #ttnn.buffer_type<dram>>, <interleaved>>> loc("gather.4_workaround"("gather.4"))
[32m            RuntimeTTNN[0m | [1m[38;5;69m    INFO[0m | KCM DRAM View - Banks: 12 Size: 1023 MB TotalBytesAllocatedPerBank: 61 MB FreePerBank: 2606 MB ContiguousFreePerBank: 900 MB
[32m            RuntimeTTNN[0m | [1m[38;5;69m    INFO[0m | Executing operation: "ttnn.deallocate"(%8) <{force = false}> : (tensor<512x2560xbf16, #ttnn.ttnn_layout<(d0, d1) -> (d0, d1), <1x1>, memref<16x80x!ttcore.tile<32x32, bf16>, #ttnn.buffer_type<dram>>, <interleaved>>>) -> () loc("gather.4_workaround"("gather.4"))
[32m            RuntimeTTNN[0m | [1m[38;5;69m    INFO[0m | KCM DRAM View - Banks: 12 Size: 1023 MB TotalBytesAllocatedPerBank: 62 MB FreePerBank: 2577 MB ContiguousFreePerBank: 900 MB
[32m            RuntimeTTNN[0m | [1m[38;5;69m    INFO[0m | Executing operation: %10 = "ttnn.typecast"(%9) <{dtype = #ttcore.supportedDataTypes<bf16>}> : (tensor<512x2560x!ttcore.tile<32x32, bfp_bf8>, #ttnn.ttnn_layout<(d0, d1) -> (d0, d1), <1x1>, memref<16x80x!ttcore.tile<32x32, bfp_bf8>, #ttnn.buffer_type<dram>>, <interleaved>>>) -> tensor<512x2560xbf16, #ttnn.ttnn_layout<(d0, d1) -> (d0, d1), <1x1>, memref<16x80x!ttcore.tile<32x32, bf16>, #ttnn.buffer_type<dram>>, <interleaved>>> loc("reshape.5")
[32m            RuntimeTTNN[0m | [1m[38;5;69m    INFO[0m | KCM DRAM View - Banks: 12 Size: 1023 MB TotalBytesAllocatedPerBank: 61 MB FreePerBank: 2578 MB ContiguousFreePerBank: 900 MB
[32m            RuntimeTTNN[0m | [1m[38;5;69m    INFO[0m | Executing operation: "ttnn.deallocate"(%9) <{force = false}> : (tensor<512x2560x!ttcore.tile<32x32, bfp_bf8>, #ttnn.ttnn_layout<(d0, d1) -> (d0, d1), <1x1>, memref<16x80x!ttcore.tile<32x32, bfp_bf8>, #ttnn.buffer_type<dram>>, <interleaved>>>) -> () loc("reshape.5")
[32m            RuntimeTTNN[0m | [1m[38;5;69m    INFO[0m | KCM DRAM View - Banks: 12 Size: 1023 MB TotalBytesAllocatedPerBank: 62 MB FreePerBank: 2577 MB ContiguousFreePerBank: 900 MB
[32m            RuntimeTTNN[0m | [1m[38;5;69m    INFO[0m | Executing operation: %11 = "ttnn.reshape"(%10) <{shape = [1 : i32, 512 : i32, 2560 : i32]}> : (tensor<512x2560xbf16, #ttnn.ttnn_layout<(d0, d1) -> (d0, d1), <1x1>, memref<16x80x!ttcore.tile<32x32, bf16>, #ttnn.buffer_type<dram>>, <interleaved>>>) -> tensor<1x512x2560xbf16, #ttnn.ttnn_layout<(d0, d1, d2) -> (d0 * 512 + d1, d2), <1x1>, memref<16x80x!ttcore.tile<32x32, bf16>, #ttnn.buffer_type<dram>>, <interleaved>>> loc("reshape.5")
[32m            RuntimeTTNN[0m | [1m[38;5;69m    INFO[0m | KCM DRAM View - Banks: 12 Size: 1023 MB TotalBytesAllocatedPerBank: 61 MB FreePerBank: 2639 MB ContiguousFreePerBank: 900 MB
[32m            RuntimeTTNN[0m | [1m[38;5;69m    INFO[0m | Executing operation: "ttnn.deallocate"(%10) <{force = false}> : (tensor<512x2560xbf16, #ttnn.ttnn_layout<(d0, d1) -> (d0, d1), <1x1>, memref<16x80x!ttcore.tile<32x32, bf16>, #ttnn.buffer_type<dram>>, <interleaved>>>) -> () loc("reshape.5")
[32m            RuntimeTTNN[0m | [1m[38;5;69m    INFO[0m | KCM DRAM View - Banks: 12 Size: 1023 MB TotalBytesAllocatedPerBank: 61 MB FreePerBank: 2639 MB ContiguousFreePerBank: 900 MB
[32m                 Always[0m | [1m[38;5;208m WARNING[0m | User is requesting to copy the data from a runtime tensor with data type: Int32 into buffer with expected data type: Int64, the values will be casted, this may impact the throughput and the integrity of the data.
[32m                 Always[0m | [1m[38;5;208m WARNING[0m | User is requesting to copy the data from a runtime tensor with data type: Int32 into buffer with expected data type: Int64, the values will be casted, this may impact the throughput and the integrity of the data.
[32m                 Always[0m | [1m[38;5;208m WARNING[0m | User provided a tensor of data type: Int64 which is not supported by runtime/ttnn. Casting to: Int32, this may impact throughput and the integrity of the data.
[32m                 Always[0m | [1m[38;5;208m WARNING[0m | User provided a tensor of data type: Int64 which is not supported by runtime/ttnn. Casting to: Int32, this may impact throughput and the integrity of the data.
#loc1 = loc("p0.1")
#loc2 = loc("p1.3")
module @SyncTensorsGraph.9 attributes {mhlo.cross_program_prefetches = [], mhlo.input_output_alias = [], mhlo.is_dynamic = false, mhlo.use_auto_spmd_partitioning = false} {
  vhlo.func_v1 @main(%arg0: !vhlo.tensor_v1<512x!vhlo.i64_v1> loc("p0.1"), %arg1: !vhlo.tensor_v1<513x!vhlo.i64_v1> loc("p1.3")) -> (!vhlo.tensor_v1<512x513x!vhlo.bool_v1>) {
    %0 = "vhlo.broadcast_in_dim_v1"(%arg1) <{broadcast_dimensions = #vhlo.tensor_v1<dense<1> : tensor<1xi64>>}> : (!vhlo.tensor_v1<513x!vhlo.i64_v1>) -> !vhlo.tensor_v1<512x513x!vhlo.i64_v1> loc(#loc3)
    %1 = "vhlo.broadcast_in_dim_v1"(%arg0) <{broadcast_dimensions = #vhlo.tensor_v1<dense<0> : tensor<1xi64>>}> : (!vhlo.tensor_v1<512x!vhlo.i64_v1>) -> !vhlo.tensor_v1<512x513x!vhlo.i64_v1> loc(#loc4)
    %2 = "vhlo.compare_v1"(%0, %1) <{compare_type = #vhlo<comparison_type_v1 NOTYPE>, comparison_direction = #vhlo<comparison_direction_v1 GT>}> : (!vhlo.tensor_v1<512x513x!vhlo.i64_v1>, !vhlo.tensor_v1<512x513x!vhlo.i64_v1>) -> !vhlo.tensor_v1<512x513x!vhlo.bool_v1> loc(#loc5)
    "vhlo.return_v1"(%2) : (!vhlo.tensor_v1<512x513x!vhlo.bool_v1>) -> () loc(#loc)
  } {arg_attrs = #vhlo.array_v1<[]>, res_attrs = #vhlo.array_v1<[]>, sym_visibility = #vhlo.string_v1<"">} loc(#loc)
} loc(#loc)
#loc = loc(unknown)
#loc3 = loc("broadcast.4")
#loc4 = loc("broadcast.6")
#loc5 = loc("compare.7")
#loc1 = loc("p0.1")
#loc2 = loc("p1.3")
module @SyncTensorsGraph.9 attributes {mhlo.cross_program_prefetches = [], mhlo.input_output_alias = [], mhlo.is_dynamic = false, mhlo.use_auto_spmd_partitioning = false} {
  func.func @main(%arg0: tensor<512xi64> loc("p0.1"), %arg1: tensor<513xi64> loc("p1.3")) -> tensor<512x513xi1> {
    %0 = stablehlo.broadcast_in_dim %arg1, dims = [1] : (tensor<513xi64>) -> tensor<512x513xi64> loc(#loc3)
    %1 = stablehlo.broadcast_in_dim %arg0, dims = [0] : (tensor<512xi64>) -> tensor<512x513xi64> loc(#loc4)
    %2 = stablehlo.compare  GT, %0, %1 : (tensor<512x513xi64>, tensor<512x513xi64>) -> tensor<512x513xi1> loc(#loc5)
    return %2 : tensor<512x513xi1> loc(#loc)
  } loc(#loc)
} loc(#loc)
#loc = loc(unknown)
#loc3 = loc("broadcast.4")
#loc4 = loc("broadcast.6")
#loc5 = loc("compare.7")
#loc1 = loc("p0.1")
#loc2 = loc("p1.3")
module @SyncTensorsGraph.9 attributes {mhlo.cross_program_prefetches = [], mhlo.input_output_alias = [], mhlo.is_dynamic = false, mhlo.use_auto_spmd_partitioning = false} {
  func.func @main(%arg0: tensor<512xi64> loc("p0.1"), %arg1: tensor<513xi64> loc("p1.3")) -> tensor<512x513xi1> {
    %0 = stablehlo.broadcast_in_dim %arg1, dims = [1] : (tensor<513xi64>) -> tensor<512x513xi64> loc(#loc3)
    %1 = stablehlo.broadcast_in_dim %arg0, dims = [0] : (tensor<512xi64>) -> tensor<512x513xi64> loc(#loc4)
    %2 = stablehlo.compare  GT, %0, %1 : (tensor<512x513xi64>, tensor<512x513xi64>) -> tensor<512x513xi1> loc(#loc5)
    return %2 : tensor<512x513xi1> loc(#loc)
  } loc(#loc)
} loc(#loc)
#loc = loc(unknown)
#loc3 = loc("broadcast.4")
#loc4 = loc("broadcast.6")
#loc5 = loc("compare.7")
#loc1 = loc("p0.1")
#loc2 = loc("p1.3")
module @SyncTensorsGraph.9 attributes {mhlo.cross_program_prefetches = [], mhlo.input_output_alias = [], mhlo.is_dynamic = false, mhlo.use_auto_spmd_partitioning = false} {
  sdy.mesh @mesh = <["x"=1, "y"=1]> loc(#loc)
  func.func @main(%arg0: tensor<512xi64> {ttcore.shard_status = #ttcore.shard_status<unsharded>} loc("p0.1"), %arg1: tensor<513xi64> {ttcore.shard_status = #ttcore.shard_status<unsharded>} loc("p1.3")) -> (tensor<512x513xi1> {ttcore.shard_status = #ttcore.shard_status<unsharded>}) {
    %0 = stablehlo.broadcast_in_dim %arg1, dims = [1] : (tensor<513xi64>) -> tensor<512x513xi64> loc(#loc3)
    %1 = stablehlo.broadcast_in_dim %arg0, dims = [0] : (tensor<512xi64>) -> tensor<512x513xi64> loc(#loc4)
    %2 = stablehlo.compare  GT, %0, %1 : (tensor<512x513xi64>, tensor<512x513xi64>) -> tensor<512x513xi1> loc(#loc5)
    return %2 : tensor<512x513xi1> loc(#loc)
  } loc(#loc)
} loc(#loc)
#loc = loc(unknown)
#loc3 = loc("broadcast.4")
#loc4 = loc("broadcast.6")
#loc5 = loc("compare.7")
#loc1 = loc("p0.1")
#loc2 = loc("p1.3")
module @SyncTensorsGraph.9 attributes {mhlo.cross_program_prefetches = [], mhlo.input_output_alias = [], mhlo.is_dynamic = false, mhlo.use_auto_spmd_partitioning = false, ttcore.meshes = #ttcore.meshes<[<"mesh" = 1x1>]>} {
  func.func @main(%arg0: tensor<512xi64> {ttcore.shard_status = #ttcore.shard_status<unsharded>} loc("p0.1"), %arg1: tensor<513xi64> {ttcore.shard_status = #ttcore.shard_status<unsharded>} loc("p1.3")) -> (tensor<512x513xi1> {ttcore.shard_status = #ttcore.shard_status<unsharded>}) {
    %0 = ttir.empty() : tensor<1x513xi64> loc(#loc3)
    %1 = "ttir.reshape"(%arg1, %0) <{shape = [1 : i32, 513 : i32]}> : (tensor<513xi64>, tensor<1x513xi64>) -> tensor<1x513xi64> loc(#loc3)
    %2 = ttir.empty() : tensor<512x513xi64> loc(#loc3)
    %3 = "ttir.broadcast"(%1, %2) <{broadcast_dimensions = array<i64: 512, 1>}> : (tensor<1x513xi64>, tensor<512x513xi64>) -> tensor<512x513xi64> loc(#loc3)
    %4 = ttir.empty() : tensor<512x1xi64> loc(#loc4)
    %5 = "ttir.reshape"(%arg0, %4) <{shape = [512 : i32, 1 : i32]}> : (tensor<512xi64>, tensor<512x1xi64>) -> tensor<512x1xi64> loc(#loc4)
    %6 = ttir.empty() : tensor<512x513xi64> loc(#loc4)
    %7 = "ttir.broadcast"(%5, %6) <{broadcast_dimensions = array<i64: 1, 513>}> : (tensor<512x1xi64>, tensor<512x513xi64>) -> tensor<512x513xi64> loc(#loc4)
    %8 = ttir.empty() : tensor<512x513xi1> loc(#loc5)
    %9 = "ttir.gt"(%3, %7, %8) : (tensor<512x513xi64>, tensor<512x513xi64>, tensor<512x513xi1>) -> tensor<512x513xi1> loc(#loc5)
    return %9 : tensor<512x513xi1> loc(#loc)
  } loc(#loc)
} loc(#loc)
#loc = loc(unknown)
#loc3 = loc("broadcast.4")
#loc4 = loc("broadcast.6")
#loc5 = loc("compare.7")
#dram = #ttnn.buffer_type<dram>
#loc1 = loc("p0.1")
#loc2 = loc("p1.3")
#system_desc = #ttcore.system_desc<[{role = host, target_triple = "x86_64-pc-linux"}], [{arch = <wormhole_b0>, grid = 8x8, coord_translation_offsets = 18x18, l1_size = 1499136, num_dram_channels = 12, dram_channel_size = 1073741824, noc_l1_address_align_bytes = 16, pcie_address_align_bytes = 32, noc_dram_address_align_bytes = 32, l1_unreserved_base = 100352, erisc_l1_unreserved_base = 98304, dram_unreserved_base = 32, dram_unreserved_end = 1073139712, supported_data_types = [<f32>, <f16>, <bf16>, <bfp_f8>, <bfp_bf8>, <bfp_f4>, <bfp_bf4>, <bfp_f2>, <bfp_bf2>, <u32>, <u16>, <u8>, <si32>], supported_tile_sizes = [ 4x16,  16x16,  32x16,  4x32,  16x32,  32x32], dst_register_size_tiles = 8, num_cbs = 32, num_compute_threads = 1, num_datamovement_threads = 2}], [0], [1 : i32], [ 0x0x0x0]>
#ttnn_layout = #ttnn.ttnn_layout<(d0) -> (0, d0), <1x1>, memref<1x16x!ttcore.tile<32x32, si32>, #dram>, <interleaved>>
#ttnn_layout1 = #ttnn.ttnn_layout<(d0) -> (0, d0), <1x1>, memref<1x17x!ttcore.tile<32x32, si32>, #dram>, <interleaved>>
#ttnn_layout2 = #ttnn.ttnn_layout<(d0, d1) -> (d0, d1), <1x1>, memref<16x17x!ttcore.tile<32x32, bf16>, #dram>, <interleaved>>
#ttnn_layout3 = #ttnn.ttnn_layout<(d0, d1) -> (d0, d1), <1x1>, memref<1x17x!ttcore.tile<32x32, si32>, #dram>, <interleaved>>
#ttnn_layout4 = #ttnn.ttnn_layout<(d0, d1) -> (d0, d1), <1x1>, memref<16x1x!ttcore.tile<32x32, si32>, #dram>, <interleaved>>
#ttnn_layout5 = #ttnn.ttnn_layout<(d0, d1) -> (d0, d1), <1x1>, memref<1x17x!ttcore.tile<32x32, f32>, #dram>, <interleaved>>
#ttnn_layout6 = #ttnn.ttnn_layout<(d0, d1) -> (d0, d1), <1x1>, memref<16x1x!ttcore.tile<32x32, f32>, #dram>, <interleaved>>
#ttnn_layout7 = #ttnn.ttnn_layout<(d0, d1) -> (d0, d1), <1x1>, memref<16x17x!ttcore.tile<32x32, f32>, #dram>, <interleaved>>
#ttnn_layout8 = #ttnn.ttnn_layout<(d0, d1) -> (d0, d1), <1x1>, memref<16x17x!ttcore.tile<32x32, bfp_bf8>, #dram>, <interleaved>>
module @SyncTensorsGraph.9 attributes {mhlo.cross_program_prefetches = [], mhlo.input_output_alias = [], mhlo.is_dynamic = false, mhlo.use_auto_spmd_partitioning = false, ttcore.meshes = #ttcore.meshes<[<"mesh" = 1x1>]>} {
  ttcore.device_module {
    builtin.module @SyncTensorsGraph.9 attributes {mhlo.cross_program_prefetches = [], mhlo.input_output_alias = [], mhlo.is_dynamic = false, mhlo.use_auto_spmd_partitioning = false, ttcore.meshes = #ttcore.meshes<[<"mesh" = 1x1>]>, ttcore.system_desc = #system_desc} {
      ttcore.device @default_device = <workerGrid = #ttcore.grid<8x8, (d0, d1) -> (0, d0, d1)>, l1Map = (d0, d1, d2)[s0] -> (0, d0, d1, d2 + s0), dramMap = (d0, d1, d2)[s0, s1, s2, s3, s4, s5, s6] -> (0, 0, (((d0 * s1) * (s2 * (s3 * s6)) + d1 * (s2 * (s3 * s6)) + d2) floordiv s4) mod 12, ((((d0 * s1) * (s2 * (s3 * s6)) + d1 * (s2 * (s3 * s6)) + d2) floordiv s4) floordiv 12) * s4 + ((d0 * s1) * (s2 * (s3 * s6)) + d1 * (s2 * (s3 * s6)) + d2) mod s4 + s5), meshShape = 1x1, chipIds = [0]> loc(#loc)
      func.func @main(%arg0: tensor<512xsi32, #ttnn_layout> {ttcore.shard_status = #ttcore.shard_status<unsharded>} loc("p0.1"), %arg1: tensor<513xsi32, #ttnn_layout1> {ttcore.shard_status = #ttcore.shard_status<unsharded>} loc("p1.3")) -> (tensor<512x513xbf16, #ttnn_layout2> {ttcore.shard_status = #ttcore.shard_status<unsharded>}) {
        %0 = "ttnn.reshape"(%arg1) <{shape = [1 : i32, 513 : i32]}> : (tensor<513xsi32, #ttnn_layout1>) -> tensor<1x513xsi32, #ttnn_layout3> loc(#loc3)
        "ttnn.deallocate"(%arg1) <{force = false}> : (tensor<513xsi32, #ttnn_layout1>) -> () loc(#loc3)
        %1 = "ttnn.reshape"(%arg0) <{shape = [512 : i32, 1 : i32]}> : (tensor<512xsi32, #ttnn_layout>) -> tensor<512x1xsi32, #ttnn_layout4> loc(#loc4)
        "ttnn.deallocate"(%arg0) <{force = false}> : (tensor<512xsi32, #ttnn_layout>) -> () loc(#loc4)
        %2 = "ttnn.typecast"(%0) <{dtype = #ttcore.supportedDataTypes<f32>}> : (tensor<1x513xsi32, #ttnn_layout3>) -> tensor<1x513xf32, #ttnn_layout5> loc(#loc6)
        "ttnn.deallocate"(%0) <{force = false}> : (tensor<1x513xsi32, #ttnn_layout3>) -> () loc(#loc6)
        %3 = "ttnn.typecast"(%1) <{dtype = #ttcore.supportedDataTypes<f32>}> : (tensor<512x1xsi32, #ttnn_layout4>) -> tensor<512x1xf32, #ttnn_layout6> loc(#loc6)
        "ttnn.deallocate"(%1) <{force = false}> : (tensor<512x1xsi32, #ttnn_layout4>) -> () loc(#loc6)
        %4 = "ttnn.gt"(%2, %3) <{dtype = #ttcore.supportedDataTypes<f32>}> : (tensor<1x513xf32, #ttnn_layout5>, tensor<512x1xf32, #ttnn_layout6>) -> tensor<512x513xf32, #ttnn_layout7> loc(#loc5)
        "ttnn.deallocate"(%3) <{force = false}> : (tensor<512x1xf32, #ttnn_layout6>) -> () loc(#loc5)
        "ttnn.deallocate"(%2) <{force = false}> : (tensor<1x513xf32, #ttnn_layout5>) -> () loc(#loc5)
        %5 = "ttnn.typecast"(%4) <{dtype = #ttcore.supportedDataTypes<bfp_bf8>}> : (tensor<512x513xf32, #ttnn_layout7>) -> tensor<512x513x!ttcore.tile<32x32, bfp_bf8>, #ttnn_layout8> loc(#loc6)
        "ttnn.deallocate"(%4) <{force = false}> : (tensor<512x513xf32, #ttnn_layout7>) -> () loc(#loc6)
        %6 = "ttnn.typecast"(%5) <{dtype = #ttcore.supportedDataTypes<bf16>}> : (tensor<512x513x!ttcore.tile<32x32, bfp_bf8>, #ttnn_layout8>) -> tensor<512x513xbf16, #ttnn_layout2> loc(#loc5)
        "ttnn.deallocate"(%5) <{force = false}> : (tensor<512x513x!ttcore.tile<32x32, bfp_bf8>, #ttnn_layout8>) -> () loc(#loc5)
        return %6 : tensor<512x513xbf16, #ttnn_layout2> loc(#loc)
      } loc(#loc)
    } loc(#loc)
  } loc(#loc)
} loc(#loc)
#loc = loc(unknown)
#loc3 = loc("broadcast.4")
#loc4 = loc("broadcast.6")
#loc5 = loc("compare.7")
#loc6 = loc("compare.7_workaround"(#loc5))
[32m            RuntimeTTNN[0m | [1m[38;5;69m    INFO[0m | Executing operation: %0 = "ttnn.reshape"(%arg1) <{shape = [1 : i32, 513 : i32]}> : (tensor<513xsi32, #ttnn.ttnn_layout<(d0) -> (0, d0), <1x1>, memref<1x17x!ttcore.tile<32x32, si32>, #ttnn.buffer_type<dram>>, <interleaved>>>) -> tensor<1x513xsi32, #ttnn.ttnn_layout<(d0, d1) -> (d0, d1), <1x1>, memref<1x17x!ttcore.tile<32x32, si32>, #ttnn.buffer_type<dram>>, <interleaved>>> loc("broadcast.4")
[32m            RuntimeTTNN[0m | [1m[38;5;69m    INFO[0m | KCM DRAM View - Banks: 12 Size: 1023 MB TotalBytesAllocatedPerBank: 0 MB FreePerBank: 1023 MB ContiguousFreePerBank: 1023 MB
[32m            RuntimeTTNN[0m | [1m[38;5;69m    INFO[0m | Executing operation: "ttnn.deallocate"(%arg1) <{force = false}> : (tensor<513xsi32, #ttnn.ttnn_layout<(d0) -> (0, d0), <1x1>, memref<1x17x!ttcore.tile<32x32, si32>, #ttnn.buffer_type<dram>>, <interleaved>>>) -> () loc("broadcast.4")
[32m            RuntimeTTNN[0m | [1m[38;5;69m    INFO[0m | KCM DRAM View - Banks: 12 Size: 1023 MB TotalBytesAllocatedPerBank: 0 MB FreePerBank: 1023 MB ContiguousFreePerBank: 1023 MB
[32m            RuntimeTTNN[0m | [1m[38;5;69m    INFO[0m | Executing operation: %1 = "ttnn.reshape"(%arg0) <{shape = [512 : i32, 1 : i32]}> : (tensor<512xsi32, #ttnn.ttnn_layout<(d0) -> (0, d0), <1x1>, memref<1x16x!ttcore.tile<32x32, si32>, #ttnn.buffer_type<dram>>, <interleaved>>>) -> tensor<512x1xsi32, #ttnn.ttnn_layout<(d0, d1) -> (d0, d1), <1x1>, memref<16x1x!ttcore.tile<32x32, si32>, #ttnn.buffer_type<dram>>, <interleaved>>> loc("broadcast.6")
[32m            RuntimeTTNN[0m | [1m[38;5;69m    INFO[0m | KCM DRAM View - Banks: 12 Size: 1023 MB TotalBytesAllocatedPerBank: 0 MB FreePerBank: 1023 MB ContiguousFreePerBank: 1023 MB
[32m            RuntimeTTNN[0m | [1m[38;5;69m    INFO[0m | Executing operation: "ttnn.deallocate"(%arg0) <{force = false}> : (tensor<512xsi32, #ttnn.ttnn_layout<(d0) -> (0, d0), <1x1>, memref<1x16x!ttcore.tile<32x32, si32>, #ttnn.buffer_type<dram>>, <interleaved>>>) -> () loc("broadcast.6")
[32m            RuntimeTTNN[0m | [1m[38;5;69m    INFO[0m | KCM DRAM View - Banks: 12 Size: 1023 MB TotalBytesAllocatedPerBank: 0 MB FreePerBank: 2047 MB ContiguousFreePerBank: 1023 MB
[32m            RuntimeTTNN[0m | [1m[38;5;69m    INFO[0m | Executing operation: %2 = "ttnn.typecast"(%0) <{dtype = #ttcore.supportedDataTypes<f32>}> : (tensor<1x513xsi32, #ttnn.ttnn_layout<(d0, d1) -> (d0, d1), <1x1>, memref<1x17x!ttcore.tile<32x32, si32>, #ttnn.buffer_type<dram>>, <interleaved>>>) -> tensor<1x513xf32, #ttnn.ttnn_layout<(d0, d1) -> (d0, d1), <1x1>, memref<1x17x!ttcore.tile<32x32, f32>, #ttnn.buffer_type<dram>>, <interleaved>>> loc("compare.7_workaround"("compare.7"))
[32m            RuntimeTTNN[0m | [1m[38;5;69m    INFO[0m | KCM DRAM View - Banks: 12 Size: 1023 MB TotalBytesAllocatedPerBank: 0 MB FreePerBank: 2047 MB ContiguousFreePerBank: 1023 MB
[32m            RuntimeTTNN[0m | [1m[38;5;69m    INFO[0m | Executing operation: "ttnn.deallocate"(%0) <{force = false}> : (tensor<1x513xsi32, #ttnn.ttnn_layout<(d0, d1) -> (d0, d1), <1x1>, memref<1x17x!ttcore.tile<32x32, si32>, #ttnn.buffer_type<dram>>, <interleaved>>>) -> () loc("compare.7_workaround"("compare.7"))
[32m            RuntimeTTNN[0m | [1m[38;5;69m    INFO[0m | KCM DRAM View - Banks: 12 Size: 1023 MB TotalBytesAllocatedPerBank: 0 MB FreePerBank: 1023 MB ContiguousFreePerBank: 1023 MB
[32m            RuntimeTTNN[0m | [1m[38;5;69m    INFO[0m | Executing operation: %3 = "ttnn.typecast"(%1) <{dtype = #ttcore.supportedDataTypes<f32>}> : (tensor<512x1xsi32, #ttnn.ttnn_layout<(d0, d1) -> (d0, d1), <1x1>, memref<16x1x!ttcore.tile<32x32, si32>, #ttnn.buffer_type<dram>>, <interleaved>>>) -> tensor<512x1xf32, #ttnn.ttnn_layout<(d0, d1) -> (d0, d1), <1x1>, memref<16x1x!ttcore.tile<32x32, f32>, #ttnn.buffer_type<dram>>, <interleaved>>> loc("compare.7_workaround"("compare.7"))
[32m            RuntimeTTNN[0m | [1m[38;5;69m    INFO[0m | KCM DRAM View - Banks: 12 Size: 1023 MB TotalBytesAllocatedPerBank: 0 MB FreePerBank: 1023 MB ContiguousFreePerBank: 1023 MB
[32m            RuntimeTTNN[0m | [1m[38;5;69m    INFO[0m | Executing operation: "ttnn.deallocate"(%1) <{force = false}> : (tensor<512x1xsi32, #ttnn.ttnn_layout<(d0, d1) -> (d0, d1), <1x1>, memref<16x1x!ttcore.tile<32x32, si32>, #ttnn.buffer_type<dram>>, <interleaved>>>) -> () loc("compare.7_workaround"("compare.7"))
[32m            RuntimeTTNN[0m | [1m[38;5;69m    INFO[0m | KCM DRAM View - Banks: 12 Size: 1023 MB TotalBytesAllocatedPerBank: 0 MB FreePerBank: 1023 MB ContiguousFreePerBank: 1023 MB
[32m            RuntimeTTNN[0m | [1m[38;5;69m    INFO[0m | Executing operation: %4 = "ttnn.gt"(%2, %3) <{dtype = #ttcore.supportedDataTypes<f32>}> : (tensor<1x513xf32, #ttnn.ttnn_layout<(d0, d1) -> (d0, d1), <1x1>, memref<1x17x!ttcore.tile<32x32, f32>, #ttnn.buffer_type<dram>>, <interleaved>>>, tensor<512x1xf32, #ttnn.ttnn_layout<(d0, d1) -> (d0, d1), <1x1>, memref<16x1x!ttcore.tile<32x32, f32>, #ttnn.buffer_type<dram>>, <interleaved>>>) -> tensor<512x513xf32, #ttnn.ttnn_layout<(d0, d1) -> (d0, d1), <1x1>, memref<16x17x!ttcore.tile<32x32, f32>, #ttnn.buffer_type<dram>>, <interleaved>>> loc("compare.7")
[32m            RuntimeTTNN[0m | [1m[38;5;69m    INFO[0m | KCM DRAM View - Banks: 12 Size: 1023 MB TotalBytesAllocatedPerBank: 0 MB FreePerBank: 1023 MB ContiguousFreePerBank: 1023 MB
[32m            RuntimeTTNN[0m | [1m[38;5;69m    INFO[0m | Executing operation: "ttnn.deallocate"(%3) <{force = false}> : (tensor<512x1xf32, #ttnn.ttnn_layout<(d0, d1) -> (d0, d1), <1x1>, memref<16x1x!ttcore.tile<32x32, f32>, #ttnn.buffer_type<dram>>, <interleaved>>>) -> () loc("compare.7")
[32m            RuntimeTTNN[0m | [1m[38;5;69m    INFO[0m | KCM DRAM View - Banks: 12 Size: 1023 MB TotalBytesAllocatedPerBank: 0 MB FreePerBank: 1023 MB ContiguousFreePerBank: 1023 MB
[32m            RuntimeTTNN[0m | [1m[38;5;69m    INFO[0m | Executing operation: "ttnn.deallocate"(%2) <{force = false}> : (tensor<1x513xf32, #ttnn.ttnn_layout<(d0, d1) -> (d0, d1), <1x1>, memref<1x17x!ttcore.tile<32x32, f32>, #ttnn.buffer_type<dram>>, <interleaved>>>) -> () loc("compare.7")
[32m            RuntimeTTNN[0m | [1m[38;5;69m    INFO[0m | KCM DRAM View - Banks: 12 Size: 1023 MB TotalBytesAllocatedPerBank: 0 MB FreePerBank: 1023 MB ContiguousFreePerBank: 1023 MB
[32m            RuntimeTTNN[0m | [1m[38;5;69m    INFO[0m | Executing operation: %5 = "ttnn.typecast"(%4) <{dtype = #ttcore.supportedDataTypes<bfp_bf8>}> : (tensor<512x513xf32, #ttnn.ttnn_layout<(d0, d1) -> (d0, d1), <1x1>, memref<16x17x!ttcore.tile<32x32, f32>, #ttnn.buffer_type<dram>>, <interleaved>>>) -> tensor<512x513x!ttcore.tile<32x32, bfp_bf8>, #ttnn.ttnn_layout<(d0, d1) -> (d0, d1), <1x1>, memref<16x17x!ttcore.tile<32x32, bfp_bf8>, #ttnn.buffer_type<dram>>, <interleaved>>> loc("compare.7_workaround"("compare.7"))
[32m            RuntimeTTNN[0m | [1m[38;5;69m    INFO[0m | KCM DRAM View - Banks: 12 Size: 1023 MB TotalBytesAllocatedPerBank: 0 MB FreePerBank: 1023 MB ContiguousFreePerBank: 1023 MB
[32m            RuntimeTTNN[0m | [1m[38;5;69m    INFO[0m | Executing operation: "ttnn.deallocate"(%4) <{force = false}> : (tensor<512x513xf32, #ttnn.ttnn_layout<(d0, d1) -> (d0, d1), <1x1>, memref<16x17x!ttcore.tile<32x32, f32>, #ttnn.buffer_type<dram>>, <interleaved>>>) -> () loc("compare.7_workaround"("compare.7"))
[32m            RuntimeTTNN[0m | [1m[38;5;69m    INFO[0m | KCM DRAM View - Banks: 12 Size: 1023 MB TotalBytesAllocatedPerBank: 0 MB FreePerBank: 1023 MB ContiguousFreePerBank: 1023 MB
[32m            RuntimeTTNN[0m | [1m[38;5;69m    INFO[0m | Executing operation: %6 = "ttnn.typecast"(%5) <{dtype = #ttcore.supportedDataTypes<bf16>}> : (tensor<512x513x!ttcore.tile<32x32, bfp_bf8>, #ttnn.ttnn_layout<(d0, d1) -> (d0, d1), <1x1>, memref<16x17x!ttcore.tile<32x32, bfp_bf8>, #ttnn.buffer_type<dram>>, <interleaved>>>) -> tensor<512x513xbf16, #ttnn.ttnn_layout<(d0, d1) -> (d0, d1), <1x1>, memref<16x17x!ttcore.tile<32x32, bf16>, #ttnn.buffer_type<dram>>, <interleaved>>> loc("compare.7")
[32m            RuntimeTTNN[0m | [1m[38;5;69m    INFO[0m | KCM DRAM View - Banks: 12 Size: 1023 MB TotalBytesAllocatedPerBank: 0 MB FreePerBank: 1024 MB ContiguousFreePerBank: 1023 MB
[32m            RuntimeTTNN[0m | [1m[38;5;69m    INFO[0m | Executing operation: "ttnn.deallocate"(%5) <{force = false}> : (tensor<512x513x!ttcore.tile<32x32, bfp_bf8>, #ttnn.ttnn_layout<(d0, d1) -> (d0, d1), <1x1>, memref<16x17x!ttcore.tile<32x32, bfp_bf8>, #ttnn.buffer_type<dram>>, <interleaved>>>) -> () loc("compare.7")
[32m            RuntimeTTNN[0m | [1m[38;5;69m    INFO[0m | KCM DRAM View - Banks: 12 Size: 1023 MB TotalBytesAllocatedPerBank: 0 MB FreePerBank: 1023 MB ContiguousFreePerBank: 1023 MB
[32m                 Always[0m | [1m[38;5;208m WARNING[0m | User is requesting to copy the data from a runtime tensor with data type: BFloat16 into buffer with expected data type: Bool, the values will be casted, this may impact the throughput and the integrity of the data.
inputs: tensor([[148895,  10626,  34325,   6344, 151310,  75122, 100651,  93075,  19140,
          18660,  88702, 121168, 111057,   5838,  88627,  41718, 107657,  62622,
          25814, 129529, 142137, 145833, 125894,  51312, 100240, 121109,  86024,
          24729, 143476,   4972, 114200,  14818,  97567, 100513,  29769,  59998,
          97745,  21074,  38548,  57839,  44747, 143484,  72234,  15677,  64761,
          64294, 127125, 125434, 132375,  60041,  62108,  72757,  27093, 145624,
         113646,  27782,  37963,  92349,  64084, 110768, 148343,  71215,  80659,
          98421,  74858,  50181, 104561, 116585,  27492,  92272,  33278,  33968,
          48062, 118752,  53209,  73243, 101372,  29264,  17908, 133741,  45656,
         110110,    890,  17482, 140775, 137390, 115094, 119952, 114807, 122864,
          60593,  98963,  97228, 136909,  85642,  90593, 127527,  78590,  51334,
          41754,  93698,  48362,  69810,  71463,  90785,  31870,  30838, 137287,
         150502, 106110, 113851, 114557, 138313, 103151, 143905,  17286,  40418,
         121768, 127061,  91777,  72389,  53224,  21595, 141427,  22406,  10408,
         112190, 150097, 118212,  89769,  54679, 101979, 136041,  58846,  28534,
         121081,   2651, 149287, 118887,  43480,  22661, 147531,  84031,   4948,
         104989,    130, 147129,  19815,  11771,  16461, 138185,  80032, 137855,
         109579,  47542,  76499,  82630,  44351, 107884, 132201,  30472,  93675,
          18668,  11825, 127731,   4308, 122590, 118193, 119470,  30434,  90397,
          71197, 135658,  36266, 101021, 127591,  70745, 149433,  53018, 119955,
         120097,   1333, 149753,  84631, 135831, 127213,  68704,  73188, 123668,
         139827,  77031,  65437, 111993,  75744,  76405,  89431, 147601,   4895,
         150066,  99063, 109198,  35899,  61374, 131973, 123728,  73533, 144940,
         146811,  61665,  18667,  66441,  97977,  50888,  59524, 125101,  13416,
          47834,  59730,  91124,  20622, 133569,  87322, 111544, 144370,  41148,
          26290,  41348,  49186,  15514, 141732,  28291,  58157,  58367, 144250,
          49283,  37440,  43894,  56537,  74735,   4407,  44557, 108096, 144516,
         142470,   7168,  54648, 100156, 127027, 120980,  67314, 122153,  93768,
          92020,  75829,  71110,  45020,   2943, 111635, 126603, 114740, 148618,
          98771, 146589,  45592,   2503,  58708,  32779,  44734,   7706,  94484,
          33588,   4322,  83153,  54542,  80640, 120247,  67670,  86151,   2250,
         120948, 119263,    200,  62588, 103382, 144382, 138809, 127831,  91935,
         112210,   4119,  23607,  85169, 108366,  12703,  60746,  73206,  56771,
          74376,  34741,  78160, 122405,  35530, 126598, 119819,  40740, 145607,
          64149,  91458, 142417, 147493,   6029,  61635,  91337, 142884,  87211,
          64815,  91871, 144643,   1324,  54258,  29590, 101779,  96644, 113195,
         105860, 121514,  67822, 137102,  88544, 144375, 124336,  43806, 117764,
          76775,  93606,  45825,  66564,  21635,   7229, 135774,  39419,  66501,
           1296,   5546,  72584, 103462,  89568, 126418, 122678,  40768,  29283,
          65160,  53982,  29634, 142545,  72213,   7315,    428, 116794,  10032,
          93064,  28413,   9346,  94837, 118132,  71980, 122969,  80263,  96448,
          97976,  43560, 122177, 101037, 143176, 144461,  11447,  24628,  20170,
          27649, 112966, 116707,  77615,  57712,  35470,  79330,  92996,  53203,
         146459,  32207,   4918,  31601, 136834,   5832, 150023,  16603, 123826,
          83906, 141031, 141385, 147305, 145404,  89631,  69252,  89402,   3330,
         129564, 135623,  19810, 147519,  18575, 106693,  81952,  55147,  34705,
            538, 137059,  71482,  40585,  48239,  42347,  38878,  78095,  22491,
          98549,  43659,  56952,   7508,  72522, 135878,  23140,  71511,   6412,
         122662, 140254, 121892,  73266, 127113, 145364, 104656, 109257,  88069,
          86085, 149290, 118472,  75766,   2289, 149951,  48089, 113054,  22416,
         122657, 138181,  98795,  79890, 121199,  57043,  40745,  68938, 143313,
          86146,  54606, 102176,  92593, 116883, 142440,  55467, 127697,  16220,
          22935,  10028,  48180,  34893,  86950,  11141, 120333,   6438,  37314,
           5268,  64556,    488, 133918,  67658, 127580,  94618, 101483,  65204,
          83392, 140107,  81052, 112779,  83944, 113716,  55023,  54745,   2104,
          59060,  76817,  16862,  24592,  95909, 148414,  61830, 113171,  78226,
          33262,   4870,  47611,  89527, 144141, 125168, 115863,   7113]],
       dtype=torch.int32)
inputs.shape: torch.Size([1, 512])
self.tokenizer.vocab_size: 151643
Neither required_atol, or relative_atol is provided. Setting required_atol=0.01.
[MODEL NAME] pytorch_qwen_3_embedding_embedding_4b_nlp_embed_gen_huggingface
Note: Using experimental XLA backend.
After all passes
opcode         name                           target                         args                                                                kwargs
-------------  -----------------------------  -----------------------------  ------------------------------------------------------------------  --------
get_attr       l__self___embed_tokens_weight  L__self___embed_tokens.weight  ()                                                                  {}
get_attr       _fx_const_folded_attrs_0       _FX_CONST_FOLDED_ATTRS.0       ()                                                                  {}
get_attr       _fx_const_folded_attrs_1       _FX_CONST_FOLDED_ATTRS.1       ()                                                                  {}
placeholder    args_0                         args_0                         ()                                                                  {}
call_function  embedding                      aten.embedding.default         (l__self___embed_tokens_weight, args_0)                             {}
output         output                         output                         ((embedding, _fx_const_folded_attrs_0, _fx_const_folded_attrs_1),)  {}
Note: Using experimental XLA backend.
After all passes
opcode         name                      target                    args                               kwargs
-------------  ------------------------  ------------------------  ---------------------------------  --------
get_attr       _fx_const_folded_attrs_0  _FX_CONST_FOLDED_ATTRS.0  ()                                 {}
get_attr       _fx_const_folded_attrs_1  _FX_CONST_FOLDED_ATTRS.1  ()                                 {}
placeholder    args_0                    args_0                    ()                                 {}
call_function  view                      aten.view.default         (args_0, [-1, 1])                  {}
call_function  gt                        aten.gt.Tensor            (_fx_const_folded_attrs_0, view)   {}
output         output                    output                    ((_fx_const_folded_attrs_1, gt),)  {}
Note: Using experimental XLA backend.
After all passes
opcode         name                                                                          target                                                                        args                                                                      kwargs
-------------  ----------------------------------------------------------------------------  ----------------------------------------------------------------------------  ------------------------------------------------------------------------  ------------------------------------------
get_attr       l__self___layers__modules__0___input_layernorm_weight                         L__self___layers__modules__0___input_layernorm_weight                         ()                                                                        {}
get_attr       l__self___layers__modules__0___self_attn_q_norm_weight                        L__self___layers__modules__0___self_attn_q_norm_weight                        ()                                                                        {}
get_attr       l__self___layers__modules__0___self_attn_k_norm_weight                        L__self___layers__modules__0___self_attn_k_norm_weight                        ()                                                                        {}
get_attr       l__self___layers__modules__0___post_attention_layernorm_weight                L__self___layers__modules__0___post_attention_layernorm_weight                ()                                                                        {}
get_attr       l__self___norm_weight                                                         L__self___norm_weight                                                         ()                                                                        {}
get_attr       _fx_const_folded_attrs_0                                                      _FX_CONST_FOLDED_ATTRS.0                                                      ()                                                                        {}
get_attr       _fx_const_folded_attrs_1                                                      _FX_CONST_FOLDED_ATTRS.1                                                      ()                                                                        {}
get_attr       _fx_const_folded_attrs_2                                                      _FX_CONST_FOLDED_ATTRS.2                                                      ()                                                                        {}
get_attr       _fx_const_folded_attrs_3                                                      _FX_CONST_FOLDED_ATTRS.3                                                      ()                                                                        {}
get_attr       _fx_const_folded_attrs_4                                                      _FX_CONST_FOLDED_ATTRS.4                                                      ()                                                                        {}
get_attr       _fx_const_folded_attrs_5                                                      _FX_CONST_FOLDED_ATTRS.5                                                      ()                                                                        {}
get_attr       _fx_const_folded_attrs_6                                                      _FX_CONST_FOLDED_ATTRS.6                                                      ()                                                                        {}
get_attr       _fx_const_folded_attrs_7                                                      _FX_CONST_FOLDED_ATTRS.7                                                      ()                                                                        {}
get_attr       const_subgraph_module_l__self___layers__modules__0___self_attn_q_proj_weight  const_subgraph_module.L__self___layers__modules__0___self_attn_q_proj.weight  ()                                                                        {}
get_attr       const_subgraph_module_l__self___layers__modules__0___self_attn_k_proj_weight  const_subgraph_module.L__self___layers__modules__0___self_attn_k_proj.weight  ()                                                                        {}
get_attr       const_subgraph_module_l__self___layers__modules__0___self_attn_v_proj_weight  const_subgraph_module.L__self___layers__modules__0___self_attn_v_proj.weight  ()                                                                        {}
get_attr       const_subgraph_module_l__self___layers__modules__0___self_attn_o_proj_weight  const_subgraph_module.L__self___layers__modules__0___self_attn_o_proj.weight  ()                                                                        {}
get_attr       const_subgraph_module_l__self___layers__modules__0___mlp_gate_proj_weight     const_subgraph_module.L__self___layers__modules__0___mlp_gate_proj.weight     ()                                                                        {}
get_attr       const_subgraph_module_l__self___layers__modules__0___mlp_up_proj_weight       const_subgraph_module.L__self___layers__modules__0___mlp_up_proj.weight       ()                                                                        {}
get_attr       const_subgraph_module_l__self___layers__modules__0___mlp_down_proj_weight     const_subgraph_module.L__self___layers__modules__0___mlp_down_proj.weight     ()                                                                        {}
get_attr       const_subgraph_module_l__self___rotary_emb_inv_freq                           const_subgraph_module.L__self___rotary_emb_inv_freq                           ()                                                                        {}
placeholder    args_0                                                                        args_0                                                                        ()                                                                        {}
placeholder    args_1                                                                        args_1                                                                        ()                                                                        {}
placeholder    args_2                                                                        args_2                                                                        ()                                                                        {}
call_function  slice_1                                                                       aten.slice.Tensor                                                             (args_2, 0, 0, 9223372036854775807)                                       {}
call_function  unsqueeze                                                                     aten.unsqueeze.default                                                        (slice_1, 1)                                                              {}
call_function  slice_2                                                                       aten.slice.Tensor                                                             (unsqueeze, 2, 0, 9223372036854775807)                                    {}
call_function  expand                                                                        aten.expand.default                                                           (slice_2, [1, 1, 512])                                                    {}
call_function  view                                                                          aten.view.default                                                             (expand, [1, 1, 512])                                                     {}
call_function  bmm                                                                           aten.bmm.default                                                              (_fx_const_folded_attrs_0, view)                                          {}
call_function  view_1                                                                        aten.view.default                                                             (bmm, [1, 64, 512])                                                       {}
call_function  permute                                                                       aten.permute.default                                                          (view_1, [0, 2, 1])                                                       {}
call_function  cat                                                                           aten.cat.default                                                              ([permute, permute], -1)                                                  {}
call_function  cos                                                                           aten.cos.default                                                              (cat,)                                                                    {}
call_function  mul                                                                           aten.mul.Tensor                                                               (cos, 1.0)                                                                {}
call_function  sin                                                                           aten.sin.default                                                              (cat,)                                                                    {}
call_function  mul_1                                                                         aten.mul.Tensor                                                               (sin, 1.0)                                                                {}
call_function  pow_1                                                                         aten.pow.Tensor_Scalar                                                        (args_1, 2)                                                               {}
call_function  mean                                                                          aten.mean.dim                                                                 (pow_1, [-1], True)                                                       {}
call_function  add                                                                           aten.add.Tensor                                                               (mean, 1e-06)                                                             {}
call_function  rsqrt                                                                         aten.rsqrt.default                                                            (add,)                                                                    {}
call_function  mul_2                                                                         aten.mul.Tensor                                                               (args_1, rsqrt)                                                           {}
call_function  mul_3                                                                         aten.mul.Tensor                                                               (l__self___layers__modules__0___input_layernorm_weight, mul_2)            {}
call_function  view_2                                                                        aten.view.default                                                             (mul_3, [512, 2560])                                                      {}
call_function  mm                                                                            aten.mm.default                                                               (view_2, _fx_const_folded_attrs_1)                                        {}
call_function  view_3                                                                        aten.view.default                                                             (mm, [1, 512, 4096])                                                      {}
call_function  view_4                                                                        aten.view.default                                                             (view_3, [1, 512, -1, 128])                                               {}
call_function  pow_2                                                                         aten.pow.Tensor_Scalar                                                        (view_4, 2)                                                               {}
call_function  mean_1                                                                        aten.mean.dim                                                                 (pow_2, [-1], True)                                                       {}
call_function  add_1                                                                         aten.add.Tensor                                                               (mean_1, 1e-06)                                                           {}
call_function  rsqrt_1                                                                       aten.rsqrt.default                                                            (add_1,)                                                                  {}
call_function  mul_4                                                                         aten.mul.Tensor                                                               (view_4, rsqrt_1)                                                         {}
call_function  mul_5                                                                         aten.mul.Tensor                                                               (l__self___layers__modules__0___self_attn_q_norm_weight, mul_4)           {}
call_function  permute_1                                                                     aten.permute.default                                                          (mul_5, [0, 2, 1, 3])                                                     {}
call_function  view_5                                                                        aten.view.default                                                             (mul_3, [512, 2560])                                                      {}
call_function  mm_1                                                                          aten.mm.default                                                               (view_5, _fx_const_folded_attrs_2)                                        {}
call_function  view_6                                                                        aten.view.default                                                             (mm_1, [1, 512, 1024])                                                    {}
call_function  view_7                                                                        aten.view.default                                                             (view_6, [1, 512, -1, 128])                                               {}
call_function  pow_3                                                                         aten.pow.Tensor_Scalar                                                        (view_7, 2)                                                               {}
call_function  mean_2                                                                        aten.mean.dim                                                                 (pow_3, [-1], True)                                                       {}
call_function  add_2                                                                         aten.add.Tensor                                                               (mean_2, 1e-06)                                                           {}
call_function  rsqrt_2                                                                       aten.rsqrt.default                                                            (add_2,)                                                                  {}
call_function  mul_6                                                                         aten.mul.Tensor                                                               (view_7, rsqrt_2)                                                         {}
call_function  mul_7                                                                         aten.mul.Tensor                                                               (l__self___layers__modules__0___self_attn_k_norm_weight, mul_6)           {}
call_function  permute_2                                                                     aten.permute.default                                                          (mul_7, [0, 2, 1, 3])                                                     {}
call_function  view_8                                                                        aten.view.default                                                             (mul_3, [512, 2560])                                                      {}
call_function  mm_2                                                                          aten.mm.default                                                               (view_8, _fx_const_folded_attrs_3)                                        {}
call_function  view_9                                                                        aten.view.default                                                             (mm_2, [1, 512, 1024])                                                    {}
call_function  view_10                                                                       aten.view.default                                                             (view_9, [1, 512, -1, 128])                                               {}
call_function  permute_3                                                                     aten.permute.default                                                          (view_10, [0, 2, 1, 3])                                                   {}
call_function  unsqueeze_1                                                                   aten.unsqueeze.default                                                        (mul, 1)                                                                  {}
call_function  unsqueeze_2                                                                   aten.unsqueeze.default                                                        (mul_1, 1)                                                                {}
call_function  mul_8                                                                         aten.mul.Tensor                                                               (permute_1, unsqueeze_1)                                                  {}
call_function  slice_3                                                                       aten.slice.Tensor                                                             (permute_1, 3, 0, 64)                                                     {}
call_function  slice_4                                                                       aten.slice.Tensor                                                             (permute_1, 3, 64, 9223372036854775807)                                   {}
call_function  neg                                                                           aten.neg.default                                                              (slice_4,)                                                                {}
call_function  cat_1                                                                         aten.cat.default                                                              ([neg, slice_3], -1)                                                      {}
call_function  mul_9                                                                         aten.mul.Tensor                                                               (cat_1, unsqueeze_2)                                                      {}
call_function  add_3                                                                         aten.add.Tensor                                                               (mul_8, mul_9)                                                            {}
call_function  mul_10                                                                        aten.mul.Tensor                                                               (permute_2, unsqueeze_1)                                                  {}
call_function  slice_5                                                                       aten.slice.Tensor                                                             (permute_2, 3, 0, 64)                                                     {}
call_function  slice_6                                                                       aten.slice.Tensor                                                             (permute_2, 3, 64, 9223372036854775807)                                   {}
call_function  neg_1                                                                         aten.neg.default                                                              (slice_6,)                                                                {}
call_function  cat_2                                                                         aten.cat.default                                                              ([neg_1, slice_5], -1)                                                    {}
call_function  mul_11                                                                        aten.mul.Tensor                                                               (cat_2, unsqueeze_2)                                                      {}
call_function  add_4                                                                         aten.add.Tensor                                                               (mul_10, mul_11)                                                          {}
call_function  slice_7                                                                       aten.slice.Tensor                                                             (add_4, 0, 0, 9223372036854775807)                                        {}
call_function  slice_8                                                                       aten.slice.Tensor                                                             (slice_7, 1, 0, 9223372036854775807)                                      {}
call_function  unsqueeze_3                                                                   aten.unsqueeze.default                                                        (slice_8, 2)                                                              {}
call_function  slice_9                                                                       aten.slice.Tensor                                                             (unsqueeze_3, 3, 0, 9223372036854775807)                                  {}
call_function  slice_10                                                                      aten.slice.Tensor                                                             (slice_9, 4, 0, 9223372036854775807)                                      {}
call_function  expand_1                                                                      aten.expand.default                                                           (slice_10, [1, 8, 4, 512, 128])                                           {}
call_function  clone                                                                         aten.clone.default                                                            (expand_1,)                                                               {'memory_format': torch.contiguous_format}
call_function  view_11                                                                       aten.view.default                                                             (clone, [1, 32, 512, 128])                                                {}
call_function  slice_11                                                                      aten.slice.Tensor                                                             (permute_3, 0, 0, 9223372036854775807)                                    {}
call_function  slice_12                                                                      aten.slice.Tensor                                                             (slice_11, 1, 0, 9223372036854775807)                                     {}
call_function  unsqueeze_4                                                                   aten.unsqueeze.default                                                        (slice_12, 2)                                                             {}
call_function  slice_13                                                                      aten.slice.Tensor                                                             (unsqueeze_4, 3, 0, 9223372036854775807)                                  {}
call_function  slice_14                                                                      aten.slice.Tensor                                                             (slice_13, 4, 0, 9223372036854775807)                                     {}
call_function  expand_2                                                                      aten.expand.default                                                           (slice_14, [1, 8, 4, 512, 128])                                           {}
call_function  clone_1                                                                       aten.clone.default                                                            (expand_2,)                                                               {'memory_format': torch.contiguous_format}
call_function  view_12                                                                       aten.view.default                                                             (clone_1, [1, 32, 512, 128])                                              {}
call_function  permute_4                                                                     aten.permute.default                                                          (view_11, [0, 1, 3, 2])                                                   {}
call_function  expand_3                                                                      aten.expand.default                                                           (add_3, [1, 32, 512, 128])                                                {}
call_function  view_13                                                                       aten.view.default                                                             (expand_3, [32, 512, 128])                                                {}
call_function  expand_4                                                                      aten.expand.default                                                           (permute_4, [1, 32, 128, 512])                                            {}
call_function  view_14                                                                       aten.view.default                                                             (expand_4, [32, 128, 512])                                                {}
call_function  bmm_1                                                                         aten.bmm.default                                                              (view_13, view_14)                                                        {}
call_function  view_15                                                                       aten.view.default                                                             (bmm_1, [1, 32, 512, 512])                                                {}
call_function  mul_12                                                                        aten.mul.Tensor                                                               (view_15, 0.08838834764831845)                                            {}
call_function  slice_15                                                                      aten.slice.Tensor                                                             (args_0, 0, 0, 9223372036854775807)                                       {}
call_function  slice_16                                                                      aten.slice.Tensor                                                             (slice_15, 1, 0, 9223372036854775807)                                     {}
call_function  slice_17                                                                      aten.slice.Tensor                                                             (slice_16, 2, 0, 9223372036854775807)                                     {}
call_function  slice_18                                                                      aten.slice.Tensor                                                             (slice_17, 3, 0, 512)                                                     {}
call_function  add_5                                                                         aten.add.Tensor                                                               (mul_12, slice_18)                                                        {}
call_function  _softmax                                                                      aten._softmax.default                                                         (add_5, -1, False)                                                        {}
call_function  clone_2                                                                       aten.clone.default                                                            (_softmax,)                                                               {}
call_function  expand_5                                                                      aten.expand.default                                                           (clone_2, [1, 32, 512, 512])                                              {}
call_function  view_16                                                                       aten.view.default                                                             (expand_5, [32, 512, 512])                                                {}
call_function  expand_6                                                                      aten.expand.default                                                           (view_12, [1, 32, 512, 128])                                              {}
call_function  view_17                                                                       aten.view.default                                                             (expand_6, [32, 512, 128])                                                {}
call_function  bmm_2                                                                         aten.bmm.default                                                              (view_16, view_17)                                                        {}
call_function  view_18                                                                       aten.view.default                                                             (bmm_2, [1, 32, 512, 128])                                                {}
call_function  permute_5                                                                     aten.permute.default                                                          (view_18, [0, 2, 1, 3])                                                   {}
call_function  clone_3                                                                       aten.clone.default                                                            (permute_5,)                                                              {'memory_format': torch.contiguous_format}
call_function  view_19                                                                       aten.view.default                                                             (clone_3, [1, 512, -1])                                                   {}
call_function  view_20                                                                       aten.view.default                                                             (view_19, [512, 4096])                                                    {}
call_function  mm_3                                                                          aten.mm.default                                                               (view_20, _fx_const_folded_attrs_4)                                       {}
call_function  view_21                                                                       aten.view.default                                                             (mm_3, [1, 512, 2560])                                                    {}
call_function  add_6                                                                         aten.add.Tensor                                                               (args_1, view_21)                                                         {}
call_function  pow_4                                                                         aten.pow.Tensor_Scalar                                                        (add_6, 2)                                                                {}
call_function  mean_3                                                                        aten.mean.dim                                                                 (pow_4, [-1], True)                                                       {}
call_function  add_7                                                                         aten.add.Tensor                                                               (mean_3, 1e-06)                                                           {}
call_function  rsqrt_3                                                                       aten.rsqrt.default                                                            (add_7,)                                                                  {}
call_function  mul_13                                                                        aten.mul.Tensor                                                               (add_6, rsqrt_3)                                                          {}
call_function  mul_14                                                                        aten.mul.Tensor                                                               (l__self___layers__modules__0___post_attention_layernorm_weight, mul_13)  {}
call_function  view_22                                                                       aten.view.default                                                             (mul_14, [512, 2560])                                                     {}
call_function  mm_4                                                                          aten.mm.default                                                               (view_22, _fx_const_folded_attrs_5)                                       {}
call_function  view_23                                                                       aten.view.default                                                             (mm_4, [1, 512, 9728])                                                    {}
call_function  sigmoid                                                                       aten.sigmoid.default                                                          (view_23,)                                                                {}
call_function  mul_15                                                                        aten.mul.Tensor                                                               (view_23, sigmoid)                                                        {}
call_function  view_24                                                                       aten.view.default                                                             (mul_14, [512, 2560])                                                     {}
call_function  mm_5                                                                          aten.mm.default                                                               (view_24, _fx_const_folded_attrs_6)                                       {}
call_function  view_25                                                                       aten.view.default                                                             (mm_5, [1, 512, 9728])                                                    {}
call_function  mul_16                                                                        aten.mul.Tensor                                                               (mul_15, view_25)                                                         {}
call_function  view_26                                                                       aten.view.default                                                             (mul_16, [512, 9728])                                                     {}
call_function  mm_6                                                                          aten.mm.default                                                               (view_26, _fx_const_folded_attrs_7)                                       {}
call_function  view_27                                                                       aten.view.default                                                             (mm_6, [1, 512, 2560])                                                    {}
call_function  add_8                                                                         aten.add.Tensor                                                               (add_6, view_27)                                                          {}
call_function  pow_5                                                                         aten.pow.Tensor_Scalar                                                        (add_8, 2)                                                                {}
call_function  mean_4                                                                        aten.mean.dim                                                                 (pow_5, [-1], True)                                                       {}
call_function  add_9                                                                         aten.add.Tensor                                                               (mean_4, 1e-06)                                                           {}
call_function  rsqrt_4                                                                       aten.rsqrt.default                                                            (add_9,)                                                                  {}
call_function  mul_17                                                                        aten.mul.Tensor                                                               (add_8, rsqrt_4)                                                          {}
call_function  mul_18                                                                        aten.mul.Tensor                                                               (l__self___norm_weight, mul_17)                                           {}
output         output                                                                        output                                                                        ((mul_18,),)                                                              {}[32m                 Always[0m | [1m[38;5;208m WARNING[0m | User provided a tensor of data type: Int64 which is not supported by runtime/ttnn. Casting to: Int32, this may impact throughput and the integrity of the data.
#loc1 = loc("p0.2")
#loc2 = loc("p1.5")
#loc3 = loc("p2.6")
#loc4 = loc("p3.10")
#loc5 = loc("p4.11")
#loc6 = loc("p5.13")
#loc7 = loc("p6.15")
#loc8 = loc("p7.47")
#loc9 = loc("p8.69")
#loc10 = loc("p9.74")
#loc11 = loc("p10.77")
#loc12 = loc("p11.82")
#loc13 = loc("p12.93")
#loc14 = loc("p13.129")
#loc15 = loc("p14.170")
#loc16 = loc("p15.206")
#loc17 = loc("p16.297")
#loc18 = loc("p17.304")
#loc19 = loc("p18.344")
#loc28 = loc("reduce.24")
#loc48 = loc("reduce.183")
#loc89 = loc("reduce.106")
#loc129 = loc("reduce.244")
#loc134 = loc("reduce.253")
#loc155 = loc("reduce.278")
#loc179 = loc("reduce.325")
module @SyncTensorsGraph.349 attributes {mhlo.cross_program_prefetches = [], mhlo.input_output_alias = [], mhlo.is_dynamic = false, mhlo.use_auto_spmd_partitioning = false} {
  vhlo.func_v1 @main(%arg0: !vhlo.tensor_v1<!vhlo.f32_v1> loc("p0.2"), %arg1: !vhlo.tensor_v1<9728x2560x!vhlo.bf16_v1> loc("p1.5"), %arg2: !vhlo.tensor_v1<2560x9728x!vhlo.bf16_v1> loc("p2.6"), %arg3: !vhlo.tensor_v1<4096x2560x!vhlo.bf16_v1> loc("p3.10"), %arg4: !vhlo.tensor_v1<2560x1024x!vhlo.bf16_v1> loc("p4.11"), %arg5: !vhlo.tensor_v1<!vhlo.bf16_v1> loc("p5.13"), %arg6: !vhlo.tensor_v1<1x512x2560x!vhlo.bf16_v1> loc("p6.15"), %arg7: !vhlo.tensor_v1<2560x!vhlo.bf16_v1> loc("p7.47"), %arg8: !vhlo.tensor_v1<1x1x512x513x!vhlo.bf16_v1> loc("p8.69"), %arg9: !vhlo.tensor_v1<!vhlo.f32_v1> loc("p9.74"), %arg10: !vhlo.tensor_v1<1x512x!vhlo.i64_v1> loc("p10.77"), %arg11: !vhlo.tensor_v1<1x64x1x!vhlo.f32_v1> loc("p11.82"), %arg12: !vhlo.tensor_v1<2560x1024x!vhlo.bf16_v1> loc("p12.93"), %arg13: !vhlo.tensor_v1<128x!vhlo.bf16_v1> loc("p13.129"), %arg14: !vhlo.tensor_v1<2560x4096x!vhlo.bf16_v1> loc("p14.170"), %arg15: !vhlo.tensor_v1<128x!vhlo.bf16_v1> loc("p15.206"), %arg16: !vhlo.tensor_v1<2560x!vhlo.bf16_v1> loc("p16.297"), %arg17: !vhlo.tensor_v1<2560x9728x!vhlo.bf16_v1> loc("p17.304"), %arg18: !vhlo.tensor_v1<2560x!vhlo.bf16_v1> loc("p18.344")) -> (!vhlo.tensor_v1<1x512x2560x!vhlo.f32_v1>) {
    %0 = "vhlo.constant_v1"() <{value = #vhlo.tensor_v1<dense<3.906250e-04> : tensor<1x512xf32>>}> : () -> !vhlo.tensor_v1<1x512x!vhlo.f32_v1> loc(#loc)
    %1 = "vhlo.constant_v1"() <{value = #vhlo.tensor_v1<dense<2.000000e+00> : tensor<1x512x2560xf32>>}> : () -> !vhlo.tensor_v1<1x512x2560x!vhlo.f32_v1> loc(#loc)
    %2 = "vhlo.constant_v1"() <{value = #vhlo.tensor_v1<dense<7.812500e-03> : tensor<1x512x8xbf16>>}> : () -> !vhlo.tensor_v1<1x512x8x!vhlo.bf16_v1> loc(#loc)
    %3 = "vhlo.constant_v1"() <{value = #vhlo.tensor_v1<dense<2.000000e+00> : tensor<1x512x8x128xbf16>>}> : () -> !vhlo.tensor_v1<1x512x8x128x!vhlo.bf16_v1> loc(#loc)
    %4 = "vhlo.constant_v1"() <{value = #vhlo.tensor_v1<dense<7.812500e-03> : tensor<1x512x32xbf16>>}> : () -> !vhlo.tensor_v1<1x512x32x!vhlo.bf16_v1> loc(#loc)
    %5 = "vhlo.constant_v1"() <{value = #vhlo.tensor_v1<dense<2.000000e+00> : tensor<1x512x32x128xbf16>>}> : () -> !vhlo.tensor_v1<1x512x32x128x!vhlo.bf16_v1> loc(#loc)
    %6 = "vhlo.constant_v1"() <{value = #vhlo.tensor_v1<dense<3.910060e-04> : tensor<1x512xbf16>>}> : () -> !vhlo.tensor_v1<1x512x!vhlo.bf16_v1> loc(#loc)
    %7 = "vhlo.constant_v1"() <{value = #vhlo.tensor_v1<dense<2.000000e+00> : tensor<1x512x2560xbf16>>}> : () -> !vhlo.tensor_v1<1x512x2560x!vhlo.bf16_v1> loc(#loc)
    %8 = "vhlo.constant_v1"() <{value = #vhlo.tensor_v1<dense<0.000000e+00> : tensor<f32>>}> : () -> !vhlo.tensor_v1<!vhlo.f32_v1> loc(#loc)
    %9 = "vhlo.constant_v1"() <{value = #vhlo.tensor_v1<dense<0xFF800000> : tensor<f32>>}> : () -> !vhlo.tensor_v1<!vhlo.f32_v1> loc(#loc)
    %10 = "vhlo.constant_v1"() <{value = #vhlo.tensor_v1<dense<0.000000e+00> : tensor<bf16>>}> : () -> !vhlo.tensor_v1<!vhlo.bf16_v1> loc(#loc)
    %11 = "vhlo.convert_v1"(%arg18) : (!vhlo.tensor_v1<2560x!vhlo.bf16_v1>) -> !vhlo.tensor_v1<2560x!vhlo.f32_v1> loc(#loc20)
    %12 = "vhlo.broadcast_in_dim_v1"(%11) <{broadcast_dimensions = #vhlo.tensor_v1<dense<2> : tensor<1xi64>>}> : (!vhlo.tensor_v1<2560x!vhlo.f32_v1>) -> !vhlo.tensor_v1<1x512x2560x!vhlo.f32_v1> loc(#loc21)
    %13 = "vhlo.convert_v1"(%arg6) : (!vhlo.tensor_v1<1x512x2560x!vhlo.bf16_v1>) -> !vhlo.tensor_v1<1x512x2560x!vhlo.f32_v1> loc(#loc22)
    %14 = "vhlo.convert_v1"(%arg15) : (!vhlo.tensor_v1<128x!vhlo.bf16_v1>) -> !vhlo.tensor_v1<128x!vhlo.f32_v1> loc(#loc23)
    %15 = "vhlo.broadcast_in_dim_v1"(%14) <{broadcast_dimensions = #vhlo.tensor_v1<dense<3> : tensor<1xi64>>}> : (!vhlo.tensor_v1<128x!vhlo.f32_v1>) -> !vhlo.tensor_v1<1x512x32x128x!vhlo.f32_v1> loc(#loc24)
    %16 = "vhlo.convert_v1"(%arg7) : (!vhlo.tensor_v1<2560x!vhlo.bf16_v1>) -> !vhlo.tensor_v1<2560x!vhlo.f32_v1> loc(#loc25)
    %17 = "vhlo.broadcast_in_dim_v1"(%16) <{broadcast_dimensions = #vhlo.tensor_v1<dense<2> : tensor<1xi64>>}> : (!vhlo.tensor_v1<2560x!vhlo.f32_v1>) -> !vhlo.tensor_v1<1x512x2560x!vhlo.f32_v1> loc(#loc26)
    %18 = "vhlo.power_v1"(%arg6, %7) : (!vhlo.tensor_v1<1x512x2560x!vhlo.bf16_v1>, !vhlo.tensor_v1<1x512x2560x!vhlo.bf16_v1>) -> !vhlo.tensor_v1<1x512x2560x!vhlo.bf16_v1> loc(#loc27)
    %19 = "vhlo.reduce_v1"(%18, %10) <{dimensions = #vhlo.tensor_v1<dense<2> : tensor<1xi64>>}> ({
    ^bb0(%arg19: !vhlo.tensor_v1<!vhlo.bf16_v1> loc("reduce.24"), %arg20: !vhlo.tensor_v1<!vhlo.bf16_v1> loc("reduce.24")):
      %173 = "vhlo.add_v1"(%arg19, %arg20) : (!vhlo.tensor_v1<!vhlo.bf16_v1>, !vhlo.tensor_v1<!vhlo.bf16_v1>) -> !vhlo.tensor_v1<!vhlo.bf16_v1> loc(#loc29)
      "vhlo.return_v1"(%173) : (!vhlo.tensor_v1<!vhlo.bf16_v1>) -> () loc(#loc)
    }) : (!vhlo.tensor_v1<1x512x2560x!vhlo.bf16_v1>, !vhlo.tensor_v1<!vhlo.bf16_v1>) -> !vhlo.tensor_v1<1x512x!vhlo.bf16_v1> loc(#loc28)
    %20 = "vhlo.multiply_v1"(%19, %6) : (!vhlo.tensor_v1<1x512x!vhlo.bf16_v1>, !vhlo.tensor_v1<1x512x!vhlo.bf16_v1>) -> !vhlo.tensor_v1<1x512x!vhlo.bf16_v1> loc(#loc30)
    %21 = "vhlo.reshape_v1"(%20) : (!vhlo.tensor_v1<1x512x!vhlo.bf16_v1>) -> !vhlo.tensor_v1<1x512x1x!vhlo.bf16_v1> loc(#loc31)
    %22 = "vhlo.broadcast_in_dim_v1"(%arg5) <{broadcast_dimensions = #vhlo.tensor_v1<dense<> : tensor<0xi64>>}> : (!vhlo.tensor_v1<!vhlo.bf16_v1>) -> !vhlo.tensor_v1<1x512x1x!vhlo.bf16_v1> loc(#loc32)
    %23 = "vhlo.add_v1"(%21, %22) : (!vhlo.tensor_v1<1x512x1x!vhlo.bf16_v1>, !vhlo.tensor_v1<1x512x1x!vhlo.bf16_v1>) -> !vhlo.tensor_v1<1x512x1x!vhlo.bf16_v1> loc(#loc33)
    %24 = "vhlo.rsqrt_v2"(%23) <{result_accuracy = #vhlo.result_accuracy_v1<atol = 0.000000e+00, rtol = 0.000000e+00, ulps = 0, mode = #vhlo<result_accuracy_mode_v1 DEFAULT>>}> : (!vhlo.tensor_v1<1x512x1x!vhlo.bf16_v1>) -> !vhlo.tensor_v1<1x512x1x!vhlo.bf16_v1> loc(#loc34)
    %25 = "vhlo.convert_v1"(%24) : (!vhlo.tensor_v1<1x512x1x!vhlo.bf16_v1>) -> !vhlo.tensor_v1<1x512x1x!vhlo.f32_v1> loc(#loc35)
    %26 = "vhlo.reshape_v1"(%25) : (!vhlo.tensor_v1<1x512x1x!vhlo.f32_v1>) -> !vhlo.tensor_v1<1x512x!vhlo.f32_v1> loc(#loc36)
    %27 = "vhlo.broadcast_in_dim_v1"(%26) <{broadcast_dimensions = #vhlo.tensor_v1<dense<[0, 1]> : tensor<2xi64>>}> : (!vhlo.tensor_v1<1x512x!vhlo.f32_v1>) -> !vhlo.tensor_v1<1x512x2560x!vhlo.f32_v1> loc(#loc37)
    %28 = "vhlo.multiply_v1"(%13, %27) : (!vhlo.tensor_v1<1x512x2560x!vhlo.f32_v1>, !vhlo.tensor_v1<1x512x2560x!vhlo.f32_v1>) -> !vhlo.tensor_v1<1x512x2560x!vhlo.f32_v1> loc(#loc38)
    %29 = "vhlo.convert_v1"(%28) : (!vhlo.tensor_v1<1x512x2560x!vhlo.f32_v1>) -> !vhlo.tensor_v1<1x512x2560x!vhlo.bf16_v1> loc(#loc39)
    %30 = "vhlo.convert_v1"(%29) : (!vhlo.tensor_v1<1x512x2560x!vhlo.bf16_v1>) -> !vhlo.tensor_v1<1x512x2560x!vhlo.f32_v1> loc(#loc40)
    %31 = "vhlo.multiply_v1"(%17, %30) : (!vhlo.tensor_v1<1x512x2560x!vhlo.f32_v1>, !vhlo.tensor_v1<1x512x2560x!vhlo.f32_v1>) -> !vhlo.tensor_v1<1x512x2560x!vhlo.f32_v1> loc(#loc41)
    %32 = "vhlo.convert_v1"(%31) : (!vhlo.tensor_v1<1x512x2560x!vhlo.f32_v1>) -> !vhlo.tensor_v1<1x512x2560x!vhlo.bf16_v1> loc(#loc42)
    %33 = "vhlo.reshape_v1"(%32) : (!vhlo.tensor_v1<1x512x2560x!vhlo.bf16_v1>) -> !vhlo.tensor_v1<512x2560x!vhlo.bf16_v1> loc(#loc43)
    %34 = "vhlo.dot_general_v2"(%33, %arg14) <{accumulation_type = #vhlo.type_v1<!vhlo.none_v1>, allow_imprecise_accumulation = #vhlo.type_v1<!vhlo.none_v1>, lhs_batching_dimensions = #vhlo.tensor_v1<dense<> : tensor<0xi64>>, lhs_component_count = #vhlo.type_v1<!vhlo.none_v1>, lhs_contracting_dimensions = #vhlo.tensor_v1<dense<1> : tensor<1xi64>>, lhs_precision_type = #vhlo.type_v1<!vhlo.none_v1>, num_primitive_operations = #vhlo.type_v1<!vhlo.none_v1>, precision_config = #vhlo.array_v1<[#vhlo<precision_v1 DEFAULT>, #vhlo<precision_v1 DEFAULT>]>, rhs_batching_dimensions = #vhlo.tensor_v1<dense<> : tensor<0xi64>>, rhs_component_count = #vhlo.type_v1<!vhlo.none_v1>, rhs_contracting_dimensions = #vhlo.tensor_v1<dense<0> : tensor<1xi64>>, rhs_precision_type = #vhlo.type_v1<!vhlo.none_v1>}> : (!vhlo.tensor_v1<512x2560x!vhlo.bf16_v1>, !vhlo.tensor_v1<2560x4096x!vhlo.bf16_v1>) -> !vhlo.tensor_v1<512x4096x!vhlo.bf16_v1> loc(#loc44)
    %35 = "vhlo.reshape_v1"(%34) : (!vhlo.tensor_v1<512x4096x!vhlo.bf16_v1>) -> !vhlo.tensor_v1<1x512x32x128x!vhlo.bf16_v1> loc(#loc45)
    %36 = "vhlo.convert_v1"(%35) : (!vhlo.tensor_v1<1x512x32x128x!vhlo.bf16_v1>) -> !vhlo.tensor_v1<1x512x32x128x!vhlo.f32_v1> loc(#loc46)
    %37 = "vhlo.power_v1"(%35, %5) : (!vhlo.tensor_v1<1x512x32x128x!vhlo.bf16_v1>, !vhlo.tensor_v1<1x512x32x128x!vhlo.bf16_v1>) -> !vhlo.tensor_v1<1x512x32x128x!vhlo.bf16_v1> loc(#loc47)
    %38 = "vhlo.reduce_v1"(%37, %10) <{dimensions = #vhlo.tensor_v1<dense<3> : tensor<1xi64>>}> ({
    ^bb0(%arg19: !vhlo.tensor_v1<!vhlo.bf16_v1> loc("reduce.183"), %arg20: !vhlo.tensor_v1<!vhlo.bf16_v1> loc("reduce.183")):
      %173 = "vhlo.add_v1"(%arg19, %arg20) : (!vhlo.tensor_v1<!vhlo.bf16_v1>, !vhlo.tensor_v1<!vhlo.bf16_v1>) -> !vhlo.tensor_v1<!vhlo.bf16_v1> loc(#loc49)
      "vhlo.return_v1"(%173) : (!vhlo.tensor_v1<!vhlo.bf16_v1>) -> () loc(#loc)
    }) : (!vhlo.tensor_v1<1x512x32x128x!vhlo.bf16_v1>, !vhlo.tensor_v1<!vhlo.bf16_v1>) -> !vhlo.tensor_v1<1x512x32x!vhlo.bf16_v1> loc(#loc48)
    %39 = "vhlo.multiply_v1"(%38, %4) : (!vhlo.tensor_v1<1x512x32x!vhlo.bf16_v1>, !vhlo.tensor_v1<1x512x32x!vhlo.bf16_v1>) -> !vhlo.tensor_v1<1x512x32x!vhlo.bf16_v1> loc(#loc50)
    %40 = "vhlo.reshape_v1"(%39) : (!vhlo.tensor_v1<1x512x32x!vhlo.bf16_v1>) -> !vhlo.tensor_v1<1x512x32x1x!vhlo.bf16_v1> loc(#loc51)
    %41 = "vhlo.broadcast_in_dim_v1"(%arg5) <{broadcast_dimensions = #vhlo.tensor_v1<dense<> : tensor<0xi64>>}> : (!vhlo.tensor_v1<!vhlo.bf16_v1>) -> !vhlo.tensor_v1<1x512x32x1x!vhlo.bf16_v1> loc(#loc52)
    %42 = "vhlo.add_v1"(%40, %41) : (!vhlo.tensor_v1<1x512x32x1x!vhlo.bf16_v1>, !vhlo.tensor_v1<1x512x32x1x!vhlo.bf16_v1>) -> !vhlo.tensor_v1<1x512x32x1x!vhlo.bf16_v1> loc(#loc53)
    %43 = "vhlo.rsqrt_v2"(%42) <{result_accuracy = #vhlo.result_accuracy_v1<atol = 0.000000e+00, rtol = 0.000000e+00, ulps = 0, mode = #vhlo<result_accuracy_mode_v1 DEFAULT>>}> : (!vhlo.tensor_v1<1x512x32x1x!vhlo.bf16_v1>) -> !vhlo.tensor_v1<1x512x32x1x!vhlo.bf16_v1> loc(#loc54)
    %44 = "vhlo.convert_v1"(%43) : (!vhlo.tensor_v1<1x512x32x1x!vhlo.bf16_v1>) -> !vhlo.tensor_v1<1x512x32x1x!vhlo.f32_v1> loc(#loc55)
    %45 = "vhlo.reshape_v1"(%44) : (!vhlo.tensor_v1<1x512x32x1x!vhlo.f32_v1>) -> !vhlo.tensor_v1<1x512x32x!vhlo.f32_v1> loc(#loc56)
    %46 = "vhlo.broadcast_in_dim_v1"(%45) <{broadcast_dimensions = #vhlo.tensor_v1<dense<[0, 1, 2]> : tensor<3xi64>>}> : (!vhlo.tensor_v1<1x512x32x!vhlo.f32_v1>) -> !vhlo.tensor_v1<1x512x32x128x!vhlo.f32_v1> loc(#loc57)
    %47 = "vhlo.multiply_v1"(%36, %46) : (!vhlo.tensor_v1<1x512x32x128x!vhlo.f32_v1>, !vhlo.tensor_v1<1x512x32x128x!vhlo.f32_v1>) -> !vhlo.tensor_v1<1x512x32x128x!vhlo.f32_v1> loc(#loc58)
    %48 = "vhlo.convert_v1"(%47) : (!vhlo.tensor_v1<1x512x32x128x!vhlo.f32_v1>) -> !vhlo.tensor_v1<1x512x32x128x!vhlo.bf16_v1> loc(#loc59)
    %49 = "vhlo.convert_v1"(%48) : (!vhlo.tensor_v1<1x512x32x128x!vhlo.bf16_v1>) -> !vhlo.tensor_v1<1x512x32x128x!vhlo.f32_v1> loc(#loc60)
    %50 = "vhlo.multiply_v1"(%15, %49) : (!vhlo.tensor_v1<1x512x32x128x!vhlo.f32_v1>, !vhlo.tensor_v1<1x512x32x128x!vhlo.f32_v1>) -> !vhlo.tensor_v1<1x512x32x128x!vhlo.f32_v1> loc(#loc61)
    %51 = "vhlo.convert_v1"(%50) : (!vhlo.tensor_v1<1x512x32x128x!vhlo.f32_v1>) -> !vhlo.tensor_v1<1x512x32x128x!vhlo.bf16_v1> loc(#loc62)
    %52 = "vhlo.transpose_v1"(%51) <{permutation = #vhlo.tensor_v1<dense<[0, 2, 1, 3]> : tensor<4xi64>>}> {result_layout = #vhlo.tensor_v1<dense<[3, 1, 2, 0]> : tensor<4xindex>>, xla_shape = #vhlo.string_v1<"bf16[1,32,512,128]{3,1,2,0}">} : (!vhlo.tensor_v1<1x512x32x128x!vhlo.bf16_v1>) -> !vhlo.tensor_v1<1x32x512x128x!vhlo.bf16_v1> loc(#loc63)
    %53 = "vhlo.convert_v1"(%52) {result_layout = #vhlo.tensor_v1<dense<[3, 1, 2, 0]> : tensor<4xindex>>, xla_shape = #vhlo.string_v1<"f32[1,32,512,128]{3,1,2,0}">} : (!vhlo.tensor_v1<1x32x512x128x!vhlo.bf16_v1>) -> !vhlo.tensor_v1<1x32x512x128x!vhlo.f32_v1> loc(#loc64)
    %54 = "vhlo.reshape_v1"(%arg10) : (!vhlo.tensor_v1<1x512x!vhlo.i64_v1>) -> !vhlo.tensor_v1<1x1x512x!vhlo.i64_v1> loc(#loc65)
    %55 = "vhlo.convert_v1"(%54) : (!vhlo.tensor_v1<1x1x512x!vhlo.i64_v1>) -> !vhlo.tensor_v1<1x1x512x!vhlo.f32_v1> loc(#loc66)
    %56 = "vhlo.dot_general_v2"(%arg11, %55) <{accumulation_type = #vhlo.type_v1<!vhlo.none_v1>, allow_imprecise_accumulation = #vhlo.type_v1<!vhlo.none_v1>, lhs_batching_dimensions = #vhlo.tensor_v1<dense<0> : tensor<1xi64>>, lhs_component_count = #vhlo.type_v1<!vhlo.none_v1>, lhs_contracting_dimensions = #vhlo.tensor_v1<dense<2> : tensor<1xi64>>, lhs_precision_type = #vhlo.type_v1<!vhlo.none_v1>, num_primitive_operations = #vhlo.type_v1<!vhlo.none_v1>, precision_config = #vhlo.array_v1<[#vhlo<precision_v1 DEFAULT>, #vhlo<precision_v1 DEFAULT>]>, rhs_batching_dimensions = #vhlo.tensor_v1<dense<0> : tensor<1xi64>>, rhs_component_count = #vhlo.type_v1<!vhlo.none_v1>, rhs_contracting_dimensions = #vhlo.tensor_v1<dense<1> : tensor<1xi64>>, rhs_precision_type = #vhlo.type_v1<!vhlo.none_v1>}> : (!vhlo.tensor_v1<1x64x1x!vhlo.f32_v1>, !vhlo.tensor_v1<1x1x512x!vhlo.f32_v1>) -> !vhlo.tensor_v1<1x64x512x!vhlo.f32_v1> loc(#loc67)
    %57 = "vhlo.transpose_v1"(%56) <{permutation = #vhlo.tensor_v1<dense<[0, 2, 1]> : tensor<3xi64>>}> {result_layout = #vhlo.tensor_v1<dense<[1, 2, 0]> : tensor<3xindex>>, xla_shape = #vhlo.string_v1<"f32[1,512,64]{1,2,0}">} : (!vhlo.tensor_v1<1x64x512x!vhlo.f32_v1>) -> !vhlo.tensor_v1<1x512x64x!vhlo.f32_v1> loc(#loc68)
    %58 = "vhlo.concatenate_v1"(%57, %57) <{dimension = #vhlo.integer_v1<2 : i64>}> : (!vhlo.tensor_v1<1x512x64x!vhlo.f32_v1>, !vhlo.tensor_v1<1x512x64x!vhlo.f32_v1>) -> !vhlo.tensor_v1<1x512x128x!vhlo.f32_v1> loc(#loc69)
    %59 = "vhlo.cosine_v2"(%58) <{result_accuracy = #vhlo.result_accuracy_v1<atol = 0.000000e+00, rtol = 0.000000e+00, ulps = 0, mode = #vhlo<result_accuracy_mode_v1 DEFAULT>>}> : (!vhlo.tensor_v1<1x512x128x!vhlo.f32_v1>) -> !vhlo.tensor_v1<1x512x128x!vhlo.f32_v1> loc(#loc70)
    %60 = "vhlo.broadcast_in_dim_v1"(%59) <{broadcast_dimensions = #vhlo.tensor_v1<dense<[0, 2, 3]> : tensor<3xi64>>}> : (!vhlo.tensor_v1<1x512x128x!vhlo.f32_v1>) -> !vhlo.tensor_v1<1x32x512x128x!vhlo.f32_v1> loc(#loc71)
    %61 = "vhlo.multiply_v1"(%53, %60) : (!vhlo.tensor_v1<1x32x512x128x!vhlo.f32_v1>, !vhlo.tensor_v1<1x32x512x128x!vhlo.f32_v1>) -> !vhlo.tensor_v1<1x32x512x128x!vhlo.f32_v1> loc(#loc72)
    %62 = "vhlo.slice_v1"(%52) <{limit_indices = #vhlo.tensor_v1<dense<[1, 32, 512, 128]> : tensor<4xi64>>, start_indices = #vhlo.tensor_v1<dense<[0, 0, 0, 64]> : tensor<4xi64>>, strides = #vhlo.tensor_v1<dense<1> : tensor<4xi64>>}> : (!vhlo.tensor_v1<1x32x512x128x!vhlo.bf16_v1>) -> !vhlo.tensor_v1<1x32x512x64x!vhlo.bf16_v1> loc(#loc73)
    %63 = "vhlo.negate_v1"(%62) : (!vhlo.tensor_v1<1x32x512x64x!vhlo.bf16_v1>) -> !vhlo.tensor_v1<1x32x512x64x!vhlo.bf16_v1> loc(#loc74)
    %64 = "vhlo.slice_v1"(%52) <{limit_indices = #vhlo.tensor_v1<dense<[1, 32, 512, 64]> : tensor<4xi64>>, start_indices = #vhlo.tensor_v1<dense<0> : tensor<4xi64>>, strides = #vhlo.tensor_v1<dense<1> : tensor<4xi64>>}> : (!vhlo.tensor_v1<1x32x512x128x!vhlo.bf16_v1>) -> !vhlo.tensor_v1<1x32x512x64x!vhlo.bf16_v1> loc(#loc75)
    %65 = "vhlo.concatenate_v1"(%63, %64) <{dimension = #vhlo.integer_v1<3 : i64>}> : (!vhlo.tensor_v1<1x32x512x64x!vhlo.bf16_v1>, !vhlo.tensor_v1<1x32x512x64x!vhlo.bf16_v1>) -> !vhlo.tensor_v1<1x32x512x128x!vhlo.bf16_v1> loc(#loc76)
    %66 = "vhlo.convert_v1"(%65) : (!vhlo.tensor_v1<1x32x512x128x!vhlo.bf16_v1>) -> !vhlo.tensor_v1<1x32x512x128x!vhlo.f32_v1> loc(#loc77)
    %67 = "vhlo.sine_v2"(%58) <{result_accuracy = #vhlo.result_accuracy_v1<atol = 0.000000e+00, rtol = 0.000000e+00, ulps = 0, mode = #vhlo<result_accuracy_mode_v1 DEFAULT>>}> : (!vhlo.tensor_v1<1x512x128x!vhlo.f32_v1>) -> !vhlo.tensor_v1<1x512x128x!vhlo.f32_v1> loc(#loc78)
    %68 = "vhlo.broadcast_in_dim_v1"(%67) <{broadcast_dimensions = #vhlo.tensor_v1<dense<[0, 2, 3]> : tensor<3xi64>>}> : (!vhlo.tensor_v1<1x512x128x!vhlo.f32_v1>) -> !vhlo.tensor_v1<1x32x512x128x!vhlo.f32_v1> loc(#loc79)
    %69 = "vhlo.multiply_v1"(%66, %68) : (!vhlo.tensor_v1<1x32x512x128x!vhlo.f32_v1>, !vhlo.tensor_v1<1x32x512x128x!vhlo.f32_v1>) -> !vhlo.tensor_v1<1x32x512x128x!vhlo.f32_v1> loc(#loc80)
    %70 = "vhlo.add_v1"(%61, %69) : (!vhlo.tensor_v1<1x32x512x128x!vhlo.f32_v1>, !vhlo.tensor_v1<1x32x512x128x!vhlo.f32_v1>) -> !vhlo.tensor_v1<1x32x512x128x!vhlo.f32_v1> loc(#loc81)
    %71 = "vhlo.reshape_v1"(%70) : (!vhlo.tensor_v1<1x32x512x128x!vhlo.f32_v1>) -> !vhlo.tensor_v1<32x512x128x!vhlo.f32_v1> loc(#loc82)
    %72 = "vhlo.convert_v1"(%arg13) : (!vhlo.tensor_v1<128x!vhlo.bf16_v1>) -> !vhlo.tensor_v1<128x!vhlo.f32_v1> loc(#loc83)
    %73 = "vhlo.broadcast_in_dim_v1"(%72) <{broadcast_dimensions = #vhlo.tensor_v1<dense<3> : tensor<1xi64>>}> : (!vhlo.tensor_v1<128x!vhlo.f32_v1>) -> !vhlo.tensor_v1<1x512x8x128x!vhlo.f32_v1> loc(#loc84)
    %74 = "vhlo.dot_general_v2"(%33, %arg12) <{accumulation_type = #vhlo.type_v1<!vhlo.none_v1>, allow_imprecise_accumulation = #vhlo.type_v1<!vhlo.none_v1>, lhs_batching_dimensions = #vhlo.tensor_v1<dense<> : tensor<0xi64>>, lhs_component_count = #vhlo.type_v1<!vhlo.none_v1>, lhs_contracting_dimensions = #vhlo.tensor_v1<dense<1> : tensor<1xi64>>, lhs_precision_type = #vhlo.type_v1<!vhlo.none_v1>, num_primitive_operations = #vhlo.type_v1<!vhlo.none_v1>, precision_config = #vhlo.array_v1<[#vhlo<precision_v1 DEFAULT>, #vhlo<precision_v1 DEFAULT>]>, rhs_batching_dimensions = #vhlo.tensor_v1<dense<> : tensor<0xi64>>, rhs_component_count = #vhlo.type_v1<!vhlo.none_v1>, rhs_contracting_dimensions = #vhlo.tensor_v1<dense<0> : tensor<1xi64>>, rhs_precision_type = #vhlo.type_v1<!vhlo.none_v1>}> : (!vhlo.tensor_v1<512x2560x!vhlo.bf16_v1>, !vhlo.tensor_v1<2560x1024x!vhlo.bf16_v1>) -> !vhlo.tensor_v1<512x1024x!vhlo.bf16_v1> loc(#loc85)
    %75 = "vhlo.reshape_v1"(%74) : (!vhlo.tensor_v1<512x1024x!vhlo.bf16_v1>) -> !vhlo.tensor_v1<1x512x8x128x!vhlo.bf16_v1> loc(#loc86)
    %76 = "vhlo.convert_v1"(%75) : (!vhlo.tensor_v1<1x512x8x128x!vhlo.bf16_v1>) -> !vhlo.tensor_v1<1x512x8x128x!vhlo.f32_v1> loc(#loc87)
    %77 = "vhlo.power_v1"(%75, %3) : (!vhlo.tensor_v1<1x512x8x128x!vhlo.bf16_v1>, !vhlo.tensor_v1<1x512x8x128x!vhlo.bf16_v1>) -> !vhlo.tensor_v1<1x512x8x128x!vhlo.bf16_v1> loc(#loc88)
    %78 = "vhlo.reduce_v1"(%77, %10) <{dimensions = #vhlo.tensor_v1<dense<3> : tensor<1xi64>>}> ({
    ^bb0(%arg19: !vhlo.tensor_v1<!vhlo.bf16_v1> loc("reduce.106"), %arg20: !vhlo.tensor_v1<!vhlo.bf16_v1> loc("reduce.106")):
      %173 = "vhlo.add_v1"(%arg19, %arg20) : (!vhlo.tensor_v1<!vhlo.bf16_v1>, !vhlo.tensor_v1<!vhlo.bf16_v1>) -> !vhlo.tensor_v1<!vhlo.bf16_v1> loc(#loc90)
      "vhlo.return_v1"(%173) : (!vhlo.tensor_v1<!vhlo.bf16_v1>) -> () loc(#loc)
    }) : (!vhlo.tensor_v1<1x512x8x128x!vhlo.bf16_v1>, !vhlo.tensor_v1<!vhlo.bf16_v1>) -> !vhlo.tensor_v1<1x512x8x!vhlo.bf16_v1> loc(#loc89)
    %79 = "vhlo.multiply_v1"(%78, %2) : (!vhlo.tensor_v1<1x512x8x!vhlo.bf16_v1>, !vhlo.tensor_v1<1x512x8x!vhlo.bf16_v1>) -> !vhlo.tensor_v1<1x512x8x!vhlo.bf16_v1> loc(#loc91)
    %80 = "vhlo.reshape_v1"(%79) : (!vhlo.tensor_v1<1x512x8x!vhlo.bf16_v1>) -> !vhlo.tensor_v1<1x512x8x1x!vhlo.bf16_v1> loc(#loc92)
    %81 = "vhlo.broadcast_in_dim_v1"(%arg5) <{broadcast_dimensions = #vhlo.tensor_v1<dense<> : tensor<0xi64>>}> : (!vhlo.tensor_v1<!vhlo.bf16_v1>) -> !vhlo.tensor_v1<1x512x8x1x!vhlo.bf16_v1> loc(#loc93)
    %82 = "vhlo.add_v1"(%80, %81) : (!vhlo.tensor_v1<1x512x8x1x!vhlo.bf16_v1>, !vhlo.tensor_v1<1x512x8x1x!vhlo.bf16_v1>) -> !vhlo.tensor_v1<1x512x8x1x!vhlo.bf16_v1> loc(#loc94)
    %83 = "vhlo.rsqrt_v2"(%82) <{result_accuracy = #vhlo.result_accuracy_v1<atol = 0.000000e+00, rtol = 0.000000e+00, ulps = 0, mode = #vhlo<result_accuracy_mode_v1 DEFAULT>>}> : (!vhlo.tensor_v1<1x512x8x1x!vhlo.bf16_v1>) -> !vhlo.tensor_v1<1x512x8x1x!vhlo.bf16_v1> loc(#loc95)
    %84 = "vhlo.convert_v1"(%83) : (!vhlo.tensor_v1<1x512x8x1x!vhlo.bf16_v1>) -> !vhlo.tensor_v1<1x512x8x1x!vhlo.f32_v1> loc(#loc96)
    %85 = "vhlo.reshape_v1"(%84) : (!vhlo.tensor_v1<1x512x8x1x!vhlo.f32_v1>) -> !vhlo.tensor_v1<1x512x8x!vhlo.f32_v1> loc(#loc97)
    %86 = "vhlo.broadcast_in_dim_v1"(%85) <{broadcast_dimensions = #vhlo.tensor_v1<dense<[0, 1, 2]> : tensor<3xi64>>}> : (!vhlo.tensor_v1<1x512x8x!vhlo.f32_v1>) -> !vhlo.tensor_v1<1x512x8x128x!vhlo.f32_v1> loc(#loc98)
    %87 = "vhlo.multiply_v1"(%76, %86) : (!vhlo.tensor_v1<1x512x8x128x!vhlo.f32_v1>, !vhlo.tensor_v1<1x512x8x128x!vhlo.f32_v1>) -> !vhlo.tensor_v1<1x512x8x128x!vhlo.f32_v1> loc(#loc99)
    %88 = "vhlo.convert_v1"(%87) : (!vhlo.tensor_v1<1x512x8x128x!vhlo.f32_v1>) -> !vhlo.tensor_v1<1x512x8x128x!vhlo.bf16_v1> loc(#loc100)
    %89 = "vhlo.convert_v1"(%88) : (!vhlo.tensor_v1<1x512x8x128x!vhlo.bf16_v1>) -> !vhlo.tensor_v1<1x512x8x128x!vhlo.f32_v1> loc(#loc101)
    %90 = "vhlo.multiply_v1"(%73, %89) : (!vhlo.tensor_v1<1x512x8x128x!vhlo.f32_v1>, !vhlo.tensor_v1<1x512x8x128x!vhlo.f32_v1>) -> !vhlo.tensor_v1<1x512x8x128x!vhlo.f32_v1> loc(#loc102)
    %91 = "vhlo.convert_v1"(%90) : (!vhlo.tensor_v1<1x512x8x128x!vhlo.f32_v1>) -> !vhlo.tensor_v1<1x512x8x128x!vhlo.bf16_v1> loc(#loc103)
    %92 = "vhlo.transpose_v1"(%91) <{permutation = #vhlo.tensor_v1<dense<[0, 2, 1, 3]> : tensor<4xi64>>}> {result_layout = #vhlo.tensor_v1<dense<[3, 1, 2, 0]> : tensor<4xindex>>, xla_shape = #vhlo.string_v1<"bf16[1,8,512,128]{3,1,2,0}">} : (!vhlo.tensor_v1<1x512x8x128x!vhlo.bf16_v1>) -> !vhlo.tensor_v1<1x8x512x128x!vhlo.bf16_v1> loc(#loc104)
    %93 = "vhlo.convert_v1"(%92) {result_layout = #vhlo.tensor_v1<dense<[3, 1, 2, 0]> : tensor<4xindex>>, xla_shape = #vhlo.string_v1<"f32[1,8,512,128]{3,1,2,0}">} : (!vhlo.tensor_v1<1x8x512x128x!vhlo.bf16_v1>) -> !vhlo.tensor_v1<1x8x512x128x!vhlo.f32_v1> loc(#loc105)
    %94 = "vhlo.broadcast_in_dim_v1"(%59) <{broadcast_dimensions = #vhlo.tensor_v1<dense<[0, 2, 3]> : tensor<3xi64>>}> : (!vhlo.tensor_v1<1x512x128x!vhlo.f32_v1>) -> !vhlo.tensor_v1<1x8x512x128x!vhlo.f32_v1> loc(#loc106)
    %95 = "vhlo.multiply_v1"(%93, %94) : (!vhlo.tensor_v1<1x8x512x128x!vhlo.f32_v1>, !vhlo.tensor_v1<1x8x512x128x!vhlo.f32_v1>) -> !vhlo.tensor_v1<1x8x512x128x!vhlo.f32_v1> loc(#loc107)
    %96 = "vhlo.slice_v1"(%92) <{limit_indices = #vhlo.tensor_v1<dense<[1, 8, 512, 128]> : tensor<4xi64>>, start_indices = #vhlo.tensor_v1<dense<[0, 0, 0, 64]> : tensor<4xi64>>, strides = #vhlo.tensor_v1<dense<1> : tensor<4xi64>>}> : (!vhlo.tensor_v1<1x8x512x128x!vhlo.bf16_v1>) -> !vhlo.tensor_v1<1x8x512x64x!vhlo.bf16_v1> loc(#loc108)
    %97 = "vhlo.negate_v1"(%96) : (!vhlo.tensor_v1<1x8x512x64x!vhlo.bf16_v1>) -> !vhlo.tensor_v1<1x8x512x64x!vhlo.bf16_v1> loc(#loc109)
    %98 = "vhlo.slice_v1"(%92) <{limit_indices = #vhlo.tensor_v1<dense<[1, 8, 512, 64]> : tensor<4xi64>>, start_indices = #vhlo.tensor_v1<dense<0> : tensor<4xi64>>, strides = #vhlo.tensor_v1<dense<1> : tensor<4xi64>>}> : (!vhlo.tensor_v1<1x8x512x128x!vhlo.bf16_v1>) -> !vhlo.tensor_v1<1x8x512x64x!vhlo.bf16_v1> loc(#loc110)
    %99 = "vhlo.concatenate_v1"(%97, %98) <{dimension = #vhlo.integer_v1<3 : i64>}> : (!vhlo.tensor_v1<1x8x512x64x!vhlo.bf16_v1>, !vhlo.tensor_v1<1x8x512x64x!vhlo.bf16_v1>) -> !vhlo.tensor_v1<1x8x512x128x!vhlo.bf16_v1> loc(#loc111)
    %100 = "vhlo.convert_v1"(%99) : (!vhlo.tensor_v1<1x8x512x128x!vhlo.bf16_v1>) -> !vhlo.tensor_v1<1x8x512x128x!vhlo.f32_v1> loc(#loc112)
    %101 = "vhlo.broadcast_in_dim_v1"(%67) <{broadcast_dimensions = #vhlo.tensor_v1<dense<[0, 2, 3]> : tensor<3xi64>>}> : (!vhlo.tensor_v1<1x512x128x!vhlo.f32_v1>) -> !vhlo.tensor_v1<1x8x512x128x!vhlo.f32_v1> loc(#loc113)
    %102 = "vhlo.multiply_v1"(%100, %101) : (!vhlo.tensor_v1<1x8x512x128x!vhlo.f32_v1>, !vhlo.tensor_v1<1x8x512x128x!vhlo.f32_v1>) -> !vhlo.tensor_v1<1x8x512x128x!vhlo.f32_v1> loc(#loc114)
    %103 = "vhlo.add_v1"(%95, %102) : (!vhlo.tensor_v1<1x8x512x128x!vhlo.f32_v1>, !vhlo.tensor_v1<1x8x512x128x!vhlo.f32_v1>) -> !vhlo.tensor_v1<1x8x512x128x!vhlo.f32_v1> loc(#loc115)
    %104 = "vhlo.broadcast_in_dim_v1"(%103) <{broadcast_dimensions = #vhlo.tensor_v1<dense<[0, 1, 3, 4]> : tensor<4xi64>>}> : (!vhlo.tensor_v1<1x8x512x128x!vhlo.f32_v1>) -> !vhlo.tensor_v1<1x8x4x512x128x!vhlo.f32_v1> loc(#loc116)
    %105 = "vhlo.reshape_v1"(%104) : (!vhlo.tensor_v1<1x8x4x512x128x!vhlo.f32_v1>) -> !vhlo.tensor_v1<1x32x512x128x!vhlo.f32_v1> loc(#loc117)
    %106 = "vhlo.transpose_v1"(%105) <{permutation = #vhlo.tensor_v1<dense<[0, 1, 3, 2]> : tensor<4xi64>>}> {result_layout = #vhlo.tensor_v1<dense<[2, 3, 1, 0]> : tensor<4xindex>>, xla_shape = #vhlo.string_v1<"f32[1,32,128,512]{2,3,1,0}">} : (!vhlo.tensor_v1<1x32x512x128x!vhlo.f32_v1>) -> !vhlo.tensor_v1<1x32x128x512x!vhlo.f32_v1> loc(#loc118)
    %107 = "vhlo.reshape_v1"(%106) : (!vhlo.tensor_v1<1x32x128x512x!vhlo.f32_v1>) -> !vhlo.tensor_v1<32x128x512x!vhlo.f32_v1> loc(#loc119)
    %108 = "vhlo.dot_general_v2"(%71, %107) <{accumulation_type = #vhlo.type_v1<!vhlo.none_v1>, allow_imprecise_accumulation = #vhlo.type_v1<!vhlo.none_v1>, lhs_batching_dimensions = #vhlo.tensor_v1<dense<0> : tensor<1xi64>>, lhs_component_count = #vhlo.type_v1<!vhlo.none_v1>, lhs_contracting_dimensions = #vhlo.tensor_v1<dense<2> : tensor<1xi64>>, lhs_precision_type = #vhlo.type_v1<!vhlo.none_v1>, num_primitive_operations = #vhlo.type_v1<!vhlo.none_v1>, precision_config = #vhlo.array_v1<[#vhlo<precision_v1 DEFAULT>, #vhlo<precision_v1 DEFAULT>]>, rhs_batching_dimensions = #vhlo.tensor_v1<dense<0> : tensor<1xi64>>, rhs_component_count = #vhlo.type_v1<!vhlo.none_v1>, rhs_contracting_dimensions = #vhlo.tensor_v1<dense<1> : tensor<1xi64>>, rhs_precision_type = #vhlo.type_v1<!vhlo.none_v1>}> : (!vhlo.tensor_v1<32x512x128x!vhlo.f32_v1>, !vhlo.tensor_v1<32x128x512x!vhlo.f32_v1>) -> !vhlo.tensor_v1<32x512x512x!vhlo.f32_v1> loc(#loc120)
    %109 = "vhlo.reshape_v1"(%108) : (!vhlo.tensor_v1<32x512x512x!vhlo.f32_v1>) -> !vhlo.tensor_v1<1x32x512x512x!vhlo.f32_v1> loc(#loc121)
    %110 = "vhlo.broadcast_in_dim_v1"(%arg9) <{broadcast_dimensions = #vhlo.tensor_v1<dense<> : tensor<0xi64>>}> : (!vhlo.tensor_v1<!vhlo.f32_v1>) -> !vhlo.tensor_v1<1x32x512x512x!vhlo.f32_v1> loc(#loc122)
    %111 = "vhlo.multiply_v1"(%109, %110) : (!vhlo.tensor_v1<1x32x512x512x!vhlo.f32_v1>, !vhlo.tensor_v1<1x32x512x512x!vhlo.f32_v1>) -> !vhlo.tensor_v1<1x32x512x512x!vhlo.f32_v1> loc(#loc123)
    %112 = "vhlo.slice_v1"(%arg8) <{limit_indices = #vhlo.tensor_v1<dense<[1, 1, 512, 512]> : tensor<4xi64>>, start_indices = #vhlo.tensor_v1<dense<0> : tensor<4xi64>>, strides = #vhlo.tensor_v1<dense<1> : tensor<4xi64>>}> : (!vhlo.tensor_v1<1x1x512x513x!vhlo.bf16_v1>) -> !vhlo.tensor_v1<1x1x512x512x!vhlo.bf16_v1> loc(#loc124)
    %113 = "vhlo.convert_v1"(%112) : (!vhlo.tensor_v1<1x1x512x512x!vhlo.bf16_v1>) -> !vhlo.tensor_v1<1x1x512x512x!vhlo.f32_v1> loc(#loc125)
    %114 = "vhlo.reshape_v1"(%113) : (!vhlo.tensor_v1<1x1x512x512x!vhlo.f32_v1>) -> !vhlo.tensor_v1<1x512x512x!vhlo.f32_v1> loc(#loc126)
    %115 = "vhlo.broadcast_in_dim_v1"(%114) <{broadcast_dimensions = #vhlo.tensor_v1<dense<[0, 2, 3]> : tensor<3xi64>>}> : (!vhlo.tensor_v1<1x512x512x!vhlo.f32_v1>) -> !vhlo.tensor_v1<1x32x512x512x!vhlo.f32_v1> loc(#loc127)
    %116 = "vhlo.add_v1"(%111, %115) : (!vhlo.tensor_v1<1x32x512x512x!vhlo.f32_v1>, !vhlo.tensor_v1<1x32x512x512x!vhlo.f32_v1>) -> !vhlo.tensor_v1<1x32x512x512x!vhlo.f32_v1> loc(#loc128)
    %117 = "vhlo.reduce_v1"(%116, %9) <{dimensions = #vhlo.tensor_v1<dense<3> : tensor<1xi64>>}> ({
    ^bb0(%arg19: !vhlo.tensor_v1<!vhlo.f32_v1> loc("reduce.244"), %arg20: !vhlo.tensor_v1<!vhlo.f32_v1> loc("reduce.244")):
      %173 = "vhlo.maximum_v1"(%arg19, %arg20) : (!vhlo.tensor_v1<!vhlo.f32_v1>, !vhlo.tensor_v1<!vhlo.f32_v1>) -> !vhlo.tensor_v1<!vhlo.f32_v1> loc(#loc130)
      "vhlo.return_v1"(%173) : (!vhlo.tensor_v1<!vhlo.f32_v1>) -> () loc(#loc)
    }) : (!vhlo.tensor_v1<1x32x512x512x!vhlo.f32_v1>, !vhlo.tensor_v1<!vhlo.f32_v1>) -> !vhlo.tensor_v1<1x32x512x!vhlo.f32_v1> loc(#loc129)
    %118 = "vhlo.broadcast_in_dim_v1"(%117) <{broadcast_dimensions = #vhlo.tensor_v1<dense<[0, 1, 2]> : tensor<3xi64>>}> : (!vhlo.tensor_v1<1x32x512x!vhlo.f32_v1>) -> !vhlo.tensor_v1<1x32x512x512x!vhlo.f32_v1> loc(#loc131)
    %119 = "vhlo.subtract_v1"(%116, %118) : (!vhlo.tensor_v1<1x32x512x512x!vhlo.f32_v1>, !vhlo.tensor_v1<1x32x512x512x!vhlo.f32_v1>) -> !vhlo.tensor_v1<1x32x512x512x!vhlo.f32_v1> loc(#loc132)
    %120 = "vhlo.exponential_v2"(%119) <{result_accuracy = #vhlo.result_accuracy_v1<atol = 0.000000e+00, rtol = 0.000000e+00, ulps = 0, mode = #vhlo<result_accuracy_mode_v1 DEFAULT>>}> : (!vhlo.tensor_v1<1x32x512x512x!vhlo.f32_v1>) -> !vhlo.tensor_v1<1x32x512x512x!vhlo.f32_v1> loc(#loc133)
    %121 = "vhlo.reduce_v1"(%120, %8) <{dimensions = #vhlo.tensor_v1<dense<3> : tensor<1xi64>>}> ({
    ^bb0(%arg19: !vhlo.tensor_v1<!vhlo.f32_v1> loc("reduce.253"), %arg20: !vhlo.tensor_v1<!vhlo.f32_v1> loc("reduce.253")):
      %173 = "vhlo.add_v1"(%arg19, %arg20) : (!vhlo.tensor_v1<!vhlo.f32_v1>, !vhlo.tensor_v1<!vhlo.f32_v1>) -> !vhlo.tensor_v1<!vhlo.f32_v1> loc(#loc135)
      "vhlo.return_v1"(%173) : (!vhlo.tensor_v1<!vhlo.f32_v1>) -> () loc(#loc)
    }) : (!vhlo.tensor_v1<1x32x512x512x!vhlo.f32_v1>, !vhlo.tensor_v1<!vhlo.f32_v1>) -> !vhlo.tensor_v1<1x32x512x!vhlo.f32_v1> loc(#loc134)
    %122 = "vhlo.broadcast_in_dim_v1"(%121) <{broadcast_dimensions = #vhlo.tensor_v1<dense<[0, 1, 2]> : tensor<3xi64>>}> : (!vhlo.tensor_v1<1x32x512x!vhlo.f32_v1>) -> !vhlo.tensor_v1<1x32x512x512x!vhlo.f32_v1> loc(#loc136)
    %123 = "vhlo.divide_v1"(%120, %122) : (!vhlo.tensor_v1<1x32x512x512x!vhlo.f32_v1>, !vhlo.tensor_v1<1x32x512x512x!vhlo.f32_v1>) -> !vhlo.tensor_v1<1x32x512x512x!vhlo.f32_v1> loc(#loc137)
    %124 = "vhlo.reshape_v1"(%123) : (!vhlo.tensor_v1<1x32x512x512x!vhlo.f32_v1>) -> !vhlo.tensor_v1<32x512x512x!vhlo.f32_v1> loc(#loc138)
    %125 = "vhlo.dot_general_v2"(%33, %arg4) <{accumulation_type = #vhlo.type_v1<!vhlo.none_v1>, allow_imprecise_accumulation = #vhlo.type_v1<!vhlo.none_v1>, lhs_batching_dimensions = #vhlo.tensor_v1<dense<> : tensor<0xi64>>, lhs_component_count = #vhlo.type_v1<!vhlo.none_v1>, lhs_contracting_dimensions = #vhlo.tensor_v1<dense<1> : tensor<1xi64>>, lhs_precision_type = #vhlo.type_v1<!vhlo.none_v1>, num_primitive_operations = #vhlo.type_v1<!vhlo.none_v1>, precision_config = #vhlo.array_v1<[#vhlo<precision_v1 DEFAULT>, #vhlo<precision_v1 DEFAULT>]>, rhs_batching_dimensions = #vhlo.tensor_v1<dense<> : tensor<0xi64>>, rhs_component_count = #vhlo.type_v1<!vhlo.none_v1>, rhs_contracting_dimensions = #vhlo.tensor_v1<dense<0> : tensor<1xi64>>, rhs_precision_type = #vhlo.type_v1<!vhlo.none_v1>}> : (!vhlo.tensor_v1<512x2560x!vhlo.bf16_v1>, !vhlo.tensor_v1<2560x1024x!vhlo.bf16_v1>) -> !vhlo.tensor_v1<512x1024x!vhlo.bf16_v1> loc(#loc139)
    %126 = "vhlo.reshape_v1"(%125) : (!vhlo.tensor_v1<512x1024x!vhlo.bf16_v1>) -> !vhlo.tensor_v1<1x512x8x128x!vhlo.bf16_v1> loc(#loc140)
    %127 = "vhlo.transpose_v1"(%126) <{permutation = #vhlo.tensor_v1<dense<[0, 2, 1, 3]> : tensor<4xi64>>}> {result_layout = #vhlo.tensor_v1<dense<[3, 1, 2, 0]> : tensor<4xindex>>, xla_shape = #vhlo.string_v1<"bf16[1,8,512,128]{3,1,2,0}">} : (!vhlo.tensor_v1<1x512x8x128x!vhlo.bf16_v1>) -> !vhlo.tensor_v1<1x8x512x128x!vhlo.bf16_v1> loc(#loc141)
    %128 = "vhlo.broadcast_in_dim_v1"(%127) <{broadcast_dimensions = #vhlo.tensor_v1<dense<[0, 1, 3, 4]> : tensor<4xi64>>}> : (!vhlo.tensor_v1<1x8x512x128x!vhlo.bf16_v1>) -> !vhlo.tensor_v1<1x8x4x512x128x!vhlo.bf16_v1> loc(#loc142)
    %129 = "vhlo.reshape_v1"(%128) : (!vhlo.tensor_v1<1x8x4x512x128x!vhlo.bf16_v1>) -> !vhlo.tensor_v1<32x512x128x!vhlo.bf16_v1> loc(#loc143)
    %130 = "vhlo.convert_v1"(%129) : (!vhlo.tensor_v1<32x512x128x!vhlo.bf16_v1>) -> !vhlo.tensor_v1<32x512x128x!vhlo.f32_v1> loc(#loc144)
    %131 = "vhlo.dot_general_v2"(%124, %130) <{accumulation_type = #vhlo.type_v1<!vhlo.none_v1>, allow_imprecise_accumulation = #vhlo.type_v1<!vhlo.none_v1>, lhs_batching_dimensions = #vhlo.tensor_v1<dense<0> : tensor<1xi64>>, lhs_component_count = #vhlo.type_v1<!vhlo.none_v1>, lhs_contracting_dimensions = #vhlo.tensor_v1<dense<2> : tensor<1xi64>>, lhs_precision_type = #vhlo.type_v1<!vhlo.none_v1>, num_primitive_operations = #vhlo.type_v1<!vhlo.none_v1>, precision_config = #vhlo.array_v1<[#vhlo<precision_v1 DEFAULT>, #vhlo<precision_v1 DEFAULT>]>, rhs_batching_dimensions = #vhlo.tensor_v1<dense<0> : tensor<1xi64>>, rhs_component_count = #vhlo.type_v1<!vhlo.none_v1>, rhs_contracting_dimensions = #vhlo.tensor_v1<dense<1> : tensor<1xi64>>, rhs_precision_type = #vhlo.type_v1<!vhlo.none_v1>}> : (!vhlo.tensor_v1<32x512x512x!vhlo.f32_v1>, !vhlo.tensor_v1<32x512x128x!vhlo.f32_v1>) -> !vhlo.tensor_v1<32x512x128x!vhlo.f32_v1> loc(#loc145)
    %132 = "vhlo.reshape_v1"(%131) : (!vhlo.tensor_v1<32x512x128x!vhlo.f32_v1>) -> !vhlo.tensor_v1<1x32x512x128x!vhlo.f32_v1> loc(#loc146)
    %133 = "vhlo.transpose_v1"(%132) <{permutation = #vhlo.tensor_v1<dense<[0, 2, 1, 3]> : tensor<4xi64>>}> {result_layout = #vhlo.tensor_v1<dense<[3, 1, 2, 0]> : tensor<4xindex>>, xla_shape = #vhlo.string_v1<"f32[1,512,32,128]{3,1,2,0}">} : (!vhlo.tensor_v1<1x32x512x128x!vhlo.f32_v1>) -> !vhlo.tensor_v1<1x512x32x128x!vhlo.f32_v1> loc(#loc147)
    %134 = "vhlo.reshape_v1"(%133) : (!vhlo.tensor_v1<1x512x32x128x!vhlo.f32_v1>) -> !vhlo.tensor_v1<512x4096x!vhlo.f32_v1> loc(#loc148)
    %135 = "vhlo.dot_general_v2"(%134, %arg3) <{accumulation_type = #vhlo.type_v1<!vhlo.none_v1>, allow_imprecise_accumulation = #vhlo.type_v1<!vhlo.none_v1>, lhs_batching_dimensions = #vhlo.tensor_v1<dense<> : tensor<0xi64>>, lhs_component_count = #vhlo.type_v1<!vhlo.none_v1>, lhs_contracting_dimensions = #vhlo.tensor_v1<dense<1> : tensor<1xi64>>, lhs_precision_type = #vhlo.type_v1<!vhlo.none_v1>, num_primitive_operations = #vhlo.type_v1<!vhlo.none_v1>, precision_config = #vhlo.array_v1<[#vhlo<precision_v1 DEFAULT>, #vhlo<precision_v1 DEFAULT>]>, rhs_batching_dimensions = #vhlo.tensor_v1<dense<> : tensor<0xi64>>, rhs_component_count = #vhlo.type_v1<!vhlo.none_v1>, rhs_contracting_dimensions = #vhlo.tensor_v1<dense<0> : tensor<1xi64>>, rhs_precision_type = #vhlo.type_v1<!vhlo.none_v1>}> : (!vhlo.tensor_v1<512x4096x!vhlo.f32_v1>, !vhlo.tensor_v1<4096x2560x!vhlo.bf16_v1>) -> !vhlo.tensor_v1<512x2560x!vhlo.f32_v1> loc(#loc149)
    %136 = "vhlo.reshape_v1"(%135) : (!vhlo.tensor_v1<512x2560x!vhlo.f32_v1>) -> !vhlo.tensor_v1<1x512x2560x!vhlo.f32_v1> loc(#loc150)
    %137 = "vhlo.add_v1"(%13, %136) : (!vhlo.tensor_v1<1x512x2560x!vhlo.f32_v1>, !vhlo.tensor_v1<1x512x2560x!vhlo.f32_v1>) -> !vhlo.tensor_v1<1x512x2560x!vhlo.f32_v1> loc(#loc151)
    %138 = "vhlo.convert_v1"(%arg16) : (!vhlo.tensor_v1<2560x!vhlo.bf16_v1>) -> !vhlo.tensor_v1<2560x!vhlo.f32_v1> loc(#loc152)
    %139 = "vhlo.broadcast_in_dim_v1"(%138) <{broadcast_dimensions = #vhlo.tensor_v1<dense<2> : tensor<1xi64>>}> : (!vhlo.tensor_v1<2560x!vhlo.f32_v1>) -> !vhlo.tensor_v1<1x512x2560x!vhlo.f32_v1> loc(#loc153)
    %140 = "vhlo.power_v1"(%137, %1) : (!vhlo.tensor_v1<1x512x2560x!vhlo.f32_v1>, !vhlo.tensor_v1<1x512x2560x!vhlo.f32_v1>) -> !vhlo.tensor_v1<1x512x2560x!vhlo.f32_v1> loc(#loc154)
    %141 = "vhlo.reduce_v1"(%140, %8) <{dimensions = #vhlo.tensor_v1<dense<2> : tensor<1xi64>>}> ({
    ^bb0(%arg19: !vhlo.tensor_v1<!vhlo.f32_v1> loc("reduce.278"), %arg20: !vhlo.tensor_v1<!vhlo.f32_v1> loc("reduce.278")):
      %173 = "vhlo.add_v1"(%arg19, %arg20) : (!vhlo.tensor_v1<!vhlo.f32_v1>, !vhlo.tensor_v1<!vhlo.f32_v1>) -> !vhlo.tensor_v1<!vhlo.f32_v1> loc(#loc156)
      "vhlo.return_v1"(%173) : (!vhlo.tensor_v1<!vhlo.f32_v1>) -> () loc(#loc)
    }) : (!vhlo.tensor_v1<1x512x2560x!vhlo.f32_v1>, !vhlo.tensor_v1<!vhlo.f32_v1>) -> !vhlo.tensor_v1<1x512x!vhlo.f32_v1> loc(#loc155)
    %142 = "vhlo.multiply_v1"(%141, %0) : (!vhlo.tensor_v1<1x512x!vhlo.f32_v1>, !vhlo.tensor_v1<1x512x!vhlo.f32_v1>) -> !vhlo.tensor_v1<1x512x!vhlo.f32_v1> loc(#loc157)
    %143 = "vhlo.reshape_v1"(%142) : (!vhlo.tensor_v1<1x512x!vhlo.f32_v1>) -> !vhlo.tensor_v1<1x512x1x!vhlo.f32_v1> loc(#loc158)
    %144 = "vhlo.broadcast_in_dim_v1"(%arg0) <{broadcast_dimensions = #vhlo.tensor_v1<dense<> : tensor<0xi64>>}> : (!vhlo.tensor_v1<!vhlo.f32_v1>) -> !vhlo.tensor_v1<1x512x1x!vhlo.f32_v1> loc(#loc159)
    %145 = "vhlo.add_v1"(%143, %144) : (!vhlo.tensor_v1<1x512x1x!vhlo.f32_v1>, !vhlo.tensor_v1<1x512x1x!vhlo.f32_v1>) -> !vhlo.tensor_v1<1x512x1x!vhlo.f32_v1> loc(#loc160)
    %146 = "vhlo.rsqrt_v2"(%145) <{result_accuracy = #vhlo.result_accuracy_v1<atol = 0.000000e+00, rtol = 0.000000e+00, ulps = 0, mode = #vhlo<result_accuracy_mode_v1 DEFAULT>>}> : (!vhlo.tensor_v1<1x512x1x!vhlo.f32_v1>) -> !vhlo.tensor_v1<1x512x1x!vhlo.f32_v1> loc(#loc161)
    %147 = "vhlo.reshape_v1"(%146) : (!vhlo.tensor_v1<1x512x1x!vhlo.f32_v1>) -> !vhlo.tensor_v1<1x512x!vhlo.f32_v1> loc(#loc162)
    %148 = "vhlo.broadcast_in_dim_v1"(%147) <{broadcast_dimensions = #vhlo.tensor_v1<dense<[0, 1]> : tensor<2xi64>>}> : (!vhlo.tensor_v1<1x512x!vhlo.f32_v1>) -> !vhlo.tensor_v1<1x512x2560x!vhlo.f32_v1> loc(#loc163)
    %149 = "vhlo.multiply_v1"(%137, %148) : (!vhlo.tensor_v1<1x512x2560x!vhlo.f32_v1>, !vhlo.tensor_v1<1x512x2560x!vhlo.f32_v1>) -> !vhlo.tensor_v1<1x512x2560x!vhlo.f32_v1> loc(#loc164)
    %150 = "vhlo.multiply_v1"(%139, %149) : (!vhlo.tensor_v1<1x512x2560x!vhlo.f32_v1>, !vhlo.tensor_v1<1x512x2560x!vhlo.f32_v1>) -> !vhlo.tensor_v1<1x512x2560x!vhlo.f32_v1> loc(#loc165)
    %151 = "vhlo.reshape_v1"(%150) : (!vhlo.tensor_v1<1x512x2560x!vhlo.f32_v1>) -> !vhlo.tensor_v1<512x2560x!vhlo.f32_v1> loc(#loc166)
    %152 = "vhlo.dot_general_v2"(%151, %arg17) <{accumulation_type = #vhlo.type_v1<!vhlo.none_v1>, allow_imprecise_accumulation = #vhlo.type_v1<!vhlo.none_v1>, lhs_batching_dimensions = #vhlo.tensor_v1<dense<> : tensor<0xi64>>, lhs_component_count = #vhlo.type_v1<!vhlo.none_v1>, lhs_contracting_dimensions = #vhlo.tensor_v1<dense<1> : tensor<1xi64>>, lhs_precision_type = #vhlo.type_v1<!vhlo.none_v1>, num_primitive_operations = #vhlo.type_v1<!vhlo.none_v1>, precision_config = #vhlo.array_v1<[#vhlo<precision_v1 DEFAULT>, #vhlo<precision_v1 DEFAULT>]>, rhs_batching_dimensions = #vhlo.tensor_v1<dense<> : tensor<0xi64>>, rhs_component_count = #vhlo.type_v1<!vhlo.none_v1>, rhs_contracting_dimensions = #vhlo.tensor_v1<dense<0> : tensor<1xi64>>, rhs_precision_type = #vhlo.type_v1<!vhlo.none_v1>}> : (!vhlo.tensor_v1<512x2560x!vhlo.f32_v1>, !vhlo.tensor_v1<2560x9728x!vhlo.bf16_v1>) -> !vhlo.tensor_v1<512x9728x!vhlo.f32_v1> loc(#loc167)
    %153 = "vhlo.reshape_v1"(%152) : (!vhlo.tensor_v1<512x9728x!vhlo.f32_v1>) -> !vhlo.tensor_v1<1x512x9728x!vhlo.f32_v1> loc(#loc168)
    %154 = "vhlo.logistic_v2"(%153) <{result_accuracy = #vhlo.result_accuracy_v1<atol = 0.000000e+00, rtol = 0.000000e+00, ulps = 0, mode = #vhlo<result_accuracy_mode_v1 DEFAULT>>}> : (!vhlo.tensor_v1<1x512x9728x!vhlo.f32_v1>) -> !vhlo.tensor_v1<1x512x9728x!vhlo.f32_v1> loc(#loc169)
    %155 = "vhlo.multiply_v1"(%153, %154) : (!vhlo.tensor_v1<1x512x9728x!vhlo.f32_v1>, !vhlo.tensor_v1<1x512x9728x!vhlo.f32_v1>) -> !vhlo.tensor_v1<1x512x9728x!vhlo.f32_v1> loc(#loc170)
    %156 = "vhlo.dot_general_v2"(%151, %arg2) <{accumulation_type = #vhlo.type_v1<!vhlo.none_v1>, allow_imprecise_accumulation = #vhlo.type_v1<!vhlo.none_v1>, lhs_batching_dimensions = #vhlo.tensor_v1<dense<> : tensor<0xi64>>, lhs_component_count = #vhlo.type_v1<!vhlo.none_v1>, lhs_contracting_dimensions = #vhlo.tensor_v1<dense<1> : tensor<1xi64>>, lhs_precision_type = #vhlo.type_v1<!vhlo.none_v1>, num_primitive_operations = #vhlo.type_v1<!vhlo.none_v1>, precision_config = #vhlo.array_v1<[#vhlo<precision_v1 DEFAULT>, #vhlo<precision_v1 DEFAULT>]>, rhs_batching_dimensions = #vhlo.tensor_v1<dense<> : tensor<0xi64>>, rhs_component_count = #vhlo.type_v1<!vhlo.none_v1>, rhs_contracting_dimensions = #vhlo.tensor_v1<dense<0> : tensor<1xi64>>, rhs_precision_type = #vhlo.type_v1<!vhlo.none_v1>}> : (!vhlo.tensor_v1<512x2560x!vhlo.f32_v1>, !vhlo.tensor_v1<2560x9728x!vhlo.bf16_v1>) -> !vhlo.tensor_v1<512x9728x!vhlo.f32_v1> loc(#loc171)
    %157 = "vhlo.reshape_v1"(%156) : (!vhlo.tensor_v1<512x9728x!vhlo.f32_v1>) -> !vhlo.tensor_v1<1x512x9728x!vhlo.f32_v1> loc(#loc172)
    %158 = "vhlo.multiply_v1"(%155, %157) : (!vhlo.tensor_v1<1x512x9728x!vhlo.f32_v1>, !vhlo.tensor_v1<1x512x9728x!vhlo.f32_v1>) -> !vhlo.tensor_v1<1x512x9728x!vhlo.f32_v1> loc(#loc173)
    %159 = "vhlo.reshape_v1"(%158) : (!vhlo.tensor_v1<1x512x9728x!vhlo.f32_v1>) -> !vhlo.tensor_v1<512x9728x!vhlo.f32_v1> loc(#loc174)
    %160 = "vhlo.dot_general_v2"(%159, %arg1) <{accumulation_type = #vhlo.type_v1<!vhlo.none_v1>, allow_imprecise_accumulation = #vhlo.type_v1<!vhlo.none_v1>, lhs_batching_dimensions = #vhlo.tensor_v1<dense<> : tensor<0xi64>>, lhs_component_count = #vhlo.type_v1<!vhlo.none_v1>, lhs_contracting_dimensions = #vhlo.tensor_v1<dense<1> : tensor<1xi64>>, lhs_precision_type = #vhlo.type_v1<!vhlo.none_v1>, num_primitive_operations = #vhlo.type_v1<!vhlo.none_v1>, precision_config = #vhlo.array_v1<[#vhlo<precision_v1 DEFAULT>, #vhlo<precision_v1 DEFAULT>]>, rhs_batching_dimensions = #vhlo.tensor_v1<dense<> : tensor<0xi64>>, rhs_component_count = #vhlo.type_v1<!vhlo.none_v1>, rhs_contracting_dimensions = #vhlo.tensor_v1<dense<0> : tensor<1xi64>>, rhs_precision_type = #vhlo.type_v1<!vhlo.none_v1>}> : (!vhlo.tensor_v1<512x9728x!vhlo.f32_v1>, !vhlo.tensor_v1<9728x2560x!vhlo.bf16_v1>) -> !vhlo.tensor_v1<512x2560x!vhlo.f32_v1> loc(#loc175)
    %161 = "vhlo.reshape_v1"(%160) : (!vhlo.tensor_v1<512x2560x!vhlo.f32_v1>) -> !vhlo.tensor_v1<1x512x2560x!vhlo.f32_v1> loc(#loc176)
    %162 = "vhlo.add_v1"(%137, %161) : (!vhlo.tensor_v1<1x512x2560x!vhlo.f32_v1>, !vhlo.tensor_v1<1x512x2560x!vhlo.f32_v1>) -> !vhlo.tensor_v1<1x512x2560x!vhlo.f32_v1> loc(#loc177)
    %163 = "vhlo.power_v1"(%162, %1) : (!vhlo.tensor_v1<1x512x2560x!vhlo.f32_v1>, !vhlo.tensor_v1<1x512x2560x!vhlo.f32_v1>) -> !vhlo.tensor_v1<1x512x2560x!vhlo.f32_v1> loc(#loc178)
    %164 = "vhlo.reduce_v1"(%163, %8) <{dimensions = #vhlo.tensor_v1<dense<2> : tensor<1xi64>>}> ({
    ^bb0(%arg19: !vhlo.tensor_v1<!vhlo.f32_v1> loc("reduce.325"), %arg20: !vhlo.tensor_v1<!vhlo.f32_v1> loc("reduce.325")):
      %173 = "vhlo.add_v1"(%arg19, %arg20) : (!vhlo.tensor_v1<!vhlo.f32_v1>, !vhlo.tensor_v1<!vhlo.f32_v1>) -> !vhlo.tensor_v1<!vhlo.f32_v1> loc(#loc180)
      "vhlo.return_v1"(%173) : (!vhlo.tensor_v1<!vhlo.f32_v1>) -> () loc(#loc)
    }) : (!vhlo.tensor_v1<1x512x2560x!vhlo.f32_v1>, !vhlo.tensor_v1<!vhlo.f32_v1>) -> !vhlo.tensor_v1<1x512x!vhlo.f32_v1> loc(#loc179)
    %165 = "vhlo.multiply_v1"(%164, %0) : (!vhlo.tensor_v1<1x512x!vhlo.f32_v1>, !vhlo.tensor_v1<1x512x!vhlo.f32_v1>) -> !vhlo.tensor_v1<1x512x!vhlo.f32_v1> loc(#loc181)
    %166 = "vhlo.reshape_v1"(%165) : (!vhlo.tensor_v1<1x512x!vhlo.f32_v1>) -> !vhlo.tensor_v1<1x512x1x!vhlo.f32_v1> loc(#loc182)
    %167 = "vhlo.add_v1"(%166, %144) : (!vhlo.tensor_v1<1x512x1x!vhlo.f32_v1>, !vhlo.tensor_v1<1x512x1x!vhlo.f32_v1>) -> !vhlo.tensor_v1<1x512x1x!vhlo.f32_v1> loc(#loc183)
    %168 = "vhlo.rsqrt_v2"(%167) <{result_accuracy = #vhlo.result_accuracy_v1<atol = 0.000000e+00, rtol = 0.000000e+00, ulps = 0, mode = #vhlo<result_accuracy_mode_v1 DEFAULT>>}> : (!vhlo.tensor_v1<1x512x1x!vhlo.f32_v1>) -> !vhlo.tensor_v1<1x512x1x!vhlo.f32_v1> loc(#loc184)
    %169 = "vhlo.reshape_v1"(%168) : (!vhlo.tensor_v1<1x512x1x!vhlo.f32_v1>) -> !vhlo.tensor_v1<1x512x!vhlo.f32_v1> loc(#loc185)
    %170 = "vhlo.broadcast_in_dim_v1"(%169) <{broadcast_dimensions = #vhlo.tensor_v1<dense<[0, 1]> : tensor<2xi64>>}> : (!vhlo.tensor_v1<1x512x!vhlo.f32_v1>) -> !vhlo.tensor_v1<1x512x2560x!vhlo.f32_v1> loc(#loc186)
    %171 = "vhlo.multiply_v1"(%162, %170) : (!vhlo.tensor_v1<1x512x2560x!vhlo.f32_v1>, !vhlo.tensor_v1<1x512x2560x!vhlo.f32_v1>) -> !vhlo.tensor_v1<1x512x2560x!vhlo.f32_v1> loc(#loc187)
    %172 = "vhlo.multiply_v1"(%12, %171) : (!vhlo.tensor_v1<1x512x2560x!vhlo.f32_v1>, !vhlo.tensor_v1<1x512x2560x!vhlo.f32_v1>) -> !vhlo.tensor_v1<1x512x2560x!vhlo.f32_v1> loc(#loc188)
    "vhlo.return_v1"(%172) : (!vhlo.tensor_v1<1x512x2560x!vhlo.f32_v1>) -> () loc(#loc)
  } {arg_attrs = #vhlo.array_v1<[]>, res_attrs = #vhlo.array_v1<[]>, sym_visibility = #vhlo.string_v1<"">} loc(#loc)
} loc(#loc)
#loc = loc(unknown)
#loc20 = loc("convert.345")
#loc21 = loc("broadcast.346")
#loc22 = loc("convert.266")
#loc23 = loc("convert.207")
#loc24 = loc("broadcast.208")
#loc25 = loc("convert.48")
#loc26 = loc("broadcast.49")
#loc27 = loc("power.17")
#loc29 = loc("add.23")
#loc30 = loc("multiply.33")
#loc31 = loc("reshape.34")
#loc32 = loc("broadcast.37")
#loc33 = loc("add.38")
#loc34 = loc("rsqrt.39")
#loc35 = loc("convert.40")
#loc36 = loc("reshape.42")
#loc37 = loc("broadcast.43")
#loc38 = loc("multiply.44")
#loc39 = loc("convert.45")
#loc40 = loc("convert.46")
#loc41 = loc("multiply.50")
#loc42 = loc("convert.51")
#loc43 = loc("reshape.171")
#loc44 = loc("dot.172")
#loc45 = loc("reshape.174")
#loc46 = loc("convert.200")
#loc47 = loc("power.176")
#loc49 = loc("add.182")
#loc50 = loc("multiply.192")
#loc51 = loc("reshape.193")
#loc52 = loc("broadcast.196")
#loc53 = loc("add.197")
#loc54 = loc("rsqrt.198")
#loc55 = loc("convert.199")
#loc56 = loc("reshape.201")
#loc57 = loc("broadcast.202")
#loc58 = loc("multiply.203")
#loc59 = loc("convert.204")
#loc60 = loc("convert.205")
#loc61 = loc("multiply.209")
#loc62 = loc("convert.210")
#loc63 = loc("transpose.211")
#loc64 = loc("convert.220")
#loc65 = loc("reshape.79")
#loc66 = loc("convert.83")
#loc67 = loc("dot.84")
#loc68 = loc("transpose.85")
#loc69 = loc("concatenate.86")
#loc70 = loc("cosine.144")
#loc71 = loc("broadcast.222")
#loc72 = loc("multiply.223")
#loc73 = loc("slice.213")
#loc74 = loc("negate.214")
#loc75 = loc("slice.212")
#loc76 = loc("concatenate.215")
#loc77 = loc("convert.216")
#loc78 = loc("sine.87")
#loc79 = loc("broadcast.218")
#loc80 = loc("multiply.219")
#loc81 = loc("add.226")
#loc82 = loc("reshape.228")
#loc83 = loc("convert.130")
#loc84 = loc("broadcast.131")
#loc85 = loc("dot.95")
#loc86 = loc("reshape.97")
#loc87 = loc("convert.123")
#loc88 = loc("power.99")
#loc90 = loc("add.105")
#loc91 = loc("multiply.115")
#loc92 = loc("reshape.116")
#loc93 = loc("broadcast.119")
#loc94 = loc("add.120")
#loc95 = loc("rsqrt.121")
#loc96 = loc("convert.122")
#loc97 = loc("reshape.124")
#loc98 = loc("broadcast.125")
#loc99 = loc("multiply.126")
#loc100 = loc("convert.127")
#loc101 = loc("convert.128")
#loc102 = loc("multiply.132")
#loc103 = loc("convert.133")
#loc104 = loc("transpose.134")
#loc105 = loc("convert.148")
#loc106 = loc("broadcast.150")
#loc107 = loc("multiply.151")
#loc108 = loc("slice.136")
#loc109 = loc("negate.137")
#loc110 = loc("slice.135")
#loc111 = loc("concatenate.138")
#loc112 = loc("convert.139")
#loc113 = loc("broadcast.141")
#loc114 = loc("multiply.142")
#loc115 = loc("add.154")
#loc116 = loc("broadcast.162")
#loc117 = loc("reshape.163")
#loc118 = loc("transpose.164")
#loc119 = loc("reshape.166")
#loc120 = loc("dot.229")
#loc121 = loc("reshape.230")
#loc122 = loc("broadcast.231")
#loc123 = loc("multiply.232")
#loc124 = loc("slice.73")
#loc125 = loc("convert.233")
#loc126 = loc("reshape.236")
#loc127 = loc("broadcast.237")
#loc128 = loc("add.238")
#loc130 = loc("maximum.243")
#loc131 = loc("broadcast.245")
#loc132 = loc("subtract.246")
#loc133 = loc("exponential.247")
#loc135 = loc("add.252")
#loc136 = loc("broadcast.254")
#loc137 = loc("divide.255")
#loc138 = loc("reshape.257")
#loc139 = loc("dot.53")
#loc140 = loc("reshape.55")
#loc141 = loc("transpose.56")
#loc142 = loc("broadcast.64")
#loc143 = loc("reshape.67")
#loc144 = loc("convert.258")
#loc145 = loc("dot.259")
#loc146 = loc("reshape.260")
#loc147 = loc("transpose.261")
#loc148 = loc("reshape.263")
#loc149 = loc("dot.264")
#loc150 = loc("reshape.265")
#loc151 = loc("add.269")
#loc152 = loc("convert.298")
#loc153 = loc("broadcast.299")
#loc154 = loc("power.271")
#loc156 = loc("add.277")
#loc157 = loc("multiply.287")
#loc158 = loc("reshape.288")
#loc159 = loc("broadcast.291")
#loc160 = loc("add.292")
#loc161 = loc("rsqrt.293")
#loc162 = loc("reshape.294")
#loc163 = loc("broadcast.295")
#loc164 = loc("multiply.296")
#loc165 = loc("multiply.300")
#loc166 = loc("reshape.305")
#loc167 = loc("dot.306")
#loc168 = loc("reshape.307")
#loc169 = loc("logistic.308")
#loc170 = loc("multiply.309")
#loc171 = loc("dot.302")
#loc172 = loc("reshape.303")
#loc173 = loc("multiply.310")
#loc174 = loc("reshape.311")
#loc175 = loc("dot.312")
#loc176 = loc("reshape.313")
#loc177 = loc("add.316")
#loc178 = loc("power.318")
#loc180 = loc("add.324")
#loc181 = loc("multiply.334")
#loc182 = loc("reshape.335")
#loc183 = loc("add.339")
#loc184 = loc("rsqrt.340")
#loc185 = loc("reshape.341")
#loc186 = loc("broadcast.342")
#loc187 = loc("multiply.343")
#loc188 = loc("multiply.347")
#loc1 = loc("p0.2")
#loc2 = loc("p1.5")
#loc3 = loc("p2.6")
#loc4 = loc("p3.10")
#loc5 = loc("p4.11")
#loc6 = loc("p5.13")
#loc7 = loc("p6.15")
#loc8 = loc("p7.47")
#loc9 = loc("p8.69")
#loc10 = loc("p9.74")
#loc11 = loc("p10.77")
#loc12 = loc("p11.82")
#loc13 = loc("p12.93")
#loc14 = loc("p13.129")
#loc15 = loc("p14.170")
#loc16 = loc("p15.206")
#loc17 = loc("p16.297")
#loc18 = loc("p17.304")
#loc19 = loc("p18.344")
module @SyncTensorsGraph.349 attributes {mhlo.cross_program_prefetches = [], mhlo.input_output_alias = [], mhlo.is_dynamic = false, mhlo.use_auto_spmd_partitioning = false} {
  func.func @main(%arg0: tensor<f32> loc("p0.2"), %arg1: tensor<9728x2560xbf16> loc("p1.5"), %arg2: tensor<2560x9728xbf16> loc("p2.6"), %arg3: tensor<4096x2560xbf16> loc("p3.10"), %arg4: tensor<2560x1024xbf16> loc("p4.11"), %arg5: tensor<bf16> loc("p5.13"), %arg6: tensor<1x512x2560xbf16> loc("p6.15"), %arg7: tensor<2560xbf16> loc("p7.47"), %arg8: tensor<1x1x512x513xbf16> loc("p8.69"), %arg9: tensor<f32> loc("p9.74"), %arg10: tensor<1x512xi64> loc("p10.77"), %arg11: tensor<1x64x1xf32> loc("p11.82"), %arg12: tensor<2560x1024xbf16> loc("p12.93"), %arg13: tensor<128xbf16> loc("p13.129"), %arg14: tensor<2560x4096xbf16> loc("p14.170"), %arg15: tensor<128xbf16> loc("p15.206"), %arg16: tensor<2560xbf16> loc("p16.297"), %arg17: tensor<2560x9728xbf16> loc("p17.304"), %arg18: tensor<2560xbf16> loc("p18.344")) -> tensor<1x512x2560xf32> {
    %cst = stablehlo.constant dense<3.906250e-04> : tensor<1x512xf32> loc(#loc)
    %cst_0 = stablehlo.constant dense<2.000000e+00> : tensor<1x512x2560xf32> loc(#loc)
    %cst_1 = stablehlo.constant dense<7.812500e-03> : tensor<1x512x8xbf16> loc(#loc)
    %cst_2 = stablehlo.constant dense<2.000000e+00> : tensor<1x512x8x128xbf16> loc(#loc)
    %cst_3 = stablehlo.constant dense<7.812500e-03> : tensor<1x512x32xbf16> loc(#loc)
…
[32m            RuntimeTTNN[0m | [1m[38;5;69m    INFO[0m | KCM DRAM View - Banks: 12 Size: 1023 MB TotalBytesAllocatedPerBank: 17 MB FreePerBank: 1009 MB ContiguousFreePerBank: 1001 MB
[32m            RuntimeTTNN[0m | [1m[38;5;69m    INFO[0m | Executing operation: "ttnn.deallocate"(%140) <{force = false}> : (tensor<2560xf32, #ttnn.ttnn_layout<(d0) -> (0, d0), <1x1>, memref<1x80x!ttcore.tile<32x32, f32>, #ttnn.buffer_type<dram>>, <interleaved>>>) -> () loc("convert.298")
[32m            RuntimeTTNN[0m | [1m[38;5;69m    INFO[0m | KCM DRAM View - Banks: 12 Size: 1023 MB TotalBytesAllocatedPerBank: 17 MB FreePerBank: 1009 MB ContiguousFreePerBank: 1001 MB
[32m            RuntimeTTNN[0m | [1m[38;5;69m    INFO[0m | Executing operation: %142 = "ttnn.pow"(%139, %8) : (tensor<1x512x2560xf32, #ttnn.ttnn_layout<(d0, d1, d2) -> (d0 * 512 + d1, d2), <1x1>, memref<16x80x!ttcore.tile<32x32, f32>, #ttnn.buffer_type<dram>>, <interleaved>>>, tensor<1x512x2560xf32, #ttnn.ttnn_layout<(d0, d1, d2) -> (d0 * 512 + d1, d2), <1x1>, memref<16x80x!ttcore.tile<32x32, f32>, #ttnn.buffer_type<dram>>, <interleaved>>>) -> tensor<1x512x2560xf32, #ttnn.ttnn_layout<(d0, d1, d2) -> (d0 * 512 + d1, d2), <1x1>, memref<16x80x!ttcore.tile<32x32, f32>, #ttnn.buffer_type<dram>>, <interleaved>>> loc("power.271")
[32m            RuntimeTTNN[0m | [1m[38;5;69m    INFO[0m | KCM DRAM View - Banks: 12 Size: 1023 MB TotalBytesAllocatedPerBank: 17 MB FreePerBank: 1009 MB ContiguousFreePerBank: 1001 MB
[32m            RuntimeTTNN[0m | [1m[38;5;69m    INFO[0m | Executing operation: %143 = "ttnn.sum"(%142) <{dim_arg = [2 : i32], keep_dim = false}> : (tensor<1x512x2560xf32, #ttnn.ttnn_layout<(d0, d1, d2) -> (d0 * 512 + d1, d2), <1x1>, memref<16x80x!ttcore.tile<32x32, f32>, #ttnn.buffer_type<dram>>, <interleaved>>>) -> tensor<1x512xf32, #ttnn.ttnn_layout<(d0, d1) -> (d0, d1), <1x1>, memref<1x16x!ttcore.tile<32x32, f32>, #ttnn.buffer_type<dram>>, <interleaved>>> loc("reduce.278")
[32m            RuntimeTTNN[0m | [1m[38;5;69m    INFO[0m | KCM DRAM View - Banks: 12 Size: 1023 MB TotalBytesAllocatedPerBank: 17 MB FreePerBank: 1009 MB ContiguousFreePerBank: 1001 MB
[32m            RuntimeTTNN[0m | [1m[38;5;69m    INFO[0m | Executing operation: "ttnn.deallocate"(%142) <{force = false}> : (tensor<1x512x2560xf32, #ttnn.ttnn_layout<(d0, d1, d2) -> (d0 * 512 + d1, d2), <1x1>, memref<16x80x!ttcore.tile<32x32, f32>, #ttnn.buffer_type<dram>>, <interleaved>>>) -> () loc("reduce.278")
[32m            RuntimeTTNN[0m | [1m[38;5;69m    INFO[0m | KCM DRAM View - Banks: 12 Size: 1023 MB TotalBytesAllocatedPerBank: 17 MB FreePerBank: 1009 MB ContiguousFreePerBank: 1001 MB
[32m            RuntimeTTNN[0m | [1m[38;5;69m    INFO[0m | Executing operation: %144 = "ttnn.multiply"(%143, %7) <{dtype = #ttcore.supportedDataTypes<f32>}> : (tensor<1x512xf32, #ttnn.ttnn_layout<(d0, d1) -> (d0, d1), <1x1>, memref<1x16x!ttcore.tile<32x32, f32>, #ttnn.buffer_type<dram>>, <interleaved>>>, tensor<1x512xf32, #ttnn.ttnn_layout<(d0, d1) -> (d0, d1), <1x1>, memref<1x16x!ttcore.tile<32x32, f32>, #ttnn.buffer_type<dram>>, <interleaved>>>) -> tensor<1x512xf32, #ttnn.ttnn_layout<(d0, d1) -> (d0, d1), <1x1>, memref<1x16x!ttcore.tile<32x32, f32>, #ttnn.buffer_type<dram>>, <interleaved>>> loc("multiply.287")
[32m            RuntimeTTNN[0m | [1m[38;5;69m    INFO[0m | KCM DRAM View - Banks: 12 Size: 1023 MB TotalBytesAllocatedPerBank: 17 MB FreePerBank: 1009 MB ContiguousFreePerBank: 1001 MB
[32m            RuntimeTTNN[0m | [1m[38;5;69m    INFO[0m | Executing operation: "ttnn.deallocate"(%143) <{force = false}> : (tensor<1x512xf32, #ttnn.ttnn_layout<(d0, d1) -> (d0, d1), <1x1>, memref<1x16x!ttcore.tile<32x32, f32>, #ttnn.buffer_type<dram>>, <interleaved>>>) -> () loc("multiply.287")
[32m            RuntimeTTNN[0m | [1m[38;5;69m    INFO[0m | KCM DRAM View - Banks: 12 Size: 1023 MB TotalBytesAllocatedPerBank: 17 MB FreePerBank: 1009 MB ContiguousFreePerBank: 1001 MB
[32m            RuntimeTTNN[0m | [1m[38;5;69m    INFO[0m | Executing operation: %145 = "ttnn.reshape"(%arg0) <{shape = [1 : i32, 1 : i32, 1 : i32]}> : (tensor<f32, #ttnn.ttnn_layout<() -> (0, 0), <1x1>, memref<1x1x!ttcore.tile<32x32, f32>, #ttnn.buffer_type<dram>>, <interleaved>>>) -> tensor<1x1x1xf32, #ttnn.ttnn_layout<(d0, d1, d2) -> (d0 * 32 + d1, d2), <1x1>, memref<1x1x!ttcore.tile<32x32, f32>, #ttnn.buffer_type<dram>>, <interleaved>>> loc("broadcast.291")
[32m            RuntimeTTNN[0m | [1m[38;5;69m    INFO[0m | KCM DRAM View - Banks: 12 Size: 1023 MB TotalBytesAllocatedPerBank: 17 MB FreePerBank: 1009 MB ContiguousFreePerBank: 1001 MB
[32m            RuntimeTTNN[0m | [1m[38;5;69m    INFO[0m | Executing operation: "ttnn.deallocate"(%arg0) <{force = false}> : (tensor<f32, #ttnn.ttnn_layout<() -> (0, 0), <1x1>, memref<1x1x!ttcore.tile<32x32, f32>, #ttnn.buffer_type<dram>>, <interleaved>>>) -> () loc("broadcast.291")
[32m            RuntimeTTNN[0m | [1m[38;5;69m    INFO[0m | KCM DRAM View - Banks: 12 Size: 1023 MB TotalBytesAllocatedPerBank: 17 MB FreePerBank: 1009 MB ContiguousFreePerBank: 1001 MB
[32m            RuntimeTTNN[0m | [1m[38;5;69m    INFO[0m | Executing operation: %146 = "ttnn.repeat"(%145) <{repeat_dims = #ttnn.shape<1x512x1>}> : (tensor<1x1x1xf32, #ttnn.ttnn_layout<(d0, d1, d2) -> (d0 * 32 + d1, d2), <1x1>, memref<1x1x!ttcore.tile<32x32, f32>, #ttnn.buffer_type<dram>>, <interleaved>>>) -> tensor<1x512x1xf32, #ttnn.ttnn_layout<(d0, d1, d2) -> (d0 * 512 + d1, d2), <1x1>, memref<16x1x!ttcore.tile<32x32, f32>, #ttnn.buffer_type<dram>>, <interleaved>>> loc("broadcast.291")
[32m            RuntimeTTNN[0m | [1m[38;5;69m    INFO[0m | KCM DRAM View - Banks: 12 Size: 1023 MB TotalBytesAllocatedPerBank: 17 MB FreePerBank: 1009 MB ContiguousFreePerBank: 1001 MB
[32m            RuntimeTTNN[0m | [1m[38;5;69m    INFO[0m | Executing operation: %147 = "ttnn.reshape"(%146) <{shape = [1 : i32, 512 : i32]}> : (tensor<1x512x1xf32, #ttnn.ttnn_layout<(d0, d1, d2) -> (d0 * 512 + d1, d2), <1x1>, memref<16x1x!ttcore.tile<32x32, f32>, #ttnn.buffer_type<dram>>, <interleaved>>>) -> tensor<1x512xf32, #ttnn.ttnn_layout<(d0, d1) -> (d0, d1), <1x1>, memref<1x16x!ttcore.tile<32x32, f32>, #ttnn.buffer_type<dram>>, <interleaved>>> loc("multiply.287")
[32m            RuntimeTTNN[0m | [1m[38;5;69m    INFO[0m | KCM DRAM View - Banks: 12 Size: 1023 MB TotalBytesAllocatedPerBank: 17 MB FreePerBank: 1009 MB ContiguousFreePerBank: 1001 MB
[32m            RuntimeTTNN[0m | [1m[38;5;69m    INFO[0m | Executing operation: "ttnn.deallocate"(%146) <{force = false}> : (tensor<1x512x1xf32, #ttnn.ttnn_layout<(d0, d1, d2) -> (d0 * 512 + d1, d2), <1x1>, memref<16x1x!ttcore.tile<32x32, f32>, #ttnn.buffer_type<dram>>, <interleaved>>>) -> () loc("multiply.287")
[32m            RuntimeTTNN[0m | [1m[38;5;69m    INFO[0m | KCM DRAM View - Banks: 12 Size: 1023 MB TotalBytesAllocatedPerBank: 17 MB FreePerBank: 1009 MB ContiguousFreePerBank: 1001 MB
[32m            RuntimeTTNN[0m | [1m[38;5;69m    INFO[0m | Executing operation: %148 = "ttnn.add"(%144, %147) <{dtype = #ttcore.supportedDataTypes<f32>}> : (tensor<1x512xf32, #ttnn.ttnn_layout<(d0, d1) -> (d0, d1), <1x1>, memref<1x16x!ttcore.tile<32x32, f32>, #ttnn.buffer_type<dram>>, <interleaved>>>, tensor<1x512xf32, #ttnn.ttnn_layout<(d0, d1) -> (d0, d1), <1x1>, memref<1x16x!ttcore.tile<32x32, f32>, #ttnn.buffer_type<dram>>, <interleaved>>>) -> tensor<1x512xf32, #ttnn.ttnn_layout<(d0, d1) -> (d0, d1), <1x1>, memref<1x16x!ttcore.tile<32x32, f32>, #ttnn.buffer_type<dram>>, <interleaved>>> loc("add.292")
[32m            RuntimeTTNN[0m | [1m[38;5;69m    INFO[0m | KCM DRAM View - Banks: 12 Size: 1023 MB TotalBytesAllocatedPerBank: 17 MB FreePerBank: 1009 MB ContiguousFreePerBank: 1001 MB
[32m            RuntimeTTNN[0m | [1m[38;5;69m    INFO[0m | Executing operation: "ttnn.deallocate"(%147) <{force = false}> : (tensor<1x512xf32, #ttnn.ttnn_layout<(d0, d1) -> (d0, d1), <1x1>, memref<1x16x!ttcore.tile<32x32, f32>, #ttnn.buffer_type<dram>>, <interleaved>>>) -> () loc("add.292")
[32m            RuntimeTTNN[0m | [1m[38;5;69m    INFO[0m | KCM DRAM View - Banks: 12 Size: 1023 MB TotalBytesAllocatedPerBank: 17 MB FreePerBank: 1009 MB ContiguousFreePerBank: 1001 MB
[32m            RuntimeTTNN[0m | [1m[38;5;69m    INFO[0m | Executing operation: "ttnn.deallocate"(%144) <{force = false}> : (tensor<1x512xf32, #ttnn.ttnn_layout<(d0, d1) -> (d0, d1), <1x1>, memref<1x16x!ttcore.tile<32x32, f32>, #ttnn.buffer_type<dram>>, <interleaved>>>) -> () loc("add.292")
[32m            RuntimeTTNN[0m | [1m[38;5;69m    INFO[0m | KCM DRAM View - Banks: 12 Size: 1023 MB TotalBytesAllocatedPerBank: 17 MB FreePerBank: 1009 MB ContiguousFreePerBank: 1001 MB
[32m            RuntimeTTNN[0m | [1m[38;5;69m    INFO[0m | Executing operation: %149 = "ttnn.rsqrt"(%148) : (tensor<1x512xf32, #ttnn.ttnn_layout<(d0, d1) -> (d0, d1), <1x1>, memref<1x16x!ttcore.tile<32x32, f32>, #ttnn.buffer_type<dram>>, <interleaved>>>) -> tensor<1x512xf32, #ttnn.ttnn_layout<(d0, d1) -> (d0, d1), <1x1>, memref<1x16x!ttcore.tile<32x32, f32>, #ttnn.buffer_type<dram>>, <interleaved>>> loc("rsqrt.293")
[32m            RuntimeTTNN[0m | [1m[38;5;69m    INFO[0m | KCM DRAM View - Banks: 12 Size: 1023 MB TotalBytesAllocatedPerBank: 17 MB FreePerBank: 1009 MB ContiguousFreePerBank: 1001 MB
[32m            RuntimeTTNN[0m | [1m[38;5;69m    INFO[0m | Executing operation: "ttnn.deallocate"(%148) <{force = false}> : (tensor<1x512xf32, #ttnn.ttnn_layout<(d0, d1) -> (d0, d1), <1x1>, memref<1x16x!ttcore.tile<32x32, f32>, #ttnn.buffer_type<dram>>, <interleaved>>>) -> () loc("rsqrt.293")
[32m            RuntimeTTNN[0m | [1m[38;5;69m    INFO[0m | KCM DRAM View - Banks: 12 Size: 1023 MB TotalBytesAllocatedPerBank: 17 MB FreePerBank: 1009 MB ContiguousFreePerBank: 1001 MB
[32m            RuntimeTTNN[0m | [1m[38;5;69m    INFO[0m | Executing operation: %150 = "ttnn.reshape"(%149) <{shape = [512 : i32, 1 : i32]}> : (tensor<1x512xf32, #ttnn.ttnn_layout<(d0, d1) -> (d0, d1), <1x1>, memref<1x16x!ttcore.tile<32x32, f32>, #ttnn.buffer_type<dram>>, <interleaved>>>) -> tensor<512x1xf32, #ttnn.ttnn_layout<(d0, d1) -> (d0, d1), <1x1>, memref<16x1x!ttcore.tile<32x32, f32>, #ttnn.buffer_type<dram>>, <interleaved>>> loc("rsqrt.293")
[32m            RuntimeTTNN[0m | [1m[38;5;69m    INFO[0m | KCM DRAM View - Banks: 12 Size: 1023 MB TotalBytesAllocatedPerBank: 17 MB FreePerBank: 1009 MB ContiguousFreePerBank: 1001 MB
[32m            RuntimeTTNN[0m | [1m[38;5;69m    INFO[0m | Executing operation: "ttnn.deallocate"(%149) <{force = false}> : (tensor<1x512xf32, #ttnn.ttnn_layout<(d0, d1) -> (d0, d1), <1x1>, memref<1x16x!ttcore.tile<32x32, f32>, #ttnn.buffer_type<dram>>, <interleaved>>>) -> () loc("rsqrt.293")
[32m            RuntimeTTNN[0m | [1m[38;5;69m    INFO[0m | KCM DRAM View - Banks: 12 Size: 1023 MB TotalBytesAllocatedPerBank: 17 MB FreePerBank: 1009 MB ContiguousFreePerBank: 1001 MB
[32m            RuntimeTTNN[0m | [1m[38;5;69m    INFO[0m | Executing operation: %151 = "ttnn.reshape"(%139) <{shape = [512 : i32, 2560 : i32]}> : (tensor<1x512x2560xf32, #ttnn.ttnn_layout<(d0, d1, d2) -> (d0 * 512 + d1, d2), <1x1>, memref<16x80x!ttcore.tile<32x32, f32>, #ttnn.buffer_type<dram>>, <interleaved>>>) -> tensor<512x2560xf32, #ttnn.ttnn_layout<(d0, d1) -> (d0, d1), <1x1>, memref<16x80x!ttcore.tile<32x32, f32>, #ttnn.buffer_type<dram>>, <interleaved>>> loc("reshape.305_tm1_tm0"("reshape.305_tm1"("reshape.305")))
[32m            RuntimeTTNN[0m | [1m[38;5;69m    INFO[0m | KCM DRAM View - Banks: 12 Size: 1023 MB TotalBytesAllocatedPerBank: 17 MB FreePerBank: 1009 MB ContiguousFreePerBank: 1001 MB
[32m            RuntimeTTNN[0m | [1m[38;5;69m    INFO[0m | Executing operation: %152 = "ttnn.multiply"(%151, %150) <{dtype = #ttcore.supportedDataTypes<f32>}> : (tensor<512x2560xf32, #ttnn.ttnn_layout<(d0, d1) -> (d0, d1), <1x1>, memref<16x80x!ttcore.tile<32x32, f32>, #ttnn.buffer_type<dram>>, <interleaved>>>, tensor<512x1xf32, #ttnn.ttnn_layout<(d0, d1) -> (d0, d1), <1x1>, memref<16x1x!ttcore.tile<32x32, f32>, #ttnn.buffer_type<dram>>, <interleaved>>>) -> tensor<512x2560xf32, #ttnn.ttnn_layout<(d0, d1) -> (d0, d1), <1x1>, memref<16x80x!ttcore.tile<32x32, f32>, #ttnn.buffer_type<dram>>, <interleaved>>> loc("multiply.296")
[32m            RuntimeTTNN[0m | [1m[38;5;69m    INFO[0m | KCM DRAM View - Banks: 12 Size: 1023 MB TotalBytesAllocatedPerBank: 17 MB FreePerBank: 1009 MB ContiguousFreePerBank: 1001 MB
[32m            RuntimeTTNN[0m | [1m[38;5;69m    INFO[0m | Executing operation: "ttnn.deallocate"(%151) <{force = false}> : (tensor<512x2560xf32, #ttnn.ttnn_layout<(d0, d1) -> (d0, d1), <1x1>, memref<16x80x!ttcore.tile<32x32, f32>, #ttnn.buffer_type<dram>>, <interleaved>>>) -> () loc("multiply.296")
[32m            RuntimeTTNN[0m | [1m[38;5;69m    INFO[0m | KCM DRAM View - Banks: 12 Size: 1023 MB TotalBytesAllocatedPerBank: 17 MB FreePerBank: 1009 MB ContiguousFreePerBank: 1001 MB
[32m            RuntimeTTNN[0m | [1m[38;5;69m    INFO[0m | Executing operation: "ttnn.deallocate"(%150) <{force = false}> : (tensor<512x1xf32, #ttnn.ttnn_layout<(d0, d1) -> (d0, d1), <1x1>, memref<16x1x!ttcore.tile<32x32, f32>, #ttnn.buffer_type<dram>>, <interleaved>>>) -> () loc("multiply.296")
[32m            RuntimeTTNN[0m | [1m[38;5;69m    INFO[0m | KCM DRAM View - Banks: 12 Size: 1023 MB TotalBytesAllocatedPerBank: 17 MB FreePerBank: 1009 MB ContiguousFreePerBank: 1001 MB
[32m            RuntimeTTNN[0m | [1m[38;5;69m    INFO[0m | Executing operation: %153 = "ttnn.multiply"(%141, %152) <{dtype = #ttcore.supportedDataTypes<f32>}> : (tensor<1x2560xf32, #ttnn.ttnn_layout<(d0, d1) -> (d0, d1), <1x1>, memref<1x80x!ttcore.tile<32x32, f32>, #ttnn.buffer_type<dram>>, <interleaved>>>, tensor<512x2560xf32, #ttnn.ttnn_layout<(d0, d1) -> (d0, d1), <1x1>, memref<16x80x!ttcore.tile<32x32, f32>, #ttnn.buffer_type<dram>>, <interleaved>>>) -> tensor<512x2560xf32, #ttnn.ttnn_layout<(d0, d1) -> (d0, d1), <1x1>, memref<16x80x!ttcore.tile<32x32, f32>, #ttnn.buffer_type<dram>>, <interleaved>>> loc("multiply.300")
[32m            RuntimeTTNN[0m | [1m[38;5;69m    INFO[0m | KCM DRAM View - Banks: 12 Size: 1023 MB TotalBytesAllocatedPerBank: 17 MB FreePerBank: 1009 MB ContiguousFreePerBank: 1001 MB
[32m            RuntimeTTNN[0m | [1m[38;5;69m    INFO[0m | Executing operation: "ttnn.deallocate"(%152) <{force = false}> : (tensor<512x2560xf32, #ttnn.ttnn_layout<(d0, d1) -> (d0, d1), <1x1>, memref<16x80x!ttcore.tile<32x32, f32>, #ttnn.buffer_type<dram>>, <interleaved>>>) -> () loc("multiply.300")
[32m            RuntimeTTNN[0m | [1m[38;5;69m    INFO[0m | KCM DRAM View - Banks: 12 Size: 1023 MB TotalBytesAllocatedPerBank: 18 MB FreePerBank: 1008 MB ContiguousFreePerBank: 1001 MB
[32m            RuntimeTTNN[0m | [1m[38;5;69m    INFO[0m | Executing operation: "ttnn.deallocate"(%141) <{force = false}> : (tensor<1x2560xf32, #ttnn.ttnn_layout<(d0, d1) -> (d0, d1), <1x1>, memref<1x80x!ttcore.tile<32x32, f32>, #ttnn.buffer_type<dram>>, <interleaved>>>) -> () loc("multiply.300")
[32m            RuntimeTTNN[0m | [1m[38;5;69m    INFO[0m | KCM DRAM View - Banks: 12 Size: 1023 MB TotalBytesAllocatedPerBank: 17 MB FreePerBank: 1009 MB ContiguousFreePerBank: 1001 MB
[32m            RuntimeTTNN[0m | [1m[38;5;69m    INFO[0m | Executing operation: %154 = "ttnn.matmul"(%153, %arg17) <{transpose_a = false, transpose_b = false}> : (tensor<512x2560xf32, #ttnn.ttnn_layout<(d0, d1) -> (d0, d1), <1x1>, memref<16x80x!ttcore.tile<32x32, f32>, #ttnn.buffer_type<dram>>, <interleaved>>>, tensor<2560x9728xbf16, #ttnn.ttnn_layout<(d0, d1) -> (d0, d1), <1x1>, memref<80x304x!ttcore.tile<32x32, bf16>, #ttnn.buffer_type<dram>>, <interleaved>>>) -> tensor<512x9728xf32, #ttnn.ttnn_layout<(d0, d1) -> (d0, d1), <1x1>, memref<16x304x!ttcore.tile<32x32, f32>, #ttnn.buffer_type<dram>>, <interleaved>>> loc("dot.306")
[32m            RuntimeTTNN[0m | [1m[38;5;69m    INFO[0m | KCM DRAM View - Banks: 12 Size: 1023 MB TotalBytesAllocatedPerBank: 17 MB FreePerBank: 1009 MB ContiguousFreePerBank: 1001 MB
[32m            RuntimeTTNN[0m | [1m[38;5;69m    INFO[0m | Executing operation: "ttnn.deallocate"(%arg17) <{force = false}> : (tensor<2560x9728xbf16, #ttnn.ttnn_layout<(d0, d1) -> (d0, d1), <1x1>, memref<80x304x!ttcore.tile<32x32, bf16>, #ttnn.buffer_type<dram>>, <interleaved>>>) -> () loc("dot.306")
[32m            RuntimeTTNN[0m | [1m[38;5;69m    INFO[0m | KCM DRAM View - Banks: 12 Size: 1023 MB TotalBytesAllocatedPerBank: 19 MB FreePerBank: 1007 MB ContiguousFreePerBank: 1001 MB
[32m            RuntimeTTNN[0m | [1m[38;5;69m    INFO[0m | Executing operation: %155 = "ttnn.sigmoid"(%154) : (tensor<512x9728xf32, #ttnn.ttnn_layout<(d0, d1) -> (d0, d1), <1x1>, memref<16x304x!ttcore.tile<32x32, f32>, #ttnn.buffer_type<dram>>, <interleaved>>>) -> tensor<512x9728xf32, #ttnn.ttnn_layout<(d0, d1) -> (d0, d1), <1x1>, memref<16x304x!ttcore.tile<32x32, f32>, #ttnn.buffer_type<dram>>, <interleaved>>> loc("logistic.308")
[32m            RuntimeTTNN[0m | [1m[38;5;69m    INFO[0m | KCM DRAM View - Banks: 12 Size: 1023 MB TotalBytesAllocatedPerBank: 19 MB FreePerBank: 1007 MB ContiguousFreePerBank: 1001 MB
[32m            RuntimeTTNN[0m | [1m[38;5;69m    INFO[0m | Executing operation: %156 = "ttnn.multiply"(%154, %155) <{dtype = #ttcore.supportedDataTypes<f32>}> : (tensor<512x9728xf32, #ttnn.ttnn_layout<(d0, d1) -> (d0, d1), <1x1>, memref<16x304x!ttcore.tile<32x32, f32>, #ttnn.buffer_type<dram>>, <interleaved>>>, tensor<512x9728xf32, #ttnn.ttnn_layout<(d0, d1) -> (d0, d1), <1x1>, memref<16x304x!ttcore.tile<32x32, f32>, #ttnn.buffer_type<dram>>, <interleaved>>>) -> tensor<512x9728xf32, #ttnn.ttnn_layout<(d0, d1) -> (d0, d1), <1x1>, memref<16x304x!ttcore.tile<32x32, f32>, #ttnn.buffer_type<dram>>, <interleaved>>> loc("multiply.309")
[32m            RuntimeTTNN[0m | [1m[38;5;69m    INFO[0m | KCM DRAM View - Banks: 12 Size: 1023 MB TotalBytesAllocatedPerBank: 20 MB FreePerBank: 1006 MB ContiguousFreePerBank: 1001 MB
[32m            RuntimeTTNN[0m | [1m[38;5;69m    INFO[0m | Executing operation: "ttnn.deallocate"(%155) <{force = false}> : (tensor<512x9728xf32, #ttnn.ttnn_layout<(d0, d1) -> (d0, d1), <1x1>, memref<16x304x!ttcore.tile<32x32, f32>, #ttnn.buffer_type<dram>>, <interleaved>>>) -> () loc("multiply.309")
[32m            RuntimeTTNN[0m | [1m[38;5;69m    INFO[0m | KCM DRAM View - Banks: 12 Size: 1023 MB TotalBytesAllocatedPerBank: 22 MB FreePerBank: 1004 MB ContiguousFreePerBank: 999 MB
[32m            RuntimeTTNN[0m | [1m[38;5;69m    INFO[0m | Executing operation: "ttnn.deallocate"(%154) <{force = false}> : (tensor<512x9728xf32, #ttnn.ttnn_layout<(d0, d1) -> (d0, d1), <1x1>, memref<16x304x!ttcore.tile<32x32, f32>, #ttnn.buffer_type<dram>>, <interleaved>>>) -> () loc("multiply.309")
[32m            RuntimeTTNN[0m | [1m[38;5;69m    INFO[0m | KCM DRAM View - Banks: 12 Size: 1023 MB TotalBytesAllocatedPerBank: 20 MB FreePerBank: 1006 MB ContiguousFreePerBank: 999 MB
[32m            RuntimeTTNN[0m | [1m[38;5;69m    INFO[0m | Executing operation: %157 = "ttnn.matmul"(%153, %arg2) <{transpose_a = false, transpose_b = false}> : (tensor<512x2560xf32, #ttnn.ttnn_layout<(d0, d1) -> (d0, d1), <1x1>, memref<16x80x!ttcore.tile<32x32, f32>, #ttnn.buffer_type<dram>>, <interleaved>>>, tensor<2560x9728xbf16, #ttnn.ttnn_layout<(d0, d1) -> (d0, d1), <1x1>, memref<80x304x!ttcore.tile<32x32, bf16>, #ttnn.buffer_type<dram>>, <interleaved>>>) -> tensor<512x9728xf32, #ttnn.ttnn_layout<(d0, d1) -> (d0, d1), <1x1>, memref<16x304x!ttcore.tile<32x32, f32>, #ttnn.buffer_type<dram>>, <interleaved>>> loc("dot.302")
[32m            RuntimeTTNN[0m | [1m[38;5;69m    INFO[0m | KCM DRAM View - Banks: 12 Size: 1023 MB TotalBytesAllocatedPerBank: 19 MB FreePerBank: 1010 MB ContiguousFreePerBank: 999 MB
[32m            RuntimeTTNN[0m | [1m[38;5;69m    INFO[0m | Executing operation: "ttnn.deallocate"(%153) <{force = false}> : (tensor<512x2560xf32, #ttnn.ttnn_layout<(d0, d1) -> (d0, d1), <1x1>, memref<16x80x!ttcore.tile<32x32, f32>, #ttnn.buffer_type<dram>>, <interleaved>>>) -> () loc("dot.302")
[32m            RuntimeTTNN[0m | [1m[38;5;69m    INFO[0m | KCM DRAM View - Banks: 12 Size: 1023 MB TotalBytesAllocatedPerBank: 20 MB FreePerBank: 1006 MB ContiguousFreePerBank: 999 MB
[32m            RuntimeTTNN[0m | [1m[38;5;69m    INFO[0m | Executing operation: "ttnn.deallocate"(%arg2) <{force = false}> : (tensor<2560x9728xbf16, #ttnn.ttnn_layout<(d0, d1) -> (d0, d1), <1x1>, memref<80x304x!ttcore.tile<32x32, bf16>, #ttnn.buffer_type<dram>>, <interleaved>>>) -> () loc("dot.302")
[32m            RuntimeTTNN[0m | [1m[38;5;69m    INFO[0m | KCM DRAM View - Banks: 12 Size: 1023 MB TotalBytesAllocatedPerBank: 20 MB FreePerBank: 1006 MB ContiguousFreePerBank: 999 MB
[32m            RuntimeTTNN[0m | [1m[38;5;69m    INFO[0m | Executing operation: %158 = "ttnn.multiply"(%156, %157) <{dtype = #ttcore.supportedDataTypes<f32>}> : (tensor<512x9728xf32, #ttnn.ttnn_layout<(d0, d1) -> (d0, d1), <1x1>, memref<16x304x!ttcore.tile<32x32, f32>, #ttnn.buffer_type<dram>>, <interleaved>>>, tensor<512x9728xf32, #ttnn.ttnn_layout<(d0, d1) -> (d0, d1), <1x1>, memref<16x304x!ttcore.tile<32x32, f32>, #ttnn.buffer_type<dram>>, <interleaved>>>) -> tensor<512x9728xf32, #ttnn.ttnn_layout<(d0, d1) -> (d0, d1), <1x1>, memref<16x304x!ttcore.tile<32x32, f32>, #ttnn.buffer_type<dram>>, <interleaved>>> loc("multiply.310")
[32m            RuntimeTTNN[0m | [1m[38;5;69m    INFO[0m | KCM DRAM View - Banks: 12 Size: 1023 MB TotalBytesAllocatedPerBank: 20 MB FreePerBank: 1006 MB ContiguousFreePerBank: 999 MB
[32m            RuntimeTTNN[0m | [1m[38;5;69m    INFO[0m | Executing operation: "ttnn.deallocate"(%157) <{force = false}> : (tensor<512x9728xf32, #ttnn.ttnn_layout<(d0, d1) -> (d0, d1), <1x1>, memref<16x304x!ttcore.tile<32x32, f32>, #ttnn.buffer_type<dram>>, <interleaved>>>) -> () loc("multiply.310")
[32m            RuntimeTTNN[0m | [1m[38;5;69m    INFO[0m | KCM DRAM View - Banks: 12 Size: 1023 MB TotalBytesAllocatedPerBank: 21 MB FreePerBank: 1004 MB ContiguousFreePerBank: 999 MB
[32m            RuntimeTTNN[0m | [1m[38;5;69m    INFO[0m | Executing operation: "ttnn.deallocate"(%156) <{force = false}> : (tensor<512x9728xf32, #ttnn.ttnn_layout<(d0, d1) -> (d0, d1), <1x1>, memref<16x304x!ttcore.tile<32x32, f32>, #ttnn.buffer_type<dram>>, <interleaved>>>) -> () loc("multiply.310")
[32m            RuntimeTTNN[0m | [1m[38;5;69m    INFO[0m | KCM DRAM View - Banks: 12 Size: 1023 MB TotalBytesAllocatedPerBank: 20 MB FreePerBank: 1006 MB ContiguousFreePerBank: 999 MB
[32m            RuntimeTTNN[0m | [1m[38;5;69m    INFO[0m | Executing operation: %159 = "ttnn.matmul"(%158, %arg1) <{transpose_a = false, transpose_b = false}> : (tensor<512x9728xf32, #ttnn.ttnn_layout<(d0, d1) -> (d0, d1), <1x1>, memref<16x304x!ttcore.tile<32x32, f32>, #ttnn.buffer_type<dram>>, <interleaved>>>, tensor<9728x2560xbf16, #ttnn.ttnn_layout<(d0, d1) -> (d0, d1), <1x1>, memref<304x80x!ttcore.tile<32x32, bf16>, #ttnn.buffer_type<dram>>, <interleaved>>>) -> tensor<512x2560xf32, #ttnn.ttnn_layout<(d0, d1) -> (d0, d1), <1x1>, memref<16x80x!ttcore.tile<32x32, f32>, #ttnn.buffer_type<dram>>, <interleaved>>> loc("dot.312")
[32m            RuntimeTTNN[0m | [1m[38;5;69m    INFO[0m | KCM DRAM View - Banks: 12 Size: 1023 MB TotalBytesAllocatedPerBank: 18 MB FreePerBank: 2007 MB ContiguousFreePerBank: 1001 MB
[32m            RuntimeTTNN[0m | [1m[38;5;69m    INFO[0m | Executing operation: "ttnn.deallocate"(%158) <{force = false}> : (tensor<512x9728xf32, #ttnn.ttnn_layout<(d0, d1) -> (d0, d1), <1x1>, memref<16x304x!ttcore.tile<32x32, f32>, #ttnn.buffer_type<dram>>, <interleaved>>>) -> () loc("dot.312")
[32m            RuntimeTTNN[0m | [1m[38;5;69m    INFO[0m | KCM DRAM View - Banks: 12 Size: 1023 MB TotalBytesAllocatedPerBank: 19 MB FreePerBank: 1007 MB ContiguousFreePerBank: 1001 MB
[32m            RuntimeTTNN[0m | [1m[38;5;69m    INFO[0m | Executing operation: "ttnn.deallocate"(%arg1) <{force = false}> : (tensor<9728x2560xbf16, #ttnn.ttnn_layout<(d0, d1) -> (d0, d1), <1x1>, memref<304x80x!ttcore.tile<32x32, bf16>, #ttnn.buffer_type<dram>>, <interleaved>>>) -> () loc("dot.312")
[32m            RuntimeTTNN[0m | [1m[38;5;69m    INFO[0m | KCM DRAM View - Banks: 12 Size: 1023 MB TotalBytesAllocatedPerBank: 17 MB FreePerBank: 1011 MB ContiguousFreePerBank: 1001 MB
[32m            RuntimeTTNN[0m | [1m[38;5;69m    INFO[0m | Executing operation: %160 = "ttnn.reshape"(%159) <{shape = [1 : i32, 512 : i32, 2560 : i32]}> : (tensor<512x2560xf32, #ttnn.ttnn_layout<(d0, d1) -> (d0, d1), <1x1>, memref<16x80x!ttcore.tile<32x32, f32>, #ttnn.buffer_type<dram>>, <interleaved>>>) -> tensor<1x512x2560xf32, #ttnn.ttnn_layout<(d0, d1, d2) -> (d0 * 512 + d1, d2), <1x1>, memref<16x80x!ttcore.tile<32x32, f32>, #ttnn.buffer_type<dram>>, <interleaved>>> loc("reshape.313")
[32m            RuntimeTTNN[0m | [1m[38;5;69m    INFO[0m | KCM DRAM View - Banks: 12 Size: 1023 MB TotalBytesAllocatedPerBank: 17 MB FreePerBank: 1011 MB ContiguousFreePerBank: 1001 MB
[32m            RuntimeTTNN[0m | [1m[38;5;69m    INFO[0m | Executing operation: "ttnn.deallocate"(%159) <{force = false}> : (tensor<512x2560xf32, #ttnn.ttnn_layout<(d0, d1) -> (d0, d1), <1x1>, memref<16x80x!ttcore.tile<32x32, f32>, #ttnn.buffer_type<dram>>, <interleaved>>>) -> () loc("reshape.313")
[32m            RuntimeTTNN[0m | [1m[38;5;69m    INFO[0m | KCM DRAM View - Banks: 12 Size: 1023 MB TotalBytesAllocatedPerBank: 17 MB FreePerBank: 1011 MB ContiguousFreePerBank: 1001 MB
[32m            RuntimeTTNN[0m | [1m[38;5;69m    INFO[0m | Executing operation: %161 = "ttnn.add"(%139, %160) <{dtype = #ttcore.supportedDataTypes<f32>}> : (tensor<1x512x2560xf32, #ttnn.ttnn_layout<(d0, d1, d2) -> (d0 * 512 + d1, d2), <1x1>, memref<16x80x!ttcore.tile<32x32, f32>, #ttnn.buffer_type<dram>>, <interleaved>>>, tensor<1x512x2560xf32, #ttnn.ttnn_layout<(d0, d1, d2) -> (d0 * 512 + d1, d2), <1x1>, memref<16x80x!ttcore.tile<32x32, f32>, #ttnn.buffer_type<dram>>, <interleaved>>>) -> tensor<1x512x2560xf32, #ttnn.ttnn_layout<(d0, d1, d2) -> (d0 * 512 + d1, d2), <1x1>, memref<16x80x!ttcore.tile<32x32, f32>, #ttnn.buffer_type<dram>>, <interleaved>>> loc("add.316")
[32m            RuntimeTTNN[0m | [1m[38;5;69m    INFO[0m | KCM DRAM View - Banks: 12 Size: 1023 MB TotalBytesAllocatedPerBank: 17 MB FreePerBank: 1011 MB ContiguousFreePerBank: 1001 MB
[32m            RuntimeTTNN[0m | [1m[38;5;69m    INFO[0m | Executing operation: "ttnn.deallocate"(%160) <{force = false}> : (tensor<1x512x2560xf32, #ttnn.ttnn_layout<(d0, d1, d2) -> (d0 * 512 + d1, d2), <1x1>, memref<16x80x!ttcore.tile<32x32, f32>, #ttnn.buffer_type<dram>>, <interleaved>>>) -> () loc("add.316")
[32m            RuntimeTTNN[0m | [1m[38;5;69m    INFO[0m | KCM DRAM View - Banks: 12 Size: 1023 MB TotalBytesAllocatedPerBank: 18 MB FreePerBank: 1008 MB ContiguousFreePerBank: 1001 MB
[32m            RuntimeTTNN[0m | [1m[38;5;69m    INFO[0m | Executing operation: "ttnn.deallocate"(%139) <{force = false}> : (tensor<1x512x2560xf32, #ttnn.ttnn_layout<(d0, d1, d2) -> (d0 * 512 + d1, d2), <1x1>, memref<16x80x!ttcore.tile<32x32, f32>, #ttnn.buffer_type<dram>>, <interleaved>>>) -> () loc("add.316")
[32m            RuntimeTTNN[0m | [1m[38;5;69m    INFO[0m | KCM DRAM View - Banks: 12 Size: 1023 MB TotalBytesAllocatedPerBank: 17 MB FreePerBank: 1009 MB ContiguousFreePerBank: 1001 MB
[32m            RuntimeTTNN[0m | [1m[38;5;69m    INFO[0m | Executing operation: %162 = "ttnn.pow"(%161, %8) : (tensor<1x512x2560xf32, #ttnn.ttnn_layout<(d0, d1, d2) -> (d0 * 512 + d1, d2), <1x1>, memref<16x80x!ttcore.tile<32x32, f32>, #ttnn.buffer_type<dram>>, <interleaved>>>, tensor<1x512x2560xf32, #ttnn.ttnn_layout<(d0, d1, d2) -> (d0 * 512 + d1, d2), <1x1>, memref<16x80x!ttcore.tile<32x32, f32>, #ttnn.buffer_type<dram>>, <interleaved>>>) -> tensor<1x512x2560xf32, #ttnn.ttnn_layout<(d0, d1, d2) -> (d0 * 512 + d1, d2), <1x1>, memref<16x80x!ttcore.tile<32x32, f32>, #ttnn.buffer_type<dram>>, <interleaved>>> loc("power.318")
[32m            RuntimeTTNN[0m | [1m[38;5;69m    INFO[0m | KCM DRAM View - Banks: 12 Size: 1023 MB TotalBytesAllocatedPerBank: 17 MB FreePerBank: 1009 MB ContiguousFreePerBank: 1001 MB
[32m            RuntimeTTNN[0m | [1m[38;5;69m    INFO[0m | Executing operation: "ttnn.deallocate"(%8) <{force = false}> : (tensor<1x512x2560xf32, #ttnn.ttnn_layout<(d0, d1, d2) -> (d0 * 512 + d1, d2), <1x1>, memref<16x80x!ttcore.tile<32x32, f32>, #ttnn.buffer_type<dram>>, <interleaved>>>) -> () loc("power.318")
[32m            RuntimeTTNN[0m | [1m[38;5;69m    INFO[0m | KCM DRAM View - Banks: 12 Size: 1023 MB TotalBytesAllocatedPerBank: 17 MB FreePerBank: 1009 MB ContiguousFreePerBank: 1001 MB
[32m            RuntimeTTNN[0m | [1m[38;5;69m    INFO[0m | Executing operation: %163 = "ttnn.sum"(%162) <{dim_arg = [2 : i32], keep_dim = false}> : (tensor<1x512x2560xf32, #ttnn.ttnn_layout<(d0, d1, d2) -> (d0 * 512 + d1, d2), <1x1>, memref<16x80x!ttcore.tile<32x32, f32>, #ttnn.buffer_type<dram>>, <interleaved>>>) -> tensor<1x512xf32, #ttnn.ttnn_layout<(d0, d1) -> (d0, d1), <1x1>, memref<1x16x!ttcore.tile<32x32, f32>, #ttnn.buffer_type<dram>>, <interleaved>>> loc("reduce.325")
[32m            RuntimeTTNN[0m | [1m[38;5;69m    INFO[0m | KCM DRAM View - Banks: 12 Size: 1023 MB TotalBytesAllocatedPerBank: 17 MB FreePerBank: 1010 MB ContiguousFreePerBank: 1001 MB
[32m            RuntimeTTNN[0m | [1m[38;5;69m    INFO[0m | Executing operation: "ttnn.deallocate"(%162) <{force = false}> : (tensor<1x512x2560xf32, #ttnn.ttnn_layout<(d0, d1, d2) -> (d0 * 512 + d1, d2), <1x1>, memref<16x80x!ttcore.tile<32x32, f32>, #ttnn.buffer_type<dram>>, <interleaved>>>) -> () loc("reduce.325")
[32m            RuntimeTTNN[0m | [1m[38;5;69m    INFO[0m | KCM DRAM View - Banks: 12 Size: 1023 MB TotalBytesAllocatedPerBank: 17 MB FreePerBank: 1009 MB ContiguousFreePerBank: 1001 MB
[32m            RuntimeTTNN[0m | [1m[38;5;69m    INFO[0m | Executing operation: %164 = "ttnn.multiply"(%163, %7) <{dtype = #ttcore.supportedDataTypes<f32>}> : (tensor<1x512xf32, #ttnn.ttnn_layout<(d0, d1) -> (d0, d1), <1x1>, memref<1x16x!ttcore.tile<32x32, f32>, #ttnn.buffer_type<dram>>, <interleaved>>>, tensor<1x512xf32, #ttnn.ttnn_layout<(d0, d1) -> (d0, d1), <1x1>, memref<1x16x!ttcore.tile<32x32, f32>, #ttnn.buffer_type<dram>>, <interleaved>>>) -> tensor<1x512xf32, #ttnn.ttnn_layout<(d0, d1) -> (d0, d1), <1x1>, memref<1x16x!ttcore.tile<32x32, f32>, #ttnn.buffer_type<dram>>, <interleaved>>> loc("multiply.334")
[32m            RuntimeTTNN[0m | [1m[38;5;69m    INFO[0m | KCM DRAM View - Banks: 12 Size: 1023 MB TotalBytesAllocatedPerBank: 16 MB FreePerBank: 1010 MB ContiguousFreePerBank: 1001 MB
[32m            RuntimeTTNN[0m | [1m[38;5;69m    INFO[0m | Executing operation: "ttnn.deallocate"(%163) <{force = false}> : (tensor<1x512xf32, #ttnn.ttnn_layout<(d0, d1) -> (d0, d1), <1x1>, memref<1x16x!ttcore.tile<32x32, f32>, #ttnn.buffer_type<dram>>, <interleaved>>>) -> () loc("multiply.334")
[32m            RuntimeTTNN[0m | [1m[38;5;69m    INFO[0m | KCM DRAM View - Banks: 12 Size: 1023 MB TotalBytesAllocatedPerBank: 16 MB FreePerBank: 1010 MB ContiguousFreePerBank: 1001 MB
[32m            RuntimeTTNN[0m | [1m[38;5;69m    INFO[0m | Executing operation: "ttnn.deallocate"(%7) <{force = false}> : (tensor<1x512xf32, #ttnn.ttnn_layout<(d0, d1) -> (d0, d1), <1x1>, memref<1x16x!ttcore.tile<32x32, f32>, #ttnn.buffer_type<dram>>, <interleaved>>>) -> () loc("multiply.334")
[32m            RuntimeTTNN[0m | [1m[38;5;69m    INFO[0m | KCM DRAM View - Banks: 12 Size: 1023 MB TotalBytesAllocatedPerBank: 16 MB FreePerBank: 1010 MB ContiguousFreePerBank: 1001 MB
[32m            RuntimeTTNN[0m | [1m[38;5;69m    INFO[0m | Executing operation: %165 = "ttnn.reshape"(%164) <{shape = [1 : i32, 512 : i32, 1 : i32]}> : (tensor<1x512xf32, #ttnn.ttnn_layout<(d0, d1) -> (d0, d1), <1x1>, memref<1x16x!ttcore.tile<32x32, f32>, #ttnn.buffer_type<dram>>, <interleaved>>>) -> tensor<1x512x1xf32, #ttnn.ttnn_layout<(d0, d1, d2) -> (d0 * 512 + d1, d2), <1x1>, memref<16x1x!ttcore.tile<32x32, f32>, #ttnn.buffer_type<dram>>, <interleaved>>> loc("multiply.334")
[32m            RuntimeTTNN[0m | [1m[38;5;69m    INFO[0m | KCM DRAM View - Banks: 12 Size: 1023 MB TotalBytesAllocatedPerBank: 16 MB FreePerBank: 1010 MB ContiguousFreePerBank: 1001 MB
[32m            RuntimeTTNN[0m | [1m[38;5;69m    INFO[0m | Executing operation: "ttnn.deallocate"(%164) <{force = false}> : (tensor<1x512xf32, #ttnn.ttnn_layout<(d0, d1) -> (d0, d1), <1x1>, memref<1x16x!ttcore.tile<32x32, f32>, #ttnn.buffer_type<dram>>, <interleaved>>>) -> () loc("multiply.334")
[32m            RuntimeTTNN[0m | [1m[38;5;69m    INFO[0m | KCM DRAM View - Banks: 12 Size: 1023 MB TotalBytesAllocatedPerBank: 16 MB FreePerBank: 1010 MB ContiguousFreePerBank: 1001 MB
[32m            RuntimeTTNN[0m | [1m[38;5;69m    INFO[0m | Executing operation: %166 = "ttnn.add"(%165, %145) <{dtype = #ttcore.supportedDataTypes<f32>}> : (tensor<1x512x1xf32, #ttnn.ttnn_layout<(d0, d1, d2) -> (d0 * 512 + d1, d2), <1x1>, memref<16x1x!ttcore.tile<32x32, f32>, #ttnn.buffer_type<dram>>, <interleaved>>>, tensor<1x1x1xf32, #ttnn.ttnn_layout<(d0, d1, d2) -> (d0 * 32 + d1, d2), <1x1>, memref<1x1x!ttcore.tile<32x32, f32>, #ttnn.buffer_type<dram>>, <interleaved>>>) -> tensor<1x512x1xf32, #ttnn.ttnn_layout<(d0, d1, d2) -> (d0 * 512 + d1, d2), <1x1>, memref<16x1x!ttcore.tile<32x32, f32>, #ttnn.buffer_type<dram>>, <interleaved>>> loc("add.339")
[32m            RuntimeTTNN[0m | [1m[38;5;69m    INFO[0m | KCM DRAM View - Banks: 12 Size: 1023 MB TotalBytesAllocatedPerBank: 16 MB FreePerBank: 1010 MB ContiguousFreePerBank: 1001 MB
[32m            RuntimeTTNN[0m | [1m[38;5;69m    INFO[0m | Executing operation: "ttnn.deallocate"(%165) <{force = false}> : (tensor<1x512x1xf32, #ttnn.ttnn_layout<(d0, d1, d2) -> (d0 * 512 + d1, d2), <1x1>, memref<16x1x!ttcore.tile<32x32, f32>, #ttnn.buffer_type<dram>>, <interleaved>>>) -> () loc("add.339")
[32m            RuntimeTTNN[0m | [1m[38;5;69m    INFO[0m | KCM DRAM View - Banks: 12 Size: 1023 MB TotalBytesAllocatedPerBank: 16 MB FreePerBank: 1010 MB ContiguousFreePerBank: 1001 MB
[32m            RuntimeTTNN[0m | [1m[38;5;69m    INFO[0m | Executing operation: "ttnn.deallocate"(%145) <{force = false}> : (tensor<1x1x1xf32, #ttnn.ttnn_layout<(d0, d1, d2) -> (d0 * 32 + d1, d2), <1x1>, memref<1x1x!ttcore.tile<32x32, f32>, #ttnn.buffer_type<dram>>, <interleaved>>>) -> () loc("add.339")
[32m            RuntimeTTNN[0m | [1m[38;5;69m    INFO[0m | KCM DRAM View - Banks: 12 Size: 1023 MB TotalBytesAllocatedPerBank: 16 MB FreePerBank: 1010 MB ContiguousFreePerBank: 1001 MB
[32m            RuntimeTTNN[0m | [1m[38;5;69m    INFO[0m | Executing operation: %167 = "ttnn.rsqrt"(%166) : (tensor<1x512x1xf32, #ttnn.ttnn_layout<(d0, d1, d2) -> (d0 * 512 + d1, d2), <1x1>, memref<16x1x!ttcore.tile<32x32, f32>, #ttnn.buffer_type<dram>>, <interleaved>>>) -> tensor<1x512x1xf32, #ttnn.ttnn_layout<(d0, d1, d2) -> (d0 * 512 + d1, d2), <1x1>, memref<16x1x!ttcore.tile<32x32, f32>, #ttnn.buffer_type<dram>>, <interleaved>>> loc("rsqrt.340")
[32m            RuntimeTTNN[0m | [1m[38;5;69m    INFO[0m | KCM DRAM View - Banks: 12 Size: 1023 MB TotalBytesAllocatedPerBank: 16 MB FreePerBank: 1010 MB ContiguousFreePerBank: 1001 MB
[32m            RuntimeTTNN[0m | [1m[38;5;69m    INFO[0m | Executing operation: "ttnn.deallocate"(%166) <{force = false}> : (tensor<1x512x1xf32, #ttnn.ttnn_layout<(d0, d1, d2) -> (d0 * 512 + d1, d2), <1x1>, memref<16x1x!ttcore.tile<32x32, f32>, #ttnn.buffer_type<dram>>, <interleaved>>>) -> () loc("rsqrt.340")
[32m            RuntimeTTNN[0m | [1m[38;5;69m    INFO[0m | KCM DRAM View - Banks: 12 Size: 1023 MB TotalBytesAllocatedPerBank: 16 MB FreePerBank: 1010 MB ContiguousFreePerBank: 1001 MB
[32m            RuntimeTTNN[0m | [1m[38;5;69m    INFO[0m | Executing operation: %168 = "ttnn.multiply"(%161, %167) <{dtype = #ttcore.supportedDataTypes<f32>}> : (tensor<1x512x2560xf32, #ttnn.ttnn_layout<(d0, d1, d2) -> (d0 * 512 + d1, d2), <1x1>, memref<16x80x!ttcore.tile<32x32, f32>, #ttnn.buffer_type<dram>>, <interleaved>>>, tensor<1x512x1xf32, #ttnn.ttnn_layout<(d0, d1, d2) -> (d0 * 512 + d1, d2), <1x1>, memref<16x1x!ttcore.tile<32x32, f32>, #ttnn.buffer_type<dram>>, <interleaved>>>) -> tensor<1x512x2560xf32, #ttnn.ttnn_layout<(d0, d1, d2) -> (d0 * 512 + d1, d2), <1x1>, memref<16x80x!ttcore.tile<32x32, f32>, #ttnn.buffer_type<dram>>, <interleaved>>> loc("multiply.343")
[32m            RuntimeTTNN[0m | [1m[38;5;69m    INFO[0m | KCM DRAM View - Banks: 12 Size: 1023 MB TotalBytesAllocatedPerBank: 16 MB FreePerBank: 1010 MB ContiguousFreePerBank: 1001 MB
[32m            RuntimeTTNN[0m | [1m[38;5;69m    INFO[0m | Executing operation: "ttnn.deallocate"(%167) <{force = false}> : (tensor<1x512x1xf32, #ttnn.ttnn_layout<(d0, d1, d2) -> (d0 * 512 + d1, d2), <1x1>, memref<16x1x!ttcore.tile<32x32, f32>, #ttnn.buffer_type<dram>>, <interleaved>>>) -> () loc("multiply.343")
[32m            RuntimeTTNN[0m | [1m[38;5;69m    INFO[0m | KCM DRAM View - Banks: 12 Size: 1023 MB TotalBytesAllocatedPerBank: 17 MB FreePerBank: 1009 MB ContiguousFreePerBank: 1001 MB
[32m            RuntimeTTNN[0m | [1m[38;5;69m    INFO[0m | Executing operation: "ttnn.deallocate"(%161) <{force = false}> : (tensor<1x512x2560xf32, #ttnn.ttnn_layout<(d0, d1, d2) -> (d0 * 512 + d1, d2), <1x1>, memref<16x80x!ttcore.tile<32x32, f32>, #ttnn.buffer_type<dram>>, <interleaved>>>) -> () loc("multiply.343")
[32m            RuntimeTTNN[0m | [1m[38;5;69m    INFO[0m | KCM DRAM View - Banks: 12 Size: 1023 MB TotalBytesAllocatedPerBank: 17 MB FreePerBank: 1009 MB ContiguousFreePerBank: 1001 MB
[32m            RuntimeTTNN[0m | [1m[38;5;69m    INFO[0m | Executing operation: %169 = "ttnn.multiply"(%16, %168) <{dtype = #ttcore.supportedDataTypes<f32>}> : (tensor<1x1x2560xf32, #ttnn.ttnn_layout<(d0, d1, d2) -> (d0 * 32 + d1, d2), <1x1>, memref<1x80x!ttcore.tile<32x32, f32>, #ttnn.buffer_type<dram>>, <interleaved>>>, tensor<1x512x2560xf32, #ttnn.ttnn_layout<(d0, d1, d2) -> (d0 * 512 + d1, d2), <1x1>, memref<16x80x!ttcore.tile<32x32, f32>, #ttnn.buffer_type<dram>>, <interleaved>>>) -> tensor<1x512x2560xf32, #ttnn.ttnn_layout<(d0, d1, d2) -> (d0 * 512 + d1, d2), <1x1>, memref<16x80x!ttcore.tile<32x32, f32>, #ttnn.buffer_type<dram>>, <interleaved>>> loc("multiply.347")
[32m            RuntimeTTNN[0m | [1m[38;5;69m    INFO[0m | KCM DRAM View - Banks: 12 Size: 1023 MB TotalBytesAllocatedPerBank: 16 MB FreePerBank: 1011 MB ContiguousFreePerBank: 1001 MB
[32m            RuntimeTTNN[0m | [1m[38;5;69m    INFO[0m | Executing operation: "ttnn.deallocate"(%168) <{force = false}> : (tensor<1x512x2560xf32, #ttnn.ttnn_layout<(d0, d1, d2) -> (d0 * 512 + d1, d2), <1x1>, memref<16x80x!ttcore.tile<32x32, f32>, #ttnn.buffer_type<dram>>, <interleaved>>>) -> () loc("multiply.347")
[32m            RuntimeTTNN[0m | [1m[38;5;69m    INFO[0m | KCM DRAM View - Banks: 12 Size: 1023 MB TotalBytesAllocatedPerBank: 17 MB FreePerBank: 1009 MB ContiguousFreePerBank: 1001 MB
[32m            RuntimeTTNN[0m | [1m[38;5;69m    INFO[0m | Executing operation: "ttnn.deallocate"(%16) <{force = false}> : (tensor<1x1x2560xf32, #ttnn.ttnn_layout<(d0, d1, d2) -> (d0 * 32 + d1, d2), <1x1>, memref<1x80x!ttcore.tile<32x32, f32>, #ttnn.buffer_type<dram>>, <interleaved>>>) -> () loc("multiply.347")
[32m            RuntimeTTNN[0m | [1m[38;5;69m    INFO[0m | KCM DRAM View - Banks: 12 Size: 1023 MB TotalBytesAllocatedPerBank: 16 MB FreePerBank: 1010 MB ContiguousFreePerBank: 1001 MB

Results for output 0:
  PCC: 0.7157, threshold: 0.9 âŽ (assert_pcc == False)
  ATOL: 62.5646, threshold: 0.01 âŽ (assert_atol == False)

FAILED

=================================== FAILURES ===================================
_______ test_all_models[qwen_3/embedding/pytorch-embedding_4b-full-eval] _______

test_entry = {'path': '/localdev/ssalice/tt-torch/third_party/tt_forge_models/qwen_3/embedding/pytorch/loader.py', 'variant_info': ...ING_4B: 'embedding_4b'>, <class 'tt-forge-models.qwen_3.embedding.pytorch.loader.ModelLoader'>, <enum 'ModelVariant'>)}
mode = 'eval', op_by_op = None
record_property = <function record_property.<locals>._original_record_property at 0x7fb502a377e0>
test_metadata = <tests.runner.test_utils.ModelTestConfig object at 0x7fb5c5a40410>

    @pytest.mark.parametrize(
        "mode",
        ["eval"],
    )
    @pytest.mark.parametrize(
        "op_by_op",
        [None],
        ids=["full"],
        # [OpByOpBackend.STABLEHLO, OpByOpBackend.TORCH, None],
        # ids=["op_by_op_stablehlo", "op_by_op_torch", "full"],
    )
    @pytest.mark.parametrize(
        "test_entry",
        test_entries,
        ids=create_test_id_generator(MODELS_ROOT),
    )
    def test_all_models(test_entry, mode, op_by_op, record_property, test_metadata):
        loader_path = test_entry["path"]
        variant_info = test_entry["variant_info"]
    
        # Ensure per-model requirements are installed, and roll back after the test
        with RequirementsManager.for_loader(loader_path):
            # FIXME - Consider cleaning this up, avoid call to import_model_loader_and_variant.
            if variant_info:
                # Unpack the tuple we stored earlier
                variant, ModelLoader, ModelVariant = variant_info
            else:
                # For models without variants
                ModelLoader, _ = import_model_loader_and_variant(loader_path, MODELS_ROOT)
                variant = None
    
            cc = CompilerConfig()
            cc.enable_consteval = True
            cc.consteval_parameters = True
            #cc.arg_type_map_override = True
    
            if op_by_op:
                cc.compile_depth = CompileDepth.EXECUTE_OP_BY_OP
                cc.op_by_op_backend = op_by_op
    
            # Use the variant from the test_entry parameter
            loader = ModelLoader(variant=variant)
    
            # Get model name from the ModelLoader's ModelInfo
            model_info = ModelLoader.get_model_info(variant=variant)
            print(f"model_name: {model_info.name} status: {test_metadata.status}")
    
            if test_metadata.status == ModelStatus.NOT_SUPPORTED_SKIP:
                skip_full_eval_test(
                    record_property,
                    cc,
                    model_info.name,
                    bringup_status=test_metadata.skip_bringup_status,
                    reason=test_metadata.skip_reason,
                    model_group=model_info.group,
                    forge_models_test=True,
                )
    
            tester = DynamicTester(
                model_info.name,
                mode,
                loader=loader,
                model_info=model_info,
                compiler_config=cc,
                record_property_handle=record_property,
                forge_models_test=True,
                **test_metadata.to_tester_args(),
            )
    
            results = tester.test_model()
>           tester.finalize()

tests/runner/test_models.py:94: 
_ _ _ _ _ _ _ _ _ _ _ _ _ _ _ _ _ _ _ _ _ _ _ _ _ _ _ _ _ _ _ _ _ _ _ _ _ _ _ _ 

self = <tests.runner.test_utils.DynamicTester object at 0x7fb5029a5690>

    def finalize(self):
        # to be called at the end of the test
    
        ModelTester.filter_nan_inf_for_record(self.record_tag_cache, "pccs")
        ModelTester.filter_nan_inf_for_record(self.record_tag_cache, "atols")
    
        ModelTester.record_aggregate_model_metric(self.record_tag_cache, "pccs")
        ModelTester.record_aggregate_model_metric(self.record_tag_cache, "atols")
    
        # FE standardization - pack a single PCC & ATOL into the tag record
        # use cached metrics. Guaranteed to be init'd to the default value
        self.record_tag_cache["pcc"] = self.record_tag_cache["min_pccs"]
        self.record_tag_cache["atol"] = self.record_tag_cache["max_atols"]
    
        # Compile depth is remapped post-execution to FE-standardized format
        # based on actual execution result.
        self.record_tag_cache["bringup_status"] = ModelTester.remap_compile_depth(
            self.compiler_config.compile_depth,
            self.record_tag_cache["min_pccs"],
            self.required_pcc,
        )
        self.record_property("tags", self.record_tag_cache)
    
        # Assert any deferred verification failures after all reporting is complete
        # This allows pytest to write junitxml during teardown even if the test fails
        if self.verification_failure_msg:
>           assert False, self.verification_failure_msg
                   ^^^^^
E           AssertionError: PCC check failed. Required: 0.9, Got lowest pcc 0.7157465505048731
E           Detail:
E           	output 0:0.7157465505048731 [req > 0.9]

tests/utils.py:843: AssertionError
=============================== warnings summary ===============================
install/torch_mlir/extras/onnx_importer.py:748
  /localdev/ssalice/tt-torch/install/torch_mlir/extras/onnx_importer.py:748: DeprecationWarning: invalid escape sequence '\w'
    return re.sub("[^\w\.]", "_", name)

<frozen importlib._bootstrap>:241
  <frozen importlib._bootstrap>:241: DeprecationWarning: builtin type SwigPyPacked has no __module__ attribute

<frozen importlib._bootstrap>:241
  <frozen importlib._bootstrap>:241: DeprecationWarning: builtin type SwigPyObject has no __module__ attribute

env/venv/lib/python3.11/site-packages/hippynn/_settings_setup.py:14
  /localdev/ssalice/tt-torch/env/venv/lib/python3.11/site-packages/hippynn/_settings_setup.py:14: DeprecationWarning: The distutils package is deprecated and slated for removal in Python 3.12. Use setuptools or check PEP 632 for potential alternatives
    from distutils.util import strtobool

tests/runner/test_models.py::test_all_models[qwen_3/embedding/pytorch-embedding_4b-full-eval]
tests/runner/test_models.py::test_all_models[qwen_3/embedding/pytorch-embedding_4b-full-eval]
tests/runner/test_models.py::test_all_models[qwen_3/embedding/pytorch-embedding_4b-full-eval]
  /localdev/ssalice/tt-torch/tt_torch/dynamo/experimental/xla_backend.py:769: DeprecationWarning: Use torch_xla.sync instead
    xm.mark_step()

tests/runner/test_models.py::test_all_models[qwen_3/embedding/pytorch-embedding_4b-full-eval]
  /localdev/ssalice/tt-torch/env/venv/lib/python3.11/site-packages/torch/fx/experimental/const_fold.py:264: UserWarning: Attempted to insert a get_attr Node with no underlying reference in the owning GraphModule! Call GraphModule.add_submodule to add the necessary submodule, GraphModule.add_parameter to add the necessary Parameter, or nn.Module.register_buffer to add the necessary buffer
    new_node = root_const_gm.graph.get_attr(in_node.target)

tests/runner/test_models.py::test_all_models[qwen_3/embedding/pytorch-embedding_4b-full-eval]
  /localdev/ssalice/tt-torch/env/venv/lib/python3.11/site-packages/torch/fx/graph.py:1316: UserWarning: Failed to fetch module L__self___layers__modules__0___self_attn_q_proj!
    warnings.warn(f"Failed to fetch module {module_path}!")

tests/runner/test_models.py::test_all_models[qwen_3/embedding/pytorch-embedding_4b-full-eval]
  /localdev/ssalice/tt-torch/env/venv/lib/python3.11/site-packages/torch/fx/graph.py:1316: UserWarning: Failed to fetch module L__self___layers__modules__0___self_attn_k_proj!
    warnings.warn(f"Failed to fetch module {module_path}!")

tests/runner/test_models.py::test_all_models[qwen_3/embedding/pytorch-embedding_4b-full-eval]
  /localdev/ssalice/tt-torch/env/venv/lib/python3.11/site-packages/torch/fx/graph.py:1316: UserWarning: Failed to fetch module L__self___layers__modules__0___self_attn_v_proj!
    warnings.warn(f"Failed to fetch module {module_path}!")

tests/runner/test_models.py::test_all_models[qwen_3/embedding/pytorch-embedding_4b-full-eval]
  /localdev/ssalice/tt-torch/env/venv/lib/python3.11/site-packages/torch/fx/graph.py:1316: UserWarning: Failed to fetch module L__self___layers__modules__0___self_attn_o_proj!
    warnings.warn(f"Failed to fetch module {module_path}!")

tests/runner/test_models.py::test_all_models[qwen_3/embedding/pytorch-embedding_4b-full-eval]
  /localdev/ssalice/tt-torch/env/venv/lib/python3.11/site-packages/torch/fx/graph.py:1316: UserWarning: Failed to fetch module L__self___layers__modules__0___mlp_gate_proj!
    warnings.warn(f"Failed to fetch module {module_path}!")

tests/runner/test_models.py::test_all_models[qwen_3/embedding/pytorch-embedding_4b-full-eval]
  /localdev/ssalice/tt-torch/env/venv/lib/python3.11/site-packages/torch/fx/graph.py:1316: UserWarning: Failed to fetch module L__self___layers__modules__0___mlp_up_proj!
    warnings.warn(f"Failed to fetch module {module_path}!")

tests/runner/test_models.py::test_all_models[qwen_3/embedding/pytorch-embedding_4b-full-eval]
  /localdev/ssalice/tt-torch/env/venv/lib/python3.11/site-packages/torch/fx/graph.py:1316: UserWarning: Failed to fetch module L__self___layers__modules__0___mlp_down_proj!
    warnings.warn(f"Failed to fetch module {module_path}!")

-- Docs: https://docs.pytest.org/en/stable/how-to/capture-warnings.html
=========================== short test summary info ============================
FAILED tests/runner/test_models.py::test_all_models[qwen_3/embedding/pytorch-embedding_4b-full-eval] - AssertionError: PCC check failed. Required: 0.9, Got lowest pcc 0.7157465505048731
Detail:
	output 0:0.7157465505048731 [req > 0.9]
================== 1 failed, 15 warnings in 112.34s (0:01:52) ==================
sys:1: DeprecationWarning: builtin type swigvarlink has no __module__ attribute
