module {
  func.func @main(%arg0: tensor<1x3x480x640xbf16>, %arg1: tensor<64x3x7x7xbf16>, %arg2: tensor<64xbf16>, %arg3: tensor<64xbf16>, %arg4: tensor<64xbf16>, %arg5: tensor<64xbf16>, %arg6: tensor<64xbf16>, %arg7: tensor<64x64x8x8xbf16>, %arg8: tensor<64xbf16>, %arg9: tensor<64xbf16>, %arg10: tensor<64xbf16>, %arg11: tensor<64xbf16>, %arg12: tensor<64xbf16>, %arg13: tensor<256x1x3x3xbf16>, %arg14: tensor<256xbf16>, %arg15: tensor<64xbf16>, %arg16: tensor<64xbf16>, %arg17: tensor<64xbf16>, %arg18: tensor<64x64x8x8xbf16>, %arg19: tensor<64xbf16>, %arg20: tensor<64xbf16>, %arg21: tensor<64xbf16>, %arg22: tensor<64xbf16>, %arg23: tensor<64xbf16>, %arg24: tensor<256x1x3x3xbf16>, %arg25: tensor<256xbf16>, %arg26: tensor<64xbf16>, %arg27: tensor<64xbf16>, %arg28: tensor<64xbf16>, %arg29: tensor<64x64x8x8xbf16>, %arg30: tensor<64xbf16>, %arg31: tensor<64xbf16>, %arg32: tensor<64xbf16>, %arg33: tensor<64xbf16>, %arg34: tensor<64xbf16>, %arg35: tensor<256x1x3x3xbf16>, %arg36: tensor<256xbf16>, %arg37: tensor<64xbf16>, %arg38: tensor<64xbf16>, %arg39: tensor<64xbf16>, %arg40: tensor<128x64x3x3xbf16>, %arg41: tensor<128xbf16>, %arg42: tensor<128xbf16>, %arg43: tensor<128xbf16>, %arg44: tensor<128xbf16>, %arg45: tensor<128xbf16>, %arg46: tensor<128x128x4x4xbf16>, %arg47: tensor<128xbf16>, %arg48: tensor<128xbf16>, %arg49: tensor<128xbf16>, %arg50: tensor<128xbf16>, %arg51: tensor<128xbf16>, %arg52: tensor<512x1x3x3xbf16>, %arg53: tensor<512xbf16>, %arg54: tensor<128xbf16>, %arg55: tensor<128xbf16>, %arg56: tensor<128xbf16>, %arg57: tensor<128x128x4x4xbf16>, %arg58: tensor<128xbf16>, %arg59: tensor<128xbf16>, %arg60: tensor<128xbf16>, %arg61: tensor<128xbf16>, %arg62: tensor<128xbf16>, %arg63: tensor<512x1x3x3xbf16>, %arg64: tensor<512xbf16>, %arg65: tensor<128xbf16>, %arg66: tensor<128xbf16>, %arg67: tensor<128xbf16>, %arg68: tensor<128x128x4x4xbf16>, %arg69: tensor<128xbf16>, %arg70: tensor<128xbf16>, %arg71: tensor<128xbf16>, %arg72: tensor<128xbf16>, %arg73: tensor<128xbf16>, %arg74: tensor<512x1x3x3xbf16>, %arg75: tensor<512xbf16>, %arg76: tensor<128xbf16>, %arg77: tensor<128xbf16>, %arg78: tensor<128xbf16>, %arg79: tensor<128x128x4x4xbf16>, %arg80: tensor<128xbf16>, %arg81: tensor<128xbf16>, %arg82: tensor<128xbf16>, %arg83: tensor<128xbf16>, %arg84: tensor<128xbf16>, %arg85: tensor<512x1x3x3xbf16>, %arg86: tensor<512xbf16>, %arg87: tensor<128xbf16>, %arg88: tensor<128xbf16>, %arg89: tensor<128xbf16>, %arg90: tensor<128x128x4x4xbf16>, %arg91: tensor<128xbf16>, %arg92: tensor<128xbf16>, %arg93: tensor<128xbf16>, %arg94: tensor<128xbf16>, %arg95: tensor<128xbf16>, %arg96: tensor<512x1x3x3xbf16>, %arg97: tensor<512xbf16>, %arg98: tensor<128xbf16>, %arg99: tensor<128xbf16>, %arg100: tensor<128xbf16>, %arg101: tensor<128x128x4x4xbf16>, %arg102: tensor<128xbf16>, %arg103: tensor<128xbf16>, %arg104: tensor<128xbf16>, %arg105: tensor<128xbf16>, %arg106: tensor<128xbf16>, %arg107: tensor<512x1x3x3xbf16>, %arg108: tensor<512xbf16>, %arg109: tensor<128xbf16>, %arg110: tensor<128xbf16>, %arg111: tensor<128xbf16>, %arg112: tensor<128x128x4x4xbf16>, %arg113: tensor<128xbf16>, %arg114: tensor<128xbf16>, %arg115: tensor<128xbf16>, %arg116: tensor<128xbf16>, %arg117: tensor<128xbf16>, %arg118: tensor<512x1x3x3xbf16>, %arg119: tensor<512xbf16>, %arg120: tensor<128xbf16>, %arg121: tensor<128xbf16>, %arg122: tensor<128xbf16>, %arg123: tensor<128x128x4x4xbf16>, %arg124: tensor<128xbf16>, %arg125: tensor<128xbf16>, %arg126: tensor<128xbf16>, %arg127: tensor<128xbf16>, %arg128: tensor<128xbf16>, %arg129: tensor<512x1x3x3xbf16>, %arg130: tensor<512xbf16>, %arg131: tensor<128xbf16>, %arg132: tensor<128xbf16>, %arg133: tensor<128xbf16>, %arg134: tensor<320x128x3x3xbf16>, %arg135: tensor<320xbf16>, %arg136: tensor<320xbf16>, %arg137: tensor<320xbf16>, %arg138: tensor<320xbf16>, %arg139: tensor<320xbf16>, %arg140: tensor<320x320x2x2xbf16>, %arg141: tensor<320xbf16>, %arg142: tensor<320xbf16>, %arg143: tensor<320xbf16>, %arg144: tensor<320xbf16>, %arg145: tensor<320xbf16>, %arg146: tensor<1280x1x3x3xbf16>, %arg147: tensor<1280xbf16>, %arg148: tensor<320xbf16>, %arg149: tensor<320xbf16>, %arg150: tensor<320xbf16>, %arg151: tensor<320x320x2x2xbf16>, %arg152: tensor<320xbf16>, %arg153: tensor<320xbf16>, %arg154: tensor<320xbf16>, %arg155: tensor<320xbf16>, %arg156: tensor<320xbf16>, %arg157: tensor<1280x1x3x3xbf16>, %arg158: tensor<1280xbf16>, %arg159: tensor<320xbf16>, %arg160: tensor<320xbf16>, %arg161: tensor<320xbf16>, %arg162: tensor<320x320x2x2xbf16>, %arg163: tensor<320xbf16>, %arg164: tensor<320xbf16>, %arg165: tensor<320xbf16>, %arg166: tensor<320xbf16>, %arg167: tensor<320xbf16>, %arg168: tensor<1280x1x3x3xbf16>, %arg169: tensor<1280xbf16>, %arg170: tensor<320xbf16>, %arg171: tensor<320xbf16>, %arg172: tensor<320xbf16>, %arg173: tensor<320x320x2x2xbf16>, %arg174: tensor<320xbf16>, %arg175: tensor<320xbf16>, %arg176: tensor<320xbf16>, %arg177: tensor<320xbf16>, %arg178: tensor<320xbf16>, %arg179: tensor<1280x1x3x3xbf16>, %arg180: tensor<1280xbf16>, %arg181: tensor<320xbf16>, %arg182: tensor<320xbf16>, %arg183: tensor<320xbf16>, %arg184: tensor<320x320x2x2xbf16>, %arg185: tensor<320xbf16>, %arg186: tensor<320xbf16>, %arg187: tensor<320xbf16>, %arg188: tensor<320xbf16>, %arg189: tensor<320xbf16>, %arg190: tensor<1280x1x3x3xbf16>, %arg191: tensor<1280xbf16>, %arg192: tensor<320xbf16>, %arg193: tensor<320xbf16>, %arg194: tensor<320xbf16>, %arg195: tensor<320x320x2x2xbf16>, %arg196: tensor<320xbf16>, %arg197: tensor<320xbf16>, %arg198: tensor<320xbf16>, %arg199: tensor<320xbf16>, %arg200: tensor<320xbf16>, %arg201: tensor<1280x1x3x3xbf16>, %arg202: tensor<1280xbf16>, %arg203: tensor<320xbf16>, %arg204: tensor<320xbf16>, %arg205: tensor<320xbf16>, %arg206: tensor<320x320x2x2xbf16>, %arg207: tensor<320xbf16>, %arg208: tensor<320xbf16>, %arg209: tensor<320xbf16>, %arg210: tensor<320xbf16>, %arg211: tensor<320xbf16>, %arg212: tensor<1280x1x3x3xbf16>, %arg213: tensor<1280xbf16>, %arg214: tensor<320xbf16>, %arg215: tensor<320xbf16>, %arg216: tensor<320xbf16>, %arg217: tensor<320x320x2x2xbf16>, %arg218: tensor<320xbf16>, %arg219: tensor<320xbf16>, %arg220: tensor<320xbf16>, %arg221: tensor<320xbf16>, %arg222: tensor<320xbf16>, %arg223: tensor<1280x1x3x3xbf16>, %arg224: tensor<1280xbf16>, %arg225: tensor<320xbf16>, %arg226: tensor<320xbf16>, %arg227: tensor<320xbf16>, %arg228: tensor<320x320x2x2xbf16>, %arg229: tensor<320xbf16>, %arg230: tensor<320xbf16>, %arg231: tensor<320xbf16>, %arg232: tensor<320xbf16>, %arg233: tensor<320xbf16>, %arg234: tensor<1280x1x3x3xbf16>, %arg235: tensor<1280xbf16>, %arg236: tensor<320xbf16>, %arg237: tensor<320xbf16>, %arg238: tensor<320xbf16>, %arg239: tensor<320x320x2x2xbf16>, %arg240: tensor<320xbf16>, %arg241: tensor<320xbf16>, %arg242: tensor<320xbf16>, %arg243: tensor<320xbf16>, %arg244: tensor<320xbf16>, %arg245: tensor<1280x1x3x3xbf16>, %arg246: tensor<1280xbf16>, %arg247: tensor<320xbf16>, %arg248: tensor<320xbf16>, %arg249: tensor<320xbf16>, %arg250: tensor<320x320x2x2xbf16>, %arg251: tensor<320xbf16>, %arg252: tensor<320xbf16>, %arg253: tensor<320xbf16>, %arg254: tensor<320xbf16>, %arg255: tensor<320xbf16>, %arg256: tensor<1280x1x3x3xbf16>, %arg257: tensor<1280xbf16>, %arg258: tensor<320xbf16>, %arg259: tensor<320xbf16>, %arg260: tensor<320xbf16>, %arg261: tensor<320x320x2x2xbf16>, %arg262: tensor<320xbf16>, %arg263: tensor<320xbf16>, %arg264: tensor<320xbf16>, %arg265: tensor<320xbf16>, %arg266: tensor<320xbf16>, %arg267: tensor<1280x1x3x3xbf16>, %arg268: tensor<1280xbf16>, %arg269: tensor<320xbf16>, %arg270: tensor<320xbf16>, %arg271: tensor<320xbf16>, %arg272: tensor<320x320x2x2xbf16>, %arg273: tensor<320xbf16>, %arg274: tensor<320xbf16>, %arg275: tensor<320xbf16>, %arg276: tensor<320xbf16>, %arg277: tensor<320xbf16>, %arg278: tensor<1280x1x3x3xbf16>, %arg279: tensor<1280xbf16>, %arg280: tensor<320xbf16>, %arg281: tensor<320xbf16>, %arg282: tensor<320xbf16>, %arg283: tensor<320x320x2x2xbf16>, %arg284: tensor<320xbf16>, %arg285: tensor<320xbf16>, %arg286: tensor<320xbf16>, %arg287: tensor<320xbf16>, %arg288: tensor<320xbf16>, %arg289: tensor<1280x1x3x3xbf16>, %arg290: tensor<1280xbf16>, %arg291: tensor<320xbf16>, %arg292: tensor<320xbf16>, %arg293: tensor<320xbf16>, %arg294: tensor<320x320x2x2xbf16>, %arg295: tensor<320xbf16>, %arg296: tensor<320xbf16>, %arg297: tensor<320xbf16>, %arg298: tensor<320xbf16>, %arg299: tensor<320xbf16>, %arg300: tensor<1280x1x3x3xbf16>, %arg301: tensor<1280xbf16>, %arg302: tensor<320xbf16>, %arg303: tensor<320xbf16>, %arg304: tensor<320xbf16>, %arg305: tensor<320x320x2x2xbf16>, %arg306: tensor<320xbf16>, %arg307: tensor<320xbf16>, %arg308: tensor<320xbf16>, %arg309: tensor<320xbf16>, %arg310: tensor<320xbf16>, %arg311: tensor<1280x1x3x3xbf16>, %arg312: tensor<1280xbf16>, %arg313: tensor<320xbf16>, %arg314: tensor<320xbf16>, %arg315: tensor<320xbf16>, %arg316: tensor<320x320x2x2xbf16>, %arg317: tensor<320xbf16>, %arg318: tensor<320xbf16>, %arg319: tensor<320xbf16>, %arg320: tensor<320xbf16>, %arg321: tensor<320xbf16>, %arg322: tensor<1280x1x3x3xbf16>, %arg323: tensor<1280xbf16>, %arg324: tensor<320xbf16>, %arg325: tensor<320xbf16>, %arg326: tensor<320xbf16>, %arg327: tensor<320x320x2x2xbf16>, %arg328: tensor<320xbf16>, %arg329: tensor<320xbf16>, %arg330: tensor<320xbf16>, %arg331: tensor<320xbf16>, %arg332: tensor<320xbf16>, %arg333: tensor<1280x1x3x3xbf16>, %arg334: tensor<1280xbf16>, %arg335: tensor<320xbf16>, %arg336: tensor<320xbf16>, %arg337: tensor<320xbf16>, %arg338: tensor<320x320x2x2xbf16>, %arg339: tensor<320xbf16>, %arg340: tensor<320xbf16>, %arg341: tensor<320xbf16>, %arg342: tensor<320xbf16>, %arg343: tensor<320xbf16>, %arg344: tensor<1280x1x3x3xbf16>, %arg345: tensor<1280xbf16>, %arg346: tensor<320xbf16>, %arg347: tensor<320xbf16>, %arg348: tensor<320xbf16>, %arg349: tensor<320x320x2x2xbf16>, %arg350: tensor<320xbf16>, %arg351: tensor<320xbf16>, %arg352: tensor<320xbf16>, %arg353: tensor<320xbf16>, %arg354: tensor<320xbf16>, %arg355: tensor<1280x1x3x3xbf16>, %arg356: tensor<1280xbf16>, %arg357: tensor<320xbf16>, %arg358: tensor<320xbf16>, %arg359: tensor<320xbf16>, %arg360: tensor<320x320x2x2xbf16>, %arg361: tensor<320xbf16>, %arg362: tensor<320xbf16>, %arg363: tensor<320xbf16>, %arg364: tensor<320xbf16>, %arg365: tensor<320xbf16>, %arg366: tensor<1280x1x3x3xbf16>, %arg367: tensor<1280xbf16>, %arg368: tensor<320xbf16>, %arg369: tensor<320xbf16>, %arg370: tensor<320xbf16>, %arg371: tensor<320x320x2x2xbf16>, %arg372: tensor<320xbf16>, %arg373: tensor<320xbf16>, %arg374: tensor<320xbf16>, %arg375: tensor<320xbf16>, %arg376: tensor<320xbf16>, %arg377: tensor<1280x1x3x3xbf16>, %arg378: tensor<1280xbf16>, %arg379: tensor<320xbf16>, %arg380: tensor<320xbf16>, %arg381: tensor<320xbf16>, %arg382: tensor<320x320x2x2xbf16>, %arg383: tensor<320xbf16>, %arg384: tensor<320xbf16>, %arg385: tensor<320xbf16>, %arg386: tensor<320xbf16>, %arg387: tensor<320xbf16>, %arg388: tensor<1280x1x3x3xbf16>, %arg389: tensor<1280xbf16>, %arg390: tensor<320xbf16>, %arg391: tensor<320xbf16>, %arg392: tensor<320xbf16>, %arg393: tensor<320x320x2x2xbf16>, %arg394: tensor<320xbf16>, %arg395: tensor<320xbf16>, %arg396: tensor<320xbf16>, %arg397: tensor<320xbf16>, %arg398: tensor<320xbf16>, %arg399: tensor<1280x1x3x3xbf16>, %arg400: tensor<1280xbf16>, %arg401: tensor<320xbf16>, %arg402: tensor<320xbf16>, %arg403: tensor<320xbf16>, %arg404: tensor<320x320x2x2xbf16>, %arg405: tensor<320xbf16>, %arg406: tensor<320xbf16>, %arg407: tensor<320xbf16>, %arg408: tensor<320xbf16>, %arg409: tensor<320xbf16>, %arg410: tensor<1280x1x3x3xbf16>, %arg411: tensor<1280xbf16>, %arg412: tensor<320xbf16>, %arg413: tensor<320xbf16>, %arg414: tensor<320xbf16>, %arg415: tensor<320x320x2x2xbf16>, %arg416: tensor<320xbf16>, %arg417: tensor<320xbf16>, %arg418: tensor<320xbf16>, %arg419: tensor<320xbf16>, %arg420: tensor<320xbf16>, %arg421: tensor<1280x1x3x3xbf16>, %arg422: tensor<1280xbf16>, %arg423: tensor<320xbf16>, %arg424: tensor<320xbf16>, %arg425: tensor<320xbf16>, %arg426: tensor<320x320x2x2xbf16>, %arg427: tensor<320xbf16>, %arg428: tensor<320xbf16>, %arg429: tensor<320xbf16>, %arg430: tensor<320xbf16>, %arg431: tensor<320xbf16>, %arg432: tensor<1280x1x3x3xbf16>, %arg433: tensor<1280xbf16>, %arg434: tensor<320xbf16>, %arg435: tensor<320xbf16>, %arg436: tensor<320xbf16>, %arg437: tensor<512x320x3x3xbf16>, %arg438: tensor<512xbf16>, %arg439: tensor<512xbf16>, %arg440: tensor<512xbf16>, %arg441: tensor<512xbf16>, %arg442: tensor<512xbf16>, %arg443: tensor<512xbf16>, %arg444: tensor<512xbf16>, %arg445: tensor<2048x1x3x3xbf16>, %arg446: tensor<2048xbf16>, %arg447: tensor<512xbf16>, %arg448: tensor<512xbf16>, %arg449: tensor<512xbf16>, %arg450: tensor<512xbf16>, %arg451: tensor<512xbf16>, %arg452: tensor<2048x1x3x3xbf16>, %arg453: tensor<2048xbf16>, %arg454: tensor<512xbf16>, %arg455: tensor<512xbf16>, %arg456: tensor<512xbf16>, %arg457: tensor<512xbf16>, %arg458: tensor<512xbf16>, %arg459: tensor<2048x1x3x3xbf16>, %arg460: tensor<2048xbf16>, %arg461: tensor<512xbf16>, %arg462: tensor<512xbf16>, %arg463: tensor<512xbf16>, %arg464: tensor<64x512x1x1xbf16>, %arg465: tensor<64xbf16>, %arg466: tensor<64x320x1x1xbf16>, %arg467: tensor<64xbf16>, %arg468: tensor<64x128x3x3xbf16>, %arg469: tensor<64xbf16>, %arg470: tensor<32x64x3x3xbf16>, %arg471: tensor<32xbf16>, %arg472: tensor<2x32x3x3xbf16>, %arg473: tensor<2xbf16>, %arg474: tensor<64x128x1x1xbf16>, %arg475: tensor<64xbf16>, %arg476: tensor<64x128x3x3xbf16>, %arg477: tensor<64xbf16>, %arg478: tensor<32x64x3x3xbf16>, %arg479: tensor<32xbf16>, %arg480: tensor<2x32x3x3xbf16>, %arg481: tensor<2xbf16>, %arg482: tensor<64x128x3x3xbf16>, %arg483: tensor<64xbf16>, %arg484: tensor<32x64x3x3xbf16>, %arg485: tensor<32xbf16>, %arg486: tensor<2x32x3x3xbf16>, %arg487: tensor<2xbf16>, %arg488: tensor<64x64x3x3xbf16>, %arg489: tensor<64xbf16>, %arg490: tensor<1x64x3x3xbf16>, %arg491: tensor<1xbf16>, %arg492: tensor<64x64xf32>, %arg493: tensor<64xf32>, %arg494: tensor<64x64xf32>, %arg495: tensor<64xf32>, %arg496: tensor<64x64xf32>, %arg497: tensor<64xf32>, %arg498: tensor<64x64xf32>, %arg499: tensor<64xf32>, %arg500: tensor<64x256xf32>, %arg501: tensor<256xf32>, %arg502: tensor<256x64xbf16>, %arg503: tensor<64x64xf32>, %arg504: tensor<64xf32>, %arg505: tensor<64x64xf32>, %arg506: tensor<64xf32>, %arg507: tensor<64x64xf32>, %arg508: tensor<64xf32>, %arg509: tensor<64x64xf32>, %arg510: tensor<64xf32>, %arg511: tensor<64x256xf32>, %arg512: tensor<256xf32>, %arg513: tensor<256x64xbf16>, %arg514: tensor<64x64xf32>, %arg515: tensor<64xf32>, %arg516: tensor<64x64xf32>, %arg517: tensor<64xf32>, %arg518: tensor<64x64xf32>, %arg519: tensor<64xf32>, %arg520: tensor<64x64xf32>, %arg521: tensor<64xf32>, %arg522: tensor<64x256xf32>, %arg523: tensor<256xf32>, %arg524: tensor<256x64xbf16>, %arg525: tensor<128x128xf32>, %arg526: tensor<128xf32>, %arg527: tensor<128x128xf32>, %arg528: tensor<128xf32>, %arg529: tensor<128x128xf32>, %arg530: tensor<128xf32>, %arg531: tensor<128x128xf32>, %arg532: tensor<128xf32>, %arg533: tensor<128x512xf32>, %arg534: tensor<512xf32>, %arg535: tensor<512x128xbf16>, %arg536: tensor<128x128xf32>, %arg537: tensor<128xf32>, %arg538: tensor<128x128xf32>, %arg539: tensor<128xf32>, %arg540: tensor<128x128xf32>, %arg541: tensor<128xf32>, %arg542: tensor<128x128xf32>, %arg543: tensor<128xf32>, %arg544: tensor<128x512xf32>, %arg545: tensor<512xf32>, %arg546: tensor<512x128xbf16>, %arg547: tensor<128x128xf32>, %arg548: tensor<128xf32>, %arg549: tensor<128x128xf32>, %arg550: tensor<128xf32>, %arg551: tensor<128x128xf32>, %arg552: tensor<128xf32>, %arg553: tensor<128x128xf32>, %arg554: tensor<128xf32>, %arg555: tensor<128x512xf32>, %arg556: tensor<512xf32>, %arg557: tensor<512x128xbf16>, %arg558: tensor<128x128xf32>, %arg559: tensor<128xf32>, %arg560: tensor<128x128xf32>, %arg561: tensor<128xf32>, %arg562: tensor<128x128xf32>, %arg563: tensor<128xf32>, %arg564: tensor<128x128xf32>, %arg565: tensor<128xf32>, %arg566: tensor<128x512xf32>, %arg567: tensor<512xf32>, %arg568: tensor<512x128xbf16>, %arg569: tensor<128x128xf32>, %arg570: tensor<128xf32>, %arg571: tensor<128x128xf32>, %arg572: tensor<128xf32>, %arg573: tensor<128x128xf32>, %arg574: tensor<128xf32>, %arg575: tensor<128x128xf32>, %arg576: tensor<128xf32>, %arg577: tensor<128x512xf32>, %arg578: tensor<512xf32>, %arg579: tensor<512x128xbf16>, %arg580: tensor<128x128xf32>, %arg581: tensor<128xf32>, %arg582: tensor<128x128xf32>, %arg583: tensor<128xf32>, %arg584: tensor<128x128xf32>, %arg585: tensor<128xf32>, %arg586: tensor<128x128xf32>, %arg587: tensor<128xf32>, %arg588: tensor<128x512xf32>, %arg589: tensor<512xf32>, %arg590: tensor<512x128xbf16>, %arg591: tensor<128x128xf32>, %arg592: tensor<128xf32>, %arg593: tensor<128x128xf32>, %arg594: tensor<128xf32>, %arg595: tensor<128x128xf32>, %arg596: tensor<128xf32>, %arg597: tensor<128x128xf32>, %arg598: tensor<128xf32>, %arg599: tensor<128x512xf32>, %arg600: tensor<512xf32>, %arg601: tensor<512x128xbf16>, %arg602: tensor<128x128xf32>, %arg603: tensor<128xf32>, %arg604: tensor<128x128xf32>, %arg605: tensor<128xf32>, %arg606: tensor<128x128xf32>, %arg607: tensor<128xf32>, %arg608: tensor<128x128xf32>, %arg609: tensor<128xf32>, %arg610: tensor<128x512xf32>, %arg611: tensor<512xf32>, %arg612: tensor<512x128xbf16>, %arg613: tensor<320x320xf32>, %arg614: tensor<320xf32>, %arg615: tensor<320x320xf32>, %arg616: tensor<320xf32>, %arg617: tensor<320x320xf32>, %arg618: tensor<320xf32>, %arg619: tensor<320x320xf32>, %arg620: tensor<320xf32>, %arg621: tensor<320x1280xf32>, %arg622: tensor<1280xf32>, %arg623: tensor<1280x320xbf16>, %arg624: tensor<320x320xf32>, %arg625: tensor<320xf32>, %arg626: tensor<320x320xf32>, %arg627: tensor<320xf32>, %arg628: tensor<320x320xf32>, %arg629: tensor<320xf32>, %arg630: tensor<320x320xf32>, %arg631: tensor<320xf32>, %arg632: tensor<320x1280xf32>, %arg633: tensor<1280xf32>, %arg634: tensor<1280x320xbf16>, %arg635: tensor<320x320xf32>, %arg636: tensor<320xf32>, %arg637: tensor<320x320xf32>, %arg638: tensor<320xf32>, %arg639: tensor<320x320xf32>, %arg640: tensor<320xf32>, %arg641: tensor<320x320xf32>, %arg642: tensor<320xf32>, %arg643: tensor<320x1280xf32>, %arg644: tensor<1280xf32>, %arg645: tensor<1280x320xbf16>, %arg646: tensor<320x320xf32>, %arg647: tensor<320xf32>, %arg648: tensor<320x320xf32>, %arg649: tensor<320xf32>, %arg650: tensor<320x320xf32>, %arg651: tensor<320xf32>, %arg652: tensor<320x320xf32>, %arg653: tensor<320xf32>, %arg654: tensor<320x1280xf32>, %arg655: tensor<1280xf32>, %arg656: tensor<1280x320xbf16>, %arg657: tensor<320x320xf32>, %arg658: tensor<320xf32>, %arg659: tensor<320x320xf32>, %arg660: tensor<320xf32>, %arg661: tensor<320x320xf32>, %arg662: tensor<320xf32>, %arg663: tensor<320x320xf32>, %arg664: tensor<320xf32>, %arg665: tensor<320x1280xf32>, %arg666: tensor<1280xf32>, %arg667: tensor<1280x320xbf16>, %arg668: tensor<320x320xf32>, %arg669: tensor<320xf32>, %arg670: tensor<320x320xf32>, %arg671: tensor<320xf32>, %arg672: tensor<320x320xf32>, %arg673: tensor<320xf32>, %arg674: tensor<320x320xf32>, %arg675: tensor<320xf32>, %arg676: tensor<320x1280xf32>, %arg677: tensor<1280xf32>, %arg678: tensor<1280x320xbf16>, %arg679: tensor<320x320xf32>, %arg680: tensor<320xf32>, %arg681: tensor<320x320xf32>, %arg682: tensor<320xf32>, %arg683: tensor<320x320xf32>, %arg684: tensor<320xf32>, %arg685: tensor<320x320xf32>, %arg686: tensor<320xf32>, %arg687: tensor<320x1280xf32>, %arg688: tensor<1280xf32>, %arg689: tensor<1280x320xbf16>, %arg690: tensor<320x320xf32>, %arg691: tensor<320xf32>, %arg692: tensor<320x320xf32>, %arg693: tensor<320xf32>, %arg694: tensor<320x320xf32>, %arg695: tensor<320xf32>, %arg696: tensor<320x320xf32>, %arg697: tensor<320xf32>, %arg698: tensor<320x1280xf32>, %arg699: tensor<1280xf32>, %arg700: tensor<1280x320xbf16>, %arg701: tensor<320x320xf32>, %arg702: tensor<320xf32>, %arg703: tensor<320x320xf32>, %arg704: tensor<320xf32>, %arg705: tensor<320x320xf32>, %arg706: tensor<320xf32>, %arg707: tensor<320x320xf32>, %arg708: tensor<320xf32>, %arg709: tensor<320x1280xf32>, %arg710: tensor<1280xf32>, %arg711: tensor<1280x320xbf16>, %arg712: tensor<320x320xf32>, %arg713: tensor<320xf32>, %arg714: tensor<320x320xf32>, %arg715: tensor<320xf32>, %arg716: tensor<320x320xf32>, %arg717: tensor<320xf32>, %arg718: tensor<320x320xf32>, %arg719: tensor<320xf32>, %arg720: tensor<320x1280xf32>, %arg721: tensor<1280xf32>, %arg722: tensor<1280x320xbf16>, %arg723: tensor<320x320xf32>, %arg724: tensor<320xf32>, %arg725: tensor<320x320xf32>, %arg726: tensor<320xf32>, %arg727: tensor<320x320xf32>, %arg728: tensor<320xf32>, %arg729: tensor<320x320xf32>, %arg730: tensor<320xf32>, %arg731: tensor<320x1280xf32>, %arg732: tensor<1280xf32>, %arg733: tensor<1280x320xbf16>, %arg734: tensor<320x320xf32>, %arg735: tensor<320xf32>, %arg736: tensor<320x320xf32>, %arg737: tensor<320xf32>, %arg738: tensor<320x320xf32>, %arg739: tensor<320xf32>, %arg740: tensor<320x320xf32>, %arg741: tensor<320xf32>, %arg742: tensor<320x1280xf32>, %arg743: tensor<1280xf32>, %arg744: tensor<1280x320xbf16>, %arg745: tensor<320x320xf32>, %arg746: tensor<320xf32>, %arg747: tensor<320x320xf32>, %arg748: tensor<320xf32>, %arg749: tensor<320x320xf32>, %arg750: tensor<320xf32>, %arg751: tensor<320x320xf32>, %arg752: tensor<320xf32>, %arg753: tensor<320x1280xf32>, %arg754: tensor<1280xf32>, %arg755: tensor<1280x320xbf16>, %arg756: tensor<320x320xf32>, %arg757: tensor<320xf32>, %arg758: tensor<320x320xf32>, %arg759: tensor<320xf32>, %arg760: tensor<320x320xf32>, %arg761: tensor<320xf32>, %arg762: tensor<320x320xf32>, %arg763: tensor<320xf32>, %arg764: tensor<320x1280xf32>, %arg765: tensor<1280xf32>, %arg766: tensor<1280x320xbf16>, %arg767: tensor<320x320xf32>, %arg768: tensor<320xf32>, %arg769: tensor<320x320xf32>, %arg770: tensor<320xf32>, %arg771: tensor<320x320xf32>, %arg772: tensor<320xf32>, %arg773: tensor<320x320xf32>, %arg774: tensor<320xf32>, %arg775: tensor<320x1280xf32>, %arg776: tensor<1280xf32>, %arg777: tensor<1280x320xbf16>, %arg778: tensor<320x320xf32>, %arg779: tensor<320xf32>, %arg780: tensor<320x320xf32>, %arg781: tensor<320xf32>, %arg782: tensor<320x320xf32>, %arg783: tensor<320xf32>, %arg784: tensor<320x320xf32>, %arg785: tensor<320xf32>, %arg786: tensor<320x1280xf32>, %arg787: tensor<1280xf32>, %arg788: tensor<1280x320xbf16>, %arg789: tensor<320x320xf32>, %arg790: tensor<320xf32>, %arg791: tensor<320x320xf32>, %arg792: tensor<320xf32>, %arg793: tensor<320x320xf32>, %arg794: tensor<320xf32>, %arg795: tensor<320x320xf32>, %arg796: tensor<320xf32>, %arg797: tensor<320x1280xf32>, %arg798: tensor<1280xf32>, %arg799: tensor<1280x320xbf16>, %arg800: tensor<320x320xf32>, %arg801: tensor<320xf32>, %arg802: tensor<320x320xf32>, %arg803: tensor<320xf32>, %arg804: tensor<320x320xf32>, %arg805: tensor<320xf32>, %arg806: tensor<320x320xf32>, %arg807: tensor<320xf32>, %arg808: tensor<320x1280xf32>, %arg809: tensor<1280xf32>, %arg810: tensor<1280x320xbf16>, %arg811: tensor<320x320xf32>, %arg812: tensor<320xf32>, %arg813: tensor<320x320xf32>, %arg814: tensor<320xf32>, %arg815: tensor<320x320xf32>, %arg816: tensor<320xf32>, %arg817: tensor<320x320xf32>, %arg818: tensor<320xf32>, %arg819: tensor<320x1280xf32>, %arg820: tensor<1280xf32>, %arg821: tensor<1280x320xbf16>, %arg822: tensor<320x320xf32>, %arg823: tensor<320xf32>, %arg824: tensor<320x320xf32>, %arg825: tensor<320xf32>, %arg826: tensor<320x320xf32>, %arg827: tensor<320xf32>, %arg828: tensor<320x320xf32>, %arg829: tensor<320xf32>, %arg830: tensor<320x1280xf32>, %arg831: tensor<1280xf32>, %arg832: tensor<1280x320xbf16>, %arg833: tensor<320x320xf32>, %arg834: tensor<320xf32>, %arg835: tensor<320x320xf32>, %arg836: tensor<320xf32>, %arg837: tensor<320x320xf32>, %arg838: tensor<320xf32>, %arg839: tensor<320x320xf32>, %arg840: tensor<320xf32>, %arg841: tensor<320x1280xf32>, %arg842: tensor<1280xf32>, %arg843: tensor<1280x320xbf16>, %arg844: tensor<320x320xf32>, %arg845: tensor<320xf32>, %arg846: tensor<320x320xf32>, %arg847: tensor<320xf32>, %arg848: tensor<320x320xf32>, %arg849: tensor<320xf32>, %arg850: tensor<320x320xf32>, %arg851: tensor<320xf32>, %arg852: tensor<320x1280xf32>, %arg853: tensor<1280xf32>, %arg854: tensor<1280x320xbf16>, %arg855: tensor<320x320xf32>, %arg856: tensor<320xf32>, %arg857: tensor<320x320xf32>, %arg858: tensor<320xf32>, %arg859: tensor<320x320xf32>, %arg860: tensor<320xf32>, %arg861: tensor<320x320xf32>, %arg862: tensor<320xf32>, %arg863: tensor<320x1280xf32>, %arg864: tensor<1280xf32>, %arg865: tensor<1280x320xbf16>, %arg866: tensor<320x320xf32>, %arg867: tensor<320xf32>, %arg868: tensor<320x320xf32>, %arg869: tensor<320xf32>, %arg870: tensor<320x320xf32>, %arg871: tensor<320xf32>, %arg872: tensor<320x320xf32>, %arg873: tensor<320xf32>, %arg874: tensor<320x1280xf32>, %arg875: tensor<1280xf32>, %arg876: tensor<1280x320xbf16>, %arg877: tensor<320x320xf32>, %arg878: tensor<320xf32>, %arg879: tensor<320x320xf32>, %arg880: tensor<320xf32>, %arg881: tensor<320x320xf32>, %arg882: tensor<320xf32>, %arg883: tensor<320x320xf32>, %arg884: tensor<320xf32>, %arg885: tensor<320x1280xf32>, %arg886: tensor<1280xf32>, %arg887: tensor<1280x320xbf16>, %arg888: tensor<320x320xf32>, %arg889: tensor<320xf32>, %arg890: tensor<320x320xf32>, %arg891: tensor<320xf32>, %arg892: tensor<320x320xf32>, %arg893: tensor<320xf32>, %arg894: tensor<320x320xf32>, %arg895: tensor<320xf32>, %arg896: tensor<320x1280xf32>, %arg897: tensor<1280xf32>, %arg898: tensor<1280x320xbf16>, %arg899: tensor<320x320xf32>, %arg900: tensor<320xf32>, %arg901: tensor<320x320xf32>, %arg902: tensor<320xf32>, %arg903: tensor<320x320xf32>, %arg904: tensor<320xf32>, %arg905: tensor<320x320xf32>, %arg906: tensor<320xf32>, %arg907: tensor<320x1280xf32>, %arg908: tensor<1280xf32>, %arg909: tensor<1280x320xbf16>, %arg910: tensor<512x512xf32>, %arg911: tensor<512xf32>, %arg912: tensor<512x512xf32>, %arg913: tensor<512xf32>, %arg914: tensor<512x512xf32>, %arg915: tensor<512xf32>, %arg916: tensor<512x512xf32>, %arg917: tensor<512xf32>, %arg918: tensor<512x2048xf32>, %arg919: tensor<2048xf32>, %arg920: tensor<2048x512xbf16>, %arg921: tensor<512x512xf32>, %arg922: tensor<512xf32>, %arg923: tensor<512x512xf32>, %arg924: tensor<512xf32>, %arg925: tensor<512x512xf32>, %arg926: tensor<512xf32>, %arg927: tensor<512x512xf32>, %arg928: tensor<512xf32>, %arg929: tensor<512x2048xf32>, %arg930: tensor<2048xf32>, %arg931: tensor<2048x512xbf16>, %arg932: tensor<512x512xf32>, %arg933: tensor<512xf32>, %arg934: tensor<512x512xf32>, %arg935: tensor<512xf32>, %arg936: tensor<512x512xf32>, %arg937: tensor<512xf32>, %arg938: tensor<512x512xf32>, %arg939: tensor<512xf32>, %arg940: tensor<512x2048xf32>, %arg941: tensor<2048xf32>, %arg942: tensor<2048x512xbf16>, %arg943: tensor<64x15x30xbf16>, %arg944: tensor<64x20x40xbf16>, %arg945: tensor<64x1x1xf32>, %arg946: tensor<64x1x1xf32>, %arg947: tensor<64x1x1xbf16>, %arg948: tensor<64x1x1xbf16>, %arg949: tensor<32x1x1xf32>, %arg950: tensor<32x1x1xf32>, %arg951: tensor<32x1x1xbf16>, %arg952: tensor<32x1x1xbf16>, %arg953: tensor<64x30x60xbf16>, %arg954: tensor<64x40x80xbf16>, %arg955: tensor<64x1x1xf32>, %arg956: tensor<64x1x1xf32>, %arg957: tensor<64x1x1xbf16>, %arg958: tensor<64x1x1xbf16>, %arg959: tensor<32x1x1xf32>, %arg960: tensor<32x1x1xf32>, %arg961: tensor<32x1x1xbf16>, %arg962: tensor<32x1x1xbf16>, %arg963: tensor<64x60x120xbf16>, %arg964: tensor<64x80x160xbf16>, %arg965: tensor<64x1x1xf32>, %arg966: tensor<64x1x1xf32>, %arg967: tensor<64x1x1xbf16>, %arg968: tensor<64x1x1xbf16>, %arg969: tensor<32x1x1xf32>, %arg970: tensor<32x1x1xf32>, %arg971: tensor<32x1x1xbf16>, %arg972: tensor<32x1x1xbf16>, %arg973: tensor<64x120x240xbf16>, %arg974: tensor<64x160x320xbf16>, %arg975: tensor<64x240x480xbf16>, %arg976: tensor<64x320x640xbf16>) -> tensor<1x480x640xbf16> {
    %cst = stablehlo.constant dense<0.000000e+00> : tensor<f64>
    %cst_0 = stablehlo.constant dense<0.000000e+00> : tensor<f32>
    %cst_1 = stablehlo.constant dense<0xFF800000> : tensor<f32>
    %cst_2 = stablehlo.constant dense<1.000000e+00> : tensor<1x19200x256xbf16>
    %cst_3 = stablehlo.constant dense<2.000000e+00> : tensor<1x19200x256xbf16>
    %cst_4 = stablehlo.constant dense<5.000000e-01> : tensor<1x19200x256xbf16>
    %cst_5 = stablehlo.constant dense<-4.000000e+00> : tensor<1x19200x256xf32>
    %cst_6 = stablehlo.constant dense<4.000000e+00> : tensor<1x19200x256xf32>
    %cst_7 = stablehlo.constant dense<-2.72614237E-10> : tensor<1x19200x256xf32>
    %cst_8 = stablehlo.constant dense<2.77068146E-8> : tensor<1x19200x256xf32>
    %cst_9 = stablehlo.constant dense<-2.10102394E-6> : tensor<1x19200x256xf32>
    %cst_10 = stablehlo.constant dense<-5.69250624E-5> : tensor<1x19200x256xf32>
    %cst_11 = stablehlo.constant dense<-7.34990637E-4> : tensor<1x19200x256xf32>
    %cst_12 = stablehlo.constant dense<-2.954600e-03> : tensor<1x19200x256xf32>
    %cst_13 = stablehlo.constant dense<-0.0160960332> : tensor<1x19200x256xf32>
    %cst_14 = stablehlo.constant dense<-1.45660715E-5> : tensor<1x19200x256xf32>
    %cst_15 = stablehlo.constant dense<-2.13374049E-4> : tensor<1x19200x256xf32>
    %cst_16 = stablehlo.constant dense<-0.00168282702> : tensor<1x19200x256xf32>
    %cst_17 = stablehlo.constant dense<-0.00737332925> : tensor<1x19200x256xf32>
    %cst_18 = stablehlo.constant dense<-0.0142647391> : tensor<1x19200x256xf32>
    %cst_19 = stablehlo.constant dense<-1.000000e+00> : tensor<1x19200x256xf32>
    %cst_20 = stablehlo.constant dense<1.000000e+00> : tensor<1x19200x256xf32>
    %cst_21 = stablehlo.constant dense<1.000000e+00> : tensor<1x4800x512xbf16>
    %cst_22 = stablehlo.constant dense<2.000000e+00> : tensor<1x4800x512xbf16>
    %cst_23 = stablehlo.constant dense<5.000000e-01> : tensor<1x4800x512xbf16>
    %cst_24 = stablehlo.constant dense<-4.000000e+00> : tensor<1x4800x512xf32>
    %cst_25 = stablehlo.constant dense<4.000000e+00> : tensor<1x4800x512xf32>
    %cst_26 = stablehlo.constant dense<-2.72614237E-10> : tensor<1x4800x512xf32>
    %cst_27 = stablehlo.constant dense<2.77068146E-8> : tensor<1x4800x512xf32>
    %cst_28 = stablehlo.constant dense<-2.10102394E-6> : tensor<1x4800x512xf32>
    %cst_29 = stablehlo.constant dense<-5.69250624E-5> : tensor<1x4800x512xf32>
    %cst_30 = stablehlo.constant dense<-7.34990637E-4> : tensor<1x4800x512xf32>
    %cst_31 = stablehlo.constant dense<-2.954600e-03> : tensor<1x4800x512xf32>
    %cst_32 = stablehlo.constant dense<-0.0160960332> : tensor<1x4800x512xf32>
    %cst_33 = stablehlo.constant dense<-1.45660715E-5> : tensor<1x4800x512xf32>
    %cst_34 = stablehlo.constant dense<-2.13374049E-4> : tensor<1x4800x512xf32>
    %cst_35 = stablehlo.constant dense<-0.00168282702> : tensor<1x4800x512xf32>
    %cst_36 = stablehlo.constant dense<-0.00737332925> : tensor<1x4800x512xf32>
    %cst_37 = stablehlo.constant dense<-0.0142647391> : tensor<1x4800x512xf32>
    %cst_38 = stablehlo.constant dense<-1.000000e+00> : tensor<1x4800x512xf32>
    %cst_39 = stablehlo.constant dense<1.000000e+00> : tensor<1x4800x512xf32>
    %cst_40 = stablehlo.constant dense<1.000000e+00> : tensor<1x1200x1280xbf16>
    %cst_41 = stablehlo.constant dense<2.000000e+00> : tensor<1x1200x1280xbf16>
    %cst_42 = stablehlo.constant dense<5.000000e-01> : tensor<1x1200x1280xbf16>
    %cst_43 = stablehlo.constant dense<-4.000000e+00> : tensor<1x1200x1280xf32>
    %cst_44 = stablehlo.constant dense<4.000000e+00> : tensor<1x1200x1280xf32>
    %cst_45 = stablehlo.constant dense<-2.72614237E-10> : tensor<1x1200x1280xf32>
    %cst_46 = stablehlo.constant dense<2.77068146E-8> : tensor<1x1200x1280xf32>
    %cst_47 = stablehlo.constant dense<-2.10102394E-6> : tensor<1x1200x1280xf32>
    %cst_48 = stablehlo.constant dense<-5.69250624E-5> : tensor<1x1200x1280xf32>
    %cst_49 = stablehlo.constant dense<-7.34990637E-4> : tensor<1x1200x1280xf32>
    %cst_50 = stablehlo.constant dense<-2.954600e-03> : tensor<1x1200x1280xf32>
    %cst_51 = stablehlo.constant dense<-0.0160960332> : tensor<1x1200x1280xf32>
    %cst_52 = stablehlo.constant dense<-1.45660715E-5> : tensor<1x1200x1280xf32>
    %cst_53 = stablehlo.constant dense<-2.13374049E-4> : tensor<1x1200x1280xf32>
    %cst_54 = stablehlo.constant dense<-0.00168282702> : tensor<1x1200x1280xf32>
    %cst_55 = stablehlo.constant dense<-0.00737332925> : tensor<1x1200x1280xf32>
    %cst_56 = stablehlo.constant dense<-0.0142647391> : tensor<1x1200x1280xf32>
    %cst_57 = stablehlo.constant dense<-1.000000e+00> : tensor<1x1200x1280xf32>
    %cst_58 = stablehlo.constant dense<1.000000e+00> : tensor<1x1200x1280xf32>
    %cst_59 = stablehlo.constant dense<1.000000e+00> : tensor<1x300x2048xbf16>
    %cst_60 = stablehlo.constant dense<2.000000e+00> : tensor<1x300x2048xbf16>
    %cst_61 = stablehlo.constant dense<5.000000e-01> : tensor<1x300x2048xbf16>
    %cst_62 = stablehlo.constant dense<-4.000000e+00> : tensor<1x300x2048xf32>
    %cst_63 = stablehlo.constant dense<4.000000e+00> : tensor<1x300x2048xf32>
    %cst_64 = stablehlo.constant dense<-2.72614237E-10> : tensor<1x300x2048xf32>
    %cst_65 = stablehlo.constant dense<2.77068146E-8> : tensor<1x300x2048xf32>
    %cst_66 = stablehlo.constant dense<-2.10102394E-6> : tensor<1x300x2048xf32>
    %cst_67 = stablehlo.constant dense<-5.69250624E-5> : tensor<1x300x2048xf32>
    %cst_68 = stablehlo.constant dense<-7.34990637E-4> : tensor<1x300x2048xf32>
    %cst_69 = stablehlo.constant dense<-2.954600e-03> : tensor<1x300x2048xf32>
    %cst_70 = stablehlo.constant dense<-0.0160960332> : tensor<1x300x2048xf32>
    %cst_71 = stablehlo.constant dense<-1.45660715E-5> : tensor<1x300x2048xf32>
    %cst_72 = stablehlo.constant dense<-2.13374049E-4> : tensor<1x300x2048xf32>
    %cst_73 = stablehlo.constant dense<-0.00168282702> : tensor<1x300x2048xf32>
    %cst_74 = stablehlo.constant dense<-0.00737332925> : tensor<1x300x2048xf32>
    %cst_75 = stablehlo.constant dense<-0.0142647391> : tensor<1x300x2048xf32>
    %cst_76 = stablehlo.constant dense<-1.000000e+00> : tensor<1x300x2048xf32>
    %cst_77 = stablehlo.constant dense<1.000000e+00> : tensor<1x300x2048xf32>
    %cst_78 = stablehlo.constant dense<0.000000e+00> : tensor<1x64x30x40xbf16>
    %cst_79 = stablehlo.constant dense<0.000000e+00> : tensor<1x32x30x40xbf16>
    %cst_80 = stablehlo.constant dense<0.000000e+00> : tensor<1x64x60x80xbf16>
    %cst_81 = stablehlo.constant dense<0.000000e+00> : tensor<1x32x60x80xbf16>
    %cst_82 = stablehlo.constant dense<0.000000e+00> : tensor<1x64x120x160xbf16>
    %cst_83 = stablehlo.constant dense<0.000000e+00> : tensor<1x32x120x160xbf16>
    %cst_84 = stablehlo.constant dense<0.000000e+00> : tensor<1x64x480x640xbf16>
    %cst_85 = arith.constant dense<64> : tensor<1xi64>
    %cst_86 = arith.constant dense<1.000000e-05> : tensor<1xf64>
    %cst_87 = arith.constant dense<1> : tensor<1xi64>
    %cst_88 = arith.constant dense<8.000000e+00> : tensor<1xf64>
    %cst_89 = arith.constant dense<128> : tensor<1xi64>
    %cst_90 = arith.constant dense<320> : tensor<1xi64>
    %cst_91 = arith.constant dense<512> : tensor<1xi64>
    %cst_92 = arith.constant dense<10> : tensor<1xi64>
    %0 = stablehlo.convolution(%arg0, %arg1) dim_numbers = [b, f, 0, 1]x[o, i, 0, 1]->[b, f, 0, 1], window = {stride = [4, 4], pad = [[3, 3], [3, 3]], rhs_dilate = [1, 1]} {batch_group_count = 1 : i64, feature_group_count = 1 : i64} : (tensor<1x3x480x640xbf16>, tensor<64x3x7x7xbf16>) -> tensor<1x64x120x160xbf16>
    %1 = stablehlo.reshape %arg2 : (tensor<64xbf16>) -> tensor<64x1x1xbf16>
    %2 = stablehlo.broadcast_in_dim %0, dims = [0, 1, 2, 3] : (tensor<1x64x120x160xbf16>) -> tensor<1x64x120x160xbf16>
    %3 = stablehlo.broadcast_in_dim %1, dims = [1, 2, 3] : (tensor<64x1x1xbf16>) -> tensor<1x64x120x160xbf16>
    %4 = stablehlo.add %2, %3 : tensor<1x64x120x160xbf16>
    %5 = stablehlo.reshape %4 : (tensor<1x64x120x160xbf16>) -> tensor<1x64x19200xbf16>
    %6 = stablehlo.transpose %5, dims = [0, 2, 1] : (tensor<1x64x19200xbf16>) -> tensor<1x19200x64xbf16>
    %7 = stablehlo.convert %6 : (tensor<1x19200x64xbf16>) -> tensor<1x19200x64xf32>
    %8 = stablehlo.convert %7 : (tensor<1x19200x64xf32>) -> tensor<1x19200x64xf64>
    %9 = stablehlo.reduce(%8 init: %cst) applies stablehlo.add across dimensions = [2] : (tensor<1x19200x64xf64>, tensor<f64>) -> tensor<1x19200xf64>
    %10 = stablehlo.reshape %9 : (tensor<1x19200xf64>) -> tensor<1x19200x1xf64>
    %11 = stablehlo.convert %cst_85 : (tensor<1xi64>) -> tensor<1xf64>
    %12 = stablehlo.reshape %11 : (tensor<1xf64>) -> tensor<f64>
    %13 = stablehlo.broadcast_in_dim %10, dims = [0, 1, 2] : (tensor<1x19200x1xf64>) -> tensor<1x19200x1xf64>
    %14 = stablehlo.broadcast_in_dim %12, dims = [] : (tensor<f64>) -> tensor<1x19200x1xf64>
    %15 = stablehlo.divide %13, %14 : tensor<1x19200x1xf64>
    %16 = stablehlo.broadcast_in_dim %8, dims = [0, 1, 2] : (tensor<1x19200x64xf64>) -> tensor<1x19200x64xf64>
    %17 = stablehlo.broadcast_in_dim %15, dims = [0, 1, 2] : (tensor<1x19200x1xf64>) -> tensor<1x19200x64xf64>
    %18 = stablehlo.subtract %16, %17 : tensor<1x19200x64xf64>
    %19 = stablehlo.multiply %18, %18 : tensor<1x19200x64xf64>
    %20 = stablehlo.reduce(%19 init: %cst) applies stablehlo.add across dimensions = [2] : (tensor<1x19200x64xf64>, tensor<f64>) -> tensor<1x19200xf64>
    %21 = stablehlo.reshape %20 : (tensor<1x19200xf64>) -> tensor<1x19200x1xf64>
    %22 = stablehlo.broadcast_in_dim %21, dims = [0, 1, 2] : (tensor<1x19200x1xf64>) -> tensor<1x19200x1xf64>
    %23 = stablehlo.divide %22, %14 : tensor<1x19200x1xf64>
    %24 = stablehlo.convert %23 : (tensor<1x19200x1xf64>) -> tensor<1x19200x1xf32>
    %25 = stablehlo.reduce(%7 init: %cst_0) applies stablehlo.add across dimensions = [2] : (tensor<1x19200x64xf32>, tensor<f32>) -> tensor<1x19200xf32>
    %26 = stablehlo.reshape %25 : (tensor<1x19200xf32>) -> tensor<1x19200x1xf32>
    %27 = stablehlo.convert %cst_85 : (tensor<1xi64>) -> tensor<1xf32>
    %28 = stablehlo.reshape %27 : (tensor<1xf32>) -> tensor<f32>
    %29 = stablehlo.broadcast_in_dim %26, dims = [0, 1, 2] : (tensor<1x19200x1xf32>) -> tensor<1x19200x1xf32>
    %30 = stablehlo.broadcast_in_dim %28, dims = [] : (tensor<f32>) -> tensor<1x19200x1xf32>
    %31 = stablehlo.divide %29, %30 : tensor<1x19200x1xf32>
    %32 = stablehlo.convert %cst_86 : (tensor<1xf64>) -> tensor<1xf32>
    %33 = stablehlo.reshape %32 : (tensor<1xf32>) -> tensor<f32>
    %34 = stablehlo.broadcast_in_dim %24, dims = [0, 1, 2] : (tensor<1x19200x1xf32>) -> tensor<1x19200x1xf32>
    %35 = stablehlo.broadcast_in_dim %33, dims = [] : (tensor<f32>) -> tensor<1x19200x1xf32>
    %36 = stablehlo.add %34, %35 : tensor<1x19200x1xf32>
    %37 = stablehlo.rsqrt %36 : tensor<1x19200x1xf32>
    %38 = stablehlo.broadcast_in_dim %7, dims = [0, 1, 2] : (tensor<1x19200x64xf32>) -> tensor<1x19200x64xf32>
    %39 = stablehlo.broadcast_in_dim %31, dims = [0, 1, 2] : (tensor<1x19200x1xf32>) -> tensor<1x19200x64xf32>
    %40 = stablehlo.subtract %38, %39 : tensor<1x19200x64xf32>
    %41 = stablehlo.broadcast_in_dim %40, dims = [0, 1, 2] : (tensor<1x19200x64xf32>) -> tensor<1x19200x64xf32>
    %42 = stablehlo.broadcast_in_dim %37, dims = [0, 1, 2] : (tensor<1x19200x1xf32>) -> tensor<1x19200x64xf32>
    %43 = stablehlo.multiply %41, %42 : tensor<1x19200x64xf32>
    %44 = stablehlo.convert %arg3 : (tensor<64xbf16>) -> tensor<64xf32>
    %45 = stablehlo.broadcast_in_dim %43, dims = [0, 1, 2] : (tensor<1x19200x64xf32>) -> tensor<1x19200x64xf32>
    %46 = stablehlo.broadcast_in_dim %44, dims = [2] : (tensor<64xf32>) -> tensor<1x19200x64xf32>
    %47 = stablehlo.multiply %45, %46 : tensor<1x19200x64xf32>
    %48 = stablehlo.convert %arg4 : (tensor<64xbf16>) -> tensor<64xf32>
    %49 = stablehlo.broadcast_in_dim %47, dims = [0, 1, 2] : (tensor<1x19200x64xf32>) -> tensor<1x19200x64xf32>
    %50 = stablehlo.broadcast_in_dim %48, dims = [2] : (tensor<64xf32>) -> tensor<1x19200x64xf32>
    %51 = stablehlo.add %49, %50 : tensor<1x19200x64xf32>
    %52 = stablehlo.convert %51 : (tensor<1x19200x64xf32>) -> tensor<1x19200x64xbf16>
    %53 = stablehlo.convert %52 : (tensor<1x19200x64xbf16>) -> tensor<1x19200x64xf32>
    %54 = stablehlo.convert %53 : (tensor<1x19200x64xf32>) -> tensor<1x19200x64xf64>
    %55 = stablehlo.reduce(%54 init: %cst) applies stablehlo.add across dimensions = [2] : (tensor<1x19200x64xf64>, tensor<f64>) -> tensor<1x19200xf64>
    %56 = stablehlo.reshape %55 : (tensor<1x19200xf64>) -> tensor<1x19200x1xf64>
    %57 = stablehlo.broadcast_in_dim %56, dims = [0, 1, 2] : (tensor<1x19200x1xf64>) -> tensor<1x19200x1xf64>
    %58 = stablehlo.divide %57, %14 : tensor<1x19200x1xf64>
    %59 = stablehlo.broadcast_in_dim %54, dims = [0, 1, 2] : (tensor<1x19200x64xf64>) -> tensor<1x19200x64xf64>
    %60 = stablehlo.broadcast_in_dim %58, dims = [0, 1, 2] : (tensor<1x19200x1xf64>) -> tensor<1x19200x64xf64>
    %61 = stablehlo.subtract %59, %60 : tensor<1x19200x64xf64>
    %62 = stablehlo.multiply %61, %61 : tensor<1x19200x64xf64>
    %63 = stablehlo.reduce(%62 init: %cst) applies stablehlo.add across dimensions = [2] : (tensor<1x19200x64xf64>, tensor<f64>) -> tensor<1x19200xf64>
    %64 = stablehlo.reshape %63 : (tensor<1x19200xf64>) -> tensor<1x19200x1xf64>
    %65 = stablehlo.broadcast_in_dim %64, dims = [0, 1, 2] : (tensor<1x19200x1xf64>) -> tensor<1x19200x1xf64>
    %66 = stablehlo.divide %65, %14 : tensor<1x19200x1xf64>
    %67 = stablehlo.convert %66 : (tensor<1x19200x1xf64>) -> tensor<1x19200x1xf32>
    %68 = stablehlo.reduce(%53 init: %cst_0) applies stablehlo.add across dimensions = [2] : (tensor<1x19200x64xf32>, tensor<f32>) -> tensor<1x19200xf32>
    %69 = stablehlo.reshape %68 : (tensor<1x19200xf32>) -> tensor<1x19200x1xf32>
    %70 = stablehlo.broadcast_in_dim %69, dims = [0, 1, 2] : (tensor<1x19200x1xf32>) -> tensor<1x19200x1xf32>
    %71 = stablehlo.divide %70, %30 : tensor<1x19200x1xf32>
    %72 = stablehlo.broadcast_in_dim %67, dims = [0, 1, 2] : (tensor<1x19200x1xf32>) -> tensor<1x19200x1xf32>
    %73 = stablehlo.add %72, %35 : tensor<1x19200x1xf32>
    %74 = stablehlo.rsqrt %73 : tensor<1x19200x1xf32>
    %75 = stablehlo.broadcast_in_dim %53, dims = [0, 1, 2] : (tensor<1x19200x64xf32>) -> tensor<1x19200x64xf32>
    %76 = stablehlo.broadcast_in_dim %71, dims = [0, 1, 2] : (tensor<1x19200x1xf32>) -> tensor<1x19200x64xf32>
    %77 = stablehlo.subtract %75, %76 : tensor<1x19200x64xf32>
    %78 = stablehlo.broadcast_in_dim %77, dims = [0, 1, 2] : (tensor<1x19200x64xf32>) -> tensor<1x19200x64xf32>
    %79 = stablehlo.broadcast_in_dim %74, dims = [0, 1, 2] : (tensor<1x19200x1xf32>) -> tensor<1x19200x64xf32>
    %80 = stablehlo.multiply %78, %79 : tensor<1x19200x64xf32>
    %81 = stablehlo.convert %arg5 : (tensor<64xbf16>) -> tensor<64xf32>
    %82 = stablehlo.broadcast_in_dim %80, dims = [0, 1, 2] : (tensor<1x19200x64xf32>) -> tensor<1x19200x64xf32>
    %83 = stablehlo.broadcast_in_dim %81, dims = [2] : (tensor<64xf32>) -> tensor<1x19200x64xf32>
    %84 = stablehlo.multiply %82, %83 : tensor<1x19200x64xf32>
    %85 = stablehlo.convert %arg6 : (tensor<64xbf16>) -> tensor<64xf32>
    %86 = stablehlo.broadcast_in_dim %84, dims = [0, 1, 2] : (tensor<1x19200x64xf32>) -> tensor<1x19200x64xf32>
    %87 = stablehlo.broadcast_in_dim %85, dims = [2] : (tensor<64xf32>) -> tensor<1x19200x64xf32>
    %88 = stablehlo.add %86, %87 : tensor<1x19200x64xf32>
    %89 = stablehlo.convert %88 : (tensor<1x19200x64xf32>) -> tensor<1x19200x64xbf16>
    %90 = stablehlo.reshape %89 : (tensor<1x19200x64xbf16>) -> tensor<19200x64xbf16>
    %91 = stablehlo.convert %90 : (tensor<19200x64xbf16>) -> tensor<19200x64xf32>
    %92 = stablehlo.dot_general %91, %arg492, contracting_dims = [1] x [0] : (tensor<19200x64xf32>, tensor<64x64xf32>) -> tensor<19200x64xf32>
    %93 = stablehlo.convert %cst_87 : (tensor<1xi64>) -> tensor<1xf32>
    %94 = stablehlo.reshape %93 : (tensor<1xf32>) -> tensor<f32>
    %95 = stablehlo.broadcast_in_dim %92, dims = [0, 1] : (tensor<19200x64xf32>) -> tensor<19200x64xf32>
    %96 = stablehlo.broadcast_in_dim %94, dims = [] : (tensor<f32>) -> tensor<19200x64xf32>
    %97 = stablehlo.multiply %95, %96 : tensor<19200x64xf32>
    %98 = stablehlo.broadcast_in_dim %97, dims = [0, 1] : (tensor<19200x64xf32>) -> tensor<19200x64xf32>
    %99 = stablehlo.broadcast_in_dim %arg493, dims = [1] : (tensor<64xf32>) -> tensor<19200x64xf32>
    %100 = stablehlo.add %98, %99 : tensor<19200x64xf32>
    %101 = stablehlo.convert %100 : (tensor<19200x64xf32>) -> tensor<19200x64xbf16>
    %102 = stablehlo.reshape %101 : (tensor<19200x64xbf16>) -> tensor<1x19200x64xbf16>
    %103 = stablehlo.reshape %102 : (tensor<1x19200x64xbf16>) -> tensor<1x19200x1x64xbf16>
    %104 = stablehlo.transpose %103, dims = [0, 2, 1, 3] : (tensor<1x19200x1x64xbf16>) -> tensor<1x1x19200x64xbf16>
    %105 = stablehlo.transpose %89, dims = [0, 2, 1] : (tensor<1x19200x64xbf16>) -> tensor<1x64x19200xbf16>
    %106 = stablehlo.reshape %105 : (tensor<1x64x19200xbf16>) -> tensor<1x64x120x160xbf16>
    %107 = stablehlo.convolution(%106, %arg7) dim_numbers = [b, f, 0, 1]x[o, i, 0, 1]->[b, f, 0, 1], window = {stride = [8, 8], pad = [[0, 0], [0, 0]], rhs_dilate = [1, 1]} {batch_group_count = 1 : i64, feature_group_count = 1 : i64} : (tensor<1x64x120x160xbf16>, tensor<64x64x8x8xbf16>) -> tensor<1x64x15x20xbf16>
    %108 = stablehlo.reshape %arg8 : (tensor<64xbf16>) -> tensor<64x1x1xbf16>
    %109 = stablehlo.broadcast_in_dim %107, dims = [0, 1, 2, 3] : (tensor<1x64x15x20xbf16>) -> tensor<1x64x15x20xbf16>
    %110 = stablehlo.broadcast_in_dim %108, dims = [1, 2, 3] : (tensor<64x1x1xbf16>) -> tensor<1x64x15x20xbf16>
    %111 = stablehlo.add %109, %110 : tensor<1x64x15x20xbf16>
    %112 = stablehlo.reshape %111 : (tensor<1x64x15x20xbf16>) -> tensor<1x64x300xbf16>
    %113 = stablehlo.transpose %112, dims = [0, 2, 1] : (tensor<1x64x300xbf16>) -> tensor<1x300x64xbf16>
    %114 = stablehlo.convert %113 : (tensor<1x300x64xbf16>) -> tensor<1x300x64xf32>
    %115 = stablehlo.convert %114 : (tensor<1x300x64xf32>) -> tensor<1x300x64xf64>
    %116 = stablehlo.reduce(%115 init: %cst) applies stablehlo.add across dimensions = [2] : (tensor<1x300x64xf64>, tensor<f64>) -> tensor<1x300xf64>
    %117 = stablehlo.reshape %116 : (tensor<1x300xf64>) -> tensor<1x300x1xf64>
    %118 = stablehlo.broadcast_in_dim %117, dims = [0, 1, 2] : (tensor<1x300x1xf64>) -> tensor<1x300x1xf64>
    %119 = stablehlo.broadcast_in_dim %12, dims = [] : (tensor<f64>) -> tensor<1x300x1xf64>
    %120 = stablehlo.divide %118, %119 : tensor<1x300x1xf64>
    %121 = stablehlo.broadcast_in_dim %115, dims = [0, 1, 2] : (tensor<1x300x64xf64>) -> tensor<1x300x64xf64>
    %122 = stablehlo.broadcast_in_dim %120, dims = [0, 1, 2] : (tensor<1x300x1xf64>) -> tensor<1x300x64xf64>
    %123 = stablehlo.subtract %121, %122 : tensor<1x300x64xf64>
    %124 = stablehlo.multiply %123, %123 : tensor<1x300x64xf64>
    %125 = stablehlo.reduce(%124 init: %cst) applies stablehlo.add across dimensions = [2] : (tensor<1x300x64xf64>, tensor<f64>) -> tensor<1x300xf64>
    %126 = stablehlo.reshape %125 : (tensor<1x300xf64>) -> tensor<1x300x1xf64>
    %127 = stablehlo.broadcast_in_dim %126, dims = [0, 1, 2] : (tensor<1x300x1xf64>) -> tensor<1x300x1xf64>
    %128 = stablehlo.divide %127, %119 : tensor<1x300x1xf64>
    %129 = stablehlo.convert %128 : (tensor<1x300x1xf64>) -> tensor<1x300x1xf32>
    %130 = stablehlo.reduce(%114 init: %cst_0) applies stablehlo.add across dimensions = [2] : (tensor<1x300x64xf32>, tensor<f32>) -> tensor<1x300xf32>
    %131 = stablehlo.reshape %130 : (tensor<1x300xf32>) -> tensor<1x300x1xf32>
    %132 = stablehlo.broadcast_in_dim %131, dims = [0, 1, 2] : (tensor<1x300x1xf32>) -> tensor<1x300x1xf32>
    %133 = stablehlo.broadcast_in_dim %28, dims = [] : (tensor<f32>) -> tensor<1x300x1xf32>
    %134 = stablehlo.divide %132, %133 : tensor<1x300x1xf32>
    %135 = stablehlo.broadcast_in_dim %129, dims = [0, 1, 2] : (tensor<1x300x1xf32>) -> tensor<1x300x1xf32>
    %136 = stablehlo.broadcast_in_dim %33, dims = [] : (tensor<f32>) -> tensor<1x300x1xf32>
    %137 = stablehlo.add %135, %136 : tensor<1x300x1xf32>
    %138 = stablehlo.rsqrt %137 : tensor<1x300x1xf32>
    %139 = stablehlo.broadcast_in_dim %114, dims = [0, 1, 2] : (tensor<1x300x64xf32>) -> tensor<1x300x64xf32>
    %140 = stablehlo.broadcast_in_dim %134, dims = [0, 1, 2] : (tensor<1x300x1xf32>) -> tensor<1x300x64xf32>
    %141 = stablehlo.subtract %139, %140 : tensor<1x300x64xf32>
    %142 = stablehlo.broadcast_in_dim %141, dims = [0, 1, 2] : (tensor<1x300x64xf32>) -> tensor<1x300x64xf32>
    %143 = stablehlo.broadcast_in_dim %138, dims = [0, 1, 2] : (tensor<1x300x1xf32>) -> tensor<1x300x64xf32>
    %144 = stablehlo.multiply %142, %143 : tensor<1x300x64xf32>
    %145 = stablehlo.convert %arg9 : (tensor<64xbf16>) -> tensor<64xf32>
    %146 = stablehlo.broadcast_in_dim %144, dims = [0, 1, 2] : (tensor<1x300x64xf32>) -> tensor<1x300x64xf32>
    %147 = stablehlo.broadcast_in_dim %145, dims = [2] : (tensor<64xf32>) -> tensor<1x300x64xf32>
    %148 = stablehlo.multiply %146, %147 : tensor<1x300x64xf32>
    %149 = stablehlo.convert %arg10 : (tensor<64xbf16>) -> tensor<64xf32>
    %150 = stablehlo.broadcast_in_dim %148, dims = [0, 1, 2] : (tensor<1x300x64xf32>) -> tensor<1x300x64xf32>
    %151 = stablehlo.broadcast_in_dim %149, dims = [2] : (tensor<64xf32>) -> tensor<1x300x64xf32>
    %152 = stablehlo.add %150, %151 : tensor<1x300x64xf32>
    %153 = stablehlo.convert %152 : (tensor<1x300x64xf32>) -> tensor<1x300x64xbf16>
    %154 = stablehlo.reshape %153 : (tensor<1x300x64xbf16>) -> tensor<300x64xbf16>
    %155 = stablehlo.convert %154 : (tensor<300x64xbf16>) -> tensor<300x64xf32>
    %156 = stablehlo.dot_general %155, %arg494, contracting_dims = [1] x [0] : (tensor<300x64xf32>, tensor<64x64xf32>) -> tensor<300x64xf32>
    %157 = stablehlo.broadcast_in_dim %156, dims = [0, 1] : (tensor<300x64xf32>) -> tensor<300x64xf32>
    %158 = stablehlo.broadcast_in_dim %94, dims = [] : (tensor<f32>) -> tensor<300x64xf32>
    %159 = stablehlo.multiply %157, %158 : tensor<300x64xf32>
    %160 = stablehlo.broadcast_in_dim %159, dims = [0, 1] : (tensor<300x64xf32>) -> tensor<300x64xf32>
    %161 = stablehlo.broadcast_in_dim %arg495, dims = [1] : (tensor<64xf32>) -> tensor<300x64xf32>
    %162 = stablehlo.add %160, %161 : tensor<300x64xf32>
    %163 = stablehlo.convert %162 : (tensor<300x64xf32>) -> tensor<300x64xbf16>
    %164 = stablehlo.reshape %163 : (tensor<300x64xbf16>) -> tensor<1x300x64xbf16>
    %165 = stablehlo.reshape %164 : (tensor<1x300x64xbf16>) -> tensor<1x300x1x64xbf16>
    %166 = stablehlo.transpose %165, dims = [0, 2, 1, 3] : (tensor<1x300x1x64xbf16>) -> tensor<1x1x300x64xbf16>
    %167 = stablehlo.dot_general %155, %arg496, contracting_dims = [1] x [0] : (tensor<300x64xf32>, tensor<64x64xf32>) -> tensor<300x64xf32>
    %168 = stablehlo.broadcast_in_dim %167, dims = [0, 1] : (tensor<300x64xf32>) -> tensor<300x64xf32>
    %169 = stablehlo.multiply %168, %158 : tensor<300x64xf32>
    %170 = stablehlo.broadcast_in_dim %169, dims = [0, 1] : (tensor<300x64xf32>) -> tensor<300x64xf32>
    %171 = stablehlo.broadcast_in_dim %arg497, dims = [1] : (tensor<64xf32>) -> tensor<300x64xf32>
    %172 = stablehlo.add %170, %171 : tensor<300x64xf32>
    %173 = stablehlo.convert %172 : (tensor<300x64xf32>) -> tensor<300x64xbf16>
    %174 = stablehlo.reshape %173 : (tensor<300x64xbf16>) -> tensor<1x300x64xbf16>
    %175 = stablehlo.reshape %174 : (tensor<1x300x64xbf16>) -> tensor<1x300x1x64xbf16>
    %176 = stablehlo.transpose %175, dims = [0, 2, 1, 3] : (tensor<1x300x1x64xbf16>) -> tensor<1x1x300x64xbf16>
    %177 = stablehlo.transpose %166, dims = [0, 1, 3, 2] : (tensor<1x1x300x64xbf16>) -> tensor<1x1x64x300xbf16>
    %178 = stablehlo.reshape %104 : (tensor<1x1x19200x64xbf16>) -> tensor<1x19200x64xbf16>
    %179 = stablehlo.reshape %177 : (tensor<1x1x64x300xbf16>) -> tensor<1x64x300xbf16>
    %180 = stablehlo.broadcast_in_dim %179, dims = [0, 1, 2] : (tensor<1x64x300xbf16>) -> tensor<1x64x300xbf16>
    %181 = stablehlo.dot_general %178, %180, batching_dims = [0] x [0], contracting_dims = [2] x [1] : (tensor<1x19200x64xbf16>, tensor<1x64x300xbf16>) -> tensor<1x19200x300xbf16>
    %182 = stablehlo.reshape %181 : (tensor<1x19200x300xbf16>) -> tensor<1x1x19200x300xbf16>
    %183 = stablehlo.convert %cst_88 : (tensor<1xf64>) -> tensor<1xbf16>
    %184 = stablehlo.reshape %183 : (tensor<1xbf16>) -> tensor<bf16>
    %185 = stablehlo.broadcast_in_dim %182, dims = [0, 1, 2, 3] : (tensor<1x1x19200x300xbf16>) -> tensor<1x1x19200x300xbf16>
    %186 = stablehlo.broadcast_in_dim %184, dims = [] : (tensor<bf16>) -> tensor<1x1x19200x300xbf16>
    %187 = stablehlo.divide %185, %186 : tensor<1x1x19200x300xbf16>
    %188 = stablehlo.convert %187 : (tensor<1x1x19200x300xbf16>) -> tensor<1x1x19200x300xf32>
    %189 = stablehlo.reduce(%188 init: %cst_1) applies stablehlo.maximum across dimensions = [3] : (tensor<1x1x19200x300xf32>, tensor<f32>) -> tensor<1x1x19200xf32>
    %190 = stablehlo.reshape %189 : (tensor<1x1x19200xf32>) -> tensor<1x1x19200x1xf32>
    %191 = stablehlo.broadcast_in_dim %188, dims = [0, 1, 2, 3] : (tensor<1x1x19200x300xf32>) -> tensor<1x1x19200x300xf32>
    %192 = stablehlo.broadcast_in_dim %190, dims = [0, 1, 2, 3] : (tensor<1x1x19200x1xf32>) -> tensor<1x1x19200x300xf32>
    %193 = stablehlo.subtract %191, %192 : tensor<1x1x19200x300xf32>
    %194 = stablehlo.exponential %193 : tensor<1x1x19200x300xf32>
    %195 = stablehlo.reduce(%194 init: %cst_0) applies stablehlo.add across dimensions = [3] : (tensor<1x1x19200x300xf32>, tensor<f32>) -> tensor<1x1x19200xf32>
    %196 = stablehlo.reshape %195 : (tensor<1x1x19200xf32>) -> tensor<1x1x19200x1xf32>
    %197 = stablehlo.broadcast_in_dim %194, dims = [0, 1, 2, 3] : (tensor<1x1x19200x300xf32>) -> tensor<1x1x19200x300xf32>
    %198 = stablehlo.broadcast_in_dim %196, dims = [0, 1, 2, 3] : (tensor<1x1x19200x1xf32>) -> tensor<1x1x19200x300xf32>
    %199 = stablehlo.divide %197, %198 : tensor<1x1x19200x300xf32>
    %200 = stablehlo.convert %199 : (tensor<1x1x19200x300xf32>) -> tensor<1x1x19200x300xbf16>
    %201 = stablehlo.reshape %200 : (tensor<1x1x19200x300xbf16>) -> tensor<1x19200x300xbf16>
    %202 = stablehlo.reshape %176 : (tensor<1x1x300x64xbf16>) -> tensor<1x300x64xbf16>
    %203 = stablehlo.broadcast_in_dim %202, dims = [0, 1, 2] : (tensor<1x300x64xbf16>) -> tensor<1x300x64xbf16>
    %204 = stablehlo.dot_general %201, %203, batching_dims = [0] x [0], contracting_dims = [2] x [1] : (tensor<1x19200x300xbf16>, tensor<1x300x64xbf16>) -> tensor<1x19200x64xbf16>
    %205 = stablehlo.reshape %204 : (tensor<1x19200x64xbf16>) -> tensor<1x1x19200x64xbf16>
    %206 = stablehlo.transpose %205, dims = [0, 2, 1, 3] : (tensor<1x1x19200x64xbf16>) -> tensor<1x19200x1x64xbf16>
    %207 = stablehlo.reshape %206 : (tensor<1x19200x1x64xbf16>) -> tensor<1x19200x64xbf16>
    %208 = stablehlo.reshape %207 : (tensor<1x19200x64xbf16>) -> tensor<19200x64xbf16>
    %209 = stablehlo.convert %208 : (tensor<19200x64xbf16>) -> tensor<19200x64xf32>
    %210 = stablehlo.dot_general %209, %arg498, contracting_dims = [1] x [0] : (tensor<19200x64xf32>, tensor<64x64xf32>) -> tensor<19200x64xf32>
    %211 = stablehlo.broadcast_in_dim %210, dims = [0, 1] : (tensor<19200x64xf32>) -> tensor<19200x64xf32>
    %212 = stablehlo.multiply %211, %96 : tensor<19200x64xf32>
    %213 = stablehlo.broadcast_in_dim %212, dims = [0, 1] : (tensor<19200x64xf32>) -> tensor<19200x64xf32>
    %214 = stablehlo.broadcast_in_dim %arg499, dims = [1] : (tensor<64xf32>) -> tensor<19200x64xf32>
    %215 = stablehlo.add %213, %214 : tensor<19200x64xf32>
    %216 = stablehlo.convert %215 : (tensor<19200x64xf32>) -> tensor<19200x64xbf16>
    %217 = stablehlo.reshape %216 : (tensor<19200x64xbf16>) -> tensor<1x19200x64xbf16>
    %218 = stablehlo.add %217, %52 : tensor<1x19200x64xbf16>
    %219 = stablehlo.convert %218 : (tensor<1x19200x64xbf16>) -> tensor<1x19200x64xf32>
    %220 = stablehlo.convert %219 : (tensor<1x19200x64xf32>) -> tensor<1x19200x64xf64>
    %221 = stablehlo.reduce(%220 init: %cst) applies stablehlo.add across dimensions = [2] : (tensor<1x19200x64xf64>, tensor<f64>) -> tensor<1x19200xf64>
    %222 = stablehlo.reshape %221 : (tensor<1x19200xf64>) -> tensor<1x19200x1xf64>
    %223 = stablehlo.broadcast_in_dim %222, dims = [0, 1, 2] : (tensor<1x19200x1xf64>) -> tensor<1x19200x1xf64>
    %224 = stablehlo.divide %223, %14 : tensor<1x19200x1xf64>
    %225 = stablehlo.broadcast_in_dim %220, dims = [0, 1, 2] : (tensor<1x19200x64xf64>) -> tensor<1x19200x64xf64>
    %226 = stablehlo.broadcast_in_dim %224, dims = [0, 1, 2] : (tensor<1x19200x1xf64>) -> tensor<1x19200x64xf64>
    %227 = stablehlo.subtract %225, %226 : tensor<1x19200x64xf64>
    %228 = stablehlo.multiply %227, %227 : tensor<1x19200x64xf64>
    %229 = stablehlo.reduce(%228 init: %cst) applies stablehlo.add across dimensions = [2] : (tensor<1x19200x64xf64>, tensor<f64>) -> tensor<1x19200xf64>
    %230 = stablehlo.reshape %229 : (tensor<1x19200xf64>) -> tensor<1x19200x1xf64>
    %231 = stablehlo.broadcast_in_dim %230, dims = [0, 1, 2] : (tensor<1x19200x1xf64>) -> tensor<1x19200x1xf64>
    %232 = stablehlo.divide %231, %14 : tensor<1x19200x1xf64>
    %233 = stablehlo.convert %232 : (tensor<1x19200x1xf64>) -> tensor<1x19200x1xf32>
    %234 = stablehlo.reduce(%219 init: %cst_0) applies stablehlo.add across dimensions = [2] : (tensor<1x19200x64xf32>, tensor<f32>) -> tensor<1x19200xf32>
    %235 = stablehlo.reshape %234 : (tensor<1x19200xf32>) -> tensor<1x19200x1xf32>
    %236 = stablehlo.broadcast_in_dim %235, dims = [0, 1, 2] : (tensor<1x19200x1xf32>) -> tensor<1x19200x1xf32>
    %237 = stablehlo.divide %236, %30 : tensor<1x19200x1xf32>
    %238 = stablehlo.broadcast_in_dim %233, dims = [0, 1, 2] : (tensor<1x19200x1xf32>) -> tensor<1x19200x1xf32>
    %239 = stablehlo.add %238, %35 : tensor<1x19200x1xf32>
    %240 = stablehlo.rsqrt %239 : tensor<1x19200x1xf32>
    %241 = stablehlo.broadcast_in_dim %219, dims = [0, 1, 2] : (tensor<1x19200x64xf32>) -> tensor<1x19200x64xf32>
    %242 = stablehlo.broadcast_in_dim %237, dims = [0, 1, 2] : (tensor<1x19200x1xf32>) -> tensor<1x19200x64xf32>
    %243 = stablehlo.subtract %241, %242 : tensor<1x19200x64xf32>
    %244 = stablehlo.broadcast_in_dim %243, dims = [0, 1, 2] : (tensor<1x19200x64xf32>) -> tensor<1x19200x64xf32>
    %245 = stablehlo.broadcast_in_dim %240, dims = [0, 1, 2] : (tensor<1x19200x1xf32>) -> tensor<1x19200x64xf32>
    %246 = stablehlo.multiply %244, %245 : tensor<1x19200x64xf32>
    %247 = stablehlo.convert %arg11 : (tensor<64xbf16>) -> tensor<64xf32>
    %248 = stablehlo.broadcast_in_dim %246, dims = [0, 1, 2] : (tensor<1x19200x64xf32>) -> tensor<1x19200x64xf32>
    %249 = stablehlo.broadcast_in_dim %247, dims = [2] : (tensor<64xf32>) -> tensor<1x19200x64xf32>
    %250 = stablehlo.multiply %248, %249 : tensor<1x19200x64xf32>
    %251 = stablehlo.convert %arg12 : (tensor<64xbf16>) -> tensor<64xf32>
    %252 = stablehlo.broadcast_in_dim %250, dims = [0, 1, 2] : (tensor<1x19200x64xf32>) -> tensor<1x19200x64xf32>
    %253 = stablehlo.broadcast_in_dim %251, dims = [2] : (tensor<64xf32>) -> tensor<1x19200x64xf32>
    %254 = stablehlo.add %252, %253 : tensor<1x19200x64xf32>
    %255 = stablehlo.convert %254 : (tensor<1x19200x64xf32>) -> tensor<1x19200x64xbf16>
    %256 = stablehlo.reshape %255 : (tensor<1x19200x64xbf16>) -> tensor<19200x64xbf16>
    %257 = stablehlo.convert %256 : (tensor<19200x64xbf16>) -> tensor<19200x64xf32>
    %258 = stablehlo.dot_general %257, %arg500, contracting_dims = [1] x [0] : (tensor<19200x64xf32>, tensor<64x256xf32>) -> tensor<19200x256xf32>
    %259 = stablehlo.broadcast_in_dim %258, dims = [0, 1] : (tensor<19200x256xf32>) -> tensor<19200x256xf32>
    %260 = stablehlo.broadcast_in_dim %94, dims = [] : (tensor<f32>) -> tensor<19200x256xf32>
    %261 = stablehlo.multiply %259, %260 : tensor<19200x256xf32>
    %262 = stablehlo.broadcast_in_dim %261, dims = [0, 1] : (tensor<19200x256xf32>) -> tensor<19200x256xf32>
    %263 = stablehlo.broadcast_in_dim %arg501, dims = [1] : (tensor<256xf32>) -> tensor<19200x256xf32>
    %264 = stablehlo.add %262, %263 : tensor<19200x256xf32>
    %265 = stablehlo.convert %264 : (tensor<19200x256xf32>) -> tensor<19200x256xbf16>
    %266 = stablehlo.reshape %265 : (tensor<19200x256xbf16>) -> tensor<1x19200x256xbf16>
    %267 = stablehlo.transpose %266, dims = [0, 2, 1] : (tensor<1x19200x256xbf16>) -> tensor<1x256x19200xbf16>
    %268 = stablehlo.reshape %267 : (tensor<1x256x19200xbf16>) -> tensor<1x256x120x160xbf16>
    %269 = stablehlo.convolution(%268, %arg13) dim_numbers = [b, f, 0, 1]x[o, i, 0, 1]->[b, f, 0, 1], window = {stride = [1, 1], pad = [[1, 1], [1, 1]], rhs_dilate = [1, 1]} {batch_group_count = 1 : i64, feature_group_count = 256 : i64} : (tensor<1x256x120x160xbf16>, tensor<256x1x3x3xbf16>) -> tensor<1x256x120x160xbf16>
    %270 = stablehlo.reshape %arg14 : (tensor<256xbf16>) -> tensor<256x1x1xbf16>
    %271 = stablehlo.broadcast_in_dim %269, dims = [0, 1, 2, 3] : (tensor<1x256x120x160xbf16>) -> tensor<1x256x120x160xbf16>
    %272 = stablehlo.broadcast_in_dim %270, dims = [1, 2, 3] : (tensor<256x1x1xbf16>) -> tensor<1x256x120x160xbf16>
    %273 = stablehlo.add %271, %272 : tensor<1x256x120x160xbf16>
    %274 = stablehlo.reshape %273 : (tensor<1x256x120x160xbf16>) -> tensor<1x256x19200xbf16>
    %275 = stablehlo.transpose %274, dims = [0, 2, 1] : (tensor<1x256x19200xbf16>) -> tensor<1x19200x256xbf16>
    %276 = stablehlo.multiply %275, %cst_4 : tensor<1x19200x256xbf16>
    %277 = stablehlo.rsqrt %cst_3 : tensor<1x19200x256xbf16>
    %278 = stablehlo.multiply %275, %277 : tensor<1x19200x256xbf16>
    %279 = stablehlo.convert %278 : (tensor<1x19200x256xbf16>) -> tensor<1x19200x256xf32>
    %280 = stablehlo.clamp %cst_5, %279, %cst_6 : tensor<1x19200x256xf32>
    %281 = stablehlo.multiply %280, %280 : tensor<1x19200x256xf32>
    %282 = stablehlo.multiply %cst_7, %281 : tensor<1x19200x256xf32>
    %283 = stablehlo.add %282, %cst_8 : tensor<1x19200x256xf32>
    %284 = stablehlo.multiply %283, %281 : tensor<1x19200x256xf32>
    %285 = stablehlo.add %284, %cst_9 : tensor<1x19200x256xf32>
    %286 = stablehlo.multiply %285, %281 : tensor<1x19200x256xf32>
    %287 = stablehlo.add %286, %cst_10 : tensor<1x19200x256xf32>
    %288 = stablehlo.multiply %287, %281 : tensor<1x19200x256xf32>
    %289 = stablehlo.add %288, %cst_11 : tensor<1x19200x256xf32>
    %290 = stablehlo.multiply %289, %281 : tensor<1x19200x256xf32>
    %291 = stablehlo.add %290, %cst_12 : tensor<1x19200x256xf32>
    %292 = stablehlo.multiply %291, %281 : tensor<1x19200x256xf32>
    %293 = stablehlo.add %292, %cst_13 : tensor<1x19200x256xf32>
    %294 = stablehlo.multiply %cst_14, %281 : tensor<1x19200x256xf32>
    %295 = stablehlo.add %294, %cst_15 : tensor<1x19200x256xf32>
    %296 = stablehlo.multiply %295, %281 : tensor<1x19200x256xf32>
    %297 = stablehlo.add %296, %cst_16 : tensor<1x19200x256xf32>
    %298 = stablehlo.multiply %297, %281 : tensor<1x19200x256xf32>
    %299 = stablehlo.add %298, %cst_17 : tensor<1x19200x256xf32>
    %300 = stablehlo.multiply %299, %281 : tensor<1x19200x256xf32>
    %301 = stablehlo.add %300, %cst_18 : tensor<1x19200x256xf32>
    %302 = stablehlo.multiply %280, %293 : tensor<1x19200x256xf32>
    %303 = stablehlo.divide %302, %301 : tensor<1x19200x256xf32>
    %304 = stablehlo.clamp %cst_19, %303, %cst_20 : tensor<1x19200x256xf32>
    %305 = stablehlo.convert %304 : (tensor<1x19200x256xf32>) -> tensor<1x19200x256xbf16>
    %306 = stablehlo.add %305, %cst_2 : tensor<1x19200x256xbf16>
    %307 = stablehlo.multiply %306, %276 : tensor<1x19200x256xbf16>
    %308 = stablehlo.reshape %307 : (tensor<1x19200x256xbf16>) -> tensor<19200x256xbf16>
    %309 = stablehlo.dot_general %308, %arg502, contracting_dims = [1] x [0] : (tensor<19200x256xbf16>, tensor<256x64xbf16>) -> tensor<19200x64xbf16>
    %310 = stablehlo.reshape %309 : (tensor<19200x64xbf16>) -> tensor<1x19200x64xbf16>
    %311 = stablehlo.broadcast_in_dim %310, dims = [0, 1, 2] : (tensor<1x19200x64xbf16>) -> tensor<1x19200x64xbf16>
    %312 = stablehlo.broadcast_in_dim %arg15, dims = [2] : (tensor<64xbf16>) -> tensor<1x19200x64xbf16>
    %313 = stablehlo.add %311, %312 : tensor<1x19200x64xbf16>
    %314 = stablehlo.reshape %313 : (tensor<1x19200x64xbf16>) -> tensor<19200x64xbf16>
    %315 = stablehlo.reshape %314 : (tensor<19200x64xbf16>) -> tensor<1x19200x64xbf16>
    %316 = stablehlo.add %315, %218 : tensor<1x19200x64xbf16>
    %317 = stablehlo.convert %316 : (tensor<1x19200x64xbf16>) -> tensor<1x19200x64xf32>
    %318 = stablehlo.convert %317 : (tensor<1x19200x64xf32>) -> tensor<1x19200x64xf64>
    %319 = stablehlo.reduce(%318 init: %cst) applies stablehlo.add across dimensions = [2] : (tensor<1x19200x64xf64>, tensor<f64>) -> tensor<1x19200xf64>
    %320 = stablehlo.reshape %319 : (tensor<1x19200xf64>) -> tensor<1x19200x1xf64>
    %321 = stablehlo.broadcast_in_dim %320, dims = [0, 1, 2] : (tensor<1x19200x1xf64>) -> tensor<1x19200x1xf64>
    %322 = stablehlo.divide %321, %14 : tensor<1x19200x1xf64>
    %323 = stablehlo.broadcast_in_dim %318, dims = [0, 1, 2] : (tensor<1x19200x64xf64>) -> tensor<1x19200x64xf64>
    %324 = stablehlo.broadcast_in_dim %322, dims = [0, 1, 2] : (tensor<1x19200x1xf64>) -> tensor<1x19200x64xf64>
    %325 = stablehlo.subtract %323, %324 : tensor<1x19200x64xf64>
    %326 = stablehlo.multiply %325, %325 : tensor<1x19200x64xf64>
    %327 = stablehlo.reduce(%326 init: %cst) applies stablehlo.add across dimensions = [2] : (tensor<1x19200x64xf64>, tensor<f64>) -> tensor<1x19200xf64>
    %328 = stablehlo.reshape %327 : (tensor<1x19200xf64>) -> tensor<1x19200x1xf64>
    %329 = stablehlo.broadcast_in_dim %328, dims = [0, 1, 2] : (tensor<1x19200x1xf64>) -> tensor<1x19200x1xf64>
    %330 = stablehlo.divide %329, %14 : tensor<1x19200x1xf64>
    %331 = stablehlo.convert %330 : (tensor<1x19200x1xf64>) -> tensor<1x19200x1xf32>
    %332 = stablehlo.reduce(%317 init: %cst_0) applies stablehlo.add across dimensions = [2] : (tensor<1x19200x64xf32>, tensor<f32>) -> tensor<1x19200xf32>
    %333 = stablehlo.reshape %332 : (tensor<1x19200xf32>) -> tensor<1x19200x1xf32>
    %334 = stablehlo.broadcast_in_dim %333, dims = [0, 1, 2] : (tensor<1x19200x1xf32>) -> tensor<1x19200x1xf32>
    %335 = stablehlo.divide %334, %30 : tensor<1x19200x1xf32>
    %336 = stablehlo.broadcast_in_dim %331, dims = [0, 1, 2] : (tensor<1x19200x1xf32>) -> tensor<1x19200x1xf32>
    %337 = stablehlo.add %336, %35 : tensor<1x19200x1xf32>
    %338 = stablehlo.rsqrt %337 : tensor<1x19200x1xf32>
    %339 = stablehlo.broadcast_in_dim %317, dims = [0, 1, 2] : (tensor<1x19200x64xf32>) -> tensor<1x19200x64xf32>
    %340 = stablehlo.broadcast_in_dim %335, dims = [0, 1, 2] : (tensor<1x19200x1xf32>) -> tensor<1x19200x64xf32>
    %341 = stablehlo.subtract %339, %340 : tensor<1x19200x64xf32>
    %342 = stablehlo.broadcast_in_dim %341, dims = [0, 1, 2] : (tensor<1x19200x64xf32>) -> tensor<1x19200x64xf32>
    %343 = stablehlo.broadcast_in_dim %338, dims = [0, 1, 2] : (tensor<1x19200x1xf32>) -> tensor<1x19200x64xf32>
    %344 = stablehlo.multiply %342, %343 : tensor<1x19200x64xf32>
    %345 = stablehlo.convert %arg16 : (tensor<64xbf16>) -> tensor<64xf32>
    %346 = stablehlo.broadcast_in_dim %344, dims = [0, 1, 2] : (tensor<1x19200x64xf32>) -> tensor<1x19200x64xf32>
    %347 = stablehlo.broadcast_in_dim %345, dims = [2] : (tensor<64xf32>) -> tensor<1x19200x64xf32>
    %348 = stablehlo.multiply %346, %347 : tensor<1x19200x64xf32>
    %349 = stablehlo.convert %arg17 : (tensor<64xbf16>) -> tensor<64xf32>
    %350 = stablehlo.broadcast_in_dim %348, dims = [0, 1, 2] : (tensor<1x19200x64xf32>) -> tensor<1x19200x64xf32>
    %351 = stablehlo.broadcast_in_dim %349, dims = [2] : (tensor<64xf32>) -> tensor<1x19200x64xf32>
    %352 = stablehlo.add %350, %351 : tensor<1x19200x64xf32>
    %353 = stablehlo.convert %352 : (tensor<1x19200x64xf32>) -> tensor<1x19200x64xbf16>
    %354 = stablehlo.reshape %353 : (tensor<1x19200x64xbf16>) -> tensor<19200x64xbf16>
    %355 = stablehlo.convert %354 : (tensor<19200x64xbf16>) -> tensor<19200x64xf32>
    %356 = stablehlo.dot_general %355, %arg503, contracting_dims = [1] x [0] : (tensor<19200x64xf32>, tensor<64x64xf32>) -> tensor<19200x64xf32>
    %357 = stablehlo.broadcast_in_dim %356, dims = [0, 1] : (tensor<19200x64xf32>) -> tensor<19200x64xf32>
    %358 = stablehlo.multiply %357, %96 : tensor<19200x64xf32>
    %359 = stablehlo.broadcast_in_dim %358, dims = [0, 1] : (tensor<19200x64xf32>) -> tensor<19200x64xf32>
    %360 = stablehlo.broadcast_in_dim %arg504, dims = [1] : (tensor<64xf32>) -> tensor<19200x64xf32>
    %361 = stablehlo.add %359, %360 : tensor<19200x64xf32>
    %362 = stablehlo.convert %361 : (tensor<19200x64xf32>) -> tensor<19200x64xbf16>
    %363 = stablehlo.reshape %362 : (tensor<19200x64xbf16>) -> tensor<1x19200x64xbf16>
    %364 = stablehlo.reshape %363 : (tensor<1x19200x64xbf16>) -> tensor<1x19200x1x64xbf16>
    %365 = stablehlo.transpose %364, dims = [0, 2, 1, 3] : (tensor<1x19200x1x64xbf16>) -> tensor<1x1x19200x64xbf16>
    %366 = stablehlo.transpose %353, dims = [0, 2, 1] : (tensor<1x19200x64xbf16>) -> tensor<1x64x19200xbf16>
    %367 = stablehlo.reshape %366 : (tensor<1x64x19200xbf16>) -> tensor<1x64x120x160xbf16>
    %368 = stablehlo.convolution(%367, %arg18) dim_numbers = [b, f, 0, 1]x[o, i, 0, 1]->[b, f, 0, 1], window = {stride = [8, 8], pad = [[0, 0], [0, 0]], rhs_dilate = [1, 1]} {batch_group_count = 1 : i64, feature_group_count = 1 : i64} : (tensor<1x64x120x160xbf16>, tensor<64x64x8x8xbf16>) -> tensor<1x64x15x20xbf16>
    %369 = stablehlo.reshape %arg19 : (tensor<64xbf16>) -> tensor<64x1x1xbf16>
    %370 = stablehlo.broadcast_in_dim %368, dims = [0, 1, 2, 3] : (tensor<1x64x15x20xbf16>) -> tensor<1x64x15x20xbf16>
    %371 = stablehlo.broadcast_in_dim %369, dims = [1, 2, 3] : (tensor<64x1x1xbf16>) -> tensor<1x64x15x20xbf16>
    %372 = stablehlo.add %370, %371 : tensor<1x64x15x20xbf16>
    %373 = stablehlo.reshape %372 : (tensor<1x64x15x20xbf16>) -> tensor<1x64x300xbf16>
    %374 = stablehlo.transpose %373, dims = [0, 2, 1] : (tensor<1x64x300xbf16>) -> tensor<1x300x64xbf16>
    %375 = stablehlo.convert %374 : (tensor<1x300x64xbf16>) -> tensor<1x300x64xf32>
    %376 = stablehlo.convert %375 : (tensor<1x300x64xf32>) -> tensor<1x300x64xf64>
    %377 = stablehlo.reduce(%376 init: %cst) applies stablehlo.add across dimensions = [2] : (tensor<1x300x64xf64>, tensor<f64>) -> tensor<1x300xf64>
    %378 = stablehlo.reshape %377 : (tensor<1x300xf64>) -> tensor<1x300x1xf64>
    %379 = stablehlo.broadcast_in_dim %378, dims = [0, 1, 2] : (tensor<1x300x1xf64>) -> tensor<1x300x1xf64>
    %380 = stablehlo.divide %379, %119 : tensor<1x300x1xf64>
    %381 = stablehlo.broadcast_in_dim %376, dims = [0, 1, 2] : (tensor<1x300x64xf64>) -> tensor<1x300x64xf64>
    %382 = stablehlo.broadcast_in_dim %380, dims = [0, 1, 2] : (tensor<1x300x1xf64>) -> tensor<1x300x64xf64>
    %383 = stablehlo.subtract %381, %382 : tensor<1x300x64xf64>
    %384 = stablehlo.multiply %383, %383 : tensor<1x300x64xf64>
    %385 = stablehlo.reduce(%384 init: %cst) applies stablehlo.add across dimensions = [2] : (tensor<1x300x64xf64>, tensor<f64>) -> tensor<1x300xf64>
    %386 = stablehlo.reshape %385 : (tensor<1x300xf64>) -> tensor<1x300x1xf64>
    %387 = stablehlo.broadcast_in_dim %386, dims = [0, 1, 2] : (tensor<1x300x1xf64>) -> tensor<1x300x1xf64>
    %388 = stablehlo.divide %387, %119 : tensor<1x300x1xf64>
    %389 = stablehlo.convert %388 : (tensor<1x300x1xf64>) -> tensor<1x300x1xf32>
    %390 = stablehlo.reduce(%375 init: %cst_0) applies stablehlo.add across dimensions = [2] : (tensor<1x300x64xf32>, tensor<f32>) -> tensor<1x300xf32>
    %391 = stablehlo.reshape %390 : (tensor<1x300xf32>) -> tensor<1x300x1xf32>
    %392 = stablehlo.broadcast_in_dim %391, dims = [0, 1, 2] : (tensor<1x300x1xf32>) -> tensor<1x300x1xf32>
    %393 = stablehlo.divide %392, %133 : tensor<1x300x1xf32>
    %394 = stablehlo.broadcast_in_dim %389, dims = [0, 1, 2] : (tensor<1x300x1xf32>) -> tensor<1x300x1xf32>
    %395 = stablehlo.add %394, %136 : tensor<1x300x1xf32>
    %396 = stablehlo.rsqrt %395 : tensor<1x300x1xf32>
    %397 = stablehlo.broadcast_in_dim %375, dims = [0, 1, 2] : (tensor<1x300x64xf32>) -> tensor<1x300x64xf32>
    %398 = stablehlo.broadcast_in_dim %393, dims = [0, 1, 2] : (tensor<1x300x1xf32>) -> tensor<1x300x64xf32>
    %399 = stablehlo.subtract %397, %398 : tensor<1x300x64xf32>
    %400 = stablehlo.broadcast_in_dim %399, dims = [0, 1, 2] : (tensor<1x300x64xf32>) -> tensor<1x300x64xf32>
    %401 = stablehlo.broadcast_in_dim %396, dims = [0, 1, 2] : (tensor<1x300x1xf32>) -> tensor<1x300x64xf32>
    %402 = stablehlo.multiply %400, %401 : tensor<1x300x64xf32>
    %403 = stablehlo.convert %arg20 : (tensor<64xbf16>) -> tensor<64xf32>
    %404 = stablehlo.broadcast_in_dim %402, dims = [0, 1, 2] : (tensor<1x300x64xf32>) -> tensor<1x300x64xf32>
    %405 = stablehlo.broadcast_in_dim %403, dims = [2] : (tensor<64xf32>) -> tensor<1x300x64xf32>
    %406 = stablehlo.multiply %404, %405 : tensor<1x300x64xf32>
    %407 = stablehlo.convert %arg21 : (tensor<64xbf16>) -> tensor<64xf32>
    %408 = stablehlo.broadcast_in_dim %406, dims = [0, 1, 2] : (tensor<1x300x64xf32>) -> tensor<1x300x64xf32>
    %409 = stablehlo.broadcast_in_dim %407, dims = [2] : (tensor<64xf32>) -> tensor<1x300x64xf32>
    %410 = stablehlo.add %408, %409 : tensor<1x300x64xf32>
    %411 = stablehlo.convert %410 : (tensor<1x300x64xf32>) -> tensor<1x300x64xbf16>
    %412 = stablehlo.reshape %411 : (tensor<1x300x64xbf16>) -> tensor<300x64xbf16>
    %413 = stablehlo.convert %412 : (tensor<300x64xbf16>) -> tensor<300x64xf32>
    %414 = stablehlo.dot_general %413, %arg505, contracting_dims = [1] x [0] : (tensor<300x64xf32>, tensor<64x64xf32>) -> tensor<300x64xf32>
    %415 = stablehlo.broadcast_in_dim %414, dims = [0, 1] : (tensor<300x64xf32>) -> tensor<300x64xf32>
    %416 = stablehlo.multiply %415, %158 : tensor<300x64xf32>
    %417 = stablehlo.broadcast_in_dim %416, dims = [0, 1] : (tensor<300x64xf32>) -> tensor<300x64xf32>
    %418 = stablehlo.broadcast_in_dim %arg506, dims = [1] : (tensor<64xf32>) -> tensor<300x64xf32>
    %419 = stablehlo.add %417, %418 : tensor<300x64xf32>
    %420 = stablehlo.convert %419 : (tensor<300x64xf32>) -> tensor<300x64xbf16>
    %421 = stablehlo.reshape %420 : (tensor<300x64xbf16>) -> tensor<1x300x64xbf16>
    %422 = stablehlo.reshape %421 : (tensor<1x300x64xbf16>) -> tensor<1x300x1x64xbf16>
    %423 = stablehlo.transpose %422, dims = [0, 2, 1, 3] : (tensor<1x300x1x64xbf16>) -> tensor<1x1x300x64xbf16>
    %424 = stablehlo.dot_general %413, %arg507, contracting_dims = [1] x [0] : (tensor<300x64xf32>, tensor<64x64xf32>) -> tensor<300x64xf32>
    %425 = stablehlo.broadcast_in_dim %424, dims = [0, 1] : (tensor<300x64xf32>) -> tensor<300x64xf32>
    %426 = stablehlo.multiply %425, %158 : tensor<300x64xf32>
    %427 = stablehlo.broadcast_in_dim %426, dims = [0, 1] : (tensor<300x64xf32>) -> tensor<300x64xf32>
    %428 = stablehlo.broadcast_in_dim %arg508, dims = [1] : (tensor<64xf32>) -> tensor<300x64xf32>
    %429 = stablehlo.add %427, %428 : tensor<300x64xf32>
    %430 = stablehlo.convert %429 : (tensor<300x64xf32>) -> tensor<300x64xbf16>
    %431 = stablehlo.reshape %430 : (tensor<300x64xbf16>) -> tensor<1x300x64xbf16>
    %432 = stablehlo.reshape %431 : (tensor<1x300x64xbf16>) -> tensor<1x300x1x64xbf16>
    %433 = stablehlo.transpose %432, dims = [0, 2, 1, 3] : (tensor<1x300x1x64xbf16>) -> tensor<1x1x300x64xbf16>
    %434 = stablehlo.transpose %423, dims = [0, 1, 3, 2] : (tensor<1x1x300x64xbf16>) -> tensor<1x1x64x300xbf16>
    %435 = stablehlo.reshape %365 : (tensor<1x1x19200x64xbf16>) -> tensor<1x19200x64xbf16>
    %436 = stablehlo.reshape %434 : (tensor<1x1x64x300xbf16>) -> tensor<1x64x300xbf16>
    %437 = stablehlo.broadcast_in_dim %436, dims = [0, 1, 2] : (tensor<1x64x300xbf16>) -> tensor<1x64x300xbf16>
    %438 = stablehlo.dot_general %435, %437, batching_dims = [0] x [0], contracting_dims = [2] x [1] : (tensor<1x19200x64xbf16>, tensor<1x64x300xbf16>) -> tensor<1x19200x300xbf16>
    %439 = stablehlo.reshape %438 : (tensor<1x19200x300xbf16>) -> tensor<1x1x19200x300xbf16>
    %440 = stablehlo.broadcast_in_dim %439, dims = [0, 1, 2, 3] : (tensor<1x1x19200x300xbf16>) -> tensor<1x1x19200x300xbf16>
    %441 = stablehlo.divide %440, %186 : tensor<1x1x19200x300xbf16>
    %442 = stablehlo.convert %441 : (tensor<1x1x19200x300xbf16>) -> tensor<1x1x19200x300xf32>
    %443 = stablehlo.reduce(%442 init: %cst_1) applies stablehlo.maximum across dimensions = [3] : (tensor<1x1x19200x300xf32>, tensor<f32>) -> tensor<1x1x19200xf32>
    %444 = stablehlo.reshape %443 : (tensor<1x1x19200xf32>) -> tensor<1x1x19200x1xf32>
    %445 = stablehlo.broadcast_in_dim %442, dims = [0, 1, 2, 3] : (tensor<1x1x19200x300xf32>) -> tensor<1x1x19200x300xf32>
    %446 = stablehlo.broadcast_in_dim %444, dims = [0, 1, 2, 3] : (tensor<1x1x19200x1xf32>) -> tensor<1x1x19200x300xf32>
    %447 = stablehlo.subtract %445, %446 : tensor<1x1x19200x300xf32>
    %448 = stablehlo.exponential %447 : tensor<1x1x19200x300xf32>
    %449 = stablehlo.reduce(%448 init: %cst_0) applies stablehlo.add across dimensions = [3] : (tensor<1x1x19200x300xf32>, tensor<f32>) -> tensor<1x1x19200xf32>
    %450 = stablehlo.reshape %449 : (tensor<1x1x19200xf32>) -> tensor<1x1x19200x1xf32>
    %451 = stablehlo.broadcast_in_dim %448, dims = [0, 1, 2, 3] : (tensor<1x1x19200x300xf32>) -> tensor<1x1x19200x300xf32>
    %452 = stablehlo.broadcast_in_dim %450, dims = [0, 1, 2, 3] : (tensor<1x1x19200x1xf32>) -> tensor<1x1x19200x300xf32>
    %453 = stablehlo.divide %451, %452 : tensor<1x1x19200x300xf32>
    %454 = stablehlo.convert %453 : (tensor<1x1x19200x300xf32>) -> tensor<1x1x19200x300xbf16>
    %455 = stablehlo.reshape %454 : (tensor<1x1x19200x300xbf16>) -> tensor<1x19200x300xbf16>
    %456 = stablehlo.reshape %433 : (tensor<1x1x300x64xbf16>) -> tensor<1x300x64xbf16>
    %457 = stablehlo.broadcast_in_dim %456, dims = [0, 1, 2] : (tensor<1x300x64xbf16>) -> tensor<1x300x64xbf16>
    %458 = stablehlo.dot_general %455, %457, batching_dims = [0] x [0], contracting_dims = [2] x [1] : (tensor<1x19200x300xbf16>, tensor<1x300x64xbf16>) -> tensor<1x19200x64xbf16>
    %459 = stablehlo.reshape %458 : (tensor<1x19200x64xbf16>) -> tensor<1x1x19200x64xbf16>
    %460 = stablehlo.transpose %459, dims = [0, 2, 1, 3] : (tensor<1x1x19200x64xbf16>) -> tensor<1x19200x1x64xbf16>
    %461 = stablehlo.reshape %460 : (tensor<1x19200x1x64xbf16>) -> tensor<1x19200x64xbf16>
    %462 = stablehlo.reshape %461 : (tensor<1x19200x64xbf16>) -> tensor<19200x64xbf16>
    %463 = stablehlo.convert %462 : (tensor<19200x64xbf16>) -> tensor<19200x64xf32>
    %464 = stablehlo.dot_general %463, %arg509, contracting_dims = [1] x [0] : (tensor<19200x64xf32>, tensor<64x64xf32>) -> tensor<19200x64xf32>
    %465 = stablehlo.broadcast_in_dim %464, dims = [0, 1] : (tensor<19200x64xf32>) -> tensor<19200x64xf32>
    %466 = stablehlo.multiply %465, %96 : tensor<19200x64xf32>
    %467 = stablehlo.broadcast_in_dim %466, dims = [0, 1] : (tensor<19200x64xf32>) -> tensor<19200x64xf32>
    %468 = stablehlo.broadcast_in_dim %arg510, dims = [1] : (tensor<64xf32>) -> tensor<19200x64xf32>
    %469 = stablehlo.add %467, %468 : tensor<19200x64xf32>
    %470 = stablehlo.convert %469 : (tensor<19200x64xf32>) -> tensor<19200x64xbf16>
    %471 = stablehlo.reshape %470 : (tensor<19200x64xbf16>) -> tensor<1x19200x64xbf16>
    %472 = stablehlo.add %471, %316 : tensor<1x19200x64xbf16>
    %473 = stablehlo.convert %472 : (tensor<1x19200x64xbf16>) -> tensor<1x19200x64xf32>
    %474 = stablehlo.convert %473 : (tensor<1x19200x64xf32>) -> tensor<1x19200x64xf64>
    %475 = stablehlo.reduce(%474 init: %cst) applies stablehlo.add across dimensions = [2] : (tensor<1x19200x64xf64>, tensor<f64>) -> tensor<1x19200xf64>
    %476 = stablehlo.reshape %475 : (tensor<1x19200xf64>) -> tensor<1x19200x1xf64>
    %477 = stablehlo.broadcast_in_dim %476, dims = [0, 1, 2] : (tensor<1x19200x1xf64>) -> tensor<1x19200x1xf64>
    %478 = stablehlo.divide %477, %14 : tensor<1x19200x1xf64>
    %479 = stablehlo.broadcast_in_dim %474, dims = [0, 1, 2] : (tensor<1x19200x64xf64>) -> tensor<1x19200x64xf64>
    %480 = stablehlo.broadcast_in_dim %478, dims = [0, 1, 2] : (tensor<1x19200x1xf64>) -> tensor<1x19200x64xf64>
    %481 = stablehlo.subtract %479, %480 : tensor<1x19200x64xf64>
    %482 = stablehlo.multiply %481, %481 : tensor<1x19200x64xf64>
    %483 = stablehlo.reduce(%482 init: %cst) applies stablehlo.add across dimensions = [2] : (tensor<1x19200x64xf64>, tensor<f64>) -> tensor<1x19200xf64>
    %484 = stablehlo.reshape %483 : (tensor<1x19200xf64>) -> tensor<1x19200x1xf64>
    %485 = stablehlo.broadcast_in_dim %484, dims = [0, 1, 2] : (tensor<1x19200x1xf64>) -> tensor<1x19200x1xf64>
    %486 = stablehlo.divide %485, %14 : tensor<1x19200x1xf64>
    %487 = stablehlo.convert %486 : (tensor<1x19200x1xf64>) -> tensor<1x19200x1xf32>
    %488 = stablehlo.reduce(%473 init: %cst_0) applies stablehlo.add across dimensions = [2] : (tensor<1x19200x64xf32>, tensor<f32>) -> tensor<1x19200xf32>
    %489 = stablehlo.reshape %488 : (tensor<1x19200xf32>) -> tensor<1x19200x1xf32>
    %490 = stablehlo.broadcast_in_dim %489, dims = [0, 1, 2] : (tensor<1x19200x1xf32>) -> tensor<1x19200x1xf32>
    %491 = stablehlo.divide %490, %30 : tensor<1x19200x1xf32>
    %492 = stablehlo.broadcast_in_dim %487, dims = [0, 1, 2] : (tensor<1x19200x1xf32>) -> tensor<1x19200x1xf32>
    %493 = stablehlo.add %492, %35 : tensor<1x19200x1xf32>
    %494 = stablehlo.rsqrt %493 : tensor<1x19200x1xf32>
    %495 = stablehlo.broadcast_in_dim %473, dims = [0, 1, 2] : (tensor<1x19200x64xf32>) -> tensor<1x19200x64xf32>
    %496 = stablehlo.broadcast_in_dim %491, dims = [0, 1, 2] : (tensor<1x19200x1xf32>) -> tensor<1x19200x64xf32>
    %497 = stablehlo.subtract %495, %496 : tensor<1x19200x64xf32>
    %498 = stablehlo.broadcast_in_dim %497, dims = [0, 1, 2] : (tensor<1x19200x64xf32>) -> tensor<1x19200x64xf32>
    %499 = stablehlo.broadcast_in_dim %494, dims = [0, 1, 2] : (tensor<1x19200x1xf32>) -> tensor<1x19200x64xf32>
    %500 = stablehlo.multiply %498, %499 : tensor<1x19200x64xf32>
    %501 = stablehlo.convert %arg22 : (tensor<64xbf16>) -> tensor<64xf32>
    %502 = stablehlo.broadcast_in_dim %500, dims = [0, 1, 2] : (tensor<1x19200x64xf32>) -> tensor<1x19200x64xf32>
    %503 = stablehlo.broadcast_in_dim %501, dims = [2] : (tensor<64xf32>) -> tensor<1x19200x64xf32>
    %504 = stablehlo.multiply %502, %503 : tensor<1x19200x64xf32>
    %505 = stablehlo.convert %arg23 : (tensor<64xbf16>) -> tensor<64xf32>
    %506 = stablehlo.broadcast_in_dim %504, dims = [0, 1, 2] : (tensor<1x19200x64xf32>) -> tensor<1x19200x64xf32>
    %507 = stablehlo.broadcast_in_dim %505, dims = [2] : (tensor<64xf32>) -> tensor<1x19200x64xf32>
    %508 = stablehlo.add %506, %507 : tensor<1x19200x64xf32>
    %509 = stablehlo.convert %508 : (tensor<1x19200x64xf32>) -> tensor<1x19200x64xbf16>
    %510 = stablehlo.reshape %509 : (tensor<1x19200x64xbf16>) -> tensor<19200x64xbf16>
    %511 = stablehlo.convert %510 : (tensor<19200x64xbf16>) -> tensor<19200x64xf32>
    %512 = stablehlo.dot_general %511, %arg511, contracting_dims = [1] x [0] : (tensor<19200x64xf32>, tensor<64x256xf32>) -> tensor<19200x256xf32>
    %513 = stablehlo.broadcast_in_dim %512, dims = [0, 1] : (tensor<19200x256xf32>) -> tensor<19200x256xf32>
    %514 = stablehlo.multiply %513, %260 : tensor<19200x256xf32>
    %515 = stablehlo.broadcast_in_dim %514, dims = [0, 1] : (tensor<19200x256xf32>) -> tensor<19200x256xf32>
    %516 = stablehlo.broadcast_in_dim %arg512, dims = [1] : (tensor<256xf32>) -> tensor<19200x256xf32>
    %517 = stablehlo.add %515, %516 : tensor<19200x256xf32>
    %518 = stablehlo.convert %517 : (tensor<19200x256xf32>) -> tensor<19200x256xbf16>
    %519 = stablehlo.reshape %518 : (tensor<19200x256xbf16>) -> tensor<1x19200x256xbf16>
    %520 = stablehlo.transpose %519, dims = [0, 2, 1] : (tensor<1x19200x256xbf16>) -> tensor<1x256x19200xbf16>
    %521 = stablehlo.reshape %520 : (tensor<1x256x19200xbf16>) -> tensor<1x256x120x160xbf16>
    %522 = stablehlo.convolution(%521, %arg24) dim_numbers = [b, f, 0, 1]x[o, i, 0, 1]->[b, f, 0, 1], window = {stride = [1, 1], pad = [[1, 1], [1, 1]], rhs_dilate = [1, 1]} {batch_group_count = 1 : i64, feature_group_count = 256 : i64} : (tensor<1x256x120x160xbf16>, tensor<256x1x3x3xbf16>) -> tensor<1x256x120x160xbf16>
    %523 = stablehlo.reshape %arg25 : (tensor<256xbf16>) -> tensor<256x1x1xbf16>
    %524 = stablehlo.broadcast_in_dim %522, dims = [0, 1, 2, 3] : (tensor<1x256x120x160xbf16>) -> tensor<1x256x120x160xbf16>
    %525 = stablehlo.broadcast_in_dim %523, dims = [1, 2, 3] : (tensor<256x1x1xbf16>) -> tensor<1x256x120x160xbf16>
    %526 = stablehlo.add %524, %525 : tensor<1x256x120x160xbf16>
    %527 = stablehlo.reshape %526 : (tensor<1x256x120x160xbf16>) -> tensor<1x256x19200xbf16>
    %528 = stablehlo.transpose %527, dims = [0, 2, 1] : (tensor<1x256x19200xbf16>) -> tensor<1x19200x256xbf16>
    %529 = stablehlo.multiply %528, %cst_4 : tensor<1x19200x256xbf16>
    %530 = stablehlo.multiply %528, %277 : tensor<1x19200x256xbf16>
    %531 = stablehlo.convert %530 : (tensor<1x19200x256xbf16>) -> tensor<1x19200x256xf32>
    %532 = stablehlo.clamp %cst_5, %531, %cst_6 : tensor<1x19200x256xf32>
    %533 = stablehlo.multiply %532, %532 : tensor<1x19200x256xf32>
    %534 = stablehlo.multiply %cst_7, %533 : tensor<1x19200x256xf32>
    %535 = stablehlo.add %534, %cst_8 : tensor<1x19200x256xf32>
    %536 = stablehlo.multiply %535, %533 : tensor<1x19200x256xf32>
    %537 = stablehlo.add %536, %cst_9 : tensor<1x19200x256xf32>
    %538 = stablehlo.multiply %537, %533 : tensor<1x19200x256xf32>
    %539 = stablehlo.add %538, %cst_10 : tensor<1x19200x256xf32>
    %540 = stablehlo.multiply %539, %533 : tensor<1x19200x256xf32>
    %541 = stablehlo.add %540, %cst_11 : tensor<1x19200x256xf32>
    %542 = stablehlo.multiply %541, %533 : tensor<1x19200x256xf32>
    %543 = stablehlo.add %542, %cst_12 : tensor<1x19200x256xf32>
    %544 = stablehlo.multiply %543, %533 : tensor<1x19200x256xf32>
    %545 = stablehlo.add %544, %cst_13 : tensor<1x19200x256xf32>
    %546 = stablehlo.multiply %cst_14, %533 : tensor<1x19200x256xf32>
    %547 = stablehlo.add %546, %cst_15 : tensor<1x19200x256xf32>
    %548 = stablehlo.multiply %547, %533 : tensor<1x19200x256xf32>
    %549 = stablehlo.add %548, %cst_16 : tensor<1x19200x256xf32>
    %550 = stablehlo.multiply %549, %533 : tensor<1x19200x256xf32>
    %551 = stablehlo.add %550, %cst_17 : tensor<1x19200x256xf32>
    %552 = stablehlo.multiply %551, %533 : tensor<1x19200x256xf32>
    %553 = stablehlo.add %552, %cst_18 : tensor<1x19200x256xf32>
    %554 = stablehlo.multiply %532, %545 : tensor<1x19200x256xf32>
    %555 = stablehlo.divide %554, %553 : tensor<1x19200x256xf32>
    %556 = stablehlo.clamp %cst_19, %555, %cst_20 : tensor<1x19200x256xf32>
    %557 = stablehlo.convert %556 : (tensor<1x19200x256xf32>) -> tensor<1x19200x256xbf16>
    %558 = stablehlo.add %557, %cst_2 : tensor<1x19200x256xbf16>
    %559 = stablehlo.multiply %558, %529 : tensor<1x19200x256xbf16>
    %560 = stablehlo.reshape %559 : (tensor<1x19200x256xbf16>) -> tensor<19200x256xbf16>
    %561 = stablehlo.dot_general %560, %arg513, contracting_dims = [1] x [0] : (tensor<19200x256xbf16>, tensor<256x64xbf16>) -> tensor<19200x64xbf16>
    %562 = stablehlo.reshape %561 : (tensor<19200x64xbf16>) -> tensor<1x19200x64xbf16>
    %563 = stablehlo.broadcast_in_dim %562, dims = [0, 1, 2] : (tensor<1x19200x64xbf16>) -> tensor<1x19200x64xbf16>
    %564 = stablehlo.broadcast_in_dim %arg26, dims = [2] : (tensor<64xbf16>) -> tensor<1x19200x64xbf16>
    %565 = stablehlo.add %563, %564 : tensor<1x19200x64xbf16>
    %566 = stablehlo.reshape %565 : (tensor<1x19200x64xbf16>) -> tensor<19200x64xbf16>
    %567 = stablehlo.reshape %566 : (tensor<19200x64xbf16>) -> tensor<1x19200x64xbf16>
    %568 = stablehlo.add %567, %472 : tensor<1x19200x64xbf16>
    %569 = stablehlo.convert %568 : (tensor<1x19200x64xbf16>) -> tensor<1x19200x64xf32>
    %570 = stablehlo.convert %569 : (tensor<1x19200x64xf32>) -> tensor<1x19200x64xf64>
    %571 = stablehlo.reduce(%570 init: %cst) applies stablehlo.add across dimensions = [2] : (tensor<1x19200x64xf64>, tensor<f64>) -> tensor<1x19200xf64>
    %572 = stablehlo.reshape %571 : (tensor<1x19200xf64>) -> tensor<1x19200x1xf64>
    %573 = stablehlo.broadcast_in_dim %572, dims = [0, 1, 2] : (tensor<1x19200x1xf64>) -> tensor<1x19200x1xf64>
    %574 = stablehlo.divide %573, %14 : tensor<1x19200x1xf64>
    %575 = stablehlo.broadcast_in_dim %570, dims = [0, 1, 2] : (tensor<1x19200x64xf64>) -> tensor<1x19200x64xf64>
    %576 = stablehlo.broadcast_in_dim %574, dims = [0, 1, 2] : (tensor<1x19200x1xf64>) -> tensor<1x19200x64xf64>
    %577 = stablehlo.subtract %575, %576 : tensor<1x19200x64xf64>
    %578 = stablehlo.multiply %577, %577 : tensor<1x19200x64xf64>
    %579 = stablehlo.reduce(%578 init: %cst) applies stablehlo.add across dimensions = [2] : (tensor<1x19200x64xf64>, tensor<f64>) -> tensor<1x19200xf64>
    %580 = stablehlo.reshape %579 : (tensor<1x19200xf64>) -> tensor<1x19200x1xf64>
    %581 = stablehlo.broadcast_in_dim %580, dims = [0, 1, 2] : (tensor<1x19200x1xf64>) -> tensor<1x19200x1xf64>
    %582 = stablehlo.divide %581, %14 : tensor<1x19200x1xf64>
    %583 = stablehlo.convert %582 : (tensor<1x19200x1xf64>) -> tensor<1x19200x1xf32>
    %584 = stablehlo.reduce(%569 init: %cst_0) applies stablehlo.add across dimensions = [2] : (tensor<1x19200x64xf32>, tensor<f32>) -> tensor<1x19200xf32>
    %585 = stablehlo.reshape %584 : (tensor<1x19200xf32>) -> tensor<1x19200x1xf32>
    %586 = stablehlo.broadcast_in_dim %585, dims = [0, 1, 2] : (tensor<1x19200x1xf32>) -> tensor<1x19200x1xf32>
    %587 = stablehlo.divide %586, %30 : tensor<1x19200x1xf32>
    %588 = stablehlo.broadcast_in_dim %583, dims = [0, 1, 2] : (tensor<1x19200x1xf32>) -> tensor<1x19200x1xf32>
    %589 = stablehlo.add %588, %35 : tensor<1x19200x1xf32>
    %590 = stablehlo.rsqrt %589 : tensor<1x19200x1xf32>
    %591 = stablehlo.broadcast_in_dim %569, dims = [0, 1, 2] : (tensor<1x19200x64xf32>) -> tensor<1x19200x64xf32>
    %592 = stablehlo.broadcast_in_dim %587, dims = [0, 1, 2] : (tensor<1x19200x1xf32>) -> tensor<1x19200x64xf32>
    %593 = stablehlo.subtract %591, %592 : tensor<1x19200x64xf32>
    %594 = stablehlo.broadcast_in_dim %593, dims = [0, 1, 2] : (tensor<1x19200x64xf32>) -> tensor<1x19200x64xf32>
    %595 = stablehlo.broadcast_in_dim %590, dims = [0, 1, 2] : (tensor<1x19200x1xf32>) -> tensor<1x19200x64xf32>
    %596 = stablehlo.multiply %594, %595 : tensor<1x19200x64xf32>
    %597 = stablehlo.convert %arg27 : (tensor<64xbf16>) -> tensor<64xf32>
    %598 = stablehlo.broadcast_in_dim %596, dims = [0, 1, 2] : (tensor<1x19200x64xf32>) -> tensor<1x19200x64xf32>
    %599 = stablehlo.broadcast_in_dim %597, dims = [2] : (tensor<64xf32>) -> tensor<1x19200x64xf32>
    %600 = stablehlo.multiply %598, %599 : tensor<1x19200x64xf32>
    %601 = stablehlo.convert %arg28 : (tensor<64xbf16>) -> tensor<64xf32>
    %602 = stablehlo.broadcast_in_dim %600, dims = [0, 1, 2] : (tensor<1x19200x64xf32>) -> tensor<1x19200x64xf32>
    %603 = stablehlo.broadcast_in_dim %601, dims = [2] : (tensor<64xf32>) -> tensor<1x19200x64xf32>
    %604 = stablehlo.add %602, %603 : tensor<1x19200x64xf32>
    %605 = stablehlo.convert %604 : (tensor<1x19200x64xf32>) -> tensor<1x19200x64xbf16>
    %606 = stablehlo.reshape %605 : (tensor<1x19200x64xbf16>) -> tensor<19200x64xbf16>
    %607 = stablehlo.convert %606 : (tensor<19200x64xbf16>) -> tensor<19200x64xf32>
    %608 = stablehlo.dot_general %607, %arg514, contracting_dims = [1] x [0] : (tensor<19200x64xf32>, tensor<64x64xf32>) -> tensor<19200x64xf32>
    %609 = stablehlo.broadcast_in_dim %608, dims = [0, 1] : (tensor<19200x64xf32>) -> tensor<19200x64xf32>
    %610 = stablehlo.multiply %609, %96 : tensor<19200x64xf32>
    %611 = stablehlo.broadcast_in_dim %610, dims = [0, 1] : (tensor<19200x64xf32>) -> tensor<19200x64xf32>
    %612 = stablehlo.broadcast_in_dim %arg515, dims = [1] : (tensor<64xf32>) -> tensor<19200x64xf32>
    %613 = stablehlo.add %611, %612 : tensor<19200x64xf32>
    %614 = stablehlo.convert %613 : (tensor<19200x64xf32>) -> tensor<19200x64xbf16>
    %615 = stablehlo.reshape %614 : (tensor<19200x64xbf16>) -> tensor<1x19200x64xbf16>
    %616 = stablehlo.reshape %615 : (tensor<1x19200x64xbf16>) -> tensor<1x19200x1x64xbf16>
    %617 = stablehlo.transpose %616, dims = [0, 2, 1, 3] : (tensor<1x19200x1x64xbf16>) -> tensor<1x1x19200x64xbf16>
    %618 = stablehlo.transpose %605, dims = [0, 2, 1] : (tensor<1x19200x64xbf16>) -> tensor<1x64x19200xbf16>
    %619 = stablehlo.reshape %618 : (tensor<1x64x19200xbf16>) -> tensor<1x64x120x160xbf16>
    %620 = stablehlo.convolution(%619, %arg29) dim_numbers = [b, f, 0, 1]x[o, i, 0, 1]->[b, f, 0, 1], window = {stride = [8, 8], pad = [[0, 0], [0, 0]], rhs_dilate = [1, 1]} {batch_group_count = 1 : i64, feature_group_count = 1 : i64} : (tensor<1x64x120x160xbf16>, tensor<64x64x8x8xbf16>) -> tensor<1x64x15x20xbf16>
    %621 = stablehlo.reshape %arg30 : (tensor<64xbf16>) -> tensor<64x1x1xbf16>
    %622 = stablehlo.broadcast_in_dim %620, dims = [0, 1, 2, 3] : (tensor<1x64x15x20xbf16>) -> tensor<1x64x15x20xbf16>
    %623 = stablehlo.broadcast_in_dim %621, dims = [1, 2, 3] : (tensor<64x1x1xbf16>) -> tensor<1x64x15x20xbf16>
    %624 = stablehlo.add %622, %623 : tensor<1x64x15x20xbf16>
    %625 = stablehlo.reshape %624 : (tensor<1x64x15x20xbf16>) -> tensor<1x64x300xbf16>
    %626 = stablehlo.transpose %625, dims = [0, 2, 1] : (tensor<1x64x300xbf16>) -> tensor<1x300x64xbf16>
    %627 = stablehlo.convert %626 : (tensor<1x300x64xbf16>) -> tensor<1x300x64xf32>
    %628 = stablehlo.convert %627 : (tensor<1x300x64xf32>) -> tensor<1x300x64xf64>
    %629 = stablehlo.reduce(%628 init: %cst) applies stablehlo.add across dimensions = [2] : (tensor<1x300x64xf64>, tensor<f64>) -> tensor<1x300xf64>
    %630 = stablehlo.reshape %629 : (tensor<1x300xf64>) -> tensor<1x300x1xf64>
    %631 = stablehlo.broadcast_in_dim %630, dims = [0, 1, 2] : (tensor<1x300x1xf64>) -> tensor<1x300x1xf64>
    %632 = stablehlo.divide %631, %119 : tensor<1x300x1xf64>
    %633 = stablehlo.broadcast_in_dim %628, dims = [0, 1, 2] : (tensor<1x300x64xf64>) -> tensor<1x300x64xf64>
    %634 = stablehlo.broadcast_in_dim %632, dims = [0, 1, 2] : (tensor<1x300x1xf64>) -> tensor<1x300x64xf64>
    %635 = stablehlo.subtract %633, %634 : tensor<1x300x64xf64>
    %636 = stablehlo.multiply %635, %635 : tensor<1x300x64xf64>
    %637 = stablehlo.reduce(%636 init: %cst) applies stablehlo.add across dimensions = [2] : (tensor<1x300x64xf64>, tensor<f64>) -> tensor<1x300xf64>
    %638 = stablehlo.reshape %637 : (tensor<1x300xf64>) -> tensor<1x300x1xf64>
    %639 = stablehlo.broadcast_in_dim %638, dims = [0, 1, 2] : (tensor<1x300x1xf64>) -> tensor<1x300x1xf64>
    %640 = stablehlo.divide %639, %119 : tensor<1x300x1xf64>
    %641 = stablehlo.convert %640 : (tensor<1x300x1xf64>) -> tensor<1x300x1xf32>
    %642 = stablehlo.reduce(%627 init: %cst_0) applies stablehlo.add across dimensions = [2] : (tensor<1x300x64xf32>, tensor<f32>) -> tensor<1x300xf32>
    %643 = stablehlo.reshape %642 : (tensor<1x300xf32>) -> tensor<1x300x1xf32>
    %644 = stablehlo.broadcast_in_dim %643, dims = [0, 1, 2] : (tensor<1x300x1xf32>) -> tensor<1x300x1xf32>
    %645 = stablehlo.divide %644, %133 : tensor<1x300x1xf32>
    %646 = stablehlo.broadcast_in_dim %641, dims = [0, 1, 2] : (tensor<1x300x1xf32>) -> tensor<1x300x1xf32>
    %647 = stablehlo.add %646, %136 : tensor<1x300x1xf32>
    %648 = stablehlo.rsqrt %647 : tensor<1x300x1xf32>
    %649 = stablehlo.broadcast_in_dim %627, dims = [0, 1, 2] : (tensor<1x300x64xf32>) -> tensor<1x300x64xf32>
    %650 = stablehlo.broadcast_in_dim %645, dims = [0, 1, 2] : (tensor<1x300x1xf32>) -> tensor<1x300x64xf32>
    %651 = stablehlo.subtract %649, %650 : tensor<1x300x64xf32>
    %652 = stablehlo.broadcast_in_dim %651, dims = [0, 1, 2] : (tensor<1x300x64xf32>) -> tensor<1x300x64xf32>
    %653 = stablehlo.broadcast_in_dim %648, dims = [0, 1, 2] : (tensor<1x300x1xf32>) -> tensor<1x300x64xf32>
    %654 = stablehlo.multiply %652, %653 : tensor<1x300x64xf32>
    %655 = stablehlo.convert %arg31 : (tensor<64xbf16>) -> tensor<64xf32>
    %656 = stablehlo.broadcast_in_dim %654, dims = [0, 1, 2] : (tensor<1x300x64xf32>) -> tensor<1x300x64xf32>
    %657 = stablehlo.broadcast_in_dim %655, dims = [2] : (tensor<64xf32>) -> tensor<1x300x64xf32>
    %658 = stablehlo.multiply %656, %657 : tensor<1x300x64xf32>
    %659 = stablehlo.convert %arg32 : (tensor<64xbf16>) -> tensor<64xf32>
    %660 = stablehlo.broadcast_in_dim %658, dims = [0, 1, 2] : (tensor<1x300x64xf32>) -> tensor<1x300x64xf32>
    %661 = stablehlo.broadcast_in_dim %659, dims = [2] : (tensor<64xf32>) -> tensor<1x300x64xf32>
    %662 = stablehlo.add %660, %661 : tensor<1x300x64xf32>
    %663 = stablehlo.convert %662 : (tensor<1x300x64xf32>) -> tensor<1x300x64xbf16>
    %664 = stablehlo.reshape %663 : (tensor<1x300x64xbf16>) -> tensor<300x64xbf16>
    %665 = stablehlo.convert %664 : (tensor<300x64xbf16>) -> tensor<300x64xf32>
    %666 = stablehlo.dot_general %665, %arg516, contracting_dims = [1] x [0] : (tensor<300x64xf32>, tensor<64x64xf32>) -> tensor<300x64xf32>
    %667 = stablehlo.broadcast_in_dim %666, dims = [0, 1] : (tensor<300x64xf32>) -> tensor<300x64xf32>
    %668 = stablehlo.multiply %667, %158 : tensor<300x64xf32>
    %669 = stablehlo.broadcast_in_dim %668, dims = [0, 1] : (tensor<300x64xf32>) -> tensor<300x64xf32>
    %670 = stablehlo.broadcast_in_dim %arg517, dims = [1] : (tensor<64xf32>) -> tensor<300x64xf32>
    %671 = stablehlo.add %669, %670 : tensor<300x64xf32>
    %672 = stablehlo.convert %671 : (tensor<300x64xf32>) -> tensor<300x64xbf16>
    %673 = stablehlo.reshape %672 : (tensor<300x64xbf16>) -> tensor<1x300x64xbf16>
    %674 = stablehlo.reshape %673 : (tensor<1x300x64xbf16>) -> tensor<1x300x1x64xbf16>
    %675 = stablehlo.transpose %674, dims = [0, 2, 1, 3] : (tensor<1x300x1x64xbf16>) -> tensor<1x1x300x64xbf16>
    %676 = stablehlo.dot_general %665, %arg518, contracting_dims = [1] x [0] : (tensor<300x64xf32>, tensor<64x64xf32>) -> tensor<300x64xf32>
    %677 = stablehlo.broadcast_in_dim %676, dims = [0, 1] : (tensor<300x64xf32>) -> tensor<300x64xf32>
    %678 = stablehlo.multiply %677, %158 : tensor<300x64xf32>
    %679 = stablehlo.broadcast_in_dim %678, dims = [0, 1] : (tensor<300x64xf32>) -> tensor<300x64xf32>
    %680 = stablehlo.broadcast_in_dim %arg519, dims = [1] : (tensor<64xf32>) -> tensor<300x64xf32>
    %681 = stablehlo.add %679, %680 : tensor<300x64xf32>
    %682 = stablehlo.convert %681 : (tensor<300x64xf32>) -> tensor<300x64xbf16>
    %683 = stablehlo.reshape %682 : (tensor<300x64xbf16>) -> tensor<1x300x64xbf16>
    %684 = stablehlo.reshape %683 : (tensor<1x300x64xbf16>) -> tensor<1x300x1x64xbf16>
    %685 = stablehlo.transpose %684, dims = [0, 2, 1, 3] : (tensor<1x300x1x64xbf16>) -> tensor<1x1x300x64xbf16>
    %686 = stablehlo.transpose %675, dims = [0, 1, 3, 2] : (tensor<1x1x300x64xbf16>) -> tensor<1x1x64x300xbf16>
    %687 = stablehlo.reshape %617 : (tensor<1x1x19200x64xbf16>) -> tensor<1x19200x64xbf16>
    %688 = stablehlo.reshape %686 : (tensor<1x1x64x300xbf16>) -> tensor<1x64x300xbf16>
    %689 = stablehlo.broadcast_in_dim %688, dims = [0, 1, 2] : (tensor<1x64x300xbf16>) -> tensor<1x64x300xbf16>
    %690 = stablehlo.dot_general %687, %689, batching_dims = [0] x [0], contracting_dims = [2] x [1] : (tensor<1x19200x64xbf16>, tensor<1x64x300xbf16>) -> tensor<1x19200x300xbf16>
    %691 = stablehlo.reshape %690 : (tensor<1x19200x300xbf16>) -> tensor<1x1x19200x300xbf16>
    %692 = stablehlo.broadcast_in_dim %691, dims = [0, 1, 2, 3] : (tensor<1x1x19200x300xbf16>) -> tensor<1x1x19200x300xbf16>
    %693 = stablehlo.divide %692, %186 : tensor<1x1x19200x300xbf16>
    %694 = stablehlo.convert %693 : (tensor<1x1x19200x300xbf16>) -> tensor<1x1x19200x300xf32>
    %695 = stablehlo.reduce(%694 init: %cst_1) applies stablehlo.maximum across dimensions = [3] : (tensor<1x1x19200x300xf32>, tensor<f32>) -> tensor<1x1x19200xf32>
    %696 = stablehlo.reshape %695 : (tensor<1x1x19200xf32>) -> tensor<1x1x19200x1xf32>
    %697 = stablehlo.broadcast_in_dim %694, dims = [0, 1, 2, 3] : (tensor<1x1x19200x300xf32>) -> tensor<1x1x19200x300xf32>
    %698 = stablehlo.broadcast_in_dim %696, dims = [0, 1, 2, 3] : (tensor<1x1x19200x1xf32>) -> tensor<1x1x19200x300xf32>
    %699 = stablehlo.subtract %697, %698 : tensor<1x1x19200x300xf32>
    %700 = stablehlo.exponential %699 : tensor<1x1x19200x300xf32>
    %701 = stablehlo.reduce(%700 init: %cst_0) applies stablehlo.add across dimensions = [3] : (tensor<1x1x19200x300xf32>, tensor<f32>) -> tensor<1x1x19200xf32>
    %702 = stablehlo.reshape %701 : (tensor<1x1x19200xf32>) -> tensor<1x1x19200x1xf32>
    %703 = stablehlo.broadcast_in_dim %700, dims = [0, 1, 2, 3] : (tensor<1x1x19200x300xf32>) -> tensor<1x1x19200x300xf32>
    %704 = stablehlo.broadcast_in_dim %702, dims = [0, 1, 2, 3] : (tensor<1x1x19200x1xf32>) -> tensor<1x1x19200x300xf32>
    %705 = stablehlo.divide %703, %704 : tensor<1x1x19200x300xf32>
    %706 = stablehlo.convert %705 : (tensor<1x1x19200x300xf32>) -> tensor<1x1x19200x300xbf16>
    %707 = stablehlo.reshape %706 : (tensor<1x1x19200x300xbf16>) -> tensor<1x19200x300xbf16>
    %708 = stablehlo.reshape %685 : (tensor<1x1x300x64xbf16>) -> tensor<1x300x64xbf16>
    %709 = stablehlo.broadcast_in_dim %708, dims = [0, 1, 2] : (tensor<1x300x64xbf16>) -> tensor<1x300x64xbf16>
    %710 = stablehlo.dot_general %707, %709, batching_dims = [0] x [0], contracting_dims = [2] x [1] : (tensor<1x19200x300xbf16>, tensor<1x300x64xbf16>) -> tensor<1x19200x64xbf16>
    %711 = stablehlo.reshape %710 : (tensor<1x19200x64xbf16>) -> tensor<1x1x19200x64xbf16>
    %712 = stablehlo.transpose %711, dims = [0, 2, 1, 3] : (tensor<1x1x19200x64xbf16>) -> tensor<1x19200x1x64xbf16>
    %713 = stablehlo.reshape %712 : (tensor<1x19200x1x64xbf16>) -> tensor<1x19200x64xbf16>
    %714 = stablehlo.reshape %713 : (tensor<1x19200x64xbf16>) -> tensor<19200x64xbf16>
    %715 = stablehlo.convert %714 : (tensor<19200x64xbf16>) -> tensor<19200x64xf32>
    %716 = stablehlo.dot_general %715, %arg520, contracting_dims = [1] x [0] : (tensor<19200x64xf32>, tensor<64x64xf32>) -> tensor<19200x64xf32>
    %717 = stablehlo.broadcast_in_dim %716, dims = [0, 1] : (tensor<19200x64xf32>) -> tensor<19200x64xf32>
    %718 = stablehlo.multiply %717, %96 : tensor<19200x64xf32>
    %719 = stablehlo.broadcast_in_dim %718, dims = [0, 1] : (tensor<19200x64xf32>) -> tensor<19200x64xf32>
    %720 = stablehlo.broadcast_in_dim %arg521, dims = [1] : (tensor<64xf32>) -> tensor<19200x64xf32>
    %721 = stablehlo.add %719, %720 : tensor<19200x64xf32>
    %722 = stablehlo.convert %721 : (tensor<19200x64xf32>) -> tensor<19200x64xbf16>
    %723 = stablehlo.reshape %722 : (tensor<19200x64xbf16>) -> tensor<1x19200x64xbf16>
    %724 = stablehlo.add %723, %568 : tensor<1x19200x64xbf16>
    %725 = stablehlo.convert %724 : (tensor<1x19200x64xbf16>) -> tensor<1x19200x64xf32>
    %726 = stablehlo.convert %725 : (tensor<1x19200x64xf32>) -> tensor<1x19200x64xf64>
    %727 = stablehlo.reduce(%726 init: %cst) applies stablehlo.add across dimensions = [2] : (tensor<1x19200x64xf64>, tensor<f64>) -> tensor<1x19200xf64>
    %728 = stablehlo.reshape %727 : (tensor<1x19200xf64>) -> tensor<1x19200x1xf64>
    %729 = stablehlo.broadcast_in_dim %728, dims = [0, 1, 2] : (tensor<1x19200x1xf64>) -> tensor<1x19200x1xf64>
    %730 = stablehlo.divide %729, %14 : tensor<1x19200x1xf64>
    %731 = stablehlo.broadcast_in_dim %726, dims = [0, 1, 2] : (tensor<1x19200x64xf64>) -> tensor<1x19200x64xf64>
    %732 = stablehlo.broadcast_in_dim %730, dims = [0, 1, 2] : (tensor<1x19200x1xf64>) -> tensor<1x19200x64xf64>
    %733 = stablehlo.subtract %731, %732 : tensor<1x19200x64xf64>
    %734 = stablehlo.multiply %733, %733 : tensor<1x19200x64xf64>
    %735 = stablehlo.reduce(%734 init: %cst) applies stablehlo.add across dimensions = [2] : (tensor<1x19200x64xf64>, tensor<f64>) -> tensor<1x19200xf64>
    %736 = stablehlo.reshape %735 : (tensor<1x19200xf64>) -> tensor<1x19200x1xf64>
    %737 = stablehlo.broadcast_in_dim %736, dims = [0, 1, 2] : (tensor<1x19200x1xf64>) -> tensor<1x19200x1xf64>
    %738 = stablehlo.divide %737, %14 : tensor<1x19200x1xf64>
    %739 = stablehlo.convert %738 : (tensor<1x19200x1xf64>) -> tensor<1x19200x1xf32>
    %740 = stablehlo.reduce(%725 init: %cst_0) applies stablehlo.add across dimensions = [2] : (tensor<1x19200x64xf32>, tensor<f32>) -> tensor<1x19200xf32>
    %741 = stablehlo.reshape %740 : (tensor<1x19200xf32>) -> tensor<1x19200x1xf32>
    %742 = stablehlo.broadcast_in_dim %741, dims = [0, 1, 2] : (tensor<1x19200x1xf32>) -> tensor<1x19200x1xf32>
    %743 = stablehlo.divide %742, %30 : tensor<1x19200x1xf32>
    %744 = stablehlo.broadcast_in_dim %739, dims = [0, 1, 2] : (tensor<1x19200x1xf32>) -> tensor<1x19200x1xf32>
    %745 = stablehlo.add %744, %35 : tensor<1x19200x1xf32>
    %746 = stablehlo.rsqrt %745 : tensor<1x19200x1xf32>
    %747 = stablehlo.broadcast_in_dim %725, dims = [0, 1, 2] : (tensor<1x19200x64xf32>) -> tensor<1x19200x64xf32>
    %748 = stablehlo.broadcast_in_dim %743, dims = [0, 1, 2] : (tensor<1x19200x1xf32>) -> tensor<1x19200x64xf32>
    %749 = stablehlo.subtract %747, %748 : tensor<1x19200x64xf32>
    %750 = stablehlo.broadcast_in_dim %749, dims = [0, 1, 2] : (tensor<1x19200x64xf32>) -> tensor<1x19200x64xf32>
    %751 = stablehlo.broadcast_in_dim %746, dims = [0, 1, 2] : (tensor<1x19200x1xf32>) -> tensor<1x19200x64xf32>
    %752 = stablehlo.multiply %750, %751 : tensor<1x19200x64xf32>
    %753 = stablehlo.convert %arg33 : (tensor<64xbf16>) -> tensor<64xf32>
    %754 = stablehlo.broadcast_in_dim %752, dims = [0, 1, 2] : (tensor<1x19200x64xf32>) -> tensor<1x19200x64xf32>
    %755 = stablehlo.broadcast_in_dim %753, dims = [2] : (tensor<64xf32>) -> tensor<1x19200x64xf32>
    %756 = stablehlo.multiply %754, %755 : tensor<1x19200x64xf32>
    %757 = stablehlo.convert %arg34 : (tensor<64xbf16>) -> tensor<64xf32>
    %758 = stablehlo.broadcast_in_dim %756, dims = [0, 1, 2] : (tensor<1x19200x64xf32>) -> tensor<1x19200x64xf32>
    %759 = stablehlo.broadcast_in_dim %757, dims = [2] : (tensor<64xf32>) -> tensor<1x19200x64xf32>
    %760 = stablehlo.add %758, %759 : tensor<1x19200x64xf32>
    %761 = stablehlo.convert %760 : (tensor<1x19200x64xf32>) -> tensor<1x19200x64xbf16>
    %762 = stablehlo.reshape %761 : (tensor<1x19200x64xbf16>) -> tensor<19200x64xbf16>
    %763 = stablehlo.convert %762 : (tensor<19200x64xbf16>) -> tensor<19200x64xf32>
    %764 = stablehlo.dot_general %763, %arg522, contracting_dims = [1] x [0] : (tensor<19200x64xf32>, tensor<64x256xf32>) -> tensor<19200x256xf32>
    %765 = stablehlo.broadcast_in_dim %764, dims = [0, 1] : (tensor<19200x256xf32>) -> tensor<19200x256xf32>
    %766 = stablehlo.multiply %765, %260 : tensor<19200x256xf32>
    %767 = stablehlo.broadcast_in_dim %766, dims = [0, 1] : (tensor<19200x256xf32>) -> tensor<19200x256xf32>
    %768 = stablehlo.broadcast_in_dim %arg523, dims = [1] : (tensor<256xf32>) -> tensor<19200x256xf32>
    %769 = stablehlo.add %767, %768 : tensor<19200x256xf32>
    %770 = stablehlo.convert %769 : (tensor<19200x256xf32>) -> tensor<19200x256xbf16>
    %771 = stablehlo.reshape %770 : (tensor<19200x256xbf16>) -> tensor<1x19200x256xbf16>
    %772 = stablehlo.transpose %771, dims = [0, 2, 1] : (tensor<1x19200x256xbf16>) -> tensor<1x256x19200xbf16>
    %773 = stablehlo.reshape %772 : (tensor<1x256x19200xbf16>) -> tensor<1x256x120x160xbf16>
    %774 = stablehlo.convolution(%773, %arg35) dim_numbers = [b, f, 0, 1]x[o, i, 0, 1]->[b, f, 0, 1], window = {stride = [1, 1], pad = [[1, 1], [1, 1]], rhs_dilate = [1, 1]} {batch_group_count = 1 : i64, feature_group_count = 256 : i64} : (tensor<1x256x120x160xbf16>, tensor<256x1x3x3xbf16>) -> tensor<1x256x120x160xbf16>
    %775 = stablehlo.reshape %arg36 : (tensor<256xbf16>) -> tensor<256x1x1xbf16>
    %776 = stablehlo.broadcast_in_dim %774, dims = [0, 1, 2, 3] : (tensor<1x256x120x160xbf16>) -> tensor<1x256x120x160xbf16>
    %777 = stablehlo.broadcast_in_dim %775, dims = [1, 2, 3] : (tensor<256x1x1xbf16>) -> tensor<1x256x120x160xbf16>
    %778 = stablehlo.add %776, %777 : tensor<1x256x120x160xbf16>
    %779 = stablehlo.reshape %778 : (tensor<1x256x120x160xbf16>) -> tensor<1x256x19200xbf16>
    %780 = stablehlo.transpose %779, dims = [0, 2, 1] : (tensor<1x256x19200xbf16>) -> tensor<1x19200x256xbf16>
    %781 = stablehlo.multiply %780, %cst_4 : tensor<1x19200x256xbf16>
    %782 = stablehlo.multiply %780, %277 : tensor<1x19200x256xbf16>
    %783 = stablehlo.convert %782 : (tensor<1x19200x256xbf16>) -> tensor<1x19200x256xf32>
    %784 = stablehlo.clamp %cst_5, %783, %cst_6 : tensor<1x19200x256xf32>
    %785 = stablehlo.multiply %784, %784 : tensor<1x19200x256xf32>
    %786 = stablehlo.multiply %cst_7, %785 : tensor<1x19200x256xf32>
    %787 = stablehlo.add %786, %cst_8 : tensor<1x19200x256xf32>
    %788 = stablehlo.multiply %787, %785 : tensor<1x19200x256xf32>
    %789 = stablehlo.add %788, %cst_9 : tensor<1x19200x256xf32>
    %790 = stablehlo.multiply %789, %785 : tensor<1x19200x256xf32>
    %791 = stablehlo.add %790, %cst_10 : tensor<1x19200x256xf32>
    %792 = stablehlo.multiply %791, %785 : tensor<1x19200x256xf32>
    %793 = stablehlo.add %792, %cst_11 : tensor<1x19200x256xf32>
    %794 = stablehlo.multiply %793, %785 : tensor<1x19200x256xf32>
    %795 = stablehlo.add %794, %cst_12 : tensor<1x19200x256xf32>
    %796 = stablehlo.multiply %795, %785 : tensor<1x19200x256xf32>
    %797 = stablehlo.add %796, %cst_13 : tensor<1x19200x256xf32>
    %798 = stablehlo.multiply %cst_14, %785 : tensor<1x19200x256xf32>
    %799 = stablehlo.add %798, %cst_15 : tensor<1x19200x256xf32>
    %800 = stablehlo.multiply %799, %785 : tensor<1x19200x256xf32>
    %801 = stablehlo.add %800, %cst_16 : tensor<1x19200x256xf32>
    %802 = stablehlo.multiply %801, %785 : tensor<1x19200x256xf32>
    %803 = stablehlo.add %802, %cst_17 : tensor<1x19200x256xf32>
    %804 = stablehlo.multiply %803, %785 : tensor<1x19200x256xf32>
    %805 = stablehlo.add %804, %cst_18 : tensor<1x19200x256xf32>
    %806 = stablehlo.multiply %784, %797 : tensor<1x19200x256xf32>
    %807 = stablehlo.divide %806, %805 : tensor<1x19200x256xf32>
    %808 = stablehlo.clamp %cst_19, %807, %cst_20 : tensor<1x19200x256xf32>
    %809 = stablehlo.convert %808 : (tensor<1x19200x256xf32>) -> tensor<1x19200x256xbf16>
    %810 = stablehlo.add %809, %cst_2 : tensor<1x19200x256xbf16>
    %811 = stablehlo.multiply %810, %781 : tensor<1x19200x256xbf16>
    %812 = stablehlo.reshape %811 : (tensor<1x19200x256xbf16>) -> tensor<19200x256xbf16>
    %813 = stablehlo.dot_general %812, %arg524, contracting_dims = [1] x [0] : (tensor<19200x256xbf16>, tensor<256x64xbf16>) -> tensor<19200x64xbf16>
    %814 = stablehlo.reshape %813 : (tensor<19200x64xbf16>) -> tensor<1x19200x64xbf16>
    %815 = stablehlo.broadcast_in_dim %814, dims = [0, 1, 2] : (tensor<1x19200x64xbf16>) -> tensor<1x19200x64xbf16>
    %816 = stablehlo.broadcast_in_dim %arg37, dims = [2] : (tensor<64xbf16>) -> tensor<1x19200x64xbf16>
    %817 = stablehlo.add %815, %816 : tensor<1x19200x64xbf16>
    %818 = stablehlo.reshape %817 : (tensor<1x19200x64xbf16>) -> tensor<19200x64xbf16>
    %819 = stablehlo.reshape %818 : (tensor<19200x64xbf16>) -> tensor<1x19200x64xbf16>
    %820 = stablehlo.add %819, %724 : tensor<1x19200x64xbf16>
    %821 = stablehlo.convert %820 : (tensor<1x19200x64xbf16>) -> tensor<1x19200x64xf32>
    %822 = stablehlo.convert %821 : (tensor<1x19200x64xf32>) -> tensor<1x19200x64xf64>
    %823 = stablehlo.reduce(%822 init: %cst) applies stablehlo.add across dimensions = [2] : (tensor<1x19200x64xf64>, tensor<f64>) -> tensor<1x19200xf64>
    %824 = stablehlo.reshape %823 : (tensor<1x19200xf64>) -> tensor<1x19200x1xf64>
    %825 = stablehlo.broadcast_in_dim %824, dims = [0, 1, 2] : (tensor<1x19200x1xf64>) -> tensor<1x19200x1xf64>
    %826 = stablehlo.divide %825, %14 : tensor<1x19200x1xf64>
    %827 = stablehlo.broadcast_in_dim %822, dims = [0, 1, 2] : (tensor<1x19200x64xf64>) -> tensor<1x19200x64xf64>
    %828 = stablehlo.broadcast_in_dim %826, dims = [0, 1, 2] : (tensor<1x19200x1xf64>) -> tensor<1x19200x64xf64>
    %829 = stablehlo.subtract %827, %828 : tensor<1x19200x64xf64>
    %830 = stablehlo.multiply %829, %829 : tensor<1x19200x64xf64>
    %831 = stablehlo.reduce(%830 init: %cst) applies stablehlo.add across dimensions = [2] : (tensor<1x19200x64xf64>, tensor<f64>) -> tensor<1x19200xf64>
    %832 = stablehlo.reshape %831 : (tensor<1x19200xf64>) -> tensor<1x19200x1xf64>
    %833 = stablehlo.broadcast_in_dim %832, dims = [0, 1, 2] : (tensor<1x19200x1xf64>) -> tensor<1x19200x1xf64>
    %834 = stablehlo.divide %833, %14 : tensor<1x19200x1xf64>
    %835 = stablehlo.convert %834 : (tensor<1x19200x1xf64>) -> tensor<1x19200x1xf32>
    %836 = stablehlo.reduce(%821 init: %cst_0) applies stablehlo.add across dimensions = [2] : (tensor<1x19200x64xf32>, tensor<f32>) -> tensor<1x19200xf32>
    %837 = stablehlo.reshape %836 : (tensor<1x19200xf32>) -> tensor<1x19200x1xf32>
    %838 = stablehlo.broadcast_in_dim %837, dims = [0, 1, 2] : (tensor<1x19200x1xf32>) -> tensor<1x19200x1xf32>
    %839 = stablehlo.divide %838, %30 : tensor<1x19200x1xf32>
    %840 = stablehlo.broadcast_in_dim %835, dims = [0, 1, 2] : (tensor<1x19200x1xf32>) -> tensor<1x19200x1xf32>
    %841 = stablehlo.add %840, %35 : tensor<1x19200x1xf32>
    %842 = stablehlo.rsqrt %841 : tensor<1x19200x1xf32>
    %843 = stablehlo.broadcast_in_dim %821, dims = [0, 1, 2] : (tensor<1x19200x64xf32>) -> tensor<1x19200x64xf32>
    %844 = stablehlo.broadcast_in_dim %839, dims = [0, 1, 2] : (tensor<1x19200x1xf32>) -> tensor<1x19200x64xf32>
    %845 = stablehlo.subtract %843, %844 : tensor<1x19200x64xf32>
    %846 = stablehlo.broadcast_in_dim %845, dims = [0, 1, 2] : (tensor<1x19200x64xf32>) -> tensor<1x19200x64xf32>
    %847 = stablehlo.broadcast_in_dim %842, dims = [0, 1, 2] : (tensor<1x19200x1xf32>) -> tensor<1x19200x64xf32>
    %848 = stablehlo.multiply %846, %847 : tensor<1x19200x64xf32>
    %849 = stablehlo.convert %arg38 : (tensor<64xbf16>) -> tensor<64xf32>
    %850 = stablehlo.broadcast_in_dim %848, dims = [0, 1, 2] : (tensor<1x19200x64xf32>) -> tensor<1x19200x64xf32>
    %851 = stablehlo.broadcast_in_dim %849, dims = [2] : (tensor<64xf32>) -> tensor<1x19200x64xf32>
    %852 = stablehlo.multiply %850, %851 : tensor<1x19200x64xf32>
    %853 = stablehlo.convert %arg39 : (tensor<64xbf16>) -> tensor<64xf32>
    %854 = stablehlo.broadcast_in_dim %852, dims = [0, 1, 2] : (tensor<1x19200x64xf32>) -> tensor<1x19200x64xf32>
    %855 = stablehlo.broadcast_in_dim %853, dims = [2] : (tensor<64xf32>) -> tensor<1x19200x64xf32>
    %856 = stablehlo.add %854, %855 : tensor<1x19200x64xf32>
    %857 = stablehlo.convert %856 : (tensor<1x19200x64xf32>) -> tensor<1x19200x64xbf16>
    %858 = stablehlo.reshape %857 : (tensor<1x19200x64xbf16>) -> tensor<1x120x160x64xbf16>
    %859 = stablehlo.transpose %858, dims = [0, 3, 1, 2] : (tensor<1x120x160x64xbf16>) -> tensor<1x64x120x160xbf16>
    %860 = stablehlo.convolution(%859, %arg40) dim_numbers = [b, f, 0, 1]x[o, i, 0, 1]->[b, f, 0, 1], window = {stride = [2, 2], pad = [[1, 1], [1, 1]], rhs_dilate = [1, 1]} {batch_group_count = 1 : i64, feature_group_count = 1 : i64} : (tensor<1x64x120x160xbf16>, tensor<128x64x3x3xbf16>) -> tensor<1x128x60x80xbf16>
    %861 = stablehlo.reshape %arg41 : (tensor<128xbf16>) -> tensor<128x1x1xbf16>
    %862 = stablehlo.broadcast_in_dim %860, dims = [0, 1, 2, 3] : (tensor<1x128x60x80xbf16>) -> tensor<1x128x60x80xbf16>
    %863 = stablehlo.broadcast_in_dim %861, dims = [1, 2, 3] : (tensor<128x1x1xbf16>) -> tensor<1x128x60x80xbf16>
    %864 = stablehlo.add %862, %863 : tensor<1x128x60x80xbf16>
    %865 = stablehlo.reshape %864 : (tensor<1x128x60x80xbf16>) -> tensor<1x128x4800xbf16>
    %866 = stablehlo.transpose %865, dims = [0, 2, 1] : (tensor<1x128x4800xbf16>) -> tensor<1x4800x128xbf16>
    %867 = stablehlo.convert %866 : (tensor<1x4800x128xbf16>) -> tensor<1x4800x128xf32>
    %868 = stablehlo.convert %867 : (tensor<1x4800x128xf32>) -> tensor<1x4800x128xf64>
    %869 = stablehlo.reduce(%868 init: %cst) applies stablehlo.add across dimensions = [2] : (tensor<1x4800x128xf64>, tensor<f64>) -> tensor<1x4800xf64>
    %870 = stablehlo.reshape %869 : (tensor<1x4800xf64>) -> tensor<1x4800x1xf64>
    %871 = stablehlo.convert %cst_89 : (tensor<1xi64>) -> tensor<1xf64>
    %872 = stablehlo.reshape %871 : (tensor<1xf64>) -> tensor<f64>
    %873 = stablehlo.broadcast_in_dim %870, dims = [0, 1, 2] : (tensor<1x4800x1xf64>) -> tensor<1x4800x1xf64>
    %874 = stablehlo.broadcast_in_dim %872, dims = [] : (tensor<f64>) -> tensor<1x4800x1xf64>
    %875 = stablehlo.divide %873, %874 : tensor<1x4800x1xf64>
    %876 = stablehlo.broadcast_in_dim %868, dims = [0, 1, 2] : (tensor<1x4800x128xf64>) -> tensor<1x4800x128xf64>
    %877 = stablehlo.broadcast_in_dim %875, dims = [0, 1, 2] : (tensor<1x4800x1xf64>) -> tensor<1x4800x128xf64>
    %878 = stablehlo.subtract %876, %877 : tensor<1x4800x128xf64>
    %879 = stablehlo.multiply %878, %878 : tensor<1x4800x128xf64>
    %880 = stablehlo.reduce(%879 init: %cst) applies stablehlo.add across dimensions = [2] : (tensor<1x4800x128xf64>, tensor<f64>) -> tensor<1x4800xf64>
    %881 = stablehlo.reshape %880 : (tensor<1x4800xf64>) -> tensor<1x4800x1xf64>
    %882 = stablehlo.broadcast_in_dim %881, dims = [0, 1, 2] : (tensor<1x4800x1xf64>) -> tensor<1x4800x1xf64>
    %883 = stablehlo.divide %882, %874 : tensor<1x4800x1xf64>
    %884 = stablehlo.convert %883 : (tensor<1x4800x1xf64>) -> tensor<1x4800x1xf32>
    %885 = stablehlo.reduce(%867 init: %cst_0) applies stablehlo.add across dimensions = [2] : (tensor<1x4800x128xf32>, tensor<f32>) -> tensor<1x4800xf32>
    %886 = stablehlo.reshape %885 : (tensor<1x4800xf32>) -> tensor<1x4800x1xf32>
    %887 = stablehlo.convert %cst_89 : (tensor<1xi64>) -> tensor<1xf32>
    %888 = stablehlo.reshape %887 : (tensor<1xf32>) -> tensor<f32>
    %889 = stablehlo.broadcast_in_dim %886, dims = [0, 1, 2] : (tensor<1x4800x1xf32>) -> tensor<1x4800x1xf32>
    %890 = stablehlo.broadcast_in_dim %888, dims = [] : (tensor<f32>) -> tensor<1x4800x1xf32>
    %891 = stablehlo.divide %889, %890 : tensor<1x4800x1xf32>
    %892 = stablehlo.broadcast_in_dim %884, dims = [0, 1, 2] : (tensor<1x4800x1xf32>) -> tensor<1x4800x1xf32>
    %893 = stablehlo.broadcast_in_dim %33, dims = [] : (tensor<f32>) -> tensor<1x4800x1xf32>
    %894 = stablehlo.add %892, %893 : tensor<1x4800x1xf32>
    %895 = stablehlo.rsqrt %894 : tensor<1x4800x1xf32>
    %896 = stablehlo.broadcast_in_dim %867, dims = [0, 1, 2] : (tensor<1x4800x128xf32>) -> tensor<1x4800x128xf32>
    %897 = stablehlo.broadcast_in_dim %891, dims = [0, 1, 2] : (tensor<1x4800x1xf32>) -> tensor<1x4800x128xf32>
    %898 = stablehlo.subtract %896, %897 : tensor<1x4800x128xf32>
    %899 = stablehlo.broadcast_in_dim %898, dims = [0, 1, 2] : (tensor<1x4800x128xf32>) -> tensor<1x4800x128xf32>
    %900 = stablehlo.broadcast_in_dim %895, dims = [0, 1, 2] : (tensor<1x4800x1xf32>) -> tensor<1x4800x128xf32>
    %901 = stablehlo.multiply %899, %900 : tensor<1x4800x128xf32>
    %902 = stablehlo.convert %arg42 : (tensor<128xbf16>) -> tensor<128xf32>
    %903 = stablehlo.broadcast_in_dim %901, dims = [0, 1, 2] : (tensor<1x4800x128xf32>) -> tensor<1x4800x128xf32>
    %904 = stablehlo.broadcast_in_dim %902, dims = [2] : (tensor<128xf32>) -> tensor<1x4800x128xf32>
    %905 = stablehlo.multiply %903, %904 : tensor<1x4800x128xf32>
    %906 = stablehlo.convert %arg43 : (tensor<128xbf16>) -> tensor<128xf32>
    %907 = stablehlo.broadcast_in_dim %905, dims = [0, 1, 2] : (tensor<1x4800x128xf32>) -> tensor<1x4800x128xf32>
    %908 = stablehlo.broadcast_in_dim %906, dims = [2] : (tensor<128xf32>) -> tensor<1x4800x128xf32>
    %909 = stablehlo.add %907, %908 : tensor<1x4800x128xf32>
    %910 = stablehlo.convert %909 : (tensor<1x4800x128xf32>) -> tensor<1x4800x128xbf16>
    %911 = stablehlo.convert %910 : (tensor<1x4800x128xbf16>) -> tensor<1x4800x128xf32>
    %912 = stablehlo.convert %911 : (tensor<1x4800x128xf32>) -> tensor<1x4800x128xf64>
    %913 = stablehlo.reduce(%912 init: %cst) applies stablehlo.add across dimensions = [2] : (tensor<1x4800x128xf64>, tensor<f64>) -> tensor<1x4800xf64>
    %914 = stablehlo.reshape %913 : (tensor<1x4800xf64>) -> tensor<1x4800x1xf64>
    %915 = stablehlo.broadcast_in_dim %914, dims = [0, 1, 2] : (tensor<1x4800x1xf64>) -> tensor<1x4800x1xf64>
    %916 = stablehlo.divide %915, %874 : tensor<1x4800x1xf64>
    %917 = stablehlo.broadcast_in_dim %912, dims = [0, 1, 2] : (tensor<1x4800x128xf64>) -> tensor<1x4800x128xf64>
    %918 = stablehlo.broadcast_in_dim %916, dims = [0, 1, 2] : (tensor<1x4800x1xf64>) -> tensor<1x4800x128xf64>
    %919 = stablehlo.subtract %917, %918 : tensor<1x4800x128xf64>
    %920 = stablehlo.multiply %919, %919 : tensor<1x4800x128xf64>
    %921 = stablehlo.reduce(%920 init: %cst) applies stablehlo.add across dimensions = [2] : (tensor<1x4800x128xf64>, tensor<f64>) -> tensor<1x4800xf64>
    %922 = stablehlo.reshape %921 : (tensor<1x4800xf64>) -> tensor<1x4800x1xf64>
    %923 = stablehlo.broadcast_in_dim %922, dims = [0, 1, 2] : (tensor<1x4800x1xf64>) -> tensor<1x4800x1xf64>
    %924 = stablehlo.divide %923, %874 : tensor<1x4800x1xf64>
    %925 = stablehlo.convert %924 : (tensor<1x4800x1xf64>) -> tensor<1x4800x1xf32>
    %926 = stablehlo.reduce(%911 init: %cst_0) applies stablehlo.add across dimensions = [2] : (tensor<1x4800x128xf32>, tensor<f32>) -> tensor<1x4800xf32>
    %927 = stablehlo.reshape %926 : (tensor<1x4800xf32>) -> tensor<1x4800x1xf32>
    %928 = stablehlo.broadcast_in_dim %927, dims = [0, 1, 2] : (tensor<1x4800x1xf32>) -> tensor<1x4800x1xf32>
    %929 = stablehlo.divide %928, %890 : tensor<1x4800x1xf32>
    %930 = stablehlo.broadcast_in_dim %925, dims = [0, 1, 2] : (tensor<1x4800x1xf32>) -> tensor<1x4800x1xf32>
    %931 = stablehlo.add %930, %893 : tensor<1x4800x1xf32>
    %932 = stablehlo.rsqrt %931 : tensor<1x4800x1xf32>
    %933 = stablehlo.broadcast_in_dim %911, dims = [0, 1, 2] : (tensor<1x4800x128xf32>) -> tensor<1x4800x128xf32>
    %934 = stablehlo.broadcast_in_dim %929, dims = [0, 1, 2] : (tensor<1x4800x1xf32>) -> tensor<1x4800x128xf32>
    %935 = stablehlo.subtract %933, %934 : tensor<1x4800x128xf32>
    %936 = stablehlo.broadcast_in_dim %935, dims = [0, 1, 2] : (tensor<1x4800x128xf32>) -> tensor<1x4800x128xf32>
    %937 = stablehlo.broadcast_in_dim %932, dims = [0, 1, 2] : (tensor<1x4800x1xf32>) -> tensor<1x4800x128xf32>
    %938 = stablehlo.multiply %936, %937 : tensor<1x4800x128xf32>
    %939 = stablehlo.convert %arg44 : (tensor<128xbf16>) -> tensor<128xf32>
    %940 = stablehlo.broadcast_in_dim %938, dims = [0, 1, 2] : (tensor<1x4800x128xf32>) -> tensor<1x4800x128xf32>
    %941 = stablehlo.broadcast_in_dim %939, dims = [2] : (tensor<128xf32>) -> tensor<1x4800x128xf32>
    %942 = stablehlo.multiply %940, %941 : tensor<1x4800x128xf32>
    %943 = stablehlo.convert %arg45 : (tensor<128xbf16>) -> tensor<128xf32>
    %944 = stablehlo.broadcast_in_dim %942, dims = [0, 1, 2] : (tensor<1x4800x128xf32>) -> tensor<1x4800x128xf32>
    %945 = stablehlo.broadcast_in_dim %943, dims = [2] : (tensor<128xf32>) -> tensor<1x4800x128xf32>
    %946 = stablehlo.add %944, %945 : tensor<1x4800x128xf32>
    %947 = stablehlo.convert %946 : (tensor<1x4800x128xf32>) -> tensor<1x4800x128xbf16>
    %948 = stablehlo.reshape %947 : (tensor<1x4800x128xbf16>) -> tensor<4800x128xbf16>
    %949 = stablehlo.convert %948 : (tensor<4800x128xbf16>) -> tensor<4800x128xf32>
    %950 = stablehlo.dot_general %949, %arg525, contracting_dims = [1] x [0] : (tensor<4800x128xf32>, tensor<128x128xf32>) -> tensor<4800x128xf32>
    %951 = stablehlo.broadcast_in_dim %950, dims = [0, 1] : (tensor<4800x128xf32>) -> tensor<4800x128xf32>
    %952 = stablehlo.broadcast_in_dim %94, dims = [] : (tensor<f32>) -> tensor<4800x128xf32>
    %953 = stablehlo.multiply %951, %952 : tensor<4800x128xf32>
    %954 = stablehlo.broadcast_in_dim %953, dims = [0, 1] : (tensor<4800x128xf32>) -> tensor<4800x128xf32>
    %955 = stablehlo.broadcast_in_dim %arg526, dims = [1] : (tensor<128xf32>) -> tensor<4800x128xf32>
    %956 = stablehlo.add %954, %955 : tensor<4800x128xf32>
    %957 = stablehlo.convert %956 : (tensor<4800x128xf32>) -> tensor<4800x128xbf16>
    %958 = stablehlo.reshape %957 : (tensor<4800x128xbf16>) -> tensor<1x4800x128xbf16>
    %959 = stablehlo.reshape %958 : (tensor<1x4800x128xbf16>) -> tensor<1x4800x2x64xbf16>
    %960 = stablehlo.transpose %959, dims = [0, 2, 1, 3] : (tensor<1x4800x2x64xbf16>) -> tensor<1x2x4800x64xbf16>
    %961 = stablehlo.transpose %947, dims = [0, 2, 1] : (tensor<1x4800x128xbf16>) -> tensor<1x128x4800xbf16>
    %962 = stablehlo.reshape %961 : (tensor<1x128x4800xbf16>) -> tensor<1x128x60x80xbf16>
    %963 = stablehlo.convolution(%962, %arg46) dim_numbers = [b, f, 0, 1]x[o, i, 0, 1]->[b, f, 0, 1], window = {stride = [4, 4], pad = [[0, 0], [0, 0]], rhs_dilate = [1, 1]} {batch_group_count = 1 : i64, feature_group_count = 1 : i64} : (tensor<1x128x60x80xbf16>, tensor<128x128x4x4xbf16>) -> tensor<1x128x15x20xbf16>
    %964 = stablehlo.reshape %arg47 : (tensor<128xbf16>) -> tensor<128x1x1xbf16>
    %965 = stablehlo.broadcast_in_dim %963, dims = [0, 1, 2, 3] : (tensor<1x128x15x20xbf16>) -> tensor<1x128x15x20xbf16>
    %966 = stablehlo.broadcast_in_dim %964, dims = [1, 2, 3] : (tensor<128x1x1xbf16>) -> tensor<1x128x15x20xbf16>
    %967 = stablehlo.add %965, %966 : tensor<1x128x15x20xbf16>
    %968 = stablehlo.reshape %967 : (tensor<1x128x15x20xbf16>) -> tensor<1x128x300xbf16>
    %969 = stablehlo.transpose %968, dims = [0, 2, 1] : (tensor<1x128x300xbf16>) -> tensor<1x300x128xbf16>
    %970 = stablehlo.convert %969 : (tensor<1x300x128xbf16>) -> tensor<1x300x128xf32>
    %971 = stablehlo.convert %970 : (tensor<1x300x128xf32>) -> tensor<1x300x128xf64>
    %972 = stablehlo.reduce(%971 init: %cst) applies stablehlo.add across dimensions = [2] : (tensor<1x300x128xf64>, tensor<f64>) -> tensor<1x300xf64>
    %973 = stablehlo.reshape %972 : (tensor<1x300xf64>) -> tensor<1x300x1xf64>
    %974 = stablehlo.broadcast_in_dim %973, dims = [0, 1, 2] : (tensor<1x300x1xf64>) -> tensor<1x300x1xf64>
    %975 = stablehlo.broadcast_in_dim %872, dims = [] : (tensor<f64>) -> tensor<1x300x1xf64>
    %976 = stablehlo.divide %974, %975 : tensor<1x300x1xf64>
    %977 = stablehlo.broadcast_in_dim %971, dims = [0, 1, 2] : (tensor<1x300x128xf64>) -> tensor<1x300x128xf64>
    %978 = stablehlo.broadcast_in_dim %976, dims = [0, 1, 2] : (tensor<1x300x1xf64>) -> tensor<1x300x128xf64>
    %979 = stablehlo.subtract %977, %978 : tensor<1x300x128xf64>
    %980 = stablehlo.multiply %979, %979 : tensor<1x300x128xf64>
    %981 = stablehlo.reduce(%980 init: %cst) applies stablehlo.add across dimensions = [2] : (tensor<1x300x128xf64>, tensor<f64>) -> tensor<1x300xf64>
    %982 = stablehlo.reshape %981 : (tensor<1x300xf64>) -> tensor<1x300x1xf64>
    %983 = stablehlo.broadcast_in_dim %982, dims = [0, 1, 2] : (tensor<1x300x1xf64>) -> tensor<1x300x1xf64>
    %984 = stablehlo.divide %983, %975 : tensor<1x300x1xf64>
    %985 = stablehlo.convert %984 : (tensor<1x300x1xf64>) -> tensor<1x300x1xf32>
    %986 = stablehlo.reduce(%970 init: %cst_0) applies stablehlo.add across dimensions = [2] : (tensor<1x300x128xf32>, tensor<f32>) -> tensor<1x300xf32>
    %987 = stablehlo.reshape %986 : (tensor<1x300xf32>) -> tensor<1x300x1xf32>
    %988 = stablehlo.broadcast_in_dim %987, dims = [0, 1, 2] : (tensor<1x300x1xf32>) -> tensor<1x300x1xf32>
    %989 = stablehlo.broadcast_in_dim %888, dims = [] : (tensor<f32>) -> tensor<1x300x1xf32>
    %990 = stablehlo.divide %988, %989 : tensor<1x300x1xf32>
    %991 = stablehlo.broadcast_in_dim %985, dims = [0, 1, 2] : (tensor<1x300x1xf32>) -> tensor<1x300x1xf32>
    %992 = stablehlo.add %991, %136 : tensor<1x300x1xf32>
    %993 = stablehlo.rsqrt %992 : tensor<1x300x1xf32>
    %994 = stablehlo.broadcast_in_dim %970, dims = [0, 1, 2] : (tensor<1x300x128xf32>) -> tensor<1x300x128xf32>
    %995 = stablehlo.broadcast_in_dim %990, dims = [0, 1, 2] : (tensor<1x300x1xf32>) -> tensor<1x300x128xf32>
    %996 = stablehlo.subtract %994, %995 : tensor<1x300x128xf32>
    %997 = stablehlo.broadcast_in_dim %996, dims = [0, 1, 2] : (tensor<1x300x128xf32>) -> tensor<1x300x128xf32>
    %998 = stablehlo.broadcast_in_dim %993, dims = [0, 1, 2] : (tensor<1x300x1xf32>) -> tensor<1x300x128xf32>
    %999 = stablehlo.multiply %997, %998 : tensor<1x300x128xf32>
    %1000 = stablehlo.convert %arg48 : (tensor<128xbf16>) -> tensor<128xf32>
    %1001 = stablehlo.broadcast_in_dim %999, dims = [0, 1, 2] : (tensor<1x300x128xf32>) -> tensor<1x300x128xf32>
    %1002 = stablehlo.broadcast_in_dim %1000, dims = [2] : (tensor<128xf32>) -> tensor<1x300x128xf32>
    %1003 = stablehlo.multiply %1001, %1002 : tensor<1x300x128xf32>
    %1004 = stablehlo.convert %arg49 : (tensor<128xbf16>) -> tensor<128xf32>
    %1005 = stablehlo.broadcast_in_dim %1003, dims = [0, 1, 2] : (tensor<1x300x128xf32>) -> tensor<1x300x128xf32>
    %1006 = stablehlo.broadcast_in_dim %1004, dims = [2] : (tensor<128xf32>) -> tensor<1x300x128xf32>
    %1007 = stablehlo.add %1005, %1006 : tensor<1x300x128xf32>
    %1008 = stablehlo.convert %1007 : (tensor<1x300x128xf32>) -> tensor<1x300x128xbf16>
    %1009 = stablehlo.reshape %1008 : (tensor<1x300x128xbf16>) -> tensor<300x128xbf16>
    %1010 = stablehlo.convert %1009 : (tensor<300x128xbf16>) -> tensor<300x128xf32>
    %1011 = stablehlo.dot_general %1010, %arg527, contracting_dims = [1] x [0] : (tensor<300x128xf32>, tensor<128x128xf32>) -> tensor<300x128xf32>
    %1012 = stablehlo.broadcast_in_dim %1011, dims = [0, 1] : (tensor<300x128xf32>) -> tensor<300x128xf32>
    %1013 = stablehlo.broadcast_in_dim %94, dims = [] : (tensor<f32>) -> tensor<300x128xf32>
    %1014 = stablehlo.multiply %1012, %1013 : tensor<300x128xf32>
    %1015 = stablehlo.broadcast_in_dim %1014, dims = [0, 1] : (tensor<300x128xf32>) -> tensor<300x128xf32>
    %1016 = stablehlo.broadcast_in_dim %arg528, dims = [1] : (tensor<128xf32>) -> tensor<300x128xf32>
    %1017 = stablehlo.add %1015, %1016 : tensor<300x128xf32>
    %1018 = stablehlo.convert %1017 : (tensor<300x128xf32>) -> tensor<300x128xbf16>
    %1019 = stablehlo.reshape %1018 : (tensor<300x128xbf16>) -> tensor<1x300x128xbf16>
    %1020 = stablehlo.reshape %1019 : (tensor<1x300x128xbf16>) -> tensor<1x300x2x64xbf16>
    %1021 = stablehlo.transpose %1020, dims = [0, 2, 1, 3] : (tensor<1x300x2x64xbf16>) -> tensor<1x2x300x64xbf16>
    %1022 = stablehlo.dot_general %1010, %arg529, contracting_dims = [1] x [0] : (tensor<300x128xf32>, tensor<128x128xf32>) -> tensor<300x128xf32>
    %1023 = stablehlo.broadcast_in_dim %1022, dims = [0, 1] : (tensor<300x128xf32>) -> tensor<300x128xf32>
    %1024 = stablehlo.multiply %1023, %1013 : tensor<300x128xf32>
    %1025 = stablehlo.broadcast_in_dim %1024, dims = [0, 1] : (tensor<300x128xf32>) -> tensor<300x128xf32>
    %1026 = stablehlo.broadcast_in_dim %arg530, dims = [1] : (tensor<128xf32>) -> tensor<300x128xf32>
    %1027 = stablehlo.add %1025, %1026 : tensor<300x128xf32>
    %1028 = stablehlo.convert %1027 : (tensor<300x128xf32>) -> tensor<300x128xbf16>
    %1029 = stablehlo.reshape %1028 : (tensor<300x128xbf16>) -> tensor<1x300x128xbf16>
    %1030 = stablehlo.reshape %1029 : (tensor<1x300x128xbf16>) -> tensor<1x300x2x64xbf16>
    %1031 = stablehlo.transpose %1030, dims = [0, 2, 1, 3] : (tensor<1x300x2x64xbf16>) -> tensor<1x2x300x64xbf16>
    %1032 = stablehlo.transpose %1021, dims = [0, 1, 3, 2] : (tensor<1x2x300x64xbf16>) -> tensor<1x2x64x300xbf16>
    %1033 = stablehlo.reshape %960 : (tensor<1x2x4800x64xbf16>) -> tensor<2x4800x64xbf16>
    %1034 = stablehlo.reshape %1032 : (tensor<1x2x64x300xbf16>) -> tensor<2x64x300xbf16>
    %1035 = stablehlo.broadcast_in_dim %1034, dims = [0, 1, 2] : (tensor<2x64x300xbf16>) -> tensor<2x64x300xbf16>
    %1036 = stablehlo.dot_general %1033, %1035, batching_dims = [0] x [0], contracting_dims = [2] x [1] : (tensor<2x4800x64xbf16>, tensor<2x64x300xbf16>) -> tensor<2x4800x300xbf16>
    %1037 = stablehlo.reshape %1036 : (tensor<2x4800x300xbf16>) -> tensor<1x2x4800x300xbf16>
    %1038 = stablehlo.broadcast_in_dim %1037, dims = [0, 1, 2, 3] : (tensor<1x2x4800x300xbf16>) -> tensor<1x2x4800x300xbf16>
    %1039 = stablehlo.broadcast_in_dim %184, dims = [] : (tensor<bf16>) -> tensor<1x2x4800x300xbf16>
    %1040 = stablehlo.divide %1038, %1039 : tensor<1x2x4800x300xbf16>
    %1041 = stablehlo.convert %1040 : (tensor<1x2x4800x300xbf16>) -> tensor<1x2x4800x300xf32>
    %1042 = stablehlo.reduce(%1041 init: %cst_1) applies stablehlo.maximum across dimensions = [3] : (tensor<1x2x4800x300xf32>, tensor<f32>) -> tensor<1x2x4800xf32>
    %1043 = stablehlo.reshape %1042 : (tensor<1x2x4800xf32>) -> tensor<1x2x4800x1xf32>
    %1044 = stablehlo.broadcast_in_dim %1041, dims = [0, 1, 2, 3] : (tensor<1x2x4800x300xf32>) -> tensor<1x2x4800x300xf32>
    %1045 = stablehlo.broadcast_in_dim %1043, dims = [0, 1, 2, 3] : (tensor<1x2x4800x1xf32>) -> tensor<1x2x4800x300xf32>
    %1046 = stablehlo.subtract %1044, %1045 : tensor<1x2x4800x300xf32>
    %1047 = stablehlo.exponential %1046 : tensor<1x2x4800x300xf32>
    %1048 = stablehlo.reduce(%1047 init: %cst_0) applies stablehlo.add across dimensions = [3] : (tensor<1x2x4800x300xf32>, tensor<f32>) -> tensor<1x2x4800xf32>
    %1049 = stablehlo.reshape %1048 : (tensor<1x2x4800xf32>) -> tensor<1x2x4800x1xf32>
    %1050 = stablehlo.broadcast_in_dim %1047, dims = [0, 1, 2, 3] : (tensor<1x2x4800x300xf32>) -> tensor<1x2x4800x300xf32>
    %1051 = stablehlo.broadcast_in_dim %1049, dims = [0, 1, 2, 3] : (tensor<1x2x4800x1xf32>) -> tensor<1x2x4800x300xf32>
    %1052 = stablehlo.divide %1050, %1051 : tensor<1x2x4800x300xf32>
    %1053 = stablehlo.convert %1052 : (tensor<1x2x4800x300xf32>) -> tensor<1x2x4800x300xbf16>
    %1054 = stablehlo.reshape %1053 : (tensor<1x2x4800x300xbf16>) -> tensor<2x4800x300xbf16>
    %1055 = stablehlo.reshape %1031 : (tensor<1x2x300x64xbf16>) -> tensor<2x300x64xbf16>
    %1056 = stablehlo.broadcast_in_dim %1055, dims = [0, 1, 2] : (tensor<2x300x64xbf16>) -> tensor<2x300x64xbf16>
    %1057 = stablehlo.dot_general %1054, %1056, batching_dims = [0] x [0], contracting_dims = [2] x [1] : (tensor<2x4800x300xbf16>, tensor<2x300x64xbf16>) -> tensor<2x4800x64xbf16>
    %1058 = stablehlo.reshape %1057 : (tensor<2x4800x64xbf16>) -> tensor<1x2x4800x64xbf16>
    %1059 = stablehlo.transpose %1058, dims = [0, 2, 1, 3] : (tensor<1x2x4800x64xbf16>) -> tensor<1x4800x2x64xbf16>
    %1060 = stablehlo.reshape %1059 : (tensor<1x4800x2x64xbf16>) -> tensor<1x4800x128xbf16>
    %1061 = stablehlo.reshape %1060 : (tensor<1x4800x128xbf16>) -> tensor<4800x128xbf16>
    %1062 = stablehlo.convert %1061 : (tensor<4800x128xbf16>) -> tensor<4800x128xf32>
    %1063 = stablehlo.dot_general %1062, %arg531, contracting_dims = [1] x [0] : (tensor<4800x128xf32>, tensor<128x128xf32>) -> tensor<4800x128xf32>
    %1064 = stablehlo.broadcast_in_dim %1063, dims = [0, 1] : (tensor<4800x128xf32>) -> tensor<4800x128xf32>
    %1065 = stablehlo.multiply %1064, %952 : tensor<4800x128xf32>
    %1066 = stablehlo.broadcast_in_dim %1065, dims = [0, 1] : (tensor<4800x128xf32>) -> tensor<4800x128xf32>
    %1067 = stablehlo.broadcast_in_dim %arg532, dims = [1] : (tensor<128xf32>) -> tensor<4800x128xf32>
    %1068 = stablehlo.add %1066, %1067 : tensor<4800x128xf32>
    %1069 = stablehlo.convert %1068 : (tensor<4800x128xf32>) -> tensor<4800x128xbf16>
    %1070 = stablehlo.reshape %1069 : (tensor<4800x128xbf16>) -> tensor<1x4800x128xbf16>
    %1071 = stablehlo.add %1070, %910 : tensor<1x4800x128xbf16>
    %1072 = stablehlo.convert %1071 : (tensor<1x4800x128xbf16>) -> tensor<1x4800x128xf32>
    %1073 = stablehlo.convert %1072 : (tensor<1x4800x128xf32>) -> tensor<1x4800x128xf64>
    %1074 = stablehlo.reduce(%1073 init: %cst) applies stablehlo.add across dimensions = [2] : (tensor<1x4800x128xf64>, tensor<f64>) -> tensor<1x4800xf64>
    %1075 = stablehlo.reshape %1074 : (tensor<1x4800xf64>) -> tensor<1x4800x1xf64>
    %1076 = stablehlo.broadcast_in_dim %1075, dims = [0, 1, 2] : (tensor<1x4800x1xf64>) -> tensor<1x4800x1xf64>
    %1077 = stablehlo.divide %1076, %874 : tensor<1x4800x1xf64>
    %1078 = stablehlo.broadcast_in_dim %1073, dims = [0, 1, 2] : (tensor<1x4800x128xf64>) -> tensor<1x4800x128xf64>
    %1079 = stablehlo.broadcast_in_dim %1077, dims = [0, 1, 2] : (tensor<1x4800x1xf64>) -> tensor<1x4800x128xf64>
    %1080 = stablehlo.subtract %1078, %1079 : tensor<1x4800x128xf64>
    %1081 = stablehlo.multiply %1080, %1080 : tensor<1x4800x128xf64>
    %1082 = stablehlo.reduce(%1081 init: %cst) applies stablehlo.add across dimensions = [2] : (tensor<1x4800x128xf64>, tensor<f64>) -> tensor<1x4800xf64>
    %1083 = stablehlo.reshape %1082 : (tensor<1x4800xf64>) -> tensor<1x4800x1xf64>
    %1084 = stablehlo.broadcast_in_dim %1083, dims = [0, 1, 2] : (tensor<1x4800x1xf64>) -> tensor<1x4800x1xf64>
    %1085 = stablehlo.divide %1084, %874 : tensor<1x4800x1xf64>
    %1086 = stablehlo.convert %1085 : (tensor<1x4800x1xf64>) -> tensor<1x4800x1xf32>
    %1087 = stablehlo.reduce(%1072 init: %cst_0) applies stablehlo.add across dimensions = [2] : (tensor<1x4800x128xf32>, tensor<f32>) -> tensor<1x4800xf32>
    %1088 = stablehlo.reshape %1087 : (tensor<1x4800xf32>) -> tensor<1x4800x1xf32>
    %1089 = stablehlo.broadcast_in_dim %1088, dims = [0, 1, 2] : (tensor<1x4800x1xf32>) -> tensor<1x4800x1xf32>
    %1090 = stablehlo.divide %1089, %890 : tensor<1x4800x1xf32>
    %1091 = stablehlo.broadcast_in_dim %1086, dims = [0, 1, 2] : (tensor<1x4800x1xf32>) -> tensor<1x4800x1xf32>
    %1092 = stablehlo.add %1091, %893 : tensor<1x4800x1xf32>
    %1093 = stablehlo.rsqrt %1092 : tensor<1x4800x1xf32>
    %1094 = stablehlo.broadcast_in_dim %1072, dims = [0, 1, 2] : (tensor<1x4800x128xf32>) -> tensor<1x4800x128xf32>
    %1095 = stablehlo.broadcast_in_dim %1090, dims = [0, 1, 2] : (tensor<1x4800x1xf32>) -> tensor<1x4800x128xf32>
    %1096 = stablehlo.subtract %1094, %1095 : tensor<1x4800x128xf32>
    %1097 = stablehlo.broadcast_in_dim %1096, dims = [0, 1, 2] : (tensor<1x4800x128xf32>) -> tensor<1x4800x128xf32>
    %1098 = stablehlo.broadcast_in_dim %1093, dims = [0, 1, 2] : (tensor<1x4800x1xf32>) -> tensor<1x4800x128xf32>
    %1099 = stablehlo.multiply %1097, %1098 : tensor<1x4800x128xf32>
    %1100 = stablehlo.convert %arg50 : (tensor<128xbf16>) -> tensor<128xf32>
    %1101 = stablehlo.broadcast_in_dim %1099, dims = [0, 1, 2] : (tensor<1x4800x128xf32>) -> tensor<1x4800x128xf32>
    %1102 = stablehlo.broadcast_in_dim %1100, dims = [2] : (tensor<128xf32>) -> tensor<1x4800x128xf32>
    %1103 = stablehlo.multiply %1101, %1102 : tensor<1x4800x128xf32>
    %1104 = stablehlo.convert %arg51 : (tensor<128xbf16>) -> tensor<128xf32>
    %1105 = stablehlo.broadcast_in_dim %1103, dims = [0, 1, 2] : (tensor<1x4800x128xf32>) -> tensor<1x4800x128xf32>
    %1106 = stablehlo.broadcast_in_dim %1104, dims = [2] : (tensor<128xf32>) -> tensor<1x4800x128xf32>
    %1107 = stablehlo.add %1105, %1106 : tensor<1x4800x128xf32>
    %1108 = stablehlo.convert %1107 : (tensor<1x4800x128xf32>) -> tensor<1x4800x128xbf16>
    %1109 = stablehlo.reshape %1108 : (tensor<1x4800x128xbf16>) -> tensor<4800x128xbf16>
    %1110 = stablehlo.convert %1109 : (tensor<4800x128xbf16>) -> tensor<4800x128xf32>
    %1111 = stablehlo.dot_general %1110, %arg533, contracting_dims = [1] x [0] : (tensor<4800x128xf32>, tensor<128x512xf32>) -> tensor<4800x512xf32>
    %1112 = stablehlo.broadcast_in_dim %1111, dims = [0, 1] : (tensor<4800x512xf32>) -> tensor<4800x512xf32>
    %1113 = stablehlo.broadcast_in_dim %94, dims = [] : (tensor<f32>) -> tensor<4800x512xf32>
    %1114 = stablehlo.multiply %1112, %1113 : tensor<4800x512xf32>
    %1115 = stablehlo.broadcast_in_dim %1114, dims = [0, 1] : (tensor<4800x512xf32>) -> tensor<4800x512xf32>
    %1116 = stablehlo.broadcast_in_dim %arg534, dims = [1] : (tensor<512xf32>) -> tensor<4800x512xf32>
    %1117 = stablehlo.add %1115, %1116 : tensor<4800x512xf32>
    %1118 = stablehlo.convert %1117 : (tensor<4800x512xf32>) -> tensor<4800x512xbf16>
    %1119 = stablehlo.reshape %1118 : (tensor<4800x512xbf16>) -> tensor<1x4800x512xbf16>
    %1120 = stablehlo.transpose %1119, dims = [0, 2, 1] : (tensor<1x4800x512xbf16>) -> tensor<1x512x4800xbf16>
    %1121 = stablehlo.reshape %1120 : (tensor<1x512x4800xbf16>) -> tensor<1x512x60x80xbf16>
    %1122 = stablehlo.convolution(%1121, %arg52) dim_numbers = [b, f, 0, 1]x[o, i, 0, 1]->[b, f, 0, 1], window = {stride = [1, 1], pad = [[1, 1], [1, 1]], rhs_dilate = [1, 1]} {batch_group_count = 1 : i64, feature_group_count = 512 : i64} : (tensor<1x512x60x80xbf16>, tensor<512x1x3x3xbf16>) -> tensor<1x512x60x80xbf16>
    %1123 = stablehlo.reshape %arg53 : (tensor<512xbf16>) -> tensor<512x1x1xbf16>
    %1124 = stablehlo.broadcast_in_dim %1122, dims = [0, 1, 2, 3] : (tensor<1x512x60x80xbf16>) -> tensor<1x512x60x80xbf16>
    %1125 = stablehlo.broadcast_in_dim %1123, dims = [1, 2, 3] : (tensor<512x1x1xbf16>) -> tensor<1x512x60x80xbf16>
    %1126 = stablehlo.add %1124, %1125 : tensor<1x512x60x80xbf16>
    %1127 = stablehlo.reshape %1126 : (tensor<1x512x60x80xbf16>) -> tensor<1x512x4800xbf16>
    %1128 = stablehlo.transpose %1127, dims = [0, 2, 1] : (tensor<1x512x4800xbf16>) -> tensor<1x4800x512xbf16>
    %1129 = stablehlo.multiply %1128, %cst_23 : tensor<1x4800x512xbf16>
    %1130 = stablehlo.rsqrt %cst_22 : tensor<1x4800x512xbf16>
    %1131 = stablehlo.multiply %1128, %1130 : tensor<1x4800x512xbf16>
    %1132 = stablehlo.convert %1131 : (tensor<1x4800x512xbf16>) -> tensor<1x4800x512xf32>
    %1133 = stablehlo.clamp %cst_24, %1132, %cst_25 : tensor<1x4800x512xf32>
    %1134 = stablehlo.multiply %1133, %1133 : tensor<1x4800x512xf32>
    %1135 = stablehlo.multiply %cst_26, %1134 : tensor<1x4800x512xf32>
    %1136 = stablehlo.add %1135, %cst_27 : tensor<1x4800x512xf32>
    %1137 = stablehlo.multiply %1136, %1134 : tensor<1x4800x512xf32>
    %1138 = stablehlo.add %1137, %cst_28 : tensor<1x4800x512xf32>
    %1139 = stablehlo.multiply %1138, %1134 : tensor<1x4800x512xf32>
    %1140 = stablehlo.add %1139, %cst_29 : tensor<1x4800x512xf32>
    %1141 = stablehlo.multiply %1140, %1134 : tensor<1x4800x512xf32>
    %1142 = stablehlo.add %1141, %cst_30 : tensor<1x4800x512xf32>
    %1143 = stablehlo.multiply %1142, %1134 : tensor<1x4800x512xf32>
    %1144 = stablehlo.add %1143, %cst_31 : tensor<1x4800x512xf32>
    %1145 = stablehlo.multiply %1144, %1134 : tensor<1x4800x512xf32>
    %1146 = stablehlo.add %1145, %cst_32 : tensor<1x4800x512xf32>
    %1147 = stablehlo.multiply %cst_33, %1134 : tensor<1x4800x512xf32>
    %1148 = stablehlo.add %1147, %cst_34 : tensor<1x4800x512xf32>
    %1149 = stablehlo.multiply %1148, %1134 : tensor<1x4800x512xf32>
    %1150 = stablehlo.add %1149, %cst_35 : tensor<1x4800x512xf32>
    %1151 = stablehlo.multiply %1150, %1134 : tensor<1x4800x512xf32>
    %1152 = stablehlo.add %1151, %cst_36 : tensor<1x4800x512xf32>
    %1153 = stablehlo.multiply %1152, %1134 : tensor<1x4800x512xf32>
    %1154 = stablehlo.add %1153, %cst_37 : tensor<1x4800x512xf32>
    %1155 = stablehlo.multiply %1133, %1146 : tensor<1x4800x512xf32>
    %1156 = stablehlo.divide %1155, %1154 : tensor<1x4800x512xf32>
    %1157 = stablehlo.clamp %cst_38, %1156, %cst_39 : tensor<1x4800x512xf32>
    %1158 = stablehlo.convert %1157 : (tensor<1x4800x512xf32>) -> tensor<1x4800x512xbf16>
    %1159 = stablehlo.add %1158, %cst_21 : tensor<1x4800x512xbf16>
    %1160 = stablehlo.multiply %1159, %1129 : tensor<1x4800x512xbf16>
    %1161 = stablehlo.reshape %1160 : (tensor<1x4800x512xbf16>) -> tensor<4800x512xbf16>
    %1162 = stablehlo.dot_general %1161, %arg535, contracting_dims = [1] x [0] : (tensor<4800x512xbf16>, tensor<512x128xbf16>) -> tensor<4800x128xbf16>
    %1163 = stablehlo.reshape %1162 : (tensor<4800x128xbf16>) -> tensor<1x4800x128xbf16>
    %1164 = stablehlo.broadcast_in_dim %1163, dims = [0, 1, 2] : (tensor<1x4800x128xbf16>) -> tensor<1x4800x128xbf16>
    %1165 = stablehlo.broadcast_in_dim %arg54, dims = [2] : (tensor<128xbf16>) -> tensor<1x4800x128xbf16>
    %1166 = stablehlo.add %1164, %1165 : tensor<1x4800x128xbf16>
    %1167 = stablehlo.reshape %1166 : (tensor<1x4800x128xbf16>) -> tensor<4800x128xbf16>
    %1168 = stablehlo.reshape %1167 : (tensor<4800x128xbf16>) -> tensor<1x4800x128xbf16>
    %1169 = stablehlo.add %1168, %1071 : tensor<1x4800x128xbf16>
    %1170 = stablehlo.convert %1169 : (tensor<1x4800x128xbf16>) -> tensor<1x4800x128xf32>
    %1171 = stablehlo.convert %1170 : (tensor<1x4800x128xf32>) -> tensor<1x4800x128xf64>
    %1172 = stablehlo.reduce(%1171 init: %cst) applies stablehlo.add across dimensions = [2] : (tensor<1x4800x128xf64>, tensor<f64>) -> tensor<1x4800xf64>
    %1173 = stablehlo.reshape %1172 : (tensor<1x4800xf64>) -> tensor<1x4800x1xf64>
    %1174 = stablehlo.broadcast_in_dim %1173, dims = [0, 1, 2] : (tensor<1x4800x1xf64>) -> tensor<1x4800x1xf64>
    %1175 = stablehlo.divide %1174, %874 : tensor<1x4800x1xf64>
    %1176 = stablehlo.broadcast_in_dim %1171, dims = [0, 1, 2] : (tensor<1x4800x128xf64>) -> tensor<1x4800x128xf64>
    %1177 = stablehlo.broadcast_in_dim %1175, dims = [0, 1, 2] : (tensor<1x4800x1xf64>) -> tensor<1x4800x128xf64>
    %1178 = stablehlo.subtract %1176, %1177 : tensor<1x4800x128xf64>
    %1179 = stablehlo.multiply %1178, %1178 : tensor<1x4800x128xf64>
    %1180 = stablehlo.reduce(%1179 init: %cst) applies stablehlo.add across dimensions = [2] : (tensor<1x4800x128xf64>, tensor<f64>) -> tensor<1x4800xf64>
    %1181 = stablehlo.reshape %1180 : (tensor<1x4800xf64>) -> tensor<1x4800x1xf64>
    %1182 = stablehlo.broadcast_in_dim %1181, dims = [0, 1, 2] : (tensor<1x4800x1xf64>) -> tensor<1x4800x1xf64>
    %1183 = stablehlo.divide %1182, %874 : tensor<1x4800x1xf64>
    %1184 = stablehlo.convert %1183 : (tensor<1x4800x1xf64>) -> tensor<1x4800x1xf32>
    %1185 = stablehlo.reduce(%1170 init: %cst_0) applies stablehlo.add across dimensions = [2] : (tensor<1x4800x128xf32>, tensor<f32>) -> tensor<1x4800xf32>
    %1186 = stablehlo.reshape %1185 : (tensor<1x4800xf32>) -> tensor<1x4800x1xf32>
    %1187 = stablehlo.broadcast_in_dim %1186, dims = [0, 1, 2] : (tensor<1x4800x1xf32>) -> tensor<1x4800x1xf32>
    %1188 = stablehlo.divide %1187, %890 : tensor<1x4800x1xf32>
    %1189 = stablehlo.broadcast_in_dim %1184, dims = [0, 1, 2] : (tensor<1x4800x1xf32>) -> tensor<1x4800x1xf32>
    %1190 = stablehlo.add %1189, %893 : tensor<1x4800x1xf32>
    %1191 = stablehlo.rsqrt %1190 : tensor<1x4800x1xf32>
    %1192 = stablehlo.broadcast_in_dim %1170, dims = [0, 1, 2] : (tensor<1x4800x128xf32>) -> tensor<1x4800x128xf32>
    %1193 = stablehlo.broadcast_in_dim %1188, dims = [0, 1, 2] : (tensor<1x4800x1xf32>) -> tensor<1x4800x128xf32>
    %1194 = stablehlo.subtract %1192, %1193 : tensor<1x4800x128xf32>
    %1195 = stablehlo.broadcast_in_dim %1194, dims = [0, 1, 2] : (tensor<1x4800x128xf32>) -> tensor<1x4800x128xf32>
    %1196 = stablehlo.broadcast_in_dim %1191, dims = [0, 1, 2] : (tensor<1x4800x1xf32>) -> tensor<1x4800x128xf32>
    %1197 = stablehlo.multiply %1195, %1196 : tensor<1x4800x128xf32>
    %1198 = stablehlo.convert %arg55 : (tensor<128xbf16>) -> tensor<128xf32>
    %1199 = stablehlo.broadcast_in_dim %1197, dims = [0, 1, 2] : (tensor<1x4800x128xf32>) -> tensor<1x4800x128xf32>
    %1200 = stablehlo.broadcast_in_dim %1198, dims = [2] : (tensor<128xf32>) -> tensor<1x4800x128xf32>
    %1201 = stablehlo.multiply %1199, %1200 : tensor<1x4800x128xf32>
    %1202 = stablehlo.convert %arg56 : (tensor<128xbf16>) -> tensor<128xf32>
    %1203 = stablehlo.broadcast_in_dim %1201, dims = [0, 1, 2] : (tensor<1x4800x128xf32>) -> tensor<1x4800x128xf32>
    %1204 = stablehlo.broadcast_in_dim %1202, dims = [2] : (tensor<128xf32>) -> tensor<1x4800x128xf32>
    %1205 = stablehlo.add %1203, %1204 : tensor<1x4800x128xf32>
    %1206 = stablehlo.convert %1205 : (tensor<1x4800x128xf32>) -> tensor<1x4800x128xbf16>
    %1207 = stablehlo.reshape %1206 : (tensor<1x4800x128xbf16>) -> tensor<4800x128xbf16>
    %1208 = stablehlo.convert %1207 : (tensor<4800x128xbf16>) -> tensor<4800x128xf32>
    %1209 = stablehlo.dot_general %1208, %arg536, contracting_dims = [1] x [0] : (tensor<4800x128xf32>, tensor<128x128xf32>) -> tensor<4800x128xf32>
    %1210 = stablehlo.broadcast_in_dim %1209, dims = [0, 1] : (tensor<4800x128xf32>) -> tensor<4800x128xf32>
    %1211 = stablehlo.multiply %1210, %952 : tensor<4800x128xf32>
    %1212 = stablehlo.broadcast_in_dim %1211, dims = [0, 1] : (tensor<4800x128xf32>) -> tensor<4800x128xf32>
    %1213 = stablehlo.broadcast_in_dim %arg537, dims = [1] : (tensor<128xf32>) -> tensor<4800x128xf32>
    %1214 = stablehlo.add %1212, %1213 : tensor<4800x128xf32>
    %1215 = stablehlo.convert %1214 : (tensor<4800x128xf32>) -> tensor<4800x128xbf16>
    %1216 = stablehlo.reshape %1215 : (tensor<4800x128xbf16>) -> tensor<1x4800x128xbf16>
    %1217 = stablehlo.reshape %1216 : (tensor<1x4800x128xbf16>) -> tensor<1x4800x2x64xbf16>
    %1218 = stablehlo.transpose %1217, dims = [0, 2, 1, 3] : (tensor<1x4800x2x64xbf16>) -> tensor<1x2x4800x64xbf16>
    %1219 = stablehlo.transpose %1206, dims = [0, 2, 1] : (tensor<1x4800x128xbf16>) -> tensor<1x128x4800xbf16>
    %1220 = stablehlo.reshape %1219 : (tensor<1x128x4800xbf16>) -> tensor<1x128x60x80xbf16>
    %1221 = stablehlo.convolution(%1220, %arg57) dim_numbers = [b, f, 0, 1]x[o, i, 0, 1]->[b, f, 0, 1], window = {stride = [4, 4], pad = [[0, 0], [0, 0]], rhs_dilate = [1, 1]} {batch_group_count = 1 : i64, feature_group_count = 1 : i64} : (tensor<1x128x60x80xbf16>, tensor<128x128x4x4xbf16>) -> tensor<1x128x15x20xbf16>
    %1222 = stablehlo.reshape %arg58 : (tensor<128xbf16>) -> tensor<128x1x1xbf16>
    %1223 = stablehlo.broadcast_in_dim %1221, dims = [0, 1, 2, 3] : (tensor<1x128x15x20xbf16>) -> tensor<1x128x15x20xbf16>
    %1224 = stablehlo.broadcast_in_dim %1222, dims = [1, 2, 3] : (tensor<128x1x1xbf16>) -> tensor<1x128x15x20xbf16>
    %1225 = stablehlo.add %1223, %1224 : tensor<1x128x15x20xbf16>
…
    %10383 = stablehlo.reshape %10382 : (tensor<1x300x512xbf16>) -> tensor<1x300x8x64xbf16>
    %10384 = stablehlo.transpose %10383, dims = [0, 2, 1, 3] : (tensor<1x300x8x64xbf16>) -> tensor<1x8x300x64xbf16>
    %10385 = stablehlo.dot_general %10374, %arg934, contracting_dims = [1] x [0] : (tensor<300x512xf32>, tensor<512x512xf32>) -> tensor<300x512xf32>
    %10386 = stablehlo.broadcast_in_dim %10385, dims = [0, 1] : (tensor<300x512xf32>) -> tensor<300x512xf32>
    %10387 = stablehlo.multiply %10386, %9965 : tensor<300x512xf32>
    %10388 = stablehlo.broadcast_in_dim %10387, dims = [0, 1] : (tensor<300x512xf32>) -> tensor<300x512xf32>
    %10389 = stablehlo.broadcast_in_dim %arg935, dims = [1] : (tensor<512xf32>) -> tensor<300x512xf32>
    %10390 = stablehlo.add %10388, %10389 : tensor<300x512xf32>
    %10391 = stablehlo.convert %10390 : (tensor<300x512xf32>) -> tensor<300x512xbf16>
    %10392 = stablehlo.reshape %10391 : (tensor<300x512xbf16>) -> tensor<1x300x512xbf16>
    %10393 = stablehlo.reshape %10392 : (tensor<1x300x512xbf16>) -> tensor<1x300x8x64xbf16>
    %10394 = stablehlo.transpose %10393, dims = [0, 2, 1, 3] : (tensor<1x300x8x64xbf16>) -> tensor<1x8x300x64xbf16>
    %10395 = stablehlo.dot_general %10374, %arg936, contracting_dims = [1] x [0] : (tensor<300x512xf32>, tensor<512x512xf32>) -> tensor<300x512xf32>
    %10396 = stablehlo.broadcast_in_dim %10395, dims = [0, 1] : (tensor<300x512xf32>) -> tensor<300x512xf32>
    %10397 = stablehlo.multiply %10396, %9965 : tensor<300x512xf32>
    %10398 = stablehlo.broadcast_in_dim %10397, dims = [0, 1] : (tensor<300x512xf32>) -> tensor<300x512xf32>
    %10399 = stablehlo.broadcast_in_dim %arg937, dims = [1] : (tensor<512xf32>) -> tensor<300x512xf32>
    %10400 = stablehlo.add %10398, %10399 : tensor<300x512xf32>
    %10401 = stablehlo.convert %10400 : (tensor<300x512xf32>) -> tensor<300x512xbf16>
    %10402 = stablehlo.reshape %10401 : (tensor<300x512xbf16>) -> tensor<1x300x512xbf16>
    %10403 = stablehlo.reshape %10402 : (tensor<1x300x512xbf16>) -> tensor<1x300x8x64xbf16>
    %10404 = stablehlo.transpose %10403, dims = [0, 2, 1, 3] : (tensor<1x300x8x64xbf16>) -> tensor<1x8x300x64xbf16>
    %10405 = stablehlo.transpose %10394, dims = [0, 1, 3, 2] : (tensor<1x8x300x64xbf16>) -> tensor<1x8x64x300xbf16>
    %10406 = stablehlo.reshape %10384 : (tensor<1x8x300x64xbf16>) -> tensor<8x300x64xbf16>
    %10407 = stablehlo.reshape %10405 : (tensor<1x8x64x300xbf16>) -> tensor<8x64x300xbf16>
    %10408 = stablehlo.broadcast_in_dim %10407, dims = [0, 1, 2] : (tensor<8x64x300xbf16>) -> tensor<8x64x300xbf16>
    %10409 = stablehlo.dot_general %10406, %10408, batching_dims = [0] x [0], contracting_dims = [2] x [1] : (tensor<8x300x64xbf16>, tensor<8x64x300xbf16>) -> tensor<8x300x300xbf16>
    %10410 = stablehlo.reshape %10409 : (tensor<8x300x300xbf16>) -> tensor<1x8x300x300xbf16>
    %10411 = stablehlo.broadcast_in_dim %10410, dims = [0, 1, 2, 3] : (tensor<1x8x300x300xbf16>) -> tensor<1x8x300x300xbf16>
    %10412 = stablehlo.divide %10411, %10001 : tensor<1x8x300x300xbf16>
    %10413 = stablehlo.convert %10412 : (tensor<1x8x300x300xbf16>) -> tensor<1x8x300x300xf32>
    %10414 = stablehlo.reduce(%10413 init: %cst_1) applies stablehlo.maximum across dimensions = [3] : (tensor<1x8x300x300xf32>, tensor<f32>) -> tensor<1x8x300xf32>
    %10415 = stablehlo.reshape %10414 : (tensor<1x8x300xf32>) -> tensor<1x8x300x1xf32>
    %10416 = stablehlo.broadcast_in_dim %10413, dims = [0, 1, 2, 3] : (tensor<1x8x300x300xf32>) -> tensor<1x8x300x300xf32>
    %10417 = stablehlo.broadcast_in_dim %10415, dims = [0, 1, 2, 3] : (tensor<1x8x300x1xf32>) -> tensor<1x8x300x300xf32>
    %10418 = stablehlo.subtract %10416, %10417 : tensor<1x8x300x300xf32>
    %10419 = stablehlo.exponential %10418 : tensor<1x8x300x300xf32>
    %10420 = stablehlo.reduce(%10419 init: %cst_0) applies stablehlo.add across dimensions = [3] : (tensor<1x8x300x300xf32>, tensor<f32>) -> tensor<1x8x300xf32>
    %10421 = stablehlo.reshape %10420 : (tensor<1x8x300xf32>) -> tensor<1x8x300x1xf32>
    %10422 = stablehlo.broadcast_in_dim %10419, dims = [0, 1, 2, 3] : (tensor<1x8x300x300xf32>) -> tensor<1x8x300x300xf32>
    %10423 = stablehlo.broadcast_in_dim %10421, dims = [0, 1, 2, 3] : (tensor<1x8x300x1xf32>) -> tensor<1x8x300x300xf32>
    %10424 = stablehlo.divide %10422, %10423 : tensor<1x8x300x300xf32>
    %10425 = stablehlo.convert %10424 : (tensor<1x8x300x300xf32>) -> tensor<1x8x300x300xbf16>
    %10426 = stablehlo.reshape %10425 : (tensor<1x8x300x300xbf16>) -> tensor<8x300x300xbf16>
    %10427 = stablehlo.reshape %10404 : (tensor<1x8x300x64xbf16>) -> tensor<8x300x64xbf16>
    %10428 = stablehlo.broadcast_in_dim %10427, dims = [0, 1, 2] : (tensor<8x300x64xbf16>) -> tensor<8x300x64xbf16>
    %10429 = stablehlo.dot_general %10426, %10428, batching_dims = [0] x [0], contracting_dims = [2] x [1] : (tensor<8x300x300xbf16>, tensor<8x300x64xbf16>) -> tensor<8x300x64xbf16>
    %10430 = stablehlo.reshape %10429 : (tensor<8x300x64xbf16>) -> tensor<1x8x300x64xbf16>
    %10431 = stablehlo.transpose %10430, dims = [0, 2, 1, 3] : (tensor<1x8x300x64xbf16>) -> tensor<1x300x8x64xbf16>
    %10432 = stablehlo.reshape %10431 : (tensor<1x300x8x64xbf16>) -> tensor<1x300x512xbf16>
    %10433 = stablehlo.reshape %10432 : (tensor<1x300x512xbf16>) -> tensor<300x512xbf16>
    %10434 = stablehlo.convert %10433 : (tensor<300x512xbf16>) -> tensor<300x512xf32>
    %10435 = stablehlo.dot_general %10434, %arg938, contracting_dims = [1] x [0] : (tensor<300x512xf32>, tensor<512x512xf32>) -> tensor<300x512xf32>
    %10436 = stablehlo.broadcast_in_dim %10435, dims = [0, 1] : (tensor<300x512xf32>) -> tensor<300x512xf32>
    %10437 = stablehlo.multiply %10436, %9965 : tensor<300x512xf32>
    %10438 = stablehlo.broadcast_in_dim %10437, dims = [0, 1] : (tensor<300x512xf32>) -> tensor<300x512xf32>
    %10439 = stablehlo.broadcast_in_dim %arg939, dims = [1] : (tensor<512xf32>) -> tensor<300x512xf32>
    %10440 = stablehlo.add %10438, %10439 : tensor<300x512xf32>
    %10441 = stablehlo.convert %10440 : (tensor<300x512xf32>) -> tensor<300x512xbf16>
    %10442 = stablehlo.reshape %10441 : (tensor<300x512xbf16>) -> tensor<1x300x512xbf16>
    %10443 = stablehlo.add %10442, %10335 : tensor<1x300x512xbf16>
    %10444 = stablehlo.convert %10443 : (tensor<1x300x512xbf16>) -> tensor<1x300x512xf32>
    %10445 = stablehlo.convert %10444 : (tensor<1x300x512xf32>) -> tensor<1x300x512xf64>
    %10446 = stablehlo.reduce(%10445 init: %cst) applies stablehlo.add across dimensions = [2] : (tensor<1x300x512xf64>, tensor<f64>) -> tensor<1x300xf64>
    %10447 = stablehlo.reshape %10446 : (tensor<1x300xf64>) -> tensor<1x300x1xf64>
    %10448 = stablehlo.broadcast_in_dim %10447, dims = [0, 1, 2] : (tensor<1x300x1xf64>) -> tensor<1x300x1xf64>
    %10449 = stablehlo.divide %10448, %9888 : tensor<1x300x1xf64>
    %10450 = stablehlo.broadcast_in_dim %10445, dims = [0, 1, 2] : (tensor<1x300x512xf64>) -> tensor<1x300x512xf64>
    %10451 = stablehlo.broadcast_in_dim %10449, dims = [0, 1, 2] : (tensor<1x300x1xf64>) -> tensor<1x300x512xf64>
    %10452 = stablehlo.subtract %10450, %10451 : tensor<1x300x512xf64>
    %10453 = stablehlo.multiply %10452, %10452 : tensor<1x300x512xf64>
    %10454 = stablehlo.reduce(%10453 init: %cst) applies stablehlo.add across dimensions = [2] : (tensor<1x300x512xf64>, tensor<f64>) -> tensor<1x300xf64>
    %10455 = stablehlo.reshape %10454 : (tensor<1x300xf64>) -> tensor<1x300x1xf64>
    %10456 = stablehlo.broadcast_in_dim %10455, dims = [0, 1, 2] : (tensor<1x300x1xf64>) -> tensor<1x300x1xf64>
    %10457 = stablehlo.divide %10456, %9888 : tensor<1x300x1xf64>
    %10458 = stablehlo.convert %10457 : (tensor<1x300x1xf64>) -> tensor<1x300x1xf32>
    %10459 = stablehlo.reduce(%10444 init: %cst_0) applies stablehlo.add across dimensions = [2] : (tensor<1x300x512xf32>, tensor<f32>) -> tensor<1x300xf32>
    %10460 = stablehlo.reshape %10459 : (tensor<1x300xf32>) -> tensor<1x300x1xf32>
    %10461 = stablehlo.broadcast_in_dim %10460, dims = [0, 1, 2] : (tensor<1x300x1xf32>) -> tensor<1x300x1xf32>
    %10462 = stablehlo.divide %10461, %9904 : tensor<1x300x1xf32>
    %10463 = stablehlo.broadcast_in_dim %10458, dims = [0, 1, 2] : (tensor<1x300x1xf32>) -> tensor<1x300x1xf32>
    %10464 = stablehlo.add %10463, %136 : tensor<1x300x1xf32>
    %10465 = stablehlo.rsqrt %10464 : tensor<1x300x1xf32>
    %10466 = stablehlo.broadcast_in_dim %10444, dims = [0, 1, 2] : (tensor<1x300x512xf32>) -> tensor<1x300x512xf32>
    %10467 = stablehlo.broadcast_in_dim %10462, dims = [0, 1, 2] : (tensor<1x300x1xf32>) -> tensor<1x300x512xf32>
    %10468 = stablehlo.subtract %10466, %10467 : tensor<1x300x512xf32>
    %10469 = stablehlo.broadcast_in_dim %10468, dims = [0, 1, 2] : (tensor<1x300x512xf32>) -> tensor<1x300x512xf32>
    %10470 = stablehlo.broadcast_in_dim %10465, dims = [0, 1, 2] : (tensor<1x300x1xf32>) -> tensor<1x300x512xf32>
    %10471 = stablehlo.multiply %10469, %10470 : tensor<1x300x512xf32>
    %10472 = stablehlo.convert %arg457 : (tensor<512xbf16>) -> tensor<512xf32>
    %10473 = stablehlo.broadcast_in_dim %10471, dims = [0, 1, 2] : (tensor<1x300x512xf32>) -> tensor<1x300x512xf32>
    %10474 = stablehlo.broadcast_in_dim %10472, dims = [2] : (tensor<512xf32>) -> tensor<1x300x512xf32>
    %10475 = stablehlo.multiply %10473, %10474 : tensor<1x300x512xf32>
    %10476 = stablehlo.convert %arg458 : (tensor<512xbf16>) -> tensor<512xf32>
    %10477 = stablehlo.broadcast_in_dim %10475, dims = [0, 1, 2] : (tensor<1x300x512xf32>) -> tensor<1x300x512xf32>
    %10478 = stablehlo.broadcast_in_dim %10476, dims = [2] : (tensor<512xf32>) -> tensor<1x300x512xf32>
    %10479 = stablehlo.add %10477, %10478 : tensor<1x300x512xf32>
    %10480 = stablehlo.convert %10479 : (tensor<1x300x512xf32>) -> tensor<1x300x512xbf16>
    %10481 = stablehlo.reshape %10480 : (tensor<1x300x512xbf16>) -> tensor<300x512xbf16>
    %10482 = stablehlo.convert %10481 : (tensor<300x512xbf16>) -> tensor<300x512xf32>
    %10483 = stablehlo.dot_general %10482, %arg940, contracting_dims = [1] x [0] : (tensor<300x512xf32>, tensor<512x2048xf32>) -> tensor<300x2048xf32>
    %10484 = stablehlo.broadcast_in_dim %10483, dims = [0, 1] : (tensor<300x2048xf32>) -> tensor<300x2048xf32>
    %10485 = stablehlo.multiply %10484, %10075 : tensor<300x2048xf32>
    %10486 = stablehlo.broadcast_in_dim %10485, dims = [0, 1] : (tensor<300x2048xf32>) -> tensor<300x2048xf32>
    %10487 = stablehlo.broadcast_in_dim %arg941, dims = [1] : (tensor<2048xf32>) -> tensor<300x2048xf32>
    %10488 = stablehlo.add %10486, %10487 : tensor<300x2048xf32>
    %10489 = stablehlo.convert %10488 : (tensor<300x2048xf32>) -> tensor<300x2048xbf16>
    %10490 = stablehlo.reshape %10489 : (tensor<300x2048xbf16>) -> tensor<1x300x2048xbf16>
    %10491 = stablehlo.transpose %10490, dims = [0, 2, 1] : (tensor<1x300x2048xbf16>) -> tensor<1x2048x300xbf16>
    %10492 = stablehlo.reshape %10491 : (tensor<1x2048x300xbf16>) -> tensor<1x2048x15x20xbf16>
    %10493 = stablehlo.convolution(%10492, %arg459) dim_numbers = [b, f, 0, 1]x[o, i, 0, 1]->[b, f, 0, 1], window = {stride = [1, 1], pad = [[1, 1], [1, 1]], rhs_dilate = [1, 1]} {batch_group_count = 1 : i64, feature_group_count = 2048 : i64} : (tensor<1x2048x15x20xbf16>, tensor<2048x1x3x3xbf16>) -> tensor<1x2048x15x20xbf16>
    %10494 = stablehlo.reshape %arg460 : (tensor<2048xbf16>) -> tensor<2048x1x1xbf16>
    %10495 = stablehlo.broadcast_in_dim %10493, dims = [0, 1, 2, 3] : (tensor<1x2048x15x20xbf16>) -> tensor<1x2048x15x20xbf16>
    %10496 = stablehlo.broadcast_in_dim %10494, dims = [1, 2, 3] : (tensor<2048x1x1xbf16>) -> tensor<1x2048x15x20xbf16>
    %10497 = stablehlo.add %10495, %10496 : tensor<1x2048x15x20xbf16>
    %10498 = stablehlo.reshape %10497 : (tensor<1x2048x15x20xbf16>) -> tensor<1x2048x300xbf16>
    %10499 = stablehlo.transpose %10498, dims = [0, 2, 1] : (tensor<1x2048x300xbf16>) -> tensor<1x300x2048xbf16>
    %10500 = stablehlo.multiply %10499, %cst_61 : tensor<1x300x2048xbf16>
    %10501 = stablehlo.multiply %10499, %10092 : tensor<1x300x2048xbf16>
    %10502 = stablehlo.convert %10501 : (tensor<1x300x2048xbf16>) -> tensor<1x300x2048xf32>
    %10503 = stablehlo.clamp %cst_62, %10502, %cst_63 : tensor<1x300x2048xf32>
    %10504 = stablehlo.multiply %10503, %10503 : tensor<1x300x2048xf32>
    %10505 = stablehlo.multiply %cst_64, %10504 : tensor<1x300x2048xf32>
    %10506 = stablehlo.add %10505, %cst_65 : tensor<1x300x2048xf32>
    %10507 = stablehlo.multiply %10506, %10504 : tensor<1x300x2048xf32>
    %10508 = stablehlo.add %10507, %cst_66 : tensor<1x300x2048xf32>
    %10509 = stablehlo.multiply %10508, %10504 : tensor<1x300x2048xf32>
    %10510 = stablehlo.add %10509, %cst_67 : tensor<1x300x2048xf32>
    %10511 = stablehlo.multiply %10510, %10504 : tensor<1x300x2048xf32>
    %10512 = stablehlo.add %10511, %cst_68 : tensor<1x300x2048xf32>
    %10513 = stablehlo.multiply %10512, %10504 : tensor<1x300x2048xf32>
    %10514 = stablehlo.add %10513, %cst_69 : tensor<1x300x2048xf32>
    %10515 = stablehlo.multiply %10514, %10504 : tensor<1x300x2048xf32>
    %10516 = stablehlo.add %10515, %cst_70 : tensor<1x300x2048xf32>
    %10517 = stablehlo.multiply %cst_71, %10504 : tensor<1x300x2048xf32>
    %10518 = stablehlo.add %10517, %cst_72 : tensor<1x300x2048xf32>
    %10519 = stablehlo.multiply %10518, %10504 : tensor<1x300x2048xf32>
    %10520 = stablehlo.add %10519, %cst_73 : tensor<1x300x2048xf32>
    %10521 = stablehlo.multiply %10520, %10504 : tensor<1x300x2048xf32>
    %10522 = stablehlo.add %10521, %cst_74 : tensor<1x300x2048xf32>
    %10523 = stablehlo.multiply %10522, %10504 : tensor<1x300x2048xf32>
    %10524 = stablehlo.add %10523, %cst_75 : tensor<1x300x2048xf32>
    %10525 = stablehlo.multiply %10503, %10516 : tensor<1x300x2048xf32>
    %10526 = stablehlo.divide %10525, %10524 : tensor<1x300x2048xf32>
    %10527 = stablehlo.clamp %cst_76, %10526, %cst_77 : tensor<1x300x2048xf32>
    %10528 = stablehlo.convert %10527 : (tensor<1x300x2048xf32>) -> tensor<1x300x2048xbf16>
    %10529 = stablehlo.add %10528, %cst_59 : tensor<1x300x2048xbf16>
    %10530 = stablehlo.multiply %10529, %10500 : tensor<1x300x2048xbf16>
    %10531 = stablehlo.reshape %10530 : (tensor<1x300x2048xbf16>) -> tensor<300x2048xbf16>
    %10532 = stablehlo.dot_general %10531, %arg942, contracting_dims = [1] x [0] : (tensor<300x2048xbf16>, tensor<2048x512xbf16>) -> tensor<300x512xbf16>
    %10533 = stablehlo.reshape %10532 : (tensor<300x512xbf16>) -> tensor<1x300x512xbf16>
    %10534 = stablehlo.broadcast_in_dim %10533, dims = [0, 1, 2] : (tensor<1x300x512xbf16>) -> tensor<1x300x512xbf16>
    %10535 = stablehlo.broadcast_in_dim %arg461, dims = [2] : (tensor<512xbf16>) -> tensor<1x300x512xbf16>
    %10536 = stablehlo.add %10534, %10535 : tensor<1x300x512xbf16>
    %10537 = stablehlo.reshape %10536 : (tensor<1x300x512xbf16>) -> tensor<300x512xbf16>
    %10538 = stablehlo.reshape %10537 : (tensor<300x512xbf16>) -> tensor<1x300x512xbf16>
    %10539 = stablehlo.add %10538, %10443 : tensor<1x300x512xbf16>
    %10540 = stablehlo.convert %10539 : (tensor<1x300x512xbf16>) -> tensor<1x300x512xf32>
    %10541 = stablehlo.convert %10540 : (tensor<1x300x512xf32>) -> tensor<1x300x512xf64>
    %10542 = stablehlo.reduce(%10541 init: %cst) applies stablehlo.add across dimensions = [2] : (tensor<1x300x512xf64>, tensor<f64>) -> tensor<1x300xf64>
    %10543 = stablehlo.reshape %10542 : (tensor<1x300xf64>) -> tensor<1x300x1xf64>
    %10544 = stablehlo.broadcast_in_dim %10543, dims = [0, 1, 2] : (tensor<1x300x1xf64>) -> tensor<1x300x1xf64>
    %10545 = stablehlo.divide %10544, %9888 : tensor<1x300x1xf64>
    %10546 = stablehlo.broadcast_in_dim %10541, dims = [0, 1, 2] : (tensor<1x300x512xf64>) -> tensor<1x300x512xf64>
    %10547 = stablehlo.broadcast_in_dim %10545, dims = [0, 1, 2] : (tensor<1x300x1xf64>) -> tensor<1x300x512xf64>
    %10548 = stablehlo.subtract %10546, %10547 : tensor<1x300x512xf64>
    %10549 = stablehlo.multiply %10548, %10548 : tensor<1x300x512xf64>
    %10550 = stablehlo.reduce(%10549 init: %cst) applies stablehlo.add across dimensions = [2] : (tensor<1x300x512xf64>, tensor<f64>) -> tensor<1x300xf64>
    %10551 = stablehlo.reshape %10550 : (tensor<1x300xf64>) -> tensor<1x300x1xf64>
    %10552 = stablehlo.broadcast_in_dim %10551, dims = [0, 1, 2] : (tensor<1x300x1xf64>) -> tensor<1x300x1xf64>
    %10553 = stablehlo.divide %10552, %9888 : tensor<1x300x1xf64>
    %10554 = stablehlo.convert %10553 : (tensor<1x300x1xf64>) -> tensor<1x300x1xf32>
    %10555 = stablehlo.reduce(%10540 init: %cst_0) applies stablehlo.add across dimensions = [2] : (tensor<1x300x512xf32>, tensor<f32>) -> tensor<1x300xf32>
    %10556 = stablehlo.reshape %10555 : (tensor<1x300xf32>) -> tensor<1x300x1xf32>
    %10557 = stablehlo.broadcast_in_dim %10556, dims = [0, 1, 2] : (tensor<1x300x1xf32>) -> tensor<1x300x1xf32>
    %10558 = stablehlo.divide %10557, %9904 : tensor<1x300x1xf32>
    %10559 = stablehlo.broadcast_in_dim %10554, dims = [0, 1, 2] : (tensor<1x300x1xf32>) -> tensor<1x300x1xf32>
    %10560 = stablehlo.add %10559, %136 : tensor<1x300x1xf32>
    %10561 = stablehlo.rsqrt %10560 : tensor<1x300x1xf32>
    %10562 = stablehlo.broadcast_in_dim %10540, dims = [0, 1, 2] : (tensor<1x300x512xf32>) -> tensor<1x300x512xf32>
    %10563 = stablehlo.broadcast_in_dim %10558, dims = [0, 1, 2] : (tensor<1x300x1xf32>) -> tensor<1x300x512xf32>
    %10564 = stablehlo.subtract %10562, %10563 : tensor<1x300x512xf32>
    %10565 = stablehlo.broadcast_in_dim %10564, dims = [0, 1, 2] : (tensor<1x300x512xf32>) -> tensor<1x300x512xf32>
    %10566 = stablehlo.broadcast_in_dim %10561, dims = [0, 1, 2] : (tensor<1x300x1xf32>) -> tensor<1x300x512xf32>
    %10567 = stablehlo.multiply %10565, %10566 : tensor<1x300x512xf32>
    %10568 = stablehlo.convert %arg462 : (tensor<512xbf16>) -> tensor<512xf32>
    %10569 = stablehlo.broadcast_in_dim %10567, dims = [0, 1, 2] : (tensor<1x300x512xf32>) -> tensor<1x300x512xf32>
    %10570 = stablehlo.broadcast_in_dim %10568, dims = [2] : (tensor<512xf32>) -> tensor<1x300x512xf32>
    %10571 = stablehlo.multiply %10569, %10570 : tensor<1x300x512xf32>
    %10572 = stablehlo.convert %arg463 : (tensor<512xbf16>) -> tensor<512xf32>
    %10573 = stablehlo.broadcast_in_dim %10571, dims = [0, 1, 2] : (tensor<1x300x512xf32>) -> tensor<1x300x512xf32>
    %10574 = stablehlo.broadcast_in_dim %10572, dims = [2] : (tensor<512xf32>) -> tensor<1x300x512xf32>
    %10575 = stablehlo.add %10573, %10574 : tensor<1x300x512xf32>
    %10576 = stablehlo.convert %10575 : (tensor<1x300x512xf32>) -> tensor<1x300x512xbf16>
    %10577 = stablehlo.reshape %10576 : (tensor<1x300x512xbf16>) -> tensor<1x15x20x512xbf16>
    %10578 = stablehlo.transpose %10577, dims = [0, 3, 1, 2] : (tensor<1x15x20x512xbf16>) -> tensor<1x512x15x20xbf16>
    %10579 = stablehlo.convolution(%10578, %arg464) dim_numbers = [b, f, 0, 1]x[o, i, 0, 1]->[b, f, 0, 1], window = {stride = [1, 1], pad = [[0, 0], [0, 0]], rhs_dilate = [1, 1]} {batch_group_count = 1 : i64, feature_group_count = 1 : i64} : (tensor<1x512x15x20xbf16>, tensor<64x512x1x1xbf16>) -> tensor<1x64x15x20xbf16>
    %10580 = stablehlo.reshape %arg465 : (tensor<64xbf16>) -> tensor<64x1x1xbf16>
    %10581 = stablehlo.broadcast_in_dim %10579, dims = [0, 1, 2, 3] : (tensor<1x64x15x20xbf16>) -> tensor<1x64x15x20xbf16>
    %10582 = stablehlo.broadcast_in_dim %10580, dims = [1, 2, 3] : (tensor<64x1x1xbf16>) -> tensor<1x64x15x20xbf16>
    %10583 = stablehlo.add %10581, %10582 : tensor<1x64x15x20xbf16>
    %10584 = stablehlo.transpose %10583, dims = [0, 1, 3, 2] : (tensor<1x64x15x20xbf16>) -> tensor<1x64x20x15xbf16>
    %10585 = stablehlo.reshape %10584 : (tensor<1x64x20x15xbf16>) -> tensor<64x20x15xbf16>
    %10586 = stablehlo.broadcast_in_dim %arg943, dims = [0, 1, 2] : (tensor<64x15x30xbf16>) -> tensor<64x15x30xbf16>
    %10587 = stablehlo.dot_general %10585, %10586, batching_dims = [0] x [0], contracting_dims = [2] x [1] : (tensor<64x20x15xbf16>, tensor<64x15x30xbf16>) -> tensor<64x20x30xbf16>
    %10588 = stablehlo.reshape %10587 : (tensor<64x20x30xbf16>) -> tensor<1x64x20x30xbf16>
    %10589 = stablehlo.transpose %10588, dims = [0, 1, 3, 2] : (tensor<1x64x20x30xbf16>) -> tensor<1x64x30x20xbf16>
    %10590 = stablehlo.reshape %10589 : (tensor<1x64x30x20xbf16>) -> tensor<64x30x20xbf16>
    %10591 = stablehlo.broadcast_in_dim %arg944, dims = [0, 1, 2] : (tensor<64x20x40xbf16>) -> tensor<64x20x40xbf16>
    %10592 = stablehlo.dot_general %10590, %10591, batching_dims = [0] x [0], contracting_dims = [2] x [1] : (tensor<64x30x20xbf16>, tensor<64x20x40xbf16>) -> tensor<64x30x40xbf16>
    %10593 = stablehlo.reshape %10592 : (tensor<64x30x40xbf16>) -> tensor<1x64x30x40xbf16>
    %10594 = stablehlo.convolution(%9873, %arg466) dim_numbers = [b, f, 0, 1]x[o, i, 0, 1]->[b, f, 0, 1], window = {stride = [1, 1], pad = [[0, 0], [0, 0]], rhs_dilate = [1, 1]} {batch_group_count = 1 : i64, feature_group_count = 1 : i64} : (tensor<1x320x30x40xbf16>, tensor<64x320x1x1xbf16>) -> tensor<1x64x30x40xbf16>
    %10595 = stablehlo.reshape %arg467 : (tensor<64xbf16>) -> tensor<64x1x1xbf16>
    %10596 = stablehlo.broadcast_in_dim %10594, dims = [0, 1, 2, 3] : (tensor<1x64x30x40xbf16>) -> tensor<1x64x30x40xbf16>
    %10597 = stablehlo.broadcast_in_dim %10595, dims = [1, 2, 3] : (tensor<64x1x1xbf16>) -> tensor<1x64x30x40xbf16>
    %10598 = stablehlo.add %10596, %10597 : tensor<1x64x30x40xbf16>
    %10599 = stablehlo.concatenate %10598, %10593, dim = 1 : (tensor<1x64x30x40xbf16>, tensor<1x64x30x40xbf16>) -> tensor<1x128x30x40xbf16>
    %10600 = stablehlo.convolution(%10599, %arg468) dim_numbers = [b, f, 0, 1]x[o, i, 0, 1]->[b, f, 0, 1], window = {stride = [1, 1], pad = [[1, 1], [1, 1]], rhs_dilate = [1, 1]} {batch_group_count = 1 : i64, feature_group_count = 1 : i64} : (tensor<1x128x30x40xbf16>, tensor<64x128x3x3xbf16>) -> tensor<1x64x30x40xbf16>
    %10601 = stablehlo.reshape %arg469 : (tensor<64xbf16>) -> tensor<64x1x1xbf16>
    %10602 = stablehlo.broadcast_in_dim %10600, dims = [0, 1, 2, 3] : (tensor<1x64x30x40xbf16>) -> tensor<1x64x30x40xbf16>
    %10603 = stablehlo.broadcast_in_dim %10601, dims = [1, 2, 3] : (tensor<64x1x1xbf16>) -> tensor<1x64x30x40xbf16>
    %10604 = stablehlo.add %10602, %10603 : tensor<1x64x30x40xbf16>
    %10605 = stablehlo.convert %10604 : (tensor<1x64x30x40xbf16>) -> tensor<1x64x30x40xf32>
    %10606 = stablehlo.broadcast_in_dim %10605, dims = [0, 1, 2, 3] : (tensor<1x64x30x40xf32>) -> tensor<1x64x30x40xf32>
    %10607 = stablehlo.broadcast_in_dim %arg945, dims = [1, 2, 3] : (tensor<64x1x1xf32>) -> tensor<1x64x30x40xf32>
    %10608 = stablehlo.subtract %10606, %10607 : tensor<1x64x30x40xf32>
    %10609 = stablehlo.broadcast_in_dim %10608, dims = [0, 1, 2, 3] : (tensor<1x64x30x40xf32>) -> tensor<1x64x30x40xf32>
    %10610 = stablehlo.broadcast_in_dim %arg946, dims = [1, 2, 3] : (tensor<64x1x1xf32>) -> tensor<1x64x30x40xf32>
    %10611 = stablehlo.multiply %10609, %10610 : tensor<1x64x30x40xf32>
    %10612 = stablehlo.convert %arg947 : (tensor<64x1x1xbf16>) -> tensor<64x1x1xf32>
    %10613 = stablehlo.broadcast_in_dim %10611, dims = [0, 1, 2, 3] : (tensor<1x64x30x40xf32>) -> tensor<1x64x30x40xf32>
    %10614 = stablehlo.broadcast_in_dim %10612, dims = [1, 2, 3] : (tensor<64x1x1xf32>) -> tensor<1x64x30x40xf32>
    %10615 = stablehlo.multiply %10613, %10614 : tensor<1x64x30x40xf32>
    %10616 = stablehlo.convert %arg948 : (tensor<64x1x1xbf16>) -> tensor<64x1x1xf32>
    %10617 = stablehlo.broadcast_in_dim %10615, dims = [0, 1, 2, 3] : (tensor<1x64x30x40xf32>) -> tensor<1x64x30x40xf32>
    %10618 = stablehlo.broadcast_in_dim %10616, dims = [1, 2, 3] : (tensor<64x1x1xf32>) -> tensor<1x64x30x40xf32>
    %10619 = stablehlo.add %10617, %10618 : tensor<1x64x30x40xf32>
    %10620 = stablehlo.convert %10619 : (tensor<1x64x30x40xf32>) -> tensor<1x64x30x40xbf16>
    %10621 = stablehlo.maximum %10620, %cst_78 : tensor<1x64x30x40xbf16>
    %10622 = stablehlo.convolution(%10621, %arg470) dim_numbers = [b, f, 0, 1]x[o, i, 0, 1]->[b, f, 0, 1], window = {stride = [1, 1], pad = [[1, 1], [1, 1]], rhs_dilate = [1, 1]} {batch_group_count = 1 : i64, feature_group_count = 1 : i64} : (tensor<1x64x30x40xbf16>, tensor<32x64x3x3xbf16>) -> tensor<1x32x30x40xbf16>
    %10623 = stablehlo.reshape %arg471 : (tensor<32xbf16>) -> tensor<32x1x1xbf16>
    %10624 = stablehlo.broadcast_in_dim %10622, dims = [0, 1, 2, 3] : (tensor<1x32x30x40xbf16>) -> tensor<1x32x30x40xbf16>
    %10625 = stablehlo.broadcast_in_dim %10623, dims = [1, 2, 3] : (tensor<32x1x1xbf16>) -> tensor<1x32x30x40xbf16>
    %10626 = stablehlo.add %10624, %10625 : tensor<1x32x30x40xbf16>
    %10627 = stablehlo.convert %10626 : (tensor<1x32x30x40xbf16>) -> tensor<1x32x30x40xf32>
    %10628 = stablehlo.broadcast_in_dim %10627, dims = [0, 1, 2, 3] : (tensor<1x32x30x40xf32>) -> tensor<1x32x30x40xf32>
    %10629 = stablehlo.broadcast_in_dim %arg949, dims = [1, 2, 3] : (tensor<32x1x1xf32>) -> tensor<1x32x30x40xf32>
    %10630 = stablehlo.subtract %10628, %10629 : tensor<1x32x30x40xf32>
    %10631 = stablehlo.broadcast_in_dim %10630, dims = [0, 1, 2, 3] : (tensor<1x32x30x40xf32>) -> tensor<1x32x30x40xf32>
    %10632 = stablehlo.broadcast_in_dim %arg950, dims = [1, 2, 3] : (tensor<32x1x1xf32>) -> tensor<1x32x30x40xf32>
    %10633 = stablehlo.multiply %10631, %10632 : tensor<1x32x30x40xf32>
    %10634 = stablehlo.convert %arg951 : (tensor<32x1x1xbf16>) -> tensor<32x1x1xf32>
    %10635 = stablehlo.broadcast_in_dim %10633, dims = [0, 1, 2, 3] : (tensor<1x32x30x40xf32>) -> tensor<1x32x30x40xf32>
    %10636 = stablehlo.broadcast_in_dim %10634, dims = [1, 2, 3] : (tensor<32x1x1xf32>) -> tensor<1x32x30x40xf32>
    %10637 = stablehlo.multiply %10635, %10636 : tensor<1x32x30x40xf32>
    %10638 = stablehlo.convert %arg952 : (tensor<32x1x1xbf16>) -> tensor<32x1x1xf32>
    %10639 = stablehlo.broadcast_in_dim %10637, dims = [0, 1, 2, 3] : (tensor<1x32x30x40xf32>) -> tensor<1x32x30x40xf32>
    %10640 = stablehlo.broadcast_in_dim %10638, dims = [1, 2, 3] : (tensor<32x1x1xf32>) -> tensor<1x32x30x40xf32>
    %10641 = stablehlo.add %10639, %10640 : tensor<1x32x30x40xf32>
    %10642 = stablehlo.convert %10641 : (tensor<1x32x30x40xf32>) -> tensor<1x32x30x40xbf16>
    %10643 = stablehlo.maximum %10642, %cst_79 : tensor<1x32x30x40xbf16>
    %10644 = stablehlo.convolution(%10643, %arg472) dim_numbers = [b, f, 0, 1]x[o, i, 0, 1]->[b, f, 0, 1], window = {stride = [1, 1], pad = [[1, 1], [1, 1]], rhs_dilate = [1, 1]} {batch_group_count = 1 : i64, feature_group_count = 1 : i64} : (tensor<1x32x30x40xbf16>, tensor<2x32x3x3xbf16>) -> tensor<1x2x30x40xbf16>
    %10645 = stablehlo.reshape %arg473 : (tensor<2xbf16>) -> tensor<2x1x1xbf16>
    %10646 = stablehlo.broadcast_in_dim %10644, dims = [0, 1, 2, 3] : (tensor<1x2x30x40xbf16>) -> tensor<1x2x30x40xbf16>
    %10647 = stablehlo.broadcast_in_dim %10645, dims = [1, 2, 3] : (tensor<2x1x1xbf16>) -> tensor<1x2x30x40xbf16>
    %10648 = stablehlo.add %10646, %10647 : tensor<1x2x30x40xbf16>
    %10649 = stablehlo.logistic %10648 : tensor<1x2x30x40xbf16>
    %10650 = stablehlo.slice %10649 [0:1, 0:1, 0:30, 0:40] : (tensor<1x2x30x40xbf16>) -> tensor<1x1x30x40xbf16>
    %10651 = stablehlo.reshape %10650 : (tensor<1x1x30x40xbf16>) -> tensor<1x30x40xbf16>
    %10652 = stablehlo.reshape %10651 : (tensor<1x30x40xbf16>) -> tensor<1x1x30x40xbf16>
    %10653 = stablehlo.broadcast_in_dim %10598, dims = [0, 1, 2, 3] : (tensor<1x64x30x40xbf16>) -> tensor<1x64x30x40xbf16>
    %10654 = stablehlo.broadcast_in_dim %10652, dims = [0, 1, 2, 3] : (tensor<1x1x30x40xbf16>) -> tensor<1x64x30x40xbf16>
    %10655 = stablehlo.multiply %10653, %10654 : tensor<1x64x30x40xbf16>
    %10656 = stablehlo.slice %10649 [0:1, 1:2, 0:30, 0:40] : (tensor<1x2x30x40xbf16>) -> tensor<1x1x30x40xbf16>
    %10657 = stablehlo.reshape %10656 : (tensor<1x1x30x40xbf16>) -> tensor<1x30x40xbf16>
    %10658 = stablehlo.reshape %10657 : (tensor<1x30x40xbf16>) -> tensor<1x1x30x40xbf16>
    %10659 = stablehlo.broadcast_in_dim %10593, dims = [0, 1, 2, 3] : (tensor<1x64x30x40xbf16>) -> tensor<1x64x30x40xbf16>
    %10660 = stablehlo.broadcast_in_dim %10658, dims = [0, 1, 2, 3] : (tensor<1x1x30x40xbf16>) -> tensor<1x64x30x40xbf16>
    %10661 = stablehlo.multiply %10659, %10660 : tensor<1x64x30x40xbf16>
    %10662 = stablehlo.add %10655, %10661 : tensor<1x64x30x40xbf16>
    %10663 = stablehlo.transpose %10662, dims = [0, 1, 3, 2] : (tensor<1x64x30x40xbf16>) -> tensor<1x64x40x30xbf16>
    %10664 = stablehlo.reshape %10663 : (tensor<1x64x40x30xbf16>) -> tensor<64x40x30xbf16>
    %10665 = stablehlo.broadcast_in_dim %arg953, dims = [0, 1, 2] : (tensor<64x30x60xbf16>) -> tensor<64x30x60xbf16>
    %10666 = stablehlo.dot_general %10664, %10665, batching_dims = [0] x [0], contracting_dims = [2] x [1] : (tensor<64x40x30xbf16>, tensor<64x30x60xbf16>) -> tensor<64x40x60xbf16>
    %10667 = stablehlo.reshape %10666 : (tensor<64x40x60xbf16>) -> tensor<1x64x40x60xbf16>
    %10668 = stablehlo.transpose %10667, dims = [0, 1, 3, 2] : (tensor<1x64x40x60xbf16>) -> tensor<1x64x60x40xbf16>
    %10669 = stablehlo.reshape %10668 : (tensor<1x64x60x40xbf16>) -> tensor<64x60x40xbf16>
    %10670 = stablehlo.broadcast_in_dim %arg954, dims = [0, 1, 2] : (tensor<64x40x80xbf16>) -> tensor<64x40x80xbf16>
    %10671 = stablehlo.dot_general %10669, %10670, batching_dims = [0] x [0], contracting_dims = [2] x [1] : (tensor<64x60x40xbf16>, tensor<64x40x80xbf16>) -> tensor<64x60x80xbf16>
    %10672 = stablehlo.reshape %10671 : (tensor<64x60x80xbf16>) -> tensor<1x64x60x80xbf16>
    %10673 = stablehlo.convolution(%2972, %arg474) dim_numbers = [b, f, 0, 1]x[o, i, 0, 1]->[b, f, 0, 1], window = {stride = [1, 1], pad = [[0, 0], [0, 0]], rhs_dilate = [1, 1]} {batch_group_count = 1 : i64, feature_group_count = 1 : i64} : (tensor<1x128x60x80xbf16>, tensor<64x128x1x1xbf16>) -> tensor<1x64x60x80xbf16>
    %10674 = stablehlo.reshape %arg475 : (tensor<64xbf16>) -> tensor<64x1x1xbf16>
    %10675 = stablehlo.broadcast_in_dim %10673, dims = [0, 1, 2, 3] : (tensor<1x64x60x80xbf16>) -> tensor<1x64x60x80xbf16>
    %10676 = stablehlo.broadcast_in_dim %10674, dims = [1, 2, 3] : (tensor<64x1x1xbf16>) -> tensor<1x64x60x80xbf16>
    %10677 = stablehlo.add %10675, %10676 : tensor<1x64x60x80xbf16>
    %10678 = stablehlo.concatenate %10677, %10672, dim = 1 : (tensor<1x64x60x80xbf16>, tensor<1x64x60x80xbf16>) -> tensor<1x128x60x80xbf16>
    %10679 = stablehlo.convolution(%10678, %arg476) dim_numbers = [b, f, 0, 1]x[o, i, 0, 1]->[b, f, 0, 1], window = {stride = [1, 1], pad = [[1, 1], [1, 1]], rhs_dilate = [1, 1]} {batch_group_count = 1 : i64, feature_group_count = 1 : i64} : (tensor<1x128x60x80xbf16>, tensor<64x128x3x3xbf16>) -> tensor<1x64x60x80xbf16>
    %10680 = stablehlo.reshape %arg477 : (tensor<64xbf16>) -> tensor<64x1x1xbf16>
    %10681 = stablehlo.broadcast_in_dim %10679, dims = [0, 1, 2, 3] : (tensor<1x64x60x80xbf16>) -> tensor<1x64x60x80xbf16>
    %10682 = stablehlo.broadcast_in_dim %10680, dims = [1, 2, 3] : (tensor<64x1x1xbf16>) -> tensor<1x64x60x80xbf16>
    %10683 = stablehlo.add %10681, %10682 : tensor<1x64x60x80xbf16>
    %10684 = stablehlo.convert %10683 : (tensor<1x64x60x80xbf16>) -> tensor<1x64x60x80xf32>
    %10685 = stablehlo.broadcast_in_dim %10684, dims = [0, 1, 2, 3] : (tensor<1x64x60x80xf32>) -> tensor<1x64x60x80xf32>
    %10686 = stablehlo.broadcast_in_dim %arg955, dims = [1, 2, 3] : (tensor<64x1x1xf32>) -> tensor<1x64x60x80xf32>
    %10687 = stablehlo.subtract %10685, %10686 : tensor<1x64x60x80xf32>
    %10688 = stablehlo.broadcast_in_dim %10687, dims = [0, 1, 2, 3] : (tensor<1x64x60x80xf32>) -> tensor<1x64x60x80xf32>
    %10689 = stablehlo.broadcast_in_dim %arg956, dims = [1, 2, 3] : (tensor<64x1x1xf32>) -> tensor<1x64x60x80xf32>
    %10690 = stablehlo.multiply %10688, %10689 : tensor<1x64x60x80xf32>
    %10691 = stablehlo.convert %arg957 : (tensor<64x1x1xbf16>) -> tensor<64x1x1xf32>
    %10692 = stablehlo.broadcast_in_dim %10690, dims = [0, 1, 2, 3] : (tensor<1x64x60x80xf32>) -> tensor<1x64x60x80xf32>
    %10693 = stablehlo.broadcast_in_dim %10691, dims = [1, 2, 3] : (tensor<64x1x1xf32>) -> tensor<1x64x60x80xf32>
    %10694 = stablehlo.multiply %10692, %10693 : tensor<1x64x60x80xf32>
    %10695 = stablehlo.convert %arg958 : (tensor<64x1x1xbf16>) -> tensor<64x1x1xf32>
    %10696 = stablehlo.broadcast_in_dim %10694, dims = [0, 1, 2, 3] : (tensor<1x64x60x80xf32>) -> tensor<1x64x60x80xf32>
    %10697 = stablehlo.broadcast_in_dim %10695, dims = [1, 2, 3] : (tensor<64x1x1xf32>) -> tensor<1x64x60x80xf32>
    %10698 = stablehlo.add %10696, %10697 : tensor<1x64x60x80xf32>
    %10699 = stablehlo.convert %10698 : (tensor<1x64x60x80xf32>) -> tensor<1x64x60x80xbf16>
    %10700 = stablehlo.maximum %10699, %cst_80 : tensor<1x64x60x80xbf16>
    %10701 = stablehlo.convolution(%10700, %arg478) dim_numbers = [b, f, 0, 1]x[o, i, 0, 1]->[b, f, 0, 1], window = {stride = [1, 1], pad = [[1, 1], [1, 1]], rhs_dilate = [1, 1]} {batch_group_count = 1 : i64, feature_group_count = 1 : i64} : (tensor<1x64x60x80xbf16>, tensor<32x64x3x3xbf16>) -> tensor<1x32x60x80xbf16>
    %10702 = stablehlo.reshape %arg479 : (tensor<32xbf16>) -> tensor<32x1x1xbf16>
    %10703 = stablehlo.broadcast_in_dim %10701, dims = [0, 1, 2, 3] : (tensor<1x32x60x80xbf16>) -> tensor<1x32x60x80xbf16>
    %10704 = stablehlo.broadcast_in_dim %10702, dims = [1, 2, 3] : (tensor<32x1x1xbf16>) -> tensor<1x32x60x80xbf16>
    %10705 = stablehlo.add %10703, %10704 : tensor<1x32x60x80xbf16>
    %10706 = stablehlo.convert %10705 : (tensor<1x32x60x80xbf16>) -> tensor<1x32x60x80xf32>
    %10707 = stablehlo.broadcast_in_dim %10706, dims = [0, 1, 2, 3] : (tensor<1x32x60x80xf32>) -> tensor<1x32x60x80xf32>
    %10708 = stablehlo.broadcast_in_dim %arg959, dims = [1, 2, 3] : (tensor<32x1x1xf32>) -> tensor<1x32x60x80xf32>
    %10709 = stablehlo.subtract %10707, %10708 : tensor<1x32x60x80xf32>
    %10710 = stablehlo.broadcast_in_dim %10709, dims = [0, 1, 2, 3] : (tensor<1x32x60x80xf32>) -> tensor<1x32x60x80xf32>
    %10711 = stablehlo.broadcast_in_dim %arg960, dims = [1, 2, 3] : (tensor<32x1x1xf32>) -> tensor<1x32x60x80xf32>
    %10712 = stablehlo.multiply %10710, %10711 : tensor<1x32x60x80xf32>
    %10713 = stablehlo.convert %arg961 : (tensor<32x1x1xbf16>) -> tensor<32x1x1xf32>
    %10714 = stablehlo.broadcast_in_dim %10712, dims = [0, 1, 2, 3] : (tensor<1x32x60x80xf32>) -> tensor<1x32x60x80xf32>
    %10715 = stablehlo.broadcast_in_dim %10713, dims = [1, 2, 3] : (tensor<32x1x1xf32>) -> tensor<1x32x60x80xf32>
    %10716 = stablehlo.multiply %10714, %10715 : tensor<1x32x60x80xf32>
    %10717 = stablehlo.convert %arg962 : (tensor<32x1x1xbf16>) -> tensor<32x1x1xf32>
    %10718 = stablehlo.broadcast_in_dim %10716, dims = [0, 1, 2, 3] : (tensor<1x32x60x80xf32>) -> tensor<1x32x60x80xf32>
    %10719 = stablehlo.broadcast_in_dim %10717, dims = [1, 2, 3] : (tensor<32x1x1xf32>) -> tensor<1x32x60x80xf32>
    %10720 = stablehlo.add %10718, %10719 : tensor<1x32x60x80xf32>
    %10721 = stablehlo.convert %10720 : (tensor<1x32x60x80xf32>) -> tensor<1x32x60x80xbf16>
    %10722 = stablehlo.maximum %10721, %cst_81 : tensor<1x32x60x80xbf16>
    %10723 = stablehlo.convolution(%10722, %arg480) dim_numbers = [b, f, 0, 1]x[o, i, 0, 1]->[b, f, 0, 1], window = {stride = [1, 1], pad = [[1, 1], [1, 1]], rhs_dilate = [1, 1]} {batch_group_count = 1 : i64, feature_group_count = 1 : i64} : (tensor<1x32x60x80xbf16>, tensor<2x32x3x3xbf16>) -> tensor<1x2x60x80xbf16>
    %10724 = stablehlo.reshape %arg481 : (tensor<2xbf16>) -> tensor<2x1x1xbf16>
    %10725 = stablehlo.broadcast_in_dim %10723, dims = [0, 1, 2, 3] : (tensor<1x2x60x80xbf16>) -> tensor<1x2x60x80xbf16>
    %10726 = stablehlo.broadcast_in_dim %10724, dims = [1, 2, 3] : (tensor<2x1x1xbf16>) -> tensor<1x2x60x80xbf16>
    %10727 = stablehlo.add %10725, %10726 : tensor<1x2x60x80xbf16>
    %10728 = stablehlo.logistic %10727 : tensor<1x2x60x80xbf16>
    %10729 = stablehlo.slice %10728 [0:1, 0:1, 0:60, 0:80] : (tensor<1x2x60x80xbf16>) -> tensor<1x1x60x80xbf16>
    %10730 = stablehlo.reshape %10729 : (tensor<1x1x60x80xbf16>) -> tensor<1x60x80xbf16>
    %10731 = stablehlo.reshape %10730 : (tensor<1x60x80xbf16>) -> tensor<1x1x60x80xbf16>
    %10732 = stablehlo.broadcast_in_dim %10677, dims = [0, 1, 2, 3] : (tensor<1x64x60x80xbf16>) -> tensor<1x64x60x80xbf16>
    %10733 = stablehlo.broadcast_in_dim %10731, dims = [0, 1, 2, 3] : (tensor<1x1x60x80xbf16>) -> tensor<1x64x60x80xbf16>
    %10734 = stablehlo.multiply %10732, %10733 : tensor<1x64x60x80xbf16>
    %10735 = stablehlo.slice %10728 [0:1, 1:2, 0:60, 0:80] : (tensor<1x2x60x80xbf16>) -> tensor<1x1x60x80xbf16>
    %10736 = stablehlo.reshape %10735 : (tensor<1x1x60x80xbf16>) -> tensor<1x60x80xbf16>
    %10737 = stablehlo.reshape %10736 : (tensor<1x60x80xbf16>) -> tensor<1x1x60x80xbf16>
    %10738 = stablehlo.broadcast_in_dim %10672, dims = [0, 1, 2, 3] : (tensor<1x64x60x80xbf16>) -> tensor<1x64x60x80xbf16>
    %10739 = stablehlo.broadcast_in_dim %10737, dims = [0, 1, 2, 3] : (tensor<1x1x60x80xbf16>) -> tensor<1x64x60x80xbf16>
    %10740 = stablehlo.multiply %10738, %10739 : tensor<1x64x60x80xbf16>
    %10741 = stablehlo.add %10734, %10740 : tensor<1x64x60x80xbf16>
    %10742 = stablehlo.transpose %10741, dims = [0, 1, 3, 2] : (tensor<1x64x60x80xbf16>) -> tensor<1x64x80x60xbf16>
    %10743 = stablehlo.reshape %10742 : (tensor<1x64x80x60xbf16>) -> tensor<64x80x60xbf16>
    %10744 = stablehlo.broadcast_in_dim %arg963, dims = [0, 1, 2] : (tensor<64x60x120xbf16>) -> tensor<64x60x120xbf16>
    %10745 = stablehlo.dot_general %10743, %10744, batching_dims = [0] x [0], contracting_dims = [2] x [1] : (tensor<64x80x60xbf16>, tensor<64x60x120xbf16>) -> tensor<64x80x120xbf16>
    %10746 = stablehlo.reshape %10745 : (tensor<64x80x120xbf16>) -> tensor<1x64x80x120xbf16>
    %10747 = stablehlo.transpose %10746, dims = [0, 1, 3, 2] : (tensor<1x64x80x120xbf16>) -> tensor<1x64x120x80xbf16>
    %10748 = stablehlo.reshape %10747 : (tensor<1x64x120x80xbf16>) -> tensor<64x120x80xbf16>
    %10749 = stablehlo.broadcast_in_dim %arg964, dims = [0, 1, 2] : (tensor<64x80x160xbf16>) -> tensor<64x80x160xbf16>
    %10750 = stablehlo.dot_general %10748, %10749, batching_dims = [0] x [0], contracting_dims = [2] x [1] : (tensor<64x120x80xbf16>, tensor<64x80x160xbf16>) -> tensor<64x120x160xbf16>
    %10751 = stablehlo.reshape %10750 : (tensor<64x120x160xbf16>) -> tensor<1x64x120x160xbf16>
    %10752 = stablehlo.concatenate %859, %10751, dim = 1 : (tensor<1x64x120x160xbf16>, tensor<1x64x120x160xbf16>) -> tensor<1x128x120x160xbf16>
    %10753 = stablehlo.convolution(%10752, %arg482) dim_numbers = [b, f, 0, 1]x[o, i, 0, 1]->[b, f, 0, 1], window = {stride = [1, 1], pad = [[1, 1], [1, 1]], rhs_dilate = [1, 1]} {batch_group_count = 1 : i64, feature_group_count = 1 : i64} : (tensor<1x128x120x160xbf16>, tensor<64x128x3x3xbf16>) -> tensor<1x64x120x160xbf16>
    %10754 = stablehlo.reshape %arg483 : (tensor<64xbf16>) -> tensor<64x1x1xbf16>
    %10755 = stablehlo.broadcast_in_dim %10753, dims = [0, 1, 2, 3] : (tensor<1x64x120x160xbf16>) -> tensor<1x64x120x160xbf16>
    %10756 = stablehlo.broadcast_in_dim %10754, dims = [1, 2, 3] : (tensor<64x1x1xbf16>) -> tensor<1x64x120x160xbf16>
    %10757 = stablehlo.add %10755, %10756 : tensor<1x64x120x160xbf16>
    %10758 = stablehlo.convert %10757 : (tensor<1x64x120x160xbf16>) -> tensor<1x64x120x160xf32>
    %10759 = stablehlo.broadcast_in_dim %10758, dims = [0, 1, 2, 3] : (tensor<1x64x120x160xf32>) -> tensor<1x64x120x160xf32>
    %10760 = stablehlo.broadcast_in_dim %arg965, dims = [1, 2, 3] : (tensor<64x1x1xf32>) -> tensor<1x64x120x160xf32>
    %10761 = stablehlo.subtract %10759, %10760 : tensor<1x64x120x160xf32>
    %10762 = stablehlo.broadcast_in_dim %10761, dims = [0, 1, 2, 3] : (tensor<1x64x120x160xf32>) -> tensor<1x64x120x160xf32>
    %10763 = stablehlo.broadcast_in_dim %arg966, dims = [1, 2, 3] : (tensor<64x1x1xf32>) -> tensor<1x64x120x160xf32>
    %10764 = stablehlo.multiply %10762, %10763 : tensor<1x64x120x160xf32>
    %10765 = stablehlo.convert %arg967 : (tensor<64x1x1xbf16>) -> tensor<64x1x1xf32>
    %10766 = stablehlo.broadcast_in_dim %10764, dims = [0, 1, 2, 3] : (tensor<1x64x120x160xf32>) -> tensor<1x64x120x160xf32>
    %10767 = stablehlo.broadcast_in_dim %10765, dims = [1, 2, 3] : (tensor<64x1x1xf32>) -> tensor<1x64x120x160xf32>
    %10768 = stablehlo.multiply %10766, %10767 : tensor<1x64x120x160xf32>
    %10769 = stablehlo.convert %arg968 : (tensor<64x1x1xbf16>) -> tensor<64x1x1xf32>
    %10770 = stablehlo.broadcast_in_dim %10768, dims = [0, 1, 2, 3] : (tensor<1x64x120x160xf32>) -> tensor<1x64x120x160xf32>
    %10771 = stablehlo.broadcast_in_dim %10769, dims = [1, 2, 3] : (tensor<64x1x1xf32>) -> tensor<1x64x120x160xf32>
    %10772 = stablehlo.add %10770, %10771 : tensor<1x64x120x160xf32>
    %10773 = stablehlo.convert %10772 : (tensor<1x64x120x160xf32>) -> tensor<1x64x120x160xbf16>
    %10774 = stablehlo.maximum %10773, %cst_82 : tensor<1x64x120x160xbf16>
    %10775 = stablehlo.convolution(%10774, %arg484) dim_numbers = [b, f, 0, 1]x[o, i, 0, 1]->[b, f, 0, 1], window = {stride = [1, 1], pad = [[1, 1], [1, 1]], rhs_dilate = [1, 1]} {batch_group_count = 1 : i64, feature_group_count = 1 : i64} : (tensor<1x64x120x160xbf16>, tensor<32x64x3x3xbf16>) -> tensor<1x32x120x160xbf16>
    %10776 = stablehlo.reshape %arg485 : (tensor<32xbf16>) -> tensor<32x1x1xbf16>
    %10777 = stablehlo.broadcast_in_dim %10775, dims = [0, 1, 2, 3] : (tensor<1x32x120x160xbf16>) -> tensor<1x32x120x160xbf16>
    %10778 = stablehlo.broadcast_in_dim %10776, dims = [1, 2, 3] : (tensor<32x1x1xbf16>) -> tensor<1x32x120x160xbf16>
    %10779 = stablehlo.add %10777, %10778 : tensor<1x32x120x160xbf16>
    %10780 = stablehlo.convert %10779 : (tensor<1x32x120x160xbf16>) -> tensor<1x32x120x160xf32>
    %10781 = stablehlo.broadcast_in_dim %10780, dims = [0, 1, 2, 3] : (tensor<1x32x120x160xf32>) -> tensor<1x32x120x160xf32>
    %10782 = stablehlo.broadcast_in_dim %arg969, dims = [1, 2, 3] : (tensor<32x1x1xf32>) -> tensor<1x32x120x160xf32>
    %10783 = stablehlo.subtract %10781, %10782 : tensor<1x32x120x160xf32>
    %10784 = stablehlo.broadcast_in_dim %10783, dims = [0, 1, 2, 3] : (tensor<1x32x120x160xf32>) -> tensor<1x32x120x160xf32>
    %10785 = stablehlo.broadcast_in_dim %arg970, dims = [1, 2, 3] : (tensor<32x1x1xf32>) -> tensor<1x32x120x160xf32>
    %10786 = stablehlo.multiply %10784, %10785 : tensor<1x32x120x160xf32>
    %10787 = stablehlo.convert %arg971 : (tensor<32x1x1xbf16>) -> tensor<32x1x1xf32>
    %10788 = stablehlo.broadcast_in_dim %10786, dims = [0, 1, 2, 3] : (tensor<1x32x120x160xf32>) -> tensor<1x32x120x160xf32>
    %10789 = stablehlo.broadcast_in_dim %10787, dims = [1, 2, 3] : (tensor<32x1x1xf32>) -> tensor<1x32x120x160xf32>
    %10790 = stablehlo.multiply %10788, %10789 : tensor<1x32x120x160xf32>
    %10791 = stablehlo.convert %arg972 : (tensor<32x1x1xbf16>) -> tensor<32x1x1xf32>
    %10792 = stablehlo.broadcast_in_dim %10790, dims = [0, 1, 2, 3] : (tensor<1x32x120x160xf32>) -> tensor<1x32x120x160xf32>
    %10793 = stablehlo.broadcast_in_dim %10791, dims = [1, 2, 3] : (tensor<32x1x1xf32>) -> tensor<1x32x120x160xf32>
    %10794 = stablehlo.add %10792, %10793 : tensor<1x32x120x160xf32>
    %10795 = stablehlo.convert %10794 : (tensor<1x32x120x160xf32>) -> tensor<1x32x120x160xbf16>
    %10796 = stablehlo.maximum %10795, %cst_83 : tensor<1x32x120x160xbf16>
    %10797 = stablehlo.convolution(%10796, %arg486) dim_numbers = [b, f, 0, 1]x[o, i, 0, 1]->[b, f, 0, 1], window = {stride = [1, 1], pad = [[1, 1], [1, 1]], rhs_dilate = [1, 1]} {batch_group_count = 1 : i64, feature_group_count = 1 : i64} : (tensor<1x32x120x160xbf16>, tensor<2x32x3x3xbf16>) -> tensor<1x2x120x160xbf16>
    %10798 = stablehlo.reshape %arg487 : (tensor<2xbf16>) -> tensor<2x1x1xbf16>
    %10799 = stablehlo.broadcast_in_dim %10797, dims = [0, 1, 2, 3] : (tensor<1x2x120x160xbf16>) -> tensor<1x2x120x160xbf16>
    %10800 = stablehlo.broadcast_in_dim %10798, dims = [1, 2, 3] : (tensor<2x1x1xbf16>) -> tensor<1x2x120x160xbf16>
    %10801 = stablehlo.add %10799, %10800 : tensor<1x2x120x160xbf16>
    %10802 = stablehlo.logistic %10801 : tensor<1x2x120x160xbf16>
    %10803 = stablehlo.slice %10802 [0:1, 0:1, 0:120, 0:160] : (tensor<1x2x120x160xbf16>) -> tensor<1x1x120x160xbf16>
    %10804 = stablehlo.reshape %10803 : (tensor<1x1x120x160xbf16>) -> tensor<1x120x160xbf16>
    %10805 = stablehlo.reshape %10804 : (tensor<1x120x160xbf16>) -> tensor<1x1x120x160xbf16>
    %10806 = stablehlo.broadcast_in_dim %859, dims = [0, 1, 2, 3] : (tensor<1x64x120x160xbf16>) -> tensor<1x64x120x160xbf16>
    %10807 = stablehlo.broadcast_in_dim %10805, dims = [0, 1, 2, 3] : (tensor<1x1x120x160xbf16>) -> tensor<1x64x120x160xbf16>
    %10808 = stablehlo.multiply %10806, %10807 : tensor<1x64x120x160xbf16>
    %10809 = stablehlo.slice %10802 [0:1, 1:2, 0:120, 0:160] : (tensor<1x2x120x160xbf16>) -> tensor<1x1x120x160xbf16>
    %10810 = stablehlo.reshape %10809 : (tensor<1x1x120x160xbf16>) -> tensor<1x120x160xbf16>
    %10811 = stablehlo.reshape %10810 : (tensor<1x120x160xbf16>) -> tensor<1x1x120x160xbf16>
    %10812 = stablehlo.broadcast_in_dim %10751, dims = [0, 1, 2, 3] : (tensor<1x64x120x160xbf16>) -> tensor<1x64x120x160xbf16>
    %10813 = stablehlo.broadcast_in_dim %10811, dims = [0, 1, 2, 3] : (tensor<1x1x120x160xbf16>) -> tensor<1x64x120x160xbf16>
    %10814 = stablehlo.multiply %10812, %10813 : tensor<1x64x120x160xbf16>
    %10815 = stablehlo.add %10808, %10814 : tensor<1x64x120x160xbf16>
    %10816 = stablehlo.transpose %10815, dims = [0, 1, 3, 2] : (tensor<1x64x120x160xbf16>) -> tensor<1x64x160x120xbf16>
    %10817 = stablehlo.reshape %10816 : (tensor<1x64x160x120xbf16>) -> tensor<64x160x120xbf16>
    %10818 = stablehlo.broadcast_in_dim %arg973, dims = [0, 1, 2] : (tensor<64x120x240xbf16>) -> tensor<64x120x240xbf16>
    %10819 = stablehlo.dot_general %10817, %10818, batching_dims = [0] x [0], contracting_dims = [2] x [1] : (tensor<64x160x120xbf16>, tensor<64x120x240xbf16>) -> tensor<64x160x240xbf16>
    %10820 = stablehlo.reshape %10819 : (tensor<64x160x240xbf16>) -> tensor<1x64x160x240xbf16>
    %10821 = stablehlo.transpose %10820, dims = [0, 1, 3, 2] : (tensor<1x64x160x240xbf16>) -> tensor<1x64x240x160xbf16>
    %10822 = stablehlo.reshape %10821 : (tensor<1x64x240x160xbf16>) -> tensor<64x240x160xbf16>
    %10823 = stablehlo.broadcast_in_dim %arg974, dims = [0, 1, 2] : (tensor<64x160x320xbf16>) -> tensor<64x160x320xbf16>
    %10824 = stablehlo.dot_general %10822, %10823, batching_dims = [0] x [0], contracting_dims = [2] x [1] : (tensor<64x240x160xbf16>, tensor<64x160x320xbf16>) -> tensor<64x240x320xbf16>
    %10825 = stablehlo.reshape %10824 : (tensor<64x240x320xbf16>) -> tensor<1x64x240x320xbf16>
    %10826 = stablehlo.transpose %10825, dims = [0, 1, 3, 2] : (tensor<1x64x240x320xbf16>) -> tensor<1x64x320x240xbf16>
    %10827 = stablehlo.reshape %10826 : (tensor<1x64x320x240xbf16>) -> tensor<64x320x240xbf16>
    %10828 = stablehlo.broadcast_in_dim %arg975, dims = [0, 1, 2] : (tensor<64x240x480xbf16>) -> tensor<64x240x480xbf16>
    %10829 = stablehlo.dot_general %10827, %10828, batching_dims = [0] x [0], contracting_dims = [2] x [1] : (tensor<64x320x240xbf16>, tensor<64x240x480xbf16>) -> tensor<64x320x480xbf16>
    %10830 = stablehlo.reshape %10829 : (tensor<64x320x480xbf16>) -> tensor<1x64x320x480xbf16>
    %10831 = stablehlo.transpose %10830, dims = [0, 1, 3, 2] : (tensor<1x64x320x480xbf16>) -> tensor<1x64x480x320xbf16>
    %10832 = stablehlo.reshape %10831 : (tensor<1x64x480x320xbf16>) -> tensor<64x480x320xbf16>
    %10833 = stablehlo.broadcast_in_dim %arg976, dims = [0, 1, 2] : (tensor<64x320x640xbf16>) -> tensor<64x320x640xbf16>
    %10834 = stablehlo.dot_general %10832, %10833, batching_dims = [0] x [0], contracting_dims = [2] x [1] : (tensor<64x480x320xbf16>, tensor<64x320x640xbf16>) -> tensor<64x480x640xbf16>
    %10835 = stablehlo.reshape %10834 : (tensor<64x480x640xbf16>) -> tensor<1x64x480x640xbf16>
    %10836 = stablehlo.convolution(%10835, %arg488) dim_numbers = [b, f, 0, 1]x[o, i, 0, 1]->[b, f, 0, 1], window = {stride = [1, 1], pad = [[1, 1], [1, 1]], rhs_dilate = [1, 1]} {batch_group_count = 1 : i64, feature_group_count = 1 : i64} : (tensor<1x64x480x640xbf16>, tensor<64x64x3x3xbf16>) -> tensor<1x64x480x640xbf16>
    %10837 = stablehlo.reshape %arg489 : (tensor<64xbf16>) -> tensor<64x1x1xbf16>
    %10838 = stablehlo.broadcast_in_dim %10836, dims = [0, 1, 2, 3] : (tensor<1x64x480x640xbf16>) -> tensor<1x64x480x640xbf16>
    %10839 = stablehlo.broadcast_in_dim %10837, dims = [1, 2, 3] : (tensor<64x1x1xbf16>) -> tensor<1x64x480x640xbf16>
    %10840 = stablehlo.add %10838, %10839 : tensor<1x64x480x640xbf16>
    %10841 = stablehlo.maximum %10840, %cst_84 : tensor<1x64x480x640xbf16>
    %10842 = stablehlo.convolution(%10841, %arg490) dim_numbers = [b, f, 0, 1]x[o, i, 0, 1]->[b, f, 0, 1], window = {stride = [1, 1], pad = [[1, 1], [1, 1]], rhs_dilate = [1, 1]} {batch_group_count = 1 : i64, feature_group_count = 1 : i64} : (tensor<1x64x480x640xbf16>, tensor<1x64x3x3xbf16>) -> tensor<1x1x480x640xbf16>
    %10843 = stablehlo.reshape %arg491 : (tensor<1xbf16>) -> tensor<1x1x1xbf16>
    %10844 = stablehlo.broadcast_in_dim %10842, dims = [0, 1, 2, 3] : (tensor<1x1x480x640xbf16>) -> tensor<1x1x480x640xbf16>
    %10845 = stablehlo.broadcast_in_dim %10843, dims = [1, 2, 3] : (tensor<1x1x1xbf16>) -> tensor<1x1x480x640xbf16>
    %10846 = stablehlo.add %10844, %10845 : tensor<1x1x480x640xbf16>
    %10847 = stablehlo.logistic %10846 : tensor<1x1x480x640xbf16>
    %10848 = stablehlo.convert %cst_92 : (tensor<1xi64>) -> tensor<1xbf16>
    %10849 = stablehlo.reshape %10848 : (tensor<1xbf16>) -> tensor<bf16>
    %10850 = stablehlo.broadcast_in_dim %10847, dims = [0, 1, 2, 3] : (tensor<1x1x480x640xbf16>) -> tensor<1x1x480x640xbf16>
    %10851 = stablehlo.broadcast_in_dim %10849, dims = [] : (tensor<bf16>) -> tensor<1x1x480x640xbf16>
    %10852 = stablehlo.multiply %10850, %10851 : tensor<1x1x480x640xbf16>
    %10853 = stablehlo.reshape %10852 : (tensor<1x1x480x640xbf16>) -> tensor<1x480x640xbf16>
    return %10853 : tensor<1x480x640xbf16>
  }
}
