module {
  func.func @main(%arg0: tensor<1x3x224x224xbf16>, %arg1: tensor<1024x3x16x16xbf16>, %arg2: tensor<1024xbf16>, %arg3: tensor<1024xbf16>, %arg4: tensor<1024xbf16>, %arg5: tensor<1024xbf16>, %arg6: tensor<1024xbf16>, %arg7: tensor<1024xbf16>, %arg8: tensor<1024xbf16>, %arg9: tensor<1024xbf16>, %arg10: tensor<1024xbf16>, %arg11: tensor<1024xbf16>, %arg12: tensor<1024xbf16>, %arg13: tensor<1024xbf16>, %arg14: tensor<1024xbf16>, %arg15: tensor<1024xbf16>, %arg16: tensor<1024xbf16>, %arg17: tensor<1024xbf16>, %arg18: tensor<1024xbf16>, %arg19: tensor<1024xbf16>, %arg20: tensor<1024xbf16>, %arg21: tensor<1024xbf16>, %arg22: tensor<1024xbf16>, %arg23: tensor<1024xbf16>, %arg24: tensor<1024xbf16>, %arg25: tensor<1024xbf16>, %arg26: tensor<1024xbf16>, %arg27: tensor<1024xbf16>, %arg28: tensor<1024xbf16>, %arg29: tensor<1024xbf16>, %arg30: tensor<1024xbf16>, %arg31: tensor<1024xbf16>, %arg32: tensor<1024xbf16>, %arg33: tensor<1024xbf16>, %arg34: tensor<1024xbf16>, %arg35: tensor<1024xbf16>, %arg36: tensor<1024xbf16>, %arg37: tensor<1024xbf16>, %arg38: tensor<1024xbf16>, %arg39: tensor<1024xbf16>, %arg40: tensor<1024xbf16>, %arg41: tensor<1024xbf16>, %arg42: tensor<1024xbf16>, %arg43: tensor<1024xbf16>, %arg44: tensor<1024xbf16>, %arg45: tensor<1024xbf16>, %arg46: tensor<1024xbf16>, %arg47: tensor<1024xbf16>, %arg48: tensor<1024xbf16>, %arg49: tensor<1024xbf16>, %arg50: tensor<1024xbf16>, %arg51: tensor<1024xbf16>, %arg52: tensor<1024xbf16>, %arg53: tensor<1024xbf16>, %arg54: tensor<1024xbf16>, %arg55: tensor<1024xbf16>, %arg56: tensor<1024xbf16>, %arg57: tensor<1024xbf16>, %arg58: tensor<1024xbf16>, %arg59: tensor<1024xbf16>, %arg60: tensor<1024xbf16>, %arg61: tensor<1024xbf16>, %arg62: tensor<1024xbf16>, %arg63: tensor<1024xbf16>, %arg64: tensor<1024xbf16>, %arg65: tensor<1024xbf16>, %arg66: tensor<1024xbf16>, %arg67: tensor<1024xbf16>, %arg68: tensor<1024xbf16>, %arg69: tensor<1024xbf16>, %arg70: tensor<1024xbf16>, %arg71: tensor<1024xbf16>, %arg72: tensor<1024xbf16>, %arg73: tensor<1024xbf16>, %arg74: tensor<1024xbf16>, %arg75: tensor<1024xbf16>, %arg76: tensor<1024xbf16>, %arg77: tensor<1024xbf16>, %arg78: tensor<1024xbf16>, %arg79: tensor<1024xbf16>, %arg80: tensor<1024xbf16>, %arg81: tensor<1024xbf16>, %arg82: tensor<1024xbf16>, %arg83: tensor<1024xbf16>, %arg84: tensor<1024xbf16>, %arg85: tensor<1024xbf16>, %arg86: tensor<1024xbf16>, %arg87: tensor<1024xbf16>, %arg88: tensor<1024xbf16>, %arg89: tensor<1024xbf16>, %arg90: tensor<1024xbf16>, %arg91: tensor<1024xbf16>, %arg92: tensor<1024xbf16>, %arg93: tensor<1024xbf16>, %arg94: tensor<1024xbf16>, %arg95: tensor<1024xbf16>, %arg96: tensor<1024xbf16>, %arg97: tensor<1024xbf16>, %arg98: tensor<1024xbf16>, %arg99: tensor<1024xbf16>, %arg100: tensor<1024xbf16>, %arg101: tensor<1024xbf16>, %arg102: tensor<1024xbf16>, %arg103: tensor<1024xbf16>, %arg104: tensor<1024xbf16>, %arg105: tensor<1024xbf16>, %arg106: tensor<1024xbf16>, %arg107: tensor<1024xbf16>, %arg108: tensor<1024xbf16>, %arg109: tensor<1024xbf16>, %arg110: tensor<1024xbf16>, %arg111: tensor<1024xbf16>, %arg112: tensor<1024xbf16>, %arg113: tensor<1024xbf16>, %arg114: tensor<1024xbf16>, %arg115: tensor<1024xbf16>, %arg116: tensor<1024xbf16>, %arg117: tensor<1024xbf16>, %arg118: tensor<1024xbf16>, %arg119: tensor<1024xbf16>, %arg120: tensor<1024xbf16>, %arg121: tensor<1024xbf16>, %arg122: tensor<1024xbf16>, %arg123: tensor<1024xbf16>, %arg124: tensor<1024xbf16>, %arg125: tensor<1024xbf16>, %arg126: tensor<1024xbf16>, %arg127: tensor<1024xbf16>, %arg128: tensor<1024xbf16>, %arg129: tensor<1024xbf16>, %arg130: tensor<1024xbf16>, %arg131: tensor<1024xbf16>, %arg132: tensor<1024xbf16>, %arg133: tensor<1024xbf16>, %arg134: tensor<1024xbf16>, %arg135: tensor<1024xbf16>, %arg136: tensor<1024xbf16>, %arg137: tensor<1024xbf16>, %arg138: tensor<1024xbf16>, %arg139: tensor<1024xbf16>, %arg140: tensor<1024xbf16>, %arg141: tensor<1024xbf16>, %arg142: tensor<1024xbf16>, %arg143: tensor<1024xbf16>, %arg144: tensor<1024xbf16>, %arg145: tensor<1024xbf16>, %arg146: tensor<1024xbf16>, %arg147: tensor<1024xbf16>, %arg148: tensor<1024xbf16>, %arg149: tensor<1x1x1024xbf16>, %arg150: tensor<1024x1024xf32>, %arg151: tensor<1024xf32>, %arg152: tensor<1024x1024xbf16>, %arg153: tensor<1024x1024xf32>, %arg154: tensor<1024xf32>, %arg155: tensor<1x16x197x197xbf16>, %arg156: tensor<1024x1024xf32>, %arg157: tensor<1024xf32>, %arg158: tensor<1024x4096xf32>, %arg159: tensor<4096xf32>, %arg160: tensor<4096x1024xf32>, %arg161: tensor<1024xf32>, %arg162: tensor<1024x1024xf32>, %arg163: tensor<1024xf32>, %arg164: tensor<1024x1024xbf16>, %arg165: tensor<1024x1024xf32>, %arg166: tensor<1024xf32>, %arg167: tensor<1x16x197x197xbf16>, %arg168: tensor<1024x1024xf32>, %arg169: tensor<1024xf32>, %arg170: tensor<1024x4096xf32>, %arg171: tensor<4096xf32>, %arg172: tensor<4096x1024xf32>, %arg173: tensor<1024xf32>, %arg174: tensor<1024x1024xf32>, %arg175: tensor<1024xf32>, %arg176: tensor<1024x1024xbf16>, %arg177: tensor<1024x1024xf32>, %arg178: tensor<1024xf32>, %arg179: tensor<1x16x197x197xbf16>, %arg180: tensor<1024x1024xf32>, %arg181: tensor<1024xf32>, %arg182: tensor<1024x4096xf32>, %arg183: tensor<4096xf32>, %arg184: tensor<4096x1024xf32>, %arg185: tensor<1024xf32>, %arg186: tensor<1024x1024xf32>, %arg187: tensor<1024xf32>, %arg188: tensor<1024x1024xbf16>, %arg189: tensor<1024x1024xf32>, %arg190: tensor<1024xf32>, %arg191: tensor<1x16x197x197xbf16>, %arg192: tensor<1024x1024xf32>, %arg193: tensor<1024xf32>, %arg194: tensor<1024x4096xf32>, %arg195: tensor<4096xf32>, %arg196: tensor<4096x1024xf32>, %arg197: tensor<1024xf32>, %arg198: tensor<1024x1024xf32>, %arg199: tensor<1024xf32>, %arg200: tensor<1024x1024xbf16>, %arg201: tensor<1024x1024xf32>, %arg202: tensor<1024xf32>, %arg203: tensor<1x16x197x197xbf16>, %arg204: tensor<1024x1024xf32>, %arg205: tensor<1024xf32>, %arg206: tensor<1024x4096xf32>, %arg207: tensor<4096xf32>, %arg208: tensor<4096x1024xf32>, %arg209: tensor<1024xf32>, %arg210: tensor<1024x1024xf32>, %arg211: tensor<1024xf32>, %arg212: tensor<1024x1024xbf16>, %arg213: tensor<1024x1024xf32>, %arg214: tensor<1024xf32>, %arg215: tensor<1x16x197x197xbf16>, %arg216: tensor<1024x1024xf32>, %arg217: tensor<1024xf32>, %arg218: tensor<1024x4096xf32>, %arg219: tensor<4096xf32>, %arg220: tensor<4096x1024xf32>, %arg221: tensor<1024xf32>, %arg222: tensor<1024x1024xf32>, %arg223: tensor<1024xf32>, %arg224: tensor<1024x1024xbf16>, %arg225: tensor<1024x1024xf32>, %arg226: tensor<1024xf32>, %arg227: tensor<1x16x197x197xbf16>, %arg228: tensor<1024x1024xf32>, %arg229: tensor<1024xf32>, %arg230: tensor<1024x4096xf32>, %arg231: tensor<4096xf32>, %arg232: tensor<4096x1024xf32>, %arg233: tensor<1024xf32>, %arg234: tensor<1024x1024xf32>, %arg235: tensor<1024xf32>, %arg236: tensor<1024x1024xbf16>, %arg237: tensor<1024x1024xf32>, %arg238: tensor<1024xf32>, %arg239: tensor<1x16x197x197xbf16>, %arg240: tensor<1024x1024xf32>, %arg241: tensor<1024xf32>, %arg242: tensor<1024x4096xf32>, %arg243: tensor<4096xf32>, %arg244: tensor<4096x1024xf32>, %arg245: tensor<1024xf32>, %arg246: tensor<1024x1024xf32>, %arg247: tensor<1024xf32>, %arg248: tensor<1024x1024xbf16>, %arg249: tensor<1024x1024xf32>, %arg250: tensor<1024xf32>, %arg251: tensor<1x16x197x197xbf16>, %arg252: tensor<1024x1024xf32>, %arg253: tensor<1024xf32>, %arg254: tensor<1024x4096xf32>, %arg255: tensor<4096xf32>, %arg256: tensor<4096x1024xf32>, %arg257: tensor<1024xf32>, %arg258: tensor<1024x1024xf32>, %arg259: tensor<1024xf32>, %arg260: tensor<1024x1024xbf16>, %arg261: tensor<1024x1024xf32>, %arg262: tensor<1024xf32>, %arg263: tensor<1x16x197x197xbf16>, %arg264: tensor<1024x1024xf32>, %arg265: tensor<1024xf32>, %arg266: tensor<1024x4096xf32>, %arg267: tensor<4096xf32>, %arg268: tensor<4096x1024xf32>, %arg269: tensor<1024xf32>, %arg270: tensor<1024x1024xf32>, %arg271: tensor<1024xf32>, %arg272: tensor<1024x1024xbf16>, %arg273: tensor<1024x1024xf32>, %arg274: tensor<1024xf32>, %arg275: tensor<1x16x197x197xbf16>, %arg276: tensor<1024x1024xf32>, %arg277: tensor<1024xf32>, %arg278: tensor<1024x4096xf32>, %arg279: tensor<4096xf32>, %arg280: tensor<4096x1024xf32>, %arg281: tensor<1024xf32>, %arg282: tensor<1024x1024xf32>, %arg283: tensor<1024xf32>, %arg284: tensor<1024x1024xbf16>, %arg285: tensor<1024x1024xf32>, %arg286: tensor<1024xf32>, %arg287: tensor<1x16x197x197xbf16>, %arg288: tensor<1024x1024xf32>, %arg289: tensor<1024xf32>, %arg290: tensor<1024x4096xf32>, %arg291: tensor<4096xf32>, %arg292: tensor<4096x1024xf32>, %arg293: tensor<1024xf32>, %arg294: tensor<1024x1024xf32>, %arg295: tensor<1024xf32>, %arg296: tensor<1024x1024xbf16>, %arg297: tensor<1024x1024xf32>, %arg298: tensor<1024xf32>, %arg299: tensor<1x16x197x197xbf16>, %arg300: tensor<1024x1024xf32>, %arg301: tensor<1024xf32>, %arg302: tensor<1024x4096xf32>, %arg303: tensor<4096xf32>, %arg304: tensor<4096x1024xf32>, %arg305: tensor<1024xf32>, %arg306: tensor<1024x1024xf32>, %arg307: tensor<1024xf32>, %arg308: tensor<1024x1024xbf16>, %arg309: tensor<1024x1024xf32>, %arg310: tensor<1024xf32>, %arg311: tensor<1x16x197x197xbf16>, %arg312: tensor<1024x1024xf32>, %arg313: tensor<1024xf32>, %arg314: tensor<1024x4096xf32>, %arg315: tensor<4096xf32>, %arg316: tensor<4096x1024xf32>, %arg317: tensor<1024xf32>, %arg318: tensor<1024x1024xf32>, %arg319: tensor<1024xf32>, %arg320: tensor<1024x1024xbf16>, %arg321: tensor<1024x1024xf32>, %arg322: tensor<1024xf32>, %arg323: tensor<1x16x197x197xbf16>, %arg324: tensor<1024x1024xf32>, %arg325: tensor<1024xf32>, %arg326: tensor<1024x4096xf32>, %arg327: tensor<4096xf32>, %arg328: tensor<4096x1024xf32>, %arg329: tensor<1024xf32>, %arg330: tensor<1024x1024xf32>, %arg331: tensor<1024xf32>, %arg332: tensor<1024x1024xbf16>, %arg333: tensor<1024x1024xf32>, %arg334: tensor<1024xf32>, %arg335: tensor<1x16x197x197xbf16>, %arg336: tensor<1024x1024xf32>, %arg337: tensor<1024xf32>, %arg338: tensor<1024x4096xf32>, %arg339: tensor<4096xf32>, %arg340: tensor<4096x1024xf32>, %arg341: tensor<1024xf32>, %arg342: tensor<1024x1024xf32>, %arg343: tensor<1024xf32>, %arg344: tensor<1024x1024xbf16>, %arg345: tensor<1024x1024xf32>, %arg346: tensor<1024xf32>, %arg347: tensor<1x16x197x197xbf16>, %arg348: tensor<1024x1024xf32>, %arg349: tensor<1024xf32>, %arg350: tensor<1024x4096xf32>, %arg351: tensor<4096xf32>, %arg352: tensor<4096x1024xf32>, %arg353: tensor<1024xf32>, %arg354: tensor<1024x1024xf32>, %arg355: tensor<1024xf32>, %arg356: tensor<1024x1024xbf16>, %arg357: tensor<1024x1024xf32>, %arg358: tensor<1024xf32>, %arg359: tensor<1x16x197x197xbf16>, %arg360: tensor<1024x1024xf32>, %arg361: tensor<1024xf32>, %arg362: tensor<1024x4096xf32>, %arg363: tensor<4096xf32>, %arg364: tensor<4096x1024xf32>, %arg365: tensor<1024xf32>, %arg366: tensor<1024x1024xf32>, %arg367: tensor<1024xf32>, %arg368: tensor<1024x1024xbf16>, %arg369: tensor<1024x1024xf32>, %arg370: tensor<1024xf32>, %arg371: tensor<1x16x197x197xbf16>, %arg372: tensor<1024x1024xf32>, %arg373: tensor<1024xf32>, %arg374: tensor<1024x4096xf32>, %arg375: tensor<4096xf32>, %arg376: tensor<4096x1024xf32>, %arg377: tensor<1024xf32>, %arg378: tensor<1024x1024xf32>, %arg379: tensor<1024xf32>, %arg380: tensor<1024x1024xbf16>, %arg381: tensor<1024x1024xf32>, %arg382: tensor<1024xf32>, %arg383: tensor<1x16x197x197xbf16>, %arg384: tensor<1024x1024xf32>, %arg385: tensor<1024xf32>, %arg386: tensor<1024x4096xf32>, %arg387: tensor<4096xf32>, %arg388: tensor<4096x1024xf32>, %arg389: tensor<1024xf32>, %arg390: tensor<1024x1024xf32>, %arg391: tensor<1024xf32>, %arg392: tensor<1024x1024xbf16>, %arg393: tensor<1024x1024xf32>, %arg394: tensor<1024xf32>, %arg395: tensor<1x16x197x197xbf16>, %arg396: tensor<1024x1024xf32>, %arg397: tensor<1024xf32>, %arg398: tensor<1024x4096xf32>, %arg399: tensor<4096xf32>, %arg400: tensor<4096x1024xf32>, %arg401: tensor<1024xf32>, %arg402: tensor<1024x1024xf32>, %arg403: tensor<1024xf32>, %arg404: tensor<1024x1024xbf16>, %arg405: tensor<1024x1024xf32>, %arg406: tensor<1024xf32>, %arg407: tensor<1x16x197x197xbf16>, %arg408: tensor<1024x1024xf32>, %arg409: tensor<1024xf32>, %arg410: tensor<1024x4096xf32>, %arg411: tensor<4096xf32>, %arg412: tensor<4096x1024xf32>, %arg413: tensor<1024xf32>, %arg414: tensor<1024x1024xf32>, %arg415: tensor<1024xf32>, %arg416: tensor<1024x1024xbf16>, %arg417: tensor<1024x1024xf32>, %arg418: tensor<1024xf32>, %arg419: tensor<1x16x197x197xbf16>, %arg420: tensor<1024x1024xf32>, %arg421: tensor<1024xf32>, %arg422: tensor<1024x4096xf32>, %arg423: tensor<4096xf32>, %arg424: tensor<4096x1024xf32>, %arg425: tensor<1024xf32>, %arg426: tensor<1024x1024xf32>, %arg427: tensor<1024xf32>, %arg428: tensor<1024x1024xbf16>, %arg429: tensor<1024x1024xf32>, %arg430: tensor<1024xf32>, %arg431: tensor<1x16x197x197xbf16>, %arg432: tensor<1024x1024xf32>, %arg433: tensor<1024xf32>, %arg434: tensor<1024x4096xf32>, %arg435: tensor<4096xf32>, %arg436: tensor<4096x1024xf32>, %arg437: tensor<1024xf32>, %arg438: tensor<1024x1000xf32>, %arg439: tensor<1000xf32>) -> tensor<1x1000xbf16> {
    %cst = stablehlo.constant dense<0.000000e+00> : tensor<f64>
    %cst_0 = stablehlo.constant dense<0.000000e+00> : tensor<f32>
    %cst_1 = stablehlo.constant dense<0xFF800000> : tensor<f32>
    %cst_2 = stablehlo.constant dense<1.000000e+00> : tensor<1x197x4096xbf16>
    %cst_3 = stablehlo.constant dense<2.000000e+00> : tensor<1x197x4096xbf16>
    %cst_4 = stablehlo.constant dense<5.000000e-01> : tensor<1x197x4096xbf16>
    %cst_5 = stablehlo.constant dense<-4.000000e+00> : tensor<1x197x4096xf32>
    %cst_6 = stablehlo.constant dense<4.000000e+00> : tensor<1x197x4096xf32>
    %cst_7 = stablehlo.constant dense<-2.72614237E-10> : tensor<1x197x4096xf32>
    %cst_8 = stablehlo.constant dense<2.77068146E-8> : tensor<1x197x4096xf32>
    %cst_9 = stablehlo.constant dense<-2.10102394E-6> : tensor<1x197x4096xf32>
    %cst_10 = stablehlo.constant dense<-5.69250624E-5> : tensor<1x197x4096xf32>
    %cst_11 = stablehlo.constant dense<-7.34990637E-4> : tensor<1x197x4096xf32>
    %cst_12 = stablehlo.constant dense<-2.954600e-03> : tensor<1x197x4096xf32>
    %cst_13 = stablehlo.constant dense<-0.0160960332> : tensor<1x197x4096xf32>
    %cst_14 = stablehlo.constant dense<-1.45660715E-5> : tensor<1x197x4096xf32>
    %cst_15 = stablehlo.constant dense<-2.13374049E-4> : tensor<1x197x4096xf32>
    %cst_16 = stablehlo.constant dense<-0.00168282702> : tensor<1x197x4096xf32>
    %cst_17 = stablehlo.constant dense<-0.00737332925> : tensor<1x197x4096xf32>
    %cst_18 = stablehlo.constant dense<-0.0142647391> : tensor<1x197x4096xf32>
    %cst_19 = stablehlo.constant dense<-1.000000e+00> : tensor<1x197x4096xf32>
    %cst_20 = stablehlo.constant dense<1.000000e+00> : tensor<1x197x4096xf32>
    %cst_21 = stablehlo.constant dense<0.000000e+00> : tensor<bf16>
    %cst_22 = arith.constant dense<1024> : tensor<1xi64>
    %cst_23 = arith.constant dense<9.9999999999999998E-13> : tensor<1xf64>
    %cst_24 = arith.constant dense<1> : tensor<1xi64>
    %cst_25 = arith.constant dense<8.000000e+00> : tensor<1xf64>
    %cst_26 = arith.constant dense<196> : tensor<1xi64>
    %0 = stablehlo.convolution(%arg0, %arg1) dim_numbers = [b, f, 0, 1]x[o, i, 0, 1]->[b, f, 0, 1], window = {stride = [16, 16], pad = [[0, 0], [0, 0]], rhs_dilate = [1, 1]} {batch_group_count = 1 : i64, feature_group_count = 1 : i64} : (tensor<1x3x224x224xbf16>, tensor<1024x3x16x16xbf16>) -> tensor<1x1024x14x14xbf16>
    %1 = stablehlo.reshape %arg2 : (tensor<1024xbf16>) -> tensor<1024x1x1xbf16>
    %2 = stablehlo.broadcast_in_dim %0, dims = [0, 1, 2, 3] : (tensor<1x1024x14x14xbf16>) -> tensor<1x1024x14x14xbf16>
    %3 = stablehlo.broadcast_in_dim %1, dims = [1, 2, 3] : (tensor<1024x1x1xbf16>) -> tensor<1x1024x14x14xbf16>
    %4 = stablehlo.add %2, %3 : tensor<1x1024x14x14xbf16>
    %5 = stablehlo.reshape %4 : (tensor<1x1024x14x14xbf16>) -> tensor<1x1024x196xbf16>
    %6 = stablehlo.transpose %5, dims = [0, 2, 1] : (tensor<1x1024x196xbf16>) -> tensor<1x196x1024xbf16>
    %7 = stablehlo.concatenate %arg149, %6, dim = 1 : (tensor<1x1x1024xbf16>, tensor<1x196x1024xbf16>) -> tensor<1x197x1024xbf16>
    %8 = stablehlo.convert %7 : (tensor<1x197x1024xbf16>) -> tensor<1x197x1024xf32>
    %9 = stablehlo.convert %8 : (tensor<1x197x1024xf32>) -> tensor<1x197x1024xf64>
    %10 = stablehlo.reduce(%9 init: %cst) applies stablehlo.add across dimensions = [2] : (tensor<1x197x1024xf64>, tensor<f64>) -> tensor<1x197xf64>
    %11 = stablehlo.reshape %10 : (tensor<1x197xf64>) -> tensor<1x197x1xf64>
    %12 = stablehlo.convert %cst_22 : (tensor<1xi64>) -> tensor<1xf64>
    %13 = stablehlo.reshape %12 : (tensor<1xf64>) -> tensor<f64>
    %14 = stablehlo.broadcast_in_dim %11, dims = [0, 1, 2] : (tensor<1x197x1xf64>) -> tensor<1x197x1xf64>
    %15 = stablehlo.broadcast_in_dim %13, dims = [] : (tensor<f64>) -> tensor<1x197x1xf64>
    %16 = stablehlo.divide %14, %15 : tensor<1x197x1xf64>
    %17 = stablehlo.broadcast_in_dim %9, dims = [0, 1, 2] : (tensor<1x197x1024xf64>) -> tensor<1x197x1024xf64>
    %18 = stablehlo.broadcast_in_dim %16, dims = [0, 1, 2] : (tensor<1x197x1xf64>) -> tensor<1x197x1024xf64>
    %19 = stablehlo.subtract %17, %18 : tensor<1x197x1024xf64>
    %20 = stablehlo.multiply %19, %19 : tensor<1x197x1024xf64>
    %21 = stablehlo.reduce(%20 init: %cst) applies stablehlo.add across dimensions = [2] : (tensor<1x197x1024xf64>, tensor<f64>) -> tensor<1x197xf64>
    %22 = stablehlo.reshape %21 : (tensor<1x197xf64>) -> tensor<1x197x1xf64>
    %23 = stablehlo.broadcast_in_dim %22, dims = [0, 1, 2] : (tensor<1x197x1xf64>) -> tensor<1x197x1xf64>
    %24 = stablehlo.divide %23, %15 : tensor<1x197x1xf64>
    %25 = stablehlo.convert %24 : (tensor<1x197x1xf64>) -> tensor<1x197x1xf32>
    %26 = stablehlo.reduce(%8 init: %cst_0) applies stablehlo.add across dimensions = [2] : (tensor<1x197x1024xf32>, tensor<f32>) -> tensor<1x197xf32>
    %27 = stablehlo.reshape %26 : (tensor<1x197xf32>) -> tensor<1x197x1xf32>
    %28 = stablehlo.convert %cst_22 : (tensor<1xi64>) -> tensor<1xf32>
    %29 = stablehlo.reshape %28 : (tensor<1xf32>) -> tensor<f32>
    %30 = stablehlo.broadcast_in_dim %27, dims = [0, 1, 2] : (tensor<1x197x1xf32>) -> tensor<1x197x1xf32>
    %31 = stablehlo.broadcast_in_dim %29, dims = [] : (tensor<f32>) -> tensor<1x197x1xf32>
    %32 = stablehlo.divide %30, %31 : tensor<1x197x1xf32>
    %33 = stablehlo.convert %cst_23 : (tensor<1xf64>) -> tensor<1xf32>
    %34 = stablehlo.reshape %33 : (tensor<1xf32>) -> tensor<f32>
    %35 = stablehlo.broadcast_in_dim %25, dims = [0, 1, 2] : (tensor<1x197x1xf32>) -> tensor<1x197x1xf32>
    %36 = stablehlo.broadcast_in_dim %34, dims = [] : (tensor<f32>) -> tensor<1x197x1xf32>
    %37 = stablehlo.add %35, %36 : tensor<1x197x1xf32>
    %38 = stablehlo.rsqrt %37 : tensor<1x197x1xf32>
    %39 = stablehlo.broadcast_in_dim %8, dims = [0, 1, 2] : (tensor<1x197x1024xf32>) -> tensor<1x197x1024xf32>
    %40 = stablehlo.broadcast_in_dim %32, dims = [0, 1, 2] : (tensor<1x197x1xf32>) -> tensor<1x197x1024xf32>
    %41 = stablehlo.subtract %39, %40 : tensor<1x197x1024xf32>
    %42 = stablehlo.broadcast_in_dim %41, dims = [0, 1, 2] : (tensor<1x197x1024xf32>) -> tensor<1x197x1024xf32>
    %43 = stablehlo.broadcast_in_dim %38, dims = [0, 1, 2] : (tensor<1x197x1xf32>) -> tensor<1x197x1024xf32>
    %44 = stablehlo.multiply %42, %43 : tensor<1x197x1024xf32>
    %45 = stablehlo.convert %arg3 : (tensor<1024xbf16>) -> tensor<1024xf32>
    %46 = stablehlo.broadcast_in_dim %44, dims = [0, 1, 2] : (tensor<1x197x1024xf32>) -> tensor<1x197x1024xf32>
    %47 = stablehlo.broadcast_in_dim %45, dims = [2] : (tensor<1024xf32>) -> tensor<1x197x1024xf32>
    %48 = stablehlo.multiply %46, %47 : tensor<1x197x1024xf32>
    %49 = stablehlo.convert %arg4 : (tensor<1024xbf16>) -> tensor<1024xf32>
    %50 = stablehlo.broadcast_in_dim %48, dims = [0, 1, 2] : (tensor<1x197x1024xf32>) -> tensor<1x197x1024xf32>
    %51 = stablehlo.broadcast_in_dim %49, dims = [2] : (tensor<1024xf32>) -> tensor<1x197x1024xf32>
    %52 = stablehlo.add %50, %51 : tensor<1x197x1024xf32>
    %53 = stablehlo.convert %52 : (tensor<1x197x1024xf32>) -> tensor<1x197x1024xbf16>
    %54 = stablehlo.reshape %53 : (tensor<1x197x1024xbf16>) -> tensor<197x1024xbf16>
    %55 = stablehlo.convert %54 : (tensor<197x1024xbf16>) -> tensor<197x1024xf32>
    %56 = stablehlo.dot_general %55, %arg150, contracting_dims = [1] x [0] : (tensor<197x1024xf32>, tensor<1024x1024xf32>) -> tensor<197x1024xf32>
    %57 = stablehlo.convert %cst_24 : (tensor<1xi64>) -> tensor<1xf32>
    %58 = stablehlo.reshape %57 : (tensor<1xf32>) -> tensor<f32>
    %59 = stablehlo.broadcast_in_dim %56, dims = [0, 1] : (tensor<197x1024xf32>) -> tensor<197x1024xf32>
    %60 = stablehlo.broadcast_in_dim %58, dims = [] : (tensor<f32>) -> tensor<197x1024xf32>
    %61 = stablehlo.multiply %59, %60 : tensor<197x1024xf32>
    %62 = stablehlo.broadcast_in_dim %61, dims = [0, 1] : (tensor<197x1024xf32>) -> tensor<197x1024xf32>
    %63 = stablehlo.broadcast_in_dim %arg151, dims = [1] : (tensor<1024xf32>) -> tensor<197x1024xf32>
    %64 = stablehlo.add %62, %63 : tensor<197x1024xf32>
    %65 = stablehlo.convert %64 : (tensor<197x1024xf32>) -> tensor<197x1024xbf16>
    %66 = stablehlo.reshape %65 : (tensor<197x1024xbf16>) -> tensor<1x197x1024xbf16>
    %67 = stablehlo.dot_general %54, %arg152, contracting_dims = [1] x [0] : (tensor<197x1024xbf16>, tensor<1024x1024xbf16>) -> tensor<197x1024xbf16>
    %68 = stablehlo.reshape %67 : (tensor<197x1024xbf16>) -> tensor<1x197x1024xbf16>
    %69 = stablehlo.reshape %68 : (tensor<1x197x1024xbf16>) -> tensor<1x197x16x64xbf16>
    %70 = stablehlo.transpose %69, dims = [0, 2, 1, 3] : (tensor<1x197x16x64xbf16>) -> tensor<1x16x197x64xbf16>
    %71 = stablehlo.dot_general %55, %arg153, contracting_dims = [1] x [0] : (tensor<197x1024xf32>, tensor<1024x1024xf32>) -> tensor<197x1024xf32>
    %72 = stablehlo.broadcast_in_dim %71, dims = [0, 1] : (tensor<197x1024xf32>) -> tensor<197x1024xf32>
    %73 = stablehlo.multiply %72, %60 : tensor<197x1024xf32>
    %74 = stablehlo.broadcast_in_dim %73, dims = [0, 1] : (tensor<197x1024xf32>) -> tensor<197x1024xf32>
    %75 = stablehlo.broadcast_in_dim %arg154, dims = [1] : (tensor<1024xf32>) -> tensor<197x1024xf32>
    %76 = stablehlo.add %74, %75 : tensor<197x1024xf32>
    %77 = stablehlo.convert %76 : (tensor<197x1024xf32>) -> tensor<197x1024xbf16>
    %78 = stablehlo.reshape %77 : (tensor<197x1024xbf16>) -> tensor<1x197x1024xbf16>
    %79 = stablehlo.reshape %78 : (tensor<1x197x1024xbf16>) -> tensor<1x197x16x64xbf16>
    %80 = stablehlo.transpose %79, dims = [0, 2, 1, 3] : (tensor<1x197x16x64xbf16>) -> tensor<1x16x197x64xbf16>
    %81 = stablehlo.reshape %66 : (tensor<1x197x1024xbf16>) -> tensor<1x197x16x64xbf16>
    %82 = stablehlo.transpose %81, dims = [0, 2, 1, 3] : (tensor<1x197x16x64xbf16>) -> tensor<1x16x197x64xbf16>
    %83 = stablehlo.transpose %70, dims = [0, 1, 3, 2] : (tensor<1x16x197x64xbf16>) -> tensor<1x16x64x197xbf16>
    %84 = stablehlo.reshape %82 : (tensor<1x16x197x64xbf16>) -> tensor<16x197x64xbf16>
    %85 = stablehlo.reshape %83 : (tensor<1x16x64x197xbf16>) -> tensor<16x64x197xbf16>
    %86 = stablehlo.broadcast_in_dim %85, dims = [0, 1, 2] : (tensor<16x64x197xbf16>) -> tensor<16x64x197xbf16>
    %87 = stablehlo.dot_general %84, %86, batching_dims = [0] x [0], contracting_dims = [2] x [1] : (tensor<16x197x64xbf16>, tensor<16x64x197xbf16>) -> tensor<16x197x197xbf16>
    %88 = stablehlo.reshape %87 : (tensor<16x197x197xbf16>) -> tensor<1x16x197x197xbf16>
    %89 = stablehlo.convert %cst_25 : (tensor<1xf64>) -> tensor<1xbf16>
    %90 = stablehlo.reshape %89 : (tensor<1xbf16>) -> tensor<bf16>
    %91 = stablehlo.broadcast_in_dim %88, dims = [0, 1, 2, 3] : (tensor<1x16x197x197xbf16>) -> tensor<1x16x197x197xbf16>
    %92 = stablehlo.broadcast_in_dim %90, dims = [] : (tensor<bf16>) -> tensor<1x16x197x197xbf16>
    %93 = stablehlo.divide %91, %92 : tensor<1x16x197x197xbf16>
    %94 = stablehlo.add %93, %arg155 : tensor<1x16x197x197xbf16>
    %95 = stablehlo.convert %94 : (tensor<1x16x197x197xbf16>) -> tensor<1x16x197x197xf32>
    %96 = stablehlo.reduce(%95 init: %cst_1) applies stablehlo.maximum across dimensions = [3] : (tensor<1x16x197x197xf32>, tensor<f32>) -> tensor<1x16x197xf32>
    %97 = stablehlo.reshape %96 : (tensor<1x16x197xf32>) -> tensor<1x16x197x1xf32>
    %98 = stablehlo.broadcast_in_dim %95, dims = [0, 1, 2, 3] : (tensor<1x16x197x197xf32>) -> tensor<1x16x197x197xf32>
    %99 = stablehlo.broadcast_in_dim %97, dims = [0, 1, 2, 3] : (tensor<1x16x197x1xf32>) -> tensor<1x16x197x197xf32>
    %100 = stablehlo.subtract %98, %99 : tensor<1x16x197x197xf32>
    %101 = stablehlo.exponential %100 : tensor<1x16x197x197xf32>
    %102 = stablehlo.reduce(%101 init: %cst_0) applies stablehlo.add across dimensions = [3] : (tensor<1x16x197x197xf32>, tensor<f32>) -> tensor<1x16x197xf32>
    %103 = stablehlo.reshape %102 : (tensor<1x16x197xf32>) -> tensor<1x16x197x1xf32>
    %104 = stablehlo.broadcast_in_dim %101, dims = [0, 1, 2, 3] : (tensor<1x16x197x197xf32>) -> tensor<1x16x197x197xf32>
    %105 = stablehlo.broadcast_in_dim %103, dims = [0, 1, 2, 3] : (tensor<1x16x197x1xf32>) -> tensor<1x16x197x197xf32>
    %106 = stablehlo.divide %104, %105 : tensor<1x16x197x197xf32>
    %107 = stablehlo.convert %106 : (tensor<1x16x197x197xf32>) -> tensor<1x16x197x197xbf16>
    %108 = stablehlo.reshape %107 : (tensor<1x16x197x197xbf16>) -> tensor<16x197x197xbf16>
    %109 = stablehlo.reshape %80 : (tensor<1x16x197x64xbf16>) -> tensor<16x197x64xbf16>
    %110 = stablehlo.broadcast_in_dim %109, dims = [0, 1, 2] : (tensor<16x197x64xbf16>) -> tensor<16x197x64xbf16>
    %111 = stablehlo.dot_general %108, %110, batching_dims = [0] x [0], contracting_dims = [2] x [1] : (tensor<16x197x197xbf16>, tensor<16x197x64xbf16>) -> tensor<16x197x64xbf16>
    %112 = stablehlo.reshape %111 : (tensor<16x197x64xbf16>) -> tensor<1x16x197x64xbf16>
    %113 = stablehlo.transpose %112, dims = [0, 2, 1, 3] : (tensor<1x16x197x64xbf16>) -> tensor<1x197x16x64xbf16>
    %114 = stablehlo.reshape %113 : (tensor<1x197x16x64xbf16>) -> tensor<1x197x1024xbf16>
    %115 = stablehlo.reshape %114 : (tensor<1x197x1024xbf16>) -> tensor<197x1024xbf16>
    %116 = stablehlo.convert %115 : (tensor<197x1024xbf16>) -> tensor<197x1024xf32>
    %117 = stablehlo.dot_general %116, %arg156, contracting_dims = [1] x [0] : (tensor<197x1024xf32>, tensor<1024x1024xf32>) -> tensor<197x1024xf32>
    %118 = stablehlo.broadcast_in_dim %117, dims = [0, 1] : (tensor<197x1024xf32>) -> tensor<197x1024xf32>
    %119 = stablehlo.multiply %118, %60 : tensor<197x1024xf32>
    %120 = stablehlo.broadcast_in_dim %119, dims = [0, 1] : (tensor<197x1024xf32>) -> tensor<197x1024xf32>
    %121 = stablehlo.broadcast_in_dim %arg157, dims = [1] : (tensor<1024xf32>) -> tensor<197x1024xf32>
    %122 = stablehlo.add %120, %121 : tensor<197x1024xf32>
    %123 = stablehlo.convert %122 : (tensor<197x1024xf32>) -> tensor<197x1024xbf16>
    %124 = stablehlo.reshape %123 : (tensor<197x1024xbf16>) -> tensor<1x197x1024xbf16>
    %125 = stablehlo.broadcast_in_dim %arg5, dims = [2] : (tensor<1024xbf16>) -> tensor<1x197x1024xbf16>
    %126 = stablehlo.broadcast_in_dim %124, dims = [0, 1, 2] : (tensor<1x197x1024xbf16>) -> tensor<1x197x1024xbf16>
    %127 = stablehlo.multiply %125, %126 : tensor<1x197x1024xbf16>
    %128 = stablehlo.add %127, %7 : tensor<1x197x1024xbf16>
    %129 = stablehlo.convert %128 : (tensor<1x197x1024xbf16>) -> tensor<1x197x1024xf32>
    %130 = stablehlo.convert %129 : (tensor<1x197x1024xf32>) -> tensor<1x197x1024xf64>
    %131 = stablehlo.reduce(%130 init: %cst) applies stablehlo.add across dimensions = [2] : (tensor<1x197x1024xf64>, tensor<f64>) -> tensor<1x197xf64>
    %132 = stablehlo.reshape %131 : (tensor<1x197xf64>) -> tensor<1x197x1xf64>
    %133 = stablehlo.broadcast_in_dim %132, dims = [0, 1, 2] : (tensor<1x197x1xf64>) -> tensor<1x197x1xf64>
    %134 = stablehlo.divide %133, %15 : tensor<1x197x1xf64>
    %135 = stablehlo.broadcast_in_dim %130, dims = [0, 1, 2] : (tensor<1x197x1024xf64>) -> tensor<1x197x1024xf64>
    %136 = stablehlo.broadcast_in_dim %134, dims = [0, 1, 2] : (tensor<1x197x1xf64>) -> tensor<1x197x1024xf64>
    %137 = stablehlo.subtract %135, %136 : tensor<1x197x1024xf64>
    %138 = stablehlo.multiply %137, %137 : tensor<1x197x1024xf64>
    %139 = stablehlo.reduce(%138 init: %cst) applies stablehlo.add across dimensions = [2] : (tensor<1x197x1024xf64>, tensor<f64>) -> tensor<1x197xf64>
    %140 = stablehlo.reshape %139 : (tensor<1x197xf64>) -> tensor<1x197x1xf64>
    %141 = stablehlo.broadcast_in_dim %140, dims = [0, 1, 2] : (tensor<1x197x1xf64>) -> tensor<1x197x1xf64>
    %142 = stablehlo.divide %141, %15 : tensor<1x197x1xf64>
    %143 = stablehlo.convert %142 : (tensor<1x197x1xf64>) -> tensor<1x197x1xf32>
    %144 = stablehlo.reduce(%129 init: %cst_0) applies stablehlo.add across dimensions = [2] : (tensor<1x197x1024xf32>, tensor<f32>) -> tensor<1x197xf32>
    %145 = stablehlo.reshape %144 : (tensor<1x197xf32>) -> tensor<1x197x1xf32>
    %146 = stablehlo.broadcast_in_dim %145, dims = [0, 1, 2] : (tensor<1x197x1xf32>) -> tensor<1x197x1xf32>
    %147 = stablehlo.divide %146, %31 : tensor<1x197x1xf32>
    %148 = stablehlo.broadcast_in_dim %143, dims = [0, 1, 2] : (tensor<1x197x1xf32>) -> tensor<1x197x1xf32>
    %149 = stablehlo.add %148, %36 : tensor<1x197x1xf32>
    %150 = stablehlo.rsqrt %149 : tensor<1x197x1xf32>
    %151 = stablehlo.broadcast_in_dim %129, dims = [0, 1, 2] : (tensor<1x197x1024xf32>) -> tensor<1x197x1024xf32>
    %152 = stablehlo.broadcast_in_dim %147, dims = [0, 1, 2] : (tensor<1x197x1xf32>) -> tensor<1x197x1024xf32>
    %153 = stablehlo.subtract %151, %152 : tensor<1x197x1024xf32>
    %154 = stablehlo.broadcast_in_dim %153, dims = [0, 1, 2] : (tensor<1x197x1024xf32>) -> tensor<1x197x1024xf32>
    %155 = stablehlo.broadcast_in_dim %150, dims = [0, 1, 2] : (tensor<1x197x1xf32>) -> tensor<1x197x1024xf32>
    %156 = stablehlo.multiply %154, %155 : tensor<1x197x1024xf32>
    %157 = stablehlo.convert %arg6 : (tensor<1024xbf16>) -> tensor<1024xf32>
    %158 = stablehlo.broadcast_in_dim %156, dims = [0, 1, 2] : (tensor<1x197x1024xf32>) -> tensor<1x197x1024xf32>
    %159 = stablehlo.broadcast_in_dim %157, dims = [2] : (tensor<1024xf32>) -> tensor<1x197x1024xf32>
    %160 = stablehlo.multiply %158, %159 : tensor<1x197x1024xf32>
    %161 = stablehlo.convert %arg7 : (tensor<1024xbf16>) -> tensor<1024xf32>
    %162 = stablehlo.broadcast_in_dim %160, dims = [0, 1, 2] : (tensor<1x197x1024xf32>) -> tensor<1x197x1024xf32>
    %163 = stablehlo.broadcast_in_dim %161, dims = [2] : (tensor<1024xf32>) -> tensor<1x197x1024xf32>
    %164 = stablehlo.add %162, %163 : tensor<1x197x1024xf32>
    %165 = stablehlo.convert %164 : (tensor<1x197x1024xf32>) -> tensor<1x197x1024xbf16>
    %166 = stablehlo.reshape %165 : (tensor<1x197x1024xbf16>) -> tensor<197x1024xbf16>
    %167 = stablehlo.convert %166 : (tensor<197x1024xbf16>) -> tensor<197x1024xf32>
    %168 = stablehlo.dot_general %167, %arg158, contracting_dims = [1] x [0] : (tensor<197x1024xf32>, tensor<1024x4096xf32>) -> tensor<197x4096xf32>
    %169 = stablehlo.broadcast_in_dim %168, dims = [0, 1] : (tensor<197x4096xf32>) -> tensor<197x4096xf32>
    %170 = stablehlo.broadcast_in_dim %58, dims = [] : (tensor<f32>) -> tensor<197x4096xf32>
    %171 = stablehlo.multiply %169, %170 : tensor<197x4096xf32>
    %172 = stablehlo.broadcast_in_dim %171, dims = [0, 1] : (tensor<197x4096xf32>) -> tensor<197x4096xf32>
    %173 = stablehlo.broadcast_in_dim %arg159, dims = [1] : (tensor<4096xf32>) -> tensor<197x4096xf32>
    %174 = stablehlo.add %172, %173 : tensor<197x4096xf32>
    %175 = stablehlo.convert %174 : (tensor<197x4096xf32>) -> tensor<197x4096xbf16>
    %176 = stablehlo.reshape %175 : (tensor<197x4096xbf16>) -> tensor<1x197x4096xbf16>
    %177 = stablehlo.multiply %176, %cst_4 : tensor<1x197x4096xbf16>
    %178 = stablehlo.rsqrt %cst_3 : tensor<1x197x4096xbf16>
    %179 = stablehlo.multiply %176, %178 : tensor<1x197x4096xbf16>
    %180 = stablehlo.convert %179 : (tensor<1x197x4096xbf16>) -> tensor<1x197x4096xf32>
    %181 = stablehlo.clamp %cst_5, %180, %cst_6 : tensor<1x197x4096xf32>
    %182 = stablehlo.multiply %181, %181 : tensor<1x197x4096xf32>
    %183 = stablehlo.multiply %cst_7, %182 : tensor<1x197x4096xf32>
    %184 = stablehlo.add %183, %cst_8 : tensor<1x197x4096xf32>
    %185 = stablehlo.multiply %184, %182 : tensor<1x197x4096xf32>
    %186 = stablehlo.add %185, %cst_9 : tensor<1x197x4096xf32>
    %187 = stablehlo.multiply %186, %182 : tensor<1x197x4096xf32>
    %188 = stablehlo.add %187, %cst_10 : tensor<1x197x4096xf32>
    %189 = stablehlo.multiply %188, %182 : tensor<1x197x4096xf32>
    %190 = stablehlo.add %189, %cst_11 : tensor<1x197x4096xf32>
    %191 = stablehlo.multiply %190, %182 : tensor<1x197x4096xf32>
    %192 = stablehlo.add %191, %cst_12 : tensor<1x197x4096xf32>
    %193 = stablehlo.multiply %192, %182 : tensor<1x197x4096xf32>
    %194 = stablehlo.add %193, %cst_13 : tensor<1x197x4096xf32>
    %195 = stablehlo.multiply %cst_14, %182 : tensor<1x197x4096xf32>
    %196 = stablehlo.add %195, %cst_15 : tensor<1x197x4096xf32>
    %197 = stablehlo.multiply %196, %182 : tensor<1x197x4096xf32>
    %198 = stablehlo.add %197, %cst_16 : tensor<1x197x4096xf32>
    %199 = stablehlo.multiply %198, %182 : tensor<1x197x4096xf32>
    %200 = stablehlo.add %199, %cst_17 : tensor<1x197x4096xf32>
    %201 = stablehlo.multiply %200, %182 : tensor<1x197x4096xf32>
    %202 = stablehlo.add %201, %cst_18 : tensor<1x197x4096xf32>
    %203 = stablehlo.multiply %181, %194 : tensor<1x197x4096xf32>
    %204 = stablehlo.divide %203, %202 : tensor<1x197x4096xf32>
    %205 = stablehlo.clamp %cst_19, %204, %cst_20 : tensor<1x197x4096xf32>
    %206 = stablehlo.convert %205 : (tensor<1x197x4096xf32>) -> tensor<1x197x4096xbf16>
    %207 = stablehlo.add %206, %cst_2 : tensor<1x197x4096xbf16>
    %208 = stablehlo.multiply %207, %177 : tensor<1x197x4096xbf16>
    %209 = stablehlo.reshape %208 : (tensor<1x197x4096xbf16>) -> tensor<197x4096xbf16>
    %210 = stablehlo.convert %209 : (tensor<197x4096xbf16>) -> tensor<197x4096xf32>
    %211 = stablehlo.dot_general %210, %arg160, contracting_dims = [1] x [0] : (tensor<197x4096xf32>, tensor<4096x1024xf32>) -> tensor<197x1024xf32>
    %212 = stablehlo.broadcast_in_dim %211, dims = [0, 1] : (tensor<197x1024xf32>) -> tensor<197x1024xf32>
    %213 = stablehlo.multiply %212, %60 : tensor<197x1024xf32>
    %214 = stablehlo.broadcast_in_dim %213, dims = [0, 1] : (tensor<197x1024xf32>) -> tensor<197x1024xf32>
    %215 = stablehlo.broadcast_in_dim %arg161, dims = [1] : (tensor<1024xf32>) -> tensor<197x1024xf32>
    %216 = stablehlo.add %214, %215 : tensor<197x1024xf32>
    %217 = stablehlo.convert %216 : (tensor<197x1024xf32>) -> tensor<197x1024xbf16>
    %218 = stablehlo.reshape %217 : (tensor<197x1024xbf16>) -> tensor<1x197x1024xbf16>
    %219 = stablehlo.broadcast_in_dim %arg8, dims = [2] : (tensor<1024xbf16>) -> tensor<1x197x1024xbf16>
    %220 = stablehlo.broadcast_in_dim %218, dims = [0, 1, 2] : (tensor<1x197x1024xbf16>) -> tensor<1x197x1024xbf16>
    %221 = stablehlo.multiply %219, %220 : tensor<1x197x1024xbf16>
    %222 = stablehlo.add %221, %128 : tensor<1x197x1024xbf16>
    %223 = stablehlo.convert %222 : (tensor<1x197x1024xbf16>) -> tensor<1x197x1024xf32>
    %224 = stablehlo.convert %223 : (tensor<1x197x1024xf32>) -> tensor<1x197x1024xf64>
    %225 = stablehlo.reduce(%224 init: %cst) applies stablehlo.add across dimensions = [2] : (tensor<1x197x1024xf64>, tensor<f64>) -> tensor<1x197xf64>
    %226 = stablehlo.reshape %225 : (tensor<1x197xf64>) -> tensor<1x197x1xf64>
    %227 = stablehlo.broadcast_in_dim %226, dims = [0, 1, 2] : (tensor<1x197x1xf64>) -> tensor<1x197x1xf64>
    %228 = stablehlo.divide %227, %15 : tensor<1x197x1xf64>
    %229 = stablehlo.broadcast_in_dim %224, dims = [0, 1, 2] : (tensor<1x197x1024xf64>) -> tensor<1x197x1024xf64>
    %230 = stablehlo.broadcast_in_dim %228, dims = [0, 1, 2] : (tensor<1x197x1xf64>) -> tensor<1x197x1024xf64>
    %231 = stablehlo.subtract %229, %230 : tensor<1x197x1024xf64>
    %232 = stablehlo.multiply %231, %231 : tensor<1x197x1024xf64>
    %233 = stablehlo.reduce(%232 init: %cst) applies stablehlo.add across dimensions = [2] : (tensor<1x197x1024xf64>, tensor<f64>) -> tensor<1x197xf64>
    %234 = stablehlo.reshape %233 : (tensor<1x197xf64>) -> tensor<1x197x1xf64>
    %235 = stablehlo.broadcast_in_dim %234, dims = [0, 1, 2] : (tensor<1x197x1xf64>) -> tensor<1x197x1xf64>
    %236 = stablehlo.divide %235, %15 : tensor<1x197x1xf64>
    %237 = stablehlo.convert %236 : (tensor<1x197x1xf64>) -> tensor<1x197x1xf32>
    %238 = stablehlo.reduce(%223 init: %cst_0) applies stablehlo.add across dimensions = [2] : (tensor<1x197x1024xf32>, tensor<f32>) -> tensor<1x197xf32>
    %239 = stablehlo.reshape %238 : (tensor<1x197xf32>) -> tensor<1x197x1xf32>
    %240 = stablehlo.broadcast_in_dim %239, dims = [0, 1, 2] : (tensor<1x197x1xf32>) -> tensor<1x197x1xf32>
    %241 = stablehlo.divide %240, %31 : tensor<1x197x1xf32>
    %242 = stablehlo.broadcast_in_dim %237, dims = [0, 1, 2] : (tensor<1x197x1xf32>) -> tensor<1x197x1xf32>
    %243 = stablehlo.add %242, %36 : tensor<1x197x1xf32>
    %244 = stablehlo.rsqrt %243 : tensor<1x197x1xf32>
    %245 = stablehlo.broadcast_in_dim %223, dims = [0, 1, 2] : (tensor<1x197x1024xf32>) -> tensor<1x197x1024xf32>
    %246 = stablehlo.broadcast_in_dim %241, dims = [0, 1, 2] : (tensor<1x197x1xf32>) -> tensor<1x197x1024xf32>
    %247 = stablehlo.subtract %245, %246 : tensor<1x197x1024xf32>
    %248 = stablehlo.broadcast_in_dim %247, dims = [0, 1, 2] : (tensor<1x197x1024xf32>) -> tensor<1x197x1024xf32>
    %249 = stablehlo.broadcast_in_dim %244, dims = [0, 1, 2] : (tensor<1x197x1xf32>) -> tensor<1x197x1024xf32>
    %250 = stablehlo.multiply %248, %249 : tensor<1x197x1024xf32>
    %251 = stablehlo.convert %arg9 : (tensor<1024xbf16>) -> tensor<1024xf32>
    %252 = stablehlo.broadcast_in_dim %250, dims = [0, 1, 2] : (tensor<1x197x1024xf32>) -> tensor<1x197x1024xf32>
    %253 = stablehlo.broadcast_in_dim %251, dims = [2] : (tensor<1024xf32>) -> tensor<1x197x1024xf32>
    %254 = stablehlo.multiply %252, %253 : tensor<1x197x1024xf32>
    %255 = stablehlo.convert %arg10 : (tensor<1024xbf16>) -> tensor<1024xf32>
    %256 = stablehlo.broadcast_in_dim %254, dims = [0, 1, 2] : (tensor<1x197x1024xf32>) -> tensor<1x197x1024xf32>
    %257 = stablehlo.broadcast_in_dim %255, dims = [2] : (tensor<1024xf32>) -> tensor<1x197x1024xf32>
    %258 = stablehlo.add %256, %257 : tensor<1x197x1024xf32>
    %259 = stablehlo.convert %258 : (tensor<1x197x1024xf32>) -> tensor<1x197x1024xbf16>
    %260 = stablehlo.reshape %259 : (tensor<1x197x1024xbf16>) -> tensor<197x1024xbf16>
    %261 = stablehlo.convert %260 : (tensor<197x1024xbf16>) -> tensor<197x1024xf32>
    %262 = stablehlo.dot_general %261, %arg162, contracting_dims = [1] x [0] : (tensor<197x1024xf32>, tensor<1024x1024xf32>) -> tensor<197x1024xf32>
    %263 = stablehlo.broadcast_in_dim %262, dims = [0, 1] : (tensor<197x1024xf32>) -> tensor<197x1024xf32>
    %264 = stablehlo.multiply %263, %60 : tensor<197x1024xf32>
    %265 = stablehlo.broadcast_in_dim %264, dims = [0, 1] : (tensor<197x1024xf32>) -> tensor<197x1024xf32>
    %266 = stablehlo.broadcast_in_dim %arg163, dims = [1] : (tensor<1024xf32>) -> tensor<197x1024xf32>
    %267 = stablehlo.add %265, %266 : tensor<197x1024xf32>
    %268 = stablehlo.convert %267 : (tensor<197x1024xf32>) -> tensor<197x1024xbf16>
    %269 = stablehlo.reshape %268 : (tensor<197x1024xbf16>) -> tensor<1x197x1024xbf16>
    %270 = stablehlo.dot_general %260, %arg164, contracting_dims = [1] x [0] : (tensor<197x1024xbf16>, tensor<1024x1024xbf16>) -> tensor<197x1024xbf16>
    %271 = stablehlo.reshape %270 : (tensor<197x1024xbf16>) -> tensor<1x197x1024xbf16>
    %272 = stablehlo.reshape %271 : (tensor<1x197x1024xbf16>) -> tensor<1x197x16x64xbf16>
    %273 = stablehlo.transpose %272, dims = [0, 2, 1, 3] : (tensor<1x197x16x64xbf16>) -> tensor<1x16x197x64xbf16>
    %274 = stablehlo.dot_general %261, %arg165, contracting_dims = [1] x [0] : (tensor<197x1024xf32>, tensor<1024x1024xf32>) -> tensor<197x1024xf32>
    %275 = stablehlo.broadcast_in_dim %274, dims = [0, 1] : (tensor<197x1024xf32>) -> tensor<197x1024xf32>
    %276 = stablehlo.multiply %275, %60 : tensor<197x1024xf32>
    %277 = stablehlo.broadcast_in_dim %276, dims = [0, 1] : (tensor<197x1024xf32>) -> tensor<197x1024xf32>
    %278 = stablehlo.broadcast_in_dim %arg166, dims = [1] : (tensor<1024xf32>) -> tensor<197x1024xf32>
    %279 = stablehlo.add %277, %278 : tensor<197x1024xf32>
    %280 = stablehlo.convert %279 : (tensor<197x1024xf32>) -> tensor<197x1024xbf16>
    %281 = stablehlo.reshape %280 : (tensor<197x1024xbf16>) -> tensor<1x197x1024xbf16>
    %282 = stablehlo.reshape %281 : (tensor<1x197x1024xbf16>) -> tensor<1x197x16x64xbf16>
    %283 = stablehlo.transpose %282, dims = [0, 2, 1, 3] : (tensor<1x197x16x64xbf16>) -> tensor<1x16x197x64xbf16>
    %284 = stablehlo.reshape %269 : (tensor<1x197x1024xbf16>) -> tensor<1x197x16x64xbf16>
    %285 = stablehlo.transpose %284, dims = [0, 2, 1, 3] : (tensor<1x197x16x64xbf16>) -> tensor<1x16x197x64xbf16>
    %286 = stablehlo.transpose %273, dims = [0, 1, 3, 2] : (tensor<1x16x197x64xbf16>) -> tensor<1x16x64x197xbf16>
    %287 = stablehlo.reshape %285 : (tensor<1x16x197x64xbf16>) -> tensor<16x197x64xbf16>
    %288 = stablehlo.reshape %286 : (tensor<1x16x64x197xbf16>) -> tensor<16x64x197xbf16>
    %289 = stablehlo.broadcast_in_dim %288, dims = [0, 1, 2] : (tensor<16x64x197xbf16>) -> tensor<16x64x197xbf16>
    %290 = stablehlo.dot_general %287, %289, batching_dims = [0] x [0], contracting_dims = [2] x [1] : (tensor<16x197x64xbf16>, tensor<16x64x197xbf16>) -> tensor<16x197x197xbf16>
    %291 = stablehlo.reshape %290 : (tensor<16x197x197xbf16>) -> tensor<1x16x197x197xbf16>
    %292 = stablehlo.broadcast_in_dim %291, dims = [0, 1, 2, 3] : (tensor<1x16x197x197xbf16>) -> tensor<1x16x197x197xbf16>
    %293 = stablehlo.divide %292, %92 : tensor<1x16x197x197xbf16>
    %294 = stablehlo.add %293, %arg167 : tensor<1x16x197x197xbf16>
    %295 = stablehlo.convert %294 : (tensor<1x16x197x197xbf16>) -> tensor<1x16x197x197xf32>
    %296 = stablehlo.reduce(%295 init: %cst_1) applies stablehlo.maximum across dimensions = [3] : (tensor<1x16x197x197xf32>, tensor<f32>) -> tensor<1x16x197xf32>
    %297 = stablehlo.reshape %296 : (tensor<1x16x197xf32>) -> tensor<1x16x197x1xf32>
    %298 = stablehlo.broadcast_in_dim %295, dims = [0, 1, 2, 3] : (tensor<1x16x197x197xf32>) -> tensor<1x16x197x197xf32>
    %299 = stablehlo.broadcast_in_dim %297, dims = [0, 1, 2, 3] : (tensor<1x16x197x1xf32>) -> tensor<1x16x197x197xf32>
    %300 = stablehlo.subtract %298, %299 : tensor<1x16x197x197xf32>
    %301 = stablehlo.exponential %300 : tensor<1x16x197x197xf32>
    %302 = stablehlo.reduce(%301 init: %cst_0) applies stablehlo.add across dimensions = [3] : (tensor<1x16x197x197xf32>, tensor<f32>) -> tensor<1x16x197xf32>
    %303 = stablehlo.reshape %302 : (tensor<1x16x197xf32>) -> tensor<1x16x197x1xf32>
    %304 = stablehlo.broadcast_in_dim %301, dims = [0, 1, 2, 3] : (tensor<1x16x197x197xf32>) -> tensor<1x16x197x197xf32>
    %305 = stablehlo.broadcast_in_dim %303, dims = [0, 1, 2, 3] : (tensor<1x16x197x1xf32>) -> tensor<1x16x197x197xf32>
    %306 = stablehlo.divide %304, %305 : tensor<1x16x197x197xf32>
    %307 = stablehlo.convert %306 : (tensor<1x16x197x197xf32>) -> tensor<1x16x197x197xbf16>
    %308 = stablehlo.reshape %307 : (tensor<1x16x197x197xbf16>) -> tensor<16x197x197xbf16>
    %309 = stablehlo.reshape %283 : (tensor<1x16x197x64xbf16>) -> tensor<16x197x64xbf16>
    %310 = stablehlo.broadcast_in_dim %309, dims = [0, 1, 2] : (tensor<16x197x64xbf16>) -> tensor<16x197x64xbf16>
    %311 = stablehlo.dot_general %308, %310, batching_dims = [0] x [0], contracting_dims = [2] x [1] : (tensor<16x197x197xbf16>, tensor<16x197x64xbf16>) -> tensor<16x197x64xbf16>
    %312 = stablehlo.reshape %311 : (tensor<16x197x64xbf16>) -> tensor<1x16x197x64xbf16>
    %313 = stablehlo.transpose %312, dims = [0, 2, 1, 3] : (tensor<1x16x197x64xbf16>) -> tensor<1x197x16x64xbf16>
    %314 = stablehlo.reshape %313 : (tensor<1x197x16x64xbf16>) -> tensor<1x197x1024xbf16>
    %315 = stablehlo.reshape %314 : (tensor<1x197x1024xbf16>) -> tensor<197x1024xbf16>
    %316 = stablehlo.convert %315 : (tensor<197x1024xbf16>) -> tensor<197x1024xf32>
    %317 = stablehlo.dot_general %316, %arg168, contracting_dims = [1] x [0] : (tensor<197x1024xf32>, tensor<1024x1024xf32>) -> tensor<197x1024xf32>
    %318 = stablehlo.broadcast_in_dim %317, dims = [0, 1] : (tensor<197x1024xf32>) -> tensor<197x1024xf32>
    %319 = stablehlo.multiply %318, %60 : tensor<197x1024xf32>
    %320 = stablehlo.broadcast_in_dim %319, dims = [0, 1] : (tensor<197x1024xf32>) -> tensor<197x1024xf32>
    %321 = stablehlo.broadcast_in_dim %arg169, dims = [1] : (tensor<1024xf32>) -> tensor<197x1024xf32>
    %322 = stablehlo.add %320, %321 : tensor<197x1024xf32>
    %323 = stablehlo.convert %322 : (tensor<197x1024xf32>) -> tensor<197x1024xbf16>
    %324 = stablehlo.reshape %323 : (tensor<197x1024xbf16>) -> tensor<1x197x1024xbf16>
    %325 = stablehlo.broadcast_in_dim %arg11, dims = [2] : (tensor<1024xbf16>) -> tensor<1x197x1024xbf16>
    %326 = stablehlo.broadcast_in_dim %324, dims = [0, 1, 2] : (tensor<1x197x1024xbf16>) -> tensor<1x197x1024xbf16>
    %327 = stablehlo.multiply %325, %326 : tensor<1x197x1024xbf16>
    %328 = stablehlo.add %327, %222 : tensor<1x197x1024xbf16>
    %329 = stablehlo.convert %328 : (tensor<1x197x1024xbf16>) -> tensor<1x197x1024xf32>
    %330 = stablehlo.convert %329 : (tensor<1x197x1024xf32>) -> tensor<1x197x1024xf64>
    %331 = stablehlo.reduce(%330 init: %cst) applies stablehlo.add across dimensions = [2] : (tensor<1x197x1024xf64>, tensor<f64>) -> tensor<1x197xf64>
    %332 = stablehlo.reshape %331 : (tensor<1x197xf64>) -> tensor<1x197x1xf64>
    %333 = stablehlo.broadcast_in_dim %332, dims = [0, 1, 2] : (tensor<1x197x1xf64>) -> tensor<1x197x1xf64>
    %334 = stablehlo.divide %333, %15 : tensor<1x197x1xf64>
    %335 = stablehlo.broadcast_in_dim %330, dims = [0, 1, 2] : (tensor<1x197x1024xf64>) -> tensor<1x197x1024xf64>
    %336 = stablehlo.broadcast_in_dim %334, dims = [0, 1, 2] : (tensor<1x197x1xf64>) -> tensor<1x197x1024xf64>
    %337 = stablehlo.subtract %335, %336 : tensor<1x197x1024xf64>
    %338 = stablehlo.multiply %337, %337 : tensor<1x197x1024xf64>
    %339 = stablehlo.reduce(%338 init: %cst) applies stablehlo.add across dimensions = [2] : (tensor<1x197x1024xf64>, tensor<f64>) -> tensor<1x197xf64>
    %340 = stablehlo.reshape %339 : (tensor<1x197xf64>) -> tensor<1x197x1xf64>
    %341 = stablehlo.broadcast_in_dim %340, dims = [0, 1, 2] : (tensor<1x197x1xf64>) -> tensor<1x197x1xf64>
    %342 = stablehlo.divide %341, %15 : tensor<1x197x1xf64>
    %343 = stablehlo.convert %342 : (tensor<1x197x1xf64>) -> tensor<1x197x1xf32>
    %344 = stablehlo.reduce(%329 init: %cst_0) applies stablehlo.add across dimensions = [2] : (tensor<1x197x1024xf32>, tensor<f32>) -> tensor<1x197xf32>
    %345 = stablehlo.reshape %344 : (tensor<1x197xf32>) -> tensor<1x197x1xf32>
    %346 = stablehlo.broadcast_in_dim %345, dims = [0, 1, 2] : (tensor<1x197x1xf32>) -> tensor<1x197x1xf32>
    %347 = stablehlo.divide %346, %31 : tensor<1x197x1xf32>
    %348 = stablehlo.broadcast_in_dim %343, dims = [0, 1, 2] : (tensor<1x197x1xf32>) -> tensor<1x197x1xf32>
    %349 = stablehlo.add %348, %36 : tensor<1x197x1xf32>
    %350 = stablehlo.rsqrt %349 : tensor<1x197x1xf32>
    %351 = stablehlo.broadcast_in_dim %329, dims = [0, 1, 2] : (tensor<1x197x1024xf32>) -> tensor<1x197x1024xf32>
    %352 = stablehlo.broadcast_in_dim %347, dims = [0, 1, 2] : (tensor<1x197x1xf32>) -> tensor<1x197x1024xf32>
    %353 = stablehlo.subtract %351, %352 : tensor<1x197x1024xf32>
    %354 = stablehlo.broadcast_in_dim %353, dims = [0, 1, 2] : (tensor<1x197x1024xf32>) -> tensor<1x197x1024xf32>
    %355 = stablehlo.broadcast_in_dim %350, dims = [0, 1, 2] : (tensor<1x197x1xf32>) -> tensor<1x197x1024xf32>
    %356 = stablehlo.multiply %354, %355 : tensor<1x197x1024xf32>
    %357 = stablehlo.convert %arg12 : (tensor<1024xbf16>) -> tensor<1024xf32>
    %358 = stablehlo.broadcast_in_dim %356, dims = [0, 1, 2] : (tensor<1x197x1024xf32>) -> tensor<1x197x1024xf32>
    %359 = stablehlo.broadcast_in_dim %357, dims = [2] : (tensor<1024xf32>) -> tensor<1x197x1024xf32>
    %360 = stablehlo.multiply %358, %359 : tensor<1x197x1024xf32>
    %361 = stablehlo.convert %arg13 : (tensor<1024xbf16>) -> tensor<1024xf32>
    %362 = stablehlo.broadcast_in_dim %360, dims = [0, 1, 2] : (tensor<1x197x1024xf32>) -> tensor<1x197x1024xf32>
    %363 = stablehlo.broadcast_in_dim %361, dims = [2] : (tensor<1024xf32>) -> tensor<1x197x1024xf32>
    %364 = stablehlo.add %362, %363 : tensor<1x197x1024xf32>
    %365 = stablehlo.convert %364 : (tensor<1x197x1024xf32>) -> tensor<1x197x1024xbf16>
    %366 = stablehlo.reshape %365 : (tensor<1x197x1024xbf16>) -> tensor<197x1024xbf16>
    %367 = stablehlo.convert %366 : (tensor<197x1024xbf16>) -> tensor<197x1024xf32>
    %368 = stablehlo.dot_general %367, %arg170, contracting_dims = [1] x [0] : (tensor<197x1024xf32>, tensor<1024x4096xf32>) -> tensor<197x4096xf32>
    %369 = stablehlo.broadcast_in_dim %368, dims = [0, 1] : (tensor<197x4096xf32>) -> tensor<197x4096xf32>
    %370 = stablehlo.multiply %369, %170 : tensor<197x4096xf32>
    %371 = stablehlo.broadcast_in_dim %370, dims = [0, 1] : (tensor<197x4096xf32>) -> tensor<197x4096xf32>
    %372 = stablehlo.broadcast_in_dim %arg171, dims = [1] : (tensor<4096xf32>) -> tensor<197x4096xf32>
    %373 = stablehlo.add %371, %372 : tensor<197x4096xf32>
    %374 = stablehlo.convert %373 : (tensor<197x4096xf32>) -> tensor<197x4096xbf16>
    %375 = stablehlo.reshape %374 : (tensor<197x4096xbf16>) -> tensor<1x197x4096xbf16>
    %376 = stablehlo.multiply %375, %cst_4 : tensor<1x197x4096xbf16>
    %377 = stablehlo.multiply %375, %178 : tensor<1x197x4096xbf16>
    %378 = stablehlo.convert %377 : (tensor<1x197x4096xbf16>) -> tensor<1x197x4096xf32>
    %379 = stablehlo.clamp %cst_5, %378, %cst_6 : tensor<1x197x4096xf32>
    %380 = stablehlo.multiply %379, %379 : tensor<1x197x4096xf32>
    %381 = stablehlo.multiply %cst_7, %380 : tensor<1x197x4096xf32>
    %382 = stablehlo.add %381, %cst_8 : tensor<1x197x4096xf32>
    %383 = stablehlo.multiply %382, %380 : tensor<1x197x4096xf32>
    %384 = stablehlo.add %383, %cst_9 : tensor<1x197x4096xf32>
    %385 = stablehlo.multiply %384, %380 : tensor<1x197x4096xf32>
    %386 = stablehlo.add %385, %cst_10 : tensor<1x197x4096xf32>
    %387 = stablehlo.multiply %386, %380 : tensor<1x197x4096xf32>
    %388 = stablehlo.add %387, %cst_11 : tensor<1x197x4096xf32>
    %389 = stablehlo.multiply %388, %380 : tensor<1x197x4096xf32>
    %390 = stablehlo.add %389, %cst_12 : tensor<1x197x4096xf32>
    %391 = stablehlo.multiply %390, %380 : tensor<1x197x4096xf32>
    %392 = stablehlo.add %391, %cst_13 : tensor<1x197x4096xf32>
    %393 = stablehlo.multiply %cst_14, %380 : tensor<1x197x4096xf32>
    %394 = stablehlo.add %393, %cst_15 : tensor<1x197x4096xf32>
    %395 = stablehlo.multiply %394, %380 : tensor<1x197x4096xf32>
    %396 = stablehlo.add %395, %cst_16 : tensor<1x197x4096xf32>
    %397 = stablehlo.multiply %396, %380 : tensor<1x197x4096xf32>
    %398 = stablehlo.add %397, %cst_17 : tensor<1x197x4096xf32>
    %399 = stablehlo.multiply %398, %380 : tensor<1x197x4096xf32>
    %400 = stablehlo.add %399, %cst_18 : tensor<1x197x4096xf32>
    %401 = stablehlo.multiply %379, %392 : tensor<1x197x4096xf32>
    %402 = stablehlo.divide %401, %400 : tensor<1x197x4096xf32>
    %403 = stablehlo.clamp %cst_19, %402, %cst_20 : tensor<1x197x4096xf32>
    %404 = stablehlo.convert %403 : (tensor<1x197x4096xf32>) -> tensor<1x197x4096xbf16>
    %405 = stablehlo.add %404, %cst_2 : tensor<1x197x4096xbf16>
    %406 = stablehlo.multiply %405, %376 : tensor<1x197x4096xbf16>
    %407 = stablehlo.reshape %406 : (tensor<1x197x4096xbf16>) -> tensor<197x4096xbf16>
    %408 = stablehlo.convert %407 : (tensor<197x4096xbf16>) -> tensor<197x4096xf32>
    %409 = stablehlo.dot_general %408, %arg172, contracting_dims = [1] x [0] : (tensor<197x4096xf32>, tensor<4096x1024xf32>) -> tensor<197x1024xf32>
    %410 = stablehlo.broadcast_in_dim %409, dims = [0, 1] : (tensor<197x1024xf32>) -> tensor<197x1024xf32>
    %411 = stablehlo.multiply %410, %60 : tensor<197x1024xf32>
    %412 = stablehlo.broadcast_in_dim %411, dims = [0, 1] : (tensor<197x1024xf32>) -> tensor<197x1024xf32>
    %413 = stablehlo.broadcast_in_dim %arg173, dims = [1] : (tensor<1024xf32>) -> tensor<197x1024xf32>
    %414 = stablehlo.add %412, %413 : tensor<197x1024xf32>
    %415 = stablehlo.convert %414 : (tensor<197x1024xf32>) -> tensor<197x1024xbf16>
    %416 = stablehlo.reshape %415 : (tensor<197x1024xbf16>) -> tensor<1x197x1024xbf16>
    %417 = stablehlo.broadcast_in_dim %arg14, dims = [2] : (tensor<1024xbf16>) -> tensor<1x197x1024xbf16>
    %418 = stablehlo.broadcast_in_dim %416, dims = [0, 1, 2] : (tensor<1x197x1024xbf16>) -> tensor<1x197x1024xbf16>
    %419 = stablehlo.multiply %417, %418 : tensor<1x197x1024xbf16>
    %420 = stablehlo.add %419, %328 : tensor<1x197x1024xbf16>
    %421 = stablehlo.convert %420 : (tensor<1x197x1024xbf16>) -> tensor<1x197x1024xf32>
    %422 = stablehlo.convert %421 : (tensor<1x197x1024xf32>) -> tensor<1x197x1024xf64>
    %423 = stablehlo.reduce(%422 init: %cst) applies stablehlo.add across dimensions = [2] : (tensor<1x197x1024xf64>, tensor<f64>) -> tensor<1x197xf64>
    %424 = stablehlo.reshape %423 : (tensor<1x197xf64>) -> tensor<1x197x1xf64>
    %425 = stablehlo.broadcast_in_dim %424, dims = [0, 1, 2] : (tensor<1x197x1xf64>) -> tensor<1x197x1xf64>
    %426 = stablehlo.divide %425, %15 : tensor<1x197x1xf64>
    %427 = stablehlo.broadcast_in_dim %422, dims = [0, 1, 2] : (tensor<1x197x1024xf64>) -> tensor<1x197x1024xf64>
    %428 = stablehlo.broadcast_in_dim %426, dims = [0, 1, 2] : (tensor<1x197x1xf64>) -> tensor<1x197x1024xf64>
    %429 = stablehlo.subtract %427, %428 : tensor<1x197x1024xf64>
    %430 = stablehlo.multiply %429, %429 : tensor<1x197x1024xf64>
    %431 = stablehlo.reduce(%430 init: %cst) applies stablehlo.add across dimensions = [2] : (tensor<1x197x1024xf64>, tensor<f64>) -> tensor<1x197xf64>
    %432 = stablehlo.reshape %431 : (tensor<1x197xf64>) -> tensor<1x197x1xf64>
    %433 = stablehlo.broadcast_in_dim %432, dims = [0, 1, 2] : (tensor<1x197x1xf64>) -> tensor<1x197x1xf64>
    %434 = stablehlo.divide %433, %15 : tensor<1x197x1xf64>
    %435 = stablehlo.convert %434 : (tensor<1x197x1xf64>) -> tensor<1x197x1xf32>
    %436 = stablehlo.reduce(%421 init: %cst_0) applies stablehlo.add across dimensions = [2] : (tensor<1x197x1024xf32>, tensor<f32>) -> tensor<1x197xf32>
    %437 = stablehlo.reshape %436 : (tensor<1x197xf32>) -> tensor<1x197x1xf32>
    %438 = stablehlo.broadcast_in_dim %437, dims = [0, 1, 2] : (tensor<1x197x1xf32>) -> tensor<1x197x1xf32>
    %439 = stablehlo.divide %438, %31 : tensor<1x197x1xf32>
    %440 = stablehlo.broadcast_in_dim %435, dims = [0, 1, 2] : (tensor<1x197x1xf32>) -> tensor<1x197x1xf32>
    %441 = stablehlo.add %440, %36 : tensor<1x197x1xf32>
    %442 = stablehlo.rsqrt %441 : tensor<1x197x1xf32>
    %443 = stablehlo.broadcast_in_dim %421, dims = [0, 1, 2] : (tensor<1x197x1024xf32>) -> tensor<1x197x1024xf32>
    %444 = stablehlo.broadcast_in_dim %439, dims = [0, 1, 2] : (tensor<1x197x1xf32>) -> tensor<1x197x1024xf32>
    %445 = stablehlo.subtract %443, %444 : tensor<1x197x1024xf32>
    %446 = stablehlo.broadcast_in_dim %445, dims = [0, 1, 2] : (tensor<1x197x1024xf32>) -> tensor<1x197x1024xf32>
    %447 = stablehlo.broadcast_in_dim %442, dims = [0, 1, 2] : (tensor<1x197x1xf32>) -> tensor<1x197x1024xf32>
    %448 = stablehlo.multiply %446, %447 : tensor<1x197x1024xf32>
    %449 = stablehlo.convert %arg15 : (tensor<1024xbf16>) -> tensor<1024xf32>
    %450 = stablehlo.broadcast_in_dim %448, dims = [0, 1, 2] : (tensor<1x197x1024xf32>) -> tensor<1x197x1024xf32>
    %451 = stablehlo.broadcast_in_dim %449, dims = [2] : (tensor<1024xf32>) -> tensor<1x197x1024xf32>
    %452 = stablehlo.multiply %450, %451 : tensor<1x197x1024xf32>
    %453 = stablehlo.convert %arg16 : (tensor<1024xbf16>) -> tensor<1024xf32>
    %454 = stablehlo.broadcast_in_dim %452, dims = [0, 1, 2] : (tensor<1x197x1024xf32>) -> tensor<1x197x1024xf32>
    %455 = stablehlo.broadcast_in_dim %453, dims = [2] : (tensor<1024xf32>) -> tensor<1x197x1024xf32>
    %456 = stablehlo.add %454, %455 : tensor<1x197x1024xf32>
    %457 = stablehlo.convert %456 : (tensor<1x197x1024xf32>) -> tensor<1x197x1024xbf16>
    %458 = stablehlo.reshape %457 : (tensor<1x197x1024xbf16>) -> tensor<197x1024xbf16>
    %459 = stablehlo.convert %458 : (tensor<197x1024xbf16>) -> tensor<197x1024xf32>
    %460 = stablehlo.dot_general %459, %arg174, contracting_dims = [1] x [0] : (tensor<197x1024xf32>, tensor<1024x1024xf32>) -> tensor<197x1024xf32>
    %461 = stablehlo.broadcast_in_dim %460, dims = [0, 1] : (tensor<197x1024xf32>) -> tensor<197x1024xf32>
    %462 = stablehlo.multiply %461, %60 : tensor<197x1024xf32>
    %463 = stablehlo.broadcast_in_dim %462, dims = [0, 1] : (tensor<197x1024xf32>) -> tensor<197x1024xf32>
    %464 = stablehlo.broadcast_in_dim %arg175, dims = [1] : (tensor<1024xf32>) -> tensor<197x1024xf32>
    %465 = stablehlo.add %463, %464 : tensor<197x1024xf32>
    %466 = stablehlo.convert %465 : (tensor<197x1024xf32>) -> tensor<197x1024xbf16>
    %467 = stablehlo.reshape %466 : (tensor<197x1024xbf16>) -> tensor<1x197x1024xbf16>
    %468 = stablehlo.dot_general %458, %arg176, contracting_dims = [1] x [0] : (tensor<197x1024xbf16>, tensor<1024x1024xbf16>) -> tensor<197x1024xbf16>
    %469 = stablehlo.reshape %468 : (tensor<197x1024xbf16>) -> tensor<1x197x1024xbf16>
    %470 = stablehlo.reshape %469 : (tensor<1x197x1024xbf16>) -> tensor<1x197x16x64xbf16>
    %471 = stablehlo.transpose %470, dims = [0, 2, 1, 3] : (tensor<1x197x16x64xbf16>) -> tensor<1x16x197x64xbf16>
    %472 = stablehlo.dot_general %459, %arg177, contracting_dims = [1] x [0] : (tensor<197x1024xf32>, tensor<1024x1024xf32>) -> tensor<197x1024xf32>
    %473 = stablehlo.broadcast_in_dim %472, dims = [0, 1] : (tensor<197x1024xf32>) -> tensor<197x1024xf32>
    %474 = stablehlo.multiply %473, %60 : tensor<197x1024xf32>
    %475 = stablehlo.broadcast_in_dim %474, dims = [0, 1] : (tensor<197x1024xf32>) -> tensor<197x1024xf32>
    %476 = stablehlo.broadcast_in_dim %arg178, dims = [1] : (tensor<1024xf32>) -> tensor<197x1024xf32>
    %477 = stablehlo.add %475, %476 : tensor<197x1024xf32>
    %478 = stablehlo.convert %477 : (tensor<197x1024xf32>) -> tensor<197x1024xbf16>
    %479 = stablehlo.reshape %478 : (tensor<197x1024xbf16>) -> tensor<1x197x1024xbf16>
    %480 = stablehlo.reshape %479 : (tensor<1x197x1024xbf16>) -> tensor<1x197x16x64xbf16>
    %481 = stablehlo.transpose %480, dims = [0, 2, 1, 3] : (tensor<1x197x16x64xbf16>) -> tensor<1x16x197x64xbf16>
    %482 = stablehlo.reshape %467 : (tensor<1x197x1024xbf16>) -> tensor<1x197x16x64xbf16>
    %483 = stablehlo.transpose %482, dims = [0, 2, 1, 3] : (tensor<1x197x16x64xbf16>) -> tensor<1x16x197x64xbf16>
    %484 = stablehlo.transpose %471, dims = [0, 1, 3, 2] : (tensor<1x16x197x64xbf16>) -> tensor<1x16x64x197xbf16>
    %485 = stablehlo.reshape %483 : (tensor<1x16x197x64xbf16>) -> tensor<16x197x64xbf16>
    %486 = stablehlo.reshape %484 : (tensor<1x16x64x197xbf16>) -> tensor<16x64x197xbf16>
    %487 = stablehlo.broadcast_in_dim %486, dims = [0, 1, 2] : (tensor<16x64x197xbf16>) -> tensor<16x64x197xbf16>
    %488 = stablehlo.dot_general %485, %487, batching_dims = [0] x [0], contracting_dims = [2] x [1] : (tensor<16x197x64xbf16>, tensor<16x64x197xbf16>) -> tensor<16x197x197xbf16>
    %489 = stablehlo.reshape %488 : (tensor<16x197x197xbf16>) -> tensor<1x16x197x197xbf16>
    %490 = stablehlo.broadcast_in_dim %489, dims = [0, 1, 2, 3] : (tensor<1x16x197x197xbf16>) -> tensor<1x16x197x197xbf16>
    %491 = stablehlo.divide %490, %92 : tensor<1x16x197x197xbf16>
    %492 = stablehlo.add %491, %arg179 : tensor<1x16x197x197xbf16>
    %493 = stablehlo.convert %492 : (tensor<1x16x197x197xbf16>) -> tensor<1x16x197x197xf32>
    %494 = stablehlo.reduce(%493 init: %cst_1) applies stablehlo.maximum across dimensions = [3] : (tensor<1x16x197x197xf32>, tensor<f32>) -> tensor<1x16x197xf32>
    %495 = stablehlo.reshape %494 : (tensor<1x16x197xf32>) -> tensor<1x16x197x1xf32>
    %496 = stablehlo.broadcast_in_dim %493, dims = [0, 1, 2, 3] : (tensor<1x16x197x197xf32>) -> tensor<1x16x197x197xf32>
    %497 = stablehlo.broadcast_in_dim %495, dims = [0, 1, 2, 3] : (tensor<1x16x197x1xf32>) -> tensor<1x16x197x197xf32>
    %498 = stablehlo.subtract %496, %497 : tensor<1x16x197x197xf32>
    %499 = stablehlo.exponential %498 : tensor<1x16x197x197xf32>
    %500 = stablehlo.reduce(%499 init: %cst_0) applies stablehlo.add across dimensions = [3] : (tensor<1x16x197x197xf32>, tensor<f32>) -> tensor<1x16x197xf32>
    %501 = stablehlo.reshape %500 : (tensor<1x16x197xf32>) -> tensor<1x16x197x1xf32>
    %502 = stablehlo.broadcast_in_dim %499, dims = [0, 1, 2, 3] : (tensor<1x16x197x197xf32>) -> tensor<1x16x197x197xf32>
    %503 = stablehlo.broadcast_in_dim %501, dims = [0, 1, 2, 3] : (tensor<1x16x197x1xf32>) -> tensor<1x16x197x197xf32>
    %504 = stablehlo.divide %502, %503 : tensor<1x16x197x197xf32>
    %505 = stablehlo.convert %504 : (tensor<1x16x197x197xf32>) -> tensor<1x16x197x197xbf16>
    %506 = stablehlo.reshape %505 : (tensor<1x16x197x197xbf16>) -> tensor<16x197x197xbf16>
    %507 = stablehlo.reshape %481 : (tensor<1x16x197x64xbf16>) -> tensor<16x197x64xbf16>
    %508 = stablehlo.broadcast_in_dim %507, dims = [0, 1, 2] : (tensor<16x197x64xbf16>) -> tensor<16x197x64xbf16>
    %509 = stablehlo.dot_general %506, %508, batching_dims = [0] x [0], contracting_dims = [2] x [1] : (tensor<16x197x197xbf16>, tensor<16x197x64xbf16>) -> tensor<16x197x64xbf16>
    %510 = stablehlo.reshape %509 : (tensor<16x197x64xbf16>) -> tensor<1x16x197x64xbf16>
    %511 = stablehlo.transpose %510, dims = [0, 2, 1, 3] : (tensor<1x16x197x64xbf16>) -> tensor<1x197x16x64xbf16>
    %512 = stablehlo.reshape %511 : (tensor<1x197x16x64xbf16>) -> tensor<1x197x1024xbf16>
    %513 = stablehlo.reshape %512 : (tensor<1x197x1024xbf16>) -> tensor<197x1024xbf16>
    %514 = stablehlo.convert %513 : (tensor<197x1024xbf16>) -> tensor<197x1024xf32>
    %515 = stablehlo.dot_general %514, %arg180, contracting_dims = [1] x [0] : (tensor<197x1024xf32>, tensor<1024x1024xf32>) -> tensor<197x1024xf32>
    %516 = stablehlo.broadcast_in_dim %515, dims = [0, 1] : (tensor<197x1024xf32>) -> tensor<197x1024xf32>
    %517 = stablehlo.multiply %516, %60 : tensor<197x1024xf32>
    %518 = stablehlo.broadcast_in_dim %517, dims = [0, 1] : (tensor<197x1024xf32>) -> tensor<197x1024xf32>
    %519 = stablehlo.broadcast_in_dim %arg181, dims = [1] : (tensor<1024xf32>) -> tensor<197x1024xf32>
    %520 = stablehlo.add %518, %519 : tensor<197x1024xf32>
    %521 = stablehlo.convert %520 : (tensor<197x1024xf32>) -> tensor<197x1024xbf16>
    %522 = stablehlo.reshape %521 : (tensor<197x1024xbf16>) -> tensor<1x197x1024xbf16>
    %523 = stablehlo.broadcast_in_dim %arg17, dims = [2] : (tensor<1024xbf16>) -> tensor<1x197x1024xbf16>
    %524 = stablehlo.broadcast_in_dim %522, dims = [0, 1, 2] : (tensor<1x197x1024xbf16>) -> tensor<1x197x1024xbf16>
    %525 = stablehlo.multiply %523, %524 : tensor<1x197x1024xbf16>
    %526 = stablehlo.add %525, %420 : tensor<1x197x1024xbf16>
    %527 = stablehlo.convert %526 : (tensor<1x197x1024xbf16>) -> tensor<1x197x1024xf32>
    %528 = stablehlo.convert %527 : (tensor<1x197x1024xf32>) -> tensor<1x197x1024xf64>
    %529 = stablehlo.reduce(%528 init: %cst) applies stablehlo.add across dimensions = [2] : (tensor<1x197x1024xf64>, tensor<f64>) -> tensor<1x197xf64>
    %530 = stablehlo.reshape %529 : (tensor<1x197xf64>) -> tensor<1x197x1xf64>
    %531 = stablehlo.broadcast_in_dim %530, dims = [0, 1, 2] : (tensor<1x197x1xf64>) -> tensor<1x197x1xf64>
    %532 = stablehlo.divide %531, %15 : tensor<1x197x1xf64>
    %533 = stablehlo.broadcast_in_dim %528, dims = [0, 1, 2] : (tensor<1x197x1024xf64>) -> tensor<1x197x1024xf64>
    %534 = stablehlo.broadcast_in_dim %532, dims = [0, 1, 2] : (tensor<1x197x1xf64>) -> tensor<1x197x1024xf64>
    %535 = stablehlo.subtract %533, %534 : tensor<1x197x1024xf64>
    %536 = stablehlo.multiply %535, %535 : tensor<1x197x1024xf64>
    %537 = stablehlo.reduce(%536 init: %cst) applies stablehlo.add across dimensions = [2] : (tensor<1x197x1024xf64>, tensor<f64>) -> tensor<1x197xf64>
    %538 = stablehlo.reshape %537 : (tensor<1x197xf64>) -> tensor<1x197x1xf64>
    %539 = stablehlo.broadcast_in_dim %538, dims = [0, 1, 2] : (tensor<1x197x1xf64>) -> tensor<1x197x1xf64>
    %540 = stablehlo.divide %539, %15 : tensor<1x197x1xf64>
    %541 = stablehlo.convert %540 : (tensor<1x197x1xf64>) -> tensor<1x197x1xf32>
    %542 = stablehlo.reduce(%527 init: %cst_0) applies stablehlo.add across dimensions = [2] : (tensor<1x197x1024xf32>, tensor<f32>) -> tensor<1x197xf32>
    %543 = stablehlo.reshape %542 : (tensor<1x197xf32>) -> tensor<1x197x1xf32>
    %544 = stablehlo.broadcast_in_dim %543, dims = [0, 1, 2] : (tensor<1x197x1xf32>) -> tensor<1x197x1xf32>
    %545 = stablehlo.divide %544, %31 : tensor<1x197x1xf32>
    %546 = stablehlo.broadcast_in_dim %541, dims = [0, 1, 2] : (tensor<1x197x1xf32>) -> tensor<1x197x1xf32>
    %547 = stablehlo.add %546, %36 : tensor<1x197x1xf32>
    %548 = stablehlo.rsqrt %547 : tensor<1x197x1xf32>
    %549 = stablehlo.broadcast_in_dim %527, dims = [0, 1, 2] : (tensor<1x197x1024xf32>) -> tensor<1x197x1024xf32>
    %550 = stablehlo.broadcast_in_dim %545, dims = [0, 1, 2] : (tensor<1x197x1xf32>) -> tensor<1x197x1024xf32>
    %551 = stablehlo.subtract %549, %550 : tensor<1x197x1024xf32>
    %552 = stablehlo.broadcast_in_dim %551, dims = [0, 1, 2] : (tensor<1x197x1024xf32>) -> tensor<1x197x1024xf32>
    %553 = stablehlo.broadcast_in_dim %548, dims = [0, 1, 2] : (tensor<1x197x1xf32>) -> tensor<1x197x1024xf32>
    %554 = stablehlo.multiply %552, %553 : tensor<1x197x1024xf32>
    %555 = stablehlo.convert %arg18 : (tensor<1024xbf16>) -> tensor<1024xf32>
    %556 = stablehlo.broadcast_in_dim %554, dims = [0, 1, 2] : (tensor<1x197x1024xf32>) -> tensor<1x197x1024xf32>
    %557 = stablehlo.broadcast_in_dim %555, dims = [2] : (tensor<1024xf32>) -> tensor<1x197x1024xf32>
    %558 = stablehlo.multiply %556, %557 : tensor<1x197x1024xf32>
    %559 = stablehlo.convert %arg19 : (tensor<1024xbf16>) -> tensor<1024xf32>
    %560 = stablehlo.broadcast_in_dim %558, dims = [0, 1, 2] : (tensor<1x197x1024xf32>) -> tensor<1x197x1024xf32>
    %561 = stablehlo.broadcast_in_dim %559, dims = [2] : (tensor<1024xf32>) -> tensor<1x197x1024xf32>
    %562 = stablehlo.add %560, %561 : tensor<1x197x1024xf32>
    %563 = stablehlo.convert %562 : (tensor<1x197x1024xf32>) -> tensor<1x197x1024xbf16>
    %564 = stablehlo.reshape %563 : (tensor<1x197x1024xbf16>) -> tensor<197x1024xbf16>
    %565 = stablehlo.convert %564 : (tensor<197x1024xbf16>) -> tensor<197x1024xf32>
    %566 = stablehlo.dot_general %565, %arg182, contracting_dims = [1] x [0] : (tensor<197x1024xf32>, tensor<1024x4096xf32>) -> tensor<197x4096xf32>
    %567 = stablehlo.broadcast_in_dim %566, dims = [0, 1] : (tensor<197x4096xf32>) -> tensor<197x4096xf32>
    %568 = stablehlo.multiply %567, %170 : tensor<197x4096xf32>
    %569 = stablehlo.broadcast_in_dim %568, dims = [0, 1] : (tensor<197x4096xf32>) -> tensor<197x4096xf32>
    %570 = stablehlo.broadcast_in_dim %arg183, dims = [1] : (tensor<4096xf32>) -> tensor<197x4096xf32>
    %571 = stablehlo.add %569, %570 : tensor<197x4096xf32>
    %572 = stablehlo.convert %571 : (tensor<197x4096xf32>) -> tensor<197x4096xbf16>
    %573 = stablehlo.reshape %572 : (tensor<197x4096xbf16>) -> tensor<1x197x4096xbf16>
    %574 = stablehlo.multiply %573, %cst_4 : tensor<1x197x4096xbf16>
    %575 = stablehlo.multiply %573, %178 : tensor<1x197x4096xbf16>
    %576 = stablehlo.convert %575 : (tensor<1x197x4096xbf16>) -> tensor<1x197x4096xf32>
    %577 = stablehlo.clamp %cst_5, %576, %cst_6 : tensor<1x197x4096xf32>
    %578 = stablehlo.multiply %577, %577 : tensor<1x197x4096xf32>
    %579 = stablehlo.multiply %cst_7, %578 : tensor<1x197x4096xf32>
    %580 = stablehlo.add %579, %cst_8 : tensor<1x197x4096xf32>
    %581 = stablehlo.multiply %580, %578 : tensor<1x197x4096xf32>
    %582 = stablehlo.add %581, %cst_9 : tensor<1x197x4096xf32>
    %583 = stablehlo.multiply %582, %578 : tensor<1x197x4096xf32>
    %584 = stablehlo.add %583, %cst_10 : tensor<1x197x4096xf32>
    %585 = stablehlo.multiply %584, %578 : tensor<1x197x4096xf32>
    %586 = stablehlo.add %585, %cst_11 : tensor<1x197x4096xf32>
    %587 = stablehlo.multiply %586, %578 : tensor<1x197x4096xf32>
    %588 = stablehlo.add %587, %cst_12 : tensor<1x197x4096xf32>
    %589 = stablehlo.multiply %588, %578 : tensor<1x197x4096xf32>
    %590 = stablehlo.add %589, %cst_13 : tensor<1x197x4096xf32>
    %591 = stablehlo.multiply %cst_14, %578 : tensor<1x197x4096xf32>
    %592 = stablehlo.add %591, %cst_15 : tensor<1x197x4096xf32>
    %593 = stablehlo.multiply %592, %578 : tensor<1x197x4096xf32>
    %594 = stablehlo.add %593, %cst_16 : tensor<1x197x4096xf32>
    %595 = stablehlo.multiply %594, %578 : tensor<1x197x4096xf32>
    %596 = stablehlo.add %595, %cst_17 : tensor<1x197x4096xf32>
    %597 = stablehlo.multiply %596, %578 : tensor<1x197x4096xf32>
    %598 = stablehlo.add %597, %cst_18 : tensor<1x197x4096xf32>
    %599 = stablehlo.multiply %577, %590 : tensor<1x197x4096xf32>
    %600 = stablehlo.divide %599, %598 : tensor<1x197x4096xf32>
    %601 = stablehlo.clamp %cst_19, %600, %cst_20 : tensor<1x197x4096xf32>
    %602 = stablehlo.convert %601 : (tensor<1x197x4096xf32>) -> tensor<1x197x4096xbf16>
    %603 = stablehlo.add %602, %cst_2 : tensor<1x197x4096xbf16>
    %604 = stablehlo.multiply %603, %574 : tensor<1x197x4096xbf16>
    %605 = stablehlo.reshape %604 : (tensor<1x197x4096xbf16>) -> tensor<197x4096xbf16>
    %606 = stablehlo.convert %605 : (tensor<197x4096xbf16>) -> tensor<197x4096xf32>
    %607 = stablehlo.dot_general %606, %arg184, contracting_dims = [1] x [0] : (tensor<197x4096xf32>, tensor<4096x1024xf32>) -> tensor<197x1024xf32>
    %608 = stablehlo.broadcast_in_dim %607, dims = [0, 1] : (tensor<197x1024xf32>) -> tensor<197x1024xf32>
    %609 = stablehlo.multiply %608, %60 : tensor<197x1024xf32>
    %610 = stablehlo.broadcast_in_dim %609, dims = [0, 1] : (tensor<197x1024xf32>) -> tensor<197x1024xf32>
    %611 = stablehlo.broadcast_in_dim %arg185, dims = [1] : (tensor<1024xf32>) -> tensor<197x1024xf32>
    %612 = stablehlo.add %610, %611 : tensor<197x1024xf32>
    %613 = stablehlo.convert %612 : (tensor<197x1024xf32>) -> tensor<197x1024xbf16>
    %614 = stablehlo.reshape %613 : (tensor<197x1024xbf16>) -> tensor<1x197x1024xbf16>
    %615 = stablehlo.broadcast_in_dim %arg20, dims = [2] : (tensor<1024xbf16>) -> tensor<1x197x1024xbf16>
    %616 = stablehlo.broadcast_in_dim %614, dims = [0, 1, 2] : (tensor<1x197x1024xbf16>) -> tensor<1x197x1024xbf16>
    %617 = stablehlo.multiply %615, %616 : tensor<1x197x1024xbf16>
    %618 = stablehlo.add %617, %526 : tensor<1x197x1024xbf16>
    %619 = stablehlo.convert %618 : (tensor<1x197x1024xbf16>) -> tensor<1x197x1024xf32>
    %620 = stablehlo.convert %619 : (tensor<1x197x1024xf32>) -> tensor<1x197x1024xf64>
    %621 = stablehlo.reduce(%620 init: %cst) applies stablehlo.add across dimensions = [2] : (tensor<1x197x1024xf64>, tensor<f64>) -> tensor<1x197xf64>
    %622 = stablehlo.reshape %621 : (tensor<1x197xf64>) -> tensor<1x197x1xf64>
    %623 = stablehlo.broadcast_in_dim %622, dims = [0, 1, 2] : (tensor<1x197x1xf64>) -> tensor<1x197x1xf64>
    %624 = stablehlo.divide %623, %15 : tensor<1x197x1xf64>
    %625 = stablehlo.broadcast_in_dim %620, dims = [0, 1, 2] : (tensor<1x197x1024xf64>) -> tensor<1x197x1024xf64>
    %626 = stablehlo.broadcast_in_dim %624, dims = [0, 1, 2] : (tensor<1x197x1xf64>) -> tensor<1x197x1024xf64>
    %627 = stablehlo.subtract %625, %626 : tensor<1x197x1024xf64>
    %628 = stablehlo.multiply %627, %627 : tensor<1x197x1024xf64>
    %629 = stablehlo.reduce(%628 init: %cst) applies stablehlo.add across dimensions = [2] : (tensor<1x197x1024xf64>, tensor<f64>) -> tensor<1x197xf64>
    %630 = stablehlo.reshape %629 : (tensor<1x197xf64>) -> tensor<1x197x1xf64>
    %631 = stablehlo.broadcast_in_dim %630, dims = [0, 1, 2] : (tensor<1x197x1xf64>) -> tensor<1x197x1xf64>
    %632 = stablehlo.divide %631, %15 : tensor<1x197x1xf64>
    %633 = stablehlo.convert %632 : (tensor<1x197x1xf64>) -> tensor<1x197x1xf32>
    %634 = stablehlo.reduce(%619 init: %cst_0) applies stablehlo.add across dimensions = [2] : (tensor<1x197x1024xf32>, tensor<f32>) -> tensor<1x197xf32>
    %635 = stablehlo.reshape %634 : (tensor<1x197xf32>) -> tensor<1x197x1xf32>
    %636 = stablehlo.broadcast_in_dim %635, dims = [0, 1, 2] : (tensor<1x197x1xf32>) -> tensor<1x197x1xf32>
    %637 = stablehlo.divide %636, %31 : tensor<1x197x1xf32>
    %638 = stablehlo.broadcast_in_dim %633, dims = [0, 1, 2] : (tensor<1x197x1xf32>) -> tensor<1x197x1xf32>
    %639 = stablehlo.add %638, %36 : tensor<1x197x1xf32>
    %640 = stablehlo.rsqrt %639 : tensor<1x197x1xf32>
    %641 = stablehlo.broadcast_in_dim %619, dims = [0, 1, 2] : (tensor<1x197x1024xf32>) -> tensor<1x197x1024xf32>
    %642 = stablehlo.broadcast_in_dim %637, dims = [0, 1, 2] : (tensor<1x197x1xf32>) -> tensor<1x197x1024xf32>
    %643 = stablehlo.subtract %641, %642 : tensor<1x197x1024xf32>
    %644 = stablehlo.broadcast_in_dim %643, dims = [0, 1, 2] : (tensor<1x197x1024xf32>) -> tensor<1x197x1024xf32>
    %645 = stablehlo.broadcast_in_dim %640, dims = [0, 1, 2] : (tensor<1x197x1xf32>) -> tensor<1x197x1024xf32>
    %646 = stablehlo.multiply %644, %645 : tensor<1x197x1024xf32>
    %647 = stablehlo.convert %arg21 : (tensor<1024xbf16>) -> tensor<1024xf32>
    %648 = stablehlo.broadcast_in_dim %646, dims = [0, 1, 2] : (tensor<1x197x1024xf32>) -> tensor<1x197x1024xf32>
    %649 = stablehlo.broadcast_in_dim %647, dims = [2] : (tensor<1024xf32>) -> tensor<1x197x1024xf32>
    %650 = stablehlo.multiply %648, %649 : tensor<1x197x1024xf32>
    %651 = stablehlo.convert %arg22 : (tensor<1024xbf16>) -> tensor<1024xf32>
    %652 = stablehlo.broadcast_in_dim %650, dims = [0, 1, 2] : (tensor<1x197x1024xf32>) -> tensor<1x197x1024xf32>
    %653 = stablehlo.broadcast_in_dim %651, dims = [2] : (tensor<1024xf32>) -> tensor<1x197x1024xf32>
    %654 = stablehlo.add %652, %653 : tensor<1x197x1024xf32>
    %655 = stablehlo.convert %654 : (tensor<1x197x1024xf32>) -> tensor<1x197x1024xbf16>
    %656 = stablehlo.reshape %655 : (tensor<1x197x1024xbf16>) -> tensor<197x1024xbf16>
    %657 = stablehlo.convert %656 : (tensor<197x1024xbf16>) -> tensor<197x1024xf32>
    %658 = stablehlo.dot_general %657, %arg186, contracting_dims = [1] x [0] : (tensor<197x1024xf32>, tensor<1024x1024xf32>) -> tensor<197x1024xf32>
    %659 = stablehlo.broadcast_in_dim %658, dims = [0, 1] : (tensor<197x1024xf32>) -> tensor<197x1024xf32>
    %660 = stablehlo.multiply %659, %60 : tensor<197x1024xf32>
    %661 = stablehlo.broadcast_in_dim %660, dims = [0, 1] : (tensor<197x1024xf32>) -> tensor<197x1024xf32>
    %662 = stablehlo.broadcast_in_dim %arg187, dims = [1] : (tensor<1024xf32>) -> tensor<197x1024xf32>
    %663 = stablehlo.add %661, %662 : tensor<197x1024xf32>
    %664 = stablehlo.convert %663 : (tensor<197x1024xf32>) -> tensor<197x1024xbf16>
    %665 = stablehlo.reshape %664 : (tensor<197x1024xbf16>) -> tensor<1x197x1024xbf16>
    %666 = stablehlo.dot_general %656, %arg188, contracting_dims = [1] x [0] : (tensor<197x1024xbf16>, tensor<1024x1024xbf16>) -> tensor<197x1024xbf16>
    %667 = stablehlo.reshape %666 : (tensor<197x1024xbf16>) -> tensor<1x197x1024xbf16>
    %668 = stablehlo.reshape %667 : (tensor<1x197x1024xbf16>) -> tensor<1x197x16x64xbf16>
    %669 = stablehlo.transpose %668, dims = [0, 2, 1, 3] : (tensor<1x197x16x64xbf16>) -> tensor<1x16x197x64xbf16>
    %670 = stablehlo.dot_general %657, %arg189, contracting_dims = [1] x [0] : (tensor<197x1024xf32>, tensor<1024x1024xf32>) -> tensor<197x1024xf32>
    %671 = stablehlo.broadcast_in_dim %670, dims = [0, 1] : (tensor<197x1024xf32>) -> tensor<197x1024xf32>
    %672 = stablehlo.multiply %671, %60 : tensor<197x1024xf32>
    %673 = stablehlo.broadcast_in_dim %672, dims = [0, 1] : (tensor<197x1024xf32>) -> tensor<197x1024xf32>
    %674 = stablehlo.broadcast_in_dim %arg190, dims = [1] : (tensor<1024xf32>) -> tensor<197x1024xf32>
    %675 = stablehlo.add %673, %674 : tensor<197x1024xf32>
    %676 = stablehlo.convert %675 : (tensor<197x1024xf32>) -> tensor<197x1024xbf16>
    %677 = stablehlo.reshape %676 : (tensor<197x1024xbf16>) -> tensor<1x197x1024xbf16>
    %678 = stablehlo.reshape %677 : (tensor<1x197x1024xbf16>) -> tensor<1x197x16x64xbf16>
    %679 = stablehlo.transpose %678, dims = [0, 2, 1, 3] : (tensor<1x197x16x64xbf16>) -> tensor<1x16x197x64xbf16>
    %680 = stablehlo.reshape %665 : (tensor<1x197x1024xbf16>) -> tensor<1x197x16x64xbf16>
    %681 = stablehlo.transpose %680, dims = [0, 2, 1, 3] : (tensor<1x197x16x64xbf16>) -> tensor<1x16x197x64xbf16>
    %682 = stablehlo.transpose %669, dims = [0, 1, 3, 2] : (tensor<1x16x197x64xbf16>) -> tensor<1x16x64x197xbf16>
    %683 = stablehlo.reshape %681 : (tensor<1x16x197x64xbf16>) -> tensor<16x197x64xbf16>
    %684 = stablehlo.reshape %682 : (tensor<1x16x64x197xbf16>) -> tensor<16x64x197xbf16>
    %685 = stablehlo.broadcast_in_dim %684, dims = [0, 1, 2] : (tensor<16x64x197xbf16>) -> tensor<16x64x197xbf16>
    %686 = stablehlo.dot_general %683, %685, batching_dims = [0] x [0], contracting_dims = [2] x [1] : (tensor<16x197x64xbf16>, tensor<16x64x197xbf16>) -> tensor<16x197x197xbf16>
    %687 = stablehlo.reshape %686 : (tensor<16x197x197xbf16>) -> tensor<1x16x197x197xbf16>
    %688 = stablehlo.broadcast_in_dim %687, dims = [0, 1, 2, 3] : (tensor<1x16x197x197xbf16>) -> tensor<1x16x197x197xbf16>
    %689 = stablehlo.divide %688, %92 : tensor<1x16x197x197xbf16>
    %690 = stablehlo.add %689, %arg191 : tensor<1x16x197x197xbf16>
    %691 = stablehlo.convert %690 : (tensor<1x16x197x197xbf16>) -> tensor<1x16x197x197xf32>
    %692 = stablehlo.reduce(%691 init: %cst_1) applies stablehlo.maximum across dimensions = [3] : (tensor<1x16x197x197xf32>, tensor<f32>) -> tensor<1x16x197xf32>
    %693 = stablehlo.reshape %692 : (tensor<1x16x197xf32>) -> tensor<1x16x197x1xf32>
    %694 = stablehlo.broadcast_in_dim %691, dims = [0, 1, 2, 3] : (tensor<1x16x197x197xf32>) -> tensor<1x16x197x197xf32>
    %695 = stablehlo.broadcast_in_dim %693, dims = [0, 1, 2, 3] : (tensor<1x16x197x1xf32>) -> tensor<1x16x197x197xf32>
    %696 = stablehlo.subtract %694, %695 : tensor<1x16x197x197xf32>
    %697 = stablehlo.exponential %696 : tensor<1x16x197x197xf32>
    %698 = stablehlo.reduce(%697 init: %cst_0) applies stablehlo.add across dimensions = [3] : (tensor<1x16x197x197xf32>, tensor<f32>) -> tensor<1x16x197xf32>
    %699 = stablehlo.reshape %698 : (tensor<1x16x197xf32>) -> tensor<1x16x197x1xf32>
    %700 = stablehlo.broadcast_in_dim %697, dims = [0, 1, 2, 3] : (tensor<1x16x197x197xf32>) -> tensor<1x16x197x197xf32>
    %701 = stablehlo.broadcast_in_dim %699, dims = [0, 1, 2, 3] : (tensor<1x16x197x1xf32>) -> tensor<1x16x197x197xf32>
    %702 = stablehlo.divide %700, %701 : tensor<1x16x197x197xf32>
    %703 = stablehlo.convert %702 : (tensor<1x16x197x197xf32>) -> tensor<1x16x197x197xbf16>
    %704 = stablehlo.reshape %703 : (tensor<1x16x197x197xbf16>) -> tensor<16x197x197xbf16>
    %705 = stablehlo.reshape %679 : (tensor<1x16x197x64xbf16>) -> tensor<16x197x64xbf16>
    %706 = stablehlo.broadcast_in_dim %705, dims = [0, 1, 2] : (tensor<16x197x64xbf16>) -> tensor<16x197x64xbf16>
    %707 = stablehlo.dot_general %704, %706, batching_dims = [0] x [0], contracting_dims = [2] x [1] : (tensor<16x197x197xbf16>, tensor<16x197x64xbf16>) -> tensor<16x197x64xbf16>
    %708 = stablehlo.reshape %707 : (tensor<16x197x64xbf16>) -> tensor<1x16x197x64xbf16>
    %709 = stablehlo.transpose %708, dims = [0, 2, 1, 3] : (tensor<1x16x197x64xbf16>) -> tensor<1x197x16x64xbf16>
    %710 = stablehlo.reshape %709 : (tensor<1x197x16x64xbf16>) -> tensor<1x197x1024xbf16>
    %711 = stablehlo.reshape %710 : (tensor<1x197x1024xbf16>) -> tensor<197x1024xbf16>
    %712 = stablehlo.convert %711 : (tensor<197x1024xbf16>) -> tensor<197x1024xf32>
    %713 = stablehlo.dot_general %712, %arg192, contracting_dims = [1] x [0] : (tensor<197x1024xf32>, tensor<1024x1024xf32>) -> tensor<197x1024xf32>
    %714 = stablehlo.broadcast_in_dim %713, dims = [0, 1] : (tensor<197x1024xf32>) -> tensor<197x1024xf32>
    %715 = stablehlo.multiply %714, %60 : tensor<197x1024xf32>
    %716 = stablehlo.broadcast_in_dim %715, dims = [0, 1] : (tensor<197x1024xf32>) -> tensor<197x1024xf32>
    %717 = stablehlo.broadcast_in_dim %arg193, dims = [1] : (tensor<1024xf32>) -> tensor<197x1024xf32>
    %718 = stablehlo.add %716, %717 : tensor<197x1024xf32>
    %719 = stablehlo.convert %718 : (tensor<197x1024xf32>) -> tensor<197x1024xbf16>
    %720 = stablehlo.reshape %719 : (tensor<197x1024xbf16>) -> tensor<1x197x1024xbf16>
    %721 = stablehlo.broadcast_in_dim %arg23, dims = [2] : (tensor<1024xbf16>) -> tensor<1x197x1024xbf16>
    %722 = stablehlo.broadcast_in_dim %720, dims = [0, 1, 2] : (tensor<1x197x1024xbf16>) -> tensor<1x197x1024xbf16>
    %723 = stablehlo.multiply %721, %722 : tensor<1x197x1024xbf16>
    %724 = stablehlo.add %723, %618 : tensor<1x197x1024xbf16>
    %725 = stablehlo.convert %724 : (tensor<1x197x1024xbf16>) -> tensor<1x197x1024xf32>
    %726 = stablehlo.convert %725 : (tensor<1x197x1024xf32>) -> tensor<1x197x1024xf64>
    %727 = stablehlo.reduce(%726 init: %cst) applies stablehlo.add across dimensions = [2] : (tensor<1x197x1024xf64>, tensor<f64>) -> tensor<1x197xf64>
    %728 = stablehlo.reshape %727 : (tensor<1x197xf64>) -> tensor<1x197x1xf64>
    %729 = stablehlo.broadcast_in_dim %728, dims = [0, 1, 2] : (tensor<1x197x1xf64>) -> tensor<1x197x1xf64>
    %730 = stablehlo.divide %729, %15 : tensor<1x197x1xf64>
    %731 = stablehlo.broadcast_in_dim %726, dims = [0, 1, 2] : (tensor<1x197x1024xf64>) -> tensor<1x197x1024xf64>
    %732 = stablehlo.broadcast_in_dim %730, dims = [0, 1, 2] : (tensor<1x197x1xf64>) -> tensor<1x197x1024xf64>
    %733 = stablehlo.subtract %731, %732 : tensor<1x197x1024xf64>
    %734 = stablehlo.multiply %733, %733 : tensor<1x197x1024xf64>
    %735 = stablehlo.reduce(%734 init: %cst) applies stablehlo.add across dimensions = [2] : (tensor<1x197x1024xf64>, tensor<f64>) -> tensor<1x197xf64>
    %736 = stablehlo.reshape %735 : (tensor<1x197xf64>) -> tensor<1x197x1xf64>
    %737 = stablehlo.broadcast_in_dim %736, dims = [0, 1, 2] : (tensor<1x197x1xf64>) -> tensor<1x197x1xf64>
    %738 = stablehlo.divide %737, %15 : tensor<1x197x1xf64>
    %739 = stablehlo.convert %738 : (tensor<1x197x1xf64>) -> tensor<1x197x1xf32>
    %740 = stablehlo.reduce(%725 init: %cst_0) applies stablehlo.add across dimensions = [2] : (tensor<1x197x1024xf32>, tensor<f32>) -> tensor<1x197xf32>
    %741 = stablehlo.reshape %740 : (tensor<1x197xf32>) -> tensor<1x197x1xf32>
    %742 = stablehlo.broadcast_in_dim %741, dims = [0, 1, 2] : (tensor<1x197x1xf32>) -> tensor<1x197x1xf32>
    %743 = stablehlo.divide %742, %31 : tensor<1x197x1xf32>
    %744 = stablehlo.broadcast_in_dim %739, dims = [0, 1, 2] : (tensor<1x197x1xf32>) -> tensor<1x197x1xf32>
    %745 = stablehlo.add %744, %36 : tensor<1x197x1xf32>
    %746 = stablehlo.rsqrt %745 : tensor<1x197x1xf32>
    %747 = stablehlo.broadcast_in_dim %725, dims = [0, 1, 2] : (tensor<1x197x1024xf32>) -> tensor<1x197x1024xf32>
    %748 = stablehlo.broadcast_in_dim %743, dims = [0, 1, 2] : (tensor<1x197x1xf32>) -> tensor<1x197x1024xf32>
    %749 = stablehlo.subtract %747, %748 : tensor<1x197x1024xf32>
    %750 = stablehlo.broadcast_in_dim %749, dims = [0, 1, 2] : (tensor<1x197x1024xf32>) -> tensor<1x197x1024xf32>
    %751 = stablehlo.broadcast_in_dim %746, dims = [0, 1, 2] : (tensor<1x197x1xf32>) -> tensor<1x197x1024xf32>
    %752 = stablehlo.multiply %750, %751 : tensor<1x197x1024xf32>
    %753 = stablehlo.convert %arg24 : (tensor<1024xbf16>) -> tensor<1024xf32>
    %754 = stablehlo.broadcast_in_dim %752, dims = [0, 1, 2] : (tensor<1x197x1024xf32>) -> tensor<1x197x1024xf32>
    %755 = stablehlo.broadcast_in_dim %753, dims = [2] : (tensor<1024xf32>) -> tensor<1x197x1024xf32>
    %756 = stablehlo.multiply %754, %755 : tensor<1x197x1024xf32>
    %757 = stablehlo.convert %arg25 : (tensor<1024xbf16>) -> tensor<1024xf32>
    %758 = stablehlo.broadcast_in_dim %756, dims = [0, 1, 2] : (tensor<1x197x1024xf32>) -> tensor<1x197x1024xf32>
    %759 = stablehlo.broadcast_in_dim %757, dims = [2] : (tensor<1024xf32>) -> tensor<1x197x1024xf32>
    %760 = stablehlo.add %758, %759 : tensor<1x197x1024xf32>
    %761 = stablehlo.convert %760 : (tensor<1x197x1024xf32>) -> tensor<1x197x1024xbf16>
    %762 = stablehlo.reshape %761 : (tensor<1x197x1024xbf16>) -> tensor<197x1024xbf16>
    %763 = stablehlo.convert %762 : (tensor<197x1024xbf16>) -> tensor<197x1024xf32>
    %764 = stablehlo.dot_general %763, %arg194, contracting_dims = [1] x [0] : (tensor<197x1024xf32>, tensor<1024x4096xf32>) -> tensor<197x4096xf32>
    %765 = stablehlo.broadcast_in_dim %764, dims = [0, 1] : (tensor<197x4096xf32>) -> tensor<197x4096xf32>
    %766 = stablehlo.multiply %765, %170 : tensor<197x4096xf32>
    %767 = stablehlo.broadcast_in_dim %766, dims = [0, 1] : (tensor<197x4096xf32>) -> tensor<197x4096xf32>
    %768 = stablehlo.broadcast_in_dim %arg195, dims = [1] : (tensor<4096xf32>) -> tensor<197x4096xf32>
    %769 = stablehlo.add %767, %768 : tensor<197x4096xf32>
    %770 = stablehlo.convert %769 : (tensor<197x4096xf32>) -> tensor<197x4096xbf16>
    %771 = stablehlo.reshape %770 : (tensor<197x4096xbf16>) -> tensor<1x197x4096xbf16>
    %772 = stablehlo.multiply %771, %cst_4 : tensor<1x197x4096xbf16>
    %773 = stablehlo.multiply %771, %178 : tensor<1x197x4096xbf16>
    %774 = stablehlo.convert %773 : (tensor<1x197x4096xbf16>) -> tensor<1x197x4096xf32>
    %775 = stablehlo.clamp %cst_5, %774, %cst_6 : tensor<1x197x4096xf32>
    %776 = stablehlo.multiply %775, %775 : tensor<1x197x4096xf32>
    %777 = stablehlo.multiply %cst_7, %776 : tensor<1x197x4096xf32>
    %778 = stablehlo.add %777, %cst_8 : tensor<1x197x4096xf32>
    %779 = stablehlo.multiply %778, %776 : tensor<1x197x4096xf32>
    %780 = stablehlo.add %779, %cst_9 : tensor<1x197x4096xf32>
    %781 = stablehlo.multiply %780, %776 : tensor<1x197x4096xf32>
    %782 = stablehlo.add %781, %cst_10 : tensor<1x197x4096xf32>
    %783 = stablehlo.multiply %782, %776 : tensor<1x197x4096xf32>
    %784 = stablehlo.add %783, %cst_11 : tensor<1x197x4096xf32>
    %785 = stablehlo.multiply %784, %776 : tensor<1x197x4096xf32>
    %786 = stablehlo.add %785, %cst_12 : tensor<1x197x4096xf32>
    %787 = stablehlo.multiply %786, %776 : tensor<1x197x4096xf32>
    %788 = stablehlo.add %787, %cst_13 : tensor<1x197x4096xf32>
    %789 = stablehlo.multiply %cst_14, %776 : tensor<1x197x4096xf32>
    %790 = stablehlo.add %789, %cst_15 : tensor<1x197x4096xf32>
    %791 = stablehlo.multiply %790, %776 : tensor<1x197x4096xf32>
    %792 = stablehlo.add %791, %cst_16 : tensor<1x197x4096xf32>
    %793 = stablehlo.multiply %792, %776 : tensor<1x197x4096xf32>
    %794 = stablehlo.add %793, %cst_17 : tensor<1x197x4096xf32>
    %795 = stablehlo.multiply %794, %776 : tensor<1x197x4096xf32>
    %796 = stablehlo.add %795, %cst_18 : tensor<1x197x4096xf32>
    %797 = stablehlo.multiply %775, %788 : tensor<1x197x4096xf32>
    %798 = stablehlo.divide %797, %796 : tensor<1x197x4096xf32>
    %799 = stablehlo.clamp %cst_19, %798, %cst_20 : tensor<1x197x4096xf32>
    %800 = stablehlo.convert %799 : (tensor<1x197x4096xf32>) -> tensor<1x197x4096xbf16>
    %801 = stablehlo.add %800, %cst_2 : tensor<1x197x4096xbf16>
    %802 = stablehlo.multiply %801, %772 : tensor<1x197x4096xbf16>
    %803 = stablehlo.reshape %802 : (tensor<1x197x4096xbf16>) -> tensor<197x4096xbf16>
    %804 = stablehlo.convert %803 : (tensor<197x4096xbf16>) -> tensor<197x4096xf32>
    %805 = stablehlo.dot_general %804, %arg196, contracting_dims = [1] x [0] : (tensor<197x4096xf32>, tensor<4096x1024xf32>) -> tensor<197x1024xf32>
    %806 = stablehlo.broadcast_in_dim %805, dims = [0, 1] : (tensor<197x1024xf32>) -> tensor<197x1024xf32>
    %807 = stablehlo.multiply %806, %60 : tensor<197x1024xf32>
    %808 = stablehlo.broadcast_in_dim %807, dims = [0, 1] : (tensor<197x1024xf32>) -> tensor<197x1024xf32>
    %809 = stablehlo.broadcast_in_dim %arg197, dims = [1] : (tensor<1024xf32>) -> tensor<197x1024xf32>
    %810 = stablehlo.add %808, %809 : tensor<197x1024xf32>
    %811 = stablehlo.convert %810 : (tensor<197x1024xf32>) -> tensor<197x1024xbf16>
    %812 = stablehlo.reshape %811 : (tensor<197x1024xbf16>) -> tensor<1x197x1024xbf16>
    %813 = stablehlo.broadcast_in_dim %arg26, dims = [2] : (tensor<1024xbf16>) -> tensor<1x197x1024xbf16>
    %814 = stablehlo.broadcast_in_dim %812, dims = [0, 1, 2] : (tensor<1x197x1024xbf16>) -> tensor<1x197x1024xbf16>
    %815 = stablehlo.multiply %813, %814 : tensor<1x197x1024xbf16>
    %816 = stablehlo.add %815, %724 : tensor<1x197x1024xbf16>
    %817 = stablehlo.convert %816 : (tensor<1x197x1024xbf16>) -> tensor<1x197x1024xf32>
    %818 = stablehlo.convert %817 : (tensor<1x197x1024xf32>) -> tensor<1x197x1024xf64>
    %819 = stablehlo.reduce(%818 init: %cst) applies stablehlo.add across dimensions = [2] : (tensor<1x197x1024xf64>, tensor<f64>) -> tensor<1x197xf64>
    %820 = stablehlo.reshape %819 : (tensor<1x197xf64>) -> tensor<1x197x1xf64>
    %821 = stablehlo.broadcast_in_dim %820, dims = [0, 1, 2] : (tensor<1x197x1xf64>) -> tensor<1x197x1xf64>
    %822 = stablehlo.divide %821, %15 : tensor<1x197x1xf64>
    %823 = stablehlo.broadcast_in_dim %818, dims = [0, 1, 2] : (tensor<1x197x1024xf64>) -> tensor<1x197x1024xf64>
    %824 = stablehlo.broadcast_in_dim %822, dims = [0, 1, 2] : (tensor<1x197x1xf64>) -> tensor<1x197x1024xf64>
    %825 = stablehlo.subtract %823, %824 : tensor<1x197x1024xf64>
    %826 = stablehlo.multiply %825, %825 : tensor<1x197x1024xf64>
    %827 = stablehlo.reduce(%826 init: %cst) applies stablehlo.add across dimensions = [2] : (tensor<1x197x1024xf64>, tensor<f64>) -> tensor<1x197xf64>
    %828 = stablehlo.reshape %827 : (tensor<1x197xf64>) -> tensor<1x197x1xf64>
    %829 = stablehlo.broadcast_in_dim %828, dims = [0, 1, 2] : (tensor<1x197x1xf64>) -> tensor<1x197x1xf64>
    %830 = stablehlo.divide %829, %15 : tensor<1x197x1xf64>
    %831 = stablehlo.convert %830 : (tensor<1x197x1xf64>) -> tensor<1x197x1xf32>
    %832 = stablehlo.reduce(%817 init: %cst_0) applies stablehlo.add across dimensions = [2] : (tensor<1x197x1024xf32>, tensor<f32>) -> tensor<1x197xf32>
    %833 = stablehlo.reshape %832 : (tensor<1x197xf32>) -> tensor<1x197x1xf32>
    %834 = stablehlo.broadcast_in_dim %833, dims = [0, 1, 2] : (tensor<1x197x1xf32>) -> tensor<1x197x1xf32>
    %835 = stablehlo.divide %834, %31 : tensor<1x197x1xf32>
    %836 = stablehlo.broadcast_in_dim %831, dims = [0, 1, 2] : (tensor<1x197x1xf32>) -> tensor<1x197x1xf32>
    %837 = stablehlo.add %836, %36 : tensor<1x197x1xf32>
    %838 = stablehlo.rsqrt %837 : tensor<1x197x1xf32>
    %839 = stablehlo.broadcast_in_dim %817, dims = [0, 1, 2] : (tensor<1x197x1024xf32>) -> tensor<1x197x1024xf32>
    %840 = stablehlo.broadcast_in_dim %835, dims = [0, 1, 2] : (tensor<1x197x1xf32>) -> tensor<1x197x1024xf32>
    %841 = stablehlo.subtract %839, %840 : tensor<1x197x1024xf32>
    %842 = stablehlo.broadcast_in_dim %841, dims = [0, 1, 2] : (tensor<1x197x1024xf32>) -> tensor<1x197x1024xf32>
    %843 = stablehlo.broadcast_in_dim %838, dims = [0, 1, 2] : (tensor<1x197x1xf32>) -> tensor<1x197x1024xf32>
    %844 = stablehlo.multiply %842, %843 : tensor<1x197x1024xf32>
    %845 = stablehlo.convert %arg27 : (tensor<1024xbf16>) -> tensor<1024xf32>
    %846 = stablehlo.broadcast_in_dim %844, dims = [0, 1, 2] : (tensor<1x197x1024xf32>) -> tensor<1x197x1024xf32>
    %847 = stablehlo.broadcast_in_dim %845, dims = [2] : (tensor<1024xf32>) -> tensor<1x197x1024xf32>
    %848 = stablehlo.multiply %846, %847 : tensor<1x197x1024xf32>
    %849 = stablehlo.convert %arg28 : (tensor<1024xbf16>) -> tensor<1024xf32>
    %850 = stablehlo.broadcast_in_dim %848, dims = [0, 1, 2] : (tensor<1x197x1024xf32>) -> tensor<1x197x1024xf32>
    %851 = stablehlo.broadcast_in_dim %849, dims = [2] : (tensor<1024xf32>) -> tensor<1x197x1024xf32>
    %852 = stablehlo.add %850, %851 : tensor<1x197x1024xf32>
    %853 = stablehlo.convert %852 : (tensor<1x197x1024xf32>) -> tensor<1x197x1024xbf16>
    %854 = stablehlo.reshape %853 : (tensor<1x197x1024xbf16>) -> tensor<197x1024xbf16>
    %855 = stablehlo.convert %854 : (tensor<197x1024xbf16>) -> tensor<197x1024xf32>
    %856 = stablehlo.dot_general %855, %arg198, contracting_dims = [1] x [0] : (tensor<197x1024xf32>, tensor<1024x1024xf32>) -> tensor<197x1024xf32>
    %857 = stablehlo.broadcast_in_dim %856, dims = [0, 1] : (tensor<197x1024xf32>) -> tensor<197x1024xf32>
    %858 = stablehlo.multiply %857, %60 : tensor<197x1024xf32>
    %859 = stablehlo.broadcast_in_dim %858, dims = [0, 1] : (tensor<197x1024xf32>) -> tensor<197x1024xf32>
    %860 = stablehlo.broadcast_in_dim %arg199, dims = [1] : (tensor<1024xf32>) -> tensor<197x1024xf32>
    %861 = stablehlo.add %859, %860 : tensor<197x1024xf32>
    %862 = stablehlo.convert %861 : (tensor<197x1024xf32>) -> tensor<197x1024xbf16>
    %863 = stablehlo.reshape %862 : (tensor<197x1024xbf16>) -> tensor<1x197x1024xbf16>
    %864 = stablehlo.dot_general %854, %arg200, contracting_dims = [1] x [0] : (tensor<197x1024xbf16>, tensor<1024x1024xbf16>) -> tensor<197x1024xbf16>
    %865 = stablehlo.reshape %864 : (tensor<197x1024xbf16>) -> tensor<1x197x1024xbf16>
    %866 = stablehlo.reshape %865 : (tensor<1x197x1024xbf16>) -> tensor<1x197x16x64xbf16>
    %867 = stablehlo.transpose %866, dims = [0, 2, 1, 3] : (tensor<1x197x16x64xbf16>) -> tensor<1x16x197x64xbf16>
    %868 = stablehlo.dot_general %855, %arg201, contracting_dims = [1] x [0] : (tensor<197x1024xf32>, tensor<1024x1024xf32>) -> tensor<197x1024xf32>
    %869 = stablehlo.broadcast_in_dim %868, dims = [0, 1] : (tensor<197x1024xf32>) -> tensor<197x1024xf32>
    %870 = stablehlo.multiply %869, %60 : tensor<197x1024xf32>
    %871 = stablehlo.broadcast_in_dim %870, dims = [0, 1] : (tensor<197x1024xf32>) -> tensor<197x1024xf32>
    %872 = stablehlo.broadcast_in_dim %arg202, dims = [1] : (tensor<1024xf32>) -> tensor<197x1024xf32>
    %873 = stablehlo.add %871, %872 : tensor<197x1024xf32>
    %874 = stablehlo.convert %873 : (tensor<197x1024xf32>) -> tensor<197x1024xbf16>
    %875 = stablehlo.reshape %874 : (tensor<197x1024xbf16>) -> tensor<1x197x1024xbf16>
    %876 = stablehlo.reshape %875 : (tensor<1x197x1024xbf16>) -> tensor<1x197x16x64xbf16>
    %877 = stablehlo.transpose %876, dims = [0, 2, 1, 3] : (tensor<1x197x16x64xbf16>) -> tensor<1x16x197x64xbf16>
    %878 = stablehlo.reshape %863 : (tensor<1x197x1024xbf16>) -> tensor<1x197x16x64xbf16>
    %879 = stablehlo.transpose %878, dims = [0, 2, 1, 3] : (tensor<1x197x16x64xbf16>) -> tensor<1x16x197x64xbf16>
    %880 = stablehlo.transpose %867, dims = [0, 1, 3, 2] : (tensor<1x16x197x64xbf16>) -> tensor<1x16x64x197xbf16>
    %881 = stablehlo.reshape %879 : (tensor<1x16x197x64xbf16>) -> tensor<16x197x64xbf16>
    %882 = stablehlo.reshape %880 : (tensor<1x16x64x197xbf16>) -> tensor<16x64x197xbf16>
    %883 = stablehlo.broadcast_in_dim %882, dims = [0, 1, 2] : (tensor<16x64x197xbf16>) -> tensor<16x64x197xbf16>
    %884 = stablehlo.dot_general %881, %883, batching_dims = [0] x [0], contracting_dims = [2] x [1] : (tensor<16x197x64xbf16>, tensor<16x64x197xbf16>) -> tensor<16x197x197xbf16>
    %885 = stablehlo.reshape %884 : (tensor<16x197x197xbf16>) -> tensor<1x16x197x197xbf16>
    %886 = stablehlo.broadcast_in_dim %885, dims = [0, 1, 2, 3] : (tensor<1x16x197x197xbf16>) -> tensor<1x16x197x197xbf16>
    %887 = stablehlo.divide %886, %92 : tensor<1x16x197x197xbf16>
    %888 = stablehlo.add %887, %arg203 : tensor<1x16x197x197xbf16>
    %889 = stablehlo.convert %888 : (tensor<1x16x197x197xbf16>) -> tensor<1x16x197x197xf32>
    %890 = stablehlo.reduce(%889 init: %cst_1) applies stablehlo.maximum across dimensions = [3] : (tensor<1x16x197x197xf32>, tensor<f32>) -> tensor<1x16x197xf32>
    %891 = stablehlo.reshape %890 : (tensor<1x16x197xf32>) -> tensor<1x16x197x1xf32>
    %892 = stablehlo.broadcast_in_dim %889, dims = [0, 1, 2, 3] : (tensor<1x16x197x197xf32>) -> tensor<1x16x197x197xf32>
    %893 = stablehlo.broadcast_in_dim %891, dims = [0, 1, 2, 3] : (tensor<1x16x197x1xf32>) -> tensor<1x16x197x197xf32>
    %894 = stablehlo.subtract %892, %893 : tensor<1x16x197x197xf32>
    %895 = stablehlo.exponential %894 : tensor<1x16x197x197xf32>
    %896 = stablehlo.reduce(%895 init: %cst_0) applies stablehlo.add across dimensions = [3] : (tensor<1x16x197x197xf32>, tensor<f32>) -> tensor<1x16x197xf32>
    %897 = stablehlo.reshape %896 : (tensor<1x16x197xf32>) -> tensor<1x16x197x1xf32>
    %898 = stablehlo.broadcast_in_dim %895, dims = [0, 1, 2, 3] : (tensor<1x16x197x197xf32>) -> tensor<1x16x197x197xf32>
    %899 = stablehlo.broadcast_in_dim %897, dims = [0, 1, 2, 3] : (tensor<1x16x197x1xf32>) -> tensor<1x16x197x197xf32>
    %900 = stablehlo.divide %898, %899 : tensor<1x16x197x197xf32>
    %901 = stablehlo.convert %900 : (tensor<1x16x197x197xf32>) -> tensor<1x16x197x197xbf16>
    %902 = stablehlo.reshape %901 : (tensor<1x16x197x197xbf16>) -> tensor<16x197x197xbf16>
    %903 = stablehlo.reshape %877 : (tensor<1x16x197x64xbf16>) -> tensor<16x197x64xbf16>
    %904 = stablehlo.broadcast_in_dim %903, dims = [0, 1, 2] : (tensor<16x197x64xbf16>) -> tensor<16x197x64xbf16>
    %905 = stablehlo.dot_general %902, %904, batching_dims = [0] x [0], contracting_dims = [2] x [1] : (tensor<16x197x197xbf16>, tensor<16x197x64xbf16>) -> tensor<16x197x64xbf16>
    %906 = stablehlo.reshape %905 : (tensor<16x197x64xbf16>) -> tensor<1x16x197x64xbf16>
    %907 = stablehlo.transpose %906, dims = [0, 2, 1, 3] : (tensor<1x16x197x64xbf16>) -> tensor<1x197x16x64xbf16>
    %908 = stablehlo.reshape %907 : (tensor<1x197x16x64xbf16>) -> tensor<1x197x1024xbf16>
    %909 = stablehlo.reshape %908 : (tensor<1x197x1024xbf16>) -> tensor<197x1024xbf16>
    %910 = stablehlo.convert %909 : (tensor<197x1024xbf16>) -> tensor<197x1024xf32>
    %911 = stablehlo.dot_general %910, %arg204, contracting_dims = [1] x [0] : (tensor<197x1024xf32>, tensor<1024x1024xf32>) -> tensor<197x1024xf32>
    %912 = stablehlo.broadcast_in_dim %911, dims = [0, 1] : (tensor<197x1024xf32>) -> tensor<197x1024xf32>
    %913 = stablehlo.multiply %912, %60 : tensor<197x1024xf32>
    %914 = stablehlo.broadcast_in_dim %913, dims = [0, 1] : (tensor<197x1024xf32>) -> tensor<197x1024xf32>
    %915 = stablehlo.broadcast_in_dim %arg205, dims = [1] : (tensor<1024xf32>) -> tensor<197x1024xf32>
    %916 = stablehlo.add %914, %915 : tensor<197x1024xf32>
    %917 = stablehlo.convert %916 : (tensor<197x1024xf32>) -> tensor<197x1024xbf16>
    %918 = stablehlo.reshape %917 : (tensor<197x1024xbf16>) -> tensor<1x197x1024xbf16>
    %919 = stablehlo.broadcast_in_dim %arg29, dims = [2] : (tensor<1024xbf16>) -> tensor<1x197x1024xbf16>
    %920 = stablehlo.broadcast_in_dim %918, dims = [0, 1, 2] : (tensor<1x197x1024xbf16>) -> tensor<1x197x1024xbf16>
    %921 = stablehlo.multiply %919, %920 : tensor<1x197x1024xbf16>
    %922 = stablehlo.add %921, %816 : tensor<1x197x1024xbf16>
    %923 = stablehlo.convert %922 : (tensor<1x197x1024xbf16>) -> tensor<1x197x1024xf32>
    %924 = stablehlo.convert %923 : (tensor<1x197x1024xf32>) -> tensor<1x197x1024xf64>
    %925 = stablehlo.reduce(%924 init: %cst) applies stablehlo.add across dimensions = [2] : (tensor<1x197x1024xf64>, tensor<f64>) -> tensor<1x197xf64>
    %926 = stablehlo.reshape %925 : (tensor<1x197xf64>) -> tensor<1x197x1xf64>
    %927 = stablehlo.broadcast_in_dim %926, dims = [0, 1, 2] : (tensor<1x197x1xf64>) -> tensor<1x197x1xf64>
    %928 = stablehlo.divide %927, %15 : tensor<1x197x1xf64>
    %929 = stablehlo.broadcast_in_dim %924, dims = [0, 1, 2] : (tensor<1x197x1024xf64>) -> tensor<1x197x1024xf64>
    %930 = stablehlo.broadcast_in_dim %928, dims = [0, 1, 2] : (tensor<1x197x1xf64>) -> tensor<1x197x1024xf64>
    %931 = stablehlo.subtract %929, %930 : tensor<1x197x1024xf64>
    %932 = stablehlo.multiply %931, %931 : tensor<1x197x1024xf64>
    %933 = stablehlo.reduce(%932 init: %cst) applies stablehlo.add across dimensions = [2] : (tensor<1x197x1024xf64>, tensor<f64>) -> tensor<1x197xf64>
    %934 = stablehlo.reshape %933 : (tensor<1x197xf64>) -> tensor<1x197x1xf64>
    %935 = stablehlo.broadcast_in_dim %934, dims = [0, 1, 2] : (tensor<1x197x1xf64>) -> tensor<1x197x1xf64>
    %936 = stablehlo.divide %935, %15 : tensor<1x197x1xf64>
    %937 = stablehlo.convert %936 : (tensor<1x197x1xf64>) -> tensor<1x197x1xf32>
    %938 = stablehlo.reduce(%923 init: %cst_0) applies stablehlo.add across dimensions = [2] : (tensor<1x197x1024xf32>, tensor<f32>) -> tensor<1x197xf32>
    %939 = stablehlo.reshape %938 : (tensor<1x197xf32>) -> tensor<1x197x1xf32>
    %940 = stablehlo.broadcast_in_dim %939, dims = [0, 1, 2] : (tensor<1x197x1xf32>) -> tensor<1x197x1xf32>
    %941 = stablehlo.divide %940, %31 : tensor<1x197x1xf32>
    %942 = stablehlo.broadcast_in_dim %937, dims = [0, 1, 2] : (tensor<1x197x1xf32>) -> tensor<1x197x1xf32>
    %943 = stablehlo.add %942, %36 : tensor<1x197x1xf32>
    %944 = stablehlo.rsqrt %943 : tensor<1x197x1xf32>
    %945 = stablehlo.broadcast_in_dim %923, dims = [0, 1, 2] : (tensor<1x197x1024xf32>) -> tensor<1x197x1024xf32>
    %946 = stablehlo.broadcast_in_dim %941, dims = [0, 1, 2] : (tensor<1x197x1xf32>) -> tensor<1x197x1024xf32>
    %947 = stablehlo.subtract %945, %946 : tensor<1x197x1024xf32>
    %948 = stablehlo.broadcast_in_dim %947, dims = [0, 1, 2] : (tensor<1x197x1024xf32>) -> tensor<1x197x1024xf32>
    %949 = stablehlo.broadcast_in_dim %944, dims = [0, 1, 2] : (tensor<1x197x1xf32>) -> tensor<1x197x1024xf32>
    %950 = stablehlo.multiply %948, %949 : tensor<1x197x1024xf32>
    %951 = stablehlo.convert %arg30 : (tensor<1024xbf16>) -> tensor<1024xf32>
    %952 = stablehlo.broadcast_in_dim %950, dims = [0, 1, 2] : (tensor<1x197x1024xf32>) -> tensor<1x197x1024xf32>
    %953 = stablehlo.broadcast_in_dim %951, dims = [2] : (tensor<1024xf32>) -> tensor<1x197x1024xf32>
    %954 = stablehlo.multiply %952, %953 : tensor<1x197x1024xf32>
    %955 = stablehlo.convert %arg31 : (tensor<1024xbf16>) -> tensor<1024xf32>
    %956 = stablehlo.broadcast_in_dim %954, dims = [0, 1, 2] : (tensor<1x197x1024xf32>) -> tensor<1x197x1024xf32>
    %957 = stablehlo.broadcast_in_dim %955, dims = [2] : (tensor<1024xf32>) -> tensor<1x197x1024xf32>
    %958 = stablehlo.add %956, %957 : tensor<1x197x1024xf32>
    %959 = stablehlo.convert %958 : (tensor<1x197x1024xf32>) -> tensor<1x197x1024xbf16>
    %960 = stablehlo.reshape %959 : (tensor<1x197x1024xbf16>) -> tensor<197x1024xbf16>
    %961 = stablehlo.convert %960 : (tensor<197x1024xbf16>) -> tensor<197x1024xf32>
    %962 = stablehlo.dot_general %961, %arg206, contracting_dims = [1] x [0] : (tensor<197x1024xf32>, tensor<1024x4096xf32>) -> tensor<197x4096xf32>
    %963 = stablehlo.broadcast_in_dim %962, dims = [0, 1] : (tensor<197x4096xf32>) -> tensor<197x4096xf32>
    %964 = stablehlo.multiply %963, %170 : tensor<197x4096xf32>
    %965 = stablehlo.broadcast_in_dim %964, dims = [0, 1] : (tensor<197x4096xf32>) -> tensor<197x4096xf32>
    %966 = stablehlo.broadcast_in_dim %arg207, dims = [1] : (tensor<4096xf32>) -> tensor<197x4096xf32>
    %967 = stablehlo.add %965, %966 : tensor<197x4096xf32>
    %968 = stablehlo.convert %967 : (tensor<197x4096xf32>) -> tensor<197x4096xbf16>
    %969 = stablehlo.reshape %968 : (tensor<197x4096xbf16>) -> tensor<1x197x4096xbf16>
    %970 = stablehlo.multiply %969, %cst_4 : tensor<1x197x4096xbf16>
    %971 = stablehlo.multiply %969, %178 : tensor<1x197x4096xbf16>
    %972 = stablehlo.convert %971 : (tensor<1x197x4096xbf16>) -> tensor<1x197x4096xf32>
    %973 = stablehlo.clamp %cst_5, %972, %cst_6 : tensor<1x197x4096xf32>
    %974 = stablehlo.multiply %973, %973 : tensor<1x197x4096xf32>
    %975 = stablehlo.multiply %cst_7, %974 : tensor<1x197x4096xf32>
    %976 = stablehlo.add %975, %cst_8 : tensor<1x197x4096xf32>
    %977 = stablehlo.multiply %976, %974 : tensor<1x197x4096xf32>
    %978 = stablehlo.add %977, %cst_9 : tensor<1x197x4096xf32>
    %979 = stablehlo.multiply %978, %974 : tensor<1x197x4096xf32>
    %980 = stablehlo.add %979, %cst_10 : tensor<1x197x4096xf32>
    %981 = stablehlo.multiply %980, %974 : tensor<1x197x4096xf32>
    %982 = stablehlo.add %981, %cst_11 : tensor<1x197x4096xf32>
    %983 = stablehlo.multiply %982, %974 : tensor<1x197x4096xf32>
    %984 = stablehlo.add %983, %cst_12 : tensor<1x197x4096xf32>
    %985 = stablehlo.multiply %984, %974 : tensor<1x197x4096xf32>
    %986 = stablehlo.add %985, %cst_13 : tensor<1x197x4096xf32>
    %987 = stablehlo.multiply %cst_14, %974 : tensor<1x197x4096xf32>
    %988 = stablehlo.add %987, %cst_15 : tensor<1x197x4096xf32>
    %989 = stablehlo.multiply %988, %974 : tensor<1x197x4096xf32>
    %990 = stablehlo.add %989, %cst_16 : tensor<1x197x4096xf32>
    %991 = stablehlo.multiply %990, %974 : tensor<1x197x4096xf32>
    %992 = stablehlo.add %991, %cst_17 : tensor<1x197x4096xf32>
    %993 = stablehlo.multiply %992, %974 : tensor<1x197x4096xf32>
    %994 = stablehlo.add %993, %cst_18 : tensor<1x197x4096xf32>
    %995 = stablehlo.multiply %973, %986 : tensor<1x197x4096xf32>
    %996 = stablehlo.divide %995, %994 : tensor<1x197x4096xf32>
    %997 = stablehlo.clamp %cst_19, %996, %cst_20 : tensor<1x197x4096xf32>
    %998 = stablehlo.convert %997 : (tensor<1x197x4096xf32>) -> tensor<1x197x4096xbf16>
    %999 = stablehlo.add %998, %cst_2 : tensor<1x197x4096xbf16>
    %1000 = stablehlo.multiply %999, %970 : tensor<1x197x4096xbf16>
    %1001 = stablehlo.reshape %1000 : (tensor<1x197x4096xbf16>) -> tensor<197x4096xbf16>
    %1002 = stablehlo.convert %1001 : (tensor<197x4096xbf16>) -> tensor<197x4096xf32>
    %1003 = stablehlo.dot_general %1002, %arg208, contracting_dims = [1] x [0] : (tensor<197x4096xf32>, tensor<4096x1024xf32>) -> tensor<197x1024xf32>
    %1004 = stablehlo.broadcast_in_dim %1003, dims = [0, 1] : (tensor<197x1024xf32>) -> tensor<197x1024xf32>
    %1005 = stablehlo.multiply %1004, %60 : tensor<197x1024xf32>
    %1006 = stablehlo.broadcast_in_dim %1005, dims = [0, 1] : (tensor<197x1024xf32>) -> tensor<197x1024xf32>
    %1007 = stablehlo.broadcast_in_dim %arg209, dims = [1] : (tensor<1024xf32>) -> tensor<197x1024xf32>
    %1008 = stablehlo.add %1006, %1007 : tensor<197x1024xf32>
    %1009 = stablehlo.convert %1008 : (tensor<197x1024xf32>) -> tensor<197x1024xbf16>
    %1010 = stablehlo.reshape %1009 : (tensor<197x1024xbf16>) -> tensor<1x197x1024xbf16>
    %1011 = stablehlo.broadcast_in_dim %arg32, dims = [2] : (tensor<1024xbf16>) -> tensor<1x197x1024xbf16>
    %1012 = stablehlo.broadcast_in_dim %1010, dims = [0, 1, 2] : (tensor<1x197x1024xbf16>) -> tensor<1x197x1024xbf16>
    %1013 = stablehlo.multiply %1011, %1012 : tensor<1x197x1024xbf16>
    %1014 = stablehlo.add %1013, %922 : tensor<1x197x1024xbf16>
    %1015 = stablehlo.convert %1014 : (tensor<1x197x1024xbf16>) -> tensor<1x197x1024xf32>
    %1016 = stablehlo.convert %1015 : (tensor<1x197x1024xf32>) -> tensor<1x197x1024xf64>
    %1017 = stablehlo.reduce(%1016 init: %cst) applies stablehlo.add across dimensions = [2] : (tensor<1x197x1024xf64>, tensor<f64>) -> tensor<1x197xf64>
    %1018 = stablehlo.reshape %1017 : (tensor<1x197xf64>) -> tensor<1x197x1xf64>
    %1019 = stablehlo.broadcast_in_dim %1018, dims = [0, 1, 2] : (tensor<1x197x1xf64>) -> tensor<1x197x1xf64>
    %1020 = stablehlo.divide %1019, %15 : tensor<1x197x1xf64>
    %1021 = stablehlo.broadcast_in_dim %1016, dims = [0, 1, 2] : (tensor<1x197x1024xf64>) -> tensor<1x197x1024xf64>
    %1022 = stablehlo.broadcast_in_dim %1020, dims = [0, 1, 2] : (tensor<1x197x1xf64>) -> tensor<1x197x1024xf64>
    %1023 = stablehlo.subtract %1021, %1022 : tensor<1x197x1024xf64>
    %1024 = stablehlo.multiply %1023, %1023 : tensor<1x197x1024xf64>
    %1025 = stablehlo.reduce(%1024 init: %cst) applies stablehlo.add across dimensions = [2] : (tensor<1x197x1024xf64>, tensor<f64>) -> tensor<1x197xf64>
    %1026 = stablehlo.reshape %1025 : (tensor<1x197xf64>) -> tensor<1x197x1xf64>
    %1027 = stablehlo.broadcast_in_dim %1026, dims = [0, 1, 2] : (tensor<1x197x1xf64>) -> tensor<1x197x1xf64>
    %1028 = stablehlo.divide %1027, %15 : tensor<1x197x1xf64>
    %1029 = stablehlo.convert %1028 : (tensor<1x197x1xf64>) -> tensor<1x197x1xf32>
    %1030 = stablehlo.reduce(%1015 init: %cst_0) applies stablehlo.add across dimensions = [2] : (tensor<1x197x1024xf32>, tensor<f32>) -> tensor<1x197xf32>
    %1031 = stablehlo.reshape %1030 : (tensor<1x197xf32>) -> tensor<1x197x1xf32>
    %1032 = stablehlo.broadcast_in_dim %1031, dims = [0, 1, 2] : (tensor<1x197x1xf32>) -> tensor<1x197x1xf32>
    %1033 = stablehlo.divide %1032, %31 : tensor<1x197x1xf32>
    %1034 = stablehlo.broadcast_in_dim %1029, dims = [0, 1, 2] : (tensor<1x197x1xf32>) -> tensor<1x197x1xf32>
    %1035 = stablehlo.add %1034, %36 : tensor<1x197x1xf32>
    %1036 = stablehlo.rsqrt %1035 : tensor<1x197x1xf32>
    %1037 = stablehlo.broadcast_in_dim %1015, dims = [0, 1, 2] : (tensor<1x197x1024xf32>) -> tensor<1x197x1024xf32>
    %1038 = stablehlo.broadcast_in_dim %1033, dims = [0, 1, 2] : (tensor<1x197x1xf32>) -> tensor<1x197x1024xf32>
    %1039 = stablehlo.subtract %1037, %1038 : tensor<1x197x1024xf32>
    %1040 = stablehlo.broadcast_in_dim %1039, dims = [0, 1, 2] : (tensor<1x197x1024xf32>) -> tensor<1x197x1024xf32>
    %1041 = stablehlo.broadcast_in_dim %1036, dims = [0, 1, 2] : (tensor<1x197x1xf32>) -> tensor<1x197x1024xf32>
    %1042 = stablehlo.multiply %1040, %1041 : tensor<1x197x1024xf32>
    %1043 = stablehlo.convert %arg33 : (tensor<1024xbf16>) -> tensor<1024xf32>
    %1044 = stablehlo.broadcast_in_dim %1042, dims = [0, 1, 2] : (tensor<1x197x1024xf32>) -> tensor<1x197x1024xf32>
    %1045 = stablehlo.broadcast_in_dim %1043, dims = [2] : (tensor<1024xf32>) -> tensor<1x197x1024xf32>
    %1046 = stablehlo.multiply %1044, %1045 : tensor<1x197x1024xf32>
    %1047 = stablehlo.convert %arg34 : (tensor<1024xbf16>) -> tensor<1024xf32>
    %1048 = stablehlo.broadcast_in_dim %1046, dims = [0, 1, 2] : (tensor<1x197x1024xf32>) -> tensor<1x197x1024xf32>
    %1049 = stablehlo.broadcast_in_dim %1047, dims = [2] : (tensor<1024xf32>) -> tensor<1x197x1024xf32>
    %1050 = stablehlo.add %1048, %1049 : tensor<1x197x1024xf32>
    %1051 = stablehlo.convert %1050 : (tensor<1x197x1024xf32>) -> tensor<1x197x1024xbf16>
    %1052 = stablehlo.reshape %1051 : (tensor<1x197x1024xbf16>) -> tensor<197x1024xbf16>
    %1053 = stablehlo.convert %1052 : (tensor<197x1024xbf16>) -> tensor<197x1024xf32>
    %1054 = stablehlo.dot_general %1053, %arg210, contracting_dims = [1] x [0] : (tensor<197x1024xf32>, tensor<1024x1024xf32>) -> tensor<197x1024xf32>
    %1055 = stablehlo.broadcast_in_dim %1054, dims = [0, 1] : (tensor<197x1024xf32>) -> tensor<197x1024xf32>
    %1056 = stablehlo.multiply %1055, %60 : tensor<197x1024xf32>
    %1057 = stablehlo.broadcast_in_dim %1056, dims = [0, 1] : (tensor<197x1024xf32>) -> tensor<197x1024xf32>
    %1058 = stablehlo.broadcast_in_dim %arg211, dims = [1] : (tensor<1024xf32>) -> tensor<197x1024xf32>
    %1059 = stablehlo.add %1057, %1058 : tensor<197x1024xf32>
    %1060 = stablehlo.convert %1059 : (tensor<197x1024xf32>) -> tensor<197x1024xbf16>
    %1061 = stablehlo.reshape %1060 : (tensor<197x1024xbf16>) -> tensor<1x197x1024xbf16>
    %1062 = stablehlo.dot_general %1052, %arg212, contracting_dims = [1] x [0] : (tensor<197x1024xbf16>, tensor<1024x1024xbf16>) -> tensor<197x1024xbf16>
    %1063 = stablehlo.reshape %1062 : (tensor<197x1024xbf16>) -> tensor<1x197x1024xbf16>
    %1064 = stablehlo.reshape %1063 : (tensor<1x197x1024xbf16>) -> tensor<1x197x16x64xbf16>
    %1065 = stablehlo.transpose %1064, dims = [0, 2, 1, 3] : (tensor<1x197x16x64xbf16>) -> tensor<1x16x197x64xbf16>
    %1066 = stablehlo.dot_general %1053, %arg213, contracting_dims = [1] x [0] : (tensor<197x1024xf32>, tensor<1024x1024xf32>) -> tensor<197x1024xf32>
    %1067 = stablehlo.broadcast_in_dim %1066, dims = [0, 1] : (tensor<197x1024xf32>) -> tensor<197x1024xf32>
    %1068 = stablehlo.multiply %1067, %60 : tensor<197x1024xf32>
    %1069 = stablehlo.broadcast_in_dim %1068, dims = [0, 1] : (tensor<197x1024xf32>) -> tensor<197x1024xf32>
    %1070 = stablehlo.broadcast_in_dim %arg214, dims = [1] : (tensor<1024xf32>) -> tensor<197x1024xf32>
    %1071 = stablehlo.add %1069, %1070 : tensor<197x1024xf32>
    %1072 = stablehlo.convert %1071 : (tensor<197x1024xf32>) -> tensor<197x1024xbf16>
    %1073 = stablehlo.reshape %1072 : (tensor<197x1024xbf16>) -> tensor<1x197x1024xbf16>
    %1074 = stablehlo.reshape %1073 : (tensor<1x197x1024xbf16>) -> tensor<1x197x16x64xbf16>
    %1075 = stablehlo.transpose %1074, dims = [0, 2, 1, 3] : (tensor<1x197x16x64xbf16>) -> tensor<1x16x197x64xbf16>
    %1076 = stablehlo.reshape %1061 : (tensor<1x197x1024xbf16>) -> tensor<1x197x16x64xbf16>
    %1077 = stablehlo.transpose %1076, dims = [0, 2, 1, 3] : (tensor<1x197x16x64xbf16>) -> tensor<1x16x197x64xbf16>
    %1078 = stablehlo.transpose %1065, dims = [0, 1, 3, 2] : (tensor<1x16x197x64xbf16>) -> tensor<1x16x64x197xbf16>
    %1079 = stablehlo.reshape %1077 : (tensor<1x16x197x64xbf16>) -> tensor<16x197x64xbf16>
    %1080 = stablehlo.reshape %1078 : (tensor<1x16x64x197xbf16>) -> tensor<16x64x197xbf16>
    %1081 = stablehlo.broadcast_in_dim %1080, dims = [0, 1, 2] : (tensor<16x64x197xbf16>) -> tensor<16x64x197xbf16>
    %1082 = stablehlo.dot_general %1079, %1081, batching_dims = [0] x [0], contracting_dims = [2] x [1] : (tensor<16x197x64xbf16>, tensor<16x64x197xbf16>) -> tensor<16x197x197xbf16>
    %1083 = stablehlo.reshape %1082 : (tensor<16x197x197xbf16>) -> tensor<1x16x197x197xbf16>
    %1084 = stablehlo.broadcast_in_dim %1083, dims = [0, 1, 2, 3] : (tensor<1x16x197x197xbf16>) -> tensor<1x16x197x197xbf16>
    %1085 = stablehlo.divide %1084, %92 : tensor<1x16x197x197xbf16>
    %1086 = stablehlo.add %1085, %arg215 : tensor<1x16x197x197xbf16>
    %1087 = stablehlo.convert %1086 : (tensor<1x16x197x197xbf16>) -> tensor<1x16x197x197xf32>
    %1088 = stablehlo.reduce(%1087 init: %cst_1) applies stablehlo.maximum across dimensions = [3] : (tensor<1x16x197x197xf32>, tensor<f32>) -> tensor<1x16x197xf32>
    %1089 = stablehlo.reshape %1088 : (tensor<1x16x197xf32>) -> tensor<1x16x197x1xf32>
    %1090 = stablehlo.broadcast_in_dim %1087, dims = [0, 1, 2, 3] : (tensor<1x16x197x197xf32>) -> tensor<1x16x197x197xf32>
    %1091 = stablehlo.broadcast_in_dim %1089, dims = [0, 1, 2, 3] : (tensor<1x16x197x1xf32>) -> tensor<1x16x197x197xf32>
    %1092 = stablehlo.subtract %1090, %1091 : tensor<1x16x197x197xf32>
    %1093 = stablehlo.exponential %1092 : tensor<1x16x197x197xf32>
    %1094 = stablehlo.reduce(%1093 init: %cst_0) applies stablehlo.add across dimensions = [3] : (tensor<1x16x197x197xf32>, tensor<f32>) -> tensor<1x16x197xf32>
    %1095 = stablehlo.reshape %1094 : (tensor<1x16x197xf32>) -> tensor<1x16x197x1xf32>
    %1096 = stablehlo.broadcast_in_dim %1093, dims = [0, 1, 2, 3] : (tensor<1x16x197x197xf32>) -> tensor<1x16x197x197xf32>
    %1097 = stablehlo.broadcast_in_dim %1095, dims = [0, 1, 2, 3] : (tensor<1x16x197x1xf32>) -> tensor<1x16x197x197xf32>
    %1098 = stablehlo.divide %1096, %1097 : tensor<1x16x197x197xf32>
    %1099 = stablehlo.convert %1098 : (tensor<1x16x197x197xf32>) -> tensor<1x16x197x197xbf16>
    %1100 = stablehlo.reshape %1099 : (tensor<1x16x197x197xbf16>) -> tensor<16x197x197xbf16>
    %1101 = stablehlo.reshape %1075 : (tensor<1x16x197x64xbf16>) -> tensor<16x197x64xbf16>
    %1102 = stablehlo.broadcast_in_dim %1101, dims = [0, 1, 2] : (tensor<16x197x64xbf16>) -> tensor<16x197x64xbf16>
    %1103 = stablehlo.dot_general %1100, %1102, batching_dims = [0] x [0], contracting_dims = [2] x [1] : (tensor<16x197x197xbf16>, tensor<16x197x64xbf16>) -> tensor<16x197x64xbf16>
    %1104 = stablehlo.reshape %1103 : (tensor<16x197x64xbf16>) -> tensor<1x16x197x64xbf16>
    %1105 = stablehlo.transpose %1104, dims = [0, 2, 1, 3] : (tensor<1x16x197x64xbf16>) -> tensor<1x197x16x64xbf16>
    %1106 = stablehlo.reshape %1105 : (tensor<1x197x16x64xbf16>) -> tensor<1x197x1024xbf16>
    %1107 = stablehlo.reshape %1106 : (tensor<1x197x1024xbf16>) -> tensor<197x1024xbf16>
    %1108 = stablehlo.convert %1107 : (tensor<197x1024xbf16>) -> tensor<197x1024xf32>
    %1109 = stablehlo.dot_general %1108, %arg216, contracting_dims = [1] x [0] : (tensor<197x1024xf32>, tensor<1024x1024xf32>) -> tensor<197x1024xf32>
    %1110 = stablehlo.broadcast_in_dim %1109, dims = [0, 1] : (tensor<197x1024xf32>) -> tensor<197x1024xf32>
    %1111 = stablehlo.multiply %1110, %60 : tensor<197x1024xf32>
    %1112 = stablehlo.broadcast_in_dim %1111, dims = [0, 1] : (tensor<197x1024xf32>) -> tensor<197x1024xf32>
    %1113 = stablehlo.broadcast_in_dim %arg217, dims = [1] : (tensor<1024xf32>) -> tensor<197x1024xf32>
    %1114 = stablehlo.add %1112, %1113 : tensor<197x1024xf32>
    %1115 = stablehlo.convert %1114 : (tensor<197x1024xf32>) -> tensor<197x1024xbf16>
    %1116 = stablehlo.reshape %1115 : (tensor<197x1024xbf16>) -> tensor<1x197x1024xbf16>
    %1117 = stablehlo.broadcast_in_dim %arg35, dims = [2] : (tensor<1024xbf16>) -> tensor<1x197x1024xbf16>
    %1118 = stablehlo.broadcast_in_dim %1116, dims = [0, 1, 2] : (tensor<1x197x1024xbf16>) -> tensor<1x197x1024xbf16>
    %1119 = stablehlo.multiply %1117, %1118 : tensor<1x197x1024xbf16>
    %1120 = stablehlo.add %1119, %1014 : tensor<1x197x1024xbf16>
    %1121 = stablehlo.convert %1120 : (tensor<1x197x1024xbf16>) -> tensor<1x197x1024xf32>
    %1122 = stablehlo.convert %1121 : (tensor<1x197x1024xf32>) -> tensor<1x197x1024xf64>
    %1123 = stablehlo.reduce(%1122 init: %cst) applies stablehlo.add across dimensions = [2] : (tensor<1x197x1024xf64>, tensor<f64>) -> tensor<1x197xf64>
    %1124 = stablehlo.reshape %1123 : (tensor<1x197xf64>) -> tensor<1x197x1xf64>
    %1125 = stablehlo.broadcast_in_dim %1124, dims = [0, 1, 2] : (tensor<1x197x1xf64>) -> tensor<1x197x1xf64>
    %1126 = stablehlo.divide %1125, %15 : tensor<1x197x1xf64>
    %1127 = stablehlo.broadcast_in_dim %1122, dims = [0, 1, 2] : (tensor<1x197x1024xf64>) -> tensor<1x197x1024xf64>
    %1128 = stablehlo.broadcast_in_dim %1126, dims = [0, 1, 2] : (tensor<1x197x1xf64>) -> tensor<1x197x1024xf64>
    %1129 = stablehlo.subtract %1127, %1128 : tensor<1x197x1024xf64>
    %1130 = stablehlo.multiply %1129, %1129 : tensor<1x197x1024xf64>
    %1131 = stablehlo.reduce(%1130 init: %cst) applies stablehlo.add across dimensions = [2] : (tensor<1x197x1024xf64>, tensor<f64>) -> tensor<1x197xf64>
    %1132 = stablehlo.reshape %1131 : (tensor<1x197xf64>) -> tensor<1x197x1xf64>
    %1133 = stablehlo.broadcast_in_dim %1132, dims = [0, 1, 2] : (tensor<1x197x1xf64>) -> tensor<1x197x1xf64>
    %1134 = stablehlo.divide %1133, %15 : tensor<1x197x1xf64>
    %1135 = stablehlo.convert %1134 : (tensor<1x197x1xf64>) -> tensor<1x197x1xf32>
    %1136 = stablehlo.reduce(%1121 init: %cst_0) applies stablehlo.add across dimensions = [2] : (tensor<1x197x1024xf32>, tensor<f32>) -> tensor<1x197xf32>
    %1137 = stablehlo.reshape %1136 : (tensor<1x197xf32>) -> tensor<1x197x1xf32>
    %1138 = stablehlo.broadcast_in_dim %1137, dims = [0, 1, 2] : (tensor<1x197x1xf32>) -> tensor<1x197x1xf32>
    %1139 = stablehlo.divide %1138, %31 : tensor<1x197x1xf32>
    %1140 = stablehlo.broadcast_in_dim %1135, dims = [0, 1, 2] : (tensor<1x197x1xf32>) -> tensor<1x197x1xf32>
    %1141 = stablehlo.add %1140, %36 : tensor<1x197x1xf32>
    %1142 = stablehlo.rsqrt %1141 : tensor<1x197x1xf32>
    %1143 = stablehlo.broadcast_in_dim %1121, dims = [0, 1, 2] : (tensor<1x197x1024xf32>) -> tensor<1x197x1024xf32>
    %1144 = stablehlo.broadcast_in_dim %1139, dims = [0, 1, 2] : (tensor<1x197x1xf32>) -> tensor<1x197x1024xf32>
    %1145 = stablehlo.subtract %1143, %1144 : tensor<1x197x1024xf32>
    %1146 = stablehlo.broadcast_in_dim %1145, dims = [0, 1, 2] : (tensor<1x197x1024xf32>) -> tensor<1x197x1024xf32>
    %1147 = stablehlo.broadcast_in_dim %1142, dims = [0, 1, 2] : (tensor<1x197x1xf32>) -> tensor<1x197x1024xf32>
    %1148 = stablehlo.multiply %1146, %1147 : tensor<1x197x1024xf32>
    %1149 = stablehlo.convert %arg36 : (tensor<1024xbf16>) -> tensor<1024xf32>
    %1150 = stablehlo.broadcast_in_dim %1148, dims = [0, 1, 2] : (tensor<1x197x1024xf32>) -> tensor<1x197x1024xf32>
    %1151 = stablehlo.broadcast_in_dim %1149, dims = [2] : (tensor<1024xf32>) -> tensor<1x197x1024xf32>
    %1152 = stablehlo.multiply %1150, %1151 : tensor<1x197x1024xf32>
    %1153 = stablehlo.convert %arg37 : (tensor<1024xbf16>) -> tensor<1024xf32>
    %1154 = stablehlo.broadcast_in_dim %1152, dims = [0, 1, 2] : (tensor<1x197x1024xf32>) -> tensor<1x197x1024xf32>
    %1155 = stablehlo.broadcast_in_dim %1153, dims = [2] : (tensor<1024xf32>) -> tensor<1x197x1024xf32>
    %1156 = stablehlo.add %1154, %1155 : tensor<1x197x1024xf32>
    %1157 = stablehlo.convert %1156 : (tensor<1x197x1024xf32>) -> tensor<1x197x1024xbf16>
    %1158 = stablehlo.reshape %1157 : (tensor<1x197x1024xbf16>) -> tensor<197x1024xbf16>
    %1159 = stablehlo.convert %1158 : (tensor<197x1024xbf16>) -> tensor<197x1024xf32>
    %1160 = stablehlo.dot_general %1159, %arg218, contracting_dims = [1] x [0] : (tensor<197x1024xf32>, tensor<1024x4096xf32>) -> tensor<197x4096xf32>
    %1161 = stablehlo.broadcast_in_dim %1160, dims = [0, 1] : (tensor<197x4096xf32>) -> tensor<197x4096xf32>
    %1162 = stablehlo.multiply %1161, %170 : tensor<197x4096xf32>
    %1163 = stablehlo.broadcast_in_dim %1162, dims = [0, 1] : (tensor<197x4096xf32>) -> tensor<197x4096xf32>
    %1164 = stablehlo.broadcast_in_dim %arg219, dims = [1] : (tensor<4096xf32>) -> tensor<197x4096xf32>
    %1165 = stablehlo.add %1163, %1164 : tensor<197x4096xf32>
    %1166 = stablehlo.convert %1165 : (tensor<197x4096xf32>) -> tensor<197x4096xbf16>
    %1167 = stablehlo.reshape %1166 : (tensor<197x4096xbf16>) -> tensor<1x197x4096xbf16>
    %1168 = stablehlo.multiply %1167, %cst_4 : tensor<1x197x4096xbf16>
    %1169 = stablehlo.multiply %1167, %178 : tensor<1x197x4096xbf16>
    %1170 = stablehlo.convert %1169 : (tensor<1x197x4096xbf16>) -> tensor<1x197x4096xf32>
    %1171 = stablehlo.clamp %cst_5, %1170, %cst_6 : tensor<1x197x4096xf32>
    %1172 = stablehlo.multiply %1171, %1171 : tensor<1x197x4096xf32>
    %1173 = stablehlo.multiply %cst_7, %1172 : tensor<1x197x4096xf32>
    %1174 = stablehlo.add %1173, %cst_8 : tensor<1x197x4096xf32>
    %1175 = stablehlo.multiply %1174, %1172 : tensor<1x197x4096xf32>
    %1176 = stablehlo.add %1175, %cst_9 : tensor<1x197x4096xf32>
    %1177 = stablehlo.multiply %1176, %1172 : tensor<1x197x4096xf32>
    %1178 = stablehlo.add %1177, %cst_10 : tensor<1x197x4096xf32>
    %1179 = stablehlo.multiply %1178, %1172 : tensor<1x197x4096xf32>
    %1180 = stablehlo.add %1179, %cst_11 : tensor<1x197x4096xf32>
    %1181 = stablehlo.multiply %1180, %1172 : tensor<1x197x4096xf32>
    %1182 = stablehlo.add %1181, %cst_12 : tensor<1x197x4096xf32>
    %1183 = stablehlo.multiply %1182, %1172 : tensor<1x197x4096xf32>
    %1184 = stablehlo.add %1183, %cst_13 : tensor<1x197x4096xf32>
    %1185 = stablehlo.multiply %cst_14, %1172 : tensor<1x197x4096xf32>
    %1186 = stablehlo.add %1185, %cst_15 : tensor<1x197x4096xf32>
    %1187 = stablehlo.multiply %1186, %1172 : tensor<1x197x4096xf32>
    %1188 = stablehlo.add %1187, %cst_16 : tensor<1x197x4096xf32>
    %1189 = stablehlo.multiply %1188, %1172 : tensor<1x197x4096xf32>
    %1190 = stablehlo.add %1189, %cst_17 : tensor<1x197x4096xf32>
    %1191 = stablehlo.multiply %1190, %1172 : tensor<1x197x4096xf32>
    %1192 = stablehlo.add %1191, %cst_18 : tensor<1x197x4096xf32>
    %1193 = stablehlo.multiply %1171, %1184 : tensor<1x197x4096xf32>
    %1194 = stablehlo.divide %1193, %1192 : tensor<1x197x4096xf32>
    %1195 = stablehlo.clamp %cst_19, %1194, %cst_20 : tensor<1x197x4096xf32>
    %1196 = stablehlo.convert %1195 : (tensor<1x197x4096xf32>) -> tensor<1x197x4096xbf16>
    %1197 = stablehlo.add %1196, %cst_2 : tensor<1x197x4096xbf16>
    %1198 = stablehlo.multiply %1197, %1168 : tensor<1x197x4096xbf16>
    %1199 = stablehlo.reshape %1198 : (tensor<1x197x4096xbf16>) -> tensor<197x4096xbf16>
    %1200 = stablehlo.convert %1199 : (tensor<197x4096xbf16>) -> tensor<197x4096xf32>
    %1201 = stablehlo.dot_general %1200, %arg220, contracting_dims = [1] x [0] : (tensor<197x4096xf32>, tensor<4096x1024xf32>) -> tensor<197x1024xf32>
    %1202 = stablehlo.broadcast_in_dim %1201, dims = [0, 1] : (tensor<197x1024xf32>) -> tensor<197x1024xf32>
    %1203 = stablehlo.multiply %1202, %60 : tensor<197x1024xf32>
    %1204 = stablehlo.broadcast_in_dim %1203, dims = [0, 1] : (tensor<197x1024xf32>) -> tensor<197x1024xf32>
    %1205 = stablehlo.broadcast_in_dim %arg221, dims = [1] : (tensor<1024xf32>) -> tensor<197x1024xf32>
    %1206 = stablehlo.add %1204, %1205 : tensor<197x1024xf32>
    %1207 = stablehlo.convert %1206 : (tensor<197x1024xf32>) -> tensor<197x1024xbf16>
    %1208 = stablehlo.reshape %1207 : (tensor<197x1024xbf16>) -> tensor<1x197x1024xbf16>
    %1209 = stablehlo.broadcast_in_dim %arg38, dims = [2] : (tensor<1024xbf16>) -> tensor<1x197x1024xbf16>
    %1210 = stablehlo.broadcast_in_dim %1208, dims = [0, 1, 2] : (tensor<1x197x1024xbf16>) -> tensor<1x197x1024xbf16>
    %1211 = stablehlo.multiply %1209, %1210 : tensor<1x197x1024xbf16>
    %1212 = stablehlo.add %1211, %1120 : tensor<1x197x1024xbf16>
    %1213 = stablehlo.convert %1212 : (tensor<1x197x1024xbf16>) -> tensor<1x197x1024xf32>
    %1214 = stablehlo.convert %1213 : (tensor<1x197x1024xf32>) -> tensor<1x197x1024xf64>
    %1215 = stablehlo.reduce(%1214 init: %cst) applies stablehlo.add across dimensions = [2] : (tensor<1x197x1024xf64>, tensor<f64>) -> tensor<1x197xf64>
    %1216 = stablehlo.reshape %1215 : (tensor<1x197xf64>) -> tensor<1x197x1xf64>
    %1217 = stablehlo.broadcast_in_dim %1216, dims = [0, 1, 2] : (tensor<1x197x1xf64>) -> tensor<1x197x1xf64>
    %1218 = stablehlo.divide %1217, %15 : tensor<1x197x1xf64>
    %1219 = stablehlo.broadcast_in_dim %1214, dims = [0, 1, 2] : (tensor<1x197x1024xf64>) -> tensor<1x197x1024xf64>
    %1220 = stablehlo.broadcast_in_dim %1218, dims = [0, 1, 2] : (tensor<1x197x1xf64>) -> tensor<1x197x1024xf64>
    %1221 = stablehlo.subtract %1219, %1220 : tensor<1x197x1024xf64>
    %1222 = stablehlo.multiply %1221, %1221 : tensor<1x197x1024xf64>
    %1223 = stablehlo.reduce(%1222 init: %cst) applies stablehlo.add across dimensions = [2] : (tensor<1x197x1024xf64>, tensor<f64>) -> tensor<1x197xf64>
    %1224 = stablehlo.reshape %1223 : (tensor<1x197xf64>) -> tensor<1x197x1xf64>
    %1225 = stablehlo.broadcast_in_dim %1224, dims = [0, 1, 2] : (tensor<1x197x1xf64>) -> tensor<1x197x1xf64>
    %1226 = stablehlo.divide %1225, %15 : tensor<1x197x1xf64>
    %1227 = stablehlo.convert %1226 : (tensor<1x197x1xf64>) -> tensor<1x197x1xf32>
    %1228 = stablehlo.reduce(%1213 init: %cst_0) applies stablehlo.add across dimensions = [2] : (tensor<1x197x1024xf32>, tensor<f32>) -> tensor<1x197xf32>
    %1229 = stablehlo.reshape %1228 : (tensor<1x197xf32>) -> tensor<1x197x1xf32>
    %1230 = stablehlo.broadcast_in_dim %1229, dims = [0, 1, 2] : (tensor<1x197x1xf32>) -> tensor<1x197x1xf32>
    %1231 = stablehlo.divide %1230, %31 : tensor<1x197x1xf32>
    %1232 = stablehlo.broadcast_in_dim %1227, dims = [0, 1, 2] : (tensor<1x197x1xf32>) -> tensor<1x197x1xf32>
    %1233 = stablehlo.add %1232, %36 : tensor<1x197x1xf32>
    %1234 = stablehlo.rsqrt %1233 : tensor<1x197x1xf32>
    %1235 = stablehlo.broadcast_in_dim %1213, dims = [0, 1, 2] : (tensor<1x197x1024xf32>) -> tensor<1x197x1024xf32>
    %1236 = stablehlo.broadcast_in_dim %1231, dims = [0, 1, 2] : (tensor<1x197x1xf32>) -> tensor<1x197x1024xf32>
    %1237 = stablehlo.subtract %1235, %1236 : tensor<1x197x1024xf32>
    %1238 = stablehlo.broadcast_in_dim %1237, dims = [0, 1, 2] : (tensor<1x197x1024xf32>) -> tensor<1x197x1024xf32>
    %1239 = stablehlo.broadcast_in_dim %1234, dims = [0, 1, 2] : (tensor<1x197x1xf32>) -> tensor<1x197x1024xf32>
    %1240 = stablehlo.multiply %1238, %1239 : tensor<1x197x1024xf32>
    %1241 = stablehlo.convert %arg39 : (tensor<1024xbf16>) -> tensor<1024xf32>
    %1242 = stablehlo.broadcast_in_dim %1240, dims = [0, 1, 2] : (tensor<1x197x1024xf32>) -> tensor<1x197x1024xf32>
    %1243 = stablehlo.broadcast_in_dim %1241, dims = [2] : (tensor<1024xf32>) -> tensor<1x197x1024xf32>
    %1244 = stablehlo.multiply %1242, %1243 : tensor<1x197x1024xf32>
    %1245 = stablehlo.convert %arg40 : (tensor<1024xbf16>) -> tensor<1024xf32>
    %1246 = stablehlo.broadcast_in_dim %1244, dims = [0, 1, 2] : (tensor<1x197x1024xf32>) -> tensor<1x197x1024xf32>
    %1247 = stablehlo.broadcast_in_dim %1245, dims = [2] : (tensor<1024xf32>) -> tensor<1x197x1024xf32>
    %1248 = stablehlo.add %1246, %1247 : tensor<1x197x1024xf32>
    %1249 = stablehlo.convert %1248 : (tensor<1x197x1024xf32>) -> tensor<1x197x1024xbf16>
    %1250 = stablehlo.reshape %1249 : (tensor<1x197x1024xbf16>) -> tensor<197x1024xbf16>
    %1251 = stablehlo.convert %1250 : (tensor<197x1024xbf16>) -> tensor<197x1024xf32>
    %1252 = stablehlo.dot_general %1251, %arg222, contracting_dims = [1] x [0] : (tensor<197x1024xf32>, tensor<1024x1024xf32>) -> tensor<197x1024xf32>
    %1253 = stablehlo.broadcast_in_dim %1252, dims = [0, 1] : (tensor<197x1024xf32>) -> tensor<197x1024xf32>
    %1254 = stablehlo.multiply %1253, %60 : tensor<197x1024xf32>
    %1255 = stablehlo.broadcast_in_dim %1254, dims = [0, 1] : (tensor<197x1024xf32>) -> tensor<197x1024xf32>
    %1256 = stablehlo.broadcast_in_dim %arg223, dims = [1] : (tensor<1024xf32>) -> tensor<197x1024xf32>
    %1257 = stablehlo.add %1255, %1256 : tensor<197x1024xf32>
    %1258 = stablehlo.convert %1257 : (tensor<197x1024xf32>) -> tensor<197x1024xbf16>
    %1259 = stablehlo.reshape %1258 : (tensor<197x1024xbf16>) -> tensor<1x197x1024xbf16>
    %1260 = stablehlo.dot_general %1250, %arg224, contracting_dims = [1] x [0] : (tensor<197x1024xbf16>, tensor<1024x1024xbf16>) -> tensor<197x1024xbf16>
    %1261 = stablehlo.reshape %1260 : (tensor<197x1024xbf16>) -> tensor<1x197x1024xbf16>
    %1262 = stablehlo.reshape %1261 : (tensor<1x197x1024xbf16>) -> tensor<1x197x16x64xbf16>
    %1263 = stablehlo.transpose %1262, dims = [0, 2, 1, 3] : (tensor<1x197x16x64xbf16>) -> tensor<1x16x197x64xbf16>
    %1264 = stablehlo.dot_general %1251, %arg225, contracting_dims = [1] x [0] : (tensor<197x1024xf32>, tensor<1024x1024xf32>) -> tensor<197x1024xf32>
    %1265 = stablehlo.broadcast_in_dim %1264, dims = [0, 1] : (tensor<197x1024xf32>) -> tensor<197x1024xf32>
    %1266 = stablehlo.multiply %1265, %60 : tensor<197x1024xf32>
    %1267 = stablehlo.broadcast_in_dim %1266, dims = [0, 1] : (tensor<197x1024xf32>) -> tensor<197x1024xf32>
    %1268 = stablehlo.broadcast_in_dim %arg226, dims = [1] : (tensor<1024xf32>) -> tensor<197x1024xf32>
    %1269 = stablehlo.add %1267, %1268 : tensor<197x1024xf32>
    %1270 = stablehlo.convert %1269 : (tensor<197x1024xf32>) -> tensor<197x1024xbf16>
    %1271 = stablehlo.reshape %1270 : (tensor<197x1024xbf16>) -> tensor<1x197x1024xbf16>
    %1272 = stablehlo.reshape %1271 : (tensor<1x197x1024xbf16>) -> tensor<1x197x16x64xbf16>
    %1273 = stablehlo.transpose %1272, dims = [0, 2, 1, 3] : (tensor<1x197x16x64xbf16>) -> tensor<1x16x197x64xbf16>
    %1274 = stablehlo.reshape %1259 : (tensor<1x197x1024xbf16>) -> tensor<1x197x16x64xbf16>
    %1275 = stablehlo.transpose %1274, dims = [0, 2, 1, 3] : (tensor<1x197x16x64xbf16>) -> tensor<1x16x197x64xbf16>
    %1276 = stablehlo.transpose %1263, dims = [0, 1, 3, 2] : (tensor<1x16x197x64xbf16>) -> tensor<1x16x64x197xbf16>
    %1277 = stablehlo.reshape %1275 : (tensor<1x16x197x64xbf16>) -> tensor<16x197x64xbf16>
    %1278 = stablehlo.reshape %1276 : (tensor<1x16x64x197xbf16>) -> tensor<16x64x197xbf16>
    %1279 = stablehlo.broadcast_in_dim %1278, dims = [0, 1, 2] : (tensor<16x64x197xbf16>) -> tensor<16x64x197xbf16>
    %1280 = stablehlo.dot_general %1277, %1279, batching_dims = [0] x [0], contracting_dims = [2] x [1] : (tensor<16x197x64xbf16>, tensor<16x64x197xbf16>) -> tensor<16x197x197xbf16>
    %1281 = stablehlo.reshape %1280 : (tensor<16x197x197xbf16>) -> tensor<1x16x197x197xbf16>
    %1282 = stablehlo.broadcast_in_dim %1281, dims = [0, 1, 2, 3] : (tensor<1x16x197x197xbf16>) -> tensor<1x16x197x197xbf16>
    %1283 = stablehlo.divide %1282, %92 : tensor<1x16x197x197xbf16>
    %1284 = stablehlo.add %1283, %arg227 : tensor<1x16x197x197xbf16>
    %1285 = stablehlo.convert %1284 : (tensor<1x16x197x197xbf16>) -> tensor<1x16x197x197xf32>
    %1286 = stablehlo.reduce(%1285 init: %cst_1) applies stablehlo.maximum across dimensions = [3] : (tensor<1x16x197x197xf32>, tensor<f32>) -> tensor<1x16x197xf32>
    %1287 = stablehlo.reshape %1286 : (tensor<1x16x197xf32>) -> tensor<1x16x197x1xf32>
    %1288 = stablehlo.broadcast_in_dim %1285, dims = [0, 1, 2, 3] : (tensor<1x16x197x197xf32>) -> tensor<1x16x197x197xf32>
    %1289 = stablehlo.broadcast_in_dim %1287, dims = [0, 1, 2, 3] : (tensor<1x16x197x1xf32>) -> tensor<1x16x197x197xf32>
    %1290 = stablehlo.subtract %1288, %1289 : tensor<1x16x197x197xf32>
    %1291 = stablehlo.exponential %1290 : tensor<1x16x197x197xf32>
    %1292 = stablehlo.reduce(%1291 init: %cst_0) applies stablehlo.add across dimensions = [3] : (tensor<1x16x197x197xf32>, tensor<f32>) -> tensor<1x16x197xf32>
    %1293 = stablehlo.reshape %1292 : (tensor<1x16x197xf32>) -> tensor<1x16x197x1xf32>
    %1294 = stablehlo.broadcast_in_dim %1291, dims = [0, 1, 2, 3] : (tensor<1x16x197x197xf32>) -> tensor<1x16x197x197xf32>
    %1295 = stablehlo.broadcast_in_dim %1293, dims = [0, 1, 2, 3] : (tensor<1x16x197x1xf32>) -> tensor<1x16x197x197xf32>
    %1296 = stablehlo.divide %1294, %1295 : tensor<1x16x197x197xf32>
    %1297 = stablehlo.convert %1296 : (tensor<1x16x197x197xf32>) -> tensor<1x16x197x197xbf16>
    %1298 = stablehlo.reshape %1297 : (tensor<1x16x197x197xbf16>) -> tensor<16x197x197xbf16>
    %1299 = stablehlo.reshape %1273 : (tensor<1x16x197x64xbf16>) -> tensor<16x197x64xbf16>
    %1300 = stablehlo.broadcast_in_dim %1299, dims = [0, 1, 2] : (tensor<16x197x64xbf16>) -> tensor<16x197x64xbf16>
    %1301 = stablehlo.dot_general %1298, %1300, batching_dims = [0] x [0], contracting_dims = [2] x [1] : (tensor<16x197x197xbf16>, tensor<16x197x64xbf16>) -> tensor<16x197x64xbf16>
    %1302 = stablehlo.reshape %1301 : (tensor<16x197x64xbf16>) -> tensor<1x16x197x64xbf16>
    %1303 = stablehlo.transpose %1302, dims = [0, 2, 1, 3] : (tensor<1x16x197x64xbf16>) -> tensor<1x197x16x64xbf16>
    %1304 = stablehlo.reshape %1303 : (tensor<1x197x16x64xbf16>) -> tensor<1x197x1024xbf16>
    %1305 = stablehlo.reshape %1304 : (tensor<1x197x1024xbf16>) -> tensor<197x1024xbf16>
    %1306 = stablehlo.convert %1305 : (tensor<197x1024xbf16>) -> tensor<197x1024xf32>
    %1307 = stablehlo.dot_general %1306, %arg228, contracting_dims = [1] x [0] : (tensor<197x1024xf32>, tensor<1024x1024xf32>) -> tensor<197x1024xf32>
    %1308 = stablehlo.broadcast_in_dim %1307, dims = [0, 1] : (tensor<197x1024xf32>) -> tensor<197x1024xf32>
    %1309 = stablehlo.multiply %1308, %60 : tensor<197x1024xf32>
    %1310 = stablehlo.broadcast_in_dim %1309, dims = [0, 1] : (tensor<197x1024xf32>) -> tensor<197x1024xf32>
    %1311 = stablehlo.broadcast_in_dim %arg229, dims = [1] : (tensor<1024xf32>) -> tensor<197x1024xf32>
    %1312 = stablehlo.add %1310, %1311 : tensor<197x1024xf32>
    %1313 = stablehlo.convert %1312 : (tensor<197x1024xf32>) -> tensor<197x1024xbf16>
    %1314 = stablehlo.reshape %1313 : (tensor<197x1024xbf16>) -> tensor<1x197x1024xbf16>
    %1315 = stablehlo.broadcast_in_dim %arg41, dims = [2] : (tensor<1024xbf16>) -> tensor<1x197x1024xbf16>
    %1316 = stablehlo.broadcast_in_dim %1314, dims = [0, 1, 2] : (tensor<1x197x1024xbf16>) -> tensor<1x197x1024xbf16>
    %1317 = stablehlo.multiply %1315, %1316 : tensor<1x197x1024xbf16>
    %1318 = stablehlo.add %1317, %1212 : tensor<1x197x1024xbf16>
    %1319 = stablehlo.convert %1318 : (tensor<1x197x1024xbf16>) -> tensor<1x197x1024xf32>
    %1320 = stablehlo.convert %1319 : (tensor<1x197x1024xf32>) -> tensor<1x197x1024xf64>
    %1321 = stablehlo.reduce(%1320 init: %cst) applies stablehlo.add across dimensions = [2] : (tensor<1x197x1024xf64>, tensor<f64>) -> tensor<1x197xf64>
    %1322 = stablehlo.reshape %1321 : (tensor<1x197xf64>) -> tensor<1x197x1xf64>
    %1323 = stablehlo.broadcast_in_dim %1322, dims = [0, 1, 2] : (tensor<1x197x1xf64>) -> tensor<1x197x1xf64>
    %1324 = stablehlo.divide %1323, %15 : tensor<1x197x1xf64>
    %1325 = stablehlo.broadcast_in_dim %1320, dims = [0, 1, 2] : (tensor<1x197x1024xf64>) -> tensor<1x197x1024xf64>
    %1326 = stablehlo.broadcast_in_dim %1324, dims = [0, 1, 2] : (tensor<1x197x1xf64>) -> tensor<1x197x1024xf64>
    %1327 = stablehlo.subtract %1325, %1326 : tensor<1x197x1024xf64>
    %1328 = stablehlo.multiply %1327, %1327 : tensor<1x197x1024xf64>
    %1329 = stablehlo.reduce(%1328 init: %cst) applies stablehlo.add across dimensions = [2] : (tensor<1x197x1024xf64>, tensor<f64>) -> tensor<1x197xf64>
    %1330 = stablehlo.reshape %1329 : (tensor<1x197xf64>) -> tensor<1x197x1xf64>
    %1331 = stablehlo.broadcast_in_dim %1330, dims = [0, 1, 2] : (tensor<1x197x1xf64>) -> tensor<1x197x1xf64>
    %1332 = stablehlo.divide %1331, %15 : tensor<1x197x1xf64>
    %1333 = stablehlo.convert %1332 : (tensor<1x197x1xf64>) -> tensor<1x197x1xf32>
    %1334 = stablehlo.reduce(%1319 init: %cst_0) applies stablehlo.add across dimensions = [2] : (tensor<1x197x1024xf32>, tensor<f32>) -> tensor<1x197xf32>
    %1335 = stablehlo.reshape %1334 : (tensor<1x197xf32>) -> tensor<1x197x1xf32>
    %1336 = stablehlo.broadcast_in_dim %1335, dims = [0, 1, 2] : (tensor<1x197x1xf32>) -> tensor<1x197x1xf32>
    %1337 = stablehlo.divide %1336, %31 : tensor<1x197x1xf32>
    %1338 = stablehlo.broadcast_in_dim %1333, dims = [0, 1, 2] : (tensor<1x197x1xf32>) -> tensor<1x197x1xf32>
    %1339 = stablehlo.add %1338, %36 : tensor<1x197x1xf32>
    %1340 = stablehlo.rsqrt %1339 : tensor<1x197x1xf32>
    %1341 = stablehlo.broadcast_in_dim %1319, dims = [0, 1, 2] : (tensor<1x197x1024xf32>) -> tensor<1x197x1024xf32>
    %1342 = stablehlo.broadcast_in_dim %1337, dims = [0, 1, 2] : (tensor<1x197x1xf32>) -> tensor<1x197x1024xf32>
    %1343 = stablehlo.subtract %1341, %1342 : tensor<1x197x1024xf32>
    %1344 = stablehlo.broadcast_in_dim %1343, dims = [0, 1, 2] : (tensor<1x197x1024xf32>) -> tensor<1x197x1024xf32>
    %1345 = stablehlo.broadcast_in_dim %1340, dims = [0, 1, 2] : (tensor<1x197x1xf32>) -> tensor<1x197x1024xf32>
    %1346 = stablehlo.multiply %1344, %1345 : tensor<1x197x1024xf32>
    %1347 = stablehlo.convert %arg42 : (tensor<1024xbf16>) -> tensor<1024xf32>
    %1348 = stablehlo.broadcast_in_dim %1346, dims = [0, 1, 2] : (tensor<1x197x1024xf32>) -> tensor<1x197x1024xf32>
    %1349 = stablehlo.broadcast_in_dim %1347, dims = [2] : (tensor<1024xf32>) -> tensor<1x197x1024xf32>
    %1350 = stablehlo.multiply %1348, %1349 : tensor<1x197x1024xf32>
    %1351 = stablehlo.convert %arg43 : (tensor<1024xbf16>) -> tensor<1024xf32>
    %1352 = stablehlo.broadcast_in_dim %1350, dims = [0, 1, 2] : (tensor<1x197x1024xf32>) -> tensor<1x197x1024xf32>
    %1353 = stablehlo.broadcast_in_dim %1351, dims = [2] : (tensor<1024xf32>) -> tensor<1x197x1024xf32>
    %1354 = stablehlo.add %1352, %1353 : tensor<1x197x1024xf32>
    %1355 = stablehlo.convert %1354 : (tensor<1x197x1024xf32>) -> tensor<1x197x1024xbf16>
    %1356 = stablehlo.reshape %1355 : (tensor<1x197x1024xbf16>) -> tensor<197x1024xbf16>
    %1357 = stablehlo.convert %1356 : (tensor<197x1024xbf16>) -> tensor<197x1024xf32>
    %1358 = stablehlo.dot_general %1357, %arg230, contracting_dims = [1] x [0] : (tensor<197x1024xf32>, tensor<1024x4096xf32>) -> tensor<197x4096xf32>
    %1359 = stablehlo.broadcast_in_dim %1358, dims = [0, 1] : (tensor<197x4096xf32>) -> tensor<197x4096xf32>
    %1360 = stablehlo.multiply %1359, %170 : tensor<197x4096xf32>
    %1361 = stablehlo.broadcast_in_dim %1360, dims = [0, 1] : (tensor<197x4096xf32>) -> tensor<197x4096xf32>
    %1362 = stablehlo.broadcast_in_dim %arg231, dims = [1] : (tensor<4096xf32>) -> tensor<197x4096xf32>
    %1363 = stablehlo.add %1361, %1362 : tensor<197x4096xf32>
    %1364 = stablehlo.convert %1363 : (tensor<197x4096xf32>) -> tensor<197x4096xbf16>
    %1365 = stablehlo.reshape %1364 : (tensor<197x4096xbf16>) -> tensor<1x197x4096xbf16>
    %1366 = stablehlo.multiply %1365, %cst_4 : tensor<1x197x4096xbf16>
    %1367 = stablehlo.multiply %1365, %178 : tensor<1x197x4096xbf16>
    %1368 = stablehlo.convert %1367 : (tensor<1x197x4096xbf16>) -> tensor<1x197x4096xf32>
    %1369 = stablehlo.clamp %cst_5, %1368, %cst_6 : tensor<1x197x4096xf32>
    %1370 = stablehlo.multiply %1369, %1369 : tensor<1x197x4096xf32>
    %1371 = stablehlo.multiply %cst_7, %1370 : tensor<1x197x4096xf32>
    %1372 = stablehlo.add %1371, %cst_8 : tensor<1x197x4096xf32>
    %1373 = stablehlo.multiply %1372, %1370 : tensor<1x197x4096xf32>
    %1374 = stablehlo.add %1373, %cst_9 : tensor<1x197x4096xf32>
    %1375 = stablehlo.multiply %1374, %1370 : tensor<1x197x4096xf32>
    %1376 = stablehlo.add %1375, %cst_10 : tensor<1x197x4096xf32>
    %1377 = stablehlo.multiply %1376, %1370 : tensor<1x197x4096xf32>
    %1378 = stablehlo.add %1377, %cst_11 : tensor<1x197x4096xf32>
    %1379 = stablehlo.multiply %1378, %1370 : tensor<1x197x4096xf32>
    %1380 = stablehlo.add %1379, %cst_12 : tensor<1x197x4096xf32>
    %1381 = stablehlo.multiply %1380, %1370 : tensor<1x197x4096xf32>
    %1382 = stablehlo.add %1381, %cst_13 : tensor<1x197x4096xf32>
    %1383 = stablehlo.multiply %cst_14, %1370 : tensor<1x197x4096xf32>
    %1384 = stablehlo.add %1383, %cst_15 : tensor<1x197x4096xf32>
    %1385 = stablehlo.multiply %1384, %1370 : tensor<1x197x4096xf32>
    %1386 = stablehlo.add %1385, %cst_16 : tensor<1x197x4096xf32>
    %1387 = stablehlo.multiply %1386, %1370 : tensor<1x197x4096xf32>
    %1388 = stablehlo.add %1387, %cst_17 : tensor<1x197x4096xf32>
    %1389 = stablehlo.multiply %1388, %1370 : tensor<1x197x4096xf32>
    %1390 = stablehlo.add %1389, %cst_18 : tensor<1x197x4096xf32>
    %1391 = stablehlo.multiply %1369, %1382 : tensor<1x197x4096xf32>
    %1392 = stablehlo.divide %1391, %1390 : tensor<1x197x4096xf32>
    %1393 = stablehlo.clamp %cst_19, %1392, %cst_20 : tensor<1x197x4096xf32>
    %1394 = stablehlo.convert %1393 : (tensor<1x197x4096xf32>) -> tensor<1x197x4096xbf16>
    %1395 = stablehlo.add %1394, %cst_2 : tensor<1x197x4096xbf16>
    %1396 = stablehlo.multiply %1395, %1366 : tensor<1x197x4096xbf16>
    %1397 = stablehlo.reshape %1396 : (tensor<1x197x4096xbf16>) -> tensor<197x4096xbf16>
    %1398 = stablehlo.convert %1397 : (tensor<197x4096xbf16>) -> tensor<197x4096xf32>
    %1399 = stablehlo.dot_general %1398, %arg232, contracting_dims = [1] x [0] : (tensor<197x4096xf32>, tensor<4096x1024xf32>) -> tensor<197x1024xf32>
    %1400 = stablehlo.broadcast_in_dim %1399, dims = [0, 1] : (tensor<197x1024xf32>) -> tensor<197x1024xf32>
    %1401 = stablehlo.multiply %1400, %60 : tensor<197x1024xf32>
    %1402 = stablehlo.broadcast_in_dim %1401, dims = [0, 1] : (tensor<197x1024xf32>) -> tensor<197x1024xf32>
    %1403 = stablehlo.broadcast_in_dim %arg233, dims = [1] : (tensor<1024xf32>) -> tensor<197x1024xf32>
    %1404 = stablehlo.add %1402, %1403 : tensor<197x1024xf32>
    %1405 = stablehlo.convert %1404 : (tensor<197x1024xf32>) -> tensor<197x1024xbf16>
    %1406 = stablehlo.reshape %1405 : (tensor<197x1024xbf16>) -> tensor<1x197x1024xbf16>
    %1407 = stablehlo.broadcast_in_dim %arg44, dims = [2] : (tensor<1024xbf16>) -> tensor<1x197x1024xbf16>
    %1408 = stablehlo.broadcast_in_dim %1406, dims = [0, 1, 2] : (tensor<1x197x1024xbf16>) -> tensor<1x197x1024xbf16>
    %1409 = stablehlo.multiply %1407, %1408 : tensor<1x197x1024xbf16>
    %1410 = stablehlo.add %1409, %1318 : tensor<1x197x1024xbf16>
    %1411 = stablehlo.convert %1410 : (tensor<1x197x1024xbf16>) -> tensor<1x197x1024xf32>
    %1412 = stablehlo.convert %1411 : (tensor<1x197x1024xf32>) -> tensor<1x197x1024xf64>
    %1413 = stablehlo.reduce(%1412 init: %cst) applies stablehlo.add across dimensions = [2] : (tensor<1x197x1024xf64>, tensor<f64>) -> tensor<1x197xf64>
    %1414 = stablehlo.reshape %1413 : (tensor<1x197xf64>) -> tensor<1x197x1xf64>
    %1415 = stablehlo.broadcast_in_dim %1414, dims = [0, 1, 2] : (tensor<1x197x1xf64>) -> tensor<1x197x1xf64>
    %1416 = stablehlo.divide %1415, %15 : tensor<1x197x1xf64>
    %1417 = stablehlo.broadcast_in_dim %1412, dims = [0, 1, 2] : (tensor<1x197x1024xf64>) -> tensor<1x197x1024xf64>
    %1418 = stablehlo.broadcast_in_dim %1416, dims = [0, 1, 2] : (tensor<1x197x1xf64>) -> tensor<1x197x1024xf64>
    %1419 = stablehlo.subtract %1417, %1418 : tensor<1x197x1024xf64>
    %1420 = stablehlo.multiply %1419, %1419 : tensor<1x197x1024xf64>
    %1421 = stablehlo.reduce(%1420 init: %cst) applies stablehlo.add across dimensions = [2] : (tensor<1x197x1024xf64>, tensor<f64>) -> tensor<1x197xf64>
    %1422 = stablehlo.reshape %1421 : (tensor<1x197xf64>) -> tensor<1x197x1xf64>
    %1423 = stablehlo.broadcast_in_dim %1422, dims = [0, 1, 2] : (tensor<1x197x1xf64>) -> tensor<1x197x1xf64>
    %1424 = stablehlo.divide %1423, %15 : tensor<1x197x1xf64>
    %1425 = stablehlo.convert %1424 : (tensor<1x197x1xf64>) -> tensor<1x197x1xf32>
    %1426 = stablehlo.reduce(%1411 init: %cst_0) applies stablehlo.add across dimensions = [2] : (tensor<1x197x1024xf32>, tensor<f32>) -> tensor<1x197xf32>
    %1427 = stablehlo.reshape %1426 : (tensor<1x197xf32>) -> tensor<1x197x1xf32>
    %1428 = stablehlo.broadcast_in_dim %1427, dims = [0, 1, 2] : (tensor<1x197x1xf32>) -> tensor<1x197x1xf32>
    %1429 = stablehlo.divide %1428, %31 : tensor<1x197x1xf32>
    %1430 = stablehlo.broadcast_in_dim %1425, dims = [0, 1, 2] : (tensor<1x197x1xf32>) -> tensor<1x197x1xf32>
    %1431 = stablehlo.add %1430, %36 : tensor<1x197x1xf32>
    %1432 = stablehlo.rsqrt %1431 : tensor<1x197x1xf32>
    %1433 = stablehlo.broadcast_in_dim %1411, dims = [0, 1, 2] : (tensor<1x197x1024xf32>) -> tensor<1x197x1024xf32>
    %1434 = stablehlo.broadcast_in_dim %1429, dims = [0, 1, 2] : (tensor<1x197x1xf32>) -> tensor<1x197x1024xf32>
    %1435 = stablehlo.subtract %1433, %1434 : tensor<1x197x1024xf32>
    %1436 = stablehlo.broadcast_in_dim %1435, dims = [0, 1, 2] : (tensor<1x197x1024xf32>) -> tensor<1x197x1024xf32>
    %1437 = stablehlo.broadcast_in_dim %1432, dims = [0, 1, 2] : (tensor<1x197x1xf32>) -> tensor<1x197x1024xf32>
    %1438 = stablehlo.multiply %1436, %1437 : tensor<1x197x1024xf32>
    %1439 = stablehlo.convert %arg45 : (tensor<1024xbf16>) -> tensor<1024xf32>
    %1440 = stablehlo.broadcast_in_dim %1438, dims = [0, 1, 2] : (tensor<1x197x1024xf32>) -> tensor<1x197x1024xf32>
    %1441 = stablehlo.broadcast_in_dim %1439, dims = [2] : (tensor<1024xf32>) -> tensor<1x197x1024xf32>
    %1442 = stablehlo.multiply %1440, %1441 : tensor<1x197x1024xf32>
    %1443 = stablehlo.convert %arg46 : (tensor<1024xbf16>) -> tensor<1024xf32>
    %1444 = stablehlo.broadcast_in_dim %1442, dims = [0, 1, 2] : (tensor<1x197x1024xf32>) -> tensor<1x197x1024xf32>
    %1445 = stablehlo.broadcast_in_dim %1443, dims = [2] : (tensor<1024xf32>) -> tensor<1x197x1024xf32>
    %1446 = stablehlo.add %1444, %1445 : tensor<1x197x1024xf32>
    %1447 = stablehlo.convert %1446 : (tensor<1x197x1024xf32>) -> tensor<1x197x1024xbf16>
    %1448 = stablehlo.reshape %1447 : (tensor<1x197x1024xbf16>) -> tensor<197x1024xbf16>
    %1449 = stablehlo.convert %1448 : (tensor<197x1024xbf16>) -> tensor<197x1024xf32>
    %1450 = stablehlo.dot_general %1449, %arg234, contracting_dims = [1] x [0] : (tensor<197x1024xf32>, tensor<1024x1024xf32>) -> tensor<197x1024xf32>
    %1451 = stablehlo.broadcast_in_dim %1450, dims = [0, 1] : (tensor<197x1024xf32>) -> tensor<197x1024xf32>
    %1452 = stablehlo.multiply %1451, %60 : tensor<197x1024xf32>
    %1453 = stablehlo.broadcast_in_dim %1452, dims = [0, 1] : (tensor<197x1024xf32>) -> tensor<197x1024xf32>
    %1454 = stablehlo.broadcast_in_dim %arg235, dims = [1] : (tensor<1024xf32>) -> tensor<197x1024xf32>
    %1455 = stablehlo.add %1453, %1454 : tensor<197x1024xf32>
    %1456 = stablehlo.convert %1455 : (tensor<197x1024xf32>) -> tensor<197x1024xbf16>
    %1457 = stablehlo.reshape %1456 : (tensor<197x1024xbf16>) -> tensor<1x197x1024xbf16>
    %1458 = stablehlo.dot_general %1448, %arg236, contracting_dims = [1] x [0] : (tensor<197x1024xbf16>, tensor<1024x1024xbf16>) -> tensor<197x1024xbf16>
    %1459 = stablehlo.reshape %1458 : (tensor<197x1024xbf16>) -> tensor<1x197x1024xbf16>
    %1460 = stablehlo.reshape %1459 : (tensor<1x197x1024xbf16>) -> tensor<1x197x16x64xbf16>
    %1461 = stablehlo.transpose %1460, dims = [0, 2, 1, 3] : (tensor<1x197x16x64xbf16>) -> tensor<1x16x197x64xbf16>
    %1462 = stablehlo.dot_general %1449, %arg237, contracting_dims = [1] x [0] : (tensor<197x1024xf32>, tensor<1024x1024xf32>) -> tensor<197x1024xf32>
    %1463 = stablehlo.broadcast_in_dim %1462, dims = [0, 1] : (tensor<197x1024xf32>) -> tensor<197x1024xf32>
    %1464 = stablehlo.multiply %1463, %60 : tensor<197x1024xf32>
    %1465 = stablehlo.broadcast_in_dim %1464, dims = [0, 1] : (tensor<197x1024xf32>) -> tensor<197x1024xf32>
    %1466 = stablehlo.broadcast_in_dim %arg238, dims = [1] : (tensor<1024xf32>) -> tensor<197x1024xf32>
    %1467 = stablehlo.add %1465, %1466 : tensor<197x1024xf32>
    %1468 = stablehlo.convert %1467 : (tensor<197x1024xf32>) -> tensor<197x1024xbf16>
    %1469 = stablehlo.reshape %1468 : (tensor<197x1024xbf16>) -> tensor<1x197x1024xbf16>
    %1470 = stablehlo.reshape %1469 : (tensor<1x197x1024xbf16>) -> tensor<1x197x16x64xbf16>
    %1471 = stablehlo.transpose %1470, dims = [0, 2, 1, 3] : (tensor<1x197x16x64xbf16>) -> tensor<1x16x197x64xbf16>
…
    %4287 = stablehlo.multiply %4285, %4286 : tensor<1x197x1024xbf16>
    %4288 = stablehlo.add %4287, %4182 : tensor<1x197x1024xbf16>
    %4289 = stablehlo.convert %4288 : (tensor<1x197x1024xbf16>) -> tensor<1x197x1024xf32>
    %4290 = stablehlo.convert %4289 : (tensor<1x197x1024xf32>) -> tensor<1x197x1024xf64>
    %4291 = stablehlo.reduce(%4290 init: %cst) applies stablehlo.add across dimensions = [2] : (tensor<1x197x1024xf64>, tensor<f64>) -> tensor<1x197xf64>
    %4292 = stablehlo.reshape %4291 : (tensor<1x197xf64>) -> tensor<1x197x1xf64>
    %4293 = stablehlo.broadcast_in_dim %4292, dims = [0, 1, 2] : (tensor<1x197x1xf64>) -> tensor<1x197x1xf64>
    %4294 = stablehlo.divide %4293, %15 : tensor<1x197x1xf64>
    %4295 = stablehlo.broadcast_in_dim %4290, dims = [0, 1, 2] : (tensor<1x197x1024xf64>) -> tensor<1x197x1024xf64>
    %4296 = stablehlo.broadcast_in_dim %4294, dims = [0, 1, 2] : (tensor<1x197x1xf64>) -> tensor<1x197x1024xf64>
    %4297 = stablehlo.subtract %4295, %4296 : tensor<1x197x1024xf64>
    %4298 = stablehlo.multiply %4297, %4297 : tensor<1x197x1024xf64>
    %4299 = stablehlo.reduce(%4298 init: %cst) applies stablehlo.add across dimensions = [2] : (tensor<1x197x1024xf64>, tensor<f64>) -> tensor<1x197xf64>
    %4300 = stablehlo.reshape %4299 : (tensor<1x197xf64>) -> tensor<1x197x1xf64>
    %4301 = stablehlo.broadcast_in_dim %4300, dims = [0, 1, 2] : (tensor<1x197x1xf64>) -> tensor<1x197x1xf64>
    %4302 = stablehlo.divide %4301, %15 : tensor<1x197x1xf64>
    %4303 = stablehlo.convert %4302 : (tensor<1x197x1xf64>) -> tensor<1x197x1xf32>
    %4304 = stablehlo.reduce(%4289 init: %cst_0) applies stablehlo.add across dimensions = [2] : (tensor<1x197x1024xf32>, tensor<f32>) -> tensor<1x197xf32>
    %4305 = stablehlo.reshape %4304 : (tensor<1x197xf32>) -> tensor<1x197x1xf32>
    %4306 = stablehlo.broadcast_in_dim %4305, dims = [0, 1, 2] : (tensor<1x197x1xf32>) -> tensor<1x197x1xf32>
    %4307 = stablehlo.divide %4306, %31 : tensor<1x197x1xf32>
    %4308 = stablehlo.broadcast_in_dim %4303, dims = [0, 1, 2] : (tensor<1x197x1xf32>) -> tensor<1x197x1xf32>
    %4309 = stablehlo.add %4308, %36 : tensor<1x197x1xf32>
    %4310 = stablehlo.rsqrt %4309 : tensor<1x197x1xf32>
    %4311 = stablehlo.broadcast_in_dim %4289, dims = [0, 1, 2] : (tensor<1x197x1024xf32>) -> tensor<1x197x1024xf32>
    %4312 = stablehlo.broadcast_in_dim %4307, dims = [0, 1, 2] : (tensor<1x197x1xf32>) -> tensor<1x197x1024xf32>
    %4313 = stablehlo.subtract %4311, %4312 : tensor<1x197x1024xf32>
    %4314 = stablehlo.broadcast_in_dim %4313, dims = [0, 1, 2] : (tensor<1x197x1024xf32>) -> tensor<1x197x1024xf32>
    %4315 = stablehlo.broadcast_in_dim %4310, dims = [0, 1, 2] : (tensor<1x197x1xf32>) -> tensor<1x197x1024xf32>
    %4316 = stablehlo.multiply %4314, %4315 : tensor<1x197x1024xf32>
    %4317 = stablehlo.convert %arg132 : (tensor<1024xbf16>) -> tensor<1024xf32>
    %4318 = stablehlo.broadcast_in_dim %4316, dims = [0, 1, 2] : (tensor<1x197x1024xf32>) -> tensor<1x197x1024xf32>
    %4319 = stablehlo.broadcast_in_dim %4317, dims = [2] : (tensor<1024xf32>) -> tensor<1x197x1024xf32>
    %4320 = stablehlo.multiply %4318, %4319 : tensor<1x197x1024xf32>
    %4321 = stablehlo.convert %arg133 : (tensor<1024xbf16>) -> tensor<1024xf32>
    %4322 = stablehlo.broadcast_in_dim %4320, dims = [0, 1, 2] : (tensor<1x197x1024xf32>) -> tensor<1x197x1024xf32>
    %4323 = stablehlo.broadcast_in_dim %4321, dims = [2] : (tensor<1024xf32>) -> tensor<1x197x1024xf32>
    %4324 = stablehlo.add %4322, %4323 : tensor<1x197x1024xf32>
    %4325 = stablehlo.convert %4324 : (tensor<1x197x1024xf32>) -> tensor<1x197x1024xbf16>
    %4326 = stablehlo.reshape %4325 : (tensor<1x197x1024xbf16>) -> tensor<197x1024xbf16>
    %4327 = stablehlo.convert %4326 : (tensor<197x1024xbf16>) -> tensor<197x1024xf32>
    %4328 = stablehlo.dot_general %4327, %arg410, contracting_dims = [1] x [0] : (tensor<197x1024xf32>, tensor<1024x4096xf32>) -> tensor<197x4096xf32>
    %4329 = stablehlo.broadcast_in_dim %4328, dims = [0, 1] : (tensor<197x4096xf32>) -> tensor<197x4096xf32>
    %4330 = stablehlo.multiply %4329, %170 : tensor<197x4096xf32>
    %4331 = stablehlo.broadcast_in_dim %4330, dims = [0, 1] : (tensor<197x4096xf32>) -> tensor<197x4096xf32>
    %4332 = stablehlo.broadcast_in_dim %arg411, dims = [1] : (tensor<4096xf32>) -> tensor<197x4096xf32>
    %4333 = stablehlo.add %4331, %4332 : tensor<197x4096xf32>
    %4334 = stablehlo.convert %4333 : (tensor<197x4096xf32>) -> tensor<197x4096xbf16>
    %4335 = stablehlo.reshape %4334 : (tensor<197x4096xbf16>) -> tensor<1x197x4096xbf16>
    %4336 = stablehlo.multiply %4335, %cst_4 : tensor<1x197x4096xbf16>
    %4337 = stablehlo.multiply %4335, %178 : tensor<1x197x4096xbf16>
    %4338 = stablehlo.convert %4337 : (tensor<1x197x4096xbf16>) -> tensor<1x197x4096xf32>
    %4339 = stablehlo.clamp %cst_5, %4338, %cst_6 : tensor<1x197x4096xf32>
    %4340 = stablehlo.multiply %4339, %4339 : tensor<1x197x4096xf32>
    %4341 = stablehlo.multiply %cst_7, %4340 : tensor<1x197x4096xf32>
    %4342 = stablehlo.add %4341, %cst_8 : tensor<1x197x4096xf32>
    %4343 = stablehlo.multiply %4342, %4340 : tensor<1x197x4096xf32>
    %4344 = stablehlo.add %4343, %cst_9 : tensor<1x197x4096xf32>
    %4345 = stablehlo.multiply %4344, %4340 : tensor<1x197x4096xf32>
    %4346 = stablehlo.add %4345, %cst_10 : tensor<1x197x4096xf32>
    %4347 = stablehlo.multiply %4346, %4340 : tensor<1x197x4096xf32>
    %4348 = stablehlo.add %4347, %cst_11 : tensor<1x197x4096xf32>
    %4349 = stablehlo.multiply %4348, %4340 : tensor<1x197x4096xf32>
    %4350 = stablehlo.add %4349, %cst_12 : tensor<1x197x4096xf32>
    %4351 = stablehlo.multiply %4350, %4340 : tensor<1x197x4096xf32>
    %4352 = stablehlo.add %4351, %cst_13 : tensor<1x197x4096xf32>
    %4353 = stablehlo.multiply %cst_14, %4340 : tensor<1x197x4096xf32>
    %4354 = stablehlo.add %4353, %cst_15 : tensor<1x197x4096xf32>
    %4355 = stablehlo.multiply %4354, %4340 : tensor<1x197x4096xf32>
    %4356 = stablehlo.add %4355, %cst_16 : tensor<1x197x4096xf32>
    %4357 = stablehlo.multiply %4356, %4340 : tensor<1x197x4096xf32>
    %4358 = stablehlo.add %4357, %cst_17 : tensor<1x197x4096xf32>
    %4359 = stablehlo.multiply %4358, %4340 : tensor<1x197x4096xf32>
    %4360 = stablehlo.add %4359, %cst_18 : tensor<1x197x4096xf32>
    %4361 = stablehlo.multiply %4339, %4352 : tensor<1x197x4096xf32>
    %4362 = stablehlo.divide %4361, %4360 : tensor<1x197x4096xf32>
    %4363 = stablehlo.clamp %cst_19, %4362, %cst_20 : tensor<1x197x4096xf32>
    %4364 = stablehlo.convert %4363 : (tensor<1x197x4096xf32>) -> tensor<1x197x4096xbf16>
    %4365 = stablehlo.add %4364, %cst_2 : tensor<1x197x4096xbf16>
    %4366 = stablehlo.multiply %4365, %4336 : tensor<1x197x4096xbf16>
    %4367 = stablehlo.reshape %4366 : (tensor<1x197x4096xbf16>) -> tensor<197x4096xbf16>
    %4368 = stablehlo.convert %4367 : (tensor<197x4096xbf16>) -> tensor<197x4096xf32>
    %4369 = stablehlo.dot_general %4368, %arg412, contracting_dims = [1] x [0] : (tensor<197x4096xf32>, tensor<4096x1024xf32>) -> tensor<197x1024xf32>
    %4370 = stablehlo.broadcast_in_dim %4369, dims = [0, 1] : (tensor<197x1024xf32>) -> tensor<197x1024xf32>
    %4371 = stablehlo.multiply %4370, %60 : tensor<197x1024xf32>
    %4372 = stablehlo.broadcast_in_dim %4371, dims = [0, 1] : (tensor<197x1024xf32>) -> tensor<197x1024xf32>
    %4373 = stablehlo.broadcast_in_dim %arg413, dims = [1] : (tensor<1024xf32>) -> tensor<197x1024xf32>
    %4374 = stablehlo.add %4372, %4373 : tensor<197x1024xf32>
    %4375 = stablehlo.convert %4374 : (tensor<197x1024xf32>) -> tensor<197x1024xbf16>
    %4376 = stablehlo.reshape %4375 : (tensor<197x1024xbf16>) -> tensor<1x197x1024xbf16>
    %4377 = stablehlo.broadcast_in_dim %arg134, dims = [2] : (tensor<1024xbf16>) -> tensor<1x197x1024xbf16>
    %4378 = stablehlo.broadcast_in_dim %4376, dims = [0, 1, 2] : (tensor<1x197x1024xbf16>) -> tensor<1x197x1024xbf16>
    %4379 = stablehlo.multiply %4377, %4378 : tensor<1x197x1024xbf16>
    %4380 = stablehlo.add %4379, %4288 : tensor<1x197x1024xbf16>
    %4381 = stablehlo.convert %4380 : (tensor<1x197x1024xbf16>) -> tensor<1x197x1024xf32>
    %4382 = stablehlo.convert %4381 : (tensor<1x197x1024xf32>) -> tensor<1x197x1024xf64>
    %4383 = stablehlo.reduce(%4382 init: %cst) applies stablehlo.add across dimensions = [2] : (tensor<1x197x1024xf64>, tensor<f64>) -> tensor<1x197xf64>
    %4384 = stablehlo.reshape %4383 : (tensor<1x197xf64>) -> tensor<1x197x1xf64>
    %4385 = stablehlo.broadcast_in_dim %4384, dims = [0, 1, 2] : (tensor<1x197x1xf64>) -> tensor<1x197x1xf64>
    %4386 = stablehlo.divide %4385, %15 : tensor<1x197x1xf64>
    %4387 = stablehlo.broadcast_in_dim %4382, dims = [0, 1, 2] : (tensor<1x197x1024xf64>) -> tensor<1x197x1024xf64>
    %4388 = stablehlo.broadcast_in_dim %4386, dims = [0, 1, 2] : (tensor<1x197x1xf64>) -> tensor<1x197x1024xf64>
    %4389 = stablehlo.subtract %4387, %4388 : tensor<1x197x1024xf64>
    %4390 = stablehlo.multiply %4389, %4389 : tensor<1x197x1024xf64>
    %4391 = stablehlo.reduce(%4390 init: %cst) applies stablehlo.add across dimensions = [2] : (tensor<1x197x1024xf64>, tensor<f64>) -> tensor<1x197xf64>
    %4392 = stablehlo.reshape %4391 : (tensor<1x197xf64>) -> tensor<1x197x1xf64>
    %4393 = stablehlo.broadcast_in_dim %4392, dims = [0, 1, 2] : (tensor<1x197x1xf64>) -> tensor<1x197x1xf64>
    %4394 = stablehlo.divide %4393, %15 : tensor<1x197x1xf64>
    %4395 = stablehlo.convert %4394 : (tensor<1x197x1xf64>) -> tensor<1x197x1xf32>
    %4396 = stablehlo.reduce(%4381 init: %cst_0) applies stablehlo.add across dimensions = [2] : (tensor<1x197x1024xf32>, tensor<f32>) -> tensor<1x197xf32>
    %4397 = stablehlo.reshape %4396 : (tensor<1x197xf32>) -> tensor<1x197x1xf32>
    %4398 = stablehlo.broadcast_in_dim %4397, dims = [0, 1, 2] : (tensor<1x197x1xf32>) -> tensor<1x197x1xf32>
    %4399 = stablehlo.divide %4398, %31 : tensor<1x197x1xf32>
    %4400 = stablehlo.broadcast_in_dim %4395, dims = [0, 1, 2] : (tensor<1x197x1xf32>) -> tensor<1x197x1xf32>
    %4401 = stablehlo.add %4400, %36 : tensor<1x197x1xf32>
    %4402 = stablehlo.rsqrt %4401 : tensor<1x197x1xf32>
    %4403 = stablehlo.broadcast_in_dim %4381, dims = [0, 1, 2] : (tensor<1x197x1024xf32>) -> tensor<1x197x1024xf32>
    %4404 = stablehlo.broadcast_in_dim %4399, dims = [0, 1, 2] : (tensor<1x197x1xf32>) -> tensor<1x197x1024xf32>
    %4405 = stablehlo.subtract %4403, %4404 : tensor<1x197x1024xf32>
    %4406 = stablehlo.broadcast_in_dim %4405, dims = [0, 1, 2] : (tensor<1x197x1024xf32>) -> tensor<1x197x1024xf32>
    %4407 = stablehlo.broadcast_in_dim %4402, dims = [0, 1, 2] : (tensor<1x197x1xf32>) -> tensor<1x197x1024xf32>
    %4408 = stablehlo.multiply %4406, %4407 : tensor<1x197x1024xf32>
    %4409 = stablehlo.convert %arg135 : (tensor<1024xbf16>) -> tensor<1024xf32>
    %4410 = stablehlo.broadcast_in_dim %4408, dims = [0, 1, 2] : (tensor<1x197x1024xf32>) -> tensor<1x197x1024xf32>
    %4411 = stablehlo.broadcast_in_dim %4409, dims = [2] : (tensor<1024xf32>) -> tensor<1x197x1024xf32>
    %4412 = stablehlo.multiply %4410, %4411 : tensor<1x197x1024xf32>
    %4413 = stablehlo.convert %arg136 : (tensor<1024xbf16>) -> tensor<1024xf32>
    %4414 = stablehlo.broadcast_in_dim %4412, dims = [0, 1, 2] : (tensor<1x197x1024xf32>) -> tensor<1x197x1024xf32>
    %4415 = stablehlo.broadcast_in_dim %4413, dims = [2] : (tensor<1024xf32>) -> tensor<1x197x1024xf32>
    %4416 = stablehlo.add %4414, %4415 : tensor<1x197x1024xf32>
    %4417 = stablehlo.convert %4416 : (tensor<1x197x1024xf32>) -> tensor<1x197x1024xbf16>
    %4418 = stablehlo.reshape %4417 : (tensor<1x197x1024xbf16>) -> tensor<197x1024xbf16>
    %4419 = stablehlo.convert %4418 : (tensor<197x1024xbf16>) -> tensor<197x1024xf32>
    %4420 = stablehlo.dot_general %4419, %arg414, contracting_dims = [1] x [0] : (tensor<197x1024xf32>, tensor<1024x1024xf32>) -> tensor<197x1024xf32>
    %4421 = stablehlo.broadcast_in_dim %4420, dims = [0, 1] : (tensor<197x1024xf32>) -> tensor<197x1024xf32>
    %4422 = stablehlo.multiply %4421, %60 : tensor<197x1024xf32>
    %4423 = stablehlo.broadcast_in_dim %4422, dims = [0, 1] : (tensor<197x1024xf32>) -> tensor<197x1024xf32>
    %4424 = stablehlo.broadcast_in_dim %arg415, dims = [1] : (tensor<1024xf32>) -> tensor<197x1024xf32>
    %4425 = stablehlo.add %4423, %4424 : tensor<197x1024xf32>
    %4426 = stablehlo.convert %4425 : (tensor<197x1024xf32>) -> tensor<197x1024xbf16>
    %4427 = stablehlo.reshape %4426 : (tensor<197x1024xbf16>) -> tensor<1x197x1024xbf16>
    %4428 = stablehlo.dot_general %4418, %arg416, contracting_dims = [1] x [0] : (tensor<197x1024xbf16>, tensor<1024x1024xbf16>) -> tensor<197x1024xbf16>
    %4429 = stablehlo.reshape %4428 : (tensor<197x1024xbf16>) -> tensor<1x197x1024xbf16>
    %4430 = stablehlo.reshape %4429 : (tensor<1x197x1024xbf16>) -> tensor<1x197x16x64xbf16>
    %4431 = stablehlo.transpose %4430, dims = [0, 2, 1, 3] : (tensor<1x197x16x64xbf16>) -> tensor<1x16x197x64xbf16>
    %4432 = stablehlo.dot_general %4419, %arg417, contracting_dims = [1] x [0] : (tensor<197x1024xf32>, tensor<1024x1024xf32>) -> tensor<197x1024xf32>
    %4433 = stablehlo.broadcast_in_dim %4432, dims = [0, 1] : (tensor<197x1024xf32>) -> tensor<197x1024xf32>
    %4434 = stablehlo.multiply %4433, %60 : tensor<197x1024xf32>
    %4435 = stablehlo.broadcast_in_dim %4434, dims = [0, 1] : (tensor<197x1024xf32>) -> tensor<197x1024xf32>
    %4436 = stablehlo.broadcast_in_dim %arg418, dims = [1] : (tensor<1024xf32>) -> tensor<197x1024xf32>
    %4437 = stablehlo.add %4435, %4436 : tensor<197x1024xf32>
    %4438 = stablehlo.convert %4437 : (tensor<197x1024xf32>) -> tensor<197x1024xbf16>
    %4439 = stablehlo.reshape %4438 : (tensor<197x1024xbf16>) -> tensor<1x197x1024xbf16>
    %4440 = stablehlo.reshape %4439 : (tensor<1x197x1024xbf16>) -> tensor<1x197x16x64xbf16>
    %4441 = stablehlo.transpose %4440, dims = [0, 2, 1, 3] : (tensor<1x197x16x64xbf16>) -> tensor<1x16x197x64xbf16>
    %4442 = stablehlo.reshape %4427 : (tensor<1x197x1024xbf16>) -> tensor<1x197x16x64xbf16>
    %4443 = stablehlo.transpose %4442, dims = [0, 2, 1, 3] : (tensor<1x197x16x64xbf16>) -> tensor<1x16x197x64xbf16>
    %4444 = stablehlo.transpose %4431, dims = [0, 1, 3, 2] : (tensor<1x16x197x64xbf16>) -> tensor<1x16x64x197xbf16>
    %4445 = stablehlo.reshape %4443 : (tensor<1x16x197x64xbf16>) -> tensor<16x197x64xbf16>
    %4446 = stablehlo.reshape %4444 : (tensor<1x16x64x197xbf16>) -> tensor<16x64x197xbf16>
    %4447 = stablehlo.broadcast_in_dim %4446, dims = [0, 1, 2] : (tensor<16x64x197xbf16>) -> tensor<16x64x197xbf16>
    %4448 = stablehlo.dot_general %4445, %4447, batching_dims = [0] x [0], contracting_dims = [2] x [1] : (tensor<16x197x64xbf16>, tensor<16x64x197xbf16>) -> tensor<16x197x197xbf16>
    %4449 = stablehlo.reshape %4448 : (tensor<16x197x197xbf16>) -> tensor<1x16x197x197xbf16>
    %4450 = stablehlo.broadcast_in_dim %4449, dims = [0, 1, 2, 3] : (tensor<1x16x197x197xbf16>) -> tensor<1x16x197x197xbf16>
    %4451 = stablehlo.divide %4450, %92 : tensor<1x16x197x197xbf16>
    %4452 = stablehlo.add %4451, %arg419 : tensor<1x16x197x197xbf16>
    %4453 = stablehlo.convert %4452 : (tensor<1x16x197x197xbf16>) -> tensor<1x16x197x197xf32>
    %4454 = stablehlo.reduce(%4453 init: %cst_1) applies stablehlo.maximum across dimensions = [3] : (tensor<1x16x197x197xf32>, tensor<f32>) -> tensor<1x16x197xf32>
    %4455 = stablehlo.reshape %4454 : (tensor<1x16x197xf32>) -> tensor<1x16x197x1xf32>
    %4456 = stablehlo.broadcast_in_dim %4453, dims = [0, 1, 2, 3] : (tensor<1x16x197x197xf32>) -> tensor<1x16x197x197xf32>
    %4457 = stablehlo.broadcast_in_dim %4455, dims = [0, 1, 2, 3] : (tensor<1x16x197x1xf32>) -> tensor<1x16x197x197xf32>
    %4458 = stablehlo.subtract %4456, %4457 : tensor<1x16x197x197xf32>
    %4459 = stablehlo.exponential %4458 : tensor<1x16x197x197xf32>
    %4460 = stablehlo.reduce(%4459 init: %cst_0) applies stablehlo.add across dimensions = [3] : (tensor<1x16x197x197xf32>, tensor<f32>) -> tensor<1x16x197xf32>
    %4461 = stablehlo.reshape %4460 : (tensor<1x16x197xf32>) -> tensor<1x16x197x1xf32>
    %4462 = stablehlo.broadcast_in_dim %4459, dims = [0, 1, 2, 3] : (tensor<1x16x197x197xf32>) -> tensor<1x16x197x197xf32>
    %4463 = stablehlo.broadcast_in_dim %4461, dims = [0, 1, 2, 3] : (tensor<1x16x197x1xf32>) -> tensor<1x16x197x197xf32>
    %4464 = stablehlo.divide %4462, %4463 : tensor<1x16x197x197xf32>
    %4465 = stablehlo.convert %4464 : (tensor<1x16x197x197xf32>) -> tensor<1x16x197x197xbf16>
    %4466 = stablehlo.reshape %4465 : (tensor<1x16x197x197xbf16>) -> tensor<16x197x197xbf16>
    %4467 = stablehlo.reshape %4441 : (tensor<1x16x197x64xbf16>) -> tensor<16x197x64xbf16>
    %4468 = stablehlo.broadcast_in_dim %4467, dims = [0, 1, 2] : (tensor<16x197x64xbf16>) -> tensor<16x197x64xbf16>
    %4469 = stablehlo.dot_general %4466, %4468, batching_dims = [0] x [0], contracting_dims = [2] x [1] : (tensor<16x197x197xbf16>, tensor<16x197x64xbf16>) -> tensor<16x197x64xbf16>
    %4470 = stablehlo.reshape %4469 : (tensor<16x197x64xbf16>) -> tensor<1x16x197x64xbf16>
    %4471 = stablehlo.transpose %4470, dims = [0, 2, 1, 3] : (tensor<1x16x197x64xbf16>) -> tensor<1x197x16x64xbf16>
    %4472 = stablehlo.reshape %4471 : (tensor<1x197x16x64xbf16>) -> tensor<1x197x1024xbf16>
    %4473 = stablehlo.reshape %4472 : (tensor<1x197x1024xbf16>) -> tensor<197x1024xbf16>
    %4474 = stablehlo.convert %4473 : (tensor<197x1024xbf16>) -> tensor<197x1024xf32>
    %4475 = stablehlo.dot_general %4474, %arg420, contracting_dims = [1] x [0] : (tensor<197x1024xf32>, tensor<1024x1024xf32>) -> tensor<197x1024xf32>
    %4476 = stablehlo.broadcast_in_dim %4475, dims = [0, 1] : (tensor<197x1024xf32>) -> tensor<197x1024xf32>
    %4477 = stablehlo.multiply %4476, %60 : tensor<197x1024xf32>
    %4478 = stablehlo.broadcast_in_dim %4477, dims = [0, 1] : (tensor<197x1024xf32>) -> tensor<197x1024xf32>
    %4479 = stablehlo.broadcast_in_dim %arg421, dims = [1] : (tensor<1024xf32>) -> tensor<197x1024xf32>
    %4480 = stablehlo.add %4478, %4479 : tensor<197x1024xf32>
    %4481 = stablehlo.convert %4480 : (tensor<197x1024xf32>) -> tensor<197x1024xbf16>
    %4482 = stablehlo.reshape %4481 : (tensor<197x1024xbf16>) -> tensor<1x197x1024xbf16>
    %4483 = stablehlo.broadcast_in_dim %arg137, dims = [2] : (tensor<1024xbf16>) -> tensor<1x197x1024xbf16>
    %4484 = stablehlo.broadcast_in_dim %4482, dims = [0, 1, 2] : (tensor<1x197x1024xbf16>) -> tensor<1x197x1024xbf16>
    %4485 = stablehlo.multiply %4483, %4484 : tensor<1x197x1024xbf16>
    %4486 = stablehlo.add %4485, %4380 : tensor<1x197x1024xbf16>
    %4487 = stablehlo.convert %4486 : (tensor<1x197x1024xbf16>) -> tensor<1x197x1024xf32>
    %4488 = stablehlo.convert %4487 : (tensor<1x197x1024xf32>) -> tensor<1x197x1024xf64>
    %4489 = stablehlo.reduce(%4488 init: %cst) applies stablehlo.add across dimensions = [2] : (tensor<1x197x1024xf64>, tensor<f64>) -> tensor<1x197xf64>
    %4490 = stablehlo.reshape %4489 : (tensor<1x197xf64>) -> tensor<1x197x1xf64>
    %4491 = stablehlo.broadcast_in_dim %4490, dims = [0, 1, 2] : (tensor<1x197x1xf64>) -> tensor<1x197x1xf64>
    %4492 = stablehlo.divide %4491, %15 : tensor<1x197x1xf64>
    %4493 = stablehlo.broadcast_in_dim %4488, dims = [0, 1, 2] : (tensor<1x197x1024xf64>) -> tensor<1x197x1024xf64>
    %4494 = stablehlo.broadcast_in_dim %4492, dims = [0, 1, 2] : (tensor<1x197x1xf64>) -> tensor<1x197x1024xf64>
    %4495 = stablehlo.subtract %4493, %4494 : tensor<1x197x1024xf64>
    %4496 = stablehlo.multiply %4495, %4495 : tensor<1x197x1024xf64>
    %4497 = stablehlo.reduce(%4496 init: %cst) applies stablehlo.add across dimensions = [2] : (tensor<1x197x1024xf64>, tensor<f64>) -> tensor<1x197xf64>
    %4498 = stablehlo.reshape %4497 : (tensor<1x197xf64>) -> tensor<1x197x1xf64>
    %4499 = stablehlo.broadcast_in_dim %4498, dims = [0, 1, 2] : (tensor<1x197x1xf64>) -> tensor<1x197x1xf64>
    %4500 = stablehlo.divide %4499, %15 : tensor<1x197x1xf64>
    %4501 = stablehlo.convert %4500 : (tensor<1x197x1xf64>) -> tensor<1x197x1xf32>
    %4502 = stablehlo.reduce(%4487 init: %cst_0) applies stablehlo.add across dimensions = [2] : (tensor<1x197x1024xf32>, tensor<f32>) -> tensor<1x197xf32>
    %4503 = stablehlo.reshape %4502 : (tensor<1x197xf32>) -> tensor<1x197x1xf32>
    %4504 = stablehlo.broadcast_in_dim %4503, dims = [0, 1, 2] : (tensor<1x197x1xf32>) -> tensor<1x197x1xf32>
    %4505 = stablehlo.divide %4504, %31 : tensor<1x197x1xf32>
    %4506 = stablehlo.broadcast_in_dim %4501, dims = [0, 1, 2] : (tensor<1x197x1xf32>) -> tensor<1x197x1xf32>
    %4507 = stablehlo.add %4506, %36 : tensor<1x197x1xf32>
    %4508 = stablehlo.rsqrt %4507 : tensor<1x197x1xf32>
    %4509 = stablehlo.broadcast_in_dim %4487, dims = [0, 1, 2] : (tensor<1x197x1024xf32>) -> tensor<1x197x1024xf32>
    %4510 = stablehlo.broadcast_in_dim %4505, dims = [0, 1, 2] : (tensor<1x197x1xf32>) -> tensor<1x197x1024xf32>
    %4511 = stablehlo.subtract %4509, %4510 : tensor<1x197x1024xf32>
    %4512 = stablehlo.broadcast_in_dim %4511, dims = [0, 1, 2] : (tensor<1x197x1024xf32>) -> tensor<1x197x1024xf32>
    %4513 = stablehlo.broadcast_in_dim %4508, dims = [0, 1, 2] : (tensor<1x197x1xf32>) -> tensor<1x197x1024xf32>
    %4514 = stablehlo.multiply %4512, %4513 : tensor<1x197x1024xf32>
    %4515 = stablehlo.convert %arg138 : (tensor<1024xbf16>) -> tensor<1024xf32>
    %4516 = stablehlo.broadcast_in_dim %4514, dims = [0, 1, 2] : (tensor<1x197x1024xf32>) -> tensor<1x197x1024xf32>
    %4517 = stablehlo.broadcast_in_dim %4515, dims = [2] : (tensor<1024xf32>) -> tensor<1x197x1024xf32>
    %4518 = stablehlo.multiply %4516, %4517 : tensor<1x197x1024xf32>
    %4519 = stablehlo.convert %arg139 : (tensor<1024xbf16>) -> tensor<1024xf32>
    %4520 = stablehlo.broadcast_in_dim %4518, dims = [0, 1, 2] : (tensor<1x197x1024xf32>) -> tensor<1x197x1024xf32>
    %4521 = stablehlo.broadcast_in_dim %4519, dims = [2] : (tensor<1024xf32>) -> tensor<1x197x1024xf32>
    %4522 = stablehlo.add %4520, %4521 : tensor<1x197x1024xf32>
    %4523 = stablehlo.convert %4522 : (tensor<1x197x1024xf32>) -> tensor<1x197x1024xbf16>
    %4524 = stablehlo.reshape %4523 : (tensor<1x197x1024xbf16>) -> tensor<197x1024xbf16>
    %4525 = stablehlo.convert %4524 : (tensor<197x1024xbf16>) -> tensor<197x1024xf32>
    %4526 = stablehlo.dot_general %4525, %arg422, contracting_dims = [1] x [0] : (tensor<197x1024xf32>, tensor<1024x4096xf32>) -> tensor<197x4096xf32>
    %4527 = stablehlo.broadcast_in_dim %4526, dims = [0, 1] : (tensor<197x4096xf32>) -> tensor<197x4096xf32>
    %4528 = stablehlo.multiply %4527, %170 : tensor<197x4096xf32>
    %4529 = stablehlo.broadcast_in_dim %4528, dims = [0, 1] : (tensor<197x4096xf32>) -> tensor<197x4096xf32>
    %4530 = stablehlo.broadcast_in_dim %arg423, dims = [1] : (tensor<4096xf32>) -> tensor<197x4096xf32>
    %4531 = stablehlo.add %4529, %4530 : tensor<197x4096xf32>
    %4532 = stablehlo.convert %4531 : (tensor<197x4096xf32>) -> tensor<197x4096xbf16>
    %4533 = stablehlo.reshape %4532 : (tensor<197x4096xbf16>) -> tensor<1x197x4096xbf16>
    %4534 = stablehlo.multiply %4533, %cst_4 : tensor<1x197x4096xbf16>
    %4535 = stablehlo.multiply %4533, %178 : tensor<1x197x4096xbf16>
    %4536 = stablehlo.convert %4535 : (tensor<1x197x4096xbf16>) -> tensor<1x197x4096xf32>
    %4537 = stablehlo.clamp %cst_5, %4536, %cst_6 : tensor<1x197x4096xf32>
    %4538 = stablehlo.multiply %4537, %4537 : tensor<1x197x4096xf32>
    %4539 = stablehlo.multiply %cst_7, %4538 : tensor<1x197x4096xf32>
    %4540 = stablehlo.add %4539, %cst_8 : tensor<1x197x4096xf32>
    %4541 = stablehlo.multiply %4540, %4538 : tensor<1x197x4096xf32>
    %4542 = stablehlo.add %4541, %cst_9 : tensor<1x197x4096xf32>
    %4543 = stablehlo.multiply %4542, %4538 : tensor<1x197x4096xf32>
    %4544 = stablehlo.add %4543, %cst_10 : tensor<1x197x4096xf32>
    %4545 = stablehlo.multiply %4544, %4538 : tensor<1x197x4096xf32>
    %4546 = stablehlo.add %4545, %cst_11 : tensor<1x197x4096xf32>
    %4547 = stablehlo.multiply %4546, %4538 : tensor<1x197x4096xf32>
    %4548 = stablehlo.add %4547, %cst_12 : tensor<1x197x4096xf32>
    %4549 = stablehlo.multiply %4548, %4538 : tensor<1x197x4096xf32>
    %4550 = stablehlo.add %4549, %cst_13 : tensor<1x197x4096xf32>
    %4551 = stablehlo.multiply %cst_14, %4538 : tensor<1x197x4096xf32>
    %4552 = stablehlo.add %4551, %cst_15 : tensor<1x197x4096xf32>
    %4553 = stablehlo.multiply %4552, %4538 : tensor<1x197x4096xf32>
    %4554 = stablehlo.add %4553, %cst_16 : tensor<1x197x4096xf32>
    %4555 = stablehlo.multiply %4554, %4538 : tensor<1x197x4096xf32>
    %4556 = stablehlo.add %4555, %cst_17 : tensor<1x197x4096xf32>
    %4557 = stablehlo.multiply %4556, %4538 : tensor<1x197x4096xf32>
    %4558 = stablehlo.add %4557, %cst_18 : tensor<1x197x4096xf32>
    %4559 = stablehlo.multiply %4537, %4550 : tensor<1x197x4096xf32>
    %4560 = stablehlo.divide %4559, %4558 : tensor<1x197x4096xf32>
    %4561 = stablehlo.clamp %cst_19, %4560, %cst_20 : tensor<1x197x4096xf32>
    %4562 = stablehlo.convert %4561 : (tensor<1x197x4096xf32>) -> tensor<1x197x4096xbf16>
    %4563 = stablehlo.add %4562, %cst_2 : tensor<1x197x4096xbf16>
    %4564 = stablehlo.multiply %4563, %4534 : tensor<1x197x4096xbf16>
    %4565 = stablehlo.reshape %4564 : (tensor<1x197x4096xbf16>) -> tensor<197x4096xbf16>
    %4566 = stablehlo.convert %4565 : (tensor<197x4096xbf16>) -> tensor<197x4096xf32>
    %4567 = stablehlo.dot_general %4566, %arg424, contracting_dims = [1] x [0] : (tensor<197x4096xf32>, tensor<4096x1024xf32>) -> tensor<197x1024xf32>
    %4568 = stablehlo.broadcast_in_dim %4567, dims = [0, 1] : (tensor<197x1024xf32>) -> tensor<197x1024xf32>
    %4569 = stablehlo.multiply %4568, %60 : tensor<197x1024xf32>
    %4570 = stablehlo.broadcast_in_dim %4569, dims = [0, 1] : (tensor<197x1024xf32>) -> tensor<197x1024xf32>
    %4571 = stablehlo.broadcast_in_dim %arg425, dims = [1] : (tensor<1024xf32>) -> tensor<197x1024xf32>
    %4572 = stablehlo.add %4570, %4571 : tensor<197x1024xf32>
    %4573 = stablehlo.convert %4572 : (tensor<197x1024xf32>) -> tensor<197x1024xbf16>
    %4574 = stablehlo.reshape %4573 : (tensor<197x1024xbf16>) -> tensor<1x197x1024xbf16>
    %4575 = stablehlo.broadcast_in_dim %arg140, dims = [2] : (tensor<1024xbf16>) -> tensor<1x197x1024xbf16>
    %4576 = stablehlo.broadcast_in_dim %4574, dims = [0, 1, 2] : (tensor<1x197x1024xbf16>) -> tensor<1x197x1024xbf16>
    %4577 = stablehlo.multiply %4575, %4576 : tensor<1x197x1024xbf16>
    %4578 = stablehlo.add %4577, %4486 : tensor<1x197x1024xbf16>
    %4579 = stablehlo.convert %4578 : (tensor<1x197x1024xbf16>) -> tensor<1x197x1024xf32>
    %4580 = stablehlo.convert %4579 : (tensor<1x197x1024xf32>) -> tensor<1x197x1024xf64>
    %4581 = stablehlo.reduce(%4580 init: %cst) applies stablehlo.add across dimensions = [2] : (tensor<1x197x1024xf64>, tensor<f64>) -> tensor<1x197xf64>
    %4582 = stablehlo.reshape %4581 : (tensor<1x197xf64>) -> tensor<1x197x1xf64>
    %4583 = stablehlo.broadcast_in_dim %4582, dims = [0, 1, 2] : (tensor<1x197x1xf64>) -> tensor<1x197x1xf64>
    %4584 = stablehlo.divide %4583, %15 : tensor<1x197x1xf64>
    %4585 = stablehlo.broadcast_in_dim %4580, dims = [0, 1, 2] : (tensor<1x197x1024xf64>) -> tensor<1x197x1024xf64>
    %4586 = stablehlo.broadcast_in_dim %4584, dims = [0, 1, 2] : (tensor<1x197x1xf64>) -> tensor<1x197x1024xf64>
    %4587 = stablehlo.subtract %4585, %4586 : tensor<1x197x1024xf64>
    %4588 = stablehlo.multiply %4587, %4587 : tensor<1x197x1024xf64>
    %4589 = stablehlo.reduce(%4588 init: %cst) applies stablehlo.add across dimensions = [2] : (tensor<1x197x1024xf64>, tensor<f64>) -> tensor<1x197xf64>
    %4590 = stablehlo.reshape %4589 : (tensor<1x197xf64>) -> tensor<1x197x1xf64>
    %4591 = stablehlo.broadcast_in_dim %4590, dims = [0, 1, 2] : (tensor<1x197x1xf64>) -> tensor<1x197x1xf64>
    %4592 = stablehlo.divide %4591, %15 : tensor<1x197x1xf64>
    %4593 = stablehlo.convert %4592 : (tensor<1x197x1xf64>) -> tensor<1x197x1xf32>
    %4594 = stablehlo.reduce(%4579 init: %cst_0) applies stablehlo.add across dimensions = [2] : (tensor<1x197x1024xf32>, tensor<f32>) -> tensor<1x197xf32>
    %4595 = stablehlo.reshape %4594 : (tensor<1x197xf32>) -> tensor<1x197x1xf32>
    %4596 = stablehlo.broadcast_in_dim %4595, dims = [0, 1, 2] : (tensor<1x197x1xf32>) -> tensor<1x197x1xf32>
    %4597 = stablehlo.divide %4596, %31 : tensor<1x197x1xf32>
    %4598 = stablehlo.broadcast_in_dim %4593, dims = [0, 1, 2] : (tensor<1x197x1xf32>) -> tensor<1x197x1xf32>
    %4599 = stablehlo.add %4598, %36 : tensor<1x197x1xf32>
    %4600 = stablehlo.rsqrt %4599 : tensor<1x197x1xf32>
    %4601 = stablehlo.broadcast_in_dim %4579, dims = [0, 1, 2] : (tensor<1x197x1024xf32>) -> tensor<1x197x1024xf32>
    %4602 = stablehlo.broadcast_in_dim %4597, dims = [0, 1, 2] : (tensor<1x197x1xf32>) -> tensor<1x197x1024xf32>
    %4603 = stablehlo.subtract %4601, %4602 : tensor<1x197x1024xf32>
    %4604 = stablehlo.broadcast_in_dim %4603, dims = [0, 1, 2] : (tensor<1x197x1024xf32>) -> tensor<1x197x1024xf32>
    %4605 = stablehlo.broadcast_in_dim %4600, dims = [0, 1, 2] : (tensor<1x197x1xf32>) -> tensor<1x197x1024xf32>
    %4606 = stablehlo.multiply %4604, %4605 : tensor<1x197x1024xf32>
    %4607 = stablehlo.convert %arg141 : (tensor<1024xbf16>) -> tensor<1024xf32>
    %4608 = stablehlo.broadcast_in_dim %4606, dims = [0, 1, 2] : (tensor<1x197x1024xf32>) -> tensor<1x197x1024xf32>
    %4609 = stablehlo.broadcast_in_dim %4607, dims = [2] : (tensor<1024xf32>) -> tensor<1x197x1024xf32>
    %4610 = stablehlo.multiply %4608, %4609 : tensor<1x197x1024xf32>
    %4611 = stablehlo.convert %arg142 : (tensor<1024xbf16>) -> tensor<1024xf32>
    %4612 = stablehlo.broadcast_in_dim %4610, dims = [0, 1, 2] : (tensor<1x197x1024xf32>) -> tensor<1x197x1024xf32>
    %4613 = stablehlo.broadcast_in_dim %4611, dims = [2] : (tensor<1024xf32>) -> tensor<1x197x1024xf32>
    %4614 = stablehlo.add %4612, %4613 : tensor<1x197x1024xf32>
    %4615 = stablehlo.convert %4614 : (tensor<1x197x1024xf32>) -> tensor<1x197x1024xbf16>
    %4616 = stablehlo.reshape %4615 : (tensor<1x197x1024xbf16>) -> tensor<197x1024xbf16>
    %4617 = stablehlo.convert %4616 : (tensor<197x1024xbf16>) -> tensor<197x1024xf32>
    %4618 = stablehlo.dot_general %4617, %arg426, contracting_dims = [1] x [0] : (tensor<197x1024xf32>, tensor<1024x1024xf32>) -> tensor<197x1024xf32>
    %4619 = stablehlo.broadcast_in_dim %4618, dims = [0, 1] : (tensor<197x1024xf32>) -> tensor<197x1024xf32>
    %4620 = stablehlo.multiply %4619, %60 : tensor<197x1024xf32>
    %4621 = stablehlo.broadcast_in_dim %4620, dims = [0, 1] : (tensor<197x1024xf32>) -> tensor<197x1024xf32>
    %4622 = stablehlo.broadcast_in_dim %arg427, dims = [1] : (tensor<1024xf32>) -> tensor<197x1024xf32>
    %4623 = stablehlo.add %4621, %4622 : tensor<197x1024xf32>
    %4624 = stablehlo.convert %4623 : (tensor<197x1024xf32>) -> tensor<197x1024xbf16>
    %4625 = stablehlo.reshape %4624 : (tensor<197x1024xbf16>) -> tensor<1x197x1024xbf16>
    %4626 = stablehlo.dot_general %4616, %arg428, contracting_dims = [1] x [0] : (tensor<197x1024xbf16>, tensor<1024x1024xbf16>) -> tensor<197x1024xbf16>
    %4627 = stablehlo.reshape %4626 : (tensor<197x1024xbf16>) -> tensor<1x197x1024xbf16>
    %4628 = stablehlo.reshape %4627 : (tensor<1x197x1024xbf16>) -> tensor<1x197x16x64xbf16>
    %4629 = stablehlo.transpose %4628, dims = [0, 2, 1, 3] : (tensor<1x197x16x64xbf16>) -> tensor<1x16x197x64xbf16>
    %4630 = stablehlo.dot_general %4617, %arg429, contracting_dims = [1] x [0] : (tensor<197x1024xf32>, tensor<1024x1024xf32>) -> tensor<197x1024xf32>
    %4631 = stablehlo.broadcast_in_dim %4630, dims = [0, 1] : (tensor<197x1024xf32>) -> tensor<197x1024xf32>
    %4632 = stablehlo.multiply %4631, %60 : tensor<197x1024xf32>
    %4633 = stablehlo.broadcast_in_dim %4632, dims = [0, 1] : (tensor<197x1024xf32>) -> tensor<197x1024xf32>
    %4634 = stablehlo.broadcast_in_dim %arg430, dims = [1] : (tensor<1024xf32>) -> tensor<197x1024xf32>
    %4635 = stablehlo.add %4633, %4634 : tensor<197x1024xf32>
    %4636 = stablehlo.convert %4635 : (tensor<197x1024xf32>) -> tensor<197x1024xbf16>
    %4637 = stablehlo.reshape %4636 : (tensor<197x1024xbf16>) -> tensor<1x197x1024xbf16>
    %4638 = stablehlo.reshape %4637 : (tensor<1x197x1024xbf16>) -> tensor<1x197x16x64xbf16>
    %4639 = stablehlo.transpose %4638, dims = [0, 2, 1, 3] : (tensor<1x197x16x64xbf16>) -> tensor<1x16x197x64xbf16>
    %4640 = stablehlo.reshape %4625 : (tensor<1x197x1024xbf16>) -> tensor<1x197x16x64xbf16>
    %4641 = stablehlo.transpose %4640, dims = [0, 2, 1, 3] : (tensor<1x197x16x64xbf16>) -> tensor<1x16x197x64xbf16>
    %4642 = stablehlo.transpose %4629, dims = [0, 1, 3, 2] : (tensor<1x16x197x64xbf16>) -> tensor<1x16x64x197xbf16>
    %4643 = stablehlo.reshape %4641 : (tensor<1x16x197x64xbf16>) -> tensor<16x197x64xbf16>
    %4644 = stablehlo.reshape %4642 : (tensor<1x16x64x197xbf16>) -> tensor<16x64x197xbf16>
    %4645 = stablehlo.broadcast_in_dim %4644, dims = [0, 1, 2] : (tensor<16x64x197xbf16>) -> tensor<16x64x197xbf16>
    %4646 = stablehlo.dot_general %4643, %4645, batching_dims = [0] x [0], contracting_dims = [2] x [1] : (tensor<16x197x64xbf16>, tensor<16x64x197xbf16>) -> tensor<16x197x197xbf16>
    %4647 = stablehlo.reshape %4646 : (tensor<16x197x197xbf16>) -> tensor<1x16x197x197xbf16>
    %4648 = stablehlo.broadcast_in_dim %4647, dims = [0, 1, 2, 3] : (tensor<1x16x197x197xbf16>) -> tensor<1x16x197x197xbf16>
    %4649 = stablehlo.divide %4648, %92 : tensor<1x16x197x197xbf16>
    %4650 = stablehlo.add %4649, %arg431 : tensor<1x16x197x197xbf16>
    %4651 = stablehlo.convert %4650 : (tensor<1x16x197x197xbf16>) -> tensor<1x16x197x197xf32>
    %4652 = stablehlo.reduce(%4651 init: %cst_1) applies stablehlo.maximum across dimensions = [3] : (tensor<1x16x197x197xf32>, tensor<f32>) -> tensor<1x16x197xf32>
    %4653 = stablehlo.reshape %4652 : (tensor<1x16x197xf32>) -> tensor<1x16x197x1xf32>
    %4654 = stablehlo.broadcast_in_dim %4651, dims = [0, 1, 2, 3] : (tensor<1x16x197x197xf32>) -> tensor<1x16x197x197xf32>
    %4655 = stablehlo.broadcast_in_dim %4653, dims = [0, 1, 2, 3] : (tensor<1x16x197x1xf32>) -> tensor<1x16x197x197xf32>
    %4656 = stablehlo.subtract %4654, %4655 : tensor<1x16x197x197xf32>
    %4657 = stablehlo.exponential %4656 : tensor<1x16x197x197xf32>
    %4658 = stablehlo.reduce(%4657 init: %cst_0) applies stablehlo.add across dimensions = [3] : (tensor<1x16x197x197xf32>, tensor<f32>) -> tensor<1x16x197xf32>
    %4659 = stablehlo.reshape %4658 : (tensor<1x16x197xf32>) -> tensor<1x16x197x1xf32>
    %4660 = stablehlo.broadcast_in_dim %4657, dims = [0, 1, 2, 3] : (tensor<1x16x197x197xf32>) -> tensor<1x16x197x197xf32>
    %4661 = stablehlo.broadcast_in_dim %4659, dims = [0, 1, 2, 3] : (tensor<1x16x197x1xf32>) -> tensor<1x16x197x197xf32>
    %4662 = stablehlo.divide %4660, %4661 : tensor<1x16x197x197xf32>
    %4663 = stablehlo.convert %4662 : (tensor<1x16x197x197xf32>) -> tensor<1x16x197x197xbf16>
    %4664 = stablehlo.reshape %4663 : (tensor<1x16x197x197xbf16>) -> tensor<16x197x197xbf16>
    %4665 = stablehlo.reshape %4639 : (tensor<1x16x197x64xbf16>) -> tensor<16x197x64xbf16>
    %4666 = stablehlo.broadcast_in_dim %4665, dims = [0, 1, 2] : (tensor<16x197x64xbf16>) -> tensor<16x197x64xbf16>
    %4667 = stablehlo.dot_general %4664, %4666, batching_dims = [0] x [0], contracting_dims = [2] x [1] : (tensor<16x197x197xbf16>, tensor<16x197x64xbf16>) -> tensor<16x197x64xbf16>
    %4668 = stablehlo.reshape %4667 : (tensor<16x197x64xbf16>) -> tensor<1x16x197x64xbf16>
    %4669 = stablehlo.transpose %4668, dims = [0, 2, 1, 3] : (tensor<1x16x197x64xbf16>) -> tensor<1x197x16x64xbf16>
    %4670 = stablehlo.reshape %4669 : (tensor<1x197x16x64xbf16>) -> tensor<1x197x1024xbf16>
    %4671 = stablehlo.reshape %4670 : (tensor<1x197x1024xbf16>) -> tensor<197x1024xbf16>
    %4672 = stablehlo.convert %4671 : (tensor<197x1024xbf16>) -> tensor<197x1024xf32>
    %4673 = stablehlo.dot_general %4672, %arg432, contracting_dims = [1] x [0] : (tensor<197x1024xf32>, tensor<1024x1024xf32>) -> tensor<197x1024xf32>
    %4674 = stablehlo.broadcast_in_dim %4673, dims = [0, 1] : (tensor<197x1024xf32>) -> tensor<197x1024xf32>
    %4675 = stablehlo.multiply %4674, %60 : tensor<197x1024xf32>
    %4676 = stablehlo.broadcast_in_dim %4675, dims = [0, 1] : (tensor<197x1024xf32>) -> tensor<197x1024xf32>
    %4677 = stablehlo.broadcast_in_dim %arg433, dims = [1] : (tensor<1024xf32>) -> tensor<197x1024xf32>
    %4678 = stablehlo.add %4676, %4677 : tensor<197x1024xf32>
    %4679 = stablehlo.convert %4678 : (tensor<197x1024xf32>) -> tensor<197x1024xbf16>
    %4680 = stablehlo.reshape %4679 : (tensor<197x1024xbf16>) -> tensor<1x197x1024xbf16>
    %4681 = stablehlo.broadcast_in_dim %arg143, dims = [2] : (tensor<1024xbf16>) -> tensor<1x197x1024xbf16>
    %4682 = stablehlo.broadcast_in_dim %4680, dims = [0, 1, 2] : (tensor<1x197x1024xbf16>) -> tensor<1x197x1024xbf16>
    %4683 = stablehlo.multiply %4681, %4682 : tensor<1x197x1024xbf16>
    %4684 = stablehlo.add %4683, %4578 : tensor<1x197x1024xbf16>
    %4685 = stablehlo.convert %4684 : (tensor<1x197x1024xbf16>) -> tensor<1x197x1024xf32>
    %4686 = stablehlo.convert %4685 : (tensor<1x197x1024xf32>) -> tensor<1x197x1024xf64>
    %4687 = stablehlo.reduce(%4686 init: %cst) applies stablehlo.add across dimensions = [2] : (tensor<1x197x1024xf64>, tensor<f64>) -> tensor<1x197xf64>
    %4688 = stablehlo.reshape %4687 : (tensor<1x197xf64>) -> tensor<1x197x1xf64>
    %4689 = stablehlo.broadcast_in_dim %4688, dims = [0, 1, 2] : (tensor<1x197x1xf64>) -> tensor<1x197x1xf64>
    %4690 = stablehlo.divide %4689, %15 : tensor<1x197x1xf64>
    %4691 = stablehlo.broadcast_in_dim %4686, dims = [0, 1, 2] : (tensor<1x197x1024xf64>) -> tensor<1x197x1024xf64>
    %4692 = stablehlo.broadcast_in_dim %4690, dims = [0, 1, 2] : (tensor<1x197x1xf64>) -> tensor<1x197x1024xf64>
    %4693 = stablehlo.subtract %4691, %4692 : tensor<1x197x1024xf64>
    %4694 = stablehlo.multiply %4693, %4693 : tensor<1x197x1024xf64>
    %4695 = stablehlo.reduce(%4694 init: %cst) applies stablehlo.add across dimensions = [2] : (tensor<1x197x1024xf64>, tensor<f64>) -> tensor<1x197xf64>
    %4696 = stablehlo.reshape %4695 : (tensor<1x197xf64>) -> tensor<1x197x1xf64>
    %4697 = stablehlo.broadcast_in_dim %4696, dims = [0, 1, 2] : (tensor<1x197x1xf64>) -> tensor<1x197x1xf64>
    %4698 = stablehlo.divide %4697, %15 : tensor<1x197x1xf64>
    %4699 = stablehlo.convert %4698 : (tensor<1x197x1xf64>) -> tensor<1x197x1xf32>
    %4700 = stablehlo.reduce(%4685 init: %cst_0) applies stablehlo.add across dimensions = [2] : (tensor<1x197x1024xf32>, tensor<f32>) -> tensor<1x197xf32>
    %4701 = stablehlo.reshape %4700 : (tensor<1x197xf32>) -> tensor<1x197x1xf32>
    %4702 = stablehlo.broadcast_in_dim %4701, dims = [0, 1, 2] : (tensor<1x197x1xf32>) -> tensor<1x197x1xf32>
    %4703 = stablehlo.divide %4702, %31 : tensor<1x197x1xf32>
    %4704 = stablehlo.broadcast_in_dim %4699, dims = [0, 1, 2] : (tensor<1x197x1xf32>) -> tensor<1x197x1xf32>
    %4705 = stablehlo.add %4704, %36 : tensor<1x197x1xf32>
    %4706 = stablehlo.rsqrt %4705 : tensor<1x197x1xf32>
    %4707 = stablehlo.broadcast_in_dim %4685, dims = [0, 1, 2] : (tensor<1x197x1024xf32>) -> tensor<1x197x1024xf32>
    %4708 = stablehlo.broadcast_in_dim %4703, dims = [0, 1, 2] : (tensor<1x197x1xf32>) -> tensor<1x197x1024xf32>
    %4709 = stablehlo.subtract %4707, %4708 : tensor<1x197x1024xf32>
    %4710 = stablehlo.broadcast_in_dim %4709, dims = [0, 1, 2] : (tensor<1x197x1024xf32>) -> tensor<1x197x1024xf32>
    %4711 = stablehlo.broadcast_in_dim %4706, dims = [0, 1, 2] : (tensor<1x197x1xf32>) -> tensor<1x197x1024xf32>
    %4712 = stablehlo.multiply %4710, %4711 : tensor<1x197x1024xf32>
    %4713 = stablehlo.convert %arg144 : (tensor<1024xbf16>) -> tensor<1024xf32>
    %4714 = stablehlo.broadcast_in_dim %4712, dims = [0, 1, 2] : (tensor<1x197x1024xf32>) -> tensor<1x197x1024xf32>
    %4715 = stablehlo.broadcast_in_dim %4713, dims = [2] : (tensor<1024xf32>) -> tensor<1x197x1024xf32>
    %4716 = stablehlo.multiply %4714, %4715 : tensor<1x197x1024xf32>
    %4717 = stablehlo.convert %arg145 : (tensor<1024xbf16>) -> tensor<1024xf32>
    %4718 = stablehlo.broadcast_in_dim %4716, dims = [0, 1, 2] : (tensor<1x197x1024xf32>) -> tensor<1x197x1024xf32>
    %4719 = stablehlo.broadcast_in_dim %4717, dims = [2] : (tensor<1024xf32>) -> tensor<1x197x1024xf32>
    %4720 = stablehlo.add %4718, %4719 : tensor<1x197x1024xf32>
    %4721 = stablehlo.convert %4720 : (tensor<1x197x1024xf32>) -> tensor<1x197x1024xbf16>
    %4722 = stablehlo.reshape %4721 : (tensor<1x197x1024xbf16>) -> tensor<197x1024xbf16>
    %4723 = stablehlo.convert %4722 : (tensor<197x1024xbf16>) -> tensor<197x1024xf32>
    %4724 = stablehlo.dot_general %4723, %arg434, contracting_dims = [1] x [0] : (tensor<197x1024xf32>, tensor<1024x4096xf32>) -> tensor<197x4096xf32>
    %4725 = stablehlo.broadcast_in_dim %4724, dims = [0, 1] : (tensor<197x4096xf32>) -> tensor<197x4096xf32>
    %4726 = stablehlo.multiply %4725, %170 : tensor<197x4096xf32>
    %4727 = stablehlo.broadcast_in_dim %4726, dims = [0, 1] : (tensor<197x4096xf32>) -> tensor<197x4096xf32>
    %4728 = stablehlo.broadcast_in_dim %arg435, dims = [1] : (tensor<4096xf32>) -> tensor<197x4096xf32>
    %4729 = stablehlo.add %4727, %4728 : tensor<197x4096xf32>
    %4730 = stablehlo.convert %4729 : (tensor<197x4096xf32>) -> tensor<197x4096xbf16>
    %4731 = stablehlo.reshape %4730 : (tensor<197x4096xbf16>) -> tensor<1x197x4096xbf16>
    %4732 = stablehlo.multiply %4731, %cst_4 : tensor<1x197x4096xbf16>
    %4733 = stablehlo.multiply %4731, %178 : tensor<1x197x4096xbf16>
    %4734 = stablehlo.convert %4733 : (tensor<1x197x4096xbf16>) -> tensor<1x197x4096xf32>
    %4735 = stablehlo.clamp %cst_5, %4734, %cst_6 : tensor<1x197x4096xf32>
    %4736 = stablehlo.multiply %4735, %4735 : tensor<1x197x4096xf32>
    %4737 = stablehlo.multiply %cst_7, %4736 : tensor<1x197x4096xf32>
    %4738 = stablehlo.add %4737, %cst_8 : tensor<1x197x4096xf32>
    %4739 = stablehlo.multiply %4738, %4736 : tensor<1x197x4096xf32>
    %4740 = stablehlo.add %4739, %cst_9 : tensor<1x197x4096xf32>
    %4741 = stablehlo.multiply %4740, %4736 : tensor<1x197x4096xf32>
    %4742 = stablehlo.add %4741, %cst_10 : tensor<1x197x4096xf32>
    %4743 = stablehlo.multiply %4742, %4736 : tensor<1x197x4096xf32>
    %4744 = stablehlo.add %4743, %cst_11 : tensor<1x197x4096xf32>
    %4745 = stablehlo.multiply %4744, %4736 : tensor<1x197x4096xf32>
    %4746 = stablehlo.add %4745, %cst_12 : tensor<1x197x4096xf32>
    %4747 = stablehlo.multiply %4746, %4736 : tensor<1x197x4096xf32>
    %4748 = stablehlo.add %4747, %cst_13 : tensor<1x197x4096xf32>
    %4749 = stablehlo.multiply %cst_14, %4736 : tensor<1x197x4096xf32>
    %4750 = stablehlo.add %4749, %cst_15 : tensor<1x197x4096xf32>
    %4751 = stablehlo.multiply %4750, %4736 : tensor<1x197x4096xf32>
    %4752 = stablehlo.add %4751, %cst_16 : tensor<1x197x4096xf32>
    %4753 = stablehlo.multiply %4752, %4736 : tensor<1x197x4096xf32>
    %4754 = stablehlo.add %4753, %cst_17 : tensor<1x197x4096xf32>
    %4755 = stablehlo.multiply %4754, %4736 : tensor<1x197x4096xf32>
    %4756 = stablehlo.add %4755, %cst_18 : tensor<1x197x4096xf32>
    %4757 = stablehlo.multiply %4735, %4748 : tensor<1x197x4096xf32>
    %4758 = stablehlo.divide %4757, %4756 : tensor<1x197x4096xf32>
    %4759 = stablehlo.clamp %cst_19, %4758, %cst_20 : tensor<1x197x4096xf32>
    %4760 = stablehlo.convert %4759 : (tensor<1x197x4096xf32>) -> tensor<1x197x4096xbf16>
    %4761 = stablehlo.add %4760, %cst_2 : tensor<1x197x4096xbf16>
    %4762 = stablehlo.multiply %4761, %4732 : tensor<1x197x4096xbf16>
    %4763 = stablehlo.reshape %4762 : (tensor<1x197x4096xbf16>) -> tensor<197x4096xbf16>
    %4764 = stablehlo.convert %4763 : (tensor<197x4096xbf16>) -> tensor<197x4096xf32>
    %4765 = stablehlo.dot_general %4764, %arg436, contracting_dims = [1] x [0] : (tensor<197x4096xf32>, tensor<4096x1024xf32>) -> tensor<197x1024xf32>
    %4766 = stablehlo.broadcast_in_dim %4765, dims = [0, 1] : (tensor<197x1024xf32>) -> tensor<197x1024xf32>
    %4767 = stablehlo.multiply %4766, %60 : tensor<197x1024xf32>
    %4768 = stablehlo.broadcast_in_dim %4767, dims = [0, 1] : (tensor<197x1024xf32>) -> tensor<197x1024xf32>
    %4769 = stablehlo.broadcast_in_dim %arg437, dims = [1] : (tensor<1024xf32>) -> tensor<197x1024xf32>
    %4770 = stablehlo.add %4768, %4769 : tensor<197x1024xf32>
    %4771 = stablehlo.convert %4770 : (tensor<197x1024xf32>) -> tensor<197x1024xbf16>
    %4772 = stablehlo.reshape %4771 : (tensor<197x1024xbf16>) -> tensor<1x197x1024xbf16>
    %4773 = stablehlo.broadcast_in_dim %arg146, dims = [2] : (tensor<1024xbf16>) -> tensor<1x197x1024xbf16>
    %4774 = stablehlo.broadcast_in_dim %4772, dims = [0, 1, 2] : (tensor<1x197x1024xbf16>) -> tensor<1x197x1024xbf16>
    %4775 = stablehlo.multiply %4773, %4774 : tensor<1x197x1024xbf16>
    %4776 = stablehlo.add %4775, %4684 : tensor<1x197x1024xbf16>
    %4777 = stablehlo.slice %4776 [0:1, 1:197, 0:1024] : (tensor<1x197x1024xbf16>) -> tensor<1x196x1024xbf16>
    %4778 = stablehlo.reduce(%4777 init: %cst_21) applies stablehlo.add across dimensions = [1] : (tensor<1x196x1024xbf16>, tensor<bf16>) -> tensor<1x1024xbf16>
    %4779 = stablehlo.convert %cst_26 : (tensor<1xi64>) -> tensor<1xbf16>
    %4780 = stablehlo.reshape %4779 : (tensor<1xbf16>) -> tensor<bf16>
    %4781 = stablehlo.broadcast_in_dim %4778, dims = [0, 1] : (tensor<1x1024xbf16>) -> tensor<1x1024xbf16>
    %4782 = stablehlo.broadcast_in_dim %4780, dims = [] : (tensor<bf16>) -> tensor<1x1024xbf16>
    %4783 = stablehlo.divide %4781, %4782 : tensor<1x1024xbf16>
    %4784 = stablehlo.convert %4783 : (tensor<1x1024xbf16>) -> tensor<1x1024xf32>
    %4785 = stablehlo.convert %4784 : (tensor<1x1024xf32>) -> tensor<1x1024xf64>
    %4786 = stablehlo.reduce(%4785 init: %cst) applies stablehlo.add across dimensions = [1] : (tensor<1x1024xf64>, tensor<f64>) -> tensor<1xf64>
    %4787 = stablehlo.reshape %4786 : (tensor<1xf64>) -> tensor<1x1xf64>
    %4788 = stablehlo.broadcast_in_dim %4787, dims = [0, 1] : (tensor<1x1xf64>) -> tensor<1x1xf64>
    %4789 = stablehlo.broadcast_in_dim %13, dims = [] : (tensor<f64>) -> tensor<1x1xf64>
    %4790 = stablehlo.divide %4788, %4789 : tensor<1x1xf64>
    %4791 = stablehlo.broadcast_in_dim %4785, dims = [0, 1] : (tensor<1x1024xf64>) -> tensor<1x1024xf64>
    %4792 = stablehlo.broadcast_in_dim %4790, dims = [0, 1] : (tensor<1x1xf64>) -> tensor<1x1024xf64>
    %4793 = stablehlo.subtract %4791, %4792 : tensor<1x1024xf64>
    %4794 = stablehlo.multiply %4793, %4793 : tensor<1x1024xf64>
    %4795 = stablehlo.reduce(%4794 init: %cst) applies stablehlo.add across dimensions = [1] : (tensor<1x1024xf64>, tensor<f64>) -> tensor<1xf64>
    %4796 = stablehlo.reshape %4795 : (tensor<1xf64>) -> tensor<1x1xf64>
    %4797 = stablehlo.broadcast_in_dim %4796, dims = [0, 1] : (tensor<1x1xf64>) -> tensor<1x1xf64>
    %4798 = stablehlo.divide %4797, %4789 : tensor<1x1xf64>
    %4799 = stablehlo.convert %4798 : (tensor<1x1xf64>) -> tensor<1x1xf32>
    %4800 = stablehlo.reduce(%4784 init: %cst_0) applies stablehlo.add across dimensions = [1] : (tensor<1x1024xf32>, tensor<f32>) -> tensor<1xf32>
    %4801 = stablehlo.reshape %4800 : (tensor<1xf32>) -> tensor<1x1xf32>
    %4802 = stablehlo.broadcast_in_dim %4801, dims = [0, 1] : (tensor<1x1xf32>) -> tensor<1x1xf32>
    %4803 = stablehlo.broadcast_in_dim %29, dims = [] : (tensor<f32>) -> tensor<1x1xf32>
    %4804 = stablehlo.divide %4802, %4803 : tensor<1x1xf32>
    %4805 = stablehlo.broadcast_in_dim %4799, dims = [0, 1] : (tensor<1x1xf32>) -> tensor<1x1xf32>
    %4806 = stablehlo.broadcast_in_dim %34, dims = [] : (tensor<f32>) -> tensor<1x1xf32>
    %4807 = stablehlo.add %4805, %4806 : tensor<1x1xf32>
    %4808 = stablehlo.rsqrt %4807 : tensor<1x1xf32>
    %4809 = stablehlo.broadcast_in_dim %4784, dims = [0, 1] : (tensor<1x1024xf32>) -> tensor<1x1024xf32>
    %4810 = stablehlo.broadcast_in_dim %4804, dims = [0, 1] : (tensor<1x1xf32>) -> tensor<1x1024xf32>
    %4811 = stablehlo.subtract %4809, %4810 : tensor<1x1024xf32>
    %4812 = stablehlo.broadcast_in_dim %4811, dims = [0, 1] : (tensor<1x1024xf32>) -> tensor<1x1024xf32>
    %4813 = stablehlo.broadcast_in_dim %4808, dims = [0, 1] : (tensor<1x1xf32>) -> tensor<1x1024xf32>
    %4814 = stablehlo.multiply %4812, %4813 : tensor<1x1024xf32>
    %4815 = stablehlo.convert %arg147 : (tensor<1024xbf16>) -> tensor<1024xf32>
    %4816 = stablehlo.broadcast_in_dim %4814, dims = [0, 1] : (tensor<1x1024xf32>) -> tensor<1x1024xf32>
    %4817 = stablehlo.broadcast_in_dim %4815, dims = [1] : (tensor<1024xf32>) -> tensor<1x1024xf32>
    %4818 = stablehlo.multiply %4816, %4817 : tensor<1x1024xf32>
    %4819 = stablehlo.convert %arg148 : (tensor<1024xbf16>) -> tensor<1024xf32>
    %4820 = stablehlo.broadcast_in_dim %4818, dims = [0, 1] : (tensor<1x1024xf32>) -> tensor<1x1024xf32>
    %4821 = stablehlo.broadcast_in_dim %4819, dims = [1] : (tensor<1024xf32>) -> tensor<1x1024xf32>
    %4822 = stablehlo.add %4820, %4821 : tensor<1x1024xf32>
    %4823 = stablehlo.convert %4822 : (tensor<1x1024xf32>) -> tensor<1x1024xbf16>
    %4824 = stablehlo.convert %4823 : (tensor<1x1024xbf16>) -> tensor<1x1024xf32>
    %4825 = stablehlo.dot_general %4824, %arg438, contracting_dims = [1] x [0] : (tensor<1x1024xf32>, tensor<1024x1000xf32>) -> tensor<1x1000xf32>
    %4826 = stablehlo.broadcast_in_dim %4825, dims = [0, 1] : (tensor<1x1000xf32>) -> tensor<1x1000xf32>
    %4827 = stablehlo.broadcast_in_dim %58, dims = [] : (tensor<f32>) -> tensor<1x1000xf32>
    %4828 = stablehlo.multiply %4826, %4827 : tensor<1x1000xf32>
    %4829 = stablehlo.broadcast_in_dim %4828, dims = [0, 1] : (tensor<1x1000xf32>) -> tensor<1x1000xf32>
    %4830 = stablehlo.broadcast_in_dim %arg439, dims = [1] : (tensor<1000xf32>) -> tensor<1x1000xf32>
    %4831 = stablehlo.add %4829, %4830 : tensor<1x1000xf32>
    %4832 = stablehlo.convert %4831 : (tensor<1x1000xf32>) -> tensor<1x1000xbf16>
    return %4832 : tensor<1x1000xbf16>
  }
}
