module {
  func.func @main(%arg0: tensor<1x2048xi64>, %arg1: tensor<1x2048xi64>, %arg2: tensor<262x768xbf16>, %arg3: tensor<768xbf16>, %arg4: tensor<768xbf16>, %arg5: tensor<1280xbf16>, %arg6: tensor<1280xbf16>, %arg7: tensor<1280xbf16>, %arg8: tensor<1280xbf16>, %arg9: tensor<1280xbf16>, %arg10: tensor<1280xbf16>, %arg11: tensor<1280xbf16>, %arg12: tensor<1280xbf16>, %arg13: tensor<1280xbf16>, %arg14: tensor<1280xbf16>, %arg15: tensor<1280xbf16>, %arg16: tensor<1280xbf16>, %arg17: tensor<1280xbf16>, %arg18: tensor<1280xbf16>, %arg19: tensor<1280xbf16>, %arg20: tensor<1280xbf16>, %arg21: tensor<1280xbf16>, %arg22: tensor<1280xbf16>, %arg23: tensor<1280xbf16>, %arg24: tensor<1280xbf16>, %arg25: tensor<1280xbf16>, %arg26: tensor<1280xbf16>, %arg27: tensor<1280xbf16>, %arg28: tensor<1280xbf16>, %arg29: tensor<1280xbf16>, %arg30: tensor<1280xbf16>, %arg31: tensor<1280xbf16>, %arg32: tensor<1280xbf16>, %arg33: tensor<1280xbf16>, %arg34: tensor<1280xbf16>, %arg35: tensor<1280xbf16>, %arg36: tensor<1280xbf16>, %arg37: tensor<1280xbf16>, %arg38: tensor<1280xbf16>, %arg39: tensor<1280xbf16>, %arg40: tensor<1280xbf16>, %arg41: tensor<1280xbf16>, %arg42: tensor<1280xbf16>, %arg43: tensor<1280xbf16>, %arg44: tensor<1280xbf16>, %arg45: tensor<1280xbf16>, %arg46: tensor<1280xbf16>, %arg47: tensor<1280xbf16>, %arg48: tensor<1280xbf16>, %arg49: tensor<1280xbf16>, %arg50: tensor<1280xbf16>, %arg51: tensor<1280xbf16>, %arg52: tensor<1280xbf16>, %arg53: tensor<1280xbf16>, %arg54: tensor<1280xbf16>, %arg55: tensor<1280xbf16>, %arg56: tensor<1280xbf16>, %arg57: tensor<1280xbf16>, %arg58: tensor<1280xbf16>, %arg59: tensor<1280xbf16>, %arg60: tensor<1280xbf16>, %arg61: tensor<1280xbf16>, %arg62: tensor<1280xbf16>, %arg63: tensor<1280xbf16>, %arg64: tensor<1280xbf16>, %arg65: tensor<1280xbf16>, %arg66: tensor<1280xbf16>, %arg67: tensor<1280xbf16>, %arg68: tensor<1280xbf16>, %arg69: tensor<1280xbf16>, %arg70: tensor<1280xbf16>, %arg71: tensor<1280xbf16>, %arg72: tensor<1280xbf16>, %arg73: tensor<1280xbf16>, %arg74: tensor<1280xbf16>, %arg75: tensor<1280xbf16>, %arg76: tensor<1280xbf16>, %arg77: tensor<1280xbf16>, %arg78: tensor<1280xbf16>, %arg79: tensor<1280xbf16>, %arg80: tensor<1280xbf16>, %arg81: tensor<1280xbf16>, %arg82: tensor<1280xbf16>, %arg83: tensor<1280xbf16>, %arg84: tensor<1280xbf16>, %arg85: tensor<1280xbf16>, %arg86: tensor<1280xbf16>, %arg87: tensor<1280xbf16>, %arg88: tensor<1280xbf16>, %arg89: tensor<1280xbf16>, %arg90: tensor<1280xbf16>, %arg91: tensor<1280xbf16>, %arg92: tensor<1280xbf16>, %arg93: tensor<1280xbf16>, %arg94: tensor<1280xbf16>, %arg95: tensor<1280xbf16>, %arg96: tensor<1280xbf16>, %arg97: tensor<1280xbf16>, %arg98: tensor<1280xbf16>, %arg99: tensor<1280xbf16>, %arg100: tensor<1280xbf16>, %arg101: tensor<1280xbf16>, %arg102: tensor<1280xbf16>, %arg103: tensor<1280xbf16>, %arg104: tensor<1280xbf16>, %arg105: tensor<1280xbf16>, %arg106: tensor<1280xbf16>, %arg107: tensor<1280xbf16>, %arg108: tensor<1280xbf16>, %arg109: tensor<1280xbf16>, %arg110: tensor<1280xbf16>, %arg111: tensor<1280xbf16>, %arg112: tensor<1280xbf16>, %arg113: tensor<768xbf16>, %arg114: tensor<768xbf16>, %arg115: tensor<262xbf16>, %arg116: tensor<2048x768xbf16>, %arg117: tensor<768x256xf32>, %arg118: tensor<256xf32>, %arg119: tensor<768x1280xf32>, %arg120: tensor<1280xf32>, %arg121: tensor<8x256x32xbf16>, %arg122: tensor<1280x1280xf32>, %arg123: tensor<1280xf32>, %arg124: tensor<1x256x1280xbf16>, %arg125: tensor<1280x1280xf32>, %arg126: tensor<1280xf32>, %arg127: tensor<1280x1280xf32>, %arg128: tensor<1280xf32>, %arg129: tensor<1280x256xf32>, %arg130: tensor<256xf32>, %arg131: tensor<1280x256xf32>, %arg132: tensor<256xf32>, %arg133: tensor<1280x1280xf32>, %arg134: tensor<1280xf32>, %arg135: tensor<1280x1280xf32>, %arg136: tensor<1280xf32>, %arg137: tensor<1280x1280xf32>, %arg138: tensor<1280xf32>, %arg139: tensor<1280x1280xf32>, %arg140: tensor<1280xf32>, %arg141: tensor<1280x256xf32>, %arg142: tensor<256xf32>, %arg143: tensor<1280x256xf32>, %arg144: tensor<256xf32>, %arg145: tensor<1280x1280xf32>, %arg146: tensor<1280xf32>, %arg147: tensor<1280x1280xf32>, %arg148: tensor<1280xf32>, %arg149: tensor<1280x1280xf32>, %arg150: tensor<1280xf32>, %arg151: tensor<1280x1280xf32>, %arg152: tensor<1280xf32>, %arg153: tensor<1280x256xf32>, %arg154: tensor<256xf32>, %arg155: tensor<1280x256xf32>, %arg156: tensor<256xf32>, %arg157: tensor<1280x1280xf32>, %arg158: tensor<1280xf32>, %arg159: tensor<1280x1280xf32>, %arg160: tensor<1280xf32>, %arg161: tensor<1280x1280xf32>, %arg162: tensor<1280xf32>, %arg163: tensor<1280x1280xf32>, %arg164: tensor<1280xf32>, %arg165: tensor<1280x256xf32>, %arg166: tensor<256xf32>, %arg167: tensor<1280x256xf32>, %arg168: tensor<256xf32>, %arg169: tensor<1280x1280xf32>, %arg170: tensor<1280xf32>, %arg171: tensor<1280x1280xf32>, %arg172: tensor<1280xf32>, %arg173: tensor<1280x1280xf32>, %arg174: tensor<1280xf32>, %arg175: tensor<1280x1280xf32>, %arg176: tensor<1280xf32>, %arg177: tensor<1280x256xf32>, %arg178: tensor<256xf32>, %arg179: tensor<1280x256xf32>, %arg180: tensor<256xf32>, %arg181: tensor<1280x1280xf32>, %arg182: tensor<1280xf32>, %arg183: tensor<1280x1280xf32>, %arg184: tensor<1280xf32>, %arg185: tensor<1280x1280xf32>, %arg186: tensor<1280xf32>, %arg187: tensor<1280x1280xf32>, %arg188: tensor<1280xf32>, %arg189: tensor<1280x256xf32>, %arg190: tensor<256xf32>, %arg191: tensor<1280x256xf32>, %arg192: tensor<256xf32>, %arg193: tensor<1280x1280xf32>, %arg194: tensor<1280xf32>, %arg195: tensor<1280x1280xf32>, %arg196: tensor<1280xf32>, %arg197: tensor<1280x1280xf32>, %arg198: tensor<1280xf32>, %arg199: tensor<1280x1280xf32>, %arg200: tensor<1280xf32>, %arg201: tensor<1280x256xf32>, %arg202: tensor<256xf32>, %arg203: tensor<1280x256xf32>, %arg204: tensor<256xf32>, %arg205: tensor<1280x1280xf32>, %arg206: tensor<1280xf32>, %arg207: tensor<1280x1280xf32>, %arg208: tensor<1280xf32>, %arg209: tensor<1280x1280xf32>, %arg210: tensor<1280xf32>, %arg211: tensor<1280x1280xf32>, %arg212: tensor<1280xf32>, %arg213: tensor<1280x256xf32>, %arg214: tensor<256xf32>, %arg215: tensor<1280x256xf32>, %arg216: tensor<256xf32>, %arg217: tensor<1280x1280xf32>, %arg218: tensor<1280xf32>, %arg219: tensor<1280x1280xf32>, %arg220: tensor<1280xf32>, %arg221: tensor<1280x1280xf32>, %arg222: tensor<1280xf32>, %arg223: tensor<1280x1280xf32>, %arg224: tensor<1280xf32>, %arg225: tensor<1280x256xf32>, %arg226: tensor<256xf32>, %arg227: tensor<1280x256xf32>, %arg228: tensor<256xf32>, %arg229: tensor<1280x1280xf32>, %arg230: tensor<1280xf32>, %arg231: tensor<1280x1280xf32>, %arg232: tensor<1280xf32>, %arg233: tensor<1280x1280xf32>, %arg234: tensor<1280xf32>, %arg235: tensor<1280x1280xf32>, %arg236: tensor<1280xf32>, %arg237: tensor<1280x256xf32>, %arg238: tensor<256xf32>, %arg239: tensor<1280x256xf32>, %arg240: tensor<256xf32>, %arg241: tensor<1280x1280xf32>, %arg242: tensor<1280xf32>, %arg243: tensor<1280x1280xf32>, %arg244: tensor<1280xf32>, %arg245: tensor<1280x1280xf32>, %arg246: tensor<1280xf32>, %arg247: tensor<1280x1280xf32>, %arg248: tensor<1280xf32>, %arg249: tensor<1280x256xf32>, %arg250: tensor<256xf32>, %arg251: tensor<1280x256xf32>, %arg252: tensor<256xf32>, %arg253: tensor<1280x1280xf32>, %arg254: tensor<1280xf32>, %arg255: tensor<1280x1280xf32>, %arg256: tensor<1280xf32>, %arg257: tensor<1280x1280xf32>, %arg258: tensor<1280xf32>, %arg259: tensor<1280x1280xf32>, %arg260: tensor<1280xf32>, %arg261: tensor<1280x256xf32>, %arg262: tensor<256xf32>, %arg263: tensor<1280x256xf32>, %arg264: tensor<256xf32>, %arg265: tensor<1280x1280xf32>, %arg266: tensor<1280xf32>, %arg267: tensor<1280x1280xf32>, %arg268: tensor<1280xf32>, %arg269: tensor<1280x1280xf32>, %arg270: tensor<1280xf32>, %arg271: tensor<1280x1280xf32>, %arg272: tensor<1280xf32>, %arg273: tensor<1280x256xf32>, %arg274: tensor<256xf32>, %arg275: tensor<1280x256xf32>, %arg276: tensor<256xf32>, %arg277: tensor<1280x1280xf32>, %arg278: tensor<1280xf32>, %arg279: tensor<1280x1280xf32>, %arg280: tensor<1280xf32>, %arg281: tensor<1280x1280xf32>, %arg282: tensor<1280xf32>, %arg283: tensor<1280x1280xf32>, %arg284: tensor<1280xf32>, %arg285: tensor<1280x256xf32>, %arg286: tensor<256xf32>, %arg287: tensor<1280x256xf32>, %arg288: tensor<256xf32>, %arg289: tensor<1280x1280xf32>, %arg290: tensor<1280xf32>, %arg291: tensor<1280x1280xf32>, %arg292: tensor<1280xf32>, %arg293: tensor<1280x1280xf32>, %arg294: tensor<1280xf32>, %arg295: tensor<1280x1280xf32>, %arg296: tensor<1280xf32>, %arg297: tensor<1280x256xf32>, %arg298: tensor<256xf32>, %arg299: tensor<1280x256xf32>, %arg300: tensor<256xf32>, %arg301: tensor<1280x1280xf32>, %arg302: tensor<1280xf32>, %arg303: tensor<1280x1280xf32>, %arg304: tensor<1280xf32>, %arg305: tensor<1280x1280xf32>, %arg306: tensor<1280xf32>, %arg307: tensor<1280x1280xf32>, %arg308: tensor<1280xf32>, %arg309: tensor<1280x256xf32>, %arg310: tensor<256xf32>, %arg311: tensor<1280x256xf32>, %arg312: tensor<256xf32>, %arg313: tensor<1280x1280xf32>, %arg314: tensor<1280xf32>, %arg315: tensor<1280x1280xf32>, %arg316: tensor<1280xf32>, %arg317: tensor<1280x1280xf32>, %arg318: tensor<1280xf32>, %arg319: tensor<1280x1280xf32>, %arg320: tensor<1280xf32>, %arg321: tensor<1280x256xf32>, %arg322: tensor<256xf32>, %arg323: tensor<1280x256xf32>, %arg324: tensor<256xf32>, %arg325: tensor<1280x1280xf32>, %arg326: tensor<1280xf32>, %arg327: tensor<1280x1280xf32>, %arg328: tensor<1280xf32>, %arg329: tensor<1280x1280xf32>, %arg330: tensor<1280xf32>, %arg331: tensor<1280x1280xf32>, %arg332: tensor<1280xf32>, %arg333: tensor<1280x256xf32>, %arg334: tensor<256xf32>, %arg335: tensor<1280x256xf32>, %arg336: tensor<256xf32>, %arg337: tensor<1280x1280xf32>, %arg338: tensor<1280xf32>, %arg339: tensor<1280x1280xf32>, %arg340: tensor<1280xf32>, %arg341: tensor<1280x1280xf32>, %arg342: tensor<1280xf32>, %arg343: tensor<1280x1280xf32>, %arg344: tensor<1280xf32>, %arg345: tensor<1280x256xf32>, %arg346: tensor<256xf32>, %arg347: tensor<1280x256xf32>, %arg348: tensor<256xf32>, %arg349: tensor<1280x1280xf32>, %arg350: tensor<1280xf32>, %arg351: tensor<1280x1280xf32>, %arg352: tensor<1280xf32>, %arg353: tensor<1280x1280xf32>, %arg354: tensor<1280xf32>, %arg355: tensor<1280x1280xf32>, %arg356: tensor<1280xf32>, %arg357: tensor<1280x256xf32>, %arg358: tensor<256xf32>, %arg359: tensor<1280x256xf32>, %arg360: tensor<256xf32>, %arg361: tensor<1280x1280xf32>, %arg362: tensor<1280xf32>, %arg363: tensor<1280x1280xf32>, %arg364: tensor<1280xf32>, %arg365: tensor<1280x1280xf32>, %arg366: tensor<1280xf32>, %arg367: tensor<1280x1280xf32>, %arg368: tensor<1280xf32>, %arg369: tensor<1280x256xf32>, %arg370: tensor<256xf32>, %arg371: tensor<1280x256xf32>, %arg372: tensor<256xf32>, %arg373: tensor<1280x1280xf32>, %arg374: tensor<1280xf32>, %arg375: tensor<1280x1280xf32>, %arg376: tensor<1280xf32>, %arg377: tensor<1280x1280xf32>, %arg378: tensor<1280xf32>, %arg379: tensor<1280x1280xf32>, %arg380: tensor<1280xf32>, %arg381: tensor<1280x256xf32>, %arg382: tensor<256xf32>, %arg383: tensor<1280x256xf32>, %arg384: tensor<256xf32>, %arg385: tensor<1280x1280xf32>, %arg386: tensor<1280xf32>, %arg387: tensor<1280x1280xf32>, %arg388: tensor<1280xf32>, %arg389: tensor<1280x1280xf32>, %arg390: tensor<1280xf32>, %arg391: tensor<1280x1280xf32>, %arg392: tensor<1280xf32>, %arg393: tensor<1280x256xf32>, %arg394: tensor<256xf32>, %arg395: tensor<1280x256xf32>, %arg396: tensor<256xf32>, %arg397: tensor<1280x1280xf32>, %arg398: tensor<1280xf32>, %arg399: tensor<1280x1280xf32>, %arg400: tensor<1280xf32>, %arg401: tensor<1280x1280xf32>, %arg402: tensor<1280xf32>, %arg403: tensor<1280x1280xf32>, %arg404: tensor<1280xf32>, %arg405: tensor<1280x256xf32>, %arg406: tensor<256xf32>, %arg407: tensor<1280x256xf32>, %arg408: tensor<256xf32>, %arg409: tensor<1280x1280xf32>, %arg410: tensor<1280xf32>, %arg411: tensor<1280x1280xf32>, %arg412: tensor<1280xf32>, %arg413: tensor<1280x1280xf32>, %arg414: tensor<1280xf32>, %arg415: tensor<1280x1280xf32>, %arg416: tensor<1280xf32>, %arg417: tensor<1280x256xf32>, %arg418: tensor<256xf32>, %arg419: tensor<1280x256xf32>, %arg420: tensor<256xf32>, %arg421: tensor<1280x1280xf32>, %arg422: tensor<1280xf32>, %arg423: tensor<1280x1280xf32>, %arg424: tensor<1280xf32>, %arg425: tensor<1280x1280xf32>, %arg426: tensor<1280xf32>, %arg427: tensor<1280x1280xf32>, %arg428: tensor<1280xf32>, %arg429: tensor<1280x256xf32>, %arg430: tensor<256xf32>, %arg431: tensor<1280x256xf32>, %arg432: tensor<256xf32>, %arg433: tensor<1280x1280xf32>, %arg434: tensor<1280xf32>, %arg435: tensor<1280x1280xf32>, %arg436: tensor<1280xf32>, %arg437: tensor<1280x1280xf32>, %arg438: tensor<1280xf32>, %arg439: tensor<1280x1280xf32>, %arg440: tensor<1280xf32>, %arg441: tensor<1280x256xf32>, %arg442: tensor<256xf32>, %arg443: tensor<1280x768xf32>, %arg444: tensor<768xf32>, %arg445: tensor<8x2048x32xbf16>, %arg446: tensor<768x768xf32>, %arg447: tensor<768xf32>, %arg448: tensor<768x768xf32>, %arg449: tensor<768xf32>, %arg450: tensor<768x768xf32>, %arg451: tensor<768xf32>, %arg452: tensor<768x262xbf16>) -> tensor<1x2048x262xbf16> {
    %cst = stablehlo.constant dense<0.000000e+00> : tensor<f64>
    %cst_0 = stablehlo.constant dense<0.000000e+00> : tensor<f32>
    %cst_1 = stablehlo.constant dense<0xFF800000> : tensor<f32>
    %cst_2 = stablehlo.constant dense<1.000000e+00> : tensor<1x256x1280xbf16>
    %cst_3 = stablehlo.constant dense<2.000000e+00> : tensor<1x256x1280xbf16>
    %cst_4 = stablehlo.constant dense<5.000000e-01> : tensor<1x256x1280xbf16>
    %cst_5 = stablehlo.constant dense<-4.000000e+00> : tensor<1x256x1280xf32>
    %cst_6 = stablehlo.constant dense<4.000000e+00> : tensor<1x256x1280xf32>
    %cst_7 = stablehlo.constant dense<-2.72614237E-10> : tensor<1x256x1280xf32>
    %cst_8 = stablehlo.constant dense<2.77068146E-8> : tensor<1x256x1280xf32>
    %cst_9 = stablehlo.constant dense<-2.10102394E-6> : tensor<1x256x1280xf32>
    %cst_10 = stablehlo.constant dense<-5.69250624E-5> : tensor<1x256x1280xf32>
    %cst_11 = stablehlo.constant dense<-7.34990637E-4> : tensor<1x256x1280xf32>
    %cst_12 = stablehlo.constant dense<-2.954600e-03> : tensor<1x256x1280xf32>
    %cst_13 = stablehlo.constant dense<-0.0160960332> : tensor<1x256x1280xf32>
    %cst_14 = stablehlo.constant dense<-1.45660715E-5> : tensor<1x256x1280xf32>
    %cst_15 = stablehlo.constant dense<-2.13374049E-4> : tensor<1x256x1280xf32>
    %cst_16 = stablehlo.constant dense<-0.00168282702> : tensor<1x256x1280xf32>
    %cst_17 = stablehlo.constant dense<-0.00737332925> : tensor<1x256x1280xf32>
    %cst_18 = stablehlo.constant dense<-0.0142647391> : tensor<1x256x1280xf32>
    %cst_19 = stablehlo.constant dense<-1.000000e+00> : tensor<1x256x1280xf32>
    %cst_20 = stablehlo.constant dense<1.000000e+00> : tensor<1x256x1280xf32>
    %cst_21 = stablehlo.constant dense<1.000000e+00> : tensor<1x2048x768xbf16>
    %cst_22 = stablehlo.constant dense<2.000000e+00> : tensor<1x2048x768xbf16>
    %cst_23 = stablehlo.constant dense<5.000000e-01> : tensor<1x2048x768xbf16>
    %cst_24 = stablehlo.constant dense<-4.000000e+00> : tensor<1x2048x768xf32>
    %cst_25 = stablehlo.constant dense<4.000000e+00> : tensor<1x2048x768xf32>
    %cst_26 = stablehlo.constant dense<-2.72614237E-10> : tensor<1x2048x768xf32>
    %cst_27 = stablehlo.constant dense<2.77068146E-8> : tensor<1x2048x768xf32>
    %cst_28 = stablehlo.constant dense<-2.10102394E-6> : tensor<1x2048x768xf32>
    %cst_29 = stablehlo.constant dense<-5.69250624E-5> : tensor<1x2048x768xf32>
    %cst_30 = stablehlo.constant dense<-7.34990637E-4> : tensor<1x2048x768xf32>
    %cst_31 = stablehlo.constant dense<-2.954600e-03> : tensor<1x2048x768xf32>
    %cst_32 = stablehlo.constant dense<-0.0160960332> : tensor<1x2048x768xf32>
    %cst_33 = stablehlo.constant dense<-1.45660715E-5> : tensor<1x2048x768xf32>
    %cst_34 = stablehlo.constant dense<-2.13374049E-4> : tensor<1x2048x768xf32>
    %cst_35 = stablehlo.constant dense<-0.00168282702> : tensor<1x2048x768xf32>
    %cst_36 = stablehlo.constant dense<-0.00737332925> : tensor<1x2048x768xf32>
    %cst_37 = stablehlo.constant dense<-0.0142647391> : tensor<1x2048x768xf32>
    %cst_38 = stablehlo.constant dense<-1.000000e+00> : tensor<1x2048x768xf32>
    %cst_39 = stablehlo.constant dense<1.000000e+00> : tensor<1x2048x768xf32>
    %cst_40 = arith.constant dense<1.000000e+00> : tensor<1xf64>
    %cst_41 = arith.constant dense<-3.3895313892515355E+38> : tensor<1xf64>
    %cst_42 = arith.constant dense<768> : tensor<1xi64>
    %cst_43 = arith.constant dense<1.000000e-05> : tensor<1xf64>
    %cst_44 = arith.constant dense<1> : tensor<1xi64>
    %cst_45 = arith.constant dense<5.6568542494923806> : tensor<1xf64>
    %cst_46 = arith.constant dense<1280> : tensor<1xi64>
    %0 = "stablehlo.gather"(%arg2, %arg0) <{dimension_numbers = #stablehlo.gather<offset_dims = [2], collapsed_slice_dims = [0], start_index_map = [0], index_vector_dim = 2>, indices_are_sorted = false, slice_sizes = array<i64: 1, 768>}> : (tensor<262x768xbf16>, tensor<1x2048xi64>) -> tensor<1x2048x768xbf16>
    %1 = stablehlo.convert %0 : tensor<1x2048x768xbf16>
    %2 = stablehlo.broadcast_in_dim %1, dims = [0, 1, 2] : (tensor<1x2048x768xbf16>) -> tensor<1x2048x768xbf16>
    %3 = stablehlo.broadcast_in_dim %arg116, dims = [1, 2] : (tensor<2048x768xbf16>) -> tensor<1x2048x768xbf16>
    %4 = stablehlo.add %2, %3 : tensor<1x2048x768xbf16>
    %5 = stablehlo.reshape %arg1 : (tensor<1x2048xi64>) -> tensor<1x1x2048xi64>
    %6 = stablehlo.reshape %5 : (tensor<1x1x2048xi64>) -> tensor<1x1x1x2048xi64>
    %7 = stablehlo.convert %6 : (tensor<1x1x1x2048xi64>) -> tensor<1x1x1x2048xbf16>
    %8 = stablehlo.convert %cst_40 : (tensor<1xf64>) -> tensor<1xbf16>
    %9 = stablehlo.reshape %8 : (tensor<1xbf16>) -> tensor<bf16>
    %10 = stablehlo.broadcast_in_dim %9, dims = [] : (tensor<bf16>) -> tensor<1x1x1x2048xbf16>
    %11 = stablehlo.broadcast_in_dim %7, dims = [0, 1, 2, 3] : (tensor<1x1x1x2048xbf16>) -> tensor<1x1x1x2048xbf16>
    %12 = stablehlo.subtract %10, %11 : tensor<1x1x1x2048xbf16>
    %13 = stablehlo.convert %cst_41 : (tensor<1xf64>) -> tensor<1xbf16>
    %14 = stablehlo.reshape %13 : (tensor<1xbf16>) -> tensor<bf16>
    %15 = stablehlo.broadcast_in_dim %12, dims = [0, 1, 2, 3] : (tensor<1x1x1x2048xbf16>) -> tensor<1x1x1x2048xbf16>
    %16 = stablehlo.broadcast_in_dim %14, dims = [] : (tensor<bf16>) -> tensor<1x1x1x2048xbf16>
    %17 = stablehlo.multiply %15, %16 : tensor<1x1x1x2048xbf16>
    %18 = stablehlo.convert %4 : (tensor<1x2048x768xbf16>) -> tensor<1x2048x768xf32>
    %19 = stablehlo.convert %18 : (tensor<1x2048x768xf32>) -> tensor<1x2048x768xf64>
    %20 = stablehlo.reduce(%19 init: %cst) applies stablehlo.add across dimensions = [2] : (tensor<1x2048x768xf64>, tensor<f64>) -> tensor<1x2048xf64>
    %21 = stablehlo.reshape %20 : (tensor<1x2048xf64>) -> tensor<1x2048x1xf64>
    %22 = stablehlo.convert %cst_42 : (tensor<1xi64>) -> tensor<1xf64>
    %23 = stablehlo.reshape %22 : (tensor<1xf64>) -> tensor<f64>
    %24 = stablehlo.broadcast_in_dim %21, dims = [0, 1, 2] : (tensor<1x2048x1xf64>) -> tensor<1x2048x1xf64>
    %25 = stablehlo.broadcast_in_dim %23, dims = [] : (tensor<f64>) -> tensor<1x2048x1xf64>
    %26 = stablehlo.divide %24, %25 : tensor<1x2048x1xf64>
    %27 = stablehlo.broadcast_in_dim %19, dims = [0, 1, 2] : (tensor<1x2048x768xf64>) -> tensor<1x2048x768xf64>
    %28 = stablehlo.broadcast_in_dim %26, dims = [0, 1, 2] : (tensor<1x2048x1xf64>) -> tensor<1x2048x768xf64>
    %29 = stablehlo.subtract %27, %28 : tensor<1x2048x768xf64>
    %30 = stablehlo.multiply %29, %29 : tensor<1x2048x768xf64>
    %31 = stablehlo.reduce(%30 init: %cst) applies stablehlo.add across dimensions = [2] : (tensor<1x2048x768xf64>, tensor<f64>) -> tensor<1x2048xf64>
    %32 = stablehlo.reshape %31 : (tensor<1x2048xf64>) -> tensor<1x2048x1xf64>
    %33 = stablehlo.broadcast_in_dim %32, dims = [0, 1, 2] : (tensor<1x2048x1xf64>) -> tensor<1x2048x1xf64>
    %34 = stablehlo.divide %33, %25 : tensor<1x2048x1xf64>
    %35 = stablehlo.convert %34 : (tensor<1x2048x1xf64>) -> tensor<1x2048x1xf32>
    %36 = stablehlo.reduce(%18 init: %cst_0) applies stablehlo.add across dimensions = [2] : (tensor<1x2048x768xf32>, tensor<f32>) -> tensor<1x2048xf32>
    %37 = stablehlo.reshape %36 : (tensor<1x2048xf32>) -> tensor<1x2048x1xf32>
    %38 = stablehlo.convert %cst_42 : (tensor<1xi64>) -> tensor<1xf32>
    %39 = stablehlo.reshape %38 : (tensor<1xf32>) -> tensor<f32>
    %40 = stablehlo.broadcast_in_dim %37, dims = [0, 1, 2] : (tensor<1x2048x1xf32>) -> tensor<1x2048x1xf32>
    %41 = stablehlo.broadcast_in_dim %39, dims = [] : (tensor<f32>) -> tensor<1x2048x1xf32>
    %42 = stablehlo.divide %40, %41 : tensor<1x2048x1xf32>
    %43 = stablehlo.convert %cst_43 : (tensor<1xf64>) -> tensor<1xf32>
    %44 = stablehlo.reshape %43 : (tensor<1xf32>) -> tensor<f32>
    %45 = stablehlo.broadcast_in_dim %35, dims = [0, 1, 2] : (tensor<1x2048x1xf32>) -> tensor<1x2048x1xf32>
    %46 = stablehlo.broadcast_in_dim %44, dims = [] : (tensor<f32>) -> tensor<1x2048x1xf32>
    %47 = stablehlo.add %45, %46 : tensor<1x2048x1xf32>
    %48 = stablehlo.rsqrt %47 : tensor<1x2048x1xf32>
    %49 = stablehlo.broadcast_in_dim %18, dims = [0, 1, 2] : (tensor<1x2048x768xf32>) -> tensor<1x2048x768xf32>
    %50 = stablehlo.broadcast_in_dim %42, dims = [0, 1, 2] : (tensor<1x2048x1xf32>) -> tensor<1x2048x768xf32>
    %51 = stablehlo.subtract %49, %50 : tensor<1x2048x768xf32>
    %52 = stablehlo.broadcast_in_dim %51, dims = [0, 1, 2] : (tensor<1x2048x768xf32>) -> tensor<1x2048x768xf32>
    %53 = stablehlo.broadcast_in_dim %48, dims = [0, 1, 2] : (tensor<1x2048x1xf32>) -> tensor<1x2048x768xf32>
    %54 = stablehlo.multiply %52, %53 : tensor<1x2048x768xf32>
    %55 = stablehlo.convert %arg3 : (tensor<768xbf16>) -> tensor<768xf32>
    %56 = stablehlo.broadcast_in_dim %54, dims = [0, 1, 2] : (tensor<1x2048x768xf32>) -> tensor<1x2048x768xf32>
    %57 = stablehlo.broadcast_in_dim %55, dims = [2] : (tensor<768xf32>) -> tensor<1x2048x768xf32>
    %58 = stablehlo.multiply %56, %57 : tensor<1x2048x768xf32>
    %59 = stablehlo.convert %arg4 : (tensor<768xbf16>) -> tensor<768xf32>
    %60 = stablehlo.broadcast_in_dim %58, dims = [0, 1, 2] : (tensor<1x2048x768xf32>) -> tensor<1x2048x768xf32>
    %61 = stablehlo.broadcast_in_dim %59, dims = [2] : (tensor<768xf32>) -> tensor<1x2048x768xf32>
    %62 = stablehlo.add %60, %61 : tensor<1x2048x768xf32>
    %63 = stablehlo.convert %62 : (tensor<1x2048x768xf32>) -> tensor<1x2048x768xbf16>
    %64 = stablehlo.reshape %63 : (tensor<1x2048x768xbf16>) -> tensor<2048x768xbf16>
    %65 = stablehlo.convert %64 : (tensor<2048x768xbf16>) -> tensor<2048x768xf32>
    %66 = stablehlo.dot_general %65, %arg117, contracting_dims = [1] x [0] : (tensor<2048x768xf32>, tensor<768x256xf32>) -> tensor<2048x256xf32>
    %67 = stablehlo.convert %cst_44 : (tensor<1xi64>) -> tensor<1xf32>
    %68 = stablehlo.reshape %67 : (tensor<1xf32>) -> tensor<f32>
    %69 = stablehlo.broadcast_in_dim %66, dims = [0, 1] : (tensor<2048x256xf32>) -> tensor<2048x256xf32>
    %70 = stablehlo.broadcast_in_dim %68, dims = [] : (tensor<f32>) -> tensor<2048x256xf32>
    %71 = stablehlo.multiply %69, %70 : tensor<2048x256xf32>
    %72 = stablehlo.broadcast_in_dim %71, dims = [0, 1] : (tensor<2048x256xf32>) -> tensor<2048x256xf32>
    %73 = stablehlo.broadcast_in_dim %arg118, dims = [1] : (tensor<256xf32>) -> tensor<2048x256xf32>
    %74 = stablehlo.add %72, %73 : tensor<2048x256xf32>
    %75 = stablehlo.convert %74 : (tensor<2048x256xf32>) -> tensor<2048x256xbf16>
    %76 = stablehlo.reshape %75 : (tensor<2048x256xbf16>) -> tensor<1x2048x256xbf16>
    %77 = stablehlo.dot_general %65, %arg119, contracting_dims = [1] x [0] : (tensor<2048x768xf32>, tensor<768x1280xf32>) -> tensor<2048x1280xf32>
    %78 = stablehlo.broadcast_in_dim %77, dims = [0, 1] : (tensor<2048x1280xf32>) -> tensor<2048x1280xf32>
    %79 = stablehlo.broadcast_in_dim %68, dims = [] : (tensor<f32>) -> tensor<2048x1280xf32>
    %80 = stablehlo.multiply %78, %79 : tensor<2048x1280xf32>
    %81 = stablehlo.broadcast_in_dim %80, dims = [0, 1] : (tensor<2048x1280xf32>) -> tensor<2048x1280xf32>
    %82 = stablehlo.broadcast_in_dim %arg120, dims = [1] : (tensor<1280xf32>) -> tensor<2048x1280xf32>
    %83 = stablehlo.add %81, %82 : tensor<2048x1280xf32>
    %84 = stablehlo.convert %83 : (tensor<2048x1280xf32>) -> tensor<2048x1280xbf16>
    %85 = stablehlo.reshape %84 : (tensor<2048x1280xbf16>) -> tensor<1x2048x1280xbf16>
    %86 = stablehlo.reshape %76 : (tensor<1x2048x256xbf16>) -> tensor<1x2048x8x32xbf16>
    %87 = stablehlo.transpose %86, dims = [0, 2, 1, 3] : (tensor<1x2048x8x32xbf16>) -> tensor<1x8x2048x32xbf16>
    %88 = stablehlo.reshape %85 : (tensor<1x2048x1280xbf16>) -> tensor<1x2048x8x160xbf16>
    %89 = stablehlo.transpose %88, dims = [0, 2, 1, 3] : (tensor<1x2048x8x160xbf16>) -> tensor<1x8x2048x160xbf16>
    %90 = stablehlo.transpose %87, dims = [0, 1, 3, 2] : (tensor<1x8x2048x32xbf16>) -> tensor<1x8x32x2048xbf16>
    %91 = stablehlo.reshape %90 : (tensor<1x8x32x2048xbf16>) -> tensor<8x32x2048xbf16>
    %92 = stablehlo.broadcast_in_dim %91, dims = [0, 1, 2] : (tensor<8x32x2048xbf16>) -> tensor<8x32x2048xbf16>
    %93 = stablehlo.dot_general %arg121, %92, batching_dims = [0] x [0], contracting_dims = [2] x [1] : (tensor<8x256x32xbf16>, tensor<8x32x2048xbf16>) -> tensor<8x256x2048xbf16>
    %94 = stablehlo.reshape %93 : (tensor<8x256x2048xbf16>) -> tensor<1x8x256x2048xbf16>
    %95 = stablehlo.convert %cst_45 : (tensor<1xf64>) -> tensor<1xbf16>
    %96 = stablehlo.reshape %95 : (tensor<1xbf16>) -> tensor<bf16>
    %97 = stablehlo.broadcast_in_dim %94, dims = [0, 1, 2, 3] : (tensor<1x8x256x2048xbf16>) -> tensor<1x8x256x2048xbf16>
    %98 = stablehlo.broadcast_in_dim %96, dims = [] : (tensor<bf16>) -> tensor<1x8x256x2048xbf16>
    %99 = stablehlo.divide %97, %98 : tensor<1x8x256x2048xbf16>
    %100 = stablehlo.broadcast_in_dim %99, dims = [0, 1, 2, 3] : (tensor<1x8x256x2048xbf16>) -> tensor<1x8x256x2048xbf16>
    %101 = stablehlo.broadcast_in_dim %17, dims = [0, 1, 2, 3] : (tensor<1x1x1x2048xbf16>) -> tensor<1x8x256x2048xbf16>
    %102 = stablehlo.add %100, %101 : tensor<1x8x256x2048xbf16>
    %103 = stablehlo.convert %102 : (tensor<1x8x256x2048xbf16>) -> tensor<1x8x256x2048xf32>
    %104 = stablehlo.reduce(%103 init: %cst_1) applies stablehlo.maximum across dimensions = [3] : (tensor<1x8x256x2048xf32>, tensor<f32>) -> tensor<1x8x256xf32>
    %105 = stablehlo.reshape %104 : (tensor<1x8x256xf32>) -> tensor<1x8x256x1xf32>
    %106 = stablehlo.broadcast_in_dim %103, dims = [0, 1, 2, 3] : (tensor<1x8x256x2048xf32>) -> tensor<1x8x256x2048xf32>
    %107 = stablehlo.broadcast_in_dim %105, dims = [0, 1, 2, 3] : (tensor<1x8x256x1xf32>) -> tensor<1x8x256x2048xf32>
    %108 = stablehlo.subtract %106, %107 : tensor<1x8x256x2048xf32>
    %109 = stablehlo.exponential %108 : tensor<1x8x256x2048xf32>
    %110 = stablehlo.reduce(%109 init: %cst_0) applies stablehlo.add across dimensions = [3] : (tensor<1x8x256x2048xf32>, tensor<f32>) -> tensor<1x8x256xf32>
    %111 = stablehlo.reshape %110 : (tensor<1x8x256xf32>) -> tensor<1x8x256x1xf32>
    %112 = stablehlo.broadcast_in_dim %109, dims = [0, 1, 2, 3] : (tensor<1x8x256x2048xf32>) -> tensor<1x8x256x2048xf32>
    %113 = stablehlo.broadcast_in_dim %111, dims = [0, 1, 2, 3] : (tensor<1x8x256x1xf32>) -> tensor<1x8x256x2048xf32>
    %114 = stablehlo.divide %112, %113 : tensor<1x8x256x2048xf32>
    %115 = stablehlo.convert %114 : (tensor<1x8x256x2048xf32>) -> tensor<1x8x256x2048xbf16>
    %116 = stablehlo.reshape %115 : (tensor<1x8x256x2048xbf16>) -> tensor<8x256x2048xbf16>
    %117 = stablehlo.reshape %89 : (tensor<1x8x2048x160xbf16>) -> tensor<8x2048x160xbf16>
    %118 = stablehlo.broadcast_in_dim %117, dims = [0, 1, 2] : (tensor<8x2048x160xbf16>) -> tensor<8x2048x160xbf16>
    %119 = stablehlo.dot_general %116, %118, batching_dims = [0] x [0], contracting_dims = [2] x [1] : (tensor<8x256x2048xbf16>, tensor<8x2048x160xbf16>) -> tensor<8x256x160xbf16>
    %120 = stablehlo.reshape %119 : (tensor<8x256x160xbf16>) -> tensor<1x8x256x160xbf16>
    %121 = stablehlo.transpose %120, dims = [0, 2, 1, 3] : (tensor<1x8x256x160xbf16>) -> tensor<1x256x8x160xbf16>
    %122 = stablehlo.reshape %121 : (tensor<1x256x8x160xbf16>) -> tensor<1x256x1280xbf16>
    %123 = stablehlo.reshape %122 : (tensor<1x256x1280xbf16>) -> tensor<256x1280xbf16>
    %124 = stablehlo.convert %123 : (tensor<256x1280xbf16>) -> tensor<256x1280xf32>
    %125 = stablehlo.dot_general %124, %arg122, contracting_dims = [1] x [0] : (tensor<256x1280xf32>, tensor<1280x1280xf32>) -> tensor<256x1280xf32>
    %126 = stablehlo.broadcast_in_dim %125, dims = [0, 1] : (tensor<256x1280xf32>) -> tensor<256x1280xf32>
    %127 = stablehlo.broadcast_in_dim %68, dims = [] : (tensor<f32>) -> tensor<256x1280xf32>
    %128 = stablehlo.multiply %126, %127 : tensor<256x1280xf32>
    %129 = stablehlo.broadcast_in_dim %128, dims = [0, 1] : (tensor<256x1280xf32>) -> tensor<256x1280xf32>
    %130 = stablehlo.broadcast_in_dim %arg123, dims = [1] : (tensor<1280xf32>) -> tensor<256x1280xf32>
    %131 = stablehlo.add %129, %130 : tensor<256x1280xf32>
    %132 = stablehlo.convert %131 : (tensor<256x1280xf32>) -> tensor<256x1280xbf16>
    %133 = stablehlo.reshape %132 : (tensor<256x1280xbf16>) -> tensor<1x256x1280xbf16>
    %134 = stablehlo.add %133, %arg124 : tensor<1x256x1280xbf16>
    %135 = stablehlo.convert %134 : (tensor<1x256x1280xbf16>) -> tensor<1x256x1280xf32>
    %136 = stablehlo.convert %135 : (tensor<1x256x1280xf32>) -> tensor<1x256x1280xf64>
    %137 = stablehlo.reduce(%136 init: %cst) applies stablehlo.add across dimensions = [2] : (tensor<1x256x1280xf64>, tensor<f64>) -> tensor<1x256xf64>
    %138 = stablehlo.reshape %137 : (tensor<1x256xf64>) -> tensor<1x256x1xf64>
    %139 = stablehlo.convert %cst_46 : (tensor<1xi64>) -> tensor<1xf64>
    %140 = stablehlo.reshape %139 : (tensor<1xf64>) -> tensor<f64>
    %141 = stablehlo.broadcast_in_dim %138, dims = [0, 1, 2] : (tensor<1x256x1xf64>) -> tensor<1x256x1xf64>
    %142 = stablehlo.broadcast_in_dim %140, dims = [] : (tensor<f64>) -> tensor<1x256x1xf64>
    %143 = stablehlo.divide %141, %142 : tensor<1x256x1xf64>
    %144 = stablehlo.broadcast_in_dim %136, dims = [0, 1, 2] : (tensor<1x256x1280xf64>) -> tensor<1x256x1280xf64>
    %145 = stablehlo.broadcast_in_dim %143, dims = [0, 1, 2] : (tensor<1x256x1xf64>) -> tensor<1x256x1280xf64>
    %146 = stablehlo.subtract %144, %145 : tensor<1x256x1280xf64>
    %147 = stablehlo.multiply %146, %146 : tensor<1x256x1280xf64>
    %148 = stablehlo.reduce(%147 init: %cst) applies stablehlo.add across dimensions = [2] : (tensor<1x256x1280xf64>, tensor<f64>) -> tensor<1x256xf64>
    %149 = stablehlo.reshape %148 : (tensor<1x256xf64>) -> tensor<1x256x1xf64>
    %150 = stablehlo.broadcast_in_dim %149, dims = [0, 1, 2] : (tensor<1x256x1xf64>) -> tensor<1x256x1xf64>
    %151 = stablehlo.divide %150, %142 : tensor<1x256x1xf64>
    %152 = stablehlo.convert %151 : (tensor<1x256x1xf64>) -> tensor<1x256x1xf32>
    %153 = stablehlo.reduce(%135 init: %cst_0) applies stablehlo.add across dimensions = [2] : (tensor<1x256x1280xf32>, tensor<f32>) -> tensor<1x256xf32>
    %154 = stablehlo.reshape %153 : (tensor<1x256xf32>) -> tensor<1x256x1xf32>
    %155 = stablehlo.convert %cst_46 : (tensor<1xi64>) -> tensor<1xf32>
    %156 = stablehlo.reshape %155 : (tensor<1xf32>) -> tensor<f32>
    %157 = stablehlo.broadcast_in_dim %154, dims = [0, 1, 2] : (tensor<1x256x1xf32>) -> tensor<1x256x1xf32>
    %158 = stablehlo.broadcast_in_dim %156, dims = [] : (tensor<f32>) -> tensor<1x256x1xf32>
    %159 = stablehlo.divide %157, %158 : tensor<1x256x1xf32>
    %160 = stablehlo.broadcast_in_dim %152, dims = [0, 1, 2] : (tensor<1x256x1xf32>) -> tensor<1x256x1xf32>
    %161 = stablehlo.broadcast_in_dim %44, dims = [] : (tensor<f32>) -> tensor<1x256x1xf32>
    %162 = stablehlo.add %160, %161 : tensor<1x256x1xf32>
    %163 = stablehlo.rsqrt %162 : tensor<1x256x1xf32>
    %164 = stablehlo.broadcast_in_dim %135, dims = [0, 1, 2] : (tensor<1x256x1280xf32>) -> tensor<1x256x1280xf32>
    %165 = stablehlo.broadcast_in_dim %159, dims = [0, 1, 2] : (tensor<1x256x1xf32>) -> tensor<1x256x1280xf32>
    %166 = stablehlo.subtract %164, %165 : tensor<1x256x1280xf32>
    %167 = stablehlo.broadcast_in_dim %166, dims = [0, 1, 2] : (tensor<1x256x1280xf32>) -> tensor<1x256x1280xf32>
    %168 = stablehlo.broadcast_in_dim %163, dims = [0, 1, 2] : (tensor<1x256x1xf32>) -> tensor<1x256x1280xf32>
    %169 = stablehlo.multiply %167, %168 : tensor<1x256x1280xf32>
    %170 = stablehlo.convert %arg5 : (tensor<1280xbf16>) -> tensor<1280xf32>
    %171 = stablehlo.broadcast_in_dim %169, dims = [0, 1, 2] : (tensor<1x256x1280xf32>) -> tensor<1x256x1280xf32>
    %172 = stablehlo.broadcast_in_dim %170, dims = [2] : (tensor<1280xf32>) -> tensor<1x256x1280xf32>
    %173 = stablehlo.multiply %171, %172 : tensor<1x256x1280xf32>
    %174 = stablehlo.convert %arg6 : (tensor<1280xbf16>) -> tensor<1280xf32>
    %175 = stablehlo.broadcast_in_dim %173, dims = [0, 1, 2] : (tensor<1x256x1280xf32>) -> tensor<1x256x1280xf32>
    %176 = stablehlo.broadcast_in_dim %174, dims = [2] : (tensor<1280xf32>) -> tensor<1x256x1280xf32>
    %177 = stablehlo.add %175, %176 : tensor<1x256x1280xf32>
    %178 = stablehlo.convert %177 : (tensor<1x256x1280xf32>) -> tensor<1x256x1280xbf16>
    %179 = stablehlo.reshape %178 : (tensor<1x256x1280xbf16>) -> tensor<256x1280xbf16>
    %180 = stablehlo.convert %179 : (tensor<256x1280xbf16>) -> tensor<256x1280xf32>
    %181 = stablehlo.dot_general %180, %arg125, contracting_dims = [1] x [0] : (tensor<256x1280xf32>, tensor<1280x1280xf32>) -> tensor<256x1280xf32>
    %182 = stablehlo.broadcast_in_dim %181, dims = [0, 1] : (tensor<256x1280xf32>) -> tensor<256x1280xf32>
    %183 = stablehlo.multiply %182, %127 : tensor<256x1280xf32>
    %184 = stablehlo.broadcast_in_dim %183, dims = [0, 1] : (tensor<256x1280xf32>) -> tensor<256x1280xf32>
    %185 = stablehlo.broadcast_in_dim %arg126, dims = [1] : (tensor<1280xf32>) -> tensor<256x1280xf32>
    %186 = stablehlo.add %184, %185 : tensor<256x1280xf32>
    %187 = stablehlo.convert %186 : (tensor<256x1280xf32>) -> tensor<256x1280xbf16>
    %188 = stablehlo.reshape %187 : (tensor<256x1280xbf16>) -> tensor<1x256x1280xbf16>
    %189 = stablehlo.multiply %188, %cst_4 : tensor<1x256x1280xbf16>
    %190 = stablehlo.rsqrt %cst_3 : tensor<1x256x1280xbf16>
    %191 = stablehlo.multiply %188, %190 : tensor<1x256x1280xbf16>
    %192 = stablehlo.convert %191 : (tensor<1x256x1280xbf16>) -> tensor<1x256x1280xf32>
    %193 = stablehlo.clamp %cst_5, %192, %cst_6 : tensor<1x256x1280xf32>
    %194 = stablehlo.multiply %193, %193 : tensor<1x256x1280xf32>
    %195 = stablehlo.multiply %cst_7, %194 : tensor<1x256x1280xf32>
    %196 = stablehlo.add %195, %cst_8 : tensor<1x256x1280xf32>
    %197 = stablehlo.multiply %196, %194 : tensor<1x256x1280xf32>
    %198 = stablehlo.add %197, %cst_9 : tensor<1x256x1280xf32>
    %199 = stablehlo.multiply %198, %194 : tensor<1x256x1280xf32>
    %200 = stablehlo.add %199, %cst_10 : tensor<1x256x1280xf32>
    %201 = stablehlo.multiply %200, %194 : tensor<1x256x1280xf32>
    %202 = stablehlo.add %201, %cst_11 : tensor<1x256x1280xf32>
    %203 = stablehlo.multiply %202, %194 : tensor<1x256x1280xf32>
    %204 = stablehlo.add %203, %cst_12 : tensor<1x256x1280xf32>
    %205 = stablehlo.multiply %204, %194 : tensor<1x256x1280xf32>
    %206 = stablehlo.add %205, %cst_13 : tensor<1x256x1280xf32>
    %207 = stablehlo.multiply %cst_14, %194 : tensor<1x256x1280xf32>
    %208 = stablehlo.add %207, %cst_15 : tensor<1x256x1280xf32>
    %209 = stablehlo.multiply %208, %194 : tensor<1x256x1280xf32>
    %210 = stablehlo.add %209, %cst_16 : tensor<1x256x1280xf32>
    %211 = stablehlo.multiply %210, %194 : tensor<1x256x1280xf32>
    %212 = stablehlo.add %211, %cst_17 : tensor<1x256x1280xf32>
    %213 = stablehlo.multiply %212, %194 : tensor<1x256x1280xf32>
    %214 = stablehlo.add %213, %cst_18 : tensor<1x256x1280xf32>
    %215 = stablehlo.multiply %193, %206 : tensor<1x256x1280xf32>
    %216 = stablehlo.divide %215, %214 : tensor<1x256x1280xf32>
    %217 = stablehlo.clamp %cst_19, %216, %cst_20 : tensor<1x256x1280xf32>
    %218 = stablehlo.convert %217 : (tensor<1x256x1280xf32>) -> tensor<1x256x1280xbf16>
    %219 = stablehlo.add %218, %cst_2 : tensor<1x256x1280xbf16>
    %220 = stablehlo.multiply %219, %189 : tensor<1x256x1280xbf16>
    %221 = stablehlo.reshape %220 : (tensor<1x256x1280xbf16>) -> tensor<256x1280xbf16>
    %222 = stablehlo.convert %221 : (tensor<256x1280xbf16>) -> tensor<256x1280xf32>
    %223 = stablehlo.dot_general %222, %arg127, contracting_dims = [1] x [0] : (tensor<256x1280xf32>, tensor<1280x1280xf32>) -> tensor<256x1280xf32>
    %224 = stablehlo.broadcast_in_dim %223, dims = [0, 1] : (tensor<256x1280xf32>) -> tensor<256x1280xf32>
    %225 = stablehlo.multiply %224, %127 : tensor<256x1280xf32>
    %226 = stablehlo.broadcast_in_dim %225, dims = [0, 1] : (tensor<256x1280xf32>) -> tensor<256x1280xf32>
    %227 = stablehlo.broadcast_in_dim %arg128, dims = [1] : (tensor<1280xf32>) -> tensor<256x1280xf32>
    %228 = stablehlo.add %226, %227 : tensor<256x1280xf32>
    %229 = stablehlo.convert %228 : (tensor<256x1280xf32>) -> tensor<256x1280xbf16>
    %230 = stablehlo.reshape %229 : (tensor<256x1280xbf16>) -> tensor<1x256x1280xbf16>
    %231 = stablehlo.add %230, %134 : tensor<1x256x1280xbf16>
    %232 = stablehlo.convert %231 : (tensor<1x256x1280xbf16>) -> tensor<1x256x1280xf32>
    %233 = stablehlo.convert %232 : (tensor<1x256x1280xf32>) -> tensor<1x256x1280xf64>
    %234 = stablehlo.reduce(%233 init: %cst) applies stablehlo.add across dimensions = [2] : (tensor<1x256x1280xf64>, tensor<f64>) -> tensor<1x256xf64>
    %235 = stablehlo.reshape %234 : (tensor<1x256xf64>) -> tensor<1x256x1xf64>
    %236 = stablehlo.broadcast_in_dim %235, dims = [0, 1, 2] : (tensor<1x256x1xf64>) -> tensor<1x256x1xf64>
    %237 = stablehlo.divide %236, %142 : tensor<1x256x1xf64>
    %238 = stablehlo.broadcast_in_dim %233, dims = [0, 1, 2] : (tensor<1x256x1280xf64>) -> tensor<1x256x1280xf64>
    %239 = stablehlo.broadcast_in_dim %237, dims = [0, 1, 2] : (tensor<1x256x1xf64>) -> tensor<1x256x1280xf64>
    %240 = stablehlo.subtract %238, %239 : tensor<1x256x1280xf64>
    %241 = stablehlo.multiply %240, %240 : tensor<1x256x1280xf64>
    %242 = stablehlo.reduce(%241 init: %cst) applies stablehlo.add across dimensions = [2] : (tensor<1x256x1280xf64>, tensor<f64>) -> tensor<1x256xf64>
    %243 = stablehlo.reshape %242 : (tensor<1x256xf64>) -> tensor<1x256x1xf64>
    %244 = stablehlo.broadcast_in_dim %243, dims = [0, 1, 2] : (tensor<1x256x1xf64>) -> tensor<1x256x1xf64>
    %245 = stablehlo.divide %244, %142 : tensor<1x256x1xf64>
    %246 = stablehlo.convert %245 : (tensor<1x256x1xf64>) -> tensor<1x256x1xf32>
    %247 = stablehlo.reduce(%232 init: %cst_0) applies stablehlo.add across dimensions = [2] : (tensor<1x256x1280xf32>, tensor<f32>) -> tensor<1x256xf32>
    %248 = stablehlo.reshape %247 : (tensor<1x256xf32>) -> tensor<1x256x1xf32>
    %249 = stablehlo.broadcast_in_dim %248, dims = [0, 1, 2] : (tensor<1x256x1xf32>) -> tensor<1x256x1xf32>
    %250 = stablehlo.divide %249, %158 : tensor<1x256x1xf32>
    %251 = stablehlo.broadcast_in_dim %246, dims = [0, 1, 2] : (tensor<1x256x1xf32>) -> tensor<1x256x1xf32>
    %252 = stablehlo.add %251, %161 : tensor<1x256x1xf32>
    %253 = stablehlo.rsqrt %252 : tensor<1x256x1xf32>
    %254 = stablehlo.broadcast_in_dim %232, dims = [0, 1, 2] : (tensor<1x256x1280xf32>) -> tensor<1x256x1280xf32>
    %255 = stablehlo.broadcast_in_dim %250, dims = [0, 1, 2] : (tensor<1x256x1xf32>) -> tensor<1x256x1280xf32>
    %256 = stablehlo.subtract %254, %255 : tensor<1x256x1280xf32>
    %257 = stablehlo.broadcast_in_dim %256, dims = [0, 1, 2] : (tensor<1x256x1280xf32>) -> tensor<1x256x1280xf32>
    %258 = stablehlo.broadcast_in_dim %253, dims = [0, 1, 2] : (tensor<1x256x1xf32>) -> tensor<1x256x1280xf32>
    %259 = stablehlo.multiply %257, %258 : tensor<1x256x1280xf32>
    %260 = stablehlo.convert %arg7 : (tensor<1280xbf16>) -> tensor<1280xf32>
    %261 = stablehlo.broadcast_in_dim %259, dims = [0, 1, 2] : (tensor<1x256x1280xf32>) -> tensor<1x256x1280xf32>
    %262 = stablehlo.broadcast_in_dim %260, dims = [2] : (tensor<1280xf32>) -> tensor<1x256x1280xf32>
    %263 = stablehlo.multiply %261, %262 : tensor<1x256x1280xf32>
    %264 = stablehlo.convert %arg8 : (tensor<1280xbf16>) -> tensor<1280xf32>
    %265 = stablehlo.broadcast_in_dim %263, dims = [0, 1, 2] : (tensor<1x256x1280xf32>) -> tensor<1x256x1280xf32>
    %266 = stablehlo.broadcast_in_dim %264, dims = [2] : (tensor<1280xf32>) -> tensor<1x256x1280xf32>
    %267 = stablehlo.add %265, %266 : tensor<1x256x1280xf32>
    %268 = stablehlo.convert %267 : (tensor<1x256x1280xf32>) -> tensor<1x256x1280xbf16>
    %269 = stablehlo.reshape %268 : (tensor<1x256x1280xbf16>) -> tensor<256x1280xbf16>
    %270 = stablehlo.convert %269 : (tensor<256x1280xbf16>) -> tensor<256x1280xf32>
    %271 = stablehlo.dot_general %270, %arg129, contracting_dims = [1] x [0] : (tensor<256x1280xf32>, tensor<1280x256xf32>) -> tensor<256x256xf32>
    %272 = stablehlo.broadcast_in_dim %271, dims = [0, 1] : (tensor<256x256xf32>) -> tensor<256x256xf32>
    %273 = stablehlo.broadcast_in_dim %68, dims = [] : (tensor<f32>) -> tensor<256x256xf32>
    %274 = stablehlo.multiply %272, %273 : tensor<256x256xf32>
    %275 = stablehlo.broadcast_in_dim %274, dims = [0, 1] : (tensor<256x256xf32>) -> tensor<256x256xf32>
    %276 = stablehlo.broadcast_in_dim %arg130, dims = [1] : (tensor<256xf32>) -> tensor<256x256xf32>
    %277 = stablehlo.add %275, %276 : tensor<256x256xf32>
    %278 = stablehlo.convert %277 : (tensor<256x256xf32>) -> tensor<256x256xbf16>
    %279 = stablehlo.reshape %278 : (tensor<256x256xbf16>) -> tensor<1x256x256xbf16>
    %280 = stablehlo.dot_general %270, %arg131, contracting_dims = [1] x [0] : (tensor<256x1280xf32>, tensor<1280x256xf32>) -> tensor<256x256xf32>
    %281 = stablehlo.broadcast_in_dim %280, dims = [0, 1] : (tensor<256x256xf32>) -> tensor<256x256xf32>
    %282 = stablehlo.multiply %281, %273 : tensor<256x256xf32>
    %283 = stablehlo.broadcast_in_dim %282, dims = [0, 1] : (tensor<256x256xf32>) -> tensor<256x256xf32>
    %284 = stablehlo.broadcast_in_dim %arg132, dims = [1] : (tensor<256xf32>) -> tensor<256x256xf32>
    %285 = stablehlo.add %283, %284 : tensor<256x256xf32>
    %286 = stablehlo.convert %285 : (tensor<256x256xf32>) -> tensor<256x256xbf16>
    %287 = stablehlo.reshape %286 : (tensor<256x256xbf16>) -> tensor<1x256x256xbf16>
    %288 = stablehlo.dot_general %270, %arg133, contracting_dims = [1] x [0] : (tensor<256x1280xf32>, tensor<1280x1280xf32>) -> tensor<256x1280xf32>
    %289 = stablehlo.broadcast_in_dim %288, dims = [0, 1] : (tensor<256x1280xf32>) -> tensor<256x1280xf32>
    %290 = stablehlo.multiply %289, %127 : tensor<256x1280xf32>
    %291 = stablehlo.broadcast_in_dim %290, dims = [0, 1] : (tensor<256x1280xf32>) -> tensor<256x1280xf32>
    %292 = stablehlo.broadcast_in_dim %arg134, dims = [1] : (tensor<1280xf32>) -> tensor<256x1280xf32>
    %293 = stablehlo.add %291, %292 : tensor<256x1280xf32>
    %294 = stablehlo.convert %293 : (tensor<256x1280xf32>) -> tensor<256x1280xbf16>
    %295 = stablehlo.reshape %294 : (tensor<256x1280xbf16>) -> tensor<1x256x1280xbf16>
    %296 = stablehlo.reshape %279 : (tensor<1x256x256xbf16>) -> tensor<1x256x8x32xbf16>
    %297 = stablehlo.transpose %296, dims = [0, 2, 1, 3] : (tensor<1x256x8x32xbf16>) -> tensor<1x8x256x32xbf16>
    %298 = stablehlo.reshape %287 : (tensor<1x256x256xbf16>) -> tensor<1x256x8x32xbf16>
    %299 = stablehlo.transpose %298, dims = [0, 2, 1, 3] : (tensor<1x256x8x32xbf16>) -> tensor<1x8x256x32xbf16>
    %300 = stablehlo.reshape %295 : (tensor<1x256x1280xbf16>) -> tensor<1x256x8x160xbf16>
    %301 = stablehlo.transpose %300, dims = [0, 2, 1, 3] : (tensor<1x256x8x160xbf16>) -> tensor<1x8x256x160xbf16>
    %302 = stablehlo.transpose %299, dims = [0, 1, 3, 2] : (tensor<1x8x256x32xbf16>) -> tensor<1x8x32x256xbf16>
    %303 = stablehlo.reshape %297 : (tensor<1x8x256x32xbf16>) -> tensor<8x256x32xbf16>
    %304 = stablehlo.reshape %302 : (tensor<1x8x32x256xbf16>) -> tensor<8x32x256xbf16>
    %305 = stablehlo.broadcast_in_dim %304, dims = [0, 1, 2] : (tensor<8x32x256xbf16>) -> tensor<8x32x256xbf16>
    %306 = stablehlo.dot_general %303, %305, batching_dims = [0] x [0], contracting_dims = [2] x [1] : (tensor<8x256x32xbf16>, tensor<8x32x256xbf16>) -> tensor<8x256x256xbf16>
    %307 = stablehlo.reshape %306 : (tensor<8x256x256xbf16>) -> tensor<1x8x256x256xbf16>
    %308 = stablehlo.broadcast_in_dim %307, dims = [0, 1, 2, 3] : (tensor<1x8x256x256xbf16>) -> tensor<1x8x256x256xbf16>
    %309 = stablehlo.broadcast_in_dim %96, dims = [] : (tensor<bf16>) -> tensor<1x8x256x256xbf16>
    %310 = stablehlo.divide %308, %309 : tensor<1x8x256x256xbf16>
    %311 = stablehlo.convert %310 : (tensor<1x8x256x256xbf16>) -> tensor<1x8x256x256xf32>
    %312 = stablehlo.reduce(%311 init: %cst_1) applies stablehlo.maximum across dimensions = [3] : (tensor<1x8x256x256xf32>, tensor<f32>) -> tensor<1x8x256xf32>
    %313 = stablehlo.reshape %312 : (tensor<1x8x256xf32>) -> tensor<1x8x256x1xf32>
    %314 = stablehlo.broadcast_in_dim %311, dims = [0, 1, 2, 3] : (tensor<1x8x256x256xf32>) -> tensor<1x8x256x256xf32>
    %315 = stablehlo.broadcast_in_dim %313, dims = [0, 1, 2, 3] : (tensor<1x8x256x1xf32>) -> tensor<1x8x256x256xf32>
    %316 = stablehlo.subtract %314, %315 : tensor<1x8x256x256xf32>
    %317 = stablehlo.exponential %316 : tensor<1x8x256x256xf32>
    %318 = stablehlo.reduce(%317 init: %cst_0) applies stablehlo.add across dimensions = [3] : (tensor<1x8x256x256xf32>, tensor<f32>) -> tensor<1x8x256xf32>
    %319 = stablehlo.reshape %318 : (tensor<1x8x256xf32>) -> tensor<1x8x256x1xf32>
    %320 = stablehlo.broadcast_in_dim %317, dims = [0, 1, 2, 3] : (tensor<1x8x256x256xf32>) -> tensor<1x8x256x256xf32>
    %321 = stablehlo.broadcast_in_dim %319, dims = [0, 1, 2, 3] : (tensor<1x8x256x1xf32>) -> tensor<1x8x256x256xf32>
    %322 = stablehlo.divide %320, %321 : tensor<1x8x256x256xf32>
    %323 = stablehlo.convert %322 : (tensor<1x8x256x256xf32>) -> tensor<1x8x256x256xbf16>
    %324 = stablehlo.reshape %323 : (tensor<1x8x256x256xbf16>) -> tensor<8x256x256xbf16>
    %325 = stablehlo.reshape %301 : (tensor<1x8x256x160xbf16>) -> tensor<8x256x160xbf16>
    %326 = stablehlo.broadcast_in_dim %325, dims = [0, 1, 2] : (tensor<8x256x160xbf16>) -> tensor<8x256x160xbf16>
    %327 = stablehlo.dot_general %324, %326, batching_dims = [0] x [0], contracting_dims = [2] x [1] : (tensor<8x256x256xbf16>, tensor<8x256x160xbf16>) -> tensor<8x256x160xbf16>
    %328 = stablehlo.reshape %327 : (tensor<8x256x160xbf16>) -> tensor<1x8x256x160xbf16>
    %329 = stablehlo.transpose %328, dims = [0, 2, 1, 3] : (tensor<1x8x256x160xbf16>) -> tensor<1x256x8x160xbf16>
    %330 = stablehlo.reshape %329 : (tensor<1x256x8x160xbf16>) -> tensor<1x256x1280xbf16>
    %331 = stablehlo.reshape %330 : (tensor<1x256x1280xbf16>) -> tensor<256x1280xbf16>
    %332 = stablehlo.convert %331 : (tensor<256x1280xbf16>) -> tensor<256x1280xf32>
    %333 = stablehlo.dot_general %332, %arg135, contracting_dims = [1] x [0] : (tensor<256x1280xf32>, tensor<1280x1280xf32>) -> tensor<256x1280xf32>
    %334 = stablehlo.broadcast_in_dim %333, dims = [0, 1] : (tensor<256x1280xf32>) -> tensor<256x1280xf32>
    %335 = stablehlo.multiply %334, %127 : tensor<256x1280xf32>
    %336 = stablehlo.broadcast_in_dim %335, dims = [0, 1] : (tensor<256x1280xf32>) -> tensor<256x1280xf32>
    %337 = stablehlo.broadcast_in_dim %arg136, dims = [1] : (tensor<1280xf32>) -> tensor<256x1280xf32>
    %338 = stablehlo.add %336, %337 : tensor<256x1280xf32>
    %339 = stablehlo.convert %338 : (tensor<256x1280xf32>) -> tensor<256x1280xbf16>
    %340 = stablehlo.reshape %339 : (tensor<256x1280xbf16>) -> tensor<1x256x1280xbf16>
    %341 = stablehlo.add %340, %231 : tensor<1x256x1280xbf16>
    %342 = stablehlo.convert %341 : (tensor<1x256x1280xbf16>) -> tensor<1x256x1280xf32>
    %343 = stablehlo.convert %342 : (tensor<1x256x1280xf32>) -> tensor<1x256x1280xf64>
    %344 = stablehlo.reduce(%343 init: %cst) applies stablehlo.add across dimensions = [2] : (tensor<1x256x1280xf64>, tensor<f64>) -> tensor<1x256xf64>
    %345 = stablehlo.reshape %344 : (tensor<1x256xf64>) -> tensor<1x256x1xf64>
    %346 = stablehlo.broadcast_in_dim %345, dims = [0, 1, 2] : (tensor<1x256x1xf64>) -> tensor<1x256x1xf64>
    %347 = stablehlo.divide %346, %142 : tensor<1x256x1xf64>
    %348 = stablehlo.broadcast_in_dim %343, dims = [0, 1, 2] : (tensor<1x256x1280xf64>) -> tensor<1x256x1280xf64>
    %349 = stablehlo.broadcast_in_dim %347, dims = [0, 1, 2] : (tensor<1x256x1xf64>) -> tensor<1x256x1280xf64>
    %350 = stablehlo.subtract %348, %349 : tensor<1x256x1280xf64>
    %351 = stablehlo.multiply %350, %350 : tensor<1x256x1280xf64>
    %352 = stablehlo.reduce(%351 init: %cst) applies stablehlo.add across dimensions = [2] : (tensor<1x256x1280xf64>, tensor<f64>) -> tensor<1x256xf64>
    %353 = stablehlo.reshape %352 : (tensor<1x256xf64>) -> tensor<1x256x1xf64>
    %354 = stablehlo.broadcast_in_dim %353, dims = [0, 1, 2] : (tensor<1x256x1xf64>) -> tensor<1x256x1xf64>
    %355 = stablehlo.divide %354, %142 : tensor<1x256x1xf64>
    %356 = stablehlo.convert %355 : (tensor<1x256x1xf64>) -> tensor<1x256x1xf32>
    %357 = stablehlo.reduce(%342 init: %cst_0) applies stablehlo.add across dimensions = [2] : (tensor<1x256x1280xf32>, tensor<f32>) -> tensor<1x256xf32>
    %358 = stablehlo.reshape %357 : (tensor<1x256xf32>) -> tensor<1x256x1xf32>
    %359 = stablehlo.broadcast_in_dim %358, dims = [0, 1, 2] : (tensor<1x256x1xf32>) -> tensor<1x256x1xf32>
    %360 = stablehlo.divide %359, %158 : tensor<1x256x1xf32>
    %361 = stablehlo.broadcast_in_dim %356, dims = [0, 1, 2] : (tensor<1x256x1xf32>) -> tensor<1x256x1xf32>
    %362 = stablehlo.add %361, %161 : tensor<1x256x1xf32>
    %363 = stablehlo.rsqrt %362 : tensor<1x256x1xf32>
    %364 = stablehlo.broadcast_in_dim %342, dims = [0, 1, 2] : (tensor<1x256x1280xf32>) -> tensor<1x256x1280xf32>
    %365 = stablehlo.broadcast_in_dim %360, dims = [0, 1, 2] : (tensor<1x256x1xf32>) -> tensor<1x256x1280xf32>
    %366 = stablehlo.subtract %364, %365 : tensor<1x256x1280xf32>
    %367 = stablehlo.broadcast_in_dim %366, dims = [0, 1, 2] : (tensor<1x256x1280xf32>) -> tensor<1x256x1280xf32>
    %368 = stablehlo.broadcast_in_dim %363, dims = [0, 1, 2] : (tensor<1x256x1xf32>) -> tensor<1x256x1280xf32>
    %369 = stablehlo.multiply %367, %368 : tensor<1x256x1280xf32>
    %370 = stablehlo.convert %arg9 : (tensor<1280xbf16>) -> tensor<1280xf32>
    %371 = stablehlo.broadcast_in_dim %369, dims = [0, 1, 2] : (tensor<1x256x1280xf32>) -> tensor<1x256x1280xf32>
    %372 = stablehlo.broadcast_in_dim %370, dims = [2] : (tensor<1280xf32>) -> tensor<1x256x1280xf32>
    %373 = stablehlo.multiply %371, %372 : tensor<1x256x1280xf32>
    %374 = stablehlo.convert %arg10 : (tensor<1280xbf16>) -> tensor<1280xf32>
    %375 = stablehlo.broadcast_in_dim %373, dims = [0, 1, 2] : (tensor<1x256x1280xf32>) -> tensor<1x256x1280xf32>
    %376 = stablehlo.broadcast_in_dim %374, dims = [2] : (tensor<1280xf32>) -> tensor<1x256x1280xf32>
    %377 = stablehlo.add %375, %376 : tensor<1x256x1280xf32>
    %378 = stablehlo.convert %377 : (tensor<1x256x1280xf32>) -> tensor<1x256x1280xbf16>
    %379 = stablehlo.reshape %378 : (tensor<1x256x1280xbf16>) -> tensor<256x1280xbf16>
    %380 = stablehlo.convert %379 : (tensor<256x1280xbf16>) -> tensor<256x1280xf32>
    %381 = stablehlo.dot_general %380, %arg137, contracting_dims = [1] x [0] : (tensor<256x1280xf32>, tensor<1280x1280xf32>) -> tensor<256x1280xf32>
    %382 = stablehlo.broadcast_in_dim %381, dims = [0, 1] : (tensor<256x1280xf32>) -> tensor<256x1280xf32>
    %383 = stablehlo.multiply %382, %127 : tensor<256x1280xf32>
    %384 = stablehlo.broadcast_in_dim %383, dims = [0, 1] : (tensor<256x1280xf32>) -> tensor<256x1280xf32>
    %385 = stablehlo.broadcast_in_dim %arg138, dims = [1] : (tensor<1280xf32>) -> tensor<256x1280xf32>
    %386 = stablehlo.add %384, %385 : tensor<256x1280xf32>
    %387 = stablehlo.convert %386 : (tensor<256x1280xf32>) -> tensor<256x1280xbf16>
    %388 = stablehlo.reshape %387 : (tensor<256x1280xbf16>) -> tensor<1x256x1280xbf16>
    %389 = stablehlo.multiply %388, %cst_4 : tensor<1x256x1280xbf16>
    %390 = stablehlo.multiply %388, %190 : tensor<1x256x1280xbf16>
    %391 = stablehlo.convert %390 : (tensor<1x256x1280xbf16>) -> tensor<1x256x1280xf32>
    %392 = stablehlo.clamp %cst_5, %391, %cst_6 : tensor<1x256x1280xf32>
    %393 = stablehlo.multiply %392, %392 : tensor<1x256x1280xf32>
    %394 = stablehlo.multiply %cst_7, %393 : tensor<1x256x1280xf32>
    %395 = stablehlo.add %394, %cst_8 : tensor<1x256x1280xf32>
    %396 = stablehlo.multiply %395, %393 : tensor<1x256x1280xf32>
    %397 = stablehlo.add %396, %cst_9 : tensor<1x256x1280xf32>
    %398 = stablehlo.multiply %397, %393 : tensor<1x256x1280xf32>
    %399 = stablehlo.add %398, %cst_10 : tensor<1x256x1280xf32>
    %400 = stablehlo.multiply %399, %393 : tensor<1x256x1280xf32>
    %401 = stablehlo.add %400, %cst_11 : tensor<1x256x1280xf32>
    %402 = stablehlo.multiply %401, %393 : tensor<1x256x1280xf32>
    %403 = stablehlo.add %402, %cst_12 : tensor<1x256x1280xf32>
    %404 = stablehlo.multiply %403, %393 : tensor<1x256x1280xf32>
    %405 = stablehlo.add %404, %cst_13 : tensor<1x256x1280xf32>
    %406 = stablehlo.multiply %cst_14, %393 : tensor<1x256x1280xf32>
    %407 = stablehlo.add %406, %cst_15 : tensor<1x256x1280xf32>
    %408 = stablehlo.multiply %407, %393 : tensor<1x256x1280xf32>
    %409 = stablehlo.add %408, %cst_16 : tensor<1x256x1280xf32>
    %410 = stablehlo.multiply %409, %393 : tensor<1x256x1280xf32>
    %411 = stablehlo.add %410, %cst_17 : tensor<1x256x1280xf32>
    %412 = stablehlo.multiply %411, %393 : tensor<1x256x1280xf32>
    %413 = stablehlo.add %412, %cst_18 : tensor<1x256x1280xf32>
    %414 = stablehlo.multiply %392, %405 : tensor<1x256x1280xf32>
    %415 = stablehlo.divide %414, %413 : tensor<1x256x1280xf32>
    %416 = stablehlo.clamp %cst_19, %415, %cst_20 : tensor<1x256x1280xf32>
    %417 = stablehlo.convert %416 : (tensor<1x256x1280xf32>) -> tensor<1x256x1280xbf16>
    %418 = stablehlo.add %417, %cst_2 : tensor<1x256x1280xbf16>
    %419 = stablehlo.multiply %418, %389 : tensor<1x256x1280xbf16>
    %420 = stablehlo.reshape %419 : (tensor<1x256x1280xbf16>) -> tensor<256x1280xbf16>
    %421 = stablehlo.convert %420 : (tensor<256x1280xbf16>) -> tensor<256x1280xf32>
    %422 = stablehlo.dot_general %421, %arg139, contracting_dims = [1] x [0] : (tensor<256x1280xf32>, tensor<1280x1280xf32>) -> tensor<256x1280xf32>
    %423 = stablehlo.broadcast_in_dim %422, dims = [0, 1] : (tensor<256x1280xf32>) -> tensor<256x1280xf32>
    %424 = stablehlo.multiply %423, %127 : tensor<256x1280xf32>
    %425 = stablehlo.broadcast_in_dim %424, dims = [0, 1] : (tensor<256x1280xf32>) -> tensor<256x1280xf32>
    %426 = stablehlo.broadcast_in_dim %arg140, dims = [1] : (tensor<1280xf32>) -> tensor<256x1280xf32>
    %427 = stablehlo.add %425, %426 : tensor<256x1280xf32>
    %428 = stablehlo.convert %427 : (tensor<256x1280xf32>) -> tensor<256x1280xbf16>
    %429 = stablehlo.reshape %428 : (tensor<256x1280xbf16>) -> tensor<1x256x1280xbf16>
    %430 = stablehlo.add %429, %341 : tensor<1x256x1280xbf16>
    %431 = stablehlo.convert %430 : (tensor<1x256x1280xbf16>) -> tensor<1x256x1280xf32>
    %432 = stablehlo.convert %431 : (tensor<1x256x1280xf32>) -> tensor<1x256x1280xf64>
    %433 = stablehlo.reduce(%432 init: %cst) applies stablehlo.add across dimensions = [2] : (tensor<1x256x1280xf64>, tensor<f64>) -> tensor<1x256xf64>
    %434 = stablehlo.reshape %433 : (tensor<1x256xf64>) -> tensor<1x256x1xf64>
    %435 = stablehlo.broadcast_in_dim %434, dims = [0, 1, 2] : (tensor<1x256x1xf64>) -> tensor<1x256x1xf64>
    %436 = stablehlo.divide %435, %142 : tensor<1x256x1xf64>
    %437 = stablehlo.broadcast_in_dim %432, dims = [0, 1, 2] : (tensor<1x256x1280xf64>) -> tensor<1x256x1280xf64>
    %438 = stablehlo.broadcast_in_dim %436, dims = [0, 1, 2] : (tensor<1x256x1xf64>) -> tensor<1x256x1280xf64>
    %439 = stablehlo.subtract %437, %438 : tensor<1x256x1280xf64>
    %440 = stablehlo.multiply %439, %439 : tensor<1x256x1280xf64>
    %441 = stablehlo.reduce(%440 init: %cst) applies stablehlo.add across dimensions = [2] : (tensor<1x256x1280xf64>, tensor<f64>) -> tensor<1x256xf64>
    %442 = stablehlo.reshape %441 : (tensor<1x256xf64>) -> tensor<1x256x1xf64>
    %443 = stablehlo.broadcast_in_dim %442, dims = [0, 1, 2] : (tensor<1x256x1xf64>) -> tensor<1x256x1xf64>
    %444 = stablehlo.divide %443, %142 : tensor<1x256x1xf64>
    %445 = stablehlo.convert %444 : (tensor<1x256x1xf64>) -> tensor<1x256x1xf32>
    %446 = stablehlo.reduce(%431 init: %cst_0) applies stablehlo.add across dimensions = [2] : (tensor<1x256x1280xf32>, tensor<f32>) -> tensor<1x256xf32>
    %447 = stablehlo.reshape %446 : (tensor<1x256xf32>) -> tensor<1x256x1xf32>
    %448 = stablehlo.broadcast_in_dim %447, dims = [0, 1, 2] : (tensor<1x256x1xf32>) -> tensor<1x256x1xf32>
    %449 = stablehlo.divide %448, %158 : tensor<1x256x1xf32>
    %450 = stablehlo.broadcast_in_dim %445, dims = [0, 1, 2] : (tensor<1x256x1xf32>) -> tensor<1x256x1xf32>
    %451 = stablehlo.add %450, %161 : tensor<1x256x1xf32>
    %452 = stablehlo.rsqrt %451 : tensor<1x256x1xf32>
    %453 = stablehlo.broadcast_in_dim %431, dims = [0, 1, 2] : (tensor<1x256x1280xf32>) -> tensor<1x256x1280xf32>
    %454 = stablehlo.broadcast_in_dim %449, dims = [0, 1, 2] : (tensor<1x256x1xf32>) -> tensor<1x256x1280xf32>
    %455 = stablehlo.subtract %453, %454 : tensor<1x256x1280xf32>
    %456 = stablehlo.broadcast_in_dim %455, dims = [0, 1, 2] : (tensor<1x256x1280xf32>) -> tensor<1x256x1280xf32>
    %457 = stablehlo.broadcast_in_dim %452, dims = [0, 1, 2] : (tensor<1x256x1xf32>) -> tensor<1x256x1280xf32>
    %458 = stablehlo.multiply %456, %457 : tensor<1x256x1280xf32>
    %459 = stablehlo.convert %arg11 : (tensor<1280xbf16>) -> tensor<1280xf32>
    %460 = stablehlo.broadcast_in_dim %458, dims = [0, 1, 2] : (tensor<1x256x1280xf32>) -> tensor<1x256x1280xf32>
    %461 = stablehlo.broadcast_in_dim %459, dims = [2] : (tensor<1280xf32>) -> tensor<1x256x1280xf32>
    %462 = stablehlo.multiply %460, %461 : tensor<1x256x1280xf32>
    %463 = stablehlo.convert %arg12 : (tensor<1280xbf16>) -> tensor<1280xf32>
    %464 = stablehlo.broadcast_in_dim %462, dims = [0, 1, 2] : (tensor<1x256x1280xf32>) -> tensor<1x256x1280xf32>
    %465 = stablehlo.broadcast_in_dim %463, dims = [2] : (tensor<1280xf32>) -> tensor<1x256x1280xf32>
    %466 = stablehlo.add %464, %465 : tensor<1x256x1280xf32>
    %467 = stablehlo.convert %466 : (tensor<1x256x1280xf32>) -> tensor<1x256x1280xbf16>
    %468 = stablehlo.reshape %467 : (tensor<1x256x1280xbf16>) -> tensor<256x1280xbf16>
    %469 = stablehlo.convert %468 : (tensor<256x1280xbf16>) -> tensor<256x1280xf32>
    %470 = stablehlo.dot_general %469, %arg141, contracting_dims = [1] x [0] : (tensor<256x1280xf32>, tensor<1280x256xf32>) -> tensor<256x256xf32>
    %471 = stablehlo.broadcast_in_dim %470, dims = [0, 1] : (tensor<256x256xf32>) -> tensor<256x256xf32>
    %472 = stablehlo.multiply %471, %273 : tensor<256x256xf32>
    %473 = stablehlo.broadcast_in_dim %472, dims = [0, 1] : (tensor<256x256xf32>) -> tensor<256x256xf32>
    %474 = stablehlo.broadcast_in_dim %arg142, dims = [1] : (tensor<256xf32>) -> tensor<256x256xf32>
    %475 = stablehlo.add %473, %474 : tensor<256x256xf32>
    %476 = stablehlo.convert %475 : (tensor<256x256xf32>) -> tensor<256x256xbf16>
    %477 = stablehlo.reshape %476 : (tensor<256x256xbf16>) -> tensor<1x256x256xbf16>
    %478 = stablehlo.dot_general %469, %arg143, contracting_dims = [1] x [0] : (tensor<256x1280xf32>, tensor<1280x256xf32>) -> tensor<256x256xf32>
    %479 = stablehlo.broadcast_in_dim %478, dims = [0, 1] : (tensor<256x256xf32>) -> tensor<256x256xf32>
    %480 = stablehlo.multiply %479, %273 : tensor<256x256xf32>
    %481 = stablehlo.broadcast_in_dim %480, dims = [0, 1] : (tensor<256x256xf32>) -> tensor<256x256xf32>
    %482 = stablehlo.broadcast_in_dim %arg144, dims = [1] : (tensor<256xf32>) -> tensor<256x256xf32>
    %483 = stablehlo.add %481, %482 : tensor<256x256xf32>
    %484 = stablehlo.convert %483 : (tensor<256x256xf32>) -> tensor<256x256xbf16>
    %485 = stablehlo.reshape %484 : (tensor<256x256xbf16>) -> tensor<1x256x256xbf16>
    %486 = stablehlo.dot_general %469, %arg145, contracting_dims = [1] x [0] : (tensor<256x1280xf32>, tensor<1280x1280xf32>) -> tensor<256x1280xf32>
    %487 = stablehlo.broadcast_in_dim %486, dims = [0, 1] : (tensor<256x1280xf32>) -> tensor<256x1280xf32>
    %488 = stablehlo.multiply %487, %127 : tensor<256x1280xf32>
    %489 = stablehlo.broadcast_in_dim %488, dims = [0, 1] : (tensor<256x1280xf32>) -> tensor<256x1280xf32>
    %490 = stablehlo.broadcast_in_dim %arg146, dims = [1] : (tensor<1280xf32>) -> tensor<256x1280xf32>
    %491 = stablehlo.add %489, %490 : tensor<256x1280xf32>
    %492 = stablehlo.convert %491 : (tensor<256x1280xf32>) -> tensor<256x1280xbf16>
    %493 = stablehlo.reshape %492 : (tensor<256x1280xbf16>) -> tensor<1x256x1280xbf16>
    %494 = stablehlo.reshape %477 : (tensor<1x256x256xbf16>) -> tensor<1x256x8x32xbf16>
    %495 = stablehlo.transpose %494, dims = [0, 2, 1, 3] : (tensor<1x256x8x32xbf16>) -> tensor<1x8x256x32xbf16>
    %496 = stablehlo.reshape %485 : (tensor<1x256x256xbf16>) -> tensor<1x256x8x32xbf16>
    %497 = stablehlo.transpose %496, dims = [0, 2, 1, 3] : (tensor<1x256x8x32xbf16>) -> tensor<1x8x256x32xbf16>
    %498 = stablehlo.reshape %493 : (tensor<1x256x1280xbf16>) -> tensor<1x256x8x160xbf16>
    %499 = stablehlo.transpose %498, dims = [0, 2, 1, 3] : (tensor<1x256x8x160xbf16>) -> tensor<1x8x256x160xbf16>
    %500 = stablehlo.transpose %497, dims = [0, 1, 3, 2] : (tensor<1x8x256x32xbf16>) -> tensor<1x8x32x256xbf16>
    %501 = stablehlo.reshape %495 : (tensor<1x8x256x32xbf16>) -> tensor<8x256x32xbf16>
    %502 = stablehlo.reshape %500 : (tensor<1x8x32x256xbf16>) -> tensor<8x32x256xbf16>
    %503 = stablehlo.broadcast_in_dim %502, dims = [0, 1, 2] : (tensor<8x32x256xbf16>) -> tensor<8x32x256xbf16>
    %504 = stablehlo.dot_general %501, %503, batching_dims = [0] x [0], contracting_dims = [2] x [1] : (tensor<8x256x32xbf16>, tensor<8x32x256xbf16>) -> tensor<8x256x256xbf16>
    %505 = stablehlo.reshape %504 : (tensor<8x256x256xbf16>) -> tensor<1x8x256x256xbf16>
    %506 = stablehlo.broadcast_in_dim %505, dims = [0, 1, 2, 3] : (tensor<1x8x256x256xbf16>) -> tensor<1x8x256x256xbf16>
    %507 = stablehlo.divide %506, %309 : tensor<1x8x256x256xbf16>
    %508 = stablehlo.convert %507 : (tensor<1x8x256x256xbf16>) -> tensor<1x8x256x256xf32>
    %509 = stablehlo.reduce(%508 init: %cst_1) applies stablehlo.maximum across dimensions = [3] : (tensor<1x8x256x256xf32>, tensor<f32>) -> tensor<1x8x256xf32>
    %510 = stablehlo.reshape %509 : (tensor<1x8x256xf32>) -> tensor<1x8x256x1xf32>
    %511 = stablehlo.broadcast_in_dim %508, dims = [0, 1, 2, 3] : (tensor<1x8x256x256xf32>) -> tensor<1x8x256x256xf32>
    %512 = stablehlo.broadcast_in_dim %510, dims = [0, 1, 2, 3] : (tensor<1x8x256x1xf32>) -> tensor<1x8x256x256xf32>
    %513 = stablehlo.subtract %511, %512 : tensor<1x8x256x256xf32>
    %514 = stablehlo.exponential %513 : tensor<1x8x256x256xf32>
    %515 = stablehlo.reduce(%514 init: %cst_0) applies stablehlo.add across dimensions = [3] : (tensor<1x8x256x256xf32>, tensor<f32>) -> tensor<1x8x256xf32>
    %516 = stablehlo.reshape %515 : (tensor<1x8x256xf32>) -> tensor<1x8x256x1xf32>
    %517 = stablehlo.broadcast_in_dim %514, dims = [0, 1, 2, 3] : (tensor<1x8x256x256xf32>) -> tensor<1x8x256x256xf32>
    %518 = stablehlo.broadcast_in_dim %516, dims = [0, 1, 2, 3] : (tensor<1x8x256x1xf32>) -> tensor<1x8x256x256xf32>
    %519 = stablehlo.divide %517, %518 : tensor<1x8x256x256xf32>
    %520 = stablehlo.convert %519 : (tensor<1x8x256x256xf32>) -> tensor<1x8x256x256xbf16>
    %521 = stablehlo.reshape %520 : (tensor<1x8x256x256xbf16>) -> tensor<8x256x256xbf16>
    %522 = stablehlo.reshape %499 : (tensor<1x8x256x160xbf16>) -> tensor<8x256x160xbf16>
    %523 = stablehlo.broadcast_in_dim %522, dims = [0, 1, 2] : (tensor<8x256x160xbf16>) -> tensor<8x256x160xbf16>
    %524 = stablehlo.dot_general %521, %523, batching_dims = [0] x [0], contracting_dims = [2] x [1] : (tensor<8x256x256xbf16>, tensor<8x256x160xbf16>) -> tensor<8x256x160xbf16>
    %525 = stablehlo.reshape %524 : (tensor<8x256x160xbf16>) -> tensor<1x8x256x160xbf16>
    %526 = stablehlo.transpose %525, dims = [0, 2, 1, 3] : (tensor<1x8x256x160xbf16>) -> tensor<1x256x8x160xbf16>
    %527 = stablehlo.reshape %526 : (tensor<1x256x8x160xbf16>) -> tensor<1x256x1280xbf16>
    %528 = stablehlo.reshape %527 : (tensor<1x256x1280xbf16>) -> tensor<256x1280xbf16>
    %529 = stablehlo.convert %528 : (tensor<256x1280xbf16>) -> tensor<256x1280xf32>
    %530 = stablehlo.dot_general %529, %arg147, contracting_dims = [1] x [0] : (tensor<256x1280xf32>, tensor<1280x1280xf32>) -> tensor<256x1280xf32>
    %531 = stablehlo.broadcast_in_dim %530, dims = [0, 1] : (tensor<256x1280xf32>) -> tensor<256x1280xf32>
    %532 = stablehlo.multiply %531, %127 : tensor<256x1280xf32>
    %533 = stablehlo.broadcast_in_dim %532, dims = [0, 1] : (tensor<256x1280xf32>) -> tensor<256x1280xf32>
    %534 = stablehlo.broadcast_in_dim %arg148, dims = [1] : (tensor<1280xf32>) -> tensor<256x1280xf32>
    %535 = stablehlo.add %533, %534 : tensor<256x1280xf32>
    %536 = stablehlo.convert %535 : (tensor<256x1280xf32>) -> tensor<256x1280xbf16>
    %537 = stablehlo.reshape %536 : (tensor<256x1280xbf16>) -> tensor<1x256x1280xbf16>
    %538 = stablehlo.add %537, %430 : tensor<1x256x1280xbf16>
    %539 = stablehlo.convert %538 : (tensor<1x256x1280xbf16>) -> tensor<1x256x1280xf32>
    %540 = stablehlo.convert %539 : (tensor<1x256x1280xf32>) -> tensor<1x256x1280xf64>
    %541 = stablehlo.reduce(%540 init: %cst) applies stablehlo.add across dimensions = [2] : (tensor<1x256x1280xf64>, tensor<f64>) -> tensor<1x256xf64>
    %542 = stablehlo.reshape %541 : (tensor<1x256xf64>) -> tensor<1x256x1xf64>
    %543 = stablehlo.broadcast_in_dim %542, dims = [0, 1, 2] : (tensor<1x256x1xf64>) -> tensor<1x256x1xf64>
    %544 = stablehlo.divide %543, %142 : tensor<1x256x1xf64>
    %545 = stablehlo.broadcast_in_dim %540, dims = [0, 1, 2] : (tensor<1x256x1280xf64>) -> tensor<1x256x1280xf64>
    %546 = stablehlo.broadcast_in_dim %544, dims = [0, 1, 2] : (tensor<1x256x1xf64>) -> tensor<1x256x1280xf64>
    %547 = stablehlo.subtract %545, %546 : tensor<1x256x1280xf64>
    %548 = stablehlo.multiply %547, %547 : tensor<1x256x1280xf64>
    %549 = stablehlo.reduce(%548 init: %cst) applies stablehlo.add across dimensions = [2] : (tensor<1x256x1280xf64>, tensor<f64>) -> tensor<1x256xf64>
    %550 = stablehlo.reshape %549 : (tensor<1x256xf64>) -> tensor<1x256x1xf64>
    %551 = stablehlo.broadcast_in_dim %550, dims = [0, 1, 2] : (tensor<1x256x1xf64>) -> tensor<1x256x1xf64>
    %552 = stablehlo.divide %551, %142 : tensor<1x256x1xf64>
    %553 = stablehlo.convert %552 : (tensor<1x256x1xf64>) -> tensor<1x256x1xf32>
    %554 = stablehlo.reduce(%539 init: %cst_0) applies stablehlo.add across dimensions = [2] : (tensor<1x256x1280xf32>, tensor<f32>) -> tensor<1x256xf32>
    %555 = stablehlo.reshape %554 : (tensor<1x256xf32>) -> tensor<1x256x1xf32>
    %556 = stablehlo.broadcast_in_dim %555, dims = [0, 1, 2] : (tensor<1x256x1xf32>) -> tensor<1x256x1xf32>
    %557 = stablehlo.divide %556, %158 : tensor<1x256x1xf32>
    %558 = stablehlo.broadcast_in_dim %553, dims = [0, 1, 2] : (tensor<1x256x1xf32>) -> tensor<1x256x1xf32>
    %559 = stablehlo.add %558, %161 : tensor<1x256x1xf32>
    %560 = stablehlo.rsqrt %559 : tensor<1x256x1xf32>
    %561 = stablehlo.broadcast_in_dim %539, dims = [0, 1, 2] : (tensor<1x256x1280xf32>) -> tensor<1x256x1280xf32>
    %562 = stablehlo.broadcast_in_dim %557, dims = [0, 1, 2] : (tensor<1x256x1xf32>) -> tensor<1x256x1280xf32>
    %563 = stablehlo.subtract %561, %562 : tensor<1x256x1280xf32>
    %564 = stablehlo.broadcast_in_dim %563, dims = [0, 1, 2] : (tensor<1x256x1280xf32>) -> tensor<1x256x1280xf32>
    %565 = stablehlo.broadcast_in_dim %560, dims = [0, 1, 2] : (tensor<1x256x1xf32>) -> tensor<1x256x1280xf32>
    %566 = stablehlo.multiply %564, %565 : tensor<1x256x1280xf32>
    %567 = stablehlo.convert %arg13 : (tensor<1280xbf16>) -> tensor<1280xf32>
    %568 = stablehlo.broadcast_in_dim %566, dims = [0, 1, 2] : (tensor<1x256x1280xf32>) -> tensor<1x256x1280xf32>
    %569 = stablehlo.broadcast_in_dim %567, dims = [2] : (tensor<1280xf32>) -> tensor<1x256x1280xf32>
    %570 = stablehlo.multiply %568, %569 : tensor<1x256x1280xf32>
    %571 = stablehlo.convert %arg14 : (tensor<1280xbf16>) -> tensor<1280xf32>
    %572 = stablehlo.broadcast_in_dim %570, dims = [0, 1, 2] : (tensor<1x256x1280xf32>) -> tensor<1x256x1280xf32>
    %573 = stablehlo.broadcast_in_dim %571, dims = [2] : (tensor<1280xf32>) -> tensor<1x256x1280xf32>
    %574 = stablehlo.add %572, %573 : tensor<1x256x1280xf32>
    %575 = stablehlo.convert %574 : (tensor<1x256x1280xf32>) -> tensor<1x256x1280xbf16>
    %576 = stablehlo.reshape %575 : (tensor<1x256x1280xbf16>) -> tensor<256x1280xbf16>
    %577 = stablehlo.convert %576 : (tensor<256x1280xbf16>) -> tensor<256x1280xf32>
    %578 = stablehlo.dot_general %577, %arg149, contracting_dims = [1] x [0] : (tensor<256x1280xf32>, tensor<1280x1280xf32>) -> tensor<256x1280xf32>
    %579 = stablehlo.broadcast_in_dim %578, dims = [0, 1] : (tensor<256x1280xf32>) -> tensor<256x1280xf32>
    %580 = stablehlo.multiply %579, %127 : tensor<256x1280xf32>
    %581 = stablehlo.broadcast_in_dim %580, dims = [0, 1] : (tensor<256x1280xf32>) -> tensor<256x1280xf32>
    %582 = stablehlo.broadcast_in_dim %arg150, dims = [1] : (tensor<1280xf32>) -> tensor<256x1280xf32>
    %583 = stablehlo.add %581, %582 : tensor<256x1280xf32>
    %584 = stablehlo.convert %583 : (tensor<256x1280xf32>) -> tensor<256x1280xbf16>
    %585 = stablehlo.reshape %584 : (tensor<256x1280xbf16>) -> tensor<1x256x1280xbf16>
    %586 = stablehlo.multiply %585, %cst_4 : tensor<1x256x1280xbf16>
    %587 = stablehlo.multiply %585, %190 : tensor<1x256x1280xbf16>
    %588 = stablehlo.convert %587 : (tensor<1x256x1280xbf16>) -> tensor<1x256x1280xf32>
    %589 = stablehlo.clamp %cst_5, %588, %cst_6 : tensor<1x256x1280xf32>
    %590 = stablehlo.multiply %589, %589 : tensor<1x256x1280xf32>
    %591 = stablehlo.multiply %cst_7, %590 : tensor<1x256x1280xf32>
    %592 = stablehlo.add %591, %cst_8 : tensor<1x256x1280xf32>
    %593 = stablehlo.multiply %592, %590 : tensor<1x256x1280xf32>
    %594 = stablehlo.add %593, %cst_9 : tensor<1x256x1280xf32>
    %595 = stablehlo.multiply %594, %590 : tensor<1x256x1280xf32>
    %596 = stablehlo.add %595, %cst_10 : tensor<1x256x1280xf32>
    %597 = stablehlo.multiply %596, %590 : tensor<1x256x1280xf32>
    %598 = stablehlo.add %597, %cst_11 : tensor<1x256x1280xf32>
    %599 = stablehlo.multiply %598, %590 : tensor<1x256x1280xf32>
    %600 = stablehlo.add %599, %cst_12 : tensor<1x256x1280xf32>
    %601 = stablehlo.multiply %600, %590 : tensor<1x256x1280xf32>
    %602 = stablehlo.add %601, %cst_13 : tensor<1x256x1280xf32>
    %603 = stablehlo.multiply %cst_14, %590 : tensor<1x256x1280xf32>
    %604 = stablehlo.add %603, %cst_15 : tensor<1x256x1280xf32>
    %605 = stablehlo.multiply %604, %590 : tensor<1x256x1280xf32>
    %606 = stablehlo.add %605, %cst_16 : tensor<1x256x1280xf32>
    %607 = stablehlo.multiply %606, %590 : tensor<1x256x1280xf32>
    %608 = stablehlo.add %607, %cst_17 : tensor<1x256x1280xf32>
    %609 = stablehlo.multiply %608, %590 : tensor<1x256x1280xf32>
    %610 = stablehlo.add %609, %cst_18 : tensor<1x256x1280xf32>
    %611 = stablehlo.multiply %589, %602 : tensor<1x256x1280xf32>
    %612 = stablehlo.divide %611, %610 : tensor<1x256x1280xf32>
    %613 = stablehlo.clamp %cst_19, %612, %cst_20 : tensor<1x256x1280xf32>
    %614 = stablehlo.convert %613 : (tensor<1x256x1280xf32>) -> tensor<1x256x1280xbf16>
    %615 = stablehlo.add %614, %cst_2 : tensor<1x256x1280xbf16>
    %616 = stablehlo.multiply %615, %586 : tensor<1x256x1280xbf16>
    %617 = stablehlo.reshape %616 : (tensor<1x256x1280xbf16>) -> tensor<256x1280xbf16>
    %618 = stablehlo.convert %617 : (tensor<256x1280xbf16>) -> tensor<256x1280xf32>
    %619 = stablehlo.dot_general %618, %arg151, contracting_dims = [1] x [0] : (tensor<256x1280xf32>, tensor<1280x1280xf32>) -> tensor<256x1280xf32>
    %620 = stablehlo.broadcast_in_dim %619, dims = [0, 1] : (tensor<256x1280xf32>) -> tensor<256x1280xf32>
    %621 = stablehlo.multiply %620, %127 : tensor<256x1280xf32>
    %622 = stablehlo.broadcast_in_dim %621, dims = [0, 1] : (tensor<256x1280xf32>) -> tensor<256x1280xf32>
    %623 = stablehlo.broadcast_in_dim %arg152, dims = [1] : (tensor<1280xf32>) -> tensor<256x1280xf32>
    %624 = stablehlo.add %622, %623 : tensor<256x1280xf32>
    %625 = stablehlo.convert %624 : (tensor<256x1280xf32>) -> tensor<256x1280xbf16>
    %626 = stablehlo.reshape %625 : (tensor<256x1280xbf16>) -> tensor<1x256x1280xbf16>
    %627 = stablehlo.add %626, %538 : tensor<1x256x1280xbf16>
    %628 = stablehlo.convert %627 : (tensor<1x256x1280xbf16>) -> tensor<1x256x1280xf32>
    %629 = stablehlo.convert %628 : (tensor<1x256x1280xf32>) -> tensor<1x256x1280xf64>
    %630 = stablehlo.reduce(%629 init: %cst) applies stablehlo.add across dimensions = [2] : (tensor<1x256x1280xf64>, tensor<f64>) -> tensor<1x256xf64>
    %631 = stablehlo.reshape %630 : (tensor<1x256xf64>) -> tensor<1x256x1xf64>
    %632 = stablehlo.broadcast_in_dim %631, dims = [0, 1, 2] : (tensor<1x256x1xf64>) -> tensor<1x256x1xf64>
    %633 = stablehlo.divide %632, %142 : tensor<1x256x1xf64>
    %634 = stablehlo.broadcast_in_dim %629, dims = [0, 1, 2] : (tensor<1x256x1280xf64>) -> tensor<1x256x1280xf64>
    %635 = stablehlo.broadcast_in_dim %633, dims = [0, 1, 2] : (tensor<1x256x1xf64>) -> tensor<1x256x1280xf64>
    %636 = stablehlo.subtract %634, %635 : tensor<1x256x1280xf64>
    %637 = stablehlo.multiply %636, %636 : tensor<1x256x1280xf64>
    %638 = stablehlo.reduce(%637 init: %cst) applies stablehlo.add across dimensions = [2] : (tensor<1x256x1280xf64>, tensor<f64>) -> tensor<1x256xf64>
    %639 = stablehlo.reshape %638 : (tensor<1x256xf64>) -> tensor<1x256x1xf64>
    %640 = stablehlo.broadcast_in_dim %639, dims = [0, 1, 2] : (tensor<1x256x1xf64>) -> tensor<1x256x1xf64>
    %641 = stablehlo.divide %640, %142 : tensor<1x256x1xf64>
    %642 = stablehlo.convert %641 : (tensor<1x256x1xf64>) -> tensor<1x256x1xf32>
    %643 = stablehlo.reduce(%628 init: %cst_0) applies stablehlo.add across dimensions = [2] : (tensor<1x256x1280xf32>, tensor<f32>) -> tensor<1x256xf32>
    %644 = stablehlo.reshape %643 : (tensor<1x256xf32>) -> tensor<1x256x1xf32>
    %645 = stablehlo.broadcast_in_dim %644, dims = [0, 1, 2] : (tensor<1x256x1xf32>) -> tensor<1x256x1xf32>
    %646 = stablehlo.divide %645, %158 : tensor<1x256x1xf32>
    %647 = stablehlo.broadcast_in_dim %642, dims = [0, 1, 2] : (tensor<1x256x1xf32>) -> tensor<1x256x1xf32>
    %648 = stablehlo.add %647, %161 : tensor<1x256x1xf32>
    %649 = stablehlo.rsqrt %648 : tensor<1x256x1xf32>
    %650 = stablehlo.broadcast_in_dim %628, dims = [0, 1, 2] : (tensor<1x256x1280xf32>) -> tensor<1x256x1280xf32>
    %651 = stablehlo.broadcast_in_dim %646, dims = [0, 1, 2] : (tensor<1x256x1xf32>) -> tensor<1x256x1280xf32>
    %652 = stablehlo.subtract %650, %651 : tensor<1x256x1280xf32>
    %653 = stablehlo.broadcast_in_dim %652, dims = [0, 1, 2] : (tensor<1x256x1280xf32>) -> tensor<1x256x1280xf32>
    %654 = stablehlo.broadcast_in_dim %649, dims = [0, 1, 2] : (tensor<1x256x1xf32>) -> tensor<1x256x1280xf32>
    %655 = stablehlo.multiply %653, %654 : tensor<1x256x1280xf32>
    %656 = stablehlo.convert %arg15 : (tensor<1280xbf16>) -> tensor<1280xf32>
    %657 = stablehlo.broadcast_in_dim %655, dims = [0, 1, 2] : (tensor<1x256x1280xf32>) -> tensor<1x256x1280xf32>
    %658 = stablehlo.broadcast_in_dim %656, dims = [2] : (tensor<1280xf32>) -> tensor<1x256x1280xf32>
    %659 = stablehlo.multiply %657, %658 : tensor<1x256x1280xf32>
    %660 = stablehlo.convert %arg16 : (tensor<1280xbf16>) -> tensor<1280xf32>
    %661 = stablehlo.broadcast_in_dim %659, dims = [0, 1, 2] : (tensor<1x256x1280xf32>) -> tensor<1x256x1280xf32>
    %662 = stablehlo.broadcast_in_dim %660, dims = [2] : (tensor<1280xf32>) -> tensor<1x256x1280xf32>
    %663 = stablehlo.add %661, %662 : tensor<1x256x1280xf32>
    %664 = stablehlo.convert %663 : (tensor<1x256x1280xf32>) -> tensor<1x256x1280xbf16>
    %665 = stablehlo.reshape %664 : (tensor<1x256x1280xbf16>) -> tensor<256x1280xbf16>
    %666 = stablehlo.convert %665 : (tensor<256x1280xbf16>) -> tensor<256x1280xf32>
    %667 = stablehlo.dot_general %666, %arg153, contracting_dims = [1] x [0] : (tensor<256x1280xf32>, tensor<1280x256xf32>) -> tensor<256x256xf32>
    %668 = stablehlo.broadcast_in_dim %667, dims = [0, 1] : (tensor<256x256xf32>) -> tensor<256x256xf32>
    %669 = stablehlo.multiply %668, %273 : tensor<256x256xf32>
    %670 = stablehlo.broadcast_in_dim %669, dims = [0, 1] : (tensor<256x256xf32>) -> tensor<256x256xf32>
    %671 = stablehlo.broadcast_in_dim %arg154, dims = [1] : (tensor<256xf32>) -> tensor<256x256xf32>
    %672 = stablehlo.add %670, %671 : tensor<256x256xf32>
    %673 = stablehlo.convert %672 : (tensor<256x256xf32>) -> tensor<256x256xbf16>
    %674 = stablehlo.reshape %673 : (tensor<256x256xbf16>) -> tensor<1x256x256xbf16>
    %675 = stablehlo.dot_general %666, %arg155, contracting_dims = [1] x [0] : (tensor<256x1280xf32>, tensor<1280x256xf32>) -> tensor<256x256xf32>
    %676 = stablehlo.broadcast_in_dim %675, dims = [0, 1] : (tensor<256x256xf32>) -> tensor<256x256xf32>
    %677 = stablehlo.multiply %676, %273 : tensor<256x256xf32>
    %678 = stablehlo.broadcast_in_dim %677, dims = [0, 1] : (tensor<256x256xf32>) -> tensor<256x256xf32>
    %679 = stablehlo.broadcast_in_dim %arg156, dims = [1] : (tensor<256xf32>) -> tensor<256x256xf32>
    %680 = stablehlo.add %678, %679 : tensor<256x256xf32>
    %681 = stablehlo.convert %680 : (tensor<256x256xf32>) -> tensor<256x256xbf16>
    %682 = stablehlo.reshape %681 : (tensor<256x256xbf16>) -> tensor<1x256x256xbf16>
    %683 = stablehlo.dot_general %666, %arg157, contracting_dims = [1] x [0] : (tensor<256x1280xf32>, tensor<1280x1280xf32>) -> tensor<256x1280xf32>
    %684 = stablehlo.broadcast_in_dim %683, dims = [0, 1] : (tensor<256x1280xf32>) -> tensor<256x1280xf32>
    %685 = stablehlo.multiply %684, %127 : tensor<256x1280xf32>
    %686 = stablehlo.broadcast_in_dim %685, dims = [0, 1] : (tensor<256x1280xf32>) -> tensor<256x1280xf32>
    %687 = stablehlo.broadcast_in_dim %arg158, dims = [1] : (tensor<1280xf32>) -> tensor<256x1280xf32>
    %688 = stablehlo.add %686, %687 : tensor<256x1280xf32>
    %689 = stablehlo.convert %688 : (tensor<256x1280xf32>) -> tensor<256x1280xbf16>
    %690 = stablehlo.reshape %689 : (tensor<256x1280xbf16>) -> tensor<1x256x1280xbf16>
    %691 = stablehlo.reshape %674 : (tensor<1x256x256xbf16>) -> tensor<1x256x8x32xbf16>
    %692 = stablehlo.transpose %691, dims = [0, 2, 1, 3] : (tensor<1x256x8x32xbf16>) -> tensor<1x8x256x32xbf16>
    %693 = stablehlo.reshape %682 : (tensor<1x256x256xbf16>) -> tensor<1x256x8x32xbf16>
    %694 = stablehlo.transpose %693, dims = [0, 2, 1, 3] : (tensor<1x256x8x32xbf16>) -> tensor<1x8x256x32xbf16>
    %695 = stablehlo.reshape %690 : (tensor<1x256x1280xbf16>) -> tensor<1x256x8x160xbf16>
    %696 = stablehlo.transpose %695, dims = [0, 2, 1, 3] : (tensor<1x256x8x160xbf16>) -> tensor<1x8x256x160xbf16>
    %697 = stablehlo.transpose %694, dims = [0, 1, 3, 2] : (tensor<1x8x256x32xbf16>) -> tensor<1x8x32x256xbf16>
    %698 = stablehlo.reshape %692 : (tensor<1x8x256x32xbf16>) -> tensor<8x256x32xbf16>
    %699 = stablehlo.reshape %697 : (tensor<1x8x32x256xbf16>) -> tensor<8x32x256xbf16>
    %700 = stablehlo.broadcast_in_dim %699, dims = [0, 1, 2] : (tensor<8x32x256xbf16>) -> tensor<8x32x256xbf16>
    %701 = stablehlo.dot_general %698, %700, batching_dims = [0] x [0], contracting_dims = [2] x [1] : (tensor<8x256x32xbf16>, tensor<8x32x256xbf16>) -> tensor<8x256x256xbf16>
    %702 = stablehlo.reshape %701 : (tensor<8x256x256xbf16>) -> tensor<1x8x256x256xbf16>
    %703 = stablehlo.broadcast_in_dim %702, dims = [0, 1, 2, 3] : (tensor<1x8x256x256xbf16>) -> tensor<1x8x256x256xbf16>
    %704 = stablehlo.divide %703, %309 : tensor<1x8x256x256xbf16>
    %705 = stablehlo.convert %704 : (tensor<1x8x256x256xbf16>) -> tensor<1x8x256x256xf32>
    %706 = stablehlo.reduce(%705 init: %cst_1) applies stablehlo.maximum across dimensions = [3] : (tensor<1x8x256x256xf32>, tensor<f32>) -> tensor<1x8x256xf32>
    %707 = stablehlo.reshape %706 : (tensor<1x8x256xf32>) -> tensor<1x8x256x1xf32>
    %708 = stablehlo.broadcast_in_dim %705, dims = [0, 1, 2, 3] : (tensor<1x8x256x256xf32>) -> tensor<1x8x256x256xf32>
    %709 = stablehlo.broadcast_in_dim %707, dims = [0, 1, 2, 3] : (tensor<1x8x256x1xf32>) -> tensor<1x8x256x256xf32>
    %710 = stablehlo.subtract %708, %709 : tensor<1x8x256x256xf32>
    %711 = stablehlo.exponential %710 : tensor<1x8x256x256xf32>
    %712 = stablehlo.reduce(%711 init: %cst_0) applies stablehlo.add across dimensions = [3] : (tensor<1x8x256x256xf32>, tensor<f32>) -> tensor<1x8x256xf32>
    %713 = stablehlo.reshape %712 : (tensor<1x8x256xf32>) -> tensor<1x8x256x1xf32>
    %714 = stablehlo.broadcast_in_dim %711, dims = [0, 1, 2, 3] : (tensor<1x8x256x256xf32>) -> tensor<1x8x256x256xf32>
    %715 = stablehlo.broadcast_in_dim %713, dims = [0, 1, 2, 3] : (tensor<1x8x256x1xf32>) -> tensor<1x8x256x256xf32>
    %716 = stablehlo.divide %714, %715 : tensor<1x8x256x256xf32>
    %717 = stablehlo.convert %716 : (tensor<1x8x256x256xf32>) -> tensor<1x8x256x256xbf16>
    %718 = stablehlo.reshape %717 : (tensor<1x8x256x256xbf16>) -> tensor<8x256x256xbf16>
    %719 = stablehlo.reshape %696 : (tensor<1x8x256x160xbf16>) -> tensor<8x256x160xbf16>
    %720 = stablehlo.broadcast_in_dim %719, dims = [0, 1, 2] : (tensor<8x256x160xbf16>) -> tensor<8x256x160xbf16>
    %721 = stablehlo.dot_general %718, %720, batching_dims = [0] x [0], contracting_dims = [2] x [1] : (tensor<8x256x256xbf16>, tensor<8x256x160xbf16>) -> tensor<8x256x160xbf16>
    %722 = stablehlo.reshape %721 : (tensor<8x256x160xbf16>) -> tensor<1x8x256x160xbf16>
    %723 = stablehlo.transpose %722, dims = [0, 2, 1, 3] : (tensor<1x8x256x160xbf16>) -> tensor<1x256x8x160xbf16>
    %724 = stablehlo.reshape %723 : (tensor<1x256x8x160xbf16>) -> tensor<1x256x1280xbf16>
    %725 = stablehlo.reshape %724 : (tensor<1x256x1280xbf16>) -> tensor<256x1280xbf16>
    %726 = stablehlo.convert %725 : (tensor<256x1280xbf16>) -> tensor<256x1280xf32>
    %727 = stablehlo.dot_general %726, %arg159, contracting_dims = [1] x [0] : (tensor<256x1280xf32>, tensor<1280x1280xf32>) -> tensor<256x1280xf32>
    %728 = stablehlo.broadcast_in_dim %727, dims = [0, 1] : (tensor<256x1280xf32>) -> tensor<256x1280xf32>
    %729 = stablehlo.multiply %728, %127 : tensor<256x1280xf32>
    %730 = stablehlo.broadcast_in_dim %729, dims = [0, 1] : (tensor<256x1280xf32>) -> tensor<256x1280xf32>
    %731 = stablehlo.broadcast_in_dim %arg160, dims = [1] : (tensor<1280xf32>) -> tensor<256x1280xf32>
    %732 = stablehlo.add %730, %731 : tensor<256x1280xf32>
    %733 = stablehlo.convert %732 : (tensor<256x1280xf32>) -> tensor<256x1280xbf16>
    %734 = stablehlo.reshape %733 : (tensor<256x1280xbf16>) -> tensor<1x256x1280xbf16>
    %735 = stablehlo.add %734, %627 : tensor<1x256x1280xbf16>
    %736 = stablehlo.convert %735 : (tensor<1x256x1280xbf16>) -> tensor<1x256x1280xf32>
    %737 = stablehlo.convert %736 : (tensor<1x256x1280xf32>) -> tensor<1x256x1280xf64>
    %738 = stablehlo.reduce(%737 init: %cst) applies stablehlo.add across dimensions = [2] : (tensor<1x256x1280xf64>, tensor<f64>) -> tensor<1x256xf64>
    %739 = stablehlo.reshape %738 : (tensor<1x256xf64>) -> tensor<1x256x1xf64>
    %740 = stablehlo.broadcast_in_dim %739, dims = [0, 1, 2] : (tensor<1x256x1xf64>) -> tensor<1x256x1xf64>
    %741 = stablehlo.divide %740, %142 : tensor<1x256x1xf64>
    %742 = stablehlo.broadcast_in_dim %737, dims = [0, 1, 2] : (tensor<1x256x1280xf64>) -> tensor<1x256x1280xf64>
    %743 = stablehlo.broadcast_in_dim %741, dims = [0, 1, 2] : (tensor<1x256x1xf64>) -> tensor<1x256x1280xf64>
    %744 = stablehlo.subtract %742, %743 : tensor<1x256x1280xf64>
    %745 = stablehlo.multiply %744, %744 : tensor<1x256x1280xf64>
    %746 = stablehlo.reduce(%745 init: %cst) applies stablehlo.add across dimensions = [2] : (tensor<1x256x1280xf64>, tensor<f64>) -> tensor<1x256xf64>
    %747 = stablehlo.reshape %746 : (tensor<1x256xf64>) -> tensor<1x256x1xf64>
    %748 = stablehlo.broadcast_in_dim %747, dims = [0, 1, 2] : (tensor<1x256x1xf64>) -> tensor<1x256x1xf64>
    %749 = stablehlo.divide %748, %142 : tensor<1x256x1xf64>
    %750 = stablehlo.convert %749 : (tensor<1x256x1xf64>) -> tensor<1x256x1xf32>
    %751 = stablehlo.reduce(%736 init: %cst_0) applies stablehlo.add across dimensions = [2] : (tensor<1x256x1280xf32>, tensor<f32>) -> tensor<1x256xf32>
    %752 = stablehlo.reshape %751 : (tensor<1x256xf32>) -> tensor<1x256x1xf32>
    %753 = stablehlo.broadcast_in_dim %752, dims = [0, 1, 2] : (tensor<1x256x1xf32>) -> tensor<1x256x1xf32>
    %754 = stablehlo.divide %753, %158 : tensor<1x256x1xf32>
    %755 = stablehlo.broadcast_in_dim %750, dims = [0, 1, 2] : (tensor<1x256x1xf32>) -> tensor<1x256x1xf32>
    %756 = stablehlo.add %755, %161 : tensor<1x256x1xf32>
    %757 = stablehlo.rsqrt %756 : tensor<1x256x1xf32>
    %758 = stablehlo.broadcast_in_dim %736, dims = [0, 1, 2] : (tensor<1x256x1280xf32>) -> tensor<1x256x1280xf32>
    %759 = stablehlo.broadcast_in_dim %754, dims = [0, 1, 2] : (tensor<1x256x1xf32>) -> tensor<1x256x1280xf32>
    %760 = stablehlo.subtract %758, %759 : tensor<1x256x1280xf32>
    %761 = stablehlo.broadcast_in_dim %760, dims = [0, 1, 2] : (tensor<1x256x1280xf32>) -> tensor<1x256x1280xf32>
    %762 = stablehlo.broadcast_in_dim %757, dims = [0, 1, 2] : (tensor<1x256x1xf32>) -> tensor<1x256x1280xf32>
    %763 = stablehlo.multiply %761, %762 : tensor<1x256x1280xf32>
    %764 = stablehlo.convert %arg17 : (tensor<1280xbf16>) -> tensor<1280xf32>
    %765 = stablehlo.broadcast_in_dim %763, dims = [0, 1, 2] : (tensor<1x256x1280xf32>) -> tensor<1x256x1280xf32>
    %766 = stablehlo.broadcast_in_dim %764, dims = [2] : (tensor<1280xf32>) -> tensor<1x256x1280xf32>
    %767 = stablehlo.multiply %765, %766 : tensor<1x256x1280xf32>
    %768 = stablehlo.convert %arg18 : (tensor<1280xbf16>) -> tensor<1280xf32>
    %769 = stablehlo.broadcast_in_dim %767, dims = [0, 1, 2] : (tensor<1x256x1280xf32>) -> tensor<1x256x1280xf32>
    %770 = stablehlo.broadcast_in_dim %768, dims = [2] : (tensor<1280xf32>) -> tensor<1x256x1280xf32>
    %771 = stablehlo.add %769, %770 : tensor<1x256x1280xf32>
    %772 = stablehlo.convert %771 : (tensor<1x256x1280xf32>) -> tensor<1x256x1280xbf16>
    %773 = stablehlo.reshape %772 : (tensor<1x256x1280xbf16>) -> tensor<256x1280xbf16>
    %774 = stablehlo.convert %773 : (tensor<256x1280xbf16>) -> tensor<256x1280xf32>
    %775 = stablehlo.dot_general %774, %arg161, contracting_dims = [1] x [0] : (tensor<256x1280xf32>, tensor<1280x1280xf32>) -> tensor<256x1280xf32>
    %776 = stablehlo.broadcast_in_dim %775, dims = [0, 1] : (tensor<256x1280xf32>) -> tensor<256x1280xf32>
    %777 = stablehlo.multiply %776, %127 : tensor<256x1280xf32>
    %778 = stablehlo.broadcast_in_dim %777, dims = [0, 1] : (tensor<256x1280xf32>) -> tensor<256x1280xf32>
    %779 = stablehlo.broadcast_in_dim %arg162, dims = [1] : (tensor<1280xf32>) -> tensor<256x1280xf32>
    %780 = stablehlo.add %778, %779 : tensor<256x1280xf32>
    %781 = stablehlo.convert %780 : (tensor<256x1280xf32>) -> tensor<256x1280xbf16>
    %782 = stablehlo.reshape %781 : (tensor<256x1280xbf16>) -> tensor<1x256x1280xbf16>
    %783 = stablehlo.multiply %782, %cst_4 : tensor<1x256x1280xbf16>
    %784 = stablehlo.multiply %782, %190 : tensor<1x256x1280xbf16>
    %785 = stablehlo.convert %784 : (tensor<1x256x1280xbf16>) -> tensor<1x256x1280xf32>
    %786 = stablehlo.clamp %cst_5, %785, %cst_6 : tensor<1x256x1280xf32>
    %787 = stablehlo.multiply %786, %786 : tensor<1x256x1280xf32>
    %788 = stablehlo.multiply %cst_7, %787 : tensor<1x256x1280xf32>
    %789 = stablehlo.add %788, %cst_8 : tensor<1x256x1280xf32>
    %790 = stablehlo.multiply %789, %787 : tensor<1x256x1280xf32>
    %791 = stablehlo.add %790, %cst_9 : tensor<1x256x1280xf32>
    %792 = stablehlo.multiply %791, %787 : tensor<1x256x1280xf32>
    %793 = stablehlo.add %792, %cst_10 : tensor<1x256x1280xf32>
    %794 = stablehlo.multiply %793, %787 : tensor<1x256x1280xf32>
    %795 = stablehlo.add %794, %cst_11 : tensor<1x256x1280xf32>
    %796 = stablehlo.multiply %795, %787 : tensor<1x256x1280xf32>
    %797 = stablehlo.add %796, %cst_12 : tensor<1x256x1280xf32>
    %798 = stablehlo.multiply %797, %787 : tensor<1x256x1280xf32>
    %799 = stablehlo.add %798, %cst_13 : tensor<1x256x1280xf32>
    %800 = stablehlo.multiply %cst_14, %787 : tensor<1x256x1280xf32>
    %801 = stablehlo.add %800, %cst_15 : tensor<1x256x1280xf32>
    %802 = stablehlo.multiply %801, %787 : tensor<1x256x1280xf32>
    %803 = stablehlo.add %802, %cst_16 : tensor<1x256x1280xf32>
    %804 = stablehlo.multiply %803, %787 : tensor<1x256x1280xf32>
    %805 = stablehlo.add %804, %cst_17 : tensor<1x256x1280xf32>
    %806 = stablehlo.multiply %805, %787 : tensor<1x256x1280xf32>
    %807 = stablehlo.add %806, %cst_18 : tensor<1x256x1280xf32>
    %808 = stablehlo.multiply %786, %799 : tensor<1x256x1280xf32>
    %809 = stablehlo.divide %808, %807 : tensor<1x256x1280xf32>
    %810 = stablehlo.clamp %cst_19, %809, %cst_20 : tensor<1x256x1280xf32>
    %811 = stablehlo.convert %810 : (tensor<1x256x1280xf32>) -> tensor<1x256x1280xbf16>
    %812 = stablehlo.add %811, %cst_2 : tensor<1x256x1280xbf16>
    %813 = stablehlo.multiply %812, %783 : tensor<1x256x1280xbf16>
    %814 = stablehlo.reshape %813 : (tensor<1x256x1280xbf16>) -> tensor<256x1280xbf16>
    %815 = stablehlo.convert %814 : (tensor<256x1280xbf16>) -> tensor<256x1280xf32>
    %816 = stablehlo.dot_general %815, %arg163, contracting_dims = [1] x [0] : (tensor<256x1280xf32>, tensor<1280x1280xf32>) -> tensor<256x1280xf32>
    %817 = stablehlo.broadcast_in_dim %816, dims = [0, 1] : (tensor<256x1280xf32>) -> tensor<256x1280xf32>
    %818 = stablehlo.multiply %817, %127 : tensor<256x1280xf32>
    %819 = stablehlo.broadcast_in_dim %818, dims = [0, 1] : (tensor<256x1280xf32>) -> tensor<256x1280xf32>
    %820 = stablehlo.broadcast_in_dim %arg164, dims = [1] : (tensor<1280xf32>) -> tensor<256x1280xf32>
    %821 = stablehlo.add %819, %820 : tensor<256x1280xf32>
    %822 = stablehlo.convert %821 : (tensor<256x1280xf32>) -> tensor<256x1280xbf16>
    %823 = stablehlo.reshape %822 : (tensor<256x1280xbf16>) -> tensor<1x256x1280xbf16>
    %824 = stablehlo.add %823, %735 : tensor<1x256x1280xbf16>
    %825 = stablehlo.convert %824 : (tensor<1x256x1280xbf16>) -> tensor<1x256x1280xf32>
    %826 = stablehlo.convert %825 : (tensor<1x256x1280xf32>) -> tensor<1x256x1280xf64>
    %827 = stablehlo.reduce(%826 init: %cst) applies stablehlo.add across dimensions = [2] : (tensor<1x256x1280xf64>, tensor<f64>) -> tensor<1x256xf64>
    %828 = stablehlo.reshape %827 : (tensor<1x256xf64>) -> tensor<1x256x1xf64>
    %829 = stablehlo.broadcast_in_dim %828, dims = [0, 1, 2] : (tensor<1x256x1xf64>) -> tensor<1x256x1xf64>
    %830 = stablehlo.divide %829, %142 : tensor<1x256x1xf64>
    %831 = stablehlo.broadcast_in_dim %826, dims = [0, 1, 2] : (tensor<1x256x1280xf64>) -> tensor<1x256x1280xf64>
    %832 = stablehlo.broadcast_in_dim %830, dims = [0, 1, 2] : (tensor<1x256x1xf64>) -> tensor<1x256x1280xf64>
    %833 = stablehlo.subtract %831, %832 : tensor<1x256x1280xf64>
    %834 = stablehlo.multiply %833, %833 : tensor<1x256x1280xf64>
    %835 = stablehlo.reduce(%834 init: %cst) applies stablehlo.add across dimensions = [2] : (tensor<1x256x1280xf64>, tensor<f64>) -> tensor<1x256xf64>
    %836 = stablehlo.reshape %835 : (tensor<1x256xf64>) -> tensor<1x256x1xf64>
    %837 = stablehlo.broadcast_in_dim %836, dims = [0, 1, 2] : (tensor<1x256x1xf64>) -> tensor<1x256x1xf64>
    %838 = stablehlo.divide %837, %142 : tensor<1x256x1xf64>
    %839 = stablehlo.convert %838 : (tensor<1x256x1xf64>) -> tensor<1x256x1xf32>
    %840 = stablehlo.reduce(%825 init: %cst_0) applies stablehlo.add across dimensions = [2] : (tensor<1x256x1280xf32>, tensor<f32>) -> tensor<1x256xf32>
    %841 = stablehlo.reshape %840 : (tensor<1x256xf32>) -> tensor<1x256x1xf32>
    %842 = stablehlo.broadcast_in_dim %841, dims = [0, 1, 2] : (tensor<1x256x1xf32>) -> tensor<1x256x1xf32>
    %843 = stablehlo.divide %842, %158 : tensor<1x256x1xf32>
    %844 = stablehlo.broadcast_in_dim %839, dims = [0, 1, 2] : (tensor<1x256x1xf32>) -> tensor<1x256x1xf32>
    %845 = stablehlo.add %844, %161 : tensor<1x256x1xf32>
    %846 = stablehlo.rsqrt %845 : tensor<1x256x1xf32>
    %847 = stablehlo.broadcast_in_dim %825, dims = [0, 1, 2] : (tensor<1x256x1280xf32>) -> tensor<1x256x1280xf32>
    %848 = stablehlo.broadcast_in_dim %843, dims = [0, 1, 2] : (tensor<1x256x1xf32>) -> tensor<1x256x1280xf32>
    %849 = stablehlo.subtract %847, %848 : tensor<1x256x1280xf32>
    %850 = stablehlo.broadcast_in_dim %849, dims = [0, 1, 2] : (tensor<1x256x1280xf32>) -> tensor<1x256x1280xf32>
    %851 = stablehlo.broadcast_in_dim %846, dims = [0, 1, 2] : (tensor<1x256x1xf32>) -> tensor<1x256x1280xf32>
    %852 = stablehlo.multiply %850, %851 : tensor<1x256x1280xf32>
    %853 = stablehlo.convert %arg19 : (tensor<1280xbf16>) -> tensor<1280xf32>
    %854 = stablehlo.broadcast_in_dim %852, dims = [0, 1, 2] : (tensor<1x256x1280xf32>) -> tensor<1x256x1280xf32>
    %855 = stablehlo.broadcast_in_dim %853, dims = [2] : (tensor<1280xf32>) -> tensor<1x256x1280xf32>
    %856 = stablehlo.multiply %854, %855 : tensor<1x256x1280xf32>
    %857 = stablehlo.convert %arg20 : (tensor<1280xbf16>) -> tensor<1280xf32>
    %858 = stablehlo.broadcast_in_dim %856, dims = [0, 1, 2] : (tensor<1x256x1280xf32>) -> tensor<1x256x1280xf32>
    %859 = stablehlo.broadcast_in_dim %857, dims = [2] : (tensor<1280xf32>) -> tensor<1x256x1280xf32>
    %860 = stablehlo.add %858, %859 : tensor<1x256x1280xf32>
    %861 = stablehlo.convert %860 : (tensor<1x256x1280xf32>) -> tensor<1x256x1280xbf16>
    %862 = stablehlo.reshape %861 : (tensor<1x256x1280xbf16>) -> tensor<256x1280xbf16>
    %863 = stablehlo.convert %862 : (tensor<256x1280xbf16>) -> tensor<256x1280xf32>
    %864 = stablehlo.dot_general %863, %arg165, contracting_dims = [1] x [0] : (tensor<256x1280xf32>, tensor<1280x256xf32>) -> tensor<256x256xf32>
    %865 = stablehlo.broadcast_in_dim %864, dims = [0, 1] : (tensor<256x256xf32>) -> tensor<256x256xf32>
    %866 = stablehlo.multiply %865, %273 : tensor<256x256xf32>
    %867 = stablehlo.broadcast_in_dim %866, dims = [0, 1] : (tensor<256x256xf32>) -> tensor<256x256xf32>
    %868 = stablehlo.broadcast_in_dim %arg166, dims = [1] : (tensor<256xf32>) -> tensor<256x256xf32>
    %869 = stablehlo.add %867, %868 : tensor<256x256xf32>
    %870 = stablehlo.convert %869 : (tensor<256x256xf32>) -> tensor<256x256xbf16>
    %871 = stablehlo.reshape %870 : (tensor<256x256xbf16>) -> tensor<1x256x256xbf16>
    %872 = stablehlo.dot_general %863, %arg167, contracting_dims = [1] x [0] : (tensor<256x1280xf32>, tensor<1280x256xf32>) -> tensor<256x256xf32>
    %873 = stablehlo.broadcast_in_dim %872, dims = [0, 1] : (tensor<256x256xf32>) -> tensor<256x256xf32>
    %874 = stablehlo.multiply %873, %273 : tensor<256x256xf32>
    %875 = stablehlo.broadcast_in_dim %874, dims = [0, 1] : (tensor<256x256xf32>) -> tensor<256x256xf32>
    %876 = stablehlo.broadcast_in_dim %arg168, dims = [1] : (tensor<256xf32>) -> tensor<256x256xf32>
    %877 = stablehlo.add %875, %876 : tensor<256x256xf32>
    %878 = stablehlo.convert %877 : (tensor<256x256xf32>) -> tensor<256x256xbf16>
    %879 = stablehlo.reshape %878 : (tensor<256x256xbf16>) -> tensor<1x256x256xbf16>
    %880 = stablehlo.dot_general %863, %arg169, contracting_dims = [1] x [0] : (tensor<256x1280xf32>, tensor<1280x1280xf32>) -> tensor<256x1280xf32>
    %881 = stablehlo.broadcast_in_dim %880, dims = [0, 1] : (tensor<256x1280xf32>) -> tensor<256x1280xf32>
    %882 = stablehlo.multiply %881, %127 : tensor<256x1280xf32>
    %883 = stablehlo.broadcast_in_dim %882, dims = [0, 1] : (tensor<256x1280xf32>) -> tensor<256x1280xf32>
    %884 = stablehlo.broadcast_in_dim %arg170, dims = [1] : (tensor<1280xf32>) -> tensor<256x1280xf32>
    %885 = stablehlo.add %883, %884 : tensor<256x1280xf32>
    %886 = stablehlo.convert %885 : (tensor<256x1280xf32>) -> tensor<256x1280xbf16>
    %887 = stablehlo.reshape %886 : (tensor<256x1280xbf16>) -> tensor<1x256x1280xbf16>
    %888 = stablehlo.reshape %871 : (tensor<1x256x256xbf16>) -> tensor<1x256x8x32xbf16>
    %889 = stablehlo.transpose %888, dims = [0, 2, 1, 3] : (tensor<1x256x8x32xbf16>) -> tensor<1x8x256x32xbf16>
    %890 = stablehlo.reshape %879 : (tensor<1x256x256xbf16>) -> tensor<1x256x8x32xbf16>
    %891 = stablehlo.transpose %890, dims = [0, 2, 1, 3] : (tensor<1x256x8x32xbf16>) -> tensor<1x8x256x32xbf16>
    %892 = stablehlo.reshape %887 : (tensor<1x256x1280xbf16>) -> tensor<1x256x8x160xbf16>
    %893 = stablehlo.transpose %892, dims = [0, 2, 1, 3] : (tensor<1x256x8x160xbf16>) -> tensor<1x8x256x160xbf16>
    %894 = stablehlo.transpose %891, dims = [0, 1, 3, 2] : (tensor<1x8x256x32xbf16>) -> tensor<1x8x32x256xbf16>
    %895 = stablehlo.reshape %889 : (tensor<1x8x256x32xbf16>) -> tensor<8x256x32xbf16>
    %896 = stablehlo.reshape %894 : (tensor<1x8x32x256xbf16>) -> tensor<8x32x256xbf16>
    %897 = stablehlo.broadcast_in_dim %896, dims = [0, 1, 2] : (tensor<8x32x256xbf16>) -> tensor<8x32x256xbf16>
    %898 = stablehlo.dot_general %895, %897, batching_dims = [0] x [0], contracting_dims = [2] x [1] : (tensor<8x256x32xbf16>, tensor<8x32x256xbf16>) -> tensor<8x256x256xbf16>
    %899 = stablehlo.reshape %898 : (tensor<8x256x256xbf16>) -> tensor<1x8x256x256xbf16>
    %900 = stablehlo.broadcast_in_dim %899, dims = [0, 1, 2, 3] : (tensor<1x8x256x256xbf16>) -> tensor<1x8x256x256xbf16>
    %901 = stablehlo.divide %900, %309 : tensor<1x8x256x256xbf16>
    %902 = stablehlo.convert %901 : (tensor<1x8x256x256xbf16>) -> tensor<1x8x256x256xf32>
    %903 = stablehlo.reduce(%902 init: %cst_1) applies stablehlo.maximum across dimensions = [3] : (tensor<1x8x256x256xf32>, tensor<f32>) -> tensor<1x8x256xf32>
    %904 = stablehlo.reshape %903 : (tensor<1x8x256xf32>) -> tensor<1x8x256x1xf32>
    %905 = stablehlo.broadcast_in_dim %902, dims = [0, 1, 2, 3] : (tensor<1x8x256x256xf32>) -> tensor<1x8x256x256xf32>
    %906 = stablehlo.broadcast_in_dim %904, dims = [0, 1, 2, 3] : (tensor<1x8x256x1xf32>) -> tensor<1x8x256x256xf32>
    %907 = stablehlo.subtract %905, %906 : tensor<1x8x256x256xf32>
    %908 = stablehlo.exponential %907 : tensor<1x8x256x256xf32>
    %909 = stablehlo.reduce(%908 init: %cst_0) applies stablehlo.add across dimensions = [3] : (tensor<1x8x256x256xf32>, tensor<f32>) -> tensor<1x8x256xf32>
    %910 = stablehlo.reshape %909 : (tensor<1x8x256xf32>) -> tensor<1x8x256x1xf32>
    %911 = stablehlo.broadcast_in_dim %908, dims = [0, 1, 2, 3] : (tensor<1x8x256x256xf32>) -> tensor<1x8x256x256xf32>
    %912 = stablehlo.broadcast_in_dim %910, dims = [0, 1, 2, 3] : (tensor<1x8x256x1xf32>) -> tensor<1x8x256x256xf32>
    %913 = stablehlo.divide %911, %912 : tensor<1x8x256x256xf32>
    %914 = stablehlo.convert %913 : (tensor<1x8x256x256xf32>) -> tensor<1x8x256x256xbf16>
    %915 = stablehlo.reshape %914 : (tensor<1x8x256x256xbf16>) -> tensor<8x256x256xbf16>
    %916 = stablehlo.reshape %893 : (tensor<1x8x256x160xbf16>) -> tensor<8x256x160xbf16>
    %917 = stablehlo.broadcast_in_dim %916, dims = [0, 1, 2] : (tensor<8x256x160xbf16>) -> tensor<8x256x160xbf16>
    %918 = stablehlo.dot_general %915, %917, batching_dims = [0] x [0], contracting_dims = [2] x [1] : (tensor<8x256x256xbf16>, tensor<8x256x160xbf16>) -> tensor<8x256x160xbf16>
    %919 = stablehlo.reshape %918 : (tensor<8x256x160xbf16>) -> tensor<1x8x256x160xbf16>
    %920 = stablehlo.transpose %919, dims = [0, 2, 1, 3] : (tensor<1x8x256x160xbf16>) -> tensor<1x256x8x160xbf16>
    %921 = stablehlo.reshape %920 : (tensor<1x256x8x160xbf16>) -> tensor<1x256x1280xbf16>
    %922 = stablehlo.reshape %921 : (tensor<1x256x1280xbf16>) -> tensor<256x1280xbf16>
    %923 = stablehlo.convert %922 : (tensor<256x1280xbf16>) -> tensor<256x1280xf32>
    %924 = stablehlo.dot_general %923, %arg171, contracting_dims = [1] x [0] : (tensor<256x1280xf32>, tensor<1280x1280xf32>) -> tensor<256x1280xf32>
    %925 = stablehlo.broadcast_in_dim %924, dims = [0, 1] : (tensor<256x1280xf32>) -> tensor<256x1280xf32>
    %926 = stablehlo.multiply %925, %127 : tensor<256x1280xf32>
    %927 = stablehlo.broadcast_in_dim %926, dims = [0, 1] : (tensor<256x1280xf32>) -> tensor<256x1280xf32>
    %928 = stablehlo.broadcast_in_dim %arg172, dims = [1] : (tensor<1280xf32>) -> tensor<256x1280xf32>
    %929 = stablehlo.add %927, %928 : tensor<256x1280xf32>
    %930 = stablehlo.convert %929 : (tensor<256x1280xf32>) -> tensor<256x1280xbf16>
    %931 = stablehlo.reshape %930 : (tensor<256x1280xbf16>) -> tensor<1x256x1280xbf16>
    %932 = stablehlo.add %931, %824 : tensor<1x256x1280xbf16>
    %933 = stablehlo.convert %932 : (tensor<1x256x1280xbf16>) -> tensor<1x256x1280xf32>
    %934 = stablehlo.convert %933 : (tensor<1x256x1280xf32>) -> tensor<1x256x1280xf64>
    %935 = stablehlo.reduce(%934 init: %cst) applies stablehlo.add across dimensions = [2] : (tensor<1x256x1280xf64>, tensor<f64>) -> tensor<1x256xf64>
    %936 = stablehlo.reshape %935 : (tensor<1x256xf64>) -> tensor<1x256x1xf64>
    %937 = stablehlo.broadcast_in_dim %936, dims = [0, 1, 2] : (tensor<1x256x1xf64>) -> tensor<1x256x1xf64>
    %938 = stablehlo.divide %937, %142 : tensor<1x256x1xf64>
    %939 = stablehlo.broadcast_in_dim %934, dims = [0, 1, 2] : (tensor<1x256x1280xf64>) -> tensor<1x256x1280xf64>
    %940 = stablehlo.broadcast_in_dim %938, dims = [0, 1, 2] : (tensor<1x256x1xf64>) -> tensor<1x256x1280xf64>
    %941 = stablehlo.subtract %939, %940 : tensor<1x256x1280xf64>
    %942 = stablehlo.multiply %941, %941 : tensor<1x256x1280xf64>
    %943 = stablehlo.reduce(%942 init: %cst) applies stablehlo.add across dimensions = [2] : (tensor<1x256x1280xf64>, tensor<f64>) -> tensor<1x256xf64>
    %944 = stablehlo.reshape %943 : (tensor<1x256xf64>) -> tensor<1x256x1xf64>
    %945 = stablehlo.broadcast_in_dim %944, dims = [0, 1, 2] : (tensor<1x256x1xf64>) -> tensor<1x256x1xf64>
    %946 = stablehlo.divide %945, %142 : tensor<1x256x1xf64>
    %947 = stablehlo.convert %946 : (tensor<1x256x1xf64>) -> tensor<1x256x1xf32>
    %948 = stablehlo.reduce(%933 init: %cst_0) applies stablehlo.add across dimensions = [2] : (tensor<1x256x1280xf32>, tensor<f32>) -> tensor<1x256xf32>
    %949 = stablehlo.reshape %948 : (tensor<1x256xf32>) -> tensor<1x256x1xf32>
    %950 = stablehlo.broadcast_in_dim %949, dims = [0, 1, 2] : (tensor<1x256x1xf32>) -> tensor<1x256x1xf32>
    %951 = stablehlo.divide %950, %158 : tensor<1x256x1xf32>
    %952 = stablehlo.broadcast_in_dim %947, dims = [0, 1, 2] : (tensor<1x256x1xf32>) -> tensor<1x256x1xf32>
    %953 = stablehlo.add %952, %161 : tensor<1x256x1xf32>
    %954 = stablehlo.rsqrt %953 : tensor<1x256x1xf32>
    %955 = stablehlo.broadcast_in_dim %933, dims = [0, 1, 2] : (tensor<1x256x1280xf32>) -> tensor<1x256x1280xf32>
    %956 = stablehlo.broadcast_in_dim %951, dims = [0, 1, 2] : (tensor<1x256x1xf32>) -> tensor<1x256x1280xf32>
    %957 = stablehlo.subtract %955, %956 : tensor<1x256x1280xf32>
    %958 = stablehlo.broadcast_in_dim %957, dims = [0, 1, 2] : (tensor<1x256x1280xf32>) -> tensor<1x256x1280xf32>
    %959 = stablehlo.broadcast_in_dim %954, dims = [0, 1, 2] : (tensor<1x256x1xf32>) -> tensor<1x256x1280xf32>
    %960 = stablehlo.multiply %958, %959 : tensor<1x256x1280xf32>
    %961 = stablehlo.convert %arg21 : (tensor<1280xbf16>) -> tensor<1280xf32>
    %962 = stablehlo.broadcast_in_dim %960, dims = [0, 1, 2] : (tensor<1x256x1280xf32>) -> tensor<1x256x1280xf32>
    %963 = stablehlo.broadcast_in_dim %961, dims = [2] : (tensor<1280xf32>) -> tensor<1x256x1280xf32>
    %964 = stablehlo.multiply %962, %963 : tensor<1x256x1280xf32>
    %965 = stablehlo.convert %arg22 : (tensor<1280xbf16>) -> tensor<1280xf32>
    %966 = stablehlo.broadcast_in_dim %964, dims = [0, 1, 2] : (tensor<1x256x1280xf32>) -> tensor<1x256x1280xf32>
    %967 = stablehlo.broadcast_in_dim %965, dims = [2] : (tensor<1280xf32>) -> tensor<1x256x1280xf32>
    %968 = stablehlo.add %966, %967 : tensor<1x256x1280xf32>
    %969 = stablehlo.convert %968 : (tensor<1x256x1280xf32>) -> tensor<1x256x1280xbf16>
    %970 = stablehlo.reshape %969 : (tensor<1x256x1280xbf16>) -> tensor<256x1280xbf16>
    %971 = stablehlo.convert %970 : (tensor<256x1280xbf16>) -> tensor<256x1280xf32>
    %972 = stablehlo.dot_general %971, %arg173, contracting_dims = [1] x [0] : (tensor<256x1280xf32>, tensor<1280x1280xf32>) -> tensor<256x1280xf32>
    %973 = stablehlo.broadcast_in_dim %972, dims = [0, 1] : (tensor<256x1280xf32>) -> tensor<256x1280xf32>
    %974 = stablehlo.multiply %973, %127 : tensor<256x1280xf32>
    %975 = stablehlo.broadcast_in_dim %974, dims = [0, 1] : (tensor<256x1280xf32>) -> tensor<256x1280xf32>
    %976 = stablehlo.broadcast_in_dim %arg174, dims = [1] : (tensor<1280xf32>) -> tensor<256x1280xf32>
    %977 = stablehlo.add %975, %976 : tensor<256x1280xf32>
    %978 = stablehlo.convert %977 : (tensor<256x1280xf32>) -> tensor<256x1280xbf16>
    %979 = stablehlo.reshape %978 : (tensor<256x1280xbf16>) -> tensor<1x256x1280xbf16>
    %980 = stablehlo.multiply %979, %cst_4 : tensor<1x256x1280xbf16>
    %981 = stablehlo.multiply %979, %190 : tensor<1x256x1280xbf16>
    %982 = stablehlo.convert %981 : (tensor<1x256x1280xbf16>) -> tensor<1x256x1280xf32>
    %983 = stablehlo.clamp %cst_5, %982, %cst_6 : tensor<1x256x1280xf32>
    %984 = stablehlo.multiply %983, %983 : tensor<1x256x1280xf32>
    %985 = stablehlo.multiply %cst_7, %984 : tensor<1x256x1280xf32>
    %986 = stablehlo.add %985, %cst_8 : tensor<1x256x1280xf32>
    %987 = stablehlo.multiply %986, %984 : tensor<1x256x1280xf32>
    %988 = stablehlo.add %987, %cst_9 : tensor<1x256x1280xf32>
    %989 = stablehlo.multiply %988, %984 : tensor<1x256x1280xf32>
    %990 = stablehlo.add %989, %cst_10 : tensor<1x256x1280xf32>
    %991 = stablehlo.multiply %990, %984 : tensor<1x256x1280xf32>
    %992 = stablehlo.add %991, %cst_11 : tensor<1x256x1280xf32>
    %993 = stablehlo.multiply %992, %984 : tensor<1x256x1280xf32>
    %994 = stablehlo.add %993, %cst_12 : tensor<1x256x1280xf32>
    %995 = stablehlo.multiply %994, %984 : tensor<1x256x1280xf32>
    %996 = stablehlo.add %995, %cst_13 : tensor<1x256x1280xf32>
    %997 = stablehlo.multiply %cst_14, %984 : tensor<1x256x1280xf32>
    %998 = stablehlo.add %997, %cst_15 : tensor<1x256x1280xf32>
    %999 = stablehlo.multiply %998, %984 : tensor<1x256x1280xf32>
    %1000 = stablehlo.add %999, %cst_16 : tensor<1x256x1280xf32>
    %1001 = stablehlo.multiply %1000, %984 : tensor<1x256x1280xf32>
    %1002 = stablehlo.add %1001, %cst_17 : tensor<1x256x1280xf32>
    %1003 = stablehlo.multiply %1002, %984 : tensor<1x256x1280xf32>
    %1004 = stablehlo.add %1003, %cst_18 : tensor<1x256x1280xf32>
    %1005 = stablehlo.multiply %983, %996 : tensor<1x256x1280xf32>
    %1006 = stablehlo.divide %1005, %1004 : tensor<1x256x1280xf32>
    %1007 = stablehlo.clamp %cst_19, %1006, %cst_20 : tensor<1x256x1280xf32>
    %1008 = stablehlo.convert %1007 : (tensor<1x256x1280xf32>) -> tensor<1x256x1280xbf16>
    %1009 = stablehlo.add %1008, %cst_2 : tensor<1x256x1280xbf16>
    %1010 = stablehlo.multiply %1009, %980 : tensor<1x256x1280xbf16>
    %1011 = stablehlo.reshape %1010 : (tensor<1x256x1280xbf16>) -> tensor<256x1280xbf16>
    %1012 = stablehlo.convert %1011 : (tensor<256x1280xbf16>) -> tensor<256x1280xf32>
    %1013 = stablehlo.dot_general %1012, %arg175, contracting_dims = [1] x [0] : (tensor<256x1280xf32>, tensor<1280x1280xf32>) -> tensor<256x1280xf32>
    %1014 = stablehlo.broadcast_in_dim %1013, dims = [0, 1] : (tensor<256x1280xf32>) -> tensor<256x1280xf32>
    %1015 = stablehlo.multiply %1014, %127 : tensor<256x1280xf32>
    %1016 = stablehlo.broadcast_in_dim %1015, dims = [0, 1] : (tensor<256x1280xf32>) -> tensor<256x1280xf32>
    %1017 = stablehlo.broadcast_in_dim %arg176, dims = [1] : (tensor<1280xf32>) -> tensor<256x1280xf32>
    %1018 = stablehlo.add %1016, %1017 : tensor<256x1280xf32>
    %1019 = stablehlo.convert %1018 : (tensor<256x1280xf32>) -> tensor<256x1280xbf16>
    %1020 = stablehlo.reshape %1019 : (tensor<256x1280xbf16>) -> tensor<1x256x1280xbf16>
    %1021 = stablehlo.add %1020, %932 : tensor<1x256x1280xbf16>
    %1022 = stablehlo.convert %1021 : (tensor<1x256x1280xbf16>) -> tensor<1x256x1280xf32>
    %1023 = stablehlo.convert %1022 : (tensor<1x256x1280xf32>) -> tensor<1x256x1280xf64>
    %1024 = stablehlo.reduce(%1023 init: %cst) applies stablehlo.add across dimensions = [2] : (tensor<1x256x1280xf64>, tensor<f64>) -> tensor<1x256xf64>
    %1025 = stablehlo.reshape %1024 : (tensor<1x256xf64>) -> tensor<1x256x1xf64>
    %1026 = stablehlo.broadcast_in_dim %1025, dims = [0, 1, 2] : (tensor<1x256x1xf64>) -> tensor<1x256x1xf64>
    %1027 = stablehlo.divide %1026, %142 : tensor<1x256x1xf64>
    %1028 = stablehlo.broadcast_in_dim %1023, dims = [0, 1, 2] : (tensor<1x256x1280xf64>) -> tensor<1x256x1280xf64>
    %1029 = stablehlo.broadcast_in_dim %1027, dims = [0, 1, 2] : (tensor<1x256x1xf64>) -> tensor<1x256x1280xf64>
    %1030 = stablehlo.subtract %1028, %1029 : tensor<1x256x1280xf64>
    %1031 = stablehlo.multiply %1030, %1030 : tensor<1x256x1280xf64>
    %1032 = stablehlo.reduce(%1031 init: %cst) applies stablehlo.add across dimensions = [2] : (tensor<1x256x1280xf64>, tensor<f64>) -> tensor<1x256xf64>
    %1033 = stablehlo.reshape %1032 : (tensor<1x256xf64>) -> tensor<1x256x1xf64>
    %1034 = stablehlo.broadcast_in_dim %1033, dims = [0, 1, 2] : (tensor<1x256x1xf64>) -> tensor<1x256x1xf64>
    %1035 = stablehlo.divide %1034, %142 : tensor<1x256x1xf64>
    %1036 = stablehlo.convert %1035 : (tensor<1x256x1xf64>) -> tensor<1x256x1xf32>
    %1037 = stablehlo.reduce(%1022 init: %cst_0) applies stablehlo.add across dimensions = [2] : (tensor<1x256x1280xf32>, tensor<f32>) -> tensor<1x256xf32>
    %1038 = stablehlo.reshape %1037 : (tensor<1x256xf32>) -> tensor<1x256x1xf32>
    %1039 = stablehlo.broadcast_in_dim %1038, dims = [0, 1, 2] : (tensor<1x256x1xf32>) -> tensor<1x256x1xf32>
    %1040 = stablehlo.divide %1039, %158 : tensor<1x256x1xf32>
    %1041 = stablehlo.broadcast_in_dim %1036, dims = [0, 1, 2] : (tensor<1x256x1xf32>) -> tensor<1x256x1xf32>
    %1042 = stablehlo.add %1041, %161 : tensor<1x256x1xf32>
    %1043 = stablehlo.rsqrt %1042 : tensor<1x256x1xf32>
    %1044 = stablehlo.broadcast_in_dim %1022, dims = [0, 1, 2] : (tensor<1x256x1280xf32>) -> tensor<1x256x1280xf32>
    %1045 = stablehlo.broadcast_in_dim %1040, dims = [0, 1, 2] : (tensor<1x256x1xf32>) -> tensor<1x256x1280xf32>
    %1046 = stablehlo.subtract %1044, %1045 : tensor<1x256x1280xf32>
    %1047 = stablehlo.broadcast_in_dim %1046, dims = [0, 1, 2] : (tensor<1x256x1280xf32>) -> tensor<1x256x1280xf32>
    %1048 = stablehlo.broadcast_in_dim %1043, dims = [0, 1, 2] : (tensor<1x256x1xf32>) -> tensor<1x256x1280xf32>
    %1049 = stablehlo.multiply %1047, %1048 : tensor<1x256x1280xf32>
    %1050 = stablehlo.convert %arg23 : (tensor<1280xbf16>) -> tensor<1280xf32>
    %1051 = stablehlo.broadcast_in_dim %1049, dims = [0, 1, 2] : (tensor<1x256x1280xf32>) -> tensor<1x256x1280xf32>
    %1052 = stablehlo.broadcast_in_dim %1050, dims = [2] : (tensor<1280xf32>) -> tensor<1x256x1280xf32>
    %1053 = stablehlo.multiply %1051, %1052 : tensor<1x256x1280xf32>
    %1054 = stablehlo.convert %arg24 : (tensor<1280xbf16>) -> tensor<1280xf32>
    %1055 = stablehlo.broadcast_in_dim %1053, dims = [0, 1, 2] : (tensor<1x256x1280xf32>) -> tensor<1x256x1280xf32>
    %1056 = stablehlo.broadcast_in_dim %1054, dims = [2] : (tensor<1280xf32>) -> tensor<1x256x1280xf32>
    %1057 = stablehlo.add %1055, %1056 : tensor<1x256x1280xf32>
    %1058 = stablehlo.convert %1057 : (tensor<1x256x1280xf32>) -> tensor<1x256x1280xbf16>
    %1059 = stablehlo.reshape %1058 : (tensor<1x256x1280xbf16>) -> tensor<256x1280xbf16>
    %1060 = stablehlo.convert %1059 : (tensor<256x1280xbf16>) -> tensor<256x1280xf32>
    %1061 = stablehlo.dot_general %1060, %arg177, contracting_dims = [1] x [0] : (tensor<256x1280xf32>, tensor<1280x256xf32>) -> tensor<256x256xf32>
    %1062 = stablehlo.broadcast_in_dim %1061, dims = [0, 1] : (tensor<256x256xf32>) -> tensor<256x256xf32>
    %1063 = stablehlo.multiply %1062, %273 : tensor<256x256xf32>
    %1064 = stablehlo.broadcast_in_dim %1063, dims = [0, 1] : (tensor<256x256xf32>) -> tensor<256x256xf32>
    %1065 = stablehlo.broadcast_in_dim %arg178, dims = [1] : (tensor<256xf32>) -> tensor<256x256xf32>
    %1066 = stablehlo.add %1064, %1065 : tensor<256x256xf32>
    %1067 = stablehlo.convert %1066 : (tensor<256x256xf32>) -> tensor<256x256xbf16>
    %1068 = stablehlo.reshape %1067 : (tensor<256x256xbf16>) -> tensor<1x256x256xbf16>
    %1069 = stablehlo.dot_general %1060, %arg179, contracting_dims = [1] x [0] : (tensor<256x1280xf32>, tensor<1280x256xf32>) -> tensor<256x256xf32>
    %1070 = stablehlo.broadcast_in_dim %1069, dims = [0, 1] : (tensor<256x256xf32>) -> tensor<256x256xf32>
    %1071 = stablehlo.multiply %1070, %273 : tensor<256x256xf32>
    %1072 = stablehlo.broadcast_in_dim %1071, dims = [0, 1] : (tensor<256x256xf32>) -> tensor<256x256xf32>
    %1073 = stablehlo.broadcast_in_dim %arg180, dims = [1] : (tensor<256xf32>) -> tensor<256x256xf32>
    %1074 = stablehlo.add %1072, %1073 : tensor<256x256xf32>
    %1075 = stablehlo.convert %1074 : (tensor<256x256xf32>) -> tensor<256x256xbf16>
    %1076 = stablehlo.reshape %1075 : (tensor<256x256xbf16>) -> tensor<1x256x256xbf16>
    %1077 = stablehlo.dot_general %1060, %arg181, contracting_dims = [1] x [0] : (tensor<256x1280xf32>, tensor<1280x1280xf32>) -> tensor<256x1280xf32>
    %1078 = stablehlo.broadcast_in_dim %1077, dims = [0, 1] : (tensor<256x1280xf32>) -> tensor<256x1280xf32>
    %1079 = stablehlo.multiply %1078, %127 : tensor<256x1280xf32>
    %1080 = stablehlo.broadcast_in_dim %1079, dims = [0, 1] : (tensor<256x1280xf32>) -> tensor<256x1280xf32>
    %1081 = stablehlo.broadcast_in_dim %arg182, dims = [1] : (tensor<1280xf32>) -> tensor<256x1280xf32>
    %1082 = stablehlo.add %1080, %1081 : tensor<256x1280xf32>
    %1083 = stablehlo.convert %1082 : (tensor<256x1280xf32>) -> tensor<256x1280xbf16>
    %1084 = stablehlo.reshape %1083 : (tensor<256x1280xbf16>) -> tensor<1x256x1280xbf16>
    %1085 = stablehlo.reshape %1068 : (tensor<1x256x256xbf16>) -> tensor<1x256x8x32xbf16>
    %1086 = stablehlo.transpose %1085, dims = [0, 2, 1, 3] : (tensor<1x256x8x32xbf16>) -> tensor<1x8x256x32xbf16>
    %1087 = stablehlo.reshape %1076 : (tensor<1x256x256xbf16>) -> tensor<1x256x8x32xbf16>
    %1088 = stablehlo.transpose %1087, dims = [0, 2, 1, 3] : (tensor<1x256x8x32xbf16>) -> tensor<1x8x256x32xbf16>
    %1089 = stablehlo.reshape %1084 : (tensor<1x256x1280xbf16>) -> tensor<1x256x8x160xbf16>
    %1090 = stablehlo.transpose %1089, dims = [0, 2, 1, 3] : (tensor<1x256x8x160xbf16>) -> tensor<1x8x256x160xbf16>
    %1091 = stablehlo.transpose %1088, dims = [0, 1, 3, 2] : (tensor<1x8x256x32xbf16>) -> tensor<1x8x32x256xbf16>
    %1092 = stablehlo.reshape %1086 : (tensor<1x8x256x32xbf16>) -> tensor<8x256x32xbf16>
    %1093 = stablehlo.reshape %1091 : (tensor<1x8x32x256xbf16>) -> tensor<8x32x256xbf16>
    %1094 = stablehlo.broadcast_in_dim %1093, dims = [0, 1, 2] : (tensor<8x32x256xbf16>) -> tensor<8x32x256xbf16>
    %1095 = stablehlo.dot_general %1092, %1094, batching_dims = [0] x [0], contracting_dims = [2] x [1] : (tensor<8x256x32xbf16>, tensor<8x32x256xbf16>) -> tensor<8x256x256xbf16>
    %1096 = stablehlo.reshape %1095 : (tensor<8x256x256xbf16>) -> tensor<1x8x256x256xbf16>
    %1097 = stablehlo.broadcast_in_dim %1096, dims = [0, 1, 2, 3] : (tensor<1x8x256x256xbf16>) -> tensor<1x8x256x256xbf16>
    %1098 = stablehlo.divide %1097, %309 : tensor<1x8x256x256xbf16>
    %1099 = stablehlo.convert %1098 : (tensor<1x8x256x256xbf16>) -> tensor<1x8x256x256xf32>
    %1100 = stablehlo.reduce(%1099 init: %cst_1) applies stablehlo.maximum across dimensions = [3] : (tensor<1x8x256x256xf32>, tensor<f32>) -> tensor<1x8x256xf32>
    %1101 = stablehlo.reshape %1100 : (tensor<1x8x256xf32>) -> tensor<1x8x256x1xf32>
    %1102 = stablehlo.broadcast_in_dim %1099, dims = [0, 1, 2, 3] : (tensor<1x8x256x256xf32>) -> tensor<1x8x256x256xf32>
    %1103 = stablehlo.broadcast_in_dim %1101, dims = [0, 1, 2, 3] : (tensor<1x8x256x1xf32>) -> tensor<1x8x256x256xf32>
    %1104 = stablehlo.subtract %1102, %1103 : tensor<1x8x256x256xf32>
    %1105 = stablehlo.exponential %1104 : tensor<1x8x256x256xf32>
    %1106 = stablehlo.reduce(%1105 init: %cst_0) applies stablehlo.add across dimensions = [3] : (tensor<1x8x256x256xf32>, tensor<f32>) -> tensor<1x8x256xf32>
    %1107 = stablehlo.reshape %1106 : (tensor<1x8x256xf32>) -> tensor<1x8x256x1xf32>
    %1108 = stablehlo.broadcast_in_dim %1105, dims = [0, 1, 2, 3] : (tensor<1x8x256x256xf32>) -> tensor<1x8x256x256xf32>
    %1109 = stablehlo.broadcast_in_dim %1107, dims = [0, 1, 2, 3] : (tensor<1x8x256x1xf32>) -> tensor<1x8x256x256xf32>
    %1110 = stablehlo.divide %1108, %1109 : tensor<1x8x256x256xf32>
    %1111 = stablehlo.convert %1110 : (tensor<1x8x256x256xf32>) -> tensor<1x8x256x256xbf16>
    %1112 = stablehlo.reshape %1111 : (tensor<1x8x256x256xbf16>) -> tensor<8x256x256xbf16>
    %1113 = stablehlo.reshape %1090 : (tensor<1x8x256x160xbf16>) -> tensor<8x256x160xbf16>
    %1114 = stablehlo.broadcast_in_dim %1113, dims = [0, 1, 2] : (tensor<8x256x160xbf16>) -> tensor<8x256x160xbf16>
    %1115 = stablehlo.dot_general %1112, %1114, batching_dims = [0] x [0], contracting_dims = [2] x [1] : (tensor<8x256x256xbf16>, tensor<8x256x160xbf16>) -> tensor<8x256x160xbf16>
    %1116 = stablehlo.reshape %1115 : (tensor<8x256x160xbf16>) -> tensor<1x8x256x160xbf16>
    %1117 = stablehlo.transpose %1116, dims = [0, 2, 1, 3] : (tensor<1x8x256x160xbf16>) -> tensor<1x256x8x160xbf16>
    %1118 = stablehlo.reshape %1117 : (tensor<1x256x8x160xbf16>) -> tensor<1x256x1280xbf16>
    %1119 = stablehlo.reshape %1118 : (tensor<1x256x1280xbf16>) -> tensor<256x1280xbf16>
    %1120 = stablehlo.convert %1119 : (tensor<256x1280xbf16>) -> tensor<256x1280xf32>
    %1121 = stablehlo.dot_general %1120, %arg183, contracting_dims = [1] x [0] : (tensor<256x1280xf32>, tensor<1280x1280xf32>) -> tensor<256x1280xf32>
    %1122 = stablehlo.broadcast_in_dim %1121, dims = [0, 1] : (tensor<256x1280xf32>) -> tensor<256x1280xf32>
    %1123 = stablehlo.multiply %1122, %127 : tensor<256x1280xf32>
    %1124 = stablehlo.broadcast_in_dim %1123, dims = [0, 1] : (tensor<256x1280xf32>) -> tensor<256x1280xf32>
    %1125 = stablehlo.broadcast_in_dim %arg184, dims = [1] : (tensor<1280xf32>) -> tensor<256x1280xf32>
    %1126 = stablehlo.add %1124, %1125 : tensor<256x1280xf32>
    %1127 = stablehlo.convert %1126 : (tensor<256x1280xf32>) -> tensor<256x1280xbf16>
    %1128 = stablehlo.reshape %1127 : (tensor<256x1280xbf16>) -> tensor<1x256x1280xbf16>
    %1129 = stablehlo.add %1128, %1021 : tensor<1x256x1280xbf16>
    %1130 = stablehlo.convert %1129 : (tensor<1x256x1280xbf16>) -> tensor<1x256x1280xf32>
    %1131 = stablehlo.convert %1130 : (tensor<1x256x1280xf32>) -> tensor<1x256x1280xf64>
    %1132 = stablehlo.reduce(%1131 init: %cst) applies stablehlo.add across dimensions = [2] : (tensor<1x256x1280xf64>, tensor<f64>) -> tensor<1x256xf64>
    %1133 = stablehlo.reshape %1132 : (tensor<1x256xf64>) -> tensor<1x256x1xf64>
    %1134 = stablehlo.broadcast_in_dim %1133, dims = [0, 1, 2] : (tensor<1x256x1xf64>) -> tensor<1x256x1xf64>
    %1135 = stablehlo.divide %1134, %142 : tensor<1x256x1xf64>
    %1136 = stablehlo.broadcast_in_dim %1131, dims = [0, 1, 2] : (tensor<1x256x1280xf64>) -> tensor<1x256x1280xf64>
    %1137 = stablehlo.broadcast_in_dim %1135, dims = [0, 1, 2] : (tensor<1x256x1xf64>) -> tensor<1x256x1280xf64>
    %1138 = stablehlo.subtract %1136, %1137 : tensor<1x256x1280xf64>
    %1139 = stablehlo.multiply %1138, %1138 : tensor<1x256x1280xf64>
    %1140 = stablehlo.reduce(%1139 init: %cst) applies stablehlo.add across dimensions = [2] : (tensor<1x256x1280xf64>, tensor<f64>) -> tensor<1x256xf64>
    %1141 = stablehlo.reshape %1140 : (tensor<1x256xf64>) -> tensor<1x256x1xf64>
    %1142 = stablehlo.broadcast_in_dim %1141, dims = [0, 1, 2] : (tensor<1x256x1xf64>) -> tensor<1x256x1xf64>
    %1143 = stablehlo.divide %1142, %142 : tensor<1x256x1xf64>
    %1144 = stablehlo.convert %1143 : (tensor<1x256x1xf64>) -> tensor<1x256x1xf32>
    %1145 = stablehlo.reduce(%1130 init: %cst_0) applies stablehlo.add across dimensions = [2] : (tensor<1x256x1280xf32>, tensor<f32>) -> tensor<1x256xf32>
    %1146 = stablehlo.reshape %1145 : (tensor<1x256xf32>) -> tensor<1x256x1xf32>
    %1147 = stablehlo.broadcast_in_dim %1146, dims = [0, 1, 2] : (tensor<1x256x1xf32>) -> tensor<1x256x1xf32>
    %1148 = stablehlo.divide %1147, %158 : tensor<1x256x1xf32>
    %1149 = stablehlo.broadcast_in_dim %1144, dims = [0, 1, 2] : (tensor<1x256x1xf32>) -> tensor<1x256x1xf32>
    %1150 = stablehlo.add %1149, %161 : tensor<1x256x1xf32>
    %1151 = stablehlo.rsqrt %1150 : tensor<1x256x1xf32>
    %1152 = stablehlo.broadcast_in_dim %1130, dims = [0, 1, 2] : (tensor<1x256x1280xf32>) -> tensor<1x256x1280xf32>
    %1153 = stablehlo.broadcast_in_dim %1148, dims = [0, 1, 2] : (tensor<1x256x1xf32>) -> tensor<1x256x1280xf32>
    %1154 = stablehlo.subtract %1152, %1153 : tensor<1x256x1280xf32>
    %1155 = stablehlo.broadcast_in_dim %1154, dims = [0, 1, 2] : (tensor<1x256x1280xf32>) -> tensor<1x256x1280xf32>
    %1156 = stablehlo.broadcast_in_dim %1151, dims = [0, 1, 2] : (tensor<1x256x1xf32>) -> tensor<1x256x1280xf32>
    %1157 = stablehlo.multiply %1155, %1156 : tensor<1x256x1280xf32>
    %1158 = stablehlo.convert %arg25 : (tensor<1280xbf16>) -> tensor<1280xf32>
    %1159 = stablehlo.broadcast_in_dim %1157, dims = [0, 1, 2] : (tensor<1x256x1280xf32>) -> tensor<1x256x1280xf32>
    %1160 = stablehlo.broadcast_in_dim %1158, dims = [2] : (tensor<1280xf32>) -> tensor<1x256x1280xf32>
    %1161 = stablehlo.multiply %1159, %1160 : tensor<1x256x1280xf32>
    %1162 = stablehlo.convert %arg26 : (tensor<1280xbf16>) -> tensor<1280xf32>
    %1163 = stablehlo.broadcast_in_dim %1161, dims = [0, 1, 2] : (tensor<1x256x1280xf32>) -> tensor<1x256x1280xf32>
    %1164 = stablehlo.broadcast_in_dim %1162, dims = [2] : (tensor<1280xf32>) -> tensor<1x256x1280xf32>
    %1165 = stablehlo.add %1163, %1164 : tensor<1x256x1280xf32>
    %1166 = stablehlo.convert %1165 : (tensor<1x256x1280xf32>) -> tensor<1x256x1280xbf16>
    %1167 = stablehlo.reshape %1166 : (tensor<1x256x1280xbf16>) -> tensor<256x1280xbf16>
    %1168 = stablehlo.convert %1167 : (tensor<256x1280xbf16>) -> tensor<256x1280xf32>
    %1169 = stablehlo.dot_general %1168, %arg185, contracting_dims = [1] x [0] : (tensor<256x1280xf32>, tensor<1280x1280xf32>) -> tensor<256x1280xf32>
    %1170 = stablehlo.broadcast_in_dim %1169, dims = [0, 1] : (tensor<256x1280xf32>) -> tensor<256x1280xf32>
    %1171 = stablehlo.multiply %1170, %127 : tensor<256x1280xf32>
    %1172 = stablehlo.broadcast_in_dim %1171, dims = [0, 1] : (tensor<256x1280xf32>) -> tensor<256x1280xf32>
    %1173 = stablehlo.broadcast_in_dim %arg186, dims = [1] : (tensor<1280xf32>) -> tensor<256x1280xf32>
    %1174 = stablehlo.add %1172, %1173 : tensor<256x1280xf32>
    %1175 = stablehlo.convert %1174 : (tensor<256x1280xf32>) -> tensor<256x1280xbf16>
    %1176 = stablehlo.reshape %1175 : (tensor<256x1280xbf16>) -> tensor<1x256x1280xbf16>
    %1177 = stablehlo.multiply %1176, %cst_4 : tensor<1x256x1280xbf16>
    %1178 = stablehlo.multiply %1176, %190 : tensor<1x256x1280xbf16>
    %1179 = stablehlo.convert %1178 : (tensor<1x256x1280xbf16>) -> tensor<1x256x1280xf32>
    %1180 = stablehlo.clamp %cst_5, %1179, %cst_6 : tensor<1x256x1280xf32>
    %1181 = stablehlo.multiply %1180, %1180 : tensor<1x256x1280xf32>
    %1182 = stablehlo.multiply %cst_7, %1181 : tensor<1x256x1280xf32>
    %1183 = stablehlo.add %1182, %cst_8 : tensor<1x256x1280xf32>
    %1184 = stablehlo.multiply %1183, %1181 : tensor<1x256x1280xf32>
    %1185 = stablehlo.add %1184, %cst_9 : tensor<1x256x1280xf32>
    %1186 = stablehlo.multiply %1185, %1181 : tensor<1x256x1280xf32>
    %1187 = stablehlo.add %1186, %cst_10 : tensor<1x256x1280xf32>
    %1188 = stablehlo.multiply %1187, %1181 : tensor<1x256x1280xf32>
    %1189 = stablehlo.add %1188, %cst_11 : tensor<1x256x1280xf32>
    %1190 = stablehlo.multiply %1189, %1181 : tensor<1x256x1280xf32>
    %1191 = stablehlo.add %1190, %cst_12 : tensor<1x256x1280xf32>
    %1192 = stablehlo.multiply %1191, %1181 : tensor<1x256x1280xf32>
    %1193 = stablehlo.add %1192, %cst_13 : tensor<1x256x1280xf32>
    %1194 = stablehlo.multiply %cst_14, %1181 : tensor<1x256x1280xf32>
    %1195 = stablehlo.add %1194, %cst_15 : tensor<1x256x1280xf32>
    %1196 = stablehlo.multiply %1195, %1181 : tensor<1x256x1280xf32>
    %1197 = stablehlo.add %1196, %cst_16 : tensor<1x256x1280xf32>
    %1198 = stablehlo.multiply %1197, %1181 : tensor<1x256x1280xf32>
    %1199 = stablehlo.add %1198, %cst_17 : tensor<1x256x1280xf32>
    %1200 = stablehlo.multiply %1199, %1181 : tensor<1x256x1280xf32>
    %1201 = stablehlo.add %1200, %cst_18 : tensor<1x256x1280xf32>
    %1202 = stablehlo.multiply %1180, %1193 : tensor<1x256x1280xf32>
    %1203 = stablehlo.divide %1202, %1201 : tensor<1x256x1280xf32>
    %1204 = stablehlo.clamp %cst_19, %1203, %cst_20 : tensor<1x256x1280xf32>
    %1205 = stablehlo.convert %1204 : (tensor<1x256x1280xf32>) -> tensor<1x256x1280xbf16>
    %1206 = stablehlo.add %1205, %cst_2 : tensor<1x256x1280xbf16>
    %1207 = stablehlo.multiply %1206, %1177 : tensor<1x256x1280xbf16>
    %1208 = stablehlo.reshape %1207 : (tensor<1x256x1280xbf16>) -> tensor<256x1280xbf16>
    %1209 = stablehlo.convert %1208 : (tensor<256x1280xbf16>) -> tensor<256x1280xf32>
    %1210 = stablehlo.dot_general %1209, %arg187, contracting_dims = [1] x [0] : (tensor<256x1280xf32>, tensor<1280x1280xf32>) -> tensor<256x1280xf32>
    %1211 = stablehlo.broadcast_in_dim %1210, dims = [0, 1] : (tensor<256x1280xf32>) -> tensor<256x1280xf32>
    %1212 = stablehlo.multiply %1211, %127 : tensor<256x1280xf32>
    %1213 = stablehlo.broadcast_in_dim %1212, dims = [0, 1] : (tensor<256x1280xf32>) -> tensor<256x1280xf32>
    %1214 = stablehlo.broadcast_in_dim %arg188, dims = [1] : (tensor<1280xf32>) -> tensor<256x1280xf32>
    %1215 = stablehlo.add %1213, %1214 : tensor<256x1280xf32>
    %1216 = stablehlo.convert %1215 : (tensor<256x1280xf32>) -> tensor<256x1280xbf16>
    %1217 = stablehlo.reshape %1216 : (tensor<256x1280xbf16>) -> tensor<1x256x1280xbf16>
    %1218 = stablehlo.add %1217, %1129 : tensor<1x256x1280xbf16>
    %1219 = stablehlo.convert %1218 : (tensor<1x256x1280xbf16>) -> tensor<1x256x1280xf32>
    %1220 = stablehlo.convert %1219 : (tensor<1x256x1280xf32>) -> tensor<1x256x1280xf64>
    %1221 = stablehlo.reduce(%1220 init: %cst) applies stablehlo.add across dimensions = [2] : (tensor<1x256x1280xf64>, tensor<f64>) -> tensor<1x256xf64>
    %1222 = stablehlo.reshape %1221 : (tensor<1x256xf64>) -> tensor<1x256x1xf64>
    %1223 = stablehlo.broadcast_in_dim %1222, dims = [0, 1, 2] : (tensor<1x256x1xf64>) -> tensor<1x256x1xf64>
    %1224 = stablehlo.divide %1223, %142 : tensor<1x256x1xf64>
    %1225 = stablehlo.broadcast_in_dim %1220, dims = [0, 1, 2] : (tensor<1x256x1280xf64>) -> tensor<1x256x1280xf64>
    %1226 = stablehlo.broadcast_in_dim %1224, dims = [0, 1, 2] : (tensor<1x256x1xf64>) -> tensor<1x256x1280xf64>
    %1227 = stablehlo.subtract %1225, %1226 : tensor<1x256x1280xf64>
    %1228 = stablehlo.multiply %1227, %1227 : tensor<1x256x1280xf64>
    %1229 = stablehlo.reduce(%1228 init: %cst) applies stablehlo.add across dimensions = [2] : (tensor<1x256x1280xf64>, tensor<f64>) -> tensor<1x256xf64>
    %1230 = stablehlo.reshape %1229 : (tensor<1x256xf64>) -> tensor<1x256x1xf64>
    %1231 = stablehlo.broadcast_in_dim %1230, dims = [0, 1, 2] : (tensor<1x256x1xf64>) -> tensor<1x256x1xf64>
    %1232 = stablehlo.divide %1231, %142 : tensor<1x256x1xf64>
    %1233 = stablehlo.convert %1232 : (tensor<1x256x1xf64>) -> tensor<1x256x1xf32>
    %1234 = stablehlo.reduce(%1219 init: %cst_0) applies stablehlo.add across dimensions = [2] : (tensor<1x256x1280xf32>, tensor<f32>) -> tensor<1x256xf32>
    %1235 = stablehlo.reshape %1234 : (tensor<1x256xf32>) -> tensor<1x256x1xf32>
    %1236 = stablehlo.broadcast_in_dim %1235, dims = [0, 1, 2] : (tensor<1x256x1xf32>) -> tensor<1x256x1xf32>
    %1237 = stablehlo.divide %1236, %158 : tensor<1x256x1xf32>
    %1238 = stablehlo.broadcast_in_dim %1233, dims = [0, 1, 2] : (tensor<1x256x1xf32>) -> tensor<1x256x1xf32>
    %1239 = stablehlo.add %1238, %161 : tensor<1x256x1xf32>
    %1240 = stablehlo.rsqrt %1239 : tensor<1x256x1xf32>
    %1241 = stablehlo.broadcast_in_dim %1219, dims = [0, 1, 2] : (tensor<1x256x1280xf32>) -> tensor<1x256x1280xf32>
    %1242 = stablehlo.broadcast_in_dim %1237, dims = [0, 1, 2] : (tensor<1x256x1xf32>) -> tensor<1x256x1280xf32>
    %1243 = stablehlo.subtract %1241, %1242 : tensor<1x256x1280xf32>
    %1244 = stablehlo.broadcast_in_dim %1243, dims = [0, 1, 2] : (tensor<1x256x1280xf32>) -> tensor<1x256x1280xf32>
    %1245 = stablehlo.broadcast_in_dim %1240, dims = [0, 1, 2] : (tensor<1x256x1xf32>) -> tensor<1x256x1280xf32>
    %1246 = stablehlo.multiply %1244, %1245 : tensor<1x256x1280xf32>
    %1247 = stablehlo.convert %arg27 : (tensor<1280xbf16>) -> tensor<1280xf32>
    %1248 = stablehlo.broadcast_in_dim %1246, dims = [0, 1, 2] : (tensor<1x256x1280xf32>) -> tensor<1x256x1280xf32>
    %1249 = stablehlo.broadcast_in_dim %1247, dims = [2] : (tensor<1280xf32>) -> tensor<1x256x1280xf32>
    %1250 = stablehlo.multiply %1248, %1249 : tensor<1x256x1280xf32>
    %1251 = stablehlo.convert %arg28 : (tensor<1280xbf16>) -> tensor<1280xf32>
    %1252 = stablehlo.broadcast_in_dim %1250, dims = [0, 1, 2] : (tensor<1x256x1280xf32>) -> tensor<1x256x1280xf32>
    %1253 = stablehlo.broadcast_in_dim %1251, dims = [2] : (tensor<1280xf32>) -> tensor<1x256x1280xf32>
    %1254 = stablehlo.add %1252, %1253 : tensor<1x256x1280xf32>
    %1255 = stablehlo.convert %1254 : (tensor<1x256x1280xf32>) -> tensor<1x256x1280xbf16>
    %1256 = stablehlo.reshape %1255 : (tensor<1x256x1280xbf16>) -> tensor<256x1280xbf16>
    %1257 = stablehlo.convert %1256 : (tensor<256x1280xbf16>) -> tensor<256x1280xf32>
    %1258 = stablehlo.dot_general %1257, %arg189, contracting_dims = [1] x [0] : (tensor<256x1280xf32>, tensor<1280x256xf32>) -> tensor<256x256xf32>
    %1259 = stablehlo.broadcast_in_dim %1258, dims = [0, 1] : (tensor<256x256xf32>) -> tensor<256x256xf32>
    %1260 = stablehlo.multiply %1259, %273 : tensor<256x256xf32>
    %1261 = stablehlo.broadcast_in_dim %1260, dims = [0, 1] : (tensor<256x256xf32>) -> tensor<256x256xf32>
    %1262 = stablehlo.broadcast_in_dim %arg190, dims = [1] : (tensor<256xf32>) -> tensor<256x256xf32>
    %1263 = stablehlo.add %1261, %1262 : tensor<256x256xf32>
    %1264 = stablehlo.convert %1263 : (tensor<256x256xf32>) -> tensor<256x256xbf16>
    %1265 = stablehlo.reshape %1264 : (tensor<256x256xbf16>) -> tensor<1x256x256xbf16>
    %1266 = stablehlo.dot_general %1257, %arg191, contracting_dims = [1] x [0] : (tensor<256x1280xf32>, tensor<1280x256xf32>) -> tensor<256x256xf32>
    %1267 = stablehlo.broadcast_in_dim %1266, dims = [0, 1] : (tensor<256x256xf32>) -> tensor<256x256xf32>
    %1268 = stablehlo.multiply %1267, %273 : tensor<256x256xf32>
    %1269 = stablehlo.broadcast_in_dim %1268, dims = [0, 1] : (tensor<256x256xf32>) -> tensor<256x256xf32>
    %1270 = stablehlo.broadcast_in_dim %arg192, dims = [1] : (tensor<256xf32>) -> tensor<256x256xf32>
    %1271 = stablehlo.add %1269, %1270 : tensor<256x256xf32>
    %1272 = stablehlo.convert %1271 : (tensor<256x256xf32>) -> tensor<256x256xbf16>
    %1273 = stablehlo.reshape %1272 : (tensor<256x256xbf16>) -> tensor<1x256x256xbf16>
    %1274 = stablehlo.dot_general %1257, %arg193, contracting_dims = [1] x [0] : (tensor<256x1280xf32>, tensor<1280x1280xf32>) -> tensor<256x1280xf32>
    %1275 = stablehlo.broadcast_in_dim %1274, dims = [0, 1] : (tensor<256x1280xf32>) -> tensor<256x1280xf32>
    %1276 = stablehlo.multiply %1275, %127 : tensor<256x1280xf32>
    %1277 = stablehlo.broadcast_in_dim %1276, dims = [0, 1] : (tensor<256x1280xf32>) -> tensor<256x1280xf32>
    %1278 = stablehlo.broadcast_in_dim %arg194, dims = [1] : (tensor<1280xf32>) -> tensor<256x1280xf32>
    %1279 = stablehlo.add %1277, %1278 : tensor<256x1280xf32>
    %1280 = stablehlo.convert %1279 : (tensor<256x1280xf32>) -> tensor<256x1280xbf16>
    %1281 = stablehlo.reshape %1280 : (tensor<256x1280xbf16>) -> tensor<1x256x1280xbf16>
    %1282 = stablehlo.reshape %1265 : (tensor<1x256x256xbf16>) -> tensor<1x256x8x32xbf16>
    %1283 = stablehlo.transpose %1282, dims = [0, 2, 1, 3] : (tensor<1x256x8x32xbf16>) -> tensor<1x8x256x32xbf16>
    %1284 = stablehlo.reshape %1273 : (tensor<1x256x256xbf16>) -> tensor<1x256x8x32xbf16>
    %1285 = stablehlo.transpose %1284, dims = [0, 2, 1, 3] : (tensor<1x256x8x32xbf16>) -> tensor<1x8x256x32xbf16>
    %1286 = stablehlo.reshape %1281 : (tensor<1x256x1280xbf16>) -> tensor<1x256x8x160xbf16>
    %1287 = stablehlo.transpose %1286, dims = [0, 2, 1, 3] : (tensor<1x256x8x160xbf16>) -> tensor<1x8x256x160xbf16>
    %1288 = stablehlo.transpose %1285, dims = [0, 1, 3, 2] : (tensor<1x8x256x32xbf16>) -> tensor<1x8x32x256xbf16>
    %1289 = stablehlo.reshape %1283 : (tensor<1x8x256x32xbf16>) -> tensor<8x256x32xbf16>
    %1290 = stablehlo.reshape %1288 : (tensor<1x8x32x256xbf16>) -> tensor<8x32x256xbf16>
    %1291 = stablehlo.broadcast_in_dim %1290, dims = [0, 1, 2] : (tensor<8x32x256xbf16>) -> tensor<8x32x256xbf16>
    %1292 = stablehlo.dot_general %1289, %1291, batching_dims = [0] x [0], contracting_dims = [2] x [1] : (tensor<8x256x32xbf16>, tensor<8x32x256xbf16>) -> tensor<8x256x256xbf16>
    %1293 = stablehlo.reshape %1292 : (tensor<8x256x256xbf16>) -> tensor<1x8x256x256xbf16>
    %1294 = stablehlo.broadcast_in_dim %1293, dims = [0, 1, 2, 3] : (tensor<1x8x256x256xbf16>) -> tensor<1x8x256x256xbf16>
    %1295 = stablehlo.divide %1294, %309 : tensor<1x8x256x256xbf16>
    %1296 = stablehlo.convert %1295 : (tensor<1x8x256x256xbf16>) -> tensor<1x8x256x256xf32>
    %1297 = stablehlo.reduce(%1296 init: %cst_1) applies stablehlo.maximum across dimensions = [3] : (tensor<1x8x256x256xf32>, tensor<f32>) -> tensor<1x8x256xf32>
    %1298 = stablehlo.reshape %1297 : (tensor<1x8x256xf32>) -> tensor<1x8x256x1xf32>
    %1299 = stablehlo.broadcast_in_dim %1296, dims = [0, 1, 2, 3] : (tensor<1x8x256x256xf32>) -> tensor<1x8x256x256xf32>
    %1300 = stablehlo.broadcast_in_dim %1298, dims = [0, 1, 2, 3] : (tensor<1x8x256x1xf32>) -> tensor<1x8x256x256xf32>
    %1301 = stablehlo.subtract %1299, %1300 : tensor<1x8x256x256xf32>
    %1302 = stablehlo.exponential %1301 : tensor<1x8x256x256xf32>
    %1303 = stablehlo.reduce(%1302 init: %cst_0) applies stablehlo.add across dimensions = [3] : (tensor<1x8x256x256xf32>, tensor<f32>) -> tensor<1x8x256xf32>
    %1304 = stablehlo.reshape %1303 : (tensor<1x8x256xf32>) -> tensor<1x8x256x1xf32>
    %1305 = stablehlo.broadcast_in_dim %1302, dims = [0, 1, 2, 3] : (tensor<1x8x256x256xf32>) -> tensor<1x8x256x256xf32>
    %1306 = stablehlo.broadcast_in_dim %1304, dims = [0, 1, 2, 3] : (tensor<1x8x256x1xf32>) -> tensor<1x8x256x256xf32>
    %1307 = stablehlo.divide %1305, %1306 : tensor<1x8x256x256xf32>
    %1308 = stablehlo.convert %1307 : (tensor<1x8x256x256xf32>) -> tensor<1x8x256x256xbf16>
    %1309 = stablehlo.reshape %1308 : (tensor<1x8x256x256xbf16>) -> tensor<8x256x256xbf16>
    %1310 = stablehlo.reshape %1287 : (tensor<1x8x256x160xbf16>) -> tensor<8x256x160xbf16>
    %1311 = stablehlo.broadcast_in_dim %1310, dims = [0, 1, 2] : (tensor<8x256x160xbf16>) -> tensor<8x256x160xbf16>
    %1312 = stablehlo.dot_general %1309, %1311, batching_dims = [0] x [0], contracting_dims = [2] x [1] : (tensor<8x256x256xbf16>, tensor<8x256x160xbf16>) -> tensor<8x256x160xbf16>
    %1313 = stablehlo.reshape %1312 : (tensor<8x256x160xbf16>) -> tensor<1x8x256x160xbf16>
    %1314 = stablehlo.transpose %1313, dims = [0, 2, 1, 3] : (tensor<1x8x256x160xbf16>) -> tensor<1x256x8x160xbf16>
    %1315 = stablehlo.reshape %1314 : (tensor<1x256x8x160xbf16>) -> tensor<1x256x1280xbf16>
    %1316 = stablehlo.reshape %1315 : (tensor<1x256x1280xbf16>) -> tensor<256x1280xbf16>
    %1317 = stablehlo.convert %1316 : (tensor<256x1280xbf16>) -> tensor<256x1280xf32>
    %1318 = stablehlo.dot_general %1317, %arg195, contracting_dims = [1] x [0] : (tensor<256x1280xf32>, tensor<1280x1280xf32>) -> tensor<256x1280xf32>
    %1319 = stablehlo.broadcast_in_dim %1318, dims = [0, 1] : (tensor<256x1280xf32>) -> tensor<256x1280xf32>
    %1320 = stablehlo.multiply %1319, %127 : tensor<256x1280xf32>
    %1321 = stablehlo.broadcast_in_dim %1320, dims = [0, 1] : (tensor<256x1280xf32>) -> tensor<256x1280xf32>
    %1322 = stablehlo.broadcast_in_dim %arg196, dims = [1] : (tensor<1280xf32>) -> tensor<256x1280xf32>
    %1323 = stablehlo.add %1321, %1322 : tensor<256x1280xf32>
    %1324 = stablehlo.convert %1323 : (tensor<256x1280xf32>) -> tensor<256x1280xbf16>
    %1325 = stablehlo.reshape %1324 : (tensor<256x1280xbf16>) -> tensor<1x256x1280xbf16>
    %1326 = stablehlo.add %1325, %1218 : tensor<1x256x1280xbf16>
    %1327 = stablehlo.convert %1326 : (tensor<1x256x1280xbf16>) -> tensor<1x256x1280xf32>
    %1328 = stablehlo.convert %1327 : (tensor<1x256x1280xf32>) -> tensor<1x256x1280xf64>
    %1329 = stablehlo.reduce(%1328 init: %cst) applies stablehlo.add across dimensions = [2] : (tensor<1x256x1280xf64>, tensor<f64>) -> tensor<1x256xf64>
    %1330 = stablehlo.reshape %1329 : (tensor<1x256xf64>) -> tensor<1x256x1xf64>
    %1331 = stablehlo.broadcast_in_dim %1330, dims = [0, 1, 2] : (tensor<1x256x1xf64>) -> tensor<1x256x1xf64>
    %1332 = stablehlo.divide %1331, %142 : tensor<1x256x1xf64>
    %1333 = stablehlo.broadcast_in_dim %1328, dims = [0, 1, 2] : (tensor<1x256x1280xf64>) -> tensor<1x256x1280xf64>
    %1334 = stablehlo.broadcast_in_dim %1332, dims = [0, 1, 2] : (tensor<1x256x1xf64>) -> tensor<1x256x1280xf64>
    %1335 = stablehlo.subtract %1333, %1334 : tensor<1x256x1280xf64>
    %1336 = stablehlo.multiply %1335, %1335 : tensor<1x256x1280xf64>
    %1337 = stablehlo.reduce(%1336 init: %cst) applies stablehlo.add across dimensions = [2] : (tensor<1x256x1280xf64>, tensor<f64>) -> tensor<1x256xf64>
    %1338 = stablehlo.reshape %1337 : (tensor<1x256xf64>) -> tensor<1x256x1xf64>
    %1339 = stablehlo.broadcast_in_dim %1338, dims = [0, 1, 2] : (tensor<1x256x1xf64>) -> tensor<1x256x1xf64>
    %1340 = stablehlo.divide %1339, %142 : tensor<1x256x1xf64>
    %1341 = stablehlo.convert %1340 : (tensor<1x256x1xf64>) -> tensor<1x256x1xf32>
    %1342 = stablehlo.reduce(%1327 init: %cst_0) applies stablehlo.add across dimensions = [2] : (tensor<1x256x1280xf32>, tensor<f32>) -> tensor<1x256xf32>
    %1343 = stablehlo.reshape %1342 : (tensor<1x256xf32>) -> tensor<1x256x1xf32>
    %1344 = stablehlo.broadcast_in_dim %1343, dims = [0, 1, 2] : (tensor<1x256x1xf32>) -> tensor<1x256x1xf32>
    %1345 = stablehlo.divide %1344, %158 : tensor<1x256x1xf32>
    %1346 = stablehlo.broadcast_in_dim %1341, dims = [0, 1, 2] : (tensor<1x256x1xf32>) -> tensor<1x256x1xf32>
    %1347 = stablehlo.add %1346, %161 : tensor<1x256x1xf32>
    %1348 = stablehlo.rsqrt %1347 : tensor<1x256x1xf32>
    %1349 = stablehlo.broadcast_in_dim %1327, dims = [0, 1, 2] : (tensor<1x256x1280xf32>) -> tensor<1x256x1280xf32>
    %1350 = stablehlo.broadcast_in_dim %1345, dims = [0, 1, 2] : (tensor<1x256x1xf32>) -> tensor<1x256x1280xf32>
    %1351 = stablehlo.subtract %1349, %1350 : tensor<1x256x1280xf32>
    %1352 = stablehlo.broadcast_in_dim %1351, dims = [0, 1, 2] : (tensor<1x256x1280xf32>) -> tensor<1x256x1280xf32>
    %1353 = stablehlo.broadcast_in_dim %1348, dims = [0, 1, 2] : (tensor<1x256x1xf32>) -> tensor<1x256x1280xf32>
    %1354 = stablehlo.multiply %1352, %1353 : tensor<1x256x1280xf32>
    %1355 = stablehlo.convert %arg29 : (tensor<1280xbf16>) -> tensor<1280xf32>
    %1356 = stablehlo.broadcast_in_dim %1354, dims = [0, 1, 2] : (tensor<1x256x1280xf32>) -> tensor<1x256x1280xf32>
    %1357 = stablehlo.broadcast_in_dim %1355, dims = [2] : (tensor<1280xf32>) -> tensor<1x256x1280xf32>
    %1358 = stablehlo.multiply %1356, %1357 : tensor<1x256x1280xf32>
    %1359 = stablehlo.convert %arg30 : (tensor<1280xbf16>) -> tensor<1280xf32>
    %1360 = stablehlo.broadcast_in_dim %1358, dims = [0, 1, 2] : (tensor<1x256x1280xf32>) -> tensor<1x256x1280xf32>
    %1361 = stablehlo.broadcast_in_dim %1359, dims = [2] : (tensor<1280xf32>) -> tensor<1x256x1280xf32>
    %1362 = stablehlo.add %1360, %1361 : tensor<1x256x1280xf32>
    %1363 = stablehlo.convert %1362 : (tensor<1x256x1280xf32>) -> tensor<1x256x1280xbf16>
    %1364 = stablehlo.reshape %1363 : (tensor<1x256x1280xbf16>) -> tensor<256x1280xbf16>
    %1365 = stablehlo.convert %1364 : (tensor<256x1280xbf16>) -> tensor<256x1280xf32>
    %1366 = stablehlo.dot_general %1365, %arg197, contracting_dims = [1] x [0] : (tensor<256x1280xf32>, tensor<1280x1280xf32>) -> tensor<256x1280xf32>
    %1367 = stablehlo.broadcast_in_dim %1366, dims = [0, 1] : (tensor<256x1280xf32>) -> tensor<256x1280xf32>
    %1368 = stablehlo.multiply %1367, %127 : tensor<256x1280xf32>
    %1369 = stablehlo.broadcast_in_dim %1368, dims = [0, 1] : (tensor<256x1280xf32>) -> tensor<256x1280xf32>
    %1370 = stablehlo.broadcast_in_dim %arg198, dims = [1] : (tensor<1280xf32>) -> tensor<256x1280xf32>
    %1371 = stablehlo.add %1369, %1370 : tensor<256x1280xf32>
    %1372 = stablehlo.convert %1371 : (tensor<256x1280xf32>) -> tensor<256x1280xbf16>
    %1373 = stablehlo.reshape %1372 : (tensor<256x1280xbf16>) -> tensor<1x256x1280xbf16>
    %1374 = stablehlo.multiply %1373, %cst_4 : tensor<1x256x1280xbf16>
    %1375 = stablehlo.multiply %1373, %190 : tensor<1x256x1280xbf16>
    %1376 = stablehlo.convert %1375 : (tensor<1x256x1280xbf16>) -> tensor<1x256x1280xf32>
    %1377 = stablehlo.clamp %cst_5, %1376, %cst_6 : tensor<1x256x1280xf32>
    %1378 = stablehlo.multiply %1377, %1377 : tensor<1x256x1280xf32>
    %1379 = stablehlo.multiply %cst_7, %1378 : tensor<1x256x1280xf32>
    %1380 = stablehlo.add %1379, %cst_8 : tensor<1x256x1280xf32>
    %1381 = stablehlo.multiply %1380, %1378 : tensor<1x256x1280xf32>
    %1382 = stablehlo.add %1381, %cst_9 : tensor<1x256x1280xf32>
    %1383 = stablehlo.multiply %1382, %1378 : tensor<1x256x1280xf32>
    %1384 = stablehlo.add %1383, %cst_10 : tensor<1x256x1280xf32>
    %1385 = stablehlo.multiply %1384, %1378 : tensor<1x256x1280xf32>
    %1386 = stablehlo.add %1385, %cst_11 : tensor<1x256x1280xf32>
    %1387 = stablehlo.multiply %1386, %1378 : tensor<1x256x1280xf32>
    %1388 = stablehlo.add %1387, %cst_12 : tensor<1x256x1280xf32>
    %1389 = stablehlo.multiply %1388, %1378 : tensor<1x256x1280xf32>
    %1390 = stablehlo.add %1389, %cst_13 : tensor<1x256x1280xf32>
    %1391 = stablehlo.multiply %cst_14, %1378 : tensor<1x256x1280xf32>
    %1392 = stablehlo.add %1391, %cst_15 : tensor<1x256x1280xf32>
    %1393 = stablehlo.multiply %1392, %1378 : tensor<1x256x1280xf32>
    %1394 = stablehlo.add %1393, %cst_16 : tensor<1x256x1280xf32>
    %1395 = stablehlo.multiply %1394, %1378 : tensor<1x256x1280xf32>
    %1396 = stablehlo.add %1395, %cst_17 : tensor<1x256x1280xf32>
    %1397 = stablehlo.multiply %1396, %1378 : tensor<1x256x1280xf32>
    %1398 = stablehlo.add %1397, %cst_18 : tensor<1x256x1280xf32>
    %1399 = stablehlo.multiply %1377, %1390 : tensor<1x256x1280xf32>
    %1400 = stablehlo.divide %1399, %1398 : tensor<1x256x1280xf32>
    %1401 = stablehlo.clamp %cst_19, %1400, %cst_20 : tensor<1x256x1280xf32>
    %1402 = stablehlo.convert %1401 : (tensor<1x256x1280xf32>) -> tensor<1x256x1280xbf16>
    %1403 = stablehlo.add %1402, %cst_2 : tensor<1x256x1280xbf16>
    %1404 = stablehlo.multiply %1403, %1374 : tensor<1x256x1280xbf16>
    %1405 = stablehlo.reshape %1404 : (tensor<1x256x1280xbf16>) -> tensor<256x1280xbf16>
    %1406 = stablehlo.convert %1405 : (tensor<256x1280xbf16>) -> tensor<256x1280xf32>
    %1407 = stablehlo.dot_general %1406, %arg199, contracting_dims = [1] x [0] : (tensor<256x1280xf32>, tensor<1280x1280xf32>) -> tensor<256x1280xf32>
    %1408 = stablehlo.broadcast_in_dim %1407, dims = [0, 1] : (tensor<256x1280xf32>) -> tensor<256x1280xf32>
    %1409 = stablehlo.multiply %1408, %127 : tensor<256x1280xf32>
    %1410 = stablehlo.broadcast_in_dim %1409, dims = [0, 1] : (tensor<256x1280xf32>) -> tensor<256x1280xf32>
    %1411 = stablehlo.broadcast_in_dim %arg200, dims = [1] : (tensor<1280xf32>) -> tensor<256x1280xf32>
    %1412 = stablehlo.add %1410, %1411 : tensor<256x1280xf32>
    %1413 = stablehlo.convert %1412 : (tensor<256x1280xf32>) -> tensor<256x1280xbf16>
    %1414 = stablehlo.reshape %1413 : (tensor<256x1280xbf16>) -> tensor<1x256x1280xbf16>
    %1415 = stablehlo.add %1414, %1326 : tensor<1x256x1280xbf16>
    %1416 = stablehlo.convert %1415 : (tensor<1x256x1280xbf16>) -> tensor<1x256x1280xf32>
    %1417 = stablehlo.convert %1416 : (tensor<1x256x1280xf32>) -> tensor<1x256x1280xf64>
    %1418 = stablehlo.reduce(%1417 init: %cst) applies stablehlo.add across dimensions = [2] : (tensor<1x256x1280xf64>, tensor<f64>) -> tensor<1x256xf64>
    %1419 = stablehlo.reshape %1418 : (tensor<1x256xf64>) -> tensor<1x256x1xf64>
    %1420 = stablehlo.broadcast_in_dim %1419, dims = [0, 1, 2] : (tensor<1x256x1xf64>) -> tensor<1x256x1xf64>
    %1421 = stablehlo.divide %1420, %142 : tensor<1x256x1xf64>
    %1422 = stablehlo.broadcast_in_dim %1417, dims = [0, 1, 2] : (tensor<1x256x1280xf64>) -> tensor<1x256x1280xf64>
    %1423 = stablehlo.broadcast_in_dim %1421, dims = [0, 1, 2] : (tensor<1x256x1xf64>) -> tensor<1x256x1280xf64>
    %1424 = stablehlo.subtract %1422, %1423 : tensor<1x256x1280xf64>
    %1425 = stablehlo.multiply %1424, %1424 : tensor<1x256x1280xf64>
    %1426 = stablehlo.reduce(%1425 init: %cst) applies stablehlo.add across dimensions = [2] : (tensor<1x256x1280xf64>, tensor<f64>) -> tensor<1x256xf64>
    %1427 = stablehlo.reshape %1426 : (tensor<1x256xf64>) -> tensor<1x256x1xf64>
    %1428 = stablehlo.broadcast_in_dim %1427, dims = [0, 1, 2] : (tensor<1x256x1xf64>) -> tensor<1x256x1xf64>
    %1429 = stablehlo.divide %1428, %142 : tensor<1x256x1xf64>
    %1430 = stablehlo.convert %1429 : (tensor<1x256x1xf64>) -> tensor<1x256x1xf32>
    %1431 = stablehlo.reduce(%1416 init: %cst_0) applies stablehlo.add across dimensions = [2] : (tensor<1x256x1280xf32>, tensor<f32>) -> tensor<1x256xf32>
    %1432 = stablehlo.reshape %1431 : (tensor<1x256xf32>) -> tensor<1x256x1xf32>
    %1433 = stablehlo.broadcast_in_dim %1432, dims = [0, 1, 2] : (tensor<1x256x1xf32>) -> tensor<1x256x1xf32>
    %1434 = stablehlo.divide %1433, %158 : tensor<1x256x1xf32>
    %1435 = stablehlo.broadcast_in_dim %1430, dims = [0, 1, 2] : (tensor<1x256x1xf32>) -> tensor<1x256x1xf32>
    %1436 = stablehlo.add %1435, %161 : tensor<1x256x1xf32>
    %1437 = stablehlo.rsqrt %1436 : tensor<1x256x1xf32>
    %1438 = stablehlo.broadcast_in_dim %1416, dims = [0, 1, 2] : (tensor<1x256x1280xf32>) -> tensor<1x256x1280xf32>
    %1439 = stablehlo.broadcast_in_dim %1434, dims = [0, 1, 2] : (tensor<1x256x1xf32>) -> tensor<1x256x1280xf32>
    %1440 = stablehlo.subtract %1438, %1439 : tensor<1x256x1280xf32>
    %1441 = stablehlo.broadcast_in_dim %1440, dims = [0, 1, 2] : (tensor<1x256x1280xf32>) -> tensor<1x256x1280xf32>
    %1442 = stablehlo.broadcast_in_dim %1437, dims = [0, 1, 2] : (tensor<1x256x1xf32>) -> tensor<1x256x1280xf32>
    %1443 = stablehlo.multiply %1441, %1442 : tensor<1x256x1280xf32>
    %1444 = stablehlo.convert %arg31 : (tensor<1280xbf16>) -> tensor<1280xf32>
    %1445 = stablehlo.broadcast_in_dim %1443, dims = [0, 1, 2] : (tensor<1x256x1280xf32>) -> tensor<1x256x1280xf32>
    %1446 = stablehlo.broadcast_in_dim %1444, dims = [2] : (tensor<1280xf32>) -> tensor<1x256x1280xf32>
    %1447 = stablehlo.multiply %1445, %1446 : tensor<1x256x1280xf32>
    %1448 = stablehlo.convert %arg32 : (tensor<1280xbf16>) -> tensor<1280xf32>
    %1449 = stablehlo.broadcast_in_dim %1447, dims = [0, 1, 2] : (tensor<1x256x1280xf32>) -> tensor<1x256x1280xf32>
    %1450 = stablehlo.broadcast_in_dim %1448, dims = [2] : (tensor<1280xf32>) -> tensor<1x256x1280xf32>
    %1451 = stablehlo.add %1449, %1450 : tensor<1x256x1280xf32>
    %1452 = stablehlo.convert %1451 : (tensor<1x256x1280xf32>) -> tensor<1x256x1280xbf16>
    %1453 = stablehlo.reshape %1452 : (tensor<1x256x1280xbf16>) -> tensor<256x1280xbf16>
    %1454 = stablehlo.convert %1453 : (tensor<256x1280xbf16>) -> tensor<256x1280xf32>
    %1455 = stablehlo.dot_general %1454, %arg201, contracting_dims = [1] x [0] : (tensor<256x1280xf32>, tensor<1280x256xf32>) -> tensor<256x256xf32>
    %1456 = stablehlo.broadcast_in_dim %1455, dims = [0, 1] : (tensor<256x256xf32>) -> tensor<256x256xf32>
    %1457 = stablehlo.multiply %1456, %273 : tensor<256x256xf32>
    %1458 = stablehlo.broadcast_in_dim %1457, dims = [0, 1] : (tensor<256x256xf32>) -> tensor<256x256xf32>
    %1459 = stablehlo.broadcast_in_dim %arg202, dims = [1] : (tensor<256xf32>) -> tensor<256x256xf32>
    %1460 = stablehlo.add %1458, %1459 : tensor<256x256xf32>
    %1461 = stablehlo.convert %1460 : (tensor<256x256xf32>) -> tensor<256x256xbf16>
    %1462 = stablehlo.reshape %1461 : (tensor<256x256xbf16>) -> tensor<1x256x256xbf16>
    %1463 = stablehlo.dot_general %1454, %arg203, contracting_dims = [1] x [0] : (tensor<256x1280xf32>, tensor<1280x256xf32>) -> tensor<256x256xf32>
…
    %5010 = stablehlo.broadcast_in_dim %5009, dims = [0, 1] : (tensor<256x256xf32>) -> tensor<256x256xf32>
    %5011 = stablehlo.multiply %5010, %273 : tensor<256x256xf32>
    %5012 = stablehlo.broadcast_in_dim %5011, dims = [0, 1] : (tensor<256x256xf32>) -> tensor<256x256xf32>
    %5013 = stablehlo.broadcast_in_dim %arg420, dims = [1] : (tensor<256xf32>) -> tensor<256x256xf32>
    %5014 = stablehlo.add %5012, %5013 : tensor<256x256xf32>
    %5015 = stablehlo.convert %5014 : (tensor<256x256xf32>) -> tensor<256x256xbf16>
    %5016 = stablehlo.reshape %5015 : (tensor<256x256xbf16>) -> tensor<1x256x256xbf16>
    %5017 = stablehlo.dot_general %5000, %arg421, contracting_dims = [1] x [0] : (tensor<256x1280xf32>, tensor<1280x1280xf32>) -> tensor<256x1280xf32>
    %5018 = stablehlo.broadcast_in_dim %5017, dims = [0, 1] : (tensor<256x1280xf32>) -> tensor<256x1280xf32>
    %5019 = stablehlo.multiply %5018, %127 : tensor<256x1280xf32>
    %5020 = stablehlo.broadcast_in_dim %5019, dims = [0, 1] : (tensor<256x1280xf32>) -> tensor<256x1280xf32>
    %5021 = stablehlo.broadcast_in_dim %arg422, dims = [1] : (tensor<1280xf32>) -> tensor<256x1280xf32>
    %5022 = stablehlo.add %5020, %5021 : tensor<256x1280xf32>
    %5023 = stablehlo.convert %5022 : (tensor<256x1280xf32>) -> tensor<256x1280xbf16>
    %5024 = stablehlo.reshape %5023 : (tensor<256x1280xbf16>) -> tensor<1x256x1280xbf16>
    %5025 = stablehlo.reshape %5008 : (tensor<1x256x256xbf16>) -> tensor<1x256x8x32xbf16>
    %5026 = stablehlo.transpose %5025, dims = [0, 2, 1, 3] : (tensor<1x256x8x32xbf16>) -> tensor<1x8x256x32xbf16>
    %5027 = stablehlo.reshape %5016 : (tensor<1x256x256xbf16>) -> tensor<1x256x8x32xbf16>
    %5028 = stablehlo.transpose %5027, dims = [0, 2, 1, 3] : (tensor<1x256x8x32xbf16>) -> tensor<1x8x256x32xbf16>
    %5029 = stablehlo.reshape %5024 : (tensor<1x256x1280xbf16>) -> tensor<1x256x8x160xbf16>
    %5030 = stablehlo.transpose %5029, dims = [0, 2, 1, 3] : (tensor<1x256x8x160xbf16>) -> tensor<1x8x256x160xbf16>
    %5031 = stablehlo.transpose %5028, dims = [0, 1, 3, 2] : (tensor<1x8x256x32xbf16>) -> tensor<1x8x32x256xbf16>
    %5032 = stablehlo.reshape %5026 : (tensor<1x8x256x32xbf16>) -> tensor<8x256x32xbf16>
    %5033 = stablehlo.reshape %5031 : (tensor<1x8x32x256xbf16>) -> tensor<8x32x256xbf16>
    %5034 = stablehlo.broadcast_in_dim %5033, dims = [0, 1, 2] : (tensor<8x32x256xbf16>) -> tensor<8x32x256xbf16>
    %5035 = stablehlo.dot_general %5032, %5034, batching_dims = [0] x [0], contracting_dims = [2] x [1] : (tensor<8x256x32xbf16>, tensor<8x32x256xbf16>) -> tensor<8x256x256xbf16>
    %5036 = stablehlo.reshape %5035 : (tensor<8x256x256xbf16>) -> tensor<1x8x256x256xbf16>
    %5037 = stablehlo.broadcast_in_dim %5036, dims = [0, 1, 2, 3] : (tensor<1x8x256x256xbf16>) -> tensor<1x8x256x256xbf16>
    %5038 = stablehlo.divide %5037, %309 : tensor<1x8x256x256xbf16>
    %5039 = stablehlo.convert %5038 : (tensor<1x8x256x256xbf16>) -> tensor<1x8x256x256xf32>
    %5040 = stablehlo.reduce(%5039 init: %cst_1) applies stablehlo.maximum across dimensions = [3] : (tensor<1x8x256x256xf32>, tensor<f32>) -> tensor<1x8x256xf32>
    %5041 = stablehlo.reshape %5040 : (tensor<1x8x256xf32>) -> tensor<1x8x256x1xf32>
    %5042 = stablehlo.broadcast_in_dim %5039, dims = [0, 1, 2, 3] : (tensor<1x8x256x256xf32>) -> tensor<1x8x256x256xf32>
    %5043 = stablehlo.broadcast_in_dim %5041, dims = [0, 1, 2, 3] : (tensor<1x8x256x1xf32>) -> tensor<1x8x256x256xf32>
    %5044 = stablehlo.subtract %5042, %5043 : tensor<1x8x256x256xf32>
    %5045 = stablehlo.exponential %5044 : tensor<1x8x256x256xf32>
    %5046 = stablehlo.reduce(%5045 init: %cst_0) applies stablehlo.add across dimensions = [3] : (tensor<1x8x256x256xf32>, tensor<f32>) -> tensor<1x8x256xf32>
    %5047 = stablehlo.reshape %5046 : (tensor<1x8x256xf32>) -> tensor<1x8x256x1xf32>
    %5048 = stablehlo.broadcast_in_dim %5045, dims = [0, 1, 2, 3] : (tensor<1x8x256x256xf32>) -> tensor<1x8x256x256xf32>
    %5049 = stablehlo.broadcast_in_dim %5047, dims = [0, 1, 2, 3] : (tensor<1x8x256x1xf32>) -> tensor<1x8x256x256xf32>
    %5050 = stablehlo.divide %5048, %5049 : tensor<1x8x256x256xf32>
    %5051 = stablehlo.convert %5050 : (tensor<1x8x256x256xf32>) -> tensor<1x8x256x256xbf16>
    %5052 = stablehlo.reshape %5051 : (tensor<1x8x256x256xbf16>) -> tensor<8x256x256xbf16>
    %5053 = stablehlo.reshape %5030 : (tensor<1x8x256x160xbf16>) -> tensor<8x256x160xbf16>
    %5054 = stablehlo.broadcast_in_dim %5053, dims = [0, 1, 2] : (tensor<8x256x160xbf16>) -> tensor<8x256x160xbf16>
    %5055 = stablehlo.dot_general %5052, %5054, batching_dims = [0] x [0], contracting_dims = [2] x [1] : (tensor<8x256x256xbf16>, tensor<8x256x160xbf16>) -> tensor<8x256x160xbf16>
    %5056 = stablehlo.reshape %5055 : (tensor<8x256x160xbf16>) -> tensor<1x8x256x160xbf16>
    %5057 = stablehlo.transpose %5056, dims = [0, 2, 1, 3] : (tensor<1x8x256x160xbf16>) -> tensor<1x256x8x160xbf16>
    %5058 = stablehlo.reshape %5057 : (tensor<1x256x8x160xbf16>) -> tensor<1x256x1280xbf16>
    %5059 = stablehlo.reshape %5058 : (tensor<1x256x1280xbf16>) -> tensor<256x1280xbf16>
    %5060 = stablehlo.convert %5059 : (tensor<256x1280xbf16>) -> tensor<256x1280xf32>
    %5061 = stablehlo.dot_general %5060, %arg423, contracting_dims = [1] x [0] : (tensor<256x1280xf32>, tensor<1280x1280xf32>) -> tensor<256x1280xf32>
    %5062 = stablehlo.broadcast_in_dim %5061, dims = [0, 1] : (tensor<256x1280xf32>) -> tensor<256x1280xf32>
    %5063 = stablehlo.multiply %5062, %127 : tensor<256x1280xf32>
    %5064 = stablehlo.broadcast_in_dim %5063, dims = [0, 1] : (tensor<256x1280xf32>) -> tensor<256x1280xf32>
    %5065 = stablehlo.broadcast_in_dim %arg424, dims = [1] : (tensor<1280xf32>) -> tensor<256x1280xf32>
    %5066 = stablehlo.add %5064, %5065 : tensor<256x1280xf32>
    %5067 = stablehlo.convert %5066 : (tensor<256x1280xf32>) -> tensor<256x1280xbf16>
    %5068 = stablehlo.reshape %5067 : (tensor<256x1280xbf16>) -> tensor<1x256x1280xbf16>
    %5069 = stablehlo.add %5068, %4961 : tensor<1x256x1280xbf16>
    %5070 = stablehlo.convert %5069 : (tensor<1x256x1280xbf16>) -> tensor<1x256x1280xf32>
    %5071 = stablehlo.convert %5070 : (tensor<1x256x1280xf32>) -> tensor<1x256x1280xf64>
    %5072 = stablehlo.reduce(%5071 init: %cst) applies stablehlo.add across dimensions = [2] : (tensor<1x256x1280xf64>, tensor<f64>) -> tensor<1x256xf64>
    %5073 = stablehlo.reshape %5072 : (tensor<1x256xf64>) -> tensor<1x256x1xf64>
    %5074 = stablehlo.broadcast_in_dim %5073, dims = [0, 1, 2] : (tensor<1x256x1xf64>) -> tensor<1x256x1xf64>
    %5075 = stablehlo.divide %5074, %142 : tensor<1x256x1xf64>
    %5076 = stablehlo.broadcast_in_dim %5071, dims = [0, 1, 2] : (tensor<1x256x1280xf64>) -> tensor<1x256x1280xf64>
    %5077 = stablehlo.broadcast_in_dim %5075, dims = [0, 1, 2] : (tensor<1x256x1xf64>) -> tensor<1x256x1280xf64>
    %5078 = stablehlo.subtract %5076, %5077 : tensor<1x256x1280xf64>
    %5079 = stablehlo.multiply %5078, %5078 : tensor<1x256x1280xf64>
    %5080 = stablehlo.reduce(%5079 init: %cst) applies stablehlo.add across dimensions = [2] : (tensor<1x256x1280xf64>, tensor<f64>) -> tensor<1x256xf64>
    %5081 = stablehlo.reshape %5080 : (tensor<1x256xf64>) -> tensor<1x256x1xf64>
    %5082 = stablehlo.broadcast_in_dim %5081, dims = [0, 1, 2] : (tensor<1x256x1xf64>) -> tensor<1x256x1xf64>
    %5083 = stablehlo.divide %5082, %142 : tensor<1x256x1xf64>
    %5084 = stablehlo.convert %5083 : (tensor<1x256x1xf64>) -> tensor<1x256x1xf32>
    %5085 = stablehlo.reduce(%5070 init: %cst_0) applies stablehlo.add across dimensions = [2] : (tensor<1x256x1280xf32>, tensor<f32>) -> tensor<1x256xf32>
    %5086 = stablehlo.reshape %5085 : (tensor<1x256xf32>) -> tensor<1x256x1xf32>
    %5087 = stablehlo.broadcast_in_dim %5086, dims = [0, 1, 2] : (tensor<1x256x1xf32>) -> tensor<1x256x1xf32>
    %5088 = stablehlo.divide %5087, %158 : tensor<1x256x1xf32>
    %5089 = stablehlo.broadcast_in_dim %5084, dims = [0, 1, 2] : (tensor<1x256x1xf32>) -> tensor<1x256x1xf32>
    %5090 = stablehlo.add %5089, %161 : tensor<1x256x1xf32>
    %5091 = stablehlo.rsqrt %5090 : tensor<1x256x1xf32>
    %5092 = stablehlo.broadcast_in_dim %5070, dims = [0, 1, 2] : (tensor<1x256x1280xf32>) -> tensor<1x256x1280xf32>
    %5093 = stablehlo.broadcast_in_dim %5088, dims = [0, 1, 2] : (tensor<1x256x1xf32>) -> tensor<1x256x1280xf32>
    %5094 = stablehlo.subtract %5092, %5093 : tensor<1x256x1280xf32>
    %5095 = stablehlo.broadcast_in_dim %5094, dims = [0, 1, 2] : (tensor<1x256x1280xf32>) -> tensor<1x256x1280xf32>
    %5096 = stablehlo.broadcast_in_dim %5091, dims = [0, 1, 2] : (tensor<1x256x1xf32>) -> tensor<1x256x1280xf32>
    %5097 = stablehlo.multiply %5095, %5096 : tensor<1x256x1280xf32>
    %5098 = stablehlo.convert %arg105 : (tensor<1280xbf16>) -> tensor<1280xf32>
    %5099 = stablehlo.broadcast_in_dim %5097, dims = [0, 1, 2] : (tensor<1x256x1280xf32>) -> tensor<1x256x1280xf32>
    %5100 = stablehlo.broadcast_in_dim %5098, dims = [2] : (tensor<1280xf32>) -> tensor<1x256x1280xf32>
    %5101 = stablehlo.multiply %5099, %5100 : tensor<1x256x1280xf32>
    %5102 = stablehlo.convert %arg106 : (tensor<1280xbf16>) -> tensor<1280xf32>
    %5103 = stablehlo.broadcast_in_dim %5101, dims = [0, 1, 2] : (tensor<1x256x1280xf32>) -> tensor<1x256x1280xf32>
    %5104 = stablehlo.broadcast_in_dim %5102, dims = [2] : (tensor<1280xf32>) -> tensor<1x256x1280xf32>
    %5105 = stablehlo.add %5103, %5104 : tensor<1x256x1280xf32>
    %5106 = stablehlo.convert %5105 : (tensor<1x256x1280xf32>) -> tensor<1x256x1280xbf16>
    %5107 = stablehlo.reshape %5106 : (tensor<1x256x1280xbf16>) -> tensor<256x1280xbf16>
    %5108 = stablehlo.convert %5107 : (tensor<256x1280xbf16>) -> tensor<256x1280xf32>
    %5109 = stablehlo.dot_general %5108, %arg425, contracting_dims = [1] x [0] : (tensor<256x1280xf32>, tensor<1280x1280xf32>) -> tensor<256x1280xf32>
    %5110 = stablehlo.broadcast_in_dim %5109, dims = [0, 1] : (tensor<256x1280xf32>) -> tensor<256x1280xf32>
    %5111 = stablehlo.multiply %5110, %127 : tensor<256x1280xf32>
    %5112 = stablehlo.broadcast_in_dim %5111, dims = [0, 1] : (tensor<256x1280xf32>) -> tensor<256x1280xf32>
    %5113 = stablehlo.broadcast_in_dim %arg426, dims = [1] : (tensor<1280xf32>) -> tensor<256x1280xf32>
    %5114 = stablehlo.add %5112, %5113 : tensor<256x1280xf32>
    %5115 = stablehlo.convert %5114 : (tensor<256x1280xf32>) -> tensor<256x1280xbf16>
    %5116 = stablehlo.reshape %5115 : (tensor<256x1280xbf16>) -> tensor<1x256x1280xbf16>
    %5117 = stablehlo.multiply %5116, %cst_4 : tensor<1x256x1280xbf16>
    %5118 = stablehlo.multiply %5116, %190 : tensor<1x256x1280xbf16>
    %5119 = stablehlo.convert %5118 : (tensor<1x256x1280xbf16>) -> tensor<1x256x1280xf32>
    %5120 = stablehlo.clamp %cst_5, %5119, %cst_6 : tensor<1x256x1280xf32>
    %5121 = stablehlo.multiply %5120, %5120 : tensor<1x256x1280xf32>
    %5122 = stablehlo.multiply %cst_7, %5121 : tensor<1x256x1280xf32>
    %5123 = stablehlo.add %5122, %cst_8 : tensor<1x256x1280xf32>
    %5124 = stablehlo.multiply %5123, %5121 : tensor<1x256x1280xf32>
    %5125 = stablehlo.add %5124, %cst_9 : tensor<1x256x1280xf32>
    %5126 = stablehlo.multiply %5125, %5121 : tensor<1x256x1280xf32>
    %5127 = stablehlo.add %5126, %cst_10 : tensor<1x256x1280xf32>
    %5128 = stablehlo.multiply %5127, %5121 : tensor<1x256x1280xf32>
    %5129 = stablehlo.add %5128, %cst_11 : tensor<1x256x1280xf32>
    %5130 = stablehlo.multiply %5129, %5121 : tensor<1x256x1280xf32>
    %5131 = stablehlo.add %5130, %cst_12 : tensor<1x256x1280xf32>
    %5132 = stablehlo.multiply %5131, %5121 : tensor<1x256x1280xf32>
    %5133 = stablehlo.add %5132, %cst_13 : tensor<1x256x1280xf32>
    %5134 = stablehlo.multiply %cst_14, %5121 : tensor<1x256x1280xf32>
    %5135 = stablehlo.add %5134, %cst_15 : tensor<1x256x1280xf32>
    %5136 = stablehlo.multiply %5135, %5121 : tensor<1x256x1280xf32>
    %5137 = stablehlo.add %5136, %cst_16 : tensor<1x256x1280xf32>
    %5138 = stablehlo.multiply %5137, %5121 : tensor<1x256x1280xf32>
    %5139 = stablehlo.add %5138, %cst_17 : tensor<1x256x1280xf32>
    %5140 = stablehlo.multiply %5139, %5121 : tensor<1x256x1280xf32>
    %5141 = stablehlo.add %5140, %cst_18 : tensor<1x256x1280xf32>
    %5142 = stablehlo.multiply %5120, %5133 : tensor<1x256x1280xf32>
    %5143 = stablehlo.divide %5142, %5141 : tensor<1x256x1280xf32>
    %5144 = stablehlo.clamp %cst_19, %5143, %cst_20 : tensor<1x256x1280xf32>
    %5145 = stablehlo.convert %5144 : (tensor<1x256x1280xf32>) -> tensor<1x256x1280xbf16>
    %5146 = stablehlo.add %5145, %cst_2 : tensor<1x256x1280xbf16>
    %5147 = stablehlo.multiply %5146, %5117 : tensor<1x256x1280xbf16>
    %5148 = stablehlo.reshape %5147 : (tensor<1x256x1280xbf16>) -> tensor<256x1280xbf16>
    %5149 = stablehlo.convert %5148 : (tensor<256x1280xbf16>) -> tensor<256x1280xf32>
    %5150 = stablehlo.dot_general %5149, %arg427, contracting_dims = [1] x [0] : (tensor<256x1280xf32>, tensor<1280x1280xf32>) -> tensor<256x1280xf32>
    %5151 = stablehlo.broadcast_in_dim %5150, dims = [0, 1] : (tensor<256x1280xf32>) -> tensor<256x1280xf32>
    %5152 = stablehlo.multiply %5151, %127 : tensor<256x1280xf32>
    %5153 = stablehlo.broadcast_in_dim %5152, dims = [0, 1] : (tensor<256x1280xf32>) -> tensor<256x1280xf32>
    %5154 = stablehlo.broadcast_in_dim %arg428, dims = [1] : (tensor<1280xf32>) -> tensor<256x1280xf32>
    %5155 = stablehlo.add %5153, %5154 : tensor<256x1280xf32>
    %5156 = stablehlo.convert %5155 : (tensor<256x1280xf32>) -> tensor<256x1280xbf16>
    %5157 = stablehlo.reshape %5156 : (tensor<256x1280xbf16>) -> tensor<1x256x1280xbf16>
    %5158 = stablehlo.add %5157, %5069 : tensor<1x256x1280xbf16>
    %5159 = stablehlo.convert %5158 : (tensor<1x256x1280xbf16>) -> tensor<1x256x1280xf32>
    %5160 = stablehlo.convert %5159 : (tensor<1x256x1280xf32>) -> tensor<1x256x1280xf64>
    %5161 = stablehlo.reduce(%5160 init: %cst) applies stablehlo.add across dimensions = [2] : (tensor<1x256x1280xf64>, tensor<f64>) -> tensor<1x256xf64>
    %5162 = stablehlo.reshape %5161 : (tensor<1x256xf64>) -> tensor<1x256x1xf64>
    %5163 = stablehlo.broadcast_in_dim %5162, dims = [0, 1, 2] : (tensor<1x256x1xf64>) -> tensor<1x256x1xf64>
    %5164 = stablehlo.divide %5163, %142 : tensor<1x256x1xf64>
    %5165 = stablehlo.broadcast_in_dim %5160, dims = [0, 1, 2] : (tensor<1x256x1280xf64>) -> tensor<1x256x1280xf64>
    %5166 = stablehlo.broadcast_in_dim %5164, dims = [0, 1, 2] : (tensor<1x256x1xf64>) -> tensor<1x256x1280xf64>
    %5167 = stablehlo.subtract %5165, %5166 : tensor<1x256x1280xf64>
    %5168 = stablehlo.multiply %5167, %5167 : tensor<1x256x1280xf64>
    %5169 = stablehlo.reduce(%5168 init: %cst) applies stablehlo.add across dimensions = [2] : (tensor<1x256x1280xf64>, tensor<f64>) -> tensor<1x256xf64>
    %5170 = stablehlo.reshape %5169 : (tensor<1x256xf64>) -> tensor<1x256x1xf64>
    %5171 = stablehlo.broadcast_in_dim %5170, dims = [0, 1, 2] : (tensor<1x256x1xf64>) -> tensor<1x256x1xf64>
    %5172 = stablehlo.divide %5171, %142 : tensor<1x256x1xf64>
    %5173 = stablehlo.convert %5172 : (tensor<1x256x1xf64>) -> tensor<1x256x1xf32>
    %5174 = stablehlo.reduce(%5159 init: %cst_0) applies stablehlo.add across dimensions = [2] : (tensor<1x256x1280xf32>, tensor<f32>) -> tensor<1x256xf32>
    %5175 = stablehlo.reshape %5174 : (tensor<1x256xf32>) -> tensor<1x256x1xf32>
    %5176 = stablehlo.broadcast_in_dim %5175, dims = [0, 1, 2] : (tensor<1x256x1xf32>) -> tensor<1x256x1xf32>
    %5177 = stablehlo.divide %5176, %158 : tensor<1x256x1xf32>
    %5178 = stablehlo.broadcast_in_dim %5173, dims = [0, 1, 2] : (tensor<1x256x1xf32>) -> tensor<1x256x1xf32>
    %5179 = stablehlo.add %5178, %161 : tensor<1x256x1xf32>
    %5180 = stablehlo.rsqrt %5179 : tensor<1x256x1xf32>
    %5181 = stablehlo.broadcast_in_dim %5159, dims = [0, 1, 2] : (tensor<1x256x1280xf32>) -> tensor<1x256x1280xf32>
    %5182 = stablehlo.broadcast_in_dim %5177, dims = [0, 1, 2] : (tensor<1x256x1xf32>) -> tensor<1x256x1280xf32>
    %5183 = stablehlo.subtract %5181, %5182 : tensor<1x256x1280xf32>
    %5184 = stablehlo.broadcast_in_dim %5183, dims = [0, 1, 2] : (tensor<1x256x1280xf32>) -> tensor<1x256x1280xf32>
    %5185 = stablehlo.broadcast_in_dim %5180, dims = [0, 1, 2] : (tensor<1x256x1xf32>) -> tensor<1x256x1280xf32>
    %5186 = stablehlo.multiply %5184, %5185 : tensor<1x256x1280xf32>
    %5187 = stablehlo.convert %arg107 : (tensor<1280xbf16>) -> tensor<1280xf32>
    %5188 = stablehlo.broadcast_in_dim %5186, dims = [0, 1, 2] : (tensor<1x256x1280xf32>) -> tensor<1x256x1280xf32>
    %5189 = stablehlo.broadcast_in_dim %5187, dims = [2] : (tensor<1280xf32>) -> tensor<1x256x1280xf32>
    %5190 = stablehlo.multiply %5188, %5189 : tensor<1x256x1280xf32>
    %5191 = stablehlo.convert %arg108 : (tensor<1280xbf16>) -> tensor<1280xf32>
    %5192 = stablehlo.broadcast_in_dim %5190, dims = [0, 1, 2] : (tensor<1x256x1280xf32>) -> tensor<1x256x1280xf32>
    %5193 = stablehlo.broadcast_in_dim %5191, dims = [2] : (tensor<1280xf32>) -> tensor<1x256x1280xf32>
    %5194 = stablehlo.add %5192, %5193 : tensor<1x256x1280xf32>
    %5195 = stablehlo.convert %5194 : (tensor<1x256x1280xf32>) -> tensor<1x256x1280xbf16>
    %5196 = stablehlo.reshape %5195 : (tensor<1x256x1280xbf16>) -> tensor<256x1280xbf16>
    %5197 = stablehlo.convert %5196 : (tensor<256x1280xbf16>) -> tensor<256x1280xf32>
    %5198 = stablehlo.dot_general %5197, %arg429, contracting_dims = [1] x [0] : (tensor<256x1280xf32>, tensor<1280x256xf32>) -> tensor<256x256xf32>
    %5199 = stablehlo.broadcast_in_dim %5198, dims = [0, 1] : (tensor<256x256xf32>) -> tensor<256x256xf32>
    %5200 = stablehlo.multiply %5199, %273 : tensor<256x256xf32>
    %5201 = stablehlo.broadcast_in_dim %5200, dims = [0, 1] : (tensor<256x256xf32>) -> tensor<256x256xf32>
    %5202 = stablehlo.broadcast_in_dim %arg430, dims = [1] : (tensor<256xf32>) -> tensor<256x256xf32>
    %5203 = stablehlo.add %5201, %5202 : tensor<256x256xf32>
    %5204 = stablehlo.convert %5203 : (tensor<256x256xf32>) -> tensor<256x256xbf16>
    %5205 = stablehlo.reshape %5204 : (tensor<256x256xbf16>) -> tensor<1x256x256xbf16>
    %5206 = stablehlo.dot_general %5197, %arg431, contracting_dims = [1] x [0] : (tensor<256x1280xf32>, tensor<1280x256xf32>) -> tensor<256x256xf32>
    %5207 = stablehlo.broadcast_in_dim %5206, dims = [0, 1] : (tensor<256x256xf32>) -> tensor<256x256xf32>
    %5208 = stablehlo.multiply %5207, %273 : tensor<256x256xf32>
    %5209 = stablehlo.broadcast_in_dim %5208, dims = [0, 1] : (tensor<256x256xf32>) -> tensor<256x256xf32>
    %5210 = stablehlo.broadcast_in_dim %arg432, dims = [1] : (tensor<256xf32>) -> tensor<256x256xf32>
    %5211 = stablehlo.add %5209, %5210 : tensor<256x256xf32>
    %5212 = stablehlo.convert %5211 : (tensor<256x256xf32>) -> tensor<256x256xbf16>
    %5213 = stablehlo.reshape %5212 : (tensor<256x256xbf16>) -> tensor<1x256x256xbf16>
    %5214 = stablehlo.dot_general %5197, %arg433, contracting_dims = [1] x [0] : (tensor<256x1280xf32>, tensor<1280x1280xf32>) -> tensor<256x1280xf32>
    %5215 = stablehlo.broadcast_in_dim %5214, dims = [0, 1] : (tensor<256x1280xf32>) -> tensor<256x1280xf32>
    %5216 = stablehlo.multiply %5215, %127 : tensor<256x1280xf32>
    %5217 = stablehlo.broadcast_in_dim %5216, dims = [0, 1] : (tensor<256x1280xf32>) -> tensor<256x1280xf32>
    %5218 = stablehlo.broadcast_in_dim %arg434, dims = [1] : (tensor<1280xf32>) -> tensor<256x1280xf32>
    %5219 = stablehlo.add %5217, %5218 : tensor<256x1280xf32>
    %5220 = stablehlo.convert %5219 : (tensor<256x1280xf32>) -> tensor<256x1280xbf16>
    %5221 = stablehlo.reshape %5220 : (tensor<256x1280xbf16>) -> tensor<1x256x1280xbf16>
    %5222 = stablehlo.reshape %5205 : (tensor<1x256x256xbf16>) -> tensor<1x256x8x32xbf16>
    %5223 = stablehlo.transpose %5222, dims = [0, 2, 1, 3] : (tensor<1x256x8x32xbf16>) -> tensor<1x8x256x32xbf16>
    %5224 = stablehlo.reshape %5213 : (tensor<1x256x256xbf16>) -> tensor<1x256x8x32xbf16>
    %5225 = stablehlo.transpose %5224, dims = [0, 2, 1, 3] : (tensor<1x256x8x32xbf16>) -> tensor<1x8x256x32xbf16>
    %5226 = stablehlo.reshape %5221 : (tensor<1x256x1280xbf16>) -> tensor<1x256x8x160xbf16>
    %5227 = stablehlo.transpose %5226, dims = [0, 2, 1, 3] : (tensor<1x256x8x160xbf16>) -> tensor<1x8x256x160xbf16>
    %5228 = stablehlo.transpose %5225, dims = [0, 1, 3, 2] : (tensor<1x8x256x32xbf16>) -> tensor<1x8x32x256xbf16>
    %5229 = stablehlo.reshape %5223 : (tensor<1x8x256x32xbf16>) -> tensor<8x256x32xbf16>
    %5230 = stablehlo.reshape %5228 : (tensor<1x8x32x256xbf16>) -> tensor<8x32x256xbf16>
    %5231 = stablehlo.broadcast_in_dim %5230, dims = [0, 1, 2] : (tensor<8x32x256xbf16>) -> tensor<8x32x256xbf16>
    %5232 = stablehlo.dot_general %5229, %5231, batching_dims = [0] x [0], contracting_dims = [2] x [1] : (tensor<8x256x32xbf16>, tensor<8x32x256xbf16>) -> tensor<8x256x256xbf16>
    %5233 = stablehlo.reshape %5232 : (tensor<8x256x256xbf16>) -> tensor<1x8x256x256xbf16>
    %5234 = stablehlo.broadcast_in_dim %5233, dims = [0, 1, 2, 3] : (tensor<1x8x256x256xbf16>) -> tensor<1x8x256x256xbf16>
    %5235 = stablehlo.divide %5234, %309 : tensor<1x8x256x256xbf16>
    %5236 = stablehlo.convert %5235 : (tensor<1x8x256x256xbf16>) -> tensor<1x8x256x256xf32>
    %5237 = stablehlo.reduce(%5236 init: %cst_1) applies stablehlo.maximum across dimensions = [3] : (tensor<1x8x256x256xf32>, tensor<f32>) -> tensor<1x8x256xf32>
    %5238 = stablehlo.reshape %5237 : (tensor<1x8x256xf32>) -> tensor<1x8x256x1xf32>
    %5239 = stablehlo.broadcast_in_dim %5236, dims = [0, 1, 2, 3] : (tensor<1x8x256x256xf32>) -> tensor<1x8x256x256xf32>
    %5240 = stablehlo.broadcast_in_dim %5238, dims = [0, 1, 2, 3] : (tensor<1x8x256x1xf32>) -> tensor<1x8x256x256xf32>
    %5241 = stablehlo.subtract %5239, %5240 : tensor<1x8x256x256xf32>
    %5242 = stablehlo.exponential %5241 : tensor<1x8x256x256xf32>
    %5243 = stablehlo.reduce(%5242 init: %cst_0) applies stablehlo.add across dimensions = [3] : (tensor<1x8x256x256xf32>, tensor<f32>) -> tensor<1x8x256xf32>
    %5244 = stablehlo.reshape %5243 : (tensor<1x8x256xf32>) -> tensor<1x8x256x1xf32>
    %5245 = stablehlo.broadcast_in_dim %5242, dims = [0, 1, 2, 3] : (tensor<1x8x256x256xf32>) -> tensor<1x8x256x256xf32>
    %5246 = stablehlo.broadcast_in_dim %5244, dims = [0, 1, 2, 3] : (tensor<1x8x256x1xf32>) -> tensor<1x8x256x256xf32>
    %5247 = stablehlo.divide %5245, %5246 : tensor<1x8x256x256xf32>
    %5248 = stablehlo.convert %5247 : (tensor<1x8x256x256xf32>) -> tensor<1x8x256x256xbf16>
    %5249 = stablehlo.reshape %5248 : (tensor<1x8x256x256xbf16>) -> tensor<8x256x256xbf16>
    %5250 = stablehlo.reshape %5227 : (tensor<1x8x256x160xbf16>) -> tensor<8x256x160xbf16>
    %5251 = stablehlo.broadcast_in_dim %5250, dims = [0, 1, 2] : (tensor<8x256x160xbf16>) -> tensor<8x256x160xbf16>
    %5252 = stablehlo.dot_general %5249, %5251, batching_dims = [0] x [0], contracting_dims = [2] x [1] : (tensor<8x256x256xbf16>, tensor<8x256x160xbf16>) -> tensor<8x256x160xbf16>
    %5253 = stablehlo.reshape %5252 : (tensor<8x256x160xbf16>) -> tensor<1x8x256x160xbf16>
    %5254 = stablehlo.transpose %5253, dims = [0, 2, 1, 3] : (tensor<1x8x256x160xbf16>) -> tensor<1x256x8x160xbf16>
    %5255 = stablehlo.reshape %5254 : (tensor<1x256x8x160xbf16>) -> tensor<1x256x1280xbf16>
    %5256 = stablehlo.reshape %5255 : (tensor<1x256x1280xbf16>) -> tensor<256x1280xbf16>
    %5257 = stablehlo.convert %5256 : (tensor<256x1280xbf16>) -> tensor<256x1280xf32>
    %5258 = stablehlo.dot_general %5257, %arg435, contracting_dims = [1] x [0] : (tensor<256x1280xf32>, tensor<1280x1280xf32>) -> tensor<256x1280xf32>
    %5259 = stablehlo.broadcast_in_dim %5258, dims = [0, 1] : (tensor<256x1280xf32>) -> tensor<256x1280xf32>
    %5260 = stablehlo.multiply %5259, %127 : tensor<256x1280xf32>
    %5261 = stablehlo.broadcast_in_dim %5260, dims = [0, 1] : (tensor<256x1280xf32>) -> tensor<256x1280xf32>
    %5262 = stablehlo.broadcast_in_dim %arg436, dims = [1] : (tensor<1280xf32>) -> tensor<256x1280xf32>
    %5263 = stablehlo.add %5261, %5262 : tensor<256x1280xf32>
    %5264 = stablehlo.convert %5263 : (tensor<256x1280xf32>) -> tensor<256x1280xbf16>
    %5265 = stablehlo.reshape %5264 : (tensor<256x1280xbf16>) -> tensor<1x256x1280xbf16>
    %5266 = stablehlo.add %5265, %5158 : tensor<1x256x1280xbf16>
    %5267 = stablehlo.convert %5266 : (tensor<1x256x1280xbf16>) -> tensor<1x256x1280xf32>
    %5268 = stablehlo.convert %5267 : (tensor<1x256x1280xf32>) -> tensor<1x256x1280xf64>
    %5269 = stablehlo.reduce(%5268 init: %cst) applies stablehlo.add across dimensions = [2] : (tensor<1x256x1280xf64>, tensor<f64>) -> tensor<1x256xf64>
    %5270 = stablehlo.reshape %5269 : (tensor<1x256xf64>) -> tensor<1x256x1xf64>
    %5271 = stablehlo.broadcast_in_dim %5270, dims = [0, 1, 2] : (tensor<1x256x1xf64>) -> tensor<1x256x1xf64>
    %5272 = stablehlo.divide %5271, %142 : tensor<1x256x1xf64>
    %5273 = stablehlo.broadcast_in_dim %5268, dims = [0, 1, 2] : (tensor<1x256x1280xf64>) -> tensor<1x256x1280xf64>
    %5274 = stablehlo.broadcast_in_dim %5272, dims = [0, 1, 2] : (tensor<1x256x1xf64>) -> tensor<1x256x1280xf64>
    %5275 = stablehlo.subtract %5273, %5274 : tensor<1x256x1280xf64>
    %5276 = stablehlo.multiply %5275, %5275 : tensor<1x256x1280xf64>
    %5277 = stablehlo.reduce(%5276 init: %cst) applies stablehlo.add across dimensions = [2] : (tensor<1x256x1280xf64>, tensor<f64>) -> tensor<1x256xf64>
    %5278 = stablehlo.reshape %5277 : (tensor<1x256xf64>) -> tensor<1x256x1xf64>
    %5279 = stablehlo.broadcast_in_dim %5278, dims = [0, 1, 2] : (tensor<1x256x1xf64>) -> tensor<1x256x1xf64>
    %5280 = stablehlo.divide %5279, %142 : tensor<1x256x1xf64>
    %5281 = stablehlo.convert %5280 : (tensor<1x256x1xf64>) -> tensor<1x256x1xf32>
    %5282 = stablehlo.reduce(%5267 init: %cst_0) applies stablehlo.add across dimensions = [2] : (tensor<1x256x1280xf32>, tensor<f32>) -> tensor<1x256xf32>
    %5283 = stablehlo.reshape %5282 : (tensor<1x256xf32>) -> tensor<1x256x1xf32>
    %5284 = stablehlo.broadcast_in_dim %5283, dims = [0, 1, 2] : (tensor<1x256x1xf32>) -> tensor<1x256x1xf32>
    %5285 = stablehlo.divide %5284, %158 : tensor<1x256x1xf32>
    %5286 = stablehlo.broadcast_in_dim %5281, dims = [0, 1, 2] : (tensor<1x256x1xf32>) -> tensor<1x256x1xf32>
    %5287 = stablehlo.add %5286, %161 : tensor<1x256x1xf32>
    %5288 = stablehlo.rsqrt %5287 : tensor<1x256x1xf32>
    %5289 = stablehlo.broadcast_in_dim %5267, dims = [0, 1, 2] : (tensor<1x256x1280xf32>) -> tensor<1x256x1280xf32>
    %5290 = stablehlo.broadcast_in_dim %5285, dims = [0, 1, 2] : (tensor<1x256x1xf32>) -> tensor<1x256x1280xf32>
    %5291 = stablehlo.subtract %5289, %5290 : tensor<1x256x1280xf32>
    %5292 = stablehlo.broadcast_in_dim %5291, dims = [0, 1, 2] : (tensor<1x256x1280xf32>) -> tensor<1x256x1280xf32>
    %5293 = stablehlo.broadcast_in_dim %5288, dims = [0, 1, 2] : (tensor<1x256x1xf32>) -> tensor<1x256x1280xf32>
    %5294 = stablehlo.multiply %5292, %5293 : tensor<1x256x1280xf32>
    %5295 = stablehlo.convert %arg109 : (tensor<1280xbf16>) -> tensor<1280xf32>
    %5296 = stablehlo.broadcast_in_dim %5294, dims = [0, 1, 2] : (tensor<1x256x1280xf32>) -> tensor<1x256x1280xf32>
    %5297 = stablehlo.broadcast_in_dim %5295, dims = [2] : (tensor<1280xf32>) -> tensor<1x256x1280xf32>
    %5298 = stablehlo.multiply %5296, %5297 : tensor<1x256x1280xf32>
    %5299 = stablehlo.convert %arg110 : (tensor<1280xbf16>) -> tensor<1280xf32>
    %5300 = stablehlo.broadcast_in_dim %5298, dims = [0, 1, 2] : (tensor<1x256x1280xf32>) -> tensor<1x256x1280xf32>
    %5301 = stablehlo.broadcast_in_dim %5299, dims = [2] : (tensor<1280xf32>) -> tensor<1x256x1280xf32>
    %5302 = stablehlo.add %5300, %5301 : tensor<1x256x1280xf32>
    %5303 = stablehlo.convert %5302 : (tensor<1x256x1280xf32>) -> tensor<1x256x1280xbf16>
    %5304 = stablehlo.reshape %5303 : (tensor<1x256x1280xbf16>) -> tensor<256x1280xbf16>
    %5305 = stablehlo.convert %5304 : (tensor<256x1280xbf16>) -> tensor<256x1280xf32>
    %5306 = stablehlo.dot_general %5305, %arg437, contracting_dims = [1] x [0] : (tensor<256x1280xf32>, tensor<1280x1280xf32>) -> tensor<256x1280xf32>
    %5307 = stablehlo.broadcast_in_dim %5306, dims = [0, 1] : (tensor<256x1280xf32>) -> tensor<256x1280xf32>
    %5308 = stablehlo.multiply %5307, %127 : tensor<256x1280xf32>
    %5309 = stablehlo.broadcast_in_dim %5308, dims = [0, 1] : (tensor<256x1280xf32>) -> tensor<256x1280xf32>
    %5310 = stablehlo.broadcast_in_dim %arg438, dims = [1] : (tensor<1280xf32>) -> tensor<256x1280xf32>
    %5311 = stablehlo.add %5309, %5310 : tensor<256x1280xf32>
    %5312 = stablehlo.convert %5311 : (tensor<256x1280xf32>) -> tensor<256x1280xbf16>
    %5313 = stablehlo.reshape %5312 : (tensor<256x1280xbf16>) -> tensor<1x256x1280xbf16>
    %5314 = stablehlo.multiply %5313, %cst_4 : tensor<1x256x1280xbf16>
    %5315 = stablehlo.multiply %5313, %190 : tensor<1x256x1280xbf16>
    %5316 = stablehlo.convert %5315 : (tensor<1x256x1280xbf16>) -> tensor<1x256x1280xf32>
    %5317 = stablehlo.clamp %cst_5, %5316, %cst_6 : tensor<1x256x1280xf32>
    %5318 = stablehlo.multiply %5317, %5317 : tensor<1x256x1280xf32>
    %5319 = stablehlo.multiply %cst_7, %5318 : tensor<1x256x1280xf32>
    %5320 = stablehlo.add %5319, %cst_8 : tensor<1x256x1280xf32>
    %5321 = stablehlo.multiply %5320, %5318 : tensor<1x256x1280xf32>
    %5322 = stablehlo.add %5321, %cst_9 : tensor<1x256x1280xf32>
    %5323 = stablehlo.multiply %5322, %5318 : tensor<1x256x1280xf32>
    %5324 = stablehlo.add %5323, %cst_10 : tensor<1x256x1280xf32>
    %5325 = stablehlo.multiply %5324, %5318 : tensor<1x256x1280xf32>
    %5326 = stablehlo.add %5325, %cst_11 : tensor<1x256x1280xf32>
    %5327 = stablehlo.multiply %5326, %5318 : tensor<1x256x1280xf32>
    %5328 = stablehlo.add %5327, %cst_12 : tensor<1x256x1280xf32>
    %5329 = stablehlo.multiply %5328, %5318 : tensor<1x256x1280xf32>
    %5330 = stablehlo.add %5329, %cst_13 : tensor<1x256x1280xf32>
    %5331 = stablehlo.multiply %cst_14, %5318 : tensor<1x256x1280xf32>
    %5332 = stablehlo.add %5331, %cst_15 : tensor<1x256x1280xf32>
    %5333 = stablehlo.multiply %5332, %5318 : tensor<1x256x1280xf32>
    %5334 = stablehlo.add %5333, %cst_16 : tensor<1x256x1280xf32>
    %5335 = stablehlo.multiply %5334, %5318 : tensor<1x256x1280xf32>
    %5336 = stablehlo.add %5335, %cst_17 : tensor<1x256x1280xf32>
    %5337 = stablehlo.multiply %5336, %5318 : tensor<1x256x1280xf32>
    %5338 = stablehlo.add %5337, %cst_18 : tensor<1x256x1280xf32>
    %5339 = stablehlo.multiply %5317, %5330 : tensor<1x256x1280xf32>
    %5340 = stablehlo.divide %5339, %5338 : tensor<1x256x1280xf32>
    %5341 = stablehlo.clamp %cst_19, %5340, %cst_20 : tensor<1x256x1280xf32>
    %5342 = stablehlo.convert %5341 : (tensor<1x256x1280xf32>) -> tensor<1x256x1280xbf16>
    %5343 = stablehlo.add %5342, %cst_2 : tensor<1x256x1280xbf16>
    %5344 = stablehlo.multiply %5343, %5314 : tensor<1x256x1280xbf16>
    %5345 = stablehlo.reshape %5344 : (tensor<1x256x1280xbf16>) -> tensor<256x1280xbf16>
    %5346 = stablehlo.convert %5345 : (tensor<256x1280xbf16>) -> tensor<256x1280xf32>
    %5347 = stablehlo.dot_general %5346, %arg439, contracting_dims = [1] x [0] : (tensor<256x1280xf32>, tensor<1280x1280xf32>) -> tensor<256x1280xf32>
    %5348 = stablehlo.broadcast_in_dim %5347, dims = [0, 1] : (tensor<256x1280xf32>) -> tensor<256x1280xf32>
    %5349 = stablehlo.multiply %5348, %127 : tensor<256x1280xf32>
    %5350 = stablehlo.broadcast_in_dim %5349, dims = [0, 1] : (tensor<256x1280xf32>) -> tensor<256x1280xf32>
    %5351 = stablehlo.broadcast_in_dim %arg440, dims = [1] : (tensor<1280xf32>) -> tensor<256x1280xf32>
    %5352 = stablehlo.add %5350, %5351 : tensor<256x1280xf32>
    %5353 = stablehlo.convert %5352 : (tensor<256x1280xf32>) -> tensor<256x1280xbf16>
    %5354 = stablehlo.reshape %5353 : (tensor<256x1280xbf16>) -> tensor<1x256x1280xbf16>
    %5355 = stablehlo.add %5354, %5266 : tensor<1x256x1280xbf16>
    %5356 = stablehlo.convert %5355 : (tensor<1x256x1280xbf16>) -> tensor<1x256x1280xf32>
    %5357 = stablehlo.convert %5356 : (tensor<1x256x1280xf32>) -> tensor<1x256x1280xf64>
    %5358 = stablehlo.reduce(%5357 init: %cst) applies stablehlo.add across dimensions = [2] : (tensor<1x256x1280xf64>, tensor<f64>) -> tensor<1x256xf64>
    %5359 = stablehlo.reshape %5358 : (tensor<1x256xf64>) -> tensor<1x256x1xf64>
    %5360 = stablehlo.broadcast_in_dim %5359, dims = [0, 1, 2] : (tensor<1x256x1xf64>) -> tensor<1x256x1xf64>
    %5361 = stablehlo.divide %5360, %142 : tensor<1x256x1xf64>
    %5362 = stablehlo.broadcast_in_dim %5357, dims = [0, 1, 2] : (tensor<1x256x1280xf64>) -> tensor<1x256x1280xf64>
    %5363 = stablehlo.broadcast_in_dim %5361, dims = [0, 1, 2] : (tensor<1x256x1xf64>) -> tensor<1x256x1280xf64>
    %5364 = stablehlo.subtract %5362, %5363 : tensor<1x256x1280xf64>
    %5365 = stablehlo.multiply %5364, %5364 : tensor<1x256x1280xf64>
    %5366 = stablehlo.reduce(%5365 init: %cst) applies stablehlo.add across dimensions = [2] : (tensor<1x256x1280xf64>, tensor<f64>) -> tensor<1x256xf64>
    %5367 = stablehlo.reshape %5366 : (tensor<1x256xf64>) -> tensor<1x256x1xf64>
    %5368 = stablehlo.broadcast_in_dim %5367, dims = [0, 1, 2] : (tensor<1x256x1xf64>) -> tensor<1x256x1xf64>
    %5369 = stablehlo.divide %5368, %142 : tensor<1x256x1xf64>
    %5370 = stablehlo.convert %5369 : (tensor<1x256x1xf64>) -> tensor<1x256x1xf32>
    %5371 = stablehlo.reduce(%5356 init: %cst_0) applies stablehlo.add across dimensions = [2] : (tensor<1x256x1280xf32>, tensor<f32>) -> tensor<1x256xf32>
    %5372 = stablehlo.reshape %5371 : (tensor<1x256xf32>) -> tensor<1x256x1xf32>
    %5373 = stablehlo.broadcast_in_dim %5372, dims = [0, 1, 2] : (tensor<1x256x1xf32>) -> tensor<1x256x1xf32>
    %5374 = stablehlo.divide %5373, %158 : tensor<1x256x1xf32>
    %5375 = stablehlo.broadcast_in_dim %5370, dims = [0, 1, 2] : (tensor<1x256x1xf32>) -> tensor<1x256x1xf32>
    %5376 = stablehlo.add %5375, %161 : tensor<1x256x1xf32>
    %5377 = stablehlo.rsqrt %5376 : tensor<1x256x1xf32>
    %5378 = stablehlo.broadcast_in_dim %5356, dims = [0, 1, 2] : (tensor<1x256x1280xf32>) -> tensor<1x256x1280xf32>
    %5379 = stablehlo.broadcast_in_dim %5374, dims = [0, 1, 2] : (tensor<1x256x1xf32>) -> tensor<1x256x1280xf32>
    %5380 = stablehlo.subtract %5378, %5379 : tensor<1x256x1280xf32>
    %5381 = stablehlo.broadcast_in_dim %5380, dims = [0, 1, 2] : (tensor<1x256x1280xf32>) -> tensor<1x256x1280xf32>
    %5382 = stablehlo.broadcast_in_dim %5377, dims = [0, 1, 2] : (tensor<1x256x1xf32>) -> tensor<1x256x1280xf32>
    %5383 = stablehlo.multiply %5381, %5382 : tensor<1x256x1280xf32>
    %5384 = stablehlo.convert %arg111 : (tensor<1280xbf16>) -> tensor<1280xf32>
    %5385 = stablehlo.broadcast_in_dim %5383, dims = [0, 1, 2] : (tensor<1x256x1280xf32>) -> tensor<1x256x1280xf32>
    %5386 = stablehlo.broadcast_in_dim %5384, dims = [2] : (tensor<1280xf32>) -> tensor<1x256x1280xf32>
    %5387 = stablehlo.multiply %5385, %5386 : tensor<1x256x1280xf32>
    %5388 = stablehlo.convert %arg112 : (tensor<1280xbf16>) -> tensor<1280xf32>
    %5389 = stablehlo.broadcast_in_dim %5387, dims = [0, 1, 2] : (tensor<1x256x1280xf32>) -> tensor<1x256x1280xf32>
    %5390 = stablehlo.broadcast_in_dim %5388, dims = [2] : (tensor<1280xf32>) -> tensor<1x256x1280xf32>
    %5391 = stablehlo.add %5389, %5390 : tensor<1x256x1280xf32>
    %5392 = stablehlo.convert %5391 : (tensor<1x256x1280xf32>) -> tensor<1x256x1280xbf16>
    %5393 = stablehlo.reshape %5392 : (tensor<1x256x1280xbf16>) -> tensor<256x1280xbf16>
    %5394 = stablehlo.convert %5393 : (tensor<256x1280xbf16>) -> tensor<256x1280xf32>
    %5395 = stablehlo.dot_general %5394, %arg441, contracting_dims = [1] x [0] : (tensor<256x1280xf32>, tensor<1280x256xf32>) -> tensor<256x256xf32>
    %5396 = stablehlo.broadcast_in_dim %5395, dims = [0, 1] : (tensor<256x256xf32>) -> tensor<256x256xf32>
    %5397 = stablehlo.multiply %5396, %273 : tensor<256x256xf32>
    %5398 = stablehlo.broadcast_in_dim %5397, dims = [0, 1] : (tensor<256x256xf32>) -> tensor<256x256xf32>
    %5399 = stablehlo.broadcast_in_dim %arg442, dims = [1] : (tensor<256xf32>) -> tensor<256x256xf32>
    %5400 = stablehlo.add %5398, %5399 : tensor<256x256xf32>
    %5401 = stablehlo.convert %5400 : (tensor<256x256xf32>) -> tensor<256x256xbf16>
    %5402 = stablehlo.reshape %5401 : (tensor<256x256xbf16>) -> tensor<1x256x256xbf16>
    %5403 = stablehlo.dot_general %5394, %arg443, contracting_dims = [1] x [0] : (tensor<256x1280xf32>, tensor<1280x768xf32>) -> tensor<256x768xf32>
    %5404 = stablehlo.broadcast_in_dim %5403, dims = [0, 1] : (tensor<256x768xf32>) -> tensor<256x768xf32>
    %5405 = stablehlo.broadcast_in_dim %68, dims = [] : (tensor<f32>) -> tensor<256x768xf32>
    %5406 = stablehlo.multiply %5404, %5405 : tensor<256x768xf32>
    %5407 = stablehlo.broadcast_in_dim %5406, dims = [0, 1] : (tensor<256x768xf32>) -> tensor<256x768xf32>
    %5408 = stablehlo.broadcast_in_dim %arg444, dims = [1] : (tensor<768xf32>) -> tensor<256x768xf32>
    %5409 = stablehlo.add %5407, %5408 : tensor<256x768xf32>
    %5410 = stablehlo.convert %5409 : (tensor<256x768xf32>) -> tensor<256x768xbf16>
    %5411 = stablehlo.reshape %5410 : (tensor<256x768xbf16>) -> tensor<1x256x768xbf16>
    %5412 = stablehlo.reshape %5402 : (tensor<1x256x256xbf16>) -> tensor<1x256x8x32xbf16>
    %5413 = stablehlo.transpose %5412, dims = [0, 2, 1, 3] : (tensor<1x256x8x32xbf16>) -> tensor<1x8x256x32xbf16>
    %5414 = stablehlo.reshape %5411 : (tensor<1x256x768xbf16>) -> tensor<1x256x8x96xbf16>
    %5415 = stablehlo.transpose %5414, dims = [0, 2, 1, 3] : (tensor<1x256x8x96xbf16>) -> tensor<1x8x256x96xbf16>
    %5416 = stablehlo.transpose %5413, dims = [0, 1, 3, 2] : (tensor<1x8x256x32xbf16>) -> tensor<1x8x32x256xbf16>
    %5417 = stablehlo.reshape %5416 : (tensor<1x8x32x256xbf16>) -> tensor<8x32x256xbf16>
    %5418 = stablehlo.broadcast_in_dim %5417, dims = [0, 1, 2] : (tensor<8x32x256xbf16>) -> tensor<8x32x256xbf16>
    %5419 = stablehlo.dot_general %arg445, %5418, batching_dims = [0] x [0], contracting_dims = [2] x [1] : (tensor<8x2048x32xbf16>, tensor<8x32x256xbf16>) -> tensor<8x2048x256xbf16>
    %5420 = stablehlo.reshape %5419 : (tensor<8x2048x256xbf16>) -> tensor<1x8x2048x256xbf16>
    %5421 = stablehlo.broadcast_in_dim %5420, dims = [0, 1, 2, 3] : (tensor<1x8x2048x256xbf16>) -> tensor<1x8x2048x256xbf16>
    %5422 = stablehlo.broadcast_in_dim %96, dims = [] : (tensor<bf16>) -> tensor<1x8x2048x256xbf16>
    %5423 = stablehlo.divide %5421, %5422 : tensor<1x8x2048x256xbf16>
    %5424 = stablehlo.convert %5423 : (tensor<1x8x2048x256xbf16>) -> tensor<1x8x2048x256xf32>
    %5425 = stablehlo.reduce(%5424 init: %cst_1) applies stablehlo.maximum across dimensions = [3] : (tensor<1x8x2048x256xf32>, tensor<f32>) -> tensor<1x8x2048xf32>
    %5426 = stablehlo.reshape %5425 : (tensor<1x8x2048xf32>) -> tensor<1x8x2048x1xf32>
    %5427 = stablehlo.broadcast_in_dim %5424, dims = [0, 1, 2, 3] : (tensor<1x8x2048x256xf32>) -> tensor<1x8x2048x256xf32>
    %5428 = stablehlo.broadcast_in_dim %5426, dims = [0, 1, 2, 3] : (tensor<1x8x2048x1xf32>) -> tensor<1x8x2048x256xf32>
    %5429 = stablehlo.subtract %5427, %5428 : tensor<1x8x2048x256xf32>
    %5430 = stablehlo.exponential %5429 : tensor<1x8x2048x256xf32>
    %5431 = stablehlo.reduce(%5430 init: %cst_0) applies stablehlo.add across dimensions = [3] : (tensor<1x8x2048x256xf32>, tensor<f32>) -> tensor<1x8x2048xf32>
    %5432 = stablehlo.reshape %5431 : (tensor<1x8x2048xf32>) -> tensor<1x8x2048x1xf32>
    %5433 = stablehlo.broadcast_in_dim %5430, dims = [0, 1, 2, 3] : (tensor<1x8x2048x256xf32>) -> tensor<1x8x2048x256xf32>
    %5434 = stablehlo.broadcast_in_dim %5432, dims = [0, 1, 2, 3] : (tensor<1x8x2048x1xf32>) -> tensor<1x8x2048x256xf32>
    %5435 = stablehlo.divide %5433, %5434 : tensor<1x8x2048x256xf32>
    %5436 = stablehlo.convert %5435 : (tensor<1x8x2048x256xf32>) -> tensor<1x8x2048x256xbf16>
    %5437 = stablehlo.reshape %5436 : (tensor<1x8x2048x256xbf16>) -> tensor<8x2048x256xbf16>
    %5438 = stablehlo.reshape %5415 : (tensor<1x8x256x96xbf16>) -> tensor<8x256x96xbf16>
    %5439 = stablehlo.broadcast_in_dim %5438, dims = [0, 1, 2] : (tensor<8x256x96xbf16>) -> tensor<8x256x96xbf16>
    %5440 = stablehlo.dot_general %5437, %5439, batching_dims = [0] x [0], contracting_dims = [2] x [1] : (tensor<8x2048x256xbf16>, tensor<8x256x96xbf16>) -> tensor<8x2048x96xbf16>
    %5441 = stablehlo.reshape %5440 : (tensor<8x2048x96xbf16>) -> tensor<1x8x2048x96xbf16>
    %5442 = stablehlo.transpose %5441, dims = [0, 2, 1, 3] : (tensor<1x8x2048x96xbf16>) -> tensor<1x2048x8x96xbf16>
    %5443 = stablehlo.reshape %5442 : (tensor<1x2048x8x96xbf16>) -> tensor<1x2048x768xbf16>
    %5444 = stablehlo.reshape %5443 : (tensor<1x2048x768xbf16>) -> tensor<2048x768xbf16>
    %5445 = stablehlo.convert %5444 : (tensor<2048x768xbf16>) -> tensor<2048x768xf32>
    %5446 = stablehlo.dot_general %5445, %arg446, contracting_dims = [1] x [0] : (tensor<2048x768xf32>, tensor<768x768xf32>) -> tensor<2048x768xf32>
    %5447 = stablehlo.broadcast_in_dim %5446, dims = [0, 1] : (tensor<2048x768xf32>) -> tensor<2048x768xf32>
    %5448 = stablehlo.broadcast_in_dim %68, dims = [] : (tensor<f32>) -> tensor<2048x768xf32>
    %5449 = stablehlo.multiply %5447, %5448 : tensor<2048x768xf32>
    %5450 = stablehlo.broadcast_in_dim %5449, dims = [0, 1] : (tensor<2048x768xf32>) -> tensor<2048x768xf32>
    %5451 = stablehlo.broadcast_in_dim %arg447, dims = [1] : (tensor<768xf32>) -> tensor<2048x768xf32>
    %5452 = stablehlo.add %5450, %5451 : tensor<2048x768xf32>
    %5453 = stablehlo.convert %5452 : (tensor<2048x768xf32>) -> tensor<2048x768xbf16>
    %5454 = stablehlo.reshape %5453 : (tensor<2048x768xbf16>) -> tensor<1x2048x768xbf16>
    %5455 = stablehlo.convert %5454 : (tensor<1x2048x768xbf16>) -> tensor<1x2048x768xf32>
    %5456 = stablehlo.convert %5455 : (tensor<1x2048x768xf32>) -> tensor<1x2048x768xf64>
    %5457 = stablehlo.reduce(%5456 init: %cst) applies stablehlo.add across dimensions = [2] : (tensor<1x2048x768xf64>, tensor<f64>) -> tensor<1x2048xf64>
    %5458 = stablehlo.reshape %5457 : (tensor<1x2048xf64>) -> tensor<1x2048x1xf64>
    %5459 = stablehlo.broadcast_in_dim %5458, dims = [0, 1, 2] : (tensor<1x2048x1xf64>) -> tensor<1x2048x1xf64>
    %5460 = stablehlo.divide %5459, %25 : tensor<1x2048x1xf64>
    %5461 = stablehlo.broadcast_in_dim %5456, dims = [0, 1, 2] : (tensor<1x2048x768xf64>) -> tensor<1x2048x768xf64>
    %5462 = stablehlo.broadcast_in_dim %5460, dims = [0, 1, 2] : (tensor<1x2048x1xf64>) -> tensor<1x2048x768xf64>
    %5463 = stablehlo.subtract %5461, %5462 : tensor<1x2048x768xf64>
    %5464 = stablehlo.multiply %5463, %5463 : tensor<1x2048x768xf64>
    %5465 = stablehlo.reduce(%5464 init: %cst) applies stablehlo.add across dimensions = [2] : (tensor<1x2048x768xf64>, tensor<f64>) -> tensor<1x2048xf64>
    %5466 = stablehlo.reshape %5465 : (tensor<1x2048xf64>) -> tensor<1x2048x1xf64>
    %5467 = stablehlo.broadcast_in_dim %5466, dims = [0, 1, 2] : (tensor<1x2048x1xf64>) -> tensor<1x2048x1xf64>
    %5468 = stablehlo.divide %5467, %25 : tensor<1x2048x1xf64>
    %5469 = stablehlo.convert %5468 : (tensor<1x2048x1xf64>) -> tensor<1x2048x1xf32>
    %5470 = stablehlo.reduce(%5455 init: %cst_0) applies stablehlo.add across dimensions = [2] : (tensor<1x2048x768xf32>, tensor<f32>) -> tensor<1x2048xf32>
    %5471 = stablehlo.reshape %5470 : (tensor<1x2048xf32>) -> tensor<1x2048x1xf32>
    %5472 = stablehlo.broadcast_in_dim %5471, dims = [0, 1, 2] : (tensor<1x2048x1xf32>) -> tensor<1x2048x1xf32>
    %5473 = stablehlo.divide %5472, %41 : tensor<1x2048x1xf32>
    %5474 = stablehlo.broadcast_in_dim %5469, dims = [0, 1, 2] : (tensor<1x2048x1xf32>) -> tensor<1x2048x1xf32>
    %5475 = stablehlo.add %5474, %46 : tensor<1x2048x1xf32>
    %5476 = stablehlo.rsqrt %5475 : tensor<1x2048x1xf32>
    %5477 = stablehlo.broadcast_in_dim %5455, dims = [0, 1, 2] : (tensor<1x2048x768xf32>) -> tensor<1x2048x768xf32>
    %5478 = stablehlo.broadcast_in_dim %5473, dims = [0, 1, 2] : (tensor<1x2048x1xf32>) -> tensor<1x2048x768xf32>
    %5479 = stablehlo.subtract %5477, %5478 : tensor<1x2048x768xf32>
    %5480 = stablehlo.broadcast_in_dim %5479, dims = [0, 1, 2] : (tensor<1x2048x768xf32>) -> tensor<1x2048x768xf32>
    %5481 = stablehlo.broadcast_in_dim %5476, dims = [0, 1, 2] : (tensor<1x2048x1xf32>) -> tensor<1x2048x768xf32>
    %5482 = stablehlo.multiply %5480, %5481 : tensor<1x2048x768xf32>
    %5483 = stablehlo.convert %arg113 : (tensor<768xbf16>) -> tensor<768xf32>
    %5484 = stablehlo.broadcast_in_dim %5482, dims = [0, 1, 2] : (tensor<1x2048x768xf32>) -> tensor<1x2048x768xf32>
    %5485 = stablehlo.broadcast_in_dim %5483, dims = [2] : (tensor<768xf32>) -> tensor<1x2048x768xf32>
    %5486 = stablehlo.multiply %5484, %5485 : tensor<1x2048x768xf32>
    %5487 = stablehlo.convert %arg114 : (tensor<768xbf16>) -> tensor<768xf32>
    %5488 = stablehlo.broadcast_in_dim %5486, dims = [0, 1, 2] : (tensor<1x2048x768xf32>) -> tensor<1x2048x768xf32>
    %5489 = stablehlo.broadcast_in_dim %5487, dims = [2] : (tensor<768xf32>) -> tensor<1x2048x768xf32>
    %5490 = stablehlo.add %5488, %5489 : tensor<1x2048x768xf32>
    %5491 = stablehlo.convert %5490 : (tensor<1x2048x768xf32>) -> tensor<1x2048x768xbf16>
    %5492 = stablehlo.reshape %5491 : (tensor<1x2048x768xbf16>) -> tensor<2048x768xbf16>
    %5493 = stablehlo.convert %5492 : (tensor<2048x768xbf16>) -> tensor<2048x768xf32>
    %5494 = stablehlo.dot_general %5493, %arg448, contracting_dims = [1] x [0] : (tensor<2048x768xf32>, tensor<768x768xf32>) -> tensor<2048x768xf32>
    %5495 = stablehlo.broadcast_in_dim %5494, dims = [0, 1] : (tensor<2048x768xf32>) -> tensor<2048x768xf32>
    %5496 = stablehlo.multiply %5495, %5448 : tensor<2048x768xf32>
    %5497 = stablehlo.broadcast_in_dim %5496, dims = [0, 1] : (tensor<2048x768xf32>) -> tensor<2048x768xf32>
    %5498 = stablehlo.broadcast_in_dim %arg449, dims = [1] : (tensor<768xf32>) -> tensor<2048x768xf32>
    %5499 = stablehlo.add %5497, %5498 : tensor<2048x768xf32>
    %5500 = stablehlo.convert %5499 : (tensor<2048x768xf32>) -> tensor<2048x768xbf16>
    %5501 = stablehlo.reshape %5500 : (tensor<2048x768xbf16>) -> tensor<1x2048x768xbf16>
    %5502 = stablehlo.multiply %5501, %cst_23 : tensor<1x2048x768xbf16>
    %5503 = stablehlo.rsqrt %cst_22 : tensor<1x2048x768xbf16>
    %5504 = stablehlo.multiply %5501, %5503 : tensor<1x2048x768xbf16>
    %5505 = stablehlo.convert %5504 : (tensor<1x2048x768xbf16>) -> tensor<1x2048x768xf32>
    %5506 = stablehlo.clamp %cst_24, %5505, %cst_25 : tensor<1x2048x768xf32>
    %5507 = stablehlo.multiply %5506, %5506 : tensor<1x2048x768xf32>
    %5508 = stablehlo.multiply %cst_26, %5507 : tensor<1x2048x768xf32>
    %5509 = stablehlo.add %5508, %cst_27 : tensor<1x2048x768xf32>
    %5510 = stablehlo.multiply %5509, %5507 : tensor<1x2048x768xf32>
    %5511 = stablehlo.add %5510, %cst_28 : tensor<1x2048x768xf32>
    %5512 = stablehlo.multiply %5511, %5507 : tensor<1x2048x768xf32>
    %5513 = stablehlo.add %5512, %cst_29 : tensor<1x2048x768xf32>
    %5514 = stablehlo.multiply %5513, %5507 : tensor<1x2048x768xf32>
    %5515 = stablehlo.add %5514, %cst_30 : tensor<1x2048x768xf32>
    %5516 = stablehlo.multiply %5515, %5507 : tensor<1x2048x768xf32>
    %5517 = stablehlo.add %5516, %cst_31 : tensor<1x2048x768xf32>
    %5518 = stablehlo.multiply %5517, %5507 : tensor<1x2048x768xf32>
    %5519 = stablehlo.add %5518, %cst_32 : tensor<1x2048x768xf32>
    %5520 = stablehlo.multiply %cst_33, %5507 : tensor<1x2048x768xf32>
    %5521 = stablehlo.add %5520, %cst_34 : tensor<1x2048x768xf32>
    %5522 = stablehlo.multiply %5521, %5507 : tensor<1x2048x768xf32>
    %5523 = stablehlo.add %5522, %cst_35 : tensor<1x2048x768xf32>
    %5524 = stablehlo.multiply %5523, %5507 : tensor<1x2048x768xf32>
    %5525 = stablehlo.add %5524, %cst_36 : tensor<1x2048x768xf32>
    %5526 = stablehlo.multiply %5525, %5507 : tensor<1x2048x768xf32>
    %5527 = stablehlo.add %5526, %cst_37 : tensor<1x2048x768xf32>
    %5528 = stablehlo.multiply %5506, %5519 : tensor<1x2048x768xf32>
    %5529 = stablehlo.divide %5528, %5527 : tensor<1x2048x768xf32>
    %5530 = stablehlo.clamp %cst_38, %5529, %cst_39 : tensor<1x2048x768xf32>
    %5531 = stablehlo.convert %5530 : (tensor<1x2048x768xf32>) -> tensor<1x2048x768xbf16>
    %5532 = stablehlo.add %5531, %cst_21 : tensor<1x2048x768xbf16>
    %5533 = stablehlo.multiply %5532, %5502 : tensor<1x2048x768xbf16>
    %5534 = stablehlo.reshape %5533 : (tensor<1x2048x768xbf16>) -> tensor<2048x768xbf16>
    %5535 = stablehlo.convert %5534 : (tensor<2048x768xbf16>) -> tensor<2048x768xf32>
    %5536 = stablehlo.dot_general %5535, %arg450, contracting_dims = [1] x [0] : (tensor<2048x768xf32>, tensor<768x768xf32>) -> tensor<2048x768xf32>
    %5537 = stablehlo.broadcast_in_dim %5536, dims = [0, 1] : (tensor<2048x768xf32>) -> tensor<2048x768xf32>
    %5538 = stablehlo.multiply %5537, %5448 : tensor<2048x768xf32>
    %5539 = stablehlo.broadcast_in_dim %5538, dims = [0, 1] : (tensor<2048x768xf32>) -> tensor<2048x768xf32>
    %5540 = stablehlo.broadcast_in_dim %arg451, dims = [1] : (tensor<768xf32>) -> tensor<2048x768xf32>
    %5541 = stablehlo.add %5539, %5540 : tensor<2048x768xf32>
    %5542 = stablehlo.convert %5541 : (tensor<2048x768xf32>) -> tensor<2048x768xbf16>
    %5543 = stablehlo.reshape %5542 : (tensor<2048x768xbf16>) -> tensor<1x2048x768xbf16>
    %5544 = stablehlo.add %5543, %5454 : tensor<1x2048x768xbf16>
    %5545 = stablehlo.reshape %5544 : (tensor<1x2048x768xbf16>) -> tensor<2048x768xbf16>
    %5546 = stablehlo.dot_general %5545, %arg452, contracting_dims = [1] x [0] : (tensor<2048x768xbf16>, tensor<768x262xbf16>) -> tensor<2048x262xbf16>
    %5547 = stablehlo.broadcast_in_dim %5546, dims = [0, 1] : (tensor<2048x262xbf16>) -> tensor<2048x262xbf16>
    %5548 = stablehlo.broadcast_in_dim %arg115, dims = [1] : (tensor<262xbf16>) -> tensor<2048x262xbf16>
    %5549 = stablehlo.add %5547, %5548 : tensor<2048x262xbf16>
    %5550 = stablehlo.reshape %5549 : (tensor<2048x262xbf16>) -> tensor<1x2048x262xbf16>
    return %5550 : tensor<1x2048x262xbf16>
  }
}
