WARNING:root:Defaulting to PJRT_DEVICE=CPU
2025-09-08 16:44:17.181631: W torch_xla/csrc/runtime/profiler.cpp:88] Profiler API not found for PJRT plugin
Torch-XLA SPMD Tensor Parallelism for GPT-OSS 20B Model
==================================================
Setting up XLA environment...
XLA environment configured.
Created device mesh: (1, 8) with 8 devices
Loading model...
Loading checkpoint shards:   0%|          | 0/3 [00:00<?, ?it/s]Loading checkpoint shards: 100%|██████████| 3/3 [00:00<00:00, 228.12it/s]
Some weights of the model checkpoint at openai/gpt-oss-20b were not used when initializing GptOssForCausalLM: ['model.layers.0.mlp.experts.down_proj_blocks', 'model.layers.0.mlp.experts.down_proj_scales', 'model.layers.0.mlp.experts.gate_up_proj_blocks', 'model.layers.0.mlp.experts.gate_up_proj_scales', 'model.layers.1.input_layernorm.weight', 'model.layers.1.mlp.experts.down_proj_bias', 'model.layers.1.mlp.experts.down_proj_blocks', 'model.layers.1.mlp.experts.down_proj_scales', 'model.layers.1.mlp.experts.gate_up_proj_bias', 'model.layers.1.mlp.experts.gate_up_proj_blocks', 'model.layers.1.mlp.experts.gate_up_proj_scales', 'model.layers.1.mlp.router.bias', 'model.layers.1.mlp.router.weight', 'model.layers.1.post_attention_layernorm.weight', 'model.layers.1.self_attn.k_proj.bias', 'model.layers.1.self_attn.k_proj.weight', 'model.layers.1.self_attn.o_proj.bias', 'model.layers.1.self_attn.o_proj.weight', 'model.layers.1.self_attn.q_proj.bias', 'model.layers.1.self_attn.q_proj.weight', 'model.layers.1.self_attn.sinks', 'model.layers.1.self_attn.v_proj.bias', 'model.layers.1.self_attn.v_proj.weight', 'model.layers.10.input_layernorm.weight', 'model.layers.10.mlp.experts.down_proj_bias', 'model.layers.10.mlp.experts.down_proj_blocks', 'model.layers.10.mlp.experts.down_proj_scales', 'model.layers.10.mlp.experts.gate_up_proj_bias', 'model.layers.10.mlp.experts.gate_up_proj_blocks', 'model.layers.10.mlp.experts.gate_up_proj_scales', 'model.layers.10.mlp.router.bias', 'model.layers.10.mlp.router.weight', 'model.layers.10.post_attention_layernorm.weight', 'model.layers.10.self_attn.k_proj.bias', 'model.layers.10.self_attn.k_proj.weight', 'model.layers.10.self_attn.o_proj.bias', 'model.layers.10.self_attn.o_proj.weight', 'model.layers.10.self_attn.q_proj.bias', 'model.layers.10.self_attn.q_proj.weight', 'model.layers.10.self_attn.sinks', 'model.layers.10.self_attn.v_proj.bias', 'model.layers.10.self_attn.v_proj.weight', 'model.layers.11.input_layernorm.weight', 'model.layers.11.mlp.experts.down_proj_bias', 'model.layers.11.mlp.experts.down_proj_blocks', 'model.layers.11.mlp.experts.down_proj_scales', 'model.layers.11.mlp.experts.gate_up_proj_bias', 'model.layers.11.mlp.experts.gate_up_proj_blocks', 'model.layers.11.mlp.experts.gate_up_proj_scales', 'model.layers.11.mlp.router.bias', 'model.layers.11.mlp.router.weight', 'model.layers.11.post_attention_layernorm.weight', 'model.layers.11.self_attn.k_proj.bias', 'model.layers.11.self_attn.k_proj.weight', 'model.layers.11.self_attn.o_proj.bias', 'model.layers.11.self_attn.o_proj.weight', 'model.layers.11.self_attn.q_proj.bias', 'model.layers.11.self_attn.q_proj.weight', 'model.layers.11.self_attn.sinks', 'model.layers.11.self_attn.v_proj.bias', 'model.layers.11.self_attn.v_proj.weight', 'model.layers.12.input_layernorm.weight', 'model.layers.12.mlp.experts.down_proj_bias', 'model.layers.12.mlp.experts.down_proj_blocks', 'model.layers.12.mlp.experts.down_proj_scales', 'model.layers.12.mlp.experts.gate_up_proj_bias', 'model.layers.12.mlp.experts.gate_up_proj_blocks', 'model.layers.12.mlp.experts.gate_up_proj_scales', 'model.layers.12.mlp.router.bias', 'model.layers.12.mlp.router.weight', 'model.layers.12.post_attention_layernorm.weight', 'model.layers.12.self_attn.k_proj.bias', 'model.layers.12.self_attn.k_proj.weight', 'model.layers.12.self_attn.o_proj.bias', 'model.layers.12.self_attn.o_proj.weight', 'model.layers.12.self_attn.q_proj.bias', 'model.layers.12.self_attn.q_proj.weight', 'model.layers.12.self_attn.sinks', 'model.layers.12.self_attn.v_proj.bias', 'model.layers.12.self_attn.v_proj.weight', 'model.layers.13.input_layernorm.weight', 'model.layers.13.mlp.experts.down_proj_bias', 'model.layers.13.mlp.experts.down_proj_blocks', 'model.layers.13.mlp.experts.down_proj_scales', 'model.layers.13.mlp.experts.gate_up_proj_bias', 'model.layers.13.mlp.experts.gate_up_proj_blocks', 'model.layers.13.mlp.experts.gate_up_proj_scales', 'model.layers.13.mlp.router.bias', 'model.layers.13.mlp.router.weight', 'model.layers.13.post_attention_layernorm.weight', 'model.layers.13.self_attn.k_proj.bias', 'model.layers.13.self_attn.k_proj.weight', 'model.layers.13.self_attn.o_proj.bias', 'model.layers.13.self_attn.o_proj.weight', 'model.layers.13.self_attn.q_proj.bias', 'model.layers.13.self_attn.q_proj.weight', 'model.layers.13.self_attn.sinks', 'model.layers.13.self_attn.v_proj.bias', 'model.layers.13.self_attn.v_proj.weight', 'model.layers.14.input_layernorm.weight', 'model.layers.14.mlp.experts.down_proj_bias', 'model.layers.14.mlp.experts.down_proj_blocks', 'model.layers.14.mlp.experts.down_proj_scales', 'model.layers.14.mlp.experts.gate_up_proj_bias', 'model.layers.14.mlp.experts.gate_up_proj_blocks', 'model.layers.14.mlp.experts.gate_up_proj_scales', 'model.layers.14.mlp.router.bias', 'model.layers.14.mlp.router.weight', 'model.layers.14.post_attention_layernorm.weight', 'model.layers.14.self_attn.k_proj.bias', 'model.layers.14.self_attn.k_proj.weight', 'model.layers.14.self_attn.o_proj.bias', 'model.layers.14.self_attn.o_proj.weight', 'model.layers.14.self_attn.q_proj.bias', 'model.layers.14.self_attn.q_proj.weight', 'model.layers.14.self_attn.sinks', 'model.layers.14.self_attn.v_proj.bias', 'model.layers.14.self_attn.v_proj.weight', 'model.layers.15.input_layernorm.weight', 'model.layers.15.mlp.experts.down_proj_bias', 'model.layers.15.mlp.experts.down_proj_blocks', 'model.layers.15.mlp.experts.down_proj_scales', 'model.layers.15.mlp.experts.gate_up_proj_bias', 'model.layers.15.mlp.experts.gate_up_proj_blocks', 'model.layers.15.mlp.experts.gate_up_proj_scales', 'model.layers.15.mlp.router.bias', 'model.layers.15.mlp.router.weight', 'model.layers.15.post_attention_layernorm.weight', 'model.layers.15.self_attn.k_proj.bias', 'model.layers.15.self_attn.k_proj.weight', 'model.layers.15.self_attn.o_proj.bias', 'model.layers.15.self_attn.o_proj.weight', 'model.layers.15.self_attn.q_proj.bias', 'model.layers.15.self_attn.q_proj.weight', 'model.layers.15.self_attn.sinks', 'model.layers.15.self_attn.v_proj.bias', 'model.layers.15.self_attn.v_proj.weight', 'model.layers.16.input_layernorm.weight', 'model.layers.16.mlp.experts.down_proj_bias', 'model.layers.16.mlp.experts.down_proj_blocks', 'model.layers.16.mlp.experts.down_proj_scales', 'model.layers.16.mlp.experts.gate_up_proj_bias', 'model.layers.16.mlp.experts.gate_up_proj_blocks', 'model.layers.16.mlp.experts.gate_up_proj_scales', 'model.layers.16.mlp.router.bias', 'model.layers.16.mlp.router.weight', 'model.layers.16.post_attention_layernorm.weight', 'model.layers.16.self_attn.k_proj.bias', 'model.layers.16.self_attn.k_proj.weight', 'model.layers.16.self_attn.o_proj.bias', 'model.layers.16.self_attn.o_proj.weight', 'model.layers.16.self_attn.q_proj.bias', 'model.layers.16.self_attn.q_proj.weight', 'model.layers.16.self_attn.sinks', 'model.layers.16.self_attn.v_proj.bias', 'model.layers.16.self_attn.v_proj.weight', 'model.layers.17.input_layernorm.weight', 'model.layers.17.mlp.experts.down_proj_bias', 'model.layers.17.mlp.experts.down_proj_blocks', 'model.layers.17.mlp.experts.down_proj_scales', 'model.layers.17.mlp.experts.gate_up_proj_bias', 'model.layers.17.mlp.experts.gate_up_proj_blocks', 'model.layers.17.mlp.experts.gate_up_proj_scales', 'model.layers.17.mlp.router.bias', 'model.layers.17.mlp.router.weight', 'model.layers.17.post_attention_layernorm.weight', 'model.layers.17.self_attn.k_proj.bias', 'model.layers.17.self_attn.k_proj.weight', 'model.layers.17.self_attn.o_proj.bias', 'model.layers.17.self_attn.o_proj.weight', 'model.layers.17.self_attn.q_proj.bias', 'model.layers.17.self_attn.q_proj.weight', 'model.layers.17.self_attn.sinks', 'model.layers.17.self_attn.v_proj.bias', 'model.layers.17.self_attn.v_proj.weight', 'model.layers.18.input_layernorm.weight', 'model.layers.18.mlp.experts.down_proj_bias', 'model.layers.18.mlp.experts.down_proj_blocks', 'model.layers.18.mlp.experts.down_proj_scales', 'model.layers.18.mlp.experts.gate_up_proj_bias', 'model.layers.18.mlp.experts.gate_up_proj_blocks', 'model.layers.18.mlp.experts.gate_up_proj_scales', 'model.layers.18.mlp.router.bias', 'model.layers.18.mlp.router.weight', 'model.layers.18.post_attention_layernorm.weight', 'model.layers.18.self_attn.k_proj.bias', 'model.layers.18.self_attn.k_proj.weight', 'model.layers.18.self_attn.o_proj.bias', 'model.layers.18.self_attn.o_proj.weight', 'model.layers.18.self_attn.q_proj.bias', 'model.layers.18.self_attn.q_proj.weight', 'model.layers.18.self_attn.sinks', 'model.layers.18.self_attn.v_proj.bias', 'model.layers.18.self_attn.v_proj.weight', 'model.layers.19.input_layernorm.weight', 'model.layers.19.mlp.experts.down_proj_bias', 'model.layers.19.mlp.experts.down_proj_blocks', 'model.layers.19.mlp.experts.down_proj_scales', 'model.layers.19.mlp.experts.gate_up_proj_bias', 'model.layers.19.mlp.experts.gate_up_proj_blocks', 'model.layers.19.mlp.experts.gate_up_proj_scales', 'model.layers.19.mlp.router.bias', 'model.layers.19.mlp.router.weight', 'model.layers.19.post_attention_layernorm.weight', 'model.layers.19.self_attn.k_proj.bias', 'model.layers.19.self_attn.k_proj.weight', 'model.layers.19.self_attn.o_proj.bias', 'model.layers.19.self_attn.o_proj.weight', 'model.layers.19.self_attn.q_proj.bias', 'model.layers.19.self_attn.q_proj.weight', 'model.layers.19.self_attn.sinks', 'model.layers.19.self_attn.v_proj.bias', 'model.layers.19.self_attn.v_proj.weight', 'model.layers.2.input_layernorm.weight', 'model.layers.2.mlp.experts.down_proj_bias', 'model.layers.2.mlp.experts.down_proj_blocks', 'model.layers.2.mlp.experts.down_proj_scales', 'model.layers.2.mlp.experts.gate_up_proj_bias', 'model.layers.2.mlp.experts.gate_up_proj_blocks', 'model.layers.2.mlp.experts.gate_up_proj_scales', 'model.layers.2.mlp.router.bias', 'model.layers.2.mlp.router.weight', 'model.layers.2.post_attention_layernorm.weight', 'model.layers.2.self_attn.k_proj.bias', 'model.layers.2.self_attn.k_proj.weight', 'model.layers.2.self_attn.o_proj.bias', 'model.layers.2.self_attn.o_proj.weight', 'model.layers.2.self_attn.q_proj.bias', 'model.layers.2.self_attn.q_proj.weight', 'model.layers.2.self_attn.sinks', 'model.layers.2.self_attn.v_proj.bias', 'model.layers.2.self_attn.v_proj.weight', 'model.layers.20.input_layernorm.weight', 'model.layers.20.mlp.experts.down_proj_bias', 'model.layers.20.mlp.experts.down_proj_blocks', 'model.layers.20.mlp.experts.down_proj_scales', 'model.layers.20.mlp.experts.gate_up_proj_bias', 'model.layers.20.mlp.experts.gate_up_proj_blocks', 'model.layers.20.mlp.experts.gate_up_proj_scales', 'model.layers.20.mlp.router.bias', 'model.layers.20.mlp.router.weight', 'model.layers.20.post_attention_layernorm.weight', 'model.layers.20.self_attn.k_proj.bias', 'model.layers.20.self_attn.k_proj.weight', 'model.layers.20.self_attn.o_proj.bias', 'model.layers.20.self_attn.o_proj.weight', 'model.layers.20.self_attn.q_proj.bias', 'model.layers.20.self_attn.q_proj.weight', 'model.layers.20.self_attn.sinks', 'model.layers.20.self_attn.v_proj.bias', 'model.layers.20.self_attn.v_proj.weight', 'model.layers.21.input_layernorm.weight', 'model.layers.21.mlp.experts.down_proj_bias', 'model.layers.21.mlp.experts.down_proj_blocks', 'model.layers.21.mlp.experts.down_proj_scales', 'model.layers.21.mlp.experts.gate_up_proj_bias', 'model.layers.21.mlp.experts.gate_up_proj_blocks', 'model.layers.21.mlp.experts.gate_up_proj_scales', 'model.layers.21.mlp.router.bias', 'model.layers.21.mlp.router.weight', 'model.layers.21.post_attention_layernorm.weight', 'model.layers.21.self_attn.k_proj.bias', 'model.layers.21.self_attn.k_proj.weight', 'model.layers.21.self_attn.o_proj.bias', 'model.layers.21.self_attn.o_proj.weight', 'model.layers.21.self_attn.q_proj.bias', 'model.layers.21.self_attn.q_proj.weight', 'model.layers.21.self_attn.sinks', 'model.layers.21.self_attn.v_proj.bias', 'model.layers.21.self_attn.v_proj.weight', 'model.layers.22.input_layernorm.weight', 'model.layers.22.mlp.experts.down_proj_bias', 'model.layers.22.mlp.experts.down_proj_blocks', 'model.layers.22.mlp.experts.down_proj_scales', 'model.layers.22.mlp.experts.gate_up_proj_bias', 'model.layers.22.mlp.experts.gate_up_proj_blocks', 'model.layers.22.mlp.experts.gate_up_proj_scales', 'model.layers.22.mlp.router.bias', 'model.layers.22.mlp.router.weight', 'model.layers.22.post_attention_layernorm.weight', 'model.layers.22.self_attn.k_proj.bias', 'model.layers.22.self_attn.k_proj.weight', 'model.layers.22.self_attn.o_proj.bias', 'model.layers.22.self_attn.o_proj.weight', 'model.layers.22.self_attn.q_proj.bias', 'model.layers.22.self_attn.q_proj.weight', 'model.layers.22.self_attn.sinks', 'model.layers.22.self_attn.v_proj.bias', 'model.layers.22.self_attn.v_proj.weight', 'model.layers.23.input_layernorm.weight', 'model.layers.23.mlp.experts.down_proj_bias', 'model.layers.23.mlp.experts.down_proj_blocks', 'model.layers.23.mlp.experts.down_proj_scales', 'model.layers.23.mlp.experts.gate_up_proj_bias', 'model.layers.23.mlp.experts.gate_up_proj_blocks', 'model.layers.23.mlp.experts.gate_up_proj_scales', 'model.layers.23.mlp.router.bias', 'model.layers.23.mlp.router.weight', 'model.layers.23.post_attention_layernorm.weight', 'model.layers.23.self_attn.k_proj.bias', 'model.layers.23.self_attn.k_proj.weight', 'model.layers.23.self_attn.o_proj.bias', 'model.layers.23.self_attn.o_proj.weight', 'model.layers.23.self_attn.q_proj.bias', 'model.layers.23.self_attn.q_proj.weight', 'model.layers.23.self_attn.sinks', 'model.layers.23.self_attn.v_proj.bias', 'model.layers.23.self_attn.v_proj.weight', 'model.layers.3.input_layernorm.weight', 'model.layers.3.mlp.experts.down_proj_bias', 'model.layers.3.mlp.experts.down_proj_blocks', 'model.layers.3.mlp.experts.down_proj_scales', 'model.layers.3.mlp.experts.gate_up_proj_bias', 'model.layers.3.mlp.experts.gate_up_proj_blocks', 'model.layers.3.mlp.experts.gate_up_proj_scales', 'model.layers.3.mlp.router.bias', 'model.layers.3.mlp.router.weight', 'model.layers.3.post_attention_layernorm.weight', 'model.layers.3.self_attn.k_proj.bias', 'model.layers.3.self_attn.k_proj.weight', 'model.layers.3.self_attn.o_proj.bias', 'model.layers.3.self_attn.o_proj.weight', 'model.layers.3.self_attn.q_proj.bias', 'model.layers.3.self_attn.q_proj.weight', 'model.layers.3.self_attn.sinks', 'model.layers.3.self_attn.v_proj.bias', 'model.layers.3.self_attn.v_proj.weight', 'model.layers.4.input_layernorm.weight', 'model.layers.4.mlp.experts.down_proj_bias', 'model.layers.4.mlp.experts.down_proj_blocks', 'model.layers.4.mlp.experts.down_proj_scales', 'model.layers.4.mlp.experts.gate_up_proj_bias', 'model.layers.4.mlp.experts.gate_up_proj_blocks', 'model.layers.4.mlp.experts.gate_up_proj_scales', 'model.layers.4.mlp.router.bias', 'model.layers.4.mlp.router.weight', 'model.layers.4.post_attention_layernorm.weight', 'model.layers.4.self_attn.k_proj.bias', 'model.layers.4.self_attn.k_proj.weight', 'model.layers.4.self_attn.o_proj.bias', 'model.layers.4.self_attn.o_proj.weight', 'model.layers.4.self_attn.q_proj.bias', 'model.layers.4.self_attn.q_proj.weight', 'model.layers.4.self_attn.sinks', 'model.layers.4.self_attn.v_proj.bias', 'model.layers.4.self_attn.v_proj.weight', 'model.layers.5.input_layernorm.weight', 'model.layers.5.mlp.experts.down_proj_bias', 'model.layers.5.mlp.experts.down_proj_blocks', 'model.layers.5.mlp.experts.down_proj_scales', 'model.layers.5.mlp.experts.gate_up_proj_bias', 'model.layers.5.mlp.experts.gate_up_proj_blocks', 'model.layers.5.mlp.experts.gate_up_proj_scales', 'model.layers.5.mlp.router.bias', 'model.layers.5.mlp.router.weight', 'model.layers.5.post_attention_layernorm.weight', 'model.layers.5.self_attn.k_proj.bias', 'model.layers.5.self_attn.k_proj.weight', 'model.layers.5.self_attn.o_proj.bias', 'model.layers.5.self_attn.o_proj.weight', 'model.layers.5.self_attn.q_proj.bias', 'model.layers.5.self_attn.q_proj.weight', 'model.layers.5.self_attn.sinks', 'model.layers.5.self_attn.v_proj.bias', 'model.layers.5.self_attn.v_proj.weight', 'model.layers.6.input_layernorm.weight', 'model.layers.6.mlp.experts.down_proj_bias', 'model.layers.6.mlp.experts.down_proj_blocks', 'model.layers.6.mlp.experts.down_proj_scales', 'model.layers.6.mlp.experts.gate_up_proj_bias', 'model.layers.6.mlp.experts.gate_up_proj_blocks', 'model.layers.6.mlp.experts.gate_up_proj_scales', 'model.layers.6.mlp.router.bias', 'model.layers.6.mlp.router.weight', 'model.layers.6.post_attention_layernorm.weight', 'model.layers.6.self_attn.k_proj.bias', 'model.layers.6.self_attn.k_proj.weight', 'model.layers.6.self_attn.o_proj.bias', 'model.layers.6.self_attn.o_proj.weight', 'model.layers.6.self_attn.q_proj.bias', 'model.layers.6.self_attn.q_proj.weight', 'model.layers.6.self_attn.sinks', 'model.layers.6.self_attn.v_proj.bias', 'model.layers.6.self_attn.v_proj.weight', 'model.layers.7.input_layernorm.weight', 'model.layers.7.mlp.experts.down_proj_bias', 'model.layers.7.mlp.experts.down_proj_blocks', 'model.layers.7.mlp.experts.down_proj_scales', 'model.layers.7.mlp.experts.gate_up_proj_bias', 'model.layers.7.mlp.experts.gate_up_proj_blocks', 'model.layers.7.mlp.experts.gate_up_proj_scales', 'model.layers.7.mlp.router.bias', 'model.layers.7.mlp.router.weight', 'model.layers.7.post_attention_layernorm.weight', 'model.layers.7.self_attn.k_proj.bias', 'model.layers.7.self_attn.k_proj.weight', 'model.layers.7.self_attn.o_proj.bias', 'model.layers.7.self_attn.o_proj.weight', 'model.layers.7.self_attn.q_proj.bias', 'model.layers.7.self_attn.q_proj.weight', 'model.layers.7.self_attn.sinks', 'model.layers.7.self_attn.v_proj.bias', 'model.layers.7.self_attn.v_proj.weight', 'model.layers.8.input_layernorm.weight', 'model.layers.8.mlp.experts.down_proj_bias', 'model.layers.8.mlp.experts.down_proj_blocks', 'model.layers.8.mlp.experts.down_proj_scales', 'model.layers.8.mlp.experts.gate_up_proj_bias', 'model.layers.8.mlp.experts.gate_up_proj_blocks', 'model.layers.8.mlp.experts.gate_up_proj_scales', 'model.layers.8.mlp.router.bias', 'model.layers.8.mlp.router.weight', 'model.layers.8.post_attention_layernorm.weight', 'model.layers.8.self_attn.k_proj.bias', 'model.layers.8.self_attn.k_proj.weight', 'model.layers.8.self_attn.o_proj.bias', 'model.layers.8.self_attn.o_proj.weight', 'model.layers.8.self_attn.q_proj.bias', 'model.layers.8.self_attn.q_proj.weight', 'model.layers.8.self_attn.sinks', 'model.layers.8.self_attn.v_proj.bias', 'model.layers.8.self_attn.v_proj.weight', 'model.layers.9.input_layernorm.weight', 'model.layers.9.mlp.experts.down_proj_bias', 'model.layers.9.mlp.experts.down_proj_blocks', 'model.layers.9.mlp.experts.down_proj_scales', 'model.layers.9.mlp.experts.gate_up_proj_bias', 'model.layers.9.mlp.experts.gate_up_proj_blocks', 'model.layers.9.mlp.experts.gate_up_proj_scales', 'model.layers.9.mlp.router.bias', 'model.layers.9.mlp.router.weight', 'model.layers.9.post_attention_layernorm.weight', 'model.layers.9.self_attn.k_proj.bias', 'model.layers.9.self_attn.k_proj.weight', 'model.layers.9.self_attn.o_proj.bias', 'model.layers.9.self_attn.o_proj.weight', 'model.layers.9.self_attn.q_proj.bias', 'model.layers.9.self_attn.q_proj.weight', 'model.layers.9.self_attn.sinks', 'model.layers.9.self_attn.v_proj.bias', 'model.layers.9.self_attn.v_proj.weight']
- This IS expected if you are initializing GptOssForCausalLM from the checkpoint of a model trained on another task or with another architecture (e.g. initializing a BertForSequenceClassification model from a BertForPreTraining model).
- This IS NOT expected if you are initializing GptOssForCausalLM from the checkpoint of a model that you expect to be exactly identical (initializing a BertForSequenceClassification model from a BertForSequenceClassification model).
Some weights of GptOssForCausalLM were not initialized from the model checkpoint at openai/gpt-oss-20b and are newly initialized: ['model.layers.0.mlp.experts.down_proj', 'model.layers.0.mlp.experts.gate_up_proj']
You should probably TRAIN this model on a down-stream task to be able to use it for predictions and inference.
Asking to truncate to max_length but no maximum length is provided and the model has no predefined maximum length. Default to no truncation.
[32m                 Always[0m | [1m[38;5;208m WARNING[0m | User provided a tensor of data type: Int64 which is not supported by runtime/ttnn. Casting to: Int32, this may impact throughput and the integrity of the data.
[32m                 Always[0m | [1m[38;5;208m WARNING[0m | User provided a tensor of data type: Int64 which is not supported by runtime/ttnn. Casting to: Int32, this may impact throughput and the integrity of the data.
[32m                 Always[0m | [1m[38;5;208m WARNING[0m | User provided a tensor of data type: Int64 which is not supported by runtime/ttnn. Casting to: Int32, this may impact throughput and the integrity of the data.
[32m                 Always[0m | [1m[38;5;208m WARNING[0m | User provided a tensor of data type: Int64 which is not supported by runtime/ttnn. Casting to: Int32, this may impact throughput and the integrity of the data.
[32m                 Always[0m | [1m[38;5;208m WARNING[0m | User provided a tensor of data type: Int64 which is not supported by runtime/ttnn. Casting to: Int32, this may impact throughput and the integrity of the data.
[32m                 Always[0m | [1m[38;5;208m WARNING[0m | User provided a tensor of data type: Int64 which is not supported by runtime/ttnn. Casting to: Int32, this may impact throughput and the integrity of the data.
[32m                 Always[0m | [1m[38;5;208m WARNING[0m | User provided a tensor of data type: Int64 which is not supported by runtime/ttnn. Casting to: Int32, this may impact throughput and the integrity of the data.
[32m                 Always[0m | [1m[38;5;208m WARNING[0m | User provided a tensor of data type: Int64 which is not supported by runtime/ttnn. Casting to: Int32, this may impact throughput and the integrity of the data.
[32m                 Always[0m | [1m[38;5;208m WARNING[0m | User provided a tensor of data type: Int64 which is not supported by runtime/ttnn. Casting to: Int32, this may impact throughput and the integrity of the data.
[32m                 Always[0m | [1m[38;5;208m WARNING[0m | User provided a tensor of data type: Int64 which is not supported by runtime/ttnn. Casting to: Int32, this may impact throughput and the integrity of the data.
[32m                 Always[0m | [1m[38;5;208m WARNING[0m | User provided a tensor of data type: Int64 which is not supported by runtime/ttnn. Casting to: Int32, this may impact throughput and the integrity of the data.
[32m                 Always[0m | [1m[38;5;208m WARNING[0m | User provided a tensor of data type: Int64 which is not supported by runtime/ttnn. Casting to: Int32, this may impact throughput and the integrity of the data.
[32m                 Always[0m | [1m[38;5;208m WARNING[0m | User provided a tensor of data type: Int64 which is not supported by runtime/ttnn. Casting to: Int32, this may impact throughput and the integrity of the data.
[32m                 Always[0m | [1m[38;5;208m WARNING[0m | User provided a tensor of data type: Int64 which is not supported by runtime/ttnn. Casting to: Int32, this may impact throughput and the integrity of the data.
[32m                 Always[0m | [1m[38;5;208m WARNING[0m | User provided a tensor of data type: Int64 which is not supported by runtime/ttnn. Casting to: Int32, this may impact throughput and the integrity of the data.
[32m                 Always[0m | [1m[38;5;208m WARNING[0m | User provided a tensor of data type: Int64 which is not supported by runtime/ttnn. Casting to: Int32, this may impact throughput and the integrity of the data.
module @SyncTensorsGraph.577 attributes {mhlo.cross_program_prefetches = [], mhlo.frontend_attributes = {xla.sdy.meshes = "{mesh = #sdy.mesh<[\22_axis_0\22=8]>}"}, mhlo.input_output_alias = [], mhlo.is_dynamic = false, mhlo.use_auto_spmd_partitioning = false} {
  vhlo.func_v1 @main(%arg0: !vhlo.tensor_v1<512x!vhlo.bf16_v1>, %arg1: !vhlo.tensor_v1<512x2880x!vhlo.bf16_v1>, %arg2: !vhlo.tensor_v1<!vhlo.f32_v1>, %arg3: !vhlo.tensor_v1<1x13x!vhlo.i64_v1>, %arg4: !vhlo.tensor_v1<201088x2880x!vhlo.bf16_v1>, %arg5: !vhlo.tensor_v1<2880x!vhlo.bf16_v1>, %arg6: !vhlo.tensor_v1<!vhlo.f32_v1>, %arg7: !vhlo.tensor_v1<32x!vhlo.f32_v1>, %arg8: !vhlo.tensor_v1<512x!vhlo.bf16_v1>, %arg9: !vhlo.tensor_v1<512x2880x!vhlo.bf16_v1>, %arg10: !vhlo.tensor_v1<201088x2880x!vhlo.bf16_v1>, %arg11: !vhlo.tensor_v1<32x!vhlo.bf16_v1>, %arg12: !vhlo.tensor_v1<32x2880x!vhlo.bf16_v1>, %arg13: !vhlo.tensor_v1<2880x!vhlo.bf16_v1>, %arg14: !vhlo.tensor_v1<2880x4096x!vhlo.bf16_v1>, %arg15: !vhlo.tensor_v1<64x!vhlo.bf16_v1>, %arg16: !vhlo.tensor_v1<!vhlo.bf16_v1>, %arg17: !vhlo.tensor_v1<!vhlo.i64_v1>, %arg18: !vhlo.tensor_v1<!vhlo.f32_v1>, %arg19: !vhlo.tensor_v1<4096x!vhlo.bf16_v1>, %arg20: !vhlo.tensor_v1<4096x2880x!vhlo.bf16_v1>, %arg21: !vhlo.tensor_v1<2880x!vhlo.bf16_v1>, %arg22: !vhlo.tensor_v1<32x2880x!vhlo.bf16_v1>, %arg23: !vhlo.tensor_v1<32x2880x2880x!vhlo.bf16_v1>, %arg24: !vhlo.tensor_v1<!vhlo.f32_v1>, %arg25: !vhlo.tensor_v1<!vhlo.bf16_v1>, %arg26: !vhlo.tensor_v1<!vhlo.bf16_v1>, %arg27: !vhlo.tensor_v1<32x5760x!vhlo.bf16_v1>, %arg28: !vhlo.tensor_v1<32x2880x5760x!vhlo.bf16_v1>, %arg29: !vhlo.tensor_v1<!vhlo.bf16_v1>, %arg30: !vhlo.tensor_v1<2880x!vhlo.bf16_v1>) -> (!vhlo.tensor_v1<1x13x512x!vhlo.bf16_v1>, !vhlo.tensor_v1<1x13x8x64x!vhlo.bf16_v1>, !vhlo.tensor_v1<1x8x13x64x!vhlo.bf16_v1>, !vhlo.tensor_v1<1x8x13x64x!vhlo.bf16_v1>, !vhlo.tensor_v1<13x201088x!vhlo.bf16_v1>, !vhlo.tensor_v1<1x13x201088x!vhlo.bf16_v1>) {
    %0 = "vhlo.constant_v1"() <{value = #vhlo.tensor_v1<dense<0.000000e+00> : tensor<f32>>}> : () -> !vhlo.tensor_v1<!vhlo.f32_v1>
    %1 = "vhlo.constant_v1"() <{value = #vhlo.tensor_v1<dense<[0, 1, 2, 3, 4, 5, 6, 7, 8, 9, 10, 11, 12]> : tensor<13xi64>>}> : () -> !vhlo.tensor_v1<13x!vhlo.i64_v1>
    %2 = "vhlo.constant_v1"() <{value = #vhlo.tensor_v1<dense<0> : tensor<ui8>>}> : () -> !vhlo.tensor_v1<!vhlo.ui8_v1>
    %3 = "vhlo.constant_v1"() <{value = #vhlo.tensor_v1<dense<0xFF80> : tensor<bf16>>}> : () -> !vhlo.tensor_v1<!vhlo.bf16_v1>
    %4 = "vhlo.constant_v1"() <{value = #vhlo.tensor_v1<dense<2.000000e+00> : tensor<f32>>}> : () -> !vhlo.tensor_v1<!vhlo.f32_v1>
    %5 = "vhlo.constant_v1"() <{value = #vhlo.tensor_v1<dense<3.47222231E-4> : tensor<1x13xf32>>}> : () -> !vhlo.tensor_v1<1x13x!vhlo.f32_v1>
    %6 = "vhlo.constant_v1"() <{value = #vhlo.tensor_v1<dense<[[[0.000000e+00, 1.000000e+00, 2.000000e+00, 3.000000e+00, 4.000000e+00, 5.000000e+00, 6.000000e+00, 7.000000e+00, 8.000000e+00, 9.000000e+00, 1.000000e+01, 1.100000e+01, 1.200000e+01]]]> : tensor<1x1x13xf32>>}> : () -> !vhlo.tensor_v1<1x1x13x!vhlo.f32_v1>
    %7 = "vhlo.constant_v1"() <{value = #vhlo.tensor_v1<dense<1> : tensor<ui8>>}> : () -> !vhlo.tensor_v1<!vhlo.ui8_v1>
    %8 = "vhlo.constant_v1"() <{value = #vhlo.tensor_v1<dense<1.000000e+00> : tensor<bf16>>}> : () -> !vhlo.tensor_v1<!vhlo.bf16_v1>
    %9 = "vhlo.constant_v1"() <{value = #vhlo.tensor_v1<dense<0.000000e+00> : tensor<bf16>>}> : () -> !vhlo.tensor_v1<!vhlo.bf16_v1>
    %10 = "vhlo.broadcast_in_dim_v1"(%9) <{broadcast_dimensions = #vhlo.tensor_v1<dense<> : tensor<0xi64>>}> : (!vhlo.tensor_v1<!vhlo.bf16_v1>) -> !vhlo.tensor_v1<13x32x!vhlo.bf16_v1>
    %11 = "vhlo.broadcast_in_dim_v1"(%8) <{broadcast_dimensions = #vhlo.tensor_v1<dense<> : tensor<0xi64>>}> : (!vhlo.tensor_v1<!vhlo.bf16_v1>) -> !vhlo.tensor_v1<32x13x2880x!vhlo.bf16_v1>
    %12 = "vhlo.broadcast_in_dim_v1"(%9) <{broadcast_dimensions = #vhlo.tensor_v1<dense<> : tensor<0xi64>>}> : (!vhlo.tensor_v1<!vhlo.bf16_v1>) -> !vhlo.tensor_v1<1x1x13x13x!vhlo.bf16_v1>
    %13 = "vhlo.broadcast_in_dim_v1"(%7) <{broadcast_dimensions = #vhlo.tensor_v1<dense<> : tensor<0xi64>>}> : (!vhlo.tensor_v1<!vhlo.ui8_v1>) -> !vhlo.tensor_v1<13x13x!vhlo.ui8_v1>
    %14 = "vhlo.broadcast_in_dim_v1"(%4) <{broadcast_dimensions = #vhlo.tensor_v1<dense<> : tensor<0xi64>>}> : (!vhlo.tensor_v1<!vhlo.f32_v1>) -> !vhlo.tensor_v1<1x13x2880x!vhlo.f32_v1>
    %15 = "vhlo.broadcast_in_dim_v1"(%2) <{broadcast_dimensions = #vhlo.tensor_v1<dense<> : tensor<0xi64>>}> : (!vhlo.tensor_v1<!vhlo.ui8_v1>) -> !vhlo.tensor_v1<13x13x!vhlo.ui8_v1>
    %16 = "vhlo.convert_v1"(%arg5) : (!vhlo.tensor_v1<2880x!vhlo.bf16_v1>) -> !vhlo.tensor_v1<2880x!vhlo.f32_v1>
    %17 = "vhlo.broadcast_in_dim_v1"(%16) <{broadcast_dimensions = #vhlo.tensor_v1<dense<2> : tensor<1xi64>>}> : (!vhlo.tensor_v1<2880x!vhlo.f32_v1>) -> !vhlo.tensor_v1<1x13x2880x!vhlo.f32_v1>
    %18 = "vhlo.reshape_v1"(%arg3) : (!vhlo.tensor_v1<1x13x!vhlo.i64_v1>) -> !vhlo.tensor_v1<13x!vhlo.i64_v1>
    %19 = "vhlo.convert_v1"(%18) : (!vhlo.tensor_v1<13x!vhlo.i64_v1>) -> !vhlo.tensor_v1<13x!vhlo.ui32_v1>
    %20 = "vhlo.gather_v2"(%arg4, %19) <{collapsed_slice_dims = #vhlo.tensor_v1<dense<0> : tensor<1xi64>>, index_vector_dim = #vhlo.integer_v1<1 : i64>, indices_are_sorted = #vhlo.bool_v1<false>, offset_dims = #vhlo.tensor_v1<dense<1> : tensor<1xi64>>, operand_batching_dims = #vhlo.tensor_v1<dense<> : tensor<0xi64>>, slice_sizes = #vhlo.tensor_v1<dense<[1, 2880]> : tensor<2xi64>>, start_index_map = #vhlo.tensor_v1<dense<0> : tensor<1xi64>>, start_indices_batching_dims = #vhlo.tensor_v1<dense<> : tensor<0xi64>>}> : (!vhlo.tensor_v1<201088x2880x!vhlo.bf16_v1>, !vhlo.tensor_v1<13x!vhlo.ui32_v1>) -> !vhlo.tensor_v1<13x2880x!vhlo.bf16_v1>
    %21 = "vhlo.reshape_v1"(%20) : (!vhlo.tensor_v1<13x2880x!vhlo.bf16_v1>) -> !vhlo.tensor_v1<1x13x2880x!vhlo.bf16_v1>
    %22 = "vhlo.convert_v1"(%21) : (!vhlo.tensor_v1<1x13x2880x!vhlo.bf16_v1>) -> !vhlo.tensor_v1<1x13x2880x!vhlo.f32_v1>
    %23 = "vhlo.power_v1"(%22, %14) : (!vhlo.tensor_v1<1x13x2880x!vhlo.f32_v1>, !vhlo.tensor_v1<1x13x2880x!vhlo.f32_v1>) -> !vhlo.tensor_v1<1x13x2880x!vhlo.f32_v1>
    %24 = "vhlo.reduce_v1"(%23, %0) <{dimensions = #vhlo.tensor_v1<dense<2> : tensor<1xi64>>}> ({
    ^bb0(%arg31: !vhlo.tensor_v1<!vhlo.f32_v1>, %arg32: !vhlo.tensor_v1<!vhlo.f32_v1>):
      %260 = "vhlo.add_v1"(%arg31, %arg32) : (!vhlo.tensor_v1<!vhlo.f32_v1>, !vhlo.tensor_v1<!vhlo.f32_v1>) -> !vhlo.tensor_v1<!vhlo.f32_v1>
      "vhlo.return_v1"(%260) : (!vhlo.tensor_v1<!vhlo.f32_v1>) -> ()
    }) : (!vhlo.tensor_v1<1x13x2880x!vhlo.f32_v1>, !vhlo.tensor_v1<!vhlo.f32_v1>) -> !vhlo.tensor_v1<1x13x!vhlo.f32_v1>
    %25 = "vhlo.multiply_v1"(%24, %5) : (!vhlo.tensor_v1<1x13x!vhlo.f32_v1>, !vhlo.tensor_v1<1x13x!vhlo.f32_v1>) -> !vhlo.tensor_v1<1x13x!vhlo.f32_v1>
    %26 = "vhlo.reshape_v1"(%25) : (!vhlo.tensor_v1<1x13x!vhlo.f32_v1>) -> !vhlo.tensor_v1<1x13x1x!vhlo.f32_v1>
    %27 = "vhlo.broadcast_in_dim_v1"(%arg2) <{broadcast_dimensions = #vhlo.tensor_v1<dense<> : tensor<0xi64>>}> : (!vhlo.tensor_v1<!vhlo.f32_v1>) -> !vhlo.tensor_v1<1x13x1x!vhlo.f32_v1>
    %28 = "vhlo.add_v1"(%26, %27) : (!vhlo.tensor_v1<1x13x1x!vhlo.f32_v1>, !vhlo.tensor_v1<1x13x1x!vhlo.f32_v1>) -> !vhlo.tensor_v1<1x13x1x!vhlo.f32_v1>
    %29 = "vhlo.rsqrt_v2"(%28) <{result_accuracy = #vhlo.result_accuracy_v1<atol = 0.000000e+00, rtol = 0.000000e+00, ulps = 0, mode = #vhlo<result_accuracy_mode_v1 DEFAULT>>}> : (!vhlo.tensor_v1<1x13x1x!vhlo.f32_v1>) -> !vhlo.tensor_v1<1x13x1x!vhlo.f32_v1>
    %30 = "vhlo.reshape_v1"(%29) : (!vhlo.tensor_v1<1x13x1x!vhlo.f32_v1>) -> !vhlo.tensor_v1<1x13x!vhlo.f32_v1>
    %31 = "vhlo.broadcast_in_dim_v1"(%30) <{broadcast_dimensions = #vhlo.tensor_v1<dense<[0, 1]> : tensor<2xi64>>}> : (!vhlo.tensor_v1<1x13x!vhlo.f32_v1>) -> !vhlo.tensor_v1<1x13x2880x!vhlo.f32_v1>
    %32 = "vhlo.multiply_v1"(%22, %31) : (!vhlo.tensor_v1<1x13x2880x!vhlo.f32_v1>, !vhlo.tensor_v1<1x13x2880x!vhlo.f32_v1>) -> !vhlo.tensor_v1<1x13x2880x!vhlo.f32_v1>
    %33 = "vhlo.multiply_v1"(%17, %32) : (!vhlo.tensor_v1<1x13x2880x!vhlo.f32_v1>, !vhlo.tensor_v1<1x13x2880x!vhlo.f32_v1>) -> !vhlo.tensor_v1<1x13x2880x!vhlo.f32_v1>
    %34 = "vhlo.convert_v1"(%33) : (!vhlo.tensor_v1<1x13x2880x!vhlo.f32_v1>) -> !vhlo.tensor_v1<1x13x2880x!vhlo.bf16_v1>
    %35 = "vhlo.reshape_v1"(%34) : (!vhlo.tensor_v1<1x13x2880x!vhlo.bf16_v1>) -> !vhlo.tensor_v1<13x2880x!vhlo.bf16_v1>
    %36 = "vhlo.transpose_v1"(%arg20) <{permutation = #vhlo.tensor_v1<dense<[1, 0]> : tensor<2xi64>>}> {result_layout = #vhlo.tensor_v1<dense<[0, 1]> : tensor<2xindex>>, xla_shape = #vhlo.string_v1<"bf16[2880,4096]{0,1}">} : (!vhlo.tensor_v1<4096x2880x!vhlo.bf16_v1>) -> !vhlo.tensor_v1<2880x4096x!vhlo.bf16_v1>
    %37 = "vhlo.dot_general_v2"(%35, %36) <{accumulation_type = #vhlo.type_v1<!vhlo.none_v1>, allow_imprecise_accumulation = #vhlo.type_v1<!vhlo.none_v1>, lhs_batching_dimensions = #vhlo.tensor_v1<dense<> : tensor<0xi64>>, lhs_component_count = #vhlo.type_v1<!vhlo.none_v1>, lhs_contracting_dimensions = #vhlo.tensor_v1<dense<1> : tensor<1xi64>>, lhs_precision_type = #vhlo.type_v1<!vhlo.none_v1>, num_primitive_operations = #vhlo.type_v1<!vhlo.none_v1>, precision_config = #vhlo.array_v1<[#vhlo<precision_v1 DEFAULT>, #vhlo<precision_v1 DEFAULT>]>, rhs_batching_dimensions = #vhlo.tensor_v1<dense<> : tensor<0xi64>>, rhs_component_count = #vhlo.type_v1<!vhlo.none_v1>, rhs_contracting_dimensions = #vhlo.tensor_v1<dense<0> : tensor<1xi64>>, rhs_precision_type = #vhlo.type_v1<!vhlo.none_v1>}> : (!vhlo.tensor_v1<13x2880x!vhlo.bf16_v1>, !vhlo.tensor_v1<2880x4096x!vhlo.bf16_v1>) -> !vhlo.tensor_v1<13x4096x!vhlo.bf16_v1>
    %38 = "vhlo.reshape_v1"(%37) : (!vhlo.tensor_v1<13x4096x!vhlo.bf16_v1>) -> !vhlo.tensor_v1<1x13x4096x!vhlo.bf16_v1>
    %39 = "vhlo.broadcast_in_dim_v1"(%arg19) <{broadcast_dimensions = #vhlo.tensor_v1<dense<2> : tensor<1xi64>>}> : (!vhlo.tensor_v1<4096x!vhlo.bf16_v1>) -> !vhlo.tensor_v1<1x13x4096x!vhlo.bf16_v1>
    %40 = "vhlo.add_v1"(%38, %39) : (!vhlo.tensor_v1<1x13x4096x!vhlo.bf16_v1>, !vhlo.tensor_v1<1x13x4096x!vhlo.bf16_v1>) -> !vhlo.tensor_v1<1x13x4096x!vhlo.bf16_v1>
    %41 = "vhlo.reshape_v1"(%40) : (!vhlo.tensor_v1<1x13x4096x!vhlo.bf16_v1>) -> !vhlo.tensor_v1<1x13x64x64x!vhlo.bf16_v1>
    %42 = "vhlo.transpose_v1"(%41) <{permutation = #vhlo.tensor_v1<dense<[0, 2, 1, 3]> : tensor<4xi64>>}> {result_layout = #vhlo.tensor_v1<dense<[3, 1, 2, 0]> : tensor<4xindex>>, xla_shape = #vhlo.string_v1<"bf16[1,64,13,64]{3,1,2,0}">} : (!vhlo.tensor_v1<1x13x64x64x!vhlo.bf16_v1>) -> !vhlo.tensor_v1<1x64x13x64x!vhlo.bf16_v1>
    %43 = "vhlo.slice_v1"(%42) <{limit_indices = #vhlo.tensor_v1<dense<[1, 64, 13, 32]> : tensor<4xi64>>, start_indices = #vhlo.tensor_v1<dense<0> : tensor<4xi64>>, strides = #vhlo.tensor_v1<dense<1> : tensor<4xi64>>}> : (!vhlo.tensor_v1<1x64x13x64x!vhlo.bf16_v1>) -> !vhlo.tensor_v1<1x64x13x32x!vhlo.bf16_v1>
    %44 = "vhlo.convert_v1"(%43) : (!vhlo.tensor_v1<1x64x13x32x!vhlo.bf16_v1>) -> !vhlo.tensor_v1<1x64x13x32x!vhlo.f32_v1>
    %45 = "vhlo.reshape_v1"(%arg7) : (!vhlo.tensor_v1<32x!vhlo.f32_v1>) -> !vhlo.tensor_v1<1x32x1x!vhlo.f32_v1>
    %46 = "vhlo.dot_general_v2"(%45, %6) <{accumulation_type = #vhlo.type_v1<!vhlo.none_v1>, allow_imprecise_accumulation = #vhlo.type_v1<!vhlo.none_v1>, lhs_batching_dimensions = #vhlo.tensor_v1<dense<0> : tensor<1xi64>>, lhs_component_count = #vhlo.type_v1<!vhlo.none_v1>, lhs_contracting_dimensions = #vhlo.tensor_v1<dense<2> : tensor<1xi64>>, lhs_precision_type = #vhlo.type_v1<!vhlo.none_v1>, num_primitive_operations = #vhlo.type_v1<!vhlo.none_v1>, precision_config = #vhlo.array_v1<[#vhlo<precision_v1 DEFAULT>, #vhlo<precision_v1 DEFAULT>]>, rhs_batching_dimensions = #vhlo.tensor_v1<dense<0> : tensor<1xi64>>, rhs_component_count = #vhlo.type_v1<!vhlo.none_v1>, rhs_contracting_dimensions = #vhlo.tensor_v1<dense<1> : tensor<1xi64>>, rhs_precision_type = #vhlo.type_v1<!vhlo.none_v1>}> : (!vhlo.tensor_v1<1x32x1x!vhlo.f32_v1>, !vhlo.tensor_v1<1x1x13x!vhlo.f32_v1>) -> !vhlo.tensor_v1<1x32x13x!vhlo.f32_v1>
    %47 = "vhlo.transpose_v1"(%46) <{permutation = #vhlo.tensor_v1<dense<[0, 2, 1]> : tensor<3xi64>>}> {result_layout = #vhlo.tensor_v1<dense<[1, 2, 0]> : tensor<3xindex>>, xla_shape = #vhlo.string_v1<"f32[1,13,32]{1,2,0}">} : (!vhlo.tensor_v1<1x32x13x!vhlo.f32_v1>) -> !vhlo.tensor_v1<1x13x32x!vhlo.f32_v1>
    %48 = "vhlo.cosine_v2"(%47) <{result_accuracy = #vhlo.result_accuracy_v1<atol = 0.000000e+00, rtol = 0.000000e+00, ulps = 0, mode = #vhlo<result_accuracy_mode_v1 DEFAULT>>}> {result_layout = #vhlo.tensor_v1<dense<[1, 2, 0]> : tensor<3xindex>>, xla_shape = #vhlo.string_v1<"f32[1,13,32]{1,2,0}">} : (!vhlo.tensor_v1<1x13x32x!vhlo.f32_v1>) -> !vhlo.tensor_v1<1x13x32x!vhlo.f32_v1>
    %49 = "vhlo.broadcast_in_dim_v1"(%arg6) <{broadcast_dimensions = #vhlo.tensor_v1<dense<> : tensor<0xi64>>}> : (!vhlo.tensor_v1<!vhlo.f32_v1>) -> !vhlo.tensor_v1<1x13x32x!vhlo.f32_v1>
    %50 = "vhlo.multiply_v1"(%48, %49) : (!vhlo.tensor_v1<1x13x32x!vhlo.f32_v1>, !vhlo.tensor_v1<1x13x32x!vhlo.f32_v1>) -> !vhlo.tensor_v1<1x13x32x!vhlo.f32_v1>
    %51 = "vhlo.convert_v1"(%50) : (!vhlo.tensor_v1<1x13x32x!vhlo.f32_v1>) -> !vhlo.tensor_v1<1x13x32x!vhlo.bf16_v1>
    %52 = "vhlo.reshape_v1"(%51) : (!vhlo.tensor_v1<1x13x32x!vhlo.bf16_v1>) -> !vhlo.tensor_v1<1x1x13x32x!vhlo.bf16_v1>
    %53 = "vhlo.convert_v1"(%52) : (!vhlo.tensor_v1<1x1x13x32x!vhlo.bf16_v1>) -> !vhlo.tensor_v1<1x1x13x32x!vhlo.f32_v1>
    %54 = "vhlo.reshape_v1"(%53) : (!vhlo.tensor_v1<1x1x13x32x!vhlo.f32_v1>) -> !vhlo.tensor_v1<1x13x32x!vhlo.f32_v1>
    %55 = "vhlo.broadcast_in_dim_v1"(%54) <{broadcast_dimensions = #vhlo.tensor_v1<dense<[0, 2, 3]> : tensor<3xi64>>}> : (!vhlo.tensor_v1<1x13x32x!vhlo.f32_v1>) -> !vhlo.tensor_v1<1x64x13x32x!vhlo.f32_v1>
    %56 = "vhlo.multiply_v1"(%44, %55) : (!vhlo.tensor_v1<1x64x13x32x!vhlo.f32_v1>, !vhlo.tensor_v1<1x64x13x32x!vhlo.f32_v1>) -> !vhlo.tensor_v1<1x64x13x32x!vhlo.f32_v1>
    %57 = "vhlo.convert_v1"(%56) : (!vhlo.tensor_v1<1x64x13x32x!vhlo.f32_v1>) -> !vhlo.tensor_v1<1x64x13x32x!vhlo.bf16_v1>
    %58 = "vhlo.slice_v1"(%42) <{limit_indices = #vhlo.tensor_v1<dense<[1, 64, 13, 64]> : tensor<4xi64>>, start_indices = #vhlo.tensor_v1<dense<[0, 0, 0, 32]> : tensor<4xi64>>, strides = #vhlo.tensor_v1<dense<1> : tensor<4xi64>>}> : (!vhlo.tensor_v1<1x64x13x64x!vhlo.bf16_v1>) -> !vhlo.tensor_v1<1x64x13x32x!vhlo.bf16_v1>
    %59 = "vhlo.convert_v1"(%58) : (!vhlo.tensor_v1<1x64x13x32x!vhlo.bf16_v1>) -> !vhlo.tensor_v1<1x64x13x32x!vhlo.f32_v1>
    %60 = "vhlo.sine_v2"(%47) <{result_accuracy = #vhlo.result_accuracy_v1<atol = 0.000000e+00, rtol = 0.000000e+00, ulps = 0, mode = #vhlo<result_accuracy_mode_v1 DEFAULT>>}> {result_layout = #vhlo.tensor_v1<dense<[1, 2, 0]> : tensor<3xindex>>, xla_shape = #vhlo.string_v1<"f32[1,13,32]{1,2,0}">} : (!vhlo.tensor_v1<1x13x32x!vhlo.f32_v1>) -> !vhlo.tensor_v1<1x13x32x!vhlo.f32_v1>
    %61 = "vhlo.multiply_v1"(%60, %49) : (!vhlo.tensor_v1<1x13x32x!vhlo.f32_v1>, !vhlo.tensor_v1<1x13x32x!vhlo.f32_v1>) -> !vhlo.tensor_v1<1x13x32x!vhlo.f32_v1>
    %62 = "vhlo.convert_v1"(%61) : (!vhlo.tensor_v1<1x13x32x!vhlo.f32_v1>) -> !vhlo.tensor_v1<1x13x32x!vhlo.bf16_v1>
    %63 = "vhlo.reshape_v1"(%62) : (!vhlo.tensor_v1<1x13x32x!vhlo.bf16_v1>) -> !vhlo.tensor_v1<1x1x13x32x!vhlo.bf16_v1>
    %64 = "vhlo.convert_v1"(%63) : (!vhlo.tensor_v1<1x1x13x32x!vhlo.bf16_v1>) -> !vhlo.tensor_v1<1x1x13x32x!vhlo.f32_v1>
    %65 = "vhlo.reshape_v1"(%64) : (!vhlo.tensor_v1<1x1x13x32x!vhlo.f32_v1>) -> !vhlo.tensor_v1<1x13x32x!vhlo.f32_v1>
    %66 = "vhlo.broadcast_in_dim_v1"(%65) <{broadcast_dimensions = #vhlo.tensor_v1<dense<[0, 2, 3]> : tensor<3xi64>>}> : (!vhlo.tensor_v1<1x13x32x!vhlo.f32_v1>) -> !vhlo.tensor_v1<1x64x13x32x!vhlo.f32_v1>
    %67 = "vhlo.multiply_v1"(%59, %66) : (!vhlo.tensor_v1<1x64x13x32x!vhlo.f32_v1>, !vhlo.tensor_v1<1x64x13x32x!vhlo.f32_v1>) -> !vhlo.tensor_v1<1x64x13x32x!vhlo.f32_v1>
    %68 = "vhlo.convert_v1"(%67) : (!vhlo.tensor_v1<1x64x13x32x!vhlo.f32_v1>) -> !vhlo.tensor_v1<1x64x13x32x!vhlo.bf16_v1>
    %69 = "vhlo.subtract_v1"(%57, %68) : (!vhlo.tensor_v1<1x64x13x32x!vhlo.bf16_v1>, !vhlo.tensor_v1<1x64x13x32x!vhlo.bf16_v1>) -> !vhlo.tensor_v1<1x64x13x32x!vhlo.bf16_v1>
    %70 = "vhlo.multiply_v1"(%59, %55) : (!vhlo.tensor_v1<1x64x13x32x!vhlo.f32_v1>, !vhlo.tensor_v1<1x64x13x32x!vhlo.f32_v1>) -> !vhlo.tensor_v1<1x64x13x32x!vhlo.f32_v1>
    %71 = "vhlo.convert_v1"(%70) : (!vhlo.tensor_v1<1x64x13x32x!vhlo.f32_v1>) -> !vhlo.tensor_v1<1x64x13x32x!vhlo.bf16_v1>
    %72 = "vhlo.multiply_v1"(%44, %66) : (!vhlo.tensor_v1<1x64x13x32x!vhlo.f32_v1>, !vhlo.tensor_v1<1x64x13x32x!vhlo.f32_v1>) -> !vhlo.tensor_v1<1x64x13x32x!vhlo.f32_v1>
    %73 = "vhlo.convert_v1"(%72) : (!vhlo.tensor_v1<1x64x13x32x!vhlo.f32_v1>) -> !vhlo.tensor_v1<1x64x13x32x!vhlo.bf16_v1>
    %74 = "vhlo.add_v1"(%71, %73) : (!vhlo.tensor_v1<1x64x13x32x!vhlo.bf16_v1>, !vhlo.tensor_v1<1x64x13x32x!vhlo.bf16_v1>) -> !vhlo.tensor_v1<1x64x13x32x!vhlo.bf16_v1>
    %75 = "vhlo.concatenate_v1"(%69, %74) <{dimension = #vhlo.integer_v1<3 : i64>}> : (!vhlo.tensor_v1<1x64x13x32x!vhlo.bf16_v1>, !vhlo.tensor_v1<1x64x13x32x!vhlo.bf16_v1>) -> !vhlo.tensor_v1<1x64x13x64x!vhlo.bf16_v1>
    %76 = "vhlo.reshape_v1"(%75) : (!vhlo.tensor_v1<1x64x13x64x!vhlo.bf16_v1>) -> !vhlo.tensor_v1<64x13x64x!vhlo.bf16_v1>
    %77 = "vhlo.transpose_v1"(%arg9) <{permutation = #vhlo.tensor_v1<dense<[1, 0]> : tensor<2xi64>>}> {result_layout = #vhlo.tensor_v1<dense<[0, 1]> : tensor<2xindex>>, xla_shape = #vhlo.string_v1<"bf16[2880,512]{0,1}">} : (!vhlo.tensor_v1<512x2880x!vhlo.bf16_v1>) -> !vhlo.tensor_v1<2880x512x!vhlo.bf16_v1>
    %78 = "vhlo.dot_general_v2"(%35, %77) <{accumulation_type = #vhlo.type_v1<!vhlo.none_v1>, allow_imprecise_accumulation = #vhlo.type_v1<!vhlo.none_v1>, lhs_batching_dimensions = #vhlo.tensor_v1<dense<> : tensor<0xi64>>, lhs_component_count = #vhlo.type_v1<!vhlo.none_v1>, lhs_contracting_dimensions = #vhlo.tensor_v1<dense<1> : tensor<1xi64>>, lhs_precision_type = #vhlo.type_v1<!vhlo.none_v1>, num_primitive_operations = #vhlo.type_v1<!vhlo.none_v1>, precision_config = #vhlo.array_v1<[#vhlo<precision_v1 DEFAULT>, #vhlo<precision_v1 DEFAULT>]>, rhs_batching_dimensions = #vhlo.tensor_v1<dense<> : tensor<0xi64>>, rhs_component_count = #vhlo.type_v1<!vhlo.none_v1>, rhs_contracting_dimensions = #vhlo.tensor_v1<dense<0> : tensor<1xi64>>, rhs_precision_type = #vhlo.type_v1<!vhlo.none_v1>}> : (!vhlo.tensor_v1<13x2880x!vhlo.bf16_v1>, !vhlo.tensor_v1<2880x512x!vhlo.bf16_v1>) -> !vhlo.tensor_v1<13x512x!vhlo.bf16_v1>
    %79 = "vhlo.reshape_v1"(%78) : (!vhlo.tensor_v1<13x512x!vhlo.bf16_v1>) -> !vhlo.tensor_v1<1x13x512x!vhlo.bf16_v1>
    %80 = "vhlo.broadcast_in_dim_v1"(%arg8) <{broadcast_dimensions = #vhlo.tensor_v1<dense<2> : tensor<1xi64>>}> : (!vhlo.tensor_v1<512x!vhlo.bf16_v1>) -> !vhlo.tensor_v1<1x13x512x!vhlo.bf16_v1>
    %81 = "vhlo.add_v1"(%79, %80) : (!vhlo.tensor_v1<1x13x512x!vhlo.bf16_v1>, !vhlo.tensor_v1<1x13x512x!vhlo.bf16_v1>) -> !vhlo.tensor_v1<1x13x512x!vhlo.bf16_v1>
    %82 = "vhlo.reshape_v1"(%81) : (!vhlo.tensor_v1<1x13x512x!vhlo.bf16_v1>) -> !vhlo.tensor_v1<1x13x8x64x!vhlo.bf16_v1>
    %83 = "vhlo.transpose_v1"(%82) <{permutation = #vhlo.tensor_v1<dense<[0, 2, 1, 3]> : tensor<4xi64>>}> {result_layout = #vhlo.tensor_v1<dense<[3, 1, 2, 0]> : tensor<4xindex>>, xla_shape = #vhlo.string_v1<"bf16[1,8,13,64]{3,1,2,0}">} : (!vhlo.tensor_v1<1x13x8x64x!vhlo.bf16_v1>) -> !vhlo.tensor_v1<1x8x13x64x!vhlo.bf16_v1>
    %84 = "vhlo.slice_v1"(%83) <{limit_indices = #vhlo.tensor_v1<dense<[1, 8, 13, 32]> : tensor<4xi64>>, start_indices = #vhlo.tensor_v1<dense<0> : tensor<4xi64>>, strides = #vhlo.tensor_v1<dense<1> : tensor<4xi64>>}> : (!vhlo.tensor_v1<1x8x13x64x!vhlo.bf16_v1>) -> !vhlo.tensor_v1<1x8x13x32x!vhlo.bf16_v1>
    %85 = "vhlo.convert_v1"(%84) : (!vhlo.tensor_v1<1x8x13x32x!vhlo.bf16_v1>) -> !vhlo.tensor_v1<1x8x13x32x!vhlo.f32_v1>
    %86 = "vhlo.broadcast_in_dim_v1"(%54) <{broadcast_dimensions = #vhlo.tensor_v1<dense<[0, 2, 3]> : tensor<3xi64>>}> : (!vhlo.tensor_v1<1x13x32x!vhlo.f32_v1>) -> !vhlo.tensor_v1<1x8x13x32x!vhlo.f32_v1>
    %87 = "vhlo.multiply_v1"(%85, %86) : (!vhlo.tensor_v1<1x8x13x32x!vhlo.f32_v1>, !vhlo.tensor_v1<1x8x13x32x!vhlo.f32_v1>) -> !vhlo.tensor_v1<1x8x13x32x!vhlo.f32_v1>
    %88 = "vhlo.convert_v1"(%87) : (!vhlo.tensor_v1<1x8x13x32x!vhlo.f32_v1>) -> !vhlo.tensor_v1<1x8x13x32x!vhlo.bf16_v1>
    %89 = "vhlo.slice_v1"(%83) <{limit_indices = #vhlo.tensor_v1<dense<[1, 8, 13, 64]> : tensor<4xi64>>, start_indices = #vhlo.tensor_v1<dense<[0, 0, 0, 32]> : tensor<4xi64>>, strides = #vhlo.tensor_v1<dense<1> : tensor<4xi64>>}> : (!vhlo.tensor_v1<1x8x13x64x!vhlo.bf16_v1>) -> !vhlo.tensor_v1<1x8x13x32x!vhlo.bf16_v1>
    %90 = "vhlo.convert_v1"(%89) : (!vhlo.tensor_v1<1x8x13x32x!vhlo.bf16_v1>) -> !vhlo.tensor_v1<1x8x13x32x!vhlo.f32_v1>
    %91 = "vhlo.broadcast_in_dim_v1"(%65) <{broadcast_dimensions = #vhlo.tensor_v1<dense<[0, 2, 3]> : tensor<3xi64>>}> : (!vhlo.tensor_v1<1x13x32x!vhlo.f32_v1>) -> !vhlo.tensor_v1<1x8x13x32x!vhlo.f32_v1>
    %92 = "vhlo.multiply_v1"(%90, %91) : (!vhlo.tensor_v1<1x8x13x32x!vhlo.f32_v1>, !vhlo.tensor_v1<1x8x13x32x!vhlo.f32_v1>) -> !vhlo.tensor_v1<1x8x13x32x!vhlo.f32_v1>
    %93 = "vhlo.convert_v1"(%92) : (!vhlo.tensor_v1<1x8x13x32x!vhlo.f32_v1>) -> !vhlo.tensor_v1<1x8x13x32x!vhlo.bf16_v1>
    %94 = "vhlo.subtract_v1"(%88, %93) : (!vhlo.tensor_v1<1x8x13x32x!vhlo.bf16_v1>, !vhlo.tensor_v1<1x8x13x32x!vhlo.bf16_v1>) -> !vhlo.tensor_v1<1x8x13x32x!vhlo.bf16_v1>
    %95 = "vhlo.multiply_v1"(%90, %86) : (!vhlo.tensor_v1<1x8x13x32x!vhlo.f32_v1>, !vhlo.tensor_v1<1x8x13x32x!vhlo.f32_v1>) -> !vhlo.tensor_v1<1x8x13x32x!vhlo.f32_v1>
    %96 = "vhlo.convert_v1"(%95) : (!vhlo.tensor_v1<1x8x13x32x!vhlo.f32_v1>) -> !vhlo.tensor_v1<1x8x13x32x!vhlo.bf16_v1>
    %97 = "vhlo.multiply_v1"(%85, %91) : (!vhlo.tensor_v1<1x8x13x32x!vhlo.f32_v1>, !vhlo.tensor_v1<1x8x13x32x!vhlo.f32_v1>) -> !vhlo.tensor_v1<1x8x13x32x!vhlo.f32_v1>
    %98 = "vhlo.convert_v1"(%97) : (!vhlo.tensor_v1<1x8x13x32x!vhlo.f32_v1>) -> !vhlo.tensor_v1<1x8x13x32x!vhlo.bf16_v1>
    %99 = "vhlo.add_v1"(%96, %98) : (!vhlo.tensor_v1<1x8x13x32x!vhlo.bf16_v1>, !vhlo.tensor_v1<1x8x13x32x!vhlo.bf16_v1>) -> !vhlo.tensor_v1<1x8x13x32x!vhlo.bf16_v1>
    %100 = "vhlo.concatenate_v1"(%94, %99) <{dimension = #vhlo.integer_v1<3 : i64>}> : (!vhlo.tensor_v1<1x8x13x32x!vhlo.bf16_v1>, !vhlo.tensor_v1<1x8x13x32x!vhlo.bf16_v1>) -> !vhlo.tensor_v1<1x8x13x64x!vhlo.bf16_v1>
    %101 = "vhlo.broadcast_in_dim_v1"(%100) <{broadcast_dimensions = #vhlo.tensor_v1<dense<[0, 1, 3, 4]> : tensor<4xi64>>}> : (!vhlo.tensor_v1<1x8x13x64x!vhlo.bf16_v1>) -> !vhlo.tensor_v1<1x8x8x13x64x!vhlo.bf16_v1>
    %102 = "vhlo.reshape_v1"(%101) : (!vhlo.tensor_v1<1x8x8x13x64x!vhlo.bf16_v1>) -> !vhlo.tensor_v1<1x64x13x64x!vhlo.bf16_v1>
    %103 = "vhlo.transpose_v1"(%102) <{permutation = #vhlo.tensor_v1<dense<[0, 1, 3, 2]> : tensor<4xi64>>}> {result_layout = #vhlo.tensor_v1<dense<[2, 3, 1, 0]> : tensor<4xindex>>, xla_shape = #vhlo.string_v1<"bf16[1,64,64,13]{2,3,1,0}">} : (!vhlo.tensor_v1<1x64x13x64x!vhlo.bf16_v1>) -> !vhlo.tensor_v1<1x64x64x13x!vhlo.bf16_v1>
    %104 = "vhlo.reshape_v1"(%103) : (!vhlo.tensor_v1<1x64x64x13x!vhlo.bf16_v1>) -> !vhlo.tensor_v1<64x64x13x!vhlo.bf16_v1>
    %105 = "vhlo.dot_general_v2"(%76, %104) <{accumulation_type = #vhlo.type_v1<!vhlo.none_v1>, allow_imprecise_accumulation = #vhlo.type_v1<!vhlo.none_v1>, lhs_batching_dimensions = #vhlo.tensor_v1<dense<0> : tensor<1xi64>>, lhs_component_count = #vhlo.type_v1<!vhlo.none_v1>, lhs_contracting_dimensions = #vhlo.tensor_v1<dense<2> : tensor<1xi64>>, lhs_precision_type = #vhlo.type_v1<!vhlo.none_v1>, num_primitive_operations = #vhlo.type_v1<!vhlo.none_v1>, precision_config = #vhlo.array_v1<[#vhlo<precision_v1 DEFAULT>, #vhlo<precision_v1 DEFAULT>]>, rhs_batching_dimensions = #vhlo.tensor_v1<dense<0> : tensor<1xi64>>, rhs_component_count = #vhlo.type_v1<!vhlo.none_v1>, rhs_contracting_dimensions = #vhlo.tensor_v1<dense<1> : tensor<1xi64>>, rhs_precision_type = #vhlo.type_v1<!vhlo.none_v1>}> : (!vhlo.tensor_v1<64x13x64x!vhlo.bf16_v1>, !vhlo.tensor_v1<64x64x13x!vhlo.bf16_v1>) -> !vhlo.tensor_v1<64x13x13x!vhlo.bf16_v1>
    %106 = "vhlo.reshape_v1"(%105) : (!vhlo.tensor_v1<64x13x13x!vhlo.bf16_v1>) -> !vhlo.tensor_v1<1x64x13x13x!vhlo.bf16_v1>
    %107 = "vhlo.convert_v1"(%106) : (!vhlo.tensor_v1<1x64x13x13x!vhlo.bf16_v1>) -> !vhlo.tensor_v1<1x64x13x13x!vhlo.f32_v1>
    %108 = "vhlo.broadcast_in_dim_v1"(%arg18) <{broadcast_dimensions = #vhlo.tensor_v1<dense<> : tensor<0xi64>>}> : (!vhlo.tensor_v1<!vhlo.f32_v1>) -> !vhlo.tensor_v1<1x64x13x13x!vhlo.f32_v1>
    %109 = "vhlo.multiply_v1"(%107, %108) : (!vhlo.tensor_v1<1x64x13x13x!vhlo.f32_v1>, !vhlo.tensor_v1<1x64x13x13x!vhlo.f32_v1>) -> !vhlo.tensor_v1<1x64x13x13x!vhlo.f32_v1>
    %110 = "vhlo.convert_v1"(%109) : (!vhlo.tensor_v1<1x64x13x13x!vhlo.f32_v1>) -> !vhlo.tensor_v1<1x64x13x13x!vhlo.bf16_v1>
    %111 = "vhlo.broadcast_in_dim_v1"(%1) <{broadcast_dimensions = #vhlo.tensor_v1<dense<1> : tensor<1xi64>>}> : (!vhlo.tensor_v1<13x!vhlo.i64_v1>) -> !vhlo.tensor_v1<13x13x!vhlo.i64_v1>
    %112 = "vhlo.broadcast_in_dim_v1"(%arg17) <{broadcast_dimensions = #vhlo.tensor_v1<dense<> : tensor<0xi64>>}> : (!vhlo.tensor_v1<!vhlo.i64_v1>) -> !vhlo.tensor_v1<13x!vhlo.i64_v1>
    %113 = "vhlo.subtract_v1"(%1, %112) : (!vhlo.tensor_v1<13x!vhlo.i64_v1>, !vhlo.tensor_v1<13x!vhlo.i64_v1>) -> !vhlo.tensor_v1<13x!vhlo.i64_v1>
    %114 = "vhlo.broadcast_in_dim_v1"(%113) <{broadcast_dimensions = #vhlo.tensor_v1<dense<0> : tensor<1xi64>>}> : (!vhlo.tensor_v1<13x!vhlo.i64_v1>) -> !vhlo.tensor_v1<13x13x!vhlo.i64_v1>
    %115 = "vhlo.compare_v1"(%111, %114) <{compare_type = #vhlo<comparison_type_v1 NOTYPE>, comparison_direction = #vhlo<comparison_direction_v1 GT>}> : (!vhlo.tensor_v1<13x13x!vhlo.i64_v1>, !vhlo.tensor_v1<13x13x!vhlo.i64_v1>) -> !vhlo.tensor_v1<13x13x!vhlo.bool_v1>
    %116 = "vhlo.convert_v1"(%115) : (!vhlo.tensor_v1<13x13x!vhlo.bool_v1>) -> !vhlo.tensor_v1<13x13x!vhlo.ui8_v1>
    %117 = "vhlo.and_v1"(%116, %13) : (!vhlo.tensor_v1<13x13x!vhlo.ui8_v1>, !vhlo.tensor_v1<13x13x!vhlo.ui8_v1>) -> !vhlo.tensor_v1<13x13x!vhlo.ui8_v1>
    %118 = "vhlo.compare_v1"(%117, %15) <{compare_type = #vhlo<comparison_type_v1 NOTYPE>, comparison_direction = #vhlo<comparison_direction_v1 NE>}> : (!vhlo.tensor_v1<13x13x!vhlo.ui8_v1>, !vhlo.tensor_v1<13x13x!vhlo.ui8_v1>) -> !vhlo.tensor_v1<13x13x!vhlo.bool_v1>
    %119 = "vhlo.convert_v1"(%118) : (!vhlo.tensor_v1<13x13x!vhlo.bool_v1>) -> !vhlo.tensor_v1<13x13x!vhlo.ui8_v1>
    %120 = "vhlo.broadcast_in_dim_v1"(%1) <{broadcast_dimensions = #vhlo.tensor_v1<dense<0> : tensor<1xi64>>}> : (!vhlo.tensor_v1<13x!vhlo.i64_v1>) -> !vhlo.tensor_v1<13x13x!vhlo.i64_v1>
    %121 = "vhlo.compare_v1"(%111, %120) <{compare_type = #vhlo<comparison_type_v1 NOTYPE>, comparison_direction = #vhlo<comparison_direction_v1 LE>}> : (!vhlo.tensor_v1<13x13x!vhlo.i64_v1>, !vhlo.tensor_v1<13x13x!vhlo.i64_v1>) -> !vhlo.tensor_v1<13x13x!vhlo.bool_v1>
    %122 = "vhlo.convert_v1"(%121) : (!vhlo.tensor_v1<13x13x!vhlo.bool_v1>) -> !vhlo.tensor_v1<13x13x!vhlo.ui8_v1>
    %123 = "vhlo.and_v1"(%119, %122) : (!vhlo.tensor_v1<13x13x!vhlo.ui8_v1>, !vhlo.tensor_v1<13x13x!vhlo.ui8_v1>) -> !vhlo.tensor_v1<13x13x!vhlo.ui8_v1>
    %124 = "vhlo.compare_v1"(%123, %15) <{compare_type = #vhlo<comparison_type_v1 NOTYPE>, comparison_direction = #vhlo<comparison_direction_v1 NE>}> : (!vhlo.tensor_v1<13x13x!vhlo.ui8_v1>, !vhlo.tensor_v1<13x13x!vhlo.ui8_v1>) -> !vhlo.tensor_v1<13x13x!vhlo.bool_v1>
    %125 = "vhlo.reshape_v1"(%124) : (!vhlo.tensor_v1<13x13x!vhlo.bool_v1>) -> !vhlo.tensor_v1<1x1x13x13x!vhlo.bool_v1>
    %126 = "vhlo.reshape_v1"(%arg16) : (!vhlo.tensor_v1<!vhlo.bf16_v1>) -> !vhlo.tensor_v1<1x1x!vhlo.bf16_v1>
    %127 = "vhlo.broadcast_in_dim_v1"(%126) <{broadcast_dimensions = #vhlo.tensor_v1<dense<[0, 1]> : tensor<2xi64>>}> : (!vhlo.tensor_v1<1x1x!vhlo.bf16_v1>) -> !vhlo.tensor_v1<1x1x13x13x!vhlo.bf16_v1>
    %128 = "vhlo.select_v1"(%125, %12, %127) : (!vhlo.tensor_v1<1x1x13x13x!vhlo.bool_v1>, !vhlo.tensor_v1<1x1x13x13x!vhlo.bf16_v1>, !vhlo.tensor_v1<1x1x13x13x!vhlo.bf16_v1>) -> !vhlo.tensor_v1<1x1x13x13x!vhlo.bf16_v1>
    %129 = "vhlo.reshape_v1"(%128) : (!vhlo.tensor_v1<1x1x13x13x!vhlo.bf16_v1>) -> !vhlo.tensor_v1<1x13x13x!vhlo.bf16_v1>
    %130 = "vhlo.broadcast_in_dim_v1"(%129) <{broadcast_dimensions = #vhlo.tensor_v1<dense<[0, 2, 3]> : tensor<3xi64>>}> : (!vhlo.tensor_v1<1x13x13x!vhlo.bf16_v1>) -> !vhlo.tensor_v1<1x64x13x13x!vhlo.bf16_v1>
    %131 = "vhlo.add_v1"(%110, %130) : (!vhlo.tensor_v1<1x64x13x13x!vhlo.bf16_v1>, !vhlo.tensor_v1<1x64x13x13x!vhlo.bf16_v1>) -> !vhlo.tensor_v1<1x64x13x13x!vhlo.bf16_v1>
    %132 = "vhlo.reshape_v1"(%arg15) : (!vhlo.tensor_v1<64x!vhlo.bf16_v1>) -> !vhlo.tensor_v1<1x64x1x!vhlo.bf16_v1>
    %133 = "vhlo.broadcast_in_dim_v1"(%132) <{broadcast_dimensions = #vhlo.tensor_v1<dense<[0, 1, 3]> : tensor<3xi64>>}> : (!vhlo.tensor_v1<1x64x1x!vhlo.bf16_v1>) -> !vhlo.tensor_v1<1x64x13x1x!vhlo.bf16_v1>
    %134 = "vhlo.concatenate_v1"(%131, %133) <{dimension = #vhlo.integer_v1<3 : i64>}> : (!vhlo.tensor_v1<1x64x13x13x!vhlo.bf16_v1>, !vhlo.tensor_v1<1x64x13x1x!vhlo.bf16_v1>) -> !vhlo.tensor_v1<1x64x13x14x!vhlo.bf16_v1>
    %135 = "vhlo.transpose_v1"(%arg1) <{permutation = #vhlo.tensor_v1<dense<[1, 0]> : tensor<2xi64>>}> {result_layout = #vhlo.tensor_v1<dense<[0, 1]> : tensor<2xindex>>, xla_shape = #vhlo.string_v1<"bf16[2880,512]{0,1}">} : (!vhlo.tensor_v1<512x2880x!vhlo.bf16_v1>) -> !vhlo.tensor_v1<2880x512x!vhlo.bf16_v1>
    %136 = "vhlo.dot_general_v2"(%35, %135) <{accumulation_type = #vhlo.type_v1<!vhlo.none_v1>, allow_imprecise_accumulation = #vhlo.type_v1<!vhlo.none_v1>, lhs_batching_dimensions = #vhlo.tensor_v1<dense<> : tensor<0xi64>>, lhs_component_count = #vhlo.type_v1<!vhlo.none_v1>, lhs_contracting_dimensions = #vhlo.tensor_v1<dense<1> : tensor<1xi64>>, lhs_precision_type = #vhlo.type_v1<!vhlo.none_v1>, num_primitive_operations = #vhlo.type_v1<!vhlo.none_v1>, precision_config = #vhlo.array_v1<[#vhlo<precision_v1 DEFAULT>, #vhlo<precision_v1 DEFAULT>]>, rhs_batching_dimensions = #vhlo.tensor_v1<dense<> : tensor<0xi64>>, rhs_component_count = #vhlo.type_v1<!vhlo.none_v1>, rhs_contracting_dimensions = #vhlo.tensor_v1<dense<0> : tensor<1xi64>>, rhs_precision_type = #vhlo.type_v1<!vhlo.none_v1>}> : (!vhlo.tensor_v1<13x2880x!vhlo.bf16_v1>, !vhlo.tensor_v1<2880x512x!vhlo.bf16_v1>) -> !vhlo.tensor_v1<13x512x!vhlo.bf16_v1>
    %137 = "vhlo.reshape_v1"(%136) : (!vhlo.tensor_v1<13x512x!vhlo.bf16_v1>) -> !vhlo.tensor_v1<1x13x512x!vhlo.bf16_v1>
    %138 = "vhlo.broadcast_in_dim_v1"(%arg0) <{broadcast_dimensions = #vhlo.tensor_v1<dense<2> : tensor<1xi64>>}> : (!vhlo.tensor_v1<512x!vhlo.bf16_v1>) -> !vhlo.tensor_v1<1x13x512x!vhlo.bf16_v1>
    %139 = "vhlo.add_v1"(%137, %138) : (!vhlo.tensor_v1<1x13x512x!vhlo.bf16_v1>, !vhlo.tensor_v1<1x13x512x!vhlo.bf16_v1>) -> !vhlo.tensor_v1<1x13x512x!vhlo.bf16_v1>
    %140 = "vhlo.reshape_v1"(%139) : (!vhlo.tensor_v1<1x13x512x!vhlo.bf16_v1>) -> !vhlo.tensor_v1<1x13x8x64x!vhlo.bf16_v1>
    %141 = "vhlo.transpose_v1"(%140) <{permutation = #vhlo.tensor_v1<dense<[0, 2, 1, 3]> : tensor<4xi64>>}> {result_layout = #vhlo.tensor_v1<dense<[3, 1, 2, 0]> : tensor<4xindex>>, xla_shape = #vhlo.string_v1<"bf16[1,8,13,64]{3,1,2,0}">} : (!vhlo.tensor_v1<1x13x8x64x!vhlo.bf16_v1>) -> !vhlo.tensor_v1<1x8x13x64x!vhlo.bf16_v1>
    %142 = "vhlo.convert_v1"(%arg30) : (!vhlo.tensor_v1<2880x!vhlo.bf16_v1>) -> !vhlo.tensor_v1<2880x!vhlo.f32_v1>
    %143 = "vhlo.broadcast_in_dim_v1"(%142) <{broadcast_dimensions = #vhlo.tensor_v1<dense<2> : tensor<1xi64>>}> : (!vhlo.tensor_v1<2880x!vhlo.f32_v1>) -> !vhlo.tensor_v1<1x13x2880x!vhlo.f32_v1>
    %144 = "vhlo.reduce_v1"(%134, %3) <{dimensions = #vhlo.tensor_v1<dense<3> : tensor<1xi64>>}> ({
    ^bb0(%arg31: !vhlo.tensor_v1<!vhlo.bf16_v1>, %arg32: !vhlo.tensor_v1<!vhlo.bf16_v1>):
      %260 = "vhlo.maximum_v1"(%arg31, %arg32) : (!vhlo.tensor_v1<!vhlo.bf16_v1>, !vhlo.tensor_v1<!vhlo.bf16_v1>) -> !vhlo.tensor_v1<!vhlo.bf16_v1>
      "vhlo.return_v1"(%260) : (!vhlo.tensor_v1<!vhlo.bf16_v1>) -> ()
    }) : (!vhlo.tensor_v1<1x64x13x14x!vhlo.bf16_v1>, !vhlo.tensor_v1<!vhlo.bf16_v1>) -> !vhlo.tensor_v1<1x64x13x!vhlo.bf16_v1>
    %145 = "vhlo.broadcast_in_dim_v1"(%144) <{broadcast_dimensions = #vhlo.tensor_v1<dense<[0, 1, 2]> : tensor<3xi64>>}> : (!vhlo.tensor_v1<1x64x13x!vhlo.bf16_v1>) -> !vhlo.tensor_v1<1x64x13x14x!vhlo.bf16_v1>
    %146 = "vhlo.subtract_v1"(%134, %145) : (!vhlo.tensor_v1<1x64x13x14x!vhlo.bf16_v1>, !vhlo.tensor_v1<1x64x13x14x!vhlo.bf16_v1>) -> !vhlo.tensor_v1<1x64x13x14x!vhlo.bf16_v1>
    %147 = "vhlo.reduce_v1"(%146, %3) <{dimensions = #vhlo.tensor_v1<dense<3> : tensor<1xi64>>}> ({
    ^bb0(%arg31: !vhlo.tensor_v1<!vhlo.bf16_v1>, %arg32: !vhlo.tensor_v1<!vhlo.bf16_v1>):
      %260 = "vhlo.maximum_v1"(%arg31, %arg32) : (!vhlo.tensor_v1<!vhlo.bf16_v1>, !vhlo.tensor_v1<!vhlo.bf16_v1>) -> !vhlo.tensor_v1<!vhlo.bf16_v1>
      "vhlo.return_v1"(%260) : (!vhlo.tensor_v1<!vhlo.bf16_v1>) -> ()
    }) : (!vhlo.tensor_v1<1x64x13x14x!vhlo.bf16_v1>, !vhlo.tensor_v1<!vhlo.bf16_v1>) -> !vhlo.tensor_v1<1x64x13x!vhlo.bf16_v1>
    %148 = "vhlo.broadcast_in_dim_v1"(%147) <{broadcast_dimensions = #vhlo.tensor_v1<dense<[0, 1, 2]> : tensor<3xi64>>}> : (!vhlo.tensor_v1<1x64x13x!vhlo.bf16_v1>) -> !vhlo.tensor_v1<1x64x13x14x!vhlo.bf16_v1>
    %149 = "vhlo.subtract_v1"(%146, %148) : (!vhlo.tensor_v1<1x64x13x14x!vhlo.bf16_v1>, !vhlo.tensor_v1<1x64x13x14x!vhlo.bf16_v1>) -> !vhlo.tensor_v1<1x64x13x14x!vhlo.bf16_v1>
    %150 = "vhlo.exponential_v2"(%149) <{result_accuracy = #vhlo.result_accuracy_v1<atol = 0.000000e+00, rtol = 0.000000e+00, ulps = 0, mode = #vhlo<result_accuracy_mode_v1 DEFAULT>>}> : (!vhlo.tensor_v1<1x64x13x14x!vhlo.bf16_v1>) -> !vhlo.tensor_v1<1x64x13x14x!vhlo.bf16_v1>
    %151 = "vhlo.reduce_v1"(%150, %9) <{dimensions = #vhlo.tensor_v1<dense<3> : tensor<1xi64>>}> ({
    ^bb0(%arg31: !vhlo.tensor_v1<!vhlo.bf16_v1>, %arg32: !vhlo.tensor_v1<!vhlo.bf16_v1>):
      %260 = "vhlo.add_v1"(%arg31, %arg32) : (!vhlo.tensor_v1<!vhlo.bf16_v1>, !vhlo.tensor_v1<!vhlo.bf16_v1>) -> !vhlo.tensor_v1<!vhlo.bf16_v1>
      "vhlo.return_v1"(%260) : (!vhlo.tensor_v1<!vhlo.bf16_v1>) -> ()
    }) : (!vhlo.tensor_v1<1x64x13x14x!vhlo.bf16_v1>, !vhlo.tensor_v1<!vhlo.bf16_v1>) -> !vhlo.tensor_v1<1x64x13x!vhlo.bf16_v1>
    %152 = "vhlo.broadcast_in_dim_v1"(%151) <{broadcast_dimensions = #vhlo.tensor_v1<dense<[0, 1, 2]> : tensor<3xi64>>}> : (!vhlo.tensor_v1<1x64x13x!vhlo.bf16_v1>) -> !vhlo.tensor_v1<1x64x13x14x!vhlo.bf16_v1>
    %153 = "vhlo.divide_v1"(%150, %152) : (!vhlo.tensor_v1<1x64x13x14x!vhlo.bf16_v1>, !vhlo.tensor_v1<1x64x13x14x!vhlo.bf16_v1>) -> !vhlo.tensor_v1<1x64x13x14x!vhlo.bf16_v1>
    %154 = "vhlo.slice_v1"(%153) <{limit_indices = #vhlo.tensor_v1<dense<[1, 64, 13, 13]> : tensor<4xi64>>, start_indices = #vhlo.tensor_v1<dense<0> : tensor<4xi64>>, strides = #vhlo.tensor_v1<dense<1> : tensor<4xi64>>}> : (!vhlo.tensor_v1<1x64x13x14x!vhlo.bf16_v1>) -> !vhlo.tensor_v1<1x64x13x13x!vhlo.bf16_v1>
    %155 = "vhlo.reshape_v1"(%154) : (!vhlo.tensor_v1<1x64x13x13x!vhlo.bf16_v1>) -> !vhlo.tensor_v1<64x13x13x!vhlo.bf16_v1>
    %156 = "vhlo.broadcast_in_dim_v1"(%141) <{broadcast_dimensions = #vhlo.tensor_v1<dense<[0, 1, 3, 4]> : tensor<4xi64>>}> : (!vhlo.tensor_v1<1x8x13x64x!vhlo.bf16_v1>) -> !vhlo.tensor_v1<1x8x8x13x64x!vhlo.bf16_v1>
    %157 = "vhlo.reshape_v1"(%156) : (!vhlo.tensor_v1<1x8x8x13x64x!vhlo.bf16_v1>) -> !vhlo.tensor_v1<64x13x64x!vhlo.bf16_v1>
    %158 = "vhlo.dot_general_v2"(%155, %157) <{accumulation_type = #vhlo.type_v1<!vhlo.none_v1>, allow_imprecise_accumulation = #vhlo.type_v1<!vhlo.none_v1>, lhs_batching_dimensions = #vhlo.tensor_v1<dense<0> : tensor<1xi64>>, lhs_component_count = #vhlo.type_v1<!vhlo.none_v1>, lhs_contracting_dimensions = #vhlo.tensor_v1<dense<2> : tensor<1xi64>>, lhs_precision_type = #vhlo.type_v1<!vhlo.none_v1>, num_primitive_operations = #vhlo.type_v1<!vhlo.none_v1>, precision_config = #vhlo.array_v1<[#vhlo<precision_v1 DEFAULT>, #vhlo<precision_v1 DEFAULT>]>, rhs_batching_dimensions = #vhlo.tensor_v1<dense<0> : tensor<1xi64>>, rhs_component_count = #vhlo.type_v1<!vhlo.none_v1>, rhs_contracting_dimensions = #vhlo.tensor_v1<dense<1> : tensor<1xi64>>, rhs_precision_type = #vhlo.type_v1<!vhlo.none_v1>}> : (!vhlo.tensor_v1<64x13x13x!vhlo.bf16_v1>, !vhlo.tensor_v1<64x13x64x!vhlo.bf16_v1>) -> !vhlo.tensor_v1<64x13x64x!vhlo.bf16_v1>
    %159 = "vhlo.reshape_v1"(%158) : (!vhlo.tensor_v1<64x13x64x!vhlo.bf16_v1>) -> !vhlo.tensor_v1<1x64x13x64x!vhlo.bf16_v1>
    %160 = "vhlo.transpose_v1"(%159) <{permutation = #vhlo.tensor_v1<dense<[0, 2, 1, 3]> : tensor<4xi64>>}> {result_layout = #vhlo.tensor_v1<dense<[3, 1, 2, 0]> : tensor<4xindex>>, xla_shape = #vhlo.string_v1<"bf16[1,13,64,64]{3,1,2,0}">} : (!vhlo.tensor_v1<1x64x13x64x!vhlo.bf16_v1>) -> !vhlo.tensor_v1<1x13x64x64x!vhlo.bf16_v1>
    %161 = "vhlo.reshape_v1"(%160) : (!vhlo.tensor_v1<1x13x64x64x!vhlo.bf16_v1>) -> !vhlo.tensor_v1<13x4096x!vhlo.bf16_v1>
    %162 = "vhlo.transpose_v1"(%arg14) <{permutation = #vhlo.tensor_v1<dense<[1, 0]> : tensor<2xi64>>}> {result_layout = #vhlo.tensor_v1<dense<[0, 1]> : tensor<2xindex>>, xla_shape = #vhlo.string_v1<"bf16[4096,2880]{0,1}">} : (!vhlo.tensor_v1<2880x4096x!vhlo.bf16_v1>) -> !vhlo.tensor_v1<4096x2880x!vhlo.bf16_v1>
    %163 = "vhlo.dot_general_v2"(%161, %162) <{accumulation_type = #vhlo.type_v1<!vhlo.none_v1>, allow_imprecise_accumulation = #vhlo.type_v1<!vhlo.none_v1>, lhs_batching_dimensions = #vhlo.tensor_v1<dense<> : tensor<0xi64>>, lhs_component_count = #vhlo.type_v1<!vhlo.none_v1>, lhs_contracting_dimensions = #vhlo.tensor_v1<dense<1> : tensor<1xi64>>, lhs_precision_type = #vhlo.type_v1<!vhlo.none_v1>, num_primitive_operations = #vhlo.type_v1<!vhlo.none_v1>, precision_config = #vhlo.array_v1<[#vhlo<precision_v1 DEFAULT>, #vhlo<precision_v1 DEFAULT>]>, rhs_batching_dimensions = #vhlo.tensor_v1<dense<> : tensor<0xi64>>, rhs_component_count = #vhlo.type_v1<!vhlo.none_v1>, rhs_contracting_dimensions = #vhlo.tensor_v1<dense<0> : tensor<1xi64>>, rhs_precision_type = #vhlo.type_v1<!vhlo.none_v1>}> : (!vhlo.tensor_v1<13x4096x!vhlo.bf16_v1>, !vhlo.tensor_v1<4096x2880x!vhlo.bf16_v1>) -> !vhlo.tensor_v1<13x2880x!vhlo.bf16_v1>
    %164 = "vhlo.reshape_v1"(%163) : (!vhlo.tensor_v1<13x2880x!vhlo.bf16_v1>) -> !vhlo.tensor_v1<1x13x2880x!vhlo.bf16_v1>
    %165 = "vhlo.broadcast_in_dim_v1"(%arg13) <{broadcast_dimensions = #vhlo.tensor_v1<dense<2> : tensor<1xi64>>}> : (!vhlo.tensor_v1<2880x!vhlo.bf16_v1>) -> !vhlo.tensor_v1<1x13x2880x!vhlo.bf16_v1>
    %166 = "vhlo.add_v1"(%164, %165) : (!vhlo.tensor_v1<1x13x2880x!vhlo.bf16_v1>, !vhlo.tensor_v1<1x13x2880x!vhlo.bf16_v1>) -> !vhlo.tensor_v1<1x13x2880x!vhlo.bf16_v1>
    %167 = "vhlo.add_v1"(%21, %166) : (!vhlo.tensor_v1<1x13x2880x!vhlo.bf16_v1>, !vhlo.tensor_v1<1x13x2880x!vhlo.bf16_v1>) -> !vhlo.tensor_v1<1x13x2880x!vhlo.bf16_v1>
    %168 = "vhlo.broadcast_in_dim_v1"(%arg29) <{broadcast_dimensions = #vhlo.tensor_v1<dense<> : tensor<0xi64>>}> : (!vhlo.tensor_v1<!vhlo.bf16_v1>) -> !vhlo.tensor_v1<32x13x2880x!vhlo.bf16_v1>
    %169 = "vhlo.convert_v1"(%arg21) : (!vhlo.tensor_v1<2880x!vhlo.bf16_v1>) -> !vhlo.tensor_v1<2880x!vhlo.f32_v1>
    %170 = "vhlo.broadcast_in_dim_v1"(%169) <{broadcast_dimensions = #vhlo.tensor_v1<dense<2> : tensor<1xi64>>}> : (!vhlo.tensor_v1<2880x!vhlo.f32_v1>) -> !vhlo.tensor_v1<1x13x2880x!vhlo.f32_v1>
    %171 = "vhlo.convert_v1"(%167) : (!vhlo.tensor_v1<1x13x2880x!vhlo.bf16_v1>) -> !vhlo.tensor_v1<1x13x2880x!vhlo.f32_v1>
    %172 = "vhlo.power_v1"(%171, %14) : (!vhlo.tensor_v1<1x13x2880x!vhlo.f32_v1>, !vhlo.tensor_v1<1x13x2880x!vhlo.f32_v1>) -> !vhlo.tensor_v1<1x13x2880x!vhlo.f32_v1>
    %173 = "vhlo.reduce_v1"(%172, %0) <{dimensions = #vhlo.tensor_v1<dense<2> : tensor<1xi64>>}> ({
    ^bb0(%arg31: !vhlo.tensor_v1<!vhlo.f32_v1>, %arg32: !vhlo.tensor_v1<!vhlo.f32_v1>):
      %260 = "vhlo.add_v1"(%arg31, %arg32) : (!vhlo.tensor_v1<!vhlo.f32_v1>, !vhlo.tensor_v1<!vhlo.f32_v1>) -> !vhlo.tensor_v1<!vhlo.f32_v1>
      "vhlo.return_v1"(%260) : (!vhlo.tensor_v1<!vhlo.f32_v1>) -> ()
    }) : (!vhlo.tensor_v1<1x13x2880x!vhlo.f32_v1>, !vhlo.tensor_v1<!vhlo.f32_v1>) -> !vhlo.tensor_v1<1x13x!vhlo.f32_v1>
    %174 = "vhlo.multiply_v1"(%173, %5) : (!vhlo.tensor_v1<1x13x!vhlo.f32_v1>, !vhlo.tensor_v1<1x13x!vhlo.f32_v1>) -> !vhlo.tensor_v1<1x13x!vhlo.f32_v1>
    %175 = "vhlo.reshape_v1"(%174) : (!vhlo.tensor_v1<1x13x!vhlo.f32_v1>) -> !vhlo.tensor_v1<1x13x1x!vhlo.f32_v1>
    %176 = "vhlo.add_v1"(%175, %27) : (!vhlo.tensor_v1<1x13x1x!vhlo.f32_v1>, !vhlo.tensor_v1<1x13x1x!vhlo.f32_v1>) -> !vhlo.tensor_v1<1x13x1x!vhlo.f32_v1>
    %177 = "vhlo.rsqrt_v2"(%176) <{result_accuracy = #vhlo.result_accuracy_v1<atol = 0.000000e+00, rtol = 0.000000e+00, ulps = 0, mode = #vhlo<result_accuracy_mode_v1 DEFAULT>>}> : (!vhlo.tensor_v1<1x13x1x!vhlo.f32_v1>) -> !vhlo.tensor_v1<1x13x1x!vhlo.f32_v1>
    %178 = "vhlo.reshape_v1"(%177) : (!vhlo.tensor_v1<1x13x1x!vhlo.f32_v1>) -> !vhlo.tensor_v1<1x13x!vhlo.f32_v1>
    %179 = "vhlo.broadcast_in_dim_v1"(%178) <{broadcast_dimensions = #vhlo.tensor_v1<dense<[0, 1]> : tensor<2xi64>>}> : (!vhlo.tensor_v1<1x13x!vhlo.f32_v1>) -> !vhlo.tensor_v1<1x13x2880x!vhlo.f32_v1>
    %180 = "vhlo.multiply_v1"(%171, %179) : (!vhlo.tensor_v1<1x13x2880x!vhlo.f32_v1>, !vhlo.tensor_v1<1x13x2880x!vhlo.f32_v1>) -> !vhlo.tensor_v1<1x13x2880x!vhlo.f32_v1>
    %181 = "vhlo.multiply_v1"(%170, %180) : (!vhlo.tensor_v1<1x13x2880x!vhlo.f32_v1>, !vhlo.tensor_v1<1x13x2880x!vhlo.f32_v1>) -> !vhlo.tensor_v1<1x13x2880x!vhlo.f32_v1>
    %182 = "vhlo.convert_v1"(%181) : (!vhlo.tensor_v1<1x13x2880x!vhlo.f32_v1>) -> !vhlo.tensor_v1<1x13x2880x!vhlo.bf16_v1>
    %183 = "vhlo.reshape_v1"(%182) : (!vhlo.tensor_v1<1x13x2880x!vhlo.bf16_v1>) -> !vhlo.tensor_v1<13x2880x!vhlo.bf16_v1>
    %184 = "vhlo.concatenate_v1"(%183, %183, %183, %183, %183, %183, %183, %183, %183, %183, %183, %183, %183, %183, %183, %183, %183, %183, %183, %183, %183, %183, %183, %183, %183, %183, %183, %183, %183, %183, %183, %183) <{dimension = #vhlo.integer_v1<0 : i64>}> : (!vhlo.tensor_v1<13x2880x!vhlo.bf16_v1>, !vhlo.tensor_v1<13x2880x!vhlo.bf16_v1>, !vhlo.tensor_v1<13x2880x!vhlo.bf16_v1>, !vhlo.tensor_v1<13x2880x!vhlo.bf16_v1>, !vhlo.tensor_v1<13x2880x!vhlo.bf16_v1>, !vhlo.tensor_v1<13x2880x!vhlo.bf16_v1>, !vhlo.tensor_v1<13x2880x!vhlo.bf16_v1>, !vhlo.tensor_v1<13x2880x!vhlo.bf16_v1>, !vhlo.tensor_v1<13x2880x!vhlo.bf16_v1>, !vhlo.tensor_v1<13x2880x!vhlo.bf16_v1>, !vhlo.tensor_v1<13x2880x!vhlo.bf16_v1>, !vhlo.tensor_v1<13x2880x!vhlo.bf16_v1>, !vhlo.tensor_v1<13x2880x!vhlo.bf16_v1>, !vhlo.tensor_v1<13x2880x!vhlo.bf16_v1>, !vhlo.tensor_v1<13x2880x!vhlo.bf16_v1>, !vhlo.tensor_v1<13x2880x!vhlo.bf16_v1>, !vhlo.tensor_v1<13x2880x!vhlo.bf16_v1>, !vhlo.tensor_v1<13x2880x!vhlo.bf16_v1>, !vhlo.tensor_v1<13x2880x!vhlo.bf16_v1>, !vhlo.tensor_v1<13x2880x!vhlo.bf16_v1>, !vhlo.tensor_v1<13x2880x!vhlo.bf16_v1>, !vhlo.tensor_v1<13x2880x!vhlo.bf16_v1>, !vhlo.tensor_v1<13x2880x!vhlo.bf16_v1>, !vhlo.tensor_v1<13x2880x!vhlo.bf16_v1>, !vhlo.tensor_v1<13x2880x!vhlo.bf16_v1>, !vhlo.tensor_v1<13x2880x!vhlo.bf16_v1>, !vhlo.tensor_v1<13x2880x!vhlo.bf16_v1>, !vhlo.tensor_v1<13x2880x!vhlo.bf16_v1>, !vhlo.tensor_v1<13x2880x!vhlo.bf16_v1>, !vhlo.tensor_v1<13x2880x!vhlo.bf16_v1>, !vhlo.tensor_v1<13x2880x!vhlo.bf16_v1>, !vhlo.tensor_v1<13x2880x!vhlo.bf16_v1>) -> !vhlo.tensor_v1<416x2880x!vhlo.bf16_v1>
    %185 = "vhlo.reshape_v1"(%184) : (!vhlo.tensor_v1<416x2880x!vhlo.bf16_v1>) -> !vhlo.tensor_v1<32x13x2880x!vhlo.bf16_v1>
    %186 = "vhlo.dot_general_v2"(%185, %arg28) <{accumulation_type = #vhlo.type_v1<!vhlo.none_v1>, allow_imprecise_accumulation = #vhlo.type_v1<!vhlo.none_v1>, lhs_batching_dimensions = #vhlo.tensor_v1<dense<0> : tensor<1xi64>>, lhs_component_count = #vhlo.type_v1<!vhlo.none_v1>, lhs_contracting_dimensions = #vhlo.tensor_v1<dense<2> : tensor<1xi64>>, lhs_precision_type = #vhlo.type_v1<!vhlo.none_v1>, num_primitive_operations = #vhlo.type_v1<!vhlo.none_v1>, precision_config = #vhlo.array_v1<[#vhlo<precision_v1 DEFAULT>, #vhlo<precision_v1 DEFAULT>]>, rhs_batching_dimensions = #vhlo.tensor_v1<dense<0> : tensor<1xi64>>, rhs_component_count = #vhlo.type_v1<!vhlo.none_v1>, rhs_contracting_dimensions = #vhlo.tensor_v1<dense<1> : tensor<1xi64>>, rhs_precision_type = #vhlo.type_v1<!vhlo.none_v1>}> : (!vhlo.tensor_v1<32x13x2880x!vhlo.bf16_v1>, !vhlo.tensor_v1<32x2880x5760x!vhlo.bf16_v1>) -> !vhlo.tensor_v1<32x13x5760x!vhlo.bf16_v1>
    %187 = "vhlo.broadcast_in_dim_v1"(%arg27) <{broadcast_dimensions = #vhlo.tensor_v1<dense<[0, 2]> : tensor<2xi64>>}> : (!vhlo.tensor_v1<32x5760x!vhlo.bf16_v1>) -> !vhlo.tensor_v1<32x13x5760x!vhlo.bf16_v1>
    %188 = "vhlo.add_v1"(%186, %187) : (!vhlo.tensor_v1<32x13x5760x!vhlo.bf16_v1>, !vhlo.tensor_v1<32x13x5760x!vhlo.bf16_v1>) -> !vhlo.tensor_v1<32x13x5760x!vhlo.bf16_v1>
    %189 = "vhlo.slice_v1"(%188) <{limit_indices = #vhlo.tensor_v1<dense<[32, 13, 5760]> : tensor<3xi64>>, start_indices = #vhlo.tensor_v1<dense<[0, 0, 1]> : tensor<3xi64>>, strides = #vhlo.tensor_v1<dense<[1, 1, 2]> : tensor<3xi64>>}> : (!vhlo.tensor_v1<32x13x5760x!vhlo.bf16_v1>) -> !vhlo.tensor_v1<32x13x2880x!vhlo.bf16_v1>
    %190 = "vhlo.broadcast_in_dim_v1"(%arg25) <{broadcast_dimensions = #vhlo.tensor_v1<dense<> : tensor<0xi64>>}> : (!vhlo.tensor_v1<!vhlo.bf16_v1>) -> !vhlo.tensor_v1<32x13x2880x!vhlo.bf16_v1>
    %191 = "vhlo.clamp_v1"(%168, %189, %190) : (!vhlo.tensor_v1<32x13x2880x!vhlo.bf16_v1>, !vhlo.tensor_v1<32x13x2880x!vhlo.bf16_v1>, !vhlo.tensor_v1<32x13x2880x!vhlo.bf16_v1>) -> !vhlo.tensor_v1<32x13x2880x!vhlo.bf16_v1>
    %192 = "vhlo.add_v1"(%191, %11) : (!vhlo.tensor_v1<32x13x2880x!vhlo.bf16_v1>, !vhlo.tensor_v1<32x13x2880x!vhlo.bf16_v1>) -> !vhlo.tensor_v1<32x13x2880x!vhlo.bf16_v1>
    %193 = "vhlo.convert_v1"(%192) : (!vhlo.tensor_v1<32x13x2880x!vhlo.bf16_v1>) -> !vhlo.tensor_v1<32x13x2880x!vhlo.f32_v1>
    %194 = "vhlo.broadcast_in_dim_v1"(%arg26) <{broadcast_dimensions = #vhlo.tensor_v1<dense<> : tensor<0xi64>>}> : (!vhlo.tensor_v1<!vhlo.bf16_v1>) -> !vhlo.tensor_v1<32x13x2880x!vhlo.bf16_v1>
    %195 = "vhlo.slice_v1"(%188) <{limit_indices = #vhlo.tensor_v1<dense<[32, 13, 5760]> : tensor<3xi64>>, start_indices = #vhlo.tensor_v1<dense<0> : tensor<3xi64>>, strides = #vhlo.tensor_v1<dense<[1, 1, 2]> : tensor<3xi64>>}> : (!vhlo.tensor_v1<32x13x5760x!vhlo.bf16_v1>) -> !vhlo.tensor_v1<32x13x2880x!vhlo.bf16_v1>
    %196 = "vhlo.clamp_v1"(%194, %195, %190) : (!vhlo.tensor_v1<32x13x2880x!vhlo.bf16_v1>, !vhlo.tensor_v1<32x13x2880x!vhlo.bf16_v1>, !vhlo.tensor_v1<32x13x2880x!vhlo.bf16_v1>) -> !vhlo.tensor_v1<32x13x2880x!vhlo.bf16_v1>
    %197 = "vhlo.convert_v1"(%196) : (!vhlo.tensor_v1<32x13x2880x!vhlo.bf16_v1>) -> !vhlo.tensor_v1<32x13x2880x!vhlo.f32_v1>
    %198 = "vhlo.broadcast_in_dim_v1"(%arg24) <{broadcast_dimensions = #vhlo.tensor_v1<dense<> : tensor<0xi64>>}> : (!vhlo.tensor_v1<!vhlo.f32_v1>) -> !vhlo.tensor_v1<32x13x2880x!vhlo.f32_v1>
    %199 = "vhlo.multiply_v1"(%197, %198) : (!vhlo.tensor_v1<32x13x2880x!vhlo.f32_v1>, !vhlo.tensor_v1<32x13x2880x!vhlo.f32_v1>) -> !vhlo.tensor_v1<32x13x2880x!vhlo.f32_v1>
    %200 = "vhlo.convert_v1"(%199) : (!vhlo.tensor_v1<32x13x2880x!vhlo.f32_v1>) -> !vhlo.tensor_v1<32x13x2880x!vhlo.bf16_v1>
    %201 = "vhlo.logistic_v2"(%200) <{result_accuracy = #vhlo.result_accuracy_v1<atol = 0.000000e+00, rtol = 0.000000e+00, ulps = 0, mode = #vhlo<result_accuracy_mode_v1 DEFAULT>>}> : (!vhlo.tensor_v1<32x13x2880x!vhlo.bf16_v1>) -> !vhlo.tensor_v1<32x13x2880x!vhlo.bf16_v1>
    %202 = "vhlo.convert_v1"(%201) : (!vhlo.tensor_v1<32x13x2880x!vhlo.bf16_v1>) -> !vhlo.tensor_v1<32x13x2880x!vhlo.f32_v1>
    %203 = "vhlo.multiply_v1"(%197, %202) : (!vhlo.tensor_v1<32x13x2880x!vhlo.f32_v1>, !vhlo.tensor_v1<32x13x2880x!vhlo.f32_v1>) -> !vhlo.tensor_v1<32x13x2880x!vhlo.f32_v1>
    %204 = "vhlo.convert_v1"(%203) : (!vhlo.tensor_v1<32x13x2880x!vhlo.f32_v1>) -> !vhlo.tensor_v1<32x13x2880x!vhlo.bf16_v1>
    %205 = "vhlo.convert_v1"(%204) : (!vhlo.tensor_v1<32x13x2880x!vhlo.bf16_v1>) -> !vhlo.tensor_v1<32x13x2880x!vhlo.f32_v1>
    %206 = "vhlo.multiply_v1"(%193, %205) : (!vhlo.tensor_v1<32x13x2880x!vhlo.f32_v1>, !vhlo.tensor_v1<32x13x2880x!vhlo.f32_v1>) -> !vhlo.tensor_v1<32x13x2880x!vhlo.f32_v1>
    %207 = "vhlo.convert_v1"(%206) : (!vhlo.tensor_v1<32x13x2880x!vhlo.f32_v1>) -> !vhlo.tensor_v1<32x13x2880x!vhlo.bf16_v1>
    %208 = "vhlo.dot_general_v2"(%207, %arg23) <{accumulation_type = #vhlo.type_v1<!vhlo.none_v1>, allow_imprecise_accumulation = #vhlo.type_v1<!vhlo.none_v1>, lhs_batching_dimensions = #vhlo.tensor_v1<dense<0> : tensor<1xi64>>, lhs_component_count = #vhlo.type_v1<!vhlo.none_v1>, lhs_contracting_dimensions = #vhlo.tensor_v1<dense<2> : tensor<1xi64>>, lhs_precision_type = #vhlo.type_v1<!vhlo.none_v1>, num_primitive_operations = #vhlo.type_v1<!vhlo.none_v1>, precision_config = #vhlo.array_v1<[#vhlo<precision_v1 DEFAULT>, #vhlo<precision_v1 DEFAULT>]>, rhs_batching_dimensions = #vhlo.tensor_v1<dense<0> : tensor<1xi64>>, rhs_component_count = #vhlo.type_v1<!vhlo.none_v1>, rhs_contracting_dimensions = #vhlo.tensor_v1<dense<1> : tensor<1xi64>>, rhs_precision_type = #vhlo.type_v1<!vhlo.none_v1>}> : (!vhlo.tensor_v1<32x13x2880x!vhlo.bf16_v1>, !vhlo.tensor_v1<32x2880x2880x!vhlo.bf16_v1>) -> !vhlo.tensor_v1<32x13x2880x!vhlo.bf16_v1>
    %209 = "vhlo.broadcast_in_dim_v1"(%arg22) <{broadcast_dimensions = #vhlo.tensor_v1<dense<[0, 2]> : tensor<2xi64>>}> : (!vhlo.tensor_v1<32x2880x!vhlo.bf16_v1>) -> !vhlo.tensor_v1<32x13x2880x!vhlo.bf16_v1>
    %210 = "vhlo.add_v1"(%208, %209) : (!vhlo.tensor_v1<32x13x2880x!vhlo.bf16_v1>, !vhlo.tensor_v1<32x13x2880x!vhlo.bf16_v1>) -> !vhlo.tensor_v1<32x13x2880x!vhlo.bf16_v1>
    %211 = "vhlo.reshape_v1"(%210) : (!vhlo.tensor_v1<32x13x2880x!vhlo.bf16_v1>) -> !vhlo.tensor_v1<32x1x13x2880x!vhlo.bf16_v1>
    %212 = "vhlo.convert_v1"(%211) : (!vhlo.tensor_v1<32x1x13x2880x!vhlo.bf16_v1>) -> !vhlo.tensor_v1<32x1x13x2880x!vhlo.f32_v1>
    %213 = "vhlo.iota_v1"() <{iota_dimension = #vhlo.integer_v1<0 : i64>}> : () -> !vhlo.tensor_v1<13x!vhlo.i64_v1>
    %214 = "vhlo.broadcast_in_dim_v1"(%213) <{broadcast_dimensions = #vhlo.tensor_v1<dense<0> : tensor<1xi64>>}> : (!vhlo.tensor_v1<13x!vhlo.i64_v1>) -> !vhlo.tensor_v1<13x4x1x!vhlo.i64_v1>
    %215 = "vhlo.transpose_v1"(%arg12) <{permutation = #vhlo.tensor_v1<dense<[1, 0]> : tensor<2xi64>>}> {result_layout = #vhlo.tensor_v1<dense<[0, 1]> : tensor<2xindex>>, xla_shape = #vhlo.string_v1<"bf16[2880,32]{0,1}">} : (!vhlo.tensor_v1<32x2880x!vhlo.bf16_v1>) -> !vhlo.tensor_v1<2880x32x!vhlo.bf16_v1>
    %216 = "vhlo.dot_general_v2"(%183, %215) <{accumulation_type = #vhlo.type_v1<!vhlo.none_v1>, allow_imprecise_accumulation = #vhlo.type_v1<!vhlo.none_v1>, lhs_batching_dimensions = #vhlo.tensor_v1<dense<> : tensor<0xi64>>, lhs_component_count = #vhlo.type_v1<!vhlo.none_v1>, lhs_contracting_dimensions = #vhlo.tensor_v1<dense<1> : tensor<1xi64>>, lhs_precision_type = #vhlo.type_v1<!vhlo.none_v1>, num_primitive_operations = #vhlo.type_v1<!vhlo.none_v1>, precision_config = #vhlo.array_v1<[#vhlo<precision_v1 DEFAULT>, #vhlo<precision_v1 DEFAULT>]>, rhs_batching_dimensions = #vhlo.tensor_v1<dense<> : tensor<0xi64>>, rhs_component_count = #vhlo.type_v1<!vhlo.none_v1>, rhs_contracting_dimensions = #vhlo.tensor_v1<dense<0> : tensor<1xi64>>, rhs_precision_type = #vhlo.type_v1<!vhlo.none_v1>}> : (!vhlo.tensor_v1<13x2880x!vhlo.bf16_v1>, !vhlo.tensor_v1<2880x32x!vhlo.bf16_v1>) -> !vhlo.tensor_v1<13x32x!vhlo.bf16_v1>
    %217 = "vhlo.broadcast_in_dim_v1"(%arg11) <{broadcast_dimensions = #vhlo.tensor_v1<dense<1> : tensor<1xi64>>}> : (!vhlo.tensor_v1<32x!vhlo.bf16_v1>) -> !vhlo.tensor_v1<13x32x!vhlo.bf16_v1>
    %218 = "vhlo.add_v1"(%216, %217) : (!vhlo.tensor_v1<13x32x!vhlo.bf16_v1>, !vhlo.tensor_v1<13x32x!vhlo.bf16_v1>) -> !vhlo.tensor_v1<13x32x!vhlo.bf16_v1>
    %219 = "vhlo.iota_v1"() <{iota_dimension = #vhlo.integer_v1<0 : i64>}> : () -> !vhlo.tensor_v1<32x!vhlo.i32_v1>
    %220 = "vhlo.broadcast_in_dim_v1"(%219) <{broadcast_dimensions = #vhlo.tensor_v1<dense<1> : tensor<1xi64>>}> : (!vhlo.tensor_v1<32x!vhlo.i32_v1>) -> !vhlo.tensor_v1<13x32x!vhlo.i32_v1>
    %221:2 = "vhlo.sort_v1"(%218, %220) <{dimension = #vhlo.integer_v1<1 : i64>, is_stable = #vhlo.bool_v1<false>}> ({
    ^bb0(%arg31: !vhlo.tensor_v1<!vhlo.bf16_v1>, %arg32: !vhlo.tensor_v1<!vhlo.bf16_v1>, %arg33: !vhlo.tensor_v1<!vhlo.i32_v1>, %arg34: !vhlo.tensor_v1<!vhlo.i32_v1>):
      %260 = "vhlo.compare_v1"(%arg31, %arg32) <{compare_type = #vhlo<comparison_type_v1 TOTALORDER>, comparison_direction = #vhlo<comparison_direction_v1 GT>}> : (!vhlo.tensor_v1<!vhlo.bf16_v1>, !vhlo.tensor_v1<!vhlo.bf16_v1>) -> !vhlo.tensor_v1<!vhlo.bool_v1>
      "vhlo.return_v1"(%260) : (!vhlo.tensor_v1<!vhlo.bool_v1>) -> ()
    }) : (!vhlo.tensor_v1<13x32x!vhlo.bf16_v1>, !vhlo.tensor_v1<13x32x!vhlo.i32_v1>) -> (!vhlo.tensor_v1<13x32x!vhlo.bf16_v1>, !vhlo.tensor_v1<13x32x!vhlo.i32_v1>)
    %222 = "vhlo.slice_v1"(%221#1) <{limit_indices = #vhlo.tensor_v1<dense<[13, 4]> : tensor<2xi64>>, start_indices = #vhlo.tensor_v1<dense<0> : tensor<2xi64>>, strides = #vhlo.tensor_v1<dense<1> : tensor<2xi64>>}> : (!vhlo.tensor_v1<13x32x!vhlo.i32_v1>) -> !vhlo.tensor_v1<13x4x!vhlo.i32_v1>
    %223 = "vhlo.convert_v1"(%222) : (!vhlo.tensor_v1<13x4x!vhlo.i32_v1>) -> !vhlo.tensor_v1<13x4x!vhlo.i64_v1>
    %224 = "vhlo.reshape_v1"(%223) : (!vhlo.tensor_v1<13x4x!vhlo.i64_v1>) -> !vhlo.tensor_v1<13x4x1x!vhlo.i64_v1>
    %225 = "vhlo.concatenate_v1"(%214, %224) <{dimension = #vhlo.integer_v1<2 : i64>}> : (!vhlo.tensor_v1<13x4x1x!vhlo.i64_v1>, !vhlo.tensor_v1<13x4x1x!vhlo.i64_v1>) -> !vhlo.tensor_v1<13x4x2x!vhlo.i64_v1>
    %226 = "vhlo.slice_v1"(%221#0) <{limit_indices = #vhlo.tensor_v1<dense<[13, 4]> : tensor<2xi64>>, start_indices = #vhlo.tensor_v1<dense<0> : tensor<2xi64>>, strides = #vhlo.tensor_v1<dense<1> : tensor<2xi64>>}> : (!vhlo.tensor_v1<13x32x!vhlo.bf16_v1>) -> !vhlo.tensor_v1<13x4x!vhlo.bf16_v1>
    %227 = "vhlo.reduce_v1"(%226, %3) <{dimensions = #vhlo.tensor_v1<dense<1> : tensor<1xi64>>}> ({
    ^bb0(%arg31: !vhlo.tensor_v1<!vhlo.bf16_v1>, %arg32: !vhlo.tensor_v1<!vhlo.bf16_v1>):
      %260 = "vhlo.maximum_v1"(%arg31, %arg32) : (!vhlo.tensor_v1<!vhlo.bf16_v1>, !vhlo.tensor_v1<!vhlo.bf16_v1>) -> !vhlo.tensor_v1<!vhlo.bf16_v1>
      "vhlo.return_v1"(%260) : (!vhlo.tensor_v1<!vhlo.bf16_v1>) -> ()
    }) : (!vhlo.tensor_v1<13x4x!vhlo.bf16_v1>, !vhlo.tensor_v1<!vhlo.bf16_v1>) -> !vhlo.tensor_v1<13x!vhlo.bf16_v1>
    %228 = "vhlo.broadcast_in_dim_v1"(%227) <{broadcast_dimensions = #vhlo.tensor_v1<dense<0> : tensor<1xi64>>}> : (!vhlo.tensor_v1<13x!vhlo.bf16_v1>) -> !vhlo.tensor_v1<13x4x!vhlo.bf16_v1>
    %229 = "vhlo.subtract_v1"(%226, %228) : (!vhlo.tensor_v1<13x4x!vhlo.bf16_v1>, !vhlo.tensor_v1<13x4x!vhlo.bf16_v1>) -> !vhlo.tensor_v1<13x4x!vhlo.bf16_v1>
    %230 = "vhlo.exponential_v2"(%229) <{result_accuracy = #vhlo.result_accuracy_v1<atol = 0.000000e+00, rtol = 0.000000e+00, ulps = 0, mode = #vhlo<result_accuracy_mode_v1 DEFAULT>>}> : (!vhlo.tensor_v1<13x4x!vhlo.bf16_v1>) -> !vhlo.tensor_v1<13x4x!vhlo.bf16_v1>
    %231 = "vhlo.reduce_v1"(%230, %9) <{dimensions = #vhlo.tensor_v1<dense<1> : tensor<1xi64>>}> ({
    ^bb0(%arg31: !vhlo.tensor_v1<!vhlo.bf16_v1>, %arg32: !vhlo.tensor_v1<!vhlo.bf16_v1>):
      %260 = "vhlo.add_v1"(%arg31, %arg32) : (!vhlo.tensor_v1<!vhlo.bf16_v1>, !vhlo.tensor_v1<!vhlo.bf16_v1>) -> !vhlo.tensor_v1<!vhlo.bf16_v1>
      "vhlo.return_v1"(%260) : (!vhlo.tensor_v1<!vhlo.bf16_v1>) -> ()
    }) : (!vhlo.tensor_v1<13x4x!vhlo.bf16_v1>, !vhlo.tensor_v1<!vhlo.bf16_v1>) -> !vhlo.tensor_v1<13x!vhlo.bf16_v1>
    %232 = "vhlo.broadcast_in_dim_v1"(%231) <{broadcast_dimensions = #vhlo.tensor_v1<dense<0> : tensor<1xi64>>}> : (!vhlo.tensor_v1<13x!vhlo.bf16_v1>) -> !vhlo.tensor_v1<13x4x!vhlo.bf16_v1>
    %233 = "vhlo.divide_v1"(%230, %232) : (!vhlo.tensor_v1<13x4x!vhlo.bf16_v1>, !vhlo.tensor_v1<13x4x!vhlo.bf16_v1>) -> !vhlo.tensor_v1<13x4x!vhlo.bf16_v1>
    %234 = "vhlo.scatter_v2"(%10, %225, %233) <{index_vector_dim = #vhlo.integer_v1<2 : i64>, indices_are_sorted = #vhlo.bool_v1<false>, input_batching_dims = #vhlo.tensor_v1<dense<> : tensor<0xi64>>, inserted_window_dims = #vhlo.tensor_v1<dense<[0, 1]> : tensor<2xi64>>, scatter_dims_to_operand_dims = #vhlo.tensor_v1<dense<[0, 1]> : tensor<2xi64>>, scatter_indices_batching_dims = #vhlo.tensor_v1<dense<> : tensor<0xi64>>, unique_indices = #vhlo.bool_v1<false>, update_window_dims = #vhlo.tensor_v1<dense<> : tensor<0xi64>>}> ({
    ^bb0(%arg31: !vhlo.tensor_v1<!vhlo.bf16_v1>, %arg32: !vhlo.tensor_v1<!vhlo.bf16_v1>):
      "vhlo.return_v1"(%arg32) : (!vhlo.tensor_v1<!vhlo.bf16_v1>) -> ()
    }) : (!vhlo.tensor_v1<13x32x!vhlo.bf16_v1>, !vhlo.tensor_v1<13x4x2x!vhlo.i64_v1>, !vhlo.tensor_v1<13x4x!vhlo.bf16_v1>) -> !vhlo.tensor_v1<13x32x!vhlo.bf16_v1>
    %235 = "vhlo.transpose_v1"(%234) <{permutation = #vhlo.tensor_v1<dense<[1, 0]> : tensor<2xi64>>}> {result_layout = #vhlo.tensor_v1<dense<[0, 1]> : tensor<2xindex>>, xla_shape = #vhlo.string_v1<"bf16[32,13]{0,1}">} : (!vhlo.tensor_v1<13x32x!vhlo.bf16_v1>) -> !vhlo.tensor_v1<32x13x!vhlo.bf16_v1>
    %236 = "vhlo.reshape_v1"(%235) : (!vhlo.tensor_v1<32x13x!vhlo.bf16_v1>) -> !vhlo.tensor_v1<32x1x13x1x!vhlo.bf16_v1>
    %237 = "vhlo.convert_v1"(%236) : (!vhlo.tensor_v1<32x1x13x1x!vhlo.bf16_v1>) -> !vhlo.tensor_v1<32x1x13x1x!vhlo.f32_v1>
    %238 = "vhlo.reshape_v1"(%237) : (!vhlo.tensor_v1<32x1x13x1x!vhlo.f32_v1>) -> !vhlo.tensor_v1<32x1x13x!vhlo.f32_v1>
    %239 = "vhlo.broadcast_in_dim_v1"(%238) <{broadcast_dimensions = #vhlo.tensor_v1<dense<[0, 1, 2]> : tensor<3xi64>>}> : (!vhlo.tensor_v1<32x1x13x!vhlo.f32_v1>) -> !vhlo.tensor_v1<32x1x13x2880x!vhlo.f32_v1>
    %240 = "vhlo.multiply_v1"(%212, %239) : (!vhlo.tensor_v1<32x1x13x2880x!vhlo.f32_v1>, !vhlo.tensor_v1<32x1x13x2880x!vhlo.f32_v1>) -> !vhlo.tensor_v1<32x1x13x2880x!vhlo.f32_v1>
    %241 = "vhlo.convert_v1"(%240) : (!vhlo.tensor_v1<32x1x13x2880x!vhlo.f32_v1>) -> !vhlo.tensor_v1<32x1x13x2880x!vhlo.bf16_v1>
    %242 = "vhlo.reduce_v1"(%241, %9) <{dimensions = #vhlo.tensor_v1<dense<0> : tensor<1xi64>>}> ({
    ^bb0(%arg31: !vhlo.tensor_v1<!vhlo.bf16_v1>, %arg32: !vhlo.tensor_v1<!vhlo.bf16_v1>):
      %260 = "vhlo.add_v1"(%arg31, %arg32) : (!vhlo.tensor_v1<!vhlo.bf16_v1>, !vhlo.tensor_v1<!vhlo.bf16_v1>) -> !vhlo.tensor_v1<!vhlo.bf16_v1>
      "vhlo.return_v1"(%260) : (!vhlo.tensor_v1<!vhlo.bf16_v1>) -> ()
    }) : (!vhlo.tensor_v1<32x1x13x2880x!vhlo.bf16_v1>, !vhlo.tensor_v1<!vhlo.bf16_v1>) -> !vhlo.tensor_v1<1x13x2880x!vhlo.bf16_v1>
    %243 = "vhlo.add_v1"(%167, %242) : (!vhlo.tensor_v1<1x13x2880x!vhlo.bf16_v1>, !vhlo.tensor_v1<1x13x2880x!vhlo.bf16_v1>) -> !vhlo.tensor_v1<1x13x2880x!vhlo.bf16_v1>
    %244 = "vhlo.convert_v1"(%243) : (!vhlo.tensor_v1<1x13x2880x!vhlo.bf16_v1>) -> !vhlo.tensor_v1<1x13x2880x!vhlo.f32_v1>
    %245 = "vhlo.power_v1"(%244, %14) : (!vhlo.tensor_v1<1x13x2880x!vhlo.f32_v1>, !vhlo.tensor_v1<1x13x2880x!vhlo.f32_v1>) -> !vhlo.tensor_v1<1x13x2880x!vhlo.f32_v1>
    %246 = "vhlo.reduce_v1"(%245, %0) <{dimensions = #vhlo.tensor_v1<dense<2> : tensor<1xi64>>}> ({
    ^bb0(%arg31: !vhlo.tensor_v1<!vhlo.f32_v1>, %arg32: !vhlo.tensor_v1<!vhlo.f32_v1>):
      %260 = "vhlo.add_v1"(%arg31, %arg32) : (!vhlo.tensor_v1<!vhlo.f32_v1>, !vhlo.tensor_v1<!vhlo.f32_v1>) -> !vhlo.tensor_v1<!vhlo.f32_v1>
      "vhlo.return_v1"(%260) : (!vhlo.tensor_v1<!vhlo.f32_v1>) -> ()
    }) : (!vhlo.tensor_v1<1x13x2880x!vhlo.f32_v1>, !vhlo.tensor_v1<!vhlo.f32_v1>) -> !vhlo.tensor_v1<1x13x!vhlo.f32_v1>
    %247 = "vhlo.multiply_v1"(%246, %5) : (!vhlo.tensor_v1<1x13x!vhlo.f32_v1>, !vhlo.tensor_v1<1x13x!vhlo.f32_v1>) -> !vhlo.tensor_v1<1x13x!vhlo.f32_v1>
    %248 = "vhlo.reshape_v1"(%247) : (!vhlo.tensor_v1<1x13x!vhlo.f32_v1>) -> !vhlo.tensor_v1<1x13x1x!vhlo.f32_v1>
    %249 = "vhlo.add_v1"(%248, %27) : (!vhlo.tensor_v1<1x13x1x!vhlo.f32_v1>, !vhlo.tensor_v1<1x13x1x!vhlo.f32_v1>) -> !vhlo.tensor_v1<1x13x1x!vhlo.f32_v1>
    %250 = "vhlo.rsqrt_v2"(%249) <{result_accuracy = #vhlo.result_accuracy_v1<atol = 0.000000e+00, rtol = 0.000000e+00, ulps = 0, mode = #vhlo<result_accuracy_mode_v1 DEFAULT>>}> : (!vhlo.tensor_v1<1x13x1x!vhlo.f32_v1>) -> !vhlo.tensor_v1<1x13x1x!vhlo.f32_v1>
    %251 = "vhlo.reshape_v1"(%250) : (!vhlo.tensor_v1<1x13x1x!vhlo.f32_v1>) -> !vhlo.tensor_v1<1x13x!vhlo.f32_v1>
    %252 = "vhlo.broadcast_in_dim_v1"(%251) <{broadcast_dimensions = #vhlo.tensor_v1<dense<[0, 1]> : tensor<2xi64>>}> : (!vhlo.tensor_v1<1x13x!vhlo.f32_v1>) -> !vhlo.tensor_v1<1x13x2880x!vhlo.f32_v1>
    %253 = "vhlo.multiply_v1"(%244, %252) : (!vhlo.tensor_v1<1x13x2880x!vhlo.f32_v1>, !vhlo.tensor_v1<1x13x2880x!vhlo.f32_v1>) -> !vhlo.tensor_v1<1x13x2880x!vhlo.f32_v1>
    %254 = "vhlo.multiply_v1"(%143, %253) : (!vhlo.tensor_v1<1x13x2880x!vhlo.f32_v1>, !vhlo.tensor_v1<1x13x2880x!vhlo.f32_v1>) -> !vhlo.tensor_v1<1x13x2880x!vhlo.f32_v1>
    %255 = "vhlo.convert_v1"(%254) : (!vhlo.tensor_v1<1x13x2880x!vhlo.f32_v1>) -> !vhlo.tensor_v1<1x13x2880x!vhlo.bf16_v1>
    %256 = "vhlo.reshape_v1"(%255) : (!vhlo.tensor_v1<1x13x2880x!vhlo.bf16_v1>) -> !vhlo.tensor_v1<13x2880x!vhlo.bf16_v1>
    %257 = "vhlo.transpose_v1"(%arg10) <{permutation = #vhlo.tensor_v1<dense<[1, 0]> : tensor<2xi64>>}> {result_layout = #vhlo.tensor_v1<dense<[0, 1]> : tensor<2xindex>>, xla_shape = #vhlo.string_v1<"bf16[2880,201088]{0,1}">} : (!vhlo.tensor_v1<201088x2880x!vhlo.bf16_v1>) -> !vhlo.tensor_v1<2880x201088x!vhlo.bf16_v1>
    %258 = "vhlo.dot_general_v2"(%256, %257) <{accumulation_type = #vhlo.type_v1<!vhlo.none_v1>, allow_imprecise_accumulation = #vhlo.type_v1<!vhlo.none_v1>, lhs_batching_dimensions = #vhlo.tensor_v1<dense<> : tensor<0xi64>>, lhs_component_count = #vhlo.type_v1<!vhlo.none_v1>, lhs_contracting_dimensions = #vhlo.tensor_v1<dense<1> : tensor<1xi64>>, lhs_precision_type = #vhlo.type_v1<!vhlo.none_v1>, num_primitive_operations = #vhlo.type_v1<!vhlo.none_v1>, precision_config = #vhlo.array_v1<[#vhlo<precision_v1 DEFAULT>, #vhlo<precision_v1 DEFAULT>]>, rhs_batching_dimensions = #vhlo.tensor_v1<dense<> : tensor<0xi64>>, rhs_component_count = #vhlo.type_v1<!vhlo.none_v1>, rhs_contracting_dimensions = #vhlo.tensor_v1<dense<0> : tensor<1xi64>>, rhs_precision_type = #vhlo.type_v1<!vhlo.none_v1>}> : (!vhlo.tensor_v1<13x2880x!vhlo.bf16_v1>, !vhlo.tensor_v1<2880x201088x!vhlo.bf16_v1>) -> !vhlo.tensor_v1<13x201088x!vhlo.bf16_v1>
    %259 = "vhlo.reshape_v1"(%258) : (!vhlo.tensor_v1<13x201088x!vhlo.bf16_v1>) -> !vhlo.tensor_v1<1x13x201088x!vhlo.bf16_v1>
    "vhlo.return_v1"(%139, %140, %141, %100, %258, %259) : (!vhlo.tensor_v1<1x13x512x!vhlo.bf16_v1>, !vhlo.tensor_v1<1x13x8x64x!vhlo.bf16_v1>, !vhlo.tensor_v1<1x8x13x64x!vhlo.bf16_v1>, !vhlo.tensor_v1<1x8x13x64x!vhlo.bf16_v1>, !vhlo.tensor_v1<13x201088x!vhlo.bf16_v1>, !vhlo.tensor_v1<1x13x201088x!vhlo.bf16_v1>) -> ()
  } {arg_attrs = #vhlo.array_v1<[#vhlo.dict_v1<{#vhlo.string_v1<"mhlo.frontend_attributes"> = #vhlo.dict_v1<{#vhlo.string_v1<"xla.sdy.sharding"> = #vhlo.string_v1<"#sdy.sharding<@mesh, [{\22_axis_0\22}]>">}>, #vhlo.string_v1<"mhlo.sharding"> = #vhlo.string_v1<"{devices=[8]<=[8]}">}>, #vhlo.dict_v1<{#vhlo.string_v1<"mhlo.frontend_attributes"> = #vhlo.dict_v1<{#vhlo.string_v1<"xla.sdy.sharding"> = #vhlo.string_v1<"#sdy.sharding<@mesh, [{\22_axis_0\22}, {}]>">}>, #vhlo.string_v1<"mhlo.sharding"> = #vhlo.string_v1<"{devices=[8,1]<=[8]}">}>, #vhlo.dict_v1<{#vhlo.string_v1<"mhlo.frontend_attributes"> = #vhlo.dict_v1<{#vhlo.string_v1<"xla.sdy.sharding"> = #vhlo.string_v1<"#sdy.sharding<@mesh, []>">}>, #vhlo.string_v1<"mhlo.sharding"> = #vhlo.string_v1<"{replicated}">}>, #vhlo.dict_v1<{#vhlo.string_v1<"mhlo.frontend_attributes"> = #vhlo.dict_v1<{#vhlo.string_v1<"xla.sdy.sharding"> = #vhlo.string_v1<"#sdy.sharding<@mesh, [{}, {}]>">}>, #vhlo.string_v1<"mhlo.sharding"> = #vhlo.string_v1<"{replicated}">}>, #vhlo.dict_v1<{#vhlo.string_v1<"mhlo.frontend_attributes"> = #vhlo.dict_v1<{#vhlo.string_v1<"xla.sdy.sharding"> = #vhlo.string_v1<"#sdy.sharding<@mesh, [{}, {}]>">}>, #vhlo.string_v1<"mhlo.sharding"> = #vhlo.string_v1<"{replicated}">}>, #vhlo.dict_v1<{#vhlo.string_v1<"mhlo.frontend_attributes"> = #vhlo.dict_v1<{#vhlo.string_v1<"xla.sdy.sharding"> = #vhlo.string_v1<"#sdy.sharding<@mesh, [{}]>">}>, #vhlo.string_v1<"mhlo.sharding"> = #vhlo.string_v1<"{replicated}">}>, #vhlo.dict_v1<{#vhlo.string_v1<"mhlo.frontend_attributes"> = #vhlo.dict_v1<{#vhlo.string_v1<"xla.sdy.sharding"> = #vhlo.string_v1<"#sdy.sharding<@mesh, []>">}>, #vhlo.string_v1<"mhlo.sharding"> = #vhlo.string_v1<"{replicated}">}>, #vhlo.dict_v1<{#vhlo.string_v1<"mhlo.frontend_attributes"> = #vhlo.dict_v1<{#vhlo.string_v1<"xla.sdy.sharding"> = #vhlo.string_v1<"#sdy.sharding<@mesh, [{}]>">}>, #vhlo.string_v1<"mhlo.sharding"> = #vhlo.string_v1<"{replicated}">}>, #vhlo.dict_v1<{#vhlo.string_v1<"mhlo.frontend_attributes"> = #vhlo.dict_v1<{#vhlo.string_v1<"xla.sdy.sharding"> = #vhlo.string_v1<"#sdy.sharding<@mesh, [{\22_axis_0\22}]>">}>, #vhlo.string_v1<"mhlo.sharding"> = #vhlo.string_v1<"{devices=[8]<=[8]}">}>, #vhlo.dict_v1<{#vhlo.string_v1<"mhlo.frontend_attributes"> = #vhlo.dict_v1<{#vhlo.string_v1<"xla.sdy.sharding"> = #vhlo.string_v1<"#sdy.sharding<@mesh, [{\22_axis_0\22}, {}]>">}>, #vhlo.string_v1<"mhlo.sharding"> = #vhlo.string_v1<"{devices=[8,1]<=[8]}">}>, #vhlo.dict_v1<{#vhlo.string_v1<"mhlo.frontend_attributes"> = #vhlo.dict_v1<{#vhlo.string_v1<"xla.sdy.sharding"> = #vhlo.string_v1<"#sdy.sharding<@mesh, [{\22_axis_0\22}, {}]>">}>, #vhlo.string_v1<"mhlo.sharding"> = #vhlo.string_v1<"{devices=[8,1]<=[8]}">}>, #vhlo.dict_v1<{#vhlo.string_v1<"mhlo.frontend_attributes"> = #vhlo.dict_v1<{#vhlo.string_v1<"xla.sdy.sharding"> = #vhlo.string_v1<"#sdy.sharding<@mesh, [{}]>">}>, #vhlo.string_v1<"mhlo.sharding"> = #vhlo.string_v1<"{replicated}">}>, #vhlo.dict_v1<{#vhlo.string_v1<"mhlo.frontend_attributes"> = #vhlo.dict_v1<{#vhlo.string_v1<"xla.sdy.sharding"> = #vhlo.string_v1<"#sdy.sharding<@mesh, [{}, {}]>">}>, #vhlo.string_v1<"mhlo.sharding"> = #vhlo.string_v1<"{replicated}">}>, #vhlo.dict_v1<{#vhlo.string_v1<"mhlo.frontend_attributes"> = #vhlo.dict_v1<{#vhlo.string_v1<"xla.sdy.sharding"> = #vhlo.string_v1<"#sdy.sharding<@mesh, [{}]>">}>, #vhlo.string_v1<"mhlo.sharding"> = #vhlo.string_v1<"{replicated}">}>, #vhlo.dict_v1<{#vhlo.string_v1<"mhlo.frontend_attributes"> = #vhlo.dict_v1<{#vhlo.string_v1<"xla.sdy.sharding"> = #vhlo.string_v1<"#sdy.sharding<@mesh, [{}, {\22_axis_0\22}]>">}>, #vhlo.string_v1<"mhlo.sharding"> = #vhlo.string_v1<"{devices=[1,8]<=[8]}">}>, #vhlo.dict_v1<{#vhlo.string_v1<"mhlo.frontend_attributes"> = #vhlo.dict_v1<{#vhlo.string_v1<"xla.sdy.sharding"> = #vhlo.string_v1<"#sdy.sharding<@mesh, [{\22_axis_0\22}]>">}>, #vhlo.string_v1<"mhlo.sharding"> = #vhlo.string_v1<"{devices=[8]<=[8]}">}>, #vhlo.dict_v1<{#vhlo.string_v1<"mhlo.frontend_attributes"> = #vhlo.dict_v1<{#vhlo.string_v1<"xla.sdy.sharding"> = #vhlo.string_v1<"#sdy.sharding<@mesh, []>">}>, #vhlo.string_v1<"mhlo.sharding"> = #vhlo.string_v1<"{replicated}">}>, #vhlo.dict_v1<{#vhlo.string_v1<"mhlo.frontend_attributes"> = #vhlo.dict_v1<{#vhlo.string_v1<"xla.sdy.sharding"> = #vhlo.string_v1<"#sdy.sharding<@mesh, []>">}>, #vhlo.string_v1<"mhlo.sharding"> = #vhlo.string_v1<"{replicated}">}>, #vhlo.dict_v1<{#vhlo.string_v1<"mhlo.frontend_attributes"> = #vhlo.dict_v1<{#vhlo.string_v1<"xla.sdy.sharding"> = #vhlo.string_v1<"#sdy.sharding<@mesh, []>">}>, #vhlo.string_v1<"mhlo.sharding"> = #vhlo.string_v1<"{replicated}">}>, #vhlo.dict_v1<{#vhlo.string_v1<"mhlo.frontend_attributes"> = #vhlo.dict_v1<{#vhlo.string_v1<"xla.sdy.sharding"> = #vhlo.string_v1<"#sdy.sharding<@mesh, [{\22_axis_0\22}]>">}>, #vhlo.string_v1<"mhlo.sharding"> = #vhlo.string_v1<"{devices=[8]<=[8]}">}>, #vhlo.dict_v1<{#vhlo.string_v1<"mhlo.frontend_attributes"> = #vhlo.dict_v1<{#vhlo.string_v1<"xla.sdy.sharding"> = #vhlo.string_v1<"#sdy.sharding<@mesh, [{\22_axis_0\22}, {}]>">}>, #vhlo.string_v1<"mhlo.sharding"> = #vhlo.string_v1<"{devices=[8,1]<=[8]}">}>, #vhlo.dict_v1<{#vhlo.string_v1<"mhlo.frontend_attributes"> = #vhlo.dict_v1<{#vhlo.string_v1<"xla.sdy.sharding"> = #vhlo.string_v1<"#sdy.sharding<@mesh, [{}]>">}>, #vhlo.string_v1<"mhlo.sharding"> = #vhlo.string_v1<"{replicated}">}>, #vhlo.dict_v1<{#vhlo.string_v1<"mhlo.frontend_attributes"> = #vhlo.dict_v1<{#vhlo.string_v1<"xla.sdy.sharding"> = #vhlo.string_v1<"#sdy.sharding<@mesh, [{\22_axis_0\22}, {}]>">}>, #vhlo.string_v1<"mhlo.sharding"> = #vhlo.string_v1<"{devices=[8,1]<=[8]}">}>, #vhlo.dict_v1<{#vhlo.string_v1<"mhlo.frontend_attributes"> = #vhlo.dict_v1<{#vhlo.string_v1<"xla.sdy.sharding"> = #vhlo.string_v1<"#sdy.sharding<@mesh, [{\22_axis_0\22}, {}, {}]>">}>, #vhlo.string_v1<"mhlo.sharding"> = #vhlo.string_v1<"{devices=[8,1,1]<=[8]}">}>, #vhlo.dict_v1<{#vhlo.string_v1<"mhlo.frontend_attributes"> = #vhlo.dict_v1<{#vhlo.string_v1<"xla.sdy.sharding"> = #vhlo.string_v1<"#sdy.sharding<@mesh, []>">}>, #vhlo.string_v1<"mhlo.sharding"> = #vhlo.string_v1<"{replicated}">}>, #vhlo.dict_v1<{#vhlo.string_v1<"mhlo.frontend_attributes"> = #vhlo.dict_v1<{#vhlo.string_v1<"xla.sdy.sharding"> = #vhlo.string_v1<"#sdy.sharding<@mesh, []>">}>, #vhlo.string_v1<"mhlo.sharding"> = #vhlo.string_v1<"{replicated}">}>, #vhlo.dict_v1<{#vhlo.string_v1<"mhlo.frontend_attributes"> = #vhlo.dict_v1<{#vhlo.string_v1<"xla.sdy.sharding"> = #vhlo.string_v1<"#sdy.sharding<@mesh, []>">}>, #vhlo.string_v1<"mhlo.sharding"> = #vhlo.string_v1<"{replicated}">}>, #vhlo.dict_v1<{#vhlo.string_v1<"mhlo.frontend_attributes"> = #vhlo.dict_v1<{#vhlo.string_v1<"xla.sdy.sharding"> = #vhlo.string_v1<"#sdy.sharding<@mesh, [{\22_axis_0\22}, {}]>">}>, #vhlo.string_v1<"mhlo.sharding"> = #vhlo.string_v1<"{devices=[8,1]<=[8]}">}>, #vhlo.dict_v1<{#vhlo.string_v1<"mhlo.frontend_attributes"> = #vhlo.dict_v1<{#vhlo.string_v1<"xla.sdy.sharding"> = #vhlo.string_v1<"#sdy.sharding<@mesh, [{\22_axis_0\22}, {}, {}]>">}>, #vhlo.string_v1<"mhlo.sharding"> = #vhlo.string_v1<"{devices=[8,1,1]<=[8]}">}>, #vhlo.dict_v1<{#vhlo.string_v1<"mhlo.frontend_attributes"> = #vhlo.dict_v1<{#vhlo.string_v1<"xla.sdy.sharding"> = #vhlo.string_v1<"#sdy.sharding<@mesh, []>">}>, #vhlo.string_v1<"mhlo.sharding"> = #vhlo.string_v1<"{replicated}">}>, #vhlo.dict_v1<{#vhlo.string_v1<"mhlo.frontend_attributes"> = #vhlo.dict_v1<{#vhlo.string_v1<"xla.sdy.sharding"> = #vhlo.string_v1<"#sdy.sharding<@mesh, [{}]>">}>, #vhlo.string_v1<"mhlo.sharding"> = #vhlo.string_v1<"{replicated}">}>]>, res_attrs = #vhlo.array_v1<[]>, sym_visibility = #vhlo.string_v1<"">}
}
// -----// IR Dump Before VhloToVersionPass (vhlo-to-version) ('builtin.module' operation: @SyncTensorsGraph.577) //----- //
module @SyncTensorsGraph.577 attributes {mhlo.cross_program_prefetches = [], mhlo.frontend_attributes = {xla.sdy.meshes = "{mesh = #sdy.mesh<[\22_axis_0\22=8]>}"}, mhlo.input_output_alias = [], mhlo.is_dynamic = false, mhlo.use_auto_spmd_partitioning = false} {
  vhlo.func_v1 @main(%arg0: !vhlo.tensor_v1<512x!vhlo.bf16_v1>, %arg1: !vhlo.tensor_v1<512x2880x!vhlo.bf16_v1>, %arg2: !vhlo.tensor_v1<!vhlo.f32_v1>, %arg3: !vhlo.tensor_v1<1x13x!vhlo.i64_v1>, %arg4: !vhlo.tensor_v1<201088x2880x!vhlo.bf16_v1>, %arg5: !vhlo.tensor_v1<2880x!vhlo.bf16_v1>, %arg6: !vhlo.tensor_v1<!vhlo.f32_v1>, %arg7: !vhlo.tensor_v1<32x!vhlo.f32_v1>, %arg8: !vhlo.tensor_v1<512x!vhlo.bf16_v1>, %arg9: !vhlo.tensor_v1<512x2880x!vhlo.bf16_v1>, %arg10: !vhlo.tensor_v1<201088x2880x!vhlo.bf16_v1>, %arg11: !vhlo.tensor_v1<32x!vhlo.bf16_v1>, %arg12: !vhlo.tensor_v1<32x2880x!vhlo.bf16_v1>, %arg13: !vhlo.tensor_v1<2880x!vhlo.bf16_v1>, %arg14: !vhlo.tensor_v1<2880x4096x!vhlo.bf16_v1>, %arg15: !vhlo.tensor_v1<64x!vhlo.bf16_v1>, %arg16: !vhlo.tensor_v1<!vhlo.bf16_v1>, %arg17: !vhlo.tensor_v1<!vhlo.i64_v1>, %arg18: !vhlo.tensor_v1<!vhlo.f32_v1>, %arg19: !vhlo.tensor_v1<4096x!vhlo.bf16_v1>, %arg20: !vhlo.tensor_v1<4096x2880x!vhlo.bf16_v1>, %arg21: !vhlo.tensor_v1<2880x!vhlo.bf16_v1>, %arg22: !vhlo.tensor_v1<32x2880x!vhlo.bf16_v1>, %arg23: !vhlo.tensor_v1<32x2880x2880x!vhlo.bf16_v1>, %arg24: !vhlo.tensor_v1<!vhlo.f32_v1>, %arg25: !vhlo.tensor_v1<!vhlo.bf16_v1>, %arg26: !vhlo.tensor_v1<!vhlo.bf16_v1>, %arg27: !vhlo.tensor_v1<32x5760x!vhlo.bf16_v1>, %arg28: !vhlo.tensor_v1<32x2880x5760x!vhlo.bf16_v1>, %arg29: !vhlo.tensor_v1<!vhlo.bf16_v1>, %arg30: !vhlo.tensor_v1<2880x!vhlo.bf16_v1>) -> (!vhlo.tensor_v1<1x13x512x!vhlo.bf16_v1>, !vhlo.tensor_v1<1x13x8x64x!vhlo.bf16_v1>, !vhlo.tensor_v1<1x8x13x64x!vhlo.bf16_v1>, !vhlo.tensor_v1<1x8x13x64x!vhlo.bf16_v1>, !vhlo.tensor_v1<13x201088x!vhlo.bf16_v1>, !vhlo.tensor_v1<1x13x201088x!vhlo.bf16_v1>) {
    %0 = "vhlo.constant_v1"() <{value = #vhlo.tensor_v1<dense<0.000000e+00> : tensor<f32>>}> : () -> !vhlo.tensor_v1<!vhlo.f32_v1>
    %1 = "vhlo.constant_v1"() <{value = #vhlo.tensor_v1<dense<[0, 1, 2, 3, 4, 5, 6, 7, 8, 9, 10, 11, 12]> : tensor<13xi64>>}> : () -> !vhlo.tensor_v1<13x!vhlo.i64_v1>
    %2 = "vhlo.constant_v1"() <{value = #vhlo.tensor_v1<dense<0> : tensor<ui8>>}> : () -> !vhlo.tensor_v1<!vhlo.ui8_v1>
    %3 = "vhlo.constant_v1"() <{value = #vhlo.tensor_v1<dense<0xFF80> : tensor<bf16>>}> : () -> !vhlo.tensor_v1<!vhlo.bf16_v1>
    %4 = "vhlo.constant_v1"() <{value = #vhlo.tensor_v1<dense<2.000000e+00> : tensor<f32>>}> : () -> !vhlo.tensor_v1<!vhlo.f32_v1>
    %5 = "vhlo.constant_v1"() <{value = #vhlo.tensor_v1<dense<3.47222231E-4> : tensor<1x13xf32>>}> : () -> !vhlo.tensor_v1<1x13x!vhlo.f32_v1>
    %6 = "vhlo.constant_v1"() <{value = #vhlo.tensor_v1<dense<[[[0.000000e+00, 1.000000e+00, 2.000000e+00, 3.000000e+00, 4.000000e+00, 5.000000e+00, 6.000000e+00, 7.000000e+00, 8.000000e+00, 9.000000e+00, 1.000000e+01, 1.100000e+01, 1.200000e+01]]]> : tensor<1x1x13xf32>>}> : () -> !vhlo.tensor_v1<1x1x13x!vhlo.f32_v1>
    %7 = "vhlo.constant_v1"() <{value = #vhlo.tensor_v1<dense<1> : tensor<ui8>>}> : () -> !vhlo.tensor_v1<!vhlo.ui8_v1>
    %8 = "vhlo.constant_v1"() <{value = #vhlo.tensor_v1<dense<1.000000e+00> : tensor<bf16>>}> : () -> !vhlo.tensor_v1<!vhlo.bf16_v1>
    %9 = "vhlo.constant_v1"() <{value = #vhlo.tensor_v1<dense<0.000000e+00> : tensor<bf16>>}> : () -> !vhlo.tensor_v1<!vhlo.bf16_v1>
    %10 = "vhlo.broadcast_in_dim_v1"(%9) <{broadcast_dimensions = #vhlo.tensor_v1<dense<> : tensor<0xi64>>}> : (!vhlo.tensor_v1<!vhlo.bf16_v1>) -> !vhlo.tensor_v1<13x32x!vhlo.bf16_v1>
    %11 = "vhlo.broadcast_in_dim_v1"(%8) <{broadcast_dimensions = #vhlo.tensor_v1<dense<> : tensor<0xi64>>}> : (!vhlo.tensor_v1<!vhlo.bf16_v1>) -> !vhlo.tensor_v1<32x13x2880x!vhlo.bf16_v1>
    %12 = "vhlo.broadcast_in_dim_v1"(%9) <{broadcast_dimensions = #vhlo.tensor_v1<dense<> : tensor<0xi64>>}> : (!vhlo.tensor_v1<!vhlo.bf16_v1>) -> !vhlo.tensor_v1<1x1x13x13x!vhlo.bf16_v1>
    %13 = "vhlo.broadcast_in_dim_v1"(%7) <{broadcast_dimensions = #vhlo.tensor_v1<dense<> : tensor<0xi64>>}> : (!vhlo.tensor_v1<!vhlo.ui8_v1>) -> !vhlo.tensor_v1<13x13x!vhlo.ui8_v1>
    %14 = "vhlo.broadcast_in_dim_v1"(%4) <{broadcast_dimensions = #vhlo.tensor_v1<dense<> : tensor<0xi64>>}> : (!vhlo.tensor_v1<!vhlo.f32_v1>) -> !vhlo.tensor_v1<1x13x2880x!vhlo.f32_v1>
    %15 = "vhlo.broadcast_in_dim_v1"(%2) <{broadcast_dimensions = #vhlo.tensor_v1<dense<> : tensor<0xi64>>}> : (!vhlo.tensor_v1<!vhlo.ui8_v1>) -> !vhlo.tensor_v1<13x13x!vhlo.ui8_v1>
    %16 = "vhlo.convert_v1"(%arg5) : (!vhlo.tensor_v1<2880x!vhlo.bf16_v1>) -> !vhlo.tensor_v1<2880x!vhlo.f32_v1>
    %17 = "vhlo.broadcast_in_dim_v1"(%16) <{broadcast_dimensions = #vhlo.tensor_v1<dense<2> : tensor<1xi64>>}> : (!vhlo.tensor_v1<2880x!vhlo.f32_v1>) -> !vhlo.tensor_v1<1x13x2880x!vhlo.f32_v1>
    %18 = "vhlo.reshape_v1"(%arg3) : (!vhlo.tensor_v1<1x13x!vhlo.i64_v1>) -> !vhlo.tensor_v1<13x!vhlo.i64_v1>
    %19 = "vhlo.convert_v1"(%18) : (!vhlo.tensor_v1<13x!vhlo.i64_v1>) -> !vhlo.tensor_v1<13x!vhlo.ui32_v1>
    %20 = "vhlo.gather_v2"(%arg4, %19) <{collapsed_slice_dims = #vhlo.tensor_v1<dense<0> : tensor<1xi64>>, index_vector_dim = #vhlo.integer_v1<1 : i64>, indices_are_sorted = #vhlo.bool_v1<false>, offset_dims = #vhlo.tensor_v1<dense<1> : tensor<1xi64>>, operand_batching_dims = #vhlo.tensor_v1<dense<> : tensor<0xi64>>, slice_sizes = #vhlo.tensor_v1<dense<[1, 2880]> : tensor<2xi64>>, start_index_map = #vhlo.tensor_v1<dense<0> : tensor<1xi64>>, start_indices_batching_dims = #vhlo.tensor_v1<dense<> : tensor<0xi64>>}> : (!vhlo.tensor_v1<201088x2880x!vhlo.bf16_v1>, !vhlo.tensor_v1<13x!vhlo.ui32_v1>) -> !vhlo.tensor_v1<13x2880x!vhlo.bf16_v1>
    %21 = "vhlo.reshape_v1"(%20) : (!vhlo.tensor_v1<13x2880x!vhlo.bf16_v1>) -> !vhlo.tensor_v1<1x13x2880x!vhlo.bf16_v1>
    %22 = "vhlo.convert_v1"(%21) : (!vhlo.tensor_v1<1x13x2880x!vhlo.bf16_v1>) -> !vhlo.tensor_v1<1x13x2880x!vhlo.f32_v1>
    %23 = "vhlo.power_v1"(%22, %14) : (!vhlo.tensor_v1<1x13x2880x!vhlo.f32_v1>, !vhlo.tensor_v1<1x13x2880x!vhlo.f32_v1>) -> !vhlo.tensor_v1<1x13x2880x!vhlo.f32_v1>
    %24 = "vhlo.reduce_v1"(%23, %0) <{dimensions = #vhlo.tensor_v1<dense<2> : tensor<1xi64>>}> ({
    ^bb0(%arg31: !vhlo.tensor_v1<!vhlo.f32_v1>, %arg32: !vhlo.tensor_v1<!vhlo.f32_v1>):
      %260 = "vhlo.add_v1"(%arg31, %arg32) : (!vhlo.tensor_v1<!vhlo.f32_v1>, !vhlo.tensor_v1<!vhlo.f32_v1>) -> !vhlo.tensor_v1<!vhlo.f32_v1>
      "vhlo.return_v1"(%260) : (!vhlo.tensor_v1<!vhlo.f32_v1>) -> ()
    }) : (!vhlo.tensor_v1<1x13x2880x!vhlo.f32_v1>, !vhlo.tensor_v1<!vhlo.f32_v1>) -> !vhlo.tensor_v1<1x13x!vhlo.f32_v1>
    %25 = "vhlo.multiply_v1"(%24, %5) : (!vhlo.tensor_v1<1x13x!vhlo.f32_v1>, !vhlo.tensor_v1<1x13x!vhlo.f32_v1>) -> !vhlo.tensor_v1<1x13x!vhlo.f32_v1>
    %26 = "vhlo.reshape_v1"(%25) : (!vhlo.tensor_v1<1x13x!vhlo.f32_v1>) -> !vhlo.tensor_v1<1x13x1x!vhlo.f32_v1>
    %27 = "vhlo.broadcast_in_dim_v1"(%arg2) <{broadcast_dimensions = #vhlo.tensor_v1<dense<> : tensor<0xi64>>}> : (!vhlo.tensor_v1<!vhlo.f32_v1>) -> !vhlo.tensor_v1<1x13x1x!vhlo.f32_v1>
    %28 = "vhlo.add_v1"(%26, %27) : (!vhlo.tensor_v1<1x13x1x!vhlo.f32_v1>, !vhlo.tensor_v1<1x13x1x!vhlo.f32_v1>) -> !vhlo.tensor_v1<1x13x1x!vhlo.f32_v1>
    %29 = "vhlo.rsqrt_v2"(%28) <{result_accuracy = #vhlo.result_accuracy_v1<atol = 0.000000e+00, rtol = 0.000000e+00, ulps = 0, mode = #vhlo<result_accuracy_mode_v1 DEFAULT>>}> : (!vhlo.tensor_v1<1x13x1x!vhlo.f32_v1>) -> !vhlo.tensor_v1<1x13x1x!vhlo.f32_v1>
    %30 = "vhlo.reshape_v1"(%29) : (!vhlo.tensor_v1<1x13x1x!vhlo.f32_v1>) -> !vhlo.tensor_v1<1x13x!vhlo.f32_v1>
    %31 = "vhlo.broadcast_in_dim_v1"(%30) <{broadcast_dimensions = #vhlo.tensor_v1<dense<[0, 1]> : tensor<2xi64>>}> : (!vhlo.tensor_v1<1x13x!vhlo.f32_v1>) -> !vhlo.tensor_v1<1x13x2880x!vhlo.f32_v1>
    %32 = "vhlo.multiply_v1"(%22, %31) : (!vhlo.tensor_v1<1x13x2880x!vhlo.f32_v1>, !vhlo.tensor_v1<1x13x2880x!vhlo.f32_v1>) -> !vhlo.tensor_v1<1x13x2880x!vhlo.f32_v1>
    %33 = "vhlo.multiply_v1"(%17, %32) : (!vhlo.tensor_v1<1x13x2880x!vhlo.f32_v1>, !vhlo.tensor_v1<1x13x2880x!vhlo.f32_v1>) -> !vhlo.tensor_v1<1x13x2880x!vhlo.f32_v1>
    %34 = "vhlo.convert_v1"(%33) : (!vhlo.tensor_v1<1x13x2880x!vhlo.f32_v1>) -> !vhlo.tensor_v1<1x13x2880x!vhlo.bf16_v1>
    %35 = "vhlo.reshape_v1"(%34) : (!vhlo.tensor_v1<1x13x2880x!vhlo.bf16_v1>) -> !vhlo.tensor_v1<13x2880x!vhlo.bf16_v1>
    %36 = "vhlo.transpose_v1"(%arg20) <{permutation = #vhlo.tensor_v1<dense<[1, 0]> : tensor<2xi64>>}> {result_layout = #vhlo.tensor_v1<dense<[0, 1]> : tensor<2xindex>>, xla_shape = #vhlo.string_v1<"bf16[2880,4096]{0,1}">} : (!vhlo.tensor_v1<4096x2880x!vhlo.bf16_v1>) -> !vhlo.tensor_v1<2880x4096x!vhlo.bf16_v1>
    %37 = "vhlo.dot_general_v2"(%35, %36) <{accumulation_type = #vhlo.type_v1<!vhlo.none_v1>, allow_imprecise_accumulation = #vhlo.type_v1<!vhlo.none_v1>, lhs_batching_dimensions = #vhlo.tensor_v1<dense<> : tensor<0xi64>>, lhs_component_count = #vhlo.type_v1<!vhlo.none_v1>, lhs_contracting_dimensions = #vhlo.tensor_v1<dense<1> : tensor<1xi64>>, lhs_precision_type = #vhlo.type_v1<!vhlo.none_v1>, num_primitive_operations = #vhlo.type_v1<!vhlo.none_v1>, precision_config = #vhlo.array_v1<[#vhlo<precision_v1 DEFAULT>, #vhlo<precision_v1 DEFAULT>]>, rhs_batching_dimensions = #vhlo.tensor_v1<dense<> : tensor<0xi64>>, rhs_component_count = #vhlo.type_v1<!vhlo.none_v1>, rhs_contracting_dimensions = #vhlo.tensor_v1<dense<0> : tensor<1xi64>>, rhs_precision_type = #vhlo.type_v1<!vhlo.none_v1>}> : (!vhlo.tensor_v1<13x2880x!vhlo.bf16_v1>, !vhlo.tensor_v1<2880x4096x!vhlo.bf16_v1>) -> !vhlo.tensor_v1<13x4096x!vhlo.bf16_v1>
    %38 = "vhlo.reshape_v1"(%37) : (!vhlo.tensor_v1<13x4096x!vhlo.bf16_v1>) -> !vhlo.tensor_v1<1x13x4096x!vhlo.bf16_v1>
    %39 = "vhlo.broadcast_in_dim_v1"(%arg19) <{broadcast_dimensions = #vhlo.tensor_v1<dense<2> : tensor<1xi64>>}> : (!vhlo.tensor_v1<4096x!vhlo.bf16_v1>) -> !vhlo.tensor_v1<1x13x4096x!vhlo.bf16_v1>
    %40 = "vhlo.add_v1"(%38, %39) : (!vhlo.tensor_v1<1x13x4096x!vhlo.bf16_v1>, !vhlo.tensor_v1<1x13x4096x!vhlo.bf16_v1>) -> !vhlo.tensor_v1<1x13x4096x!vhlo.bf16_v1>
    %41 = "vhlo.reshape_v1"(%40) : (!vhlo.tensor_v1<1x13x4096x!vhlo.bf16_v1>) -> !vhlo.tensor_v1<1x13x64x64x!vhlo.bf16_v1>
    %42 = "vhlo.transpose_v1"(%41) <{permutation = #vhlo.tensor_v1<dense<[0, 2, 1, 3]> : tensor<4xi64>>}> {result_layout = #vhlo.tensor_v1<dense<[3, 1, 2, 0]> : tensor<4xindex>>, xla_shape = #vhlo.string_v1<"bf16[1,64,13,64]{3,1,2,0}">} : (!vhlo.tensor_v1<1x13x64x64x!vhlo.bf16_v1>) -> !vhlo.tensor_v1<1x64x13x64x!vhlo.bf16_v1>
    %43 = "vhlo.slice_v1"(%42) <{limit_indices = #vhlo.tensor_v1<dense<[1, 64, 13, 32]> : tensor<4xi64>>, start_indices = #vhlo.tensor_v1<dense<0> : tensor<4xi64>>, strides = #vhlo.tensor_v1<dense<1> : tensor<4xi64>>}> : (!vhlo.tensor_v1<1x64x13x64x!vhlo.bf16_v1>) -> !vhlo.tensor_v1<1x64x13x32x!vhlo.bf16_v1>
    %44 = "vhlo.convert_v1"(%43) : (!vhlo.tensor_v1<1x64x13x32x!vhlo.bf16_v1>) -> !vhlo.tensor_v1<1x64x13x32x!vhlo.f32_v1>
    %45 = "vhlo.reshape_v1"(%arg7) : (!vhlo.tensor_v1<32x!vhlo.f32_v1>) -> !vhlo.tensor_v1<1x32x1x!vhlo.f32_v1>
    %46 = "vhlo.dot_general_v2"(%45, %6) <{accumulation_type = #vhlo.type_v1<!vhlo.none_v1>, allow_imprecise_accumulation = #vhlo.type_v1<!vhlo.none_v1>, lhs_batching_dimensions = #vhlo.tensor_v1<dense<0> : tensor<1xi64>>, lhs_component_count = #vhlo.type_v1<!vhlo.none_v1>, lhs_contracting_dimensions = #vhlo.tensor_v1<dense<2> : tensor<1xi64>>, lhs_precision_type = #vhlo.type_v1<!vhlo.none_v1>, num_primitive_operations = #vhlo.type_v1<!vhlo.none_v1>, precision_config = #vhlo.array_v1<[#vhlo<precision_v1 DEFAULT>, #vhlo<precision_v1 DEFAULT>]>, rhs_batching_dimensions = #vhlo.tensor_v1<dense<0> : tensor<1xi64>>, rhs_component_count = #vhlo.type_v1<!vhlo.none_v1>, rhs_contracting_dimensions = #vhlo.tensor_v1<dense<1> : tensor<1xi64>>, rhs_precision_type = #vhlo.type_v1<!vhlo.none_v1>}> : (!vhlo.tensor_v1<1x32x1x!vhlo.f32_v1>, !vhlo.tensor_v1<1x1x13x!vhlo.f32_v1>) -> !vhlo.tensor_v1<1x32x13x!vhlo.f32_v1>
    %47 = "vhlo.transpose_v1"(%46) <{permutation = #vhlo.tensor_v1<dense<[0, 2, 1]> : tensor<3xi64>>}> {result_layout = #vhlo.tensor_v1<dense<[1, 2, 0]> : tensor<3xindex>>, xla_shape = #vhlo.string_v1<"f32[1,13,32]{1,2,0}">} : (!vhlo.tensor_v1<1x32x13x!vhlo.f32_v1>) -> !vhlo.tensor_v1<1x13x32x!vhlo.f32_v1>
    %48 = "vhlo.cosine_v2"(%47) <{result_accuracy = #vhlo.result_accuracy_v1<atol = 0.000000e+00, rtol = 0.000000e+00, ulps = 0, mode = #vhlo<result_accuracy_mode_v1 DEFAULT>>}> {result_layout = #vhlo.tensor_v1<dense<[1, 2, 0]> : tensor<3xindex>>, xla_shape = #vhlo.string_v1<"f32[1,13,32]{1,2,0}">} : (!vhlo.tensor_v1<1x13x32x!vhlo.f32_v1>) -> !vhlo.tensor_v1<1x13x32x!vhlo.f32_v1>
    %49 = "vhlo.broadcast_in_dim_v1"(%arg6) <{broadcast_dimensions = #vhlo.tensor_v1<dense<> : tensor<0xi64>>}> : (!vhlo.tensor_v1<!vhlo.f32_v1>) -> !vhlo.tensor_v1<1x13x32x!vhlo.f32_v1>
    %50 = "vhlo.multiply_v1"(%48, %49) : (!vhlo.tensor_v1<1x13x32x!vhlo.f32_v1>, !vhlo.tensor_v1<1x13x32x!vhlo.f32_v1>) -> !vhlo.tensor_v1<1x13x32x!vhlo.f32_v1>
    %51 = "vhlo.convert_v1"(%50) : (!vhlo.tensor_v1<1x13x32x!vhlo.f32_v1>) -> !vhlo.tensor_v1<1x13x32x!vhlo.bf16_v1>
    %52 = "vhlo.reshape_v1"(%51) : (!vhlo.tensor_v1<1x13x32x!vhlo.bf16_v1>) -> !vhlo.tensor_v1<1x1x13x32x!vhlo.bf16_v1>
    %53 = "vhlo.convert_v1"(%52) : (!vhlo.tensor_v1<1x1x13x32x!vhlo.bf16_v1>) -> !vhlo.tensor_v1<1x1x13x32x!vhlo.f32_v1>
    %54 = "vhlo.reshape_v1"(%53) : (!vhlo.tensor_v1<1x1x13x32x!vhlo.f32_v1>) -> !vhlo.tensor_v1<1x13x32x!vhlo.f32_v1>
    %55 = "vhlo.broadcast_in_dim_v1"(%54) <{broadcast_dimensions = #vhlo.tensor_v1<dense<[0, 2, 3]> : tensor<3xi64>>}> : (!vhlo.tensor_v1<1x13x32x!vhlo.f32_v1>) -> !vhlo.tensor_v1<1x64x13x32x!vhlo.f32_v1>
    %56 = "vhlo.multiply_v1"(%44, %55) : (!vhlo.tensor_v1<1x64x13x32x!vhlo.f32_v1>, !vhlo.tensor_v1<1x64x13x32x!vhlo.f32_v1>) -> !vhlo.tensor_v1<1x64x13x32x!vhlo.f32_v1>
    %57 = "vhlo.convert_v1"(%56) : (!vhlo.tensor_v1<1x64x13x32x!vhlo.f32_v1>) -> !vhlo.tensor_v1<1x64x13x32x!vhlo.bf16_v1>
    %58 = "vhlo.slice_v1"(%42) <{limit_indices = #vhlo.tensor_v1<dense<[1, 64, 13, 64]> : tensor<4xi64>>, start_indices = #vhlo.tensor_v1<dense<[0, 0, 0, 32]> : tensor<4xi64>>, strides = #vhlo.tensor_v1<dense<1> : tensor<4xi64>>}> : (!vhlo.tensor_v1<1x64x13x64x!vhlo.bf16_v1>) -> !vhlo.tensor_v1<1x64x13x32x!vhlo.bf16_v1>
    %59 = "vhlo.convert_v1"(%58) : (!vhlo.tensor_v1<1x64x13x32x!vhlo.bf16_v1>) -> !vhlo.tensor_v1<1x64x13x32x!vhlo.f32_v1>
    %60 = "vhlo.sine_v2"(%47) <{result_accuracy = #vhlo.result_accuracy_v1<atol = 0.000000e+00, rtol = 0.000000e+00, ulps = 0, mode = #vhlo<result_accuracy_mode_v1 DEFAULT>>}> {result_layout = #vhlo.tensor_v1<dense<[1, 2, 0]> : tensor<3xindex>>, xla_shape = #vhlo.string_v1<"f32[1,13,32]{1,2,0}">} : (!vhlo.tensor_v1<1x13x32x!vhlo.f32_v1>) -> !vhlo.tensor_v1<1x13x32x!vhlo.f32_v1>
    %61 = "vhlo.multiply_v1"(%60, %49) : (!vhlo.tensor_v1<1x13x32x!vhlo.f32_v1>, !vhlo.tensor_v1<1x13x32x!vhlo.f32_v1>) -> !vhlo.tensor_v1<1x13x32x!vhlo.f32_v1>
    %62 = "vhlo.convert_v1"(%61) : (!vhlo.tensor_v1<1x13x32x!vhlo.f32_v1>) -> !vhlo.tensor_v1<1x13x32x!vhlo.bf16_v1>
    %63 = "vhlo.reshape_v1"(%62) : (!vhlo.tensor_v1<1x13x32x!vhlo.bf16_v1>) -> !vhlo.tensor_v1<1x1x13x32x!vhlo.bf16_v1>
    %64 = "vhlo.convert_v1"(%63) : (!vhlo.tensor_v1<1x1x13x32x!vhlo.bf16_v1>) -> !vhlo.tensor_v1<1x1x13x32x!vhlo.f32_v1>
    %65 = "vhlo.reshape_v1"(%64) : (!vhlo.tensor_v1<1x1x13x32x!vhlo.f32_v1>) -> !vhlo.tensor_v1<1x13x32x!vhlo.f32_v1>
    %66 = "vhlo.broadcast_in_dim_v1"(%65) <{broadcast_dimensions = #vhlo.tensor_v1<dense<[0, 2, 3]> : tensor<3xi64>>}> : (!vhlo.tensor_v1<1x13x32x!vhlo.f32_v1>) -> !vhlo.tensor_v1<1x64x13x32x!vhlo.f32_v1>
    %67 = "vhlo.multiply_v1"(%59, %66) : (!vhlo.tensor_v1<1x64x13x32x!vhlo.f32_v1>, !vhlo.tensor_v1<1x64x13x32x!vhlo.f32_v1>) -> !vhlo.tensor_v1<1x64x13x32x!vhlo.f32_v1>
    %68 = "vhlo.convert_v1"(%67) : (!vhlo.tensor_v1<1x64x13x32x!vhlo.f32_v1>) -> !vhlo.tensor_v1<1x64x13x32x!vhlo.bf16_v1>
    %69 = "vhlo.subtract_v1"(%57, %68) : (!vhlo.tensor_v1<1x64x13x32x!vhlo.bf16_v1>, !vhlo.tensor_v1<1x64x13x32x!vhlo.bf16_v1>) -> !vhlo.tensor_v1<1x64x13x32x!vhlo.bf16_v1>
    %70 = "vhlo.multiply_v1"(%59, %55) : (!vhlo.tensor_v1<1x64x13x32x!vhlo.f32_v1>, !vhlo.tensor_v1<1x64x13x32x!vhlo.f32_v1>) -> !vhlo.tensor_v1<1x64x13x32x!vhlo.f32_v1>
    %71 = "vhlo.convert_v1"(%70) : (!vhlo.tensor_v1<1x64x13x32x!vhlo.f32_v1>) -> !vhlo.tensor_v1<1x64x13x32x!vhlo.bf16_v1>
    %72 = "vhlo.multiply_v1"(%44, %66) : (!vhlo.tensor_v1<1x64x13x32x!vhlo.f32_v1>, !vhlo.tensor_v1<1x64x13x32x!vhlo.f32_v1>) -> !vhlo.tensor_v1<1x64x13x32x!vhlo.f32_v1>
    %73 = "vhlo.convert_v1"(%72) : (!vhlo.tensor_v1<1x64x13x32x!vhlo.f32_v1>) -> !vhlo.tensor_v1<1x64x13x32x!vhlo.bf16_v1>
    %74 = "vhlo.add_v1"(%71, %73) : (!vhlo.tensor_v1<1x64x13x32x!vhlo.bf16_v1>, !vhlo.tensor_v1<1x64x13x32x!vhlo.bf16_v1>) -> !vhlo.tensor_v1<1x64x13x32x!vhlo.bf16_v1>
    %75 = "vhlo.concatenate_v1"(%69, %74) <{dimension = #vhlo.integer_v1<3 : i64>}> : (!vhlo.tensor_v1<1x64x13x32x!vhlo.bf16_v1>, !vhlo.tensor_v1<1x64x13x32x!vhlo.bf16_v1>) -> !vhlo.tensor_v1<1x64x13x64x!vhlo.bf16_v1>
    %76 = "vhlo.reshape_v1"(%75) : (!vhlo.tensor_v1<1x64x13x64x!vhlo.bf16_v1>) -> !vhlo.tensor_v1<64x13x64x!vhlo.bf16_v1>
    %77 = "vhlo.transpose_v1"(%arg9) <{permutation = #vhlo.tensor_v1<dense<[1, 0]> : tensor<2xi64>>}> {result_layout = #vhlo.tensor_v1<dense<[0, 1]> : tensor<2xindex>>, xla_shape = #vhlo.string_v1<"bf16[2880,512]{0,1}">} : (!vhlo.tensor_v1<512x2880x!vhlo.bf16_v1>) -> !vhlo.tensor_v1<2880x512x!vhlo.bf16_v1>
    %78 = "vhlo.dot_general_v2"(%35, %77) <{accumulation_type = #vhlo.type_v1<!vhlo.none_v1>, allow_imprecise_accumulation = #vhlo.type_v1<!vhlo.none_v1>, lhs_batching_dimensions = #vhlo.tensor_v1<dense<> : tensor<0xi64>>, lhs_component_count = #vhlo.type_v1<!vhlo.none_v1>, lhs_contracting_dimensions = #vhlo.tensor_v1<dense<1> : tensor<1xi64>>, lhs_precision_type = #vhlo.type_v1<!vhlo.none_v1>, num_primitive_operations = #vhlo.type_v1<!vhlo.none_v1>, precision_config = #vhlo.array_v1<[#vhlo<precision_v1 DEFAULT>, #vhlo<precision_v1 DEFAULT>]>, rhs_batching_dimensions = #vhlo.tensor_v1<dense<> : tensor<0xi64>>, rhs_component_count = #vhlo.type_v1<!vhlo.none_v1>, rhs_contracting_dimensions = #vhlo.tensor_v1<dense<0> : tensor<1xi64>>, rhs_precision_type = #vhlo.type_v1<!vhlo.none_v1>}> : (!vhlo.tensor_v1<13x2880x!vhlo.bf16_v1>, !vhlo.tensor_v1<2880x512x!vhlo.bf16_v1>) -> !vhlo.tensor_v1<13x512x!vhlo.bf16_v1>
    %79 = "vhlo.reshape_v1"(%78) : (!vhlo.tensor_v1<13x512x!vhlo.bf16_v1>) -> !vhlo.tensor_v1<1x13x512x!vhlo.bf16_v1>
    %80 = "vhlo.broadcast_in_dim_v1"(%arg8) <{broadcast_dimensions = #vhlo.tensor_v1<dense<2> : tensor<1xi64>>}> : (!vhlo.tensor_v1<512x!vhlo.bf16_v1>) -> !vhlo.tensor_v1<1x13x512x!vhlo.bf16_v1>
    %81 = "vhlo.add_v1"(%79, %80) : (!vhlo.tensor_v1<1x13x512x!vhlo.bf16_v1>, !vhlo.tensor_v1<1x13x512x!vhlo.bf16_v1>) -> !vhlo.tensor_v1<1x13x512x!vhlo.bf16_v1>
    %82 = "vhlo.reshape_v1"(%81) : (!vhlo.tensor_v1<1x13x512x!vhlo.bf16_v1>) -> !vhlo.tensor_v1<1x13x8x64x!vhlo.bf16_v1>
    %83 = "vhlo.transpose_v1"(%82) <{permutation = #vhlo.tensor_v1<dense<[0, 2, 1, 3]> : tensor<4xi64>>}> {result_layout = #vhlo.tensor_v1<dense<[3, 1, 2, 0]> : tensor<4xindex>>, xla_shape = #vhlo.string_v1<"bf16[1,8,13,64]{3,1,2,0}">} : (!vhlo.tensor_v1<1x13x8x64x!vhlo.bf16_v1>) -> !vhlo.tensor_v1<1x8x13x64x!vhlo.bf16_v1>
    %84 = "vhlo.slice_v1"(%83) <{limit_indices = #vhlo.tensor_v1<dense<[1, 8, 13, 32]> : tensor<4xi64>>, start_indices = #vhlo.tensor_v1<dense<0> : tensor<4xi64>>, strides = #vhlo.tensor_v1<dense<1> : tensor<4xi64>>}> : (!vhlo.tensor_v1<1x8x13x64x!vhlo.bf16_v1>) -> !vhlo.tensor_v1<1x8x13x32x!vhlo.bf16_v1>
    %85 = "vhlo.convert_v1"(%84) : (!vhlo.tensor_v1<1x8x13x32x!vhlo.bf16_v1>) -> !vhlo.tensor_v1<1x8x13x32x!vhlo.f32_v1>
    %86 = "vhlo.broadcast_in_dim_v1"(%54) <{broadcast_dimensions = #vhlo.tensor_v1<dense<[0, 2, 3]> : tensor<3xi64>>}> : (!vhlo.tensor_v1<1x13x32x!vhlo.f32_v1>) -> !vhlo.tensor_v1<1x8x13x32x!vhlo.f32_v1>
    %87 = "vhlo.multiply_v1"(%85, %86) : (!vhlo.tensor_v1<1x8x13x32x!vhlo.f32_v1>, !vhlo.tensor_v1<1x8x13x32x!vhlo.f32_v1>) -> !vhlo.tensor_v1<1x8x13x32x!vhlo.f32_v1>
    %88 = "vhlo.convert_v1"(%87) : (!vhlo.tensor_v1<1x8x13x32x!vhlo.f32_v1>) -> !vhlo.tensor_v1<1x8x13x32x!vhlo.bf16_v1>
    %89 = "vhlo.slice_v1"(%83) <{limit_indices = #vhlo.tensor_v1<dense<[1, 8, 13, 64]> : tensor<4xi64>>, start_indices = #vhlo.tensor_v1<dense<[0, 0, 0, 32]> : tensor<4xi64>>, strides = #vhlo.tensor_v1<dense<1> : tensor<4xi64>>}> : (!vhlo.tensor_v1<1x8x13x64x!vhlo.bf16_v1>) -> !vhlo.tensor_v1<1x8x13x32x!vhlo.bf16_v1>
    %90 = "vhlo.convert_v1"(%89) : (!vhlo.tensor_v1<1x8x13x32x!vhlo.bf16_v1>) -> !vhlo.tensor_v1<1x8x13x32x!vhlo.f32_v1>
    %91 = "vhlo.broadcast_in_dim_v1"(%65) <{broadcast_dimensions = #vhlo.tensor_v1<dense<[0, 2, 3]> : tensor<3xi64>>}> : (!vhlo.tensor_v1<1x13x32x!vhlo.f32_v1>) -> !vhlo.tensor_v1<1x8x13x32x!vhlo.f32_v1>
    %92 = "vhlo.multiply_v1"(%90, %91) : (!vhlo.tensor_v1<1x8x13x32x!vhlo.f32_v1>, !vhlo.tensor_v1<1x8x13x32x!vhlo.f32_v1>) -> !vhlo.tensor_v1<1x8x13x32x!vhlo.f32_v1>
    %93 = "vhlo.convert_v1"(%92) : (!vhlo.tensor_v1<1x8x13x32x!vhlo.f32_v1>) -> !vhlo.tensor_v1<1x8x13x32x!vhlo.bf16_v1>
    %94 = "vhlo.subtract_v1"(%88, %93) : (!vhlo.tensor_v1<1x8x13x32x!vhlo.bf16_v1>, !vhlo.tensor_v1<1x8x13x32x!vhlo.bf16_v1>) -> !vhlo.tensor_v1<1x8x13x32x!vhlo.bf16_v1>
    %95 = "vhlo.multiply_v1"(%90, %86) : (!vhlo.tensor_v1<1x8x13x32x!vhlo.f32_v1>, !vhlo.tensor_v1<1x8x13x32x!vhlo.f32_v1>) -> !vhlo.tensor_v1<1x8x13x32x!vhlo.f32_v1>
    %96 = "vhlo.convert_v1"(%95) : (!vhlo.tensor_v1<1x8x13x32x!vhlo.f32_v1>) -> !vhlo.tensor_v1<1x8x13x32x!vhlo.bf16_v1>
    %97 = "vhlo.multiply_v1"(%85, %91) : (!vhlo.tensor_v1<1x8x13x32x!vhlo.f32_v1>, !vhlo.tensor_v1<1x8x13x32x!vhlo.f32_v1>) -> !vhlo.tensor_v1<1x8x13x32x!vhlo.f32_v1>
    %98 = "vhlo.convert_v1"(%97) : (!vhlo.tensor_v1<1x8x13x32x!vhlo.f32_v1>) -> !vhlo.tensor_v1<1x8x13x32x!vhlo.bf16_v1>
    %99 = "vhlo.add_v1"(%96, %98) : (!vhlo.tensor_v1<1x8x13x32x!vhlo.bf16_v1>, !vhlo.tensor_v1<1x8x13x32x!vhlo.bf16_v1>) -> !vhlo.tensor_v1<1x8x13x32x!vhlo.bf16_v1>
    %100 = "vhlo.concatenate_v1"(%94, %99) <{dimension = #vhlo.integer_v1<3 : i64>}> : (!vhlo.tensor_v1<1x8x13x32x!vhlo.bf16_v1>, !vhlo.tensor_v1<1x8x13x32x!vhlo.bf16_v1>) -> !vhlo.tensor_v1<1x8x13x64x!vhlo.bf16_v1>
    %101 = "vhlo.broadcast_in_dim_v1"(%100) <{broadcast_dimensions = #vhlo.tensor_v1<dense<[0, 1, 3, 4]> : tensor<4xi64>>}> : (!vhlo.tensor_v1<1x8x13x64x!vhlo.bf16_v1>) -> !vhlo.tensor_v1<1x8x8x13x64x!vhlo.bf16_v1>
    %102 = "vhlo.reshape_v1"(%101) : (!vhlo.tensor_v1<1x8x8x13x64x!vhlo.bf16_v1>) -> !vhlo.tensor_v1<1x64x13x64x!vhlo.bf16_v1>
    %103 = "vhlo.transpose_v1"(%102) <{permutation = #vhlo.tensor_v1<dense<[0, 1, 3, 2]> : tensor<4xi64>>}> {result_layout = #vhlo.tensor_v1<dense<[2, 3, 1, 0]> : tensor<4xindex>>, xla_shape = #vhlo.string_v1<"bf16[1,64,64,13]{2,3,1,0}">} : (!vhlo.tensor_v1<1x64x13x64x!vhlo.bf16_v1>) -> !vhlo.tensor_v1<1x64x64x13x!vhlo.bf16_v1>
    %104 = "vhlo.reshape_v1"(%103) : (!vhlo.tensor_v1<1x64x64x13x!vhlo.bf16_v1>) -> !vhlo.tensor_v1<64x64x13x!vhlo.bf16_v1>
    %105 = "vhlo.dot_general_v2"(%76, %104) <{accumulation_type = #vhlo.type_v1<!vhlo.none_v1>, allow_imprecise_accumulation = #vhlo.type_v1<!vhlo.none_v1>, lhs_batching_dimensions = #vhlo.tensor_v1<dense<0> : tensor<1xi64>>, lhs_component_count = #vhlo.type_v1<!vhlo.none_v1>, lhs_contracting_dimensions = #vhlo.tensor_v1<dense<2> : tensor<1xi64>>, lhs_precision_type = #vhlo.type_v1<!vhlo.none_v1>, num_primitive_operations = #vhlo.type_v1<!vhlo.none_v1>, precision_config = #vhlo.array_v1<[#vhlo<precision_v1 DEFAULT>, #vhlo<precision_v1 DEFAULT>]>, rhs_batching_dimensions = #vhlo.tensor_v1<dense<0> : tensor<1xi64>>, rhs_component_count = #vhlo.type_v1<!vhlo.none_v1>, rhs_contracting_dimensions = #vhlo.tensor_v1<dense<1> : tensor<1xi64>>, rhs_precision_type = #vhlo.type_v1<!vhlo.none_v1>}> : (!vhlo.tensor_v1<64x13x64x!vhlo.bf16_v1>, !vhlo.tensor_v1<64x64x13x!vhlo.bf16_v1>) -> !vhlo.tensor_v1<64x13x13x!vhlo.bf16_v1>
    %106 = "vhlo.reshape_v1"(%105) : (!vhlo.tensor_v1<64x13x13x!vhlo.bf16_v1>) -> !vhlo.tensor_v1<1x64x13x13x!vhlo.bf16_v1>
    %107 = "vhlo.convert_v1"(%106) : (!vhlo.tensor_v1<1x64x13x13x!vhlo.bf16_v1>) -> !vhlo.tensor_v1<1x64x13x13x!vhlo.f32_v1>
    %108 = "vhlo.broadcast_in_dim_v1"(%arg18) <{broadcast_dimensions = #vhlo.tensor_v1<dense<> : tensor<0xi64>>}> : (!vhlo.tensor_v1<!vhlo.f32_v1>) -> !vhlo.tensor_v1<1x64x13x13x!vhlo.f32_v1>
    %109 = "vhlo.multiply_v1"(%107, %108) : (!vhlo.tensor_v1<1x64x13x13x!vhlo.f32_v1>, !vhlo.tensor_v1<1x64x13x13x!vhlo.f32_v1>) -> !vhlo.tensor_v1<1x64x13x13x!vhlo.f32_v1>
    %110 = "vhlo.convert_v1"(%109) : (!vhlo.tensor_v1<1x64x13x13x!vhlo.f32_v1>) -> !vhlo.tensor_v1<1x64x13x13x!vhlo.bf16_v1>
    %111 = "vhlo.broadcast_in_dim_v1"(%1) <{broadcast_dimensions = #vhlo.tensor_v1<dense<1> : tensor<1xi64>>}> : (!vhlo.tensor_v1<13x!vhlo.i64_v1>) -> !vhlo.tensor_v1<13x13x!vhlo.i64_v1>
    %112 = "vhlo.broadcast_in_dim_v1"(%arg17) <{broadcast_dimensions = #vhlo.tensor_v1<dense<> : tensor<0xi64>>}> : (!vhlo.tensor_v1<!vhlo.i64_v1>) -> !vhlo.tensor_v1<13x!vhlo.i64_v1>
    %113 = "vhlo.subtract_v1"(%1, %112) : (!vhlo.tensor_v1<13x!vhlo.i64_v1>, !vhlo.tensor_v1<13x!vhlo.i64_v1>) -> !vhlo.tensor_v1<13x!vhlo.i64_v1>
    %114 = "vhlo.broadcast_in_dim_v1"(%113) <{broadcast_dimensions = #vhlo.tensor_v1<dense<0> : tensor<1xi64>>}> : (!vhlo.tensor_v1<13x!vhlo.i64_v1>) -> !vhlo.tensor_v1<13x13x!vhlo.i64_v1>
    %115 = "vhlo.compare_v1"(%111, %114) <{compare_type = #vhlo<comparison_type_v1 NOTYPE>, comparison_direction = #vhlo<comparison_direction_v1 GT>}> : (!vhlo.tensor_v1<13x13x!vhlo.i64_v1>, !vhlo.tensor_v1<13x13x!vhlo.i64_v1>) -> !vhlo.tensor_v1<13x13x!vhlo.bool_v1>
    %116 = "vhlo.convert_v1"(%115) : (!vhlo.tensor_v1<13x13x!vhlo.bool_v1>) -> !vhlo.tensor_v1<13x13x!vhlo.ui8_v1>
    %117 = "vhlo.and_v1"(%116, %13) : (!vhlo.tensor_v1<13x13x!vhlo.ui8_v1>, !vhlo.tensor_v1<13x13x!vhlo.ui8_v1>) -> !vhlo.tensor_v1<13x13x!vhlo.ui8_v1>
    %118 = "vhlo.compare_v1"(%117, %15) <{compare_type = #vhlo<comparison_type_v1 NOTYPE>, comparison_direction = #vhlo<comparison_direction_v1 NE>}> : (!vhlo.tensor_v1<13x13x!vhlo.ui8_v1>, !vhlo.tensor_v1<13x13x!vhlo.ui8_v1>) -> !vhlo.tensor_v1<13x13x!vhlo.bool_v1>
    %119 = "vhlo.convert_v1"(%118) : (!vhlo.tensor_v1<13x13x!vhlo.bool_v1>) -> !vhlo.tensor_v1<13x13x!vhlo.ui8_v1>
    %120 = "vhlo.broadcast_in_dim_v1"(%1) <{broadcast_dimensions = #vhlo.tensor_v1<dense<0> : tensor<1xi64>>}> : (!vhlo.tensor_v1<13x!vhlo.i64_v1>) -> !vhlo.tensor_v1<13x13x!vhlo.i64_v1>
    %121 = "vhlo.compare_v1"(%111, %120) <{compare_type = #vhlo<comparison_type_v1 NOTYPE>, comparison_direction = #vhlo<comparison_direction_v1 LE>}> : (!vhlo.tensor_v1<13x13x!vhlo.i64_v1>, !vhlo.tensor_v1<13x13x!vhlo.i64_v1>) -> !vhlo.tensor_v1<13x13x!vhlo.bool_v1>
    %122 = "vhlo.convert_v1"(%121) : (!vhlo.tensor_v1<13x13x!vhlo.bool_v1>) -> !vhlo.tensor_v1<13x13x!vhlo.ui8_v1>
    %123 = "vhlo.and_v1"(%119, %122) : (!vhlo.tensor_v1<13x13x!vhlo.ui8_v1>, !vhlo.tensor_v1<13x13x!vhlo.ui8_v1>) -> !vhlo.tensor_v1<13x13x!vhlo.ui8_v1>
    %124 = "vhlo.compare_v1"(%123, %15) <{compare_type = #vhlo<comparison_type_v1 NOTYPE>, comparison_direction = #vhlo<comparison_direction_v1 NE>}> : (!vhlo.tensor_v1<13x13x!vhlo.ui8_v1>, !vhlo.tensor_v1<13x13x!vhlo.ui8_v1>) -> !vhlo.tensor_v1<13x13x!vhlo.bool_v1>
    %125 = "vhlo.reshape_v1"(%124) : (!vhlo.tensor_v1<13x13x!vhlo.bool_v1>) -> !vhlo.tensor_v1<1x1x13x13x!vhlo.bool_v1>
    %126 = "vhlo.reshape_v1"(%arg16) : (!vhlo.tensor_v1<!vhlo.bf16_v1>) -> !vhlo.tensor_v1<1x1x!vhlo.bf16_v1>
    %127 = "vhlo.broadcast_in_dim_v1"(%126) <{broadcast_dimensions = #vhlo.tensor_v1<dense<[0, 1]> : tensor<2xi64>>}> : (!vhlo.tensor_v1<1x1x!vhlo.bf16_v1>) -> !vhlo.tensor_v1<1x1x13x13x!vhlo.bf16_v1>
    %128 = "vhlo.select_v1"(%125, %12, %127) : (!vhlo.tensor_v1<1x1x13x13x!vhlo.bool_v1>, !vhlo.tensor_v1<1x1x13x13x!vhlo.bf16_v1>, !vhlo.tensor_v1<1x1x13x13x!vhlo.bf16_v1>) -> !vhlo.tensor_v1<1x1x13x13x!vhlo.bf16_v1>
    %129 = "vhlo.reshape_v1"(%128) : (!vhlo.tensor_v1<1x1x13x13x!vhlo.bf16_v1>) -> !vhlo.tensor_v1<1x13x13x!vhlo.bf16_v1>
    %130 = "vhlo.broadcast_in_dim_v1"(%129) <{broadcast_dimensions = #vhlo.tensor_v1<dense<[0, 2, 3]> : tensor<3xi64>>}> : (!vhlo.tensor_v1<1x13x13x!vhlo.bf16_v1>) -> !vhlo.tensor_v1<1x64x13x13x!vhlo.bf16_v1>
    %131 = "vhlo.add_v1"(%110, %130) : (!vhlo.tensor_v1<1x64x13x13x!vhlo.bf16_v1>, !vhlo.tensor_v1<1x64x13x13x!vhlo.bf16_v1>) -> !vhlo.tensor_v1<1x64x13x13x!vhlo.bf16_v1>
    %132 = "vhlo.reshape_v1"(%arg15) : (!vhlo.tensor_v1<64x!vhlo.bf16_v1>) -> !vhlo.tensor_v1<1x64x1x!vhlo.bf16_v1>
    %133 = "vhlo.broadcast_in_dim_v1"(%132) <{broadcast_dimensions = #vhlo.tensor_v1<dense<[0, 1, 3]> : tensor<3xi64>>}> : (!vhlo.tensor_v1<1x64x1x!vhlo.bf16_v1>) -> !vhlo.tensor_v1<1x64x13x1x!vhlo.bf16_v1>
    %134 = "vhlo.concatenate_v1"(%131, %133) <{dimension = #vhlo.integer_v1<3 : i64>}> : (!vhlo.tensor_v1<1x64x13x13x!vhlo.bf16_v1>, !vhlo.tensor_v1<1x64x13x1x!vhlo.bf16_v1>) -> !vhlo.tensor_v1<1x64x13x14x!vhlo.bf16_v1>
    %135 = "vhlo.transpose_v1"(%arg1) <{permutation = #vhlo.tensor_v1<dense<[1, 0]> : tensor<2xi64>>}> {result_layout = #vhlo.tensor_v1<dense<[0, 1]> : tensor<2xindex>>, xla_shape = #vhlo.string_v1<"bf16[2880,512]{0,1}">} : (!vhlo.tensor_v1<512x2880x!vhlo.bf16_v1>) -> !vhlo.tensor_v1<2880x512x!vhlo.bf16_v1>
    %136 = "vhlo.dot_general_v2"(%35, %135) <{accumulation_type = #vhlo.type_v1<!vhlo.none_v1>, allow_imprecise_accumulation = #vhlo.type_v1<!vhlo.none_v1>, lhs_batching_dimensions = #vhlo.tensor_v1<dense<> : tensor<0xi64>>, lhs_component_count = #vhlo.type_v1<!vhlo.none_v1>, lhs_contracting_dimensions = #vhlo.tensor_v1<dense<1> : tensor<1xi64>>, lhs_precision_type = #vhlo.type_v1<!vhlo.none_v1>, num_primitive_operations = #vhlo.type_v1<!vhlo.none_v1>, precision_config = #vhlo.array_v1<[#vhlo<precision_v1 DEFAULT>, #vhlo<precision_v1 DEFAULT>]>, rhs_batching_dimensions = #vhlo.tensor_v1<dense<> : tensor<0xi64>>, rhs_component_count = #vhlo.type_v1<!vhlo.none_v1>, rhs_contracting_dimensions = #vhlo.tensor_v1<dense<0> : tensor<1xi64>>, rhs_precision_type = #vhlo.type_v1<!vhlo.none_v1>}> : (!vhlo.tensor_v1<13x2880x!vhlo.bf16_v1>, !vhlo.tensor_v1<2880x512x!vhlo.bf16_v1>) -> !vhlo.tensor_v1<13x512x!vhlo.bf16_v1>
    %137 = "vhlo.reshape_v1"(%136) : (!vhlo.tensor_v1<13x512x!vhlo.bf16_v1>) -> !vhlo.tensor_v1<1x13x512x!vhlo.bf16_v1>
    %138 = "vhlo.broadcast_in_dim_v1"(%arg0) <{broadcast_dimensions = #vhlo.tensor_v1<dense<2> : tensor<1xi64>>}> : (!vhlo.tensor_v1<512x!vhlo.bf16_v1>) -> !vhlo.tensor_v1<1x13x512x!vhlo.bf16_v1>
    %139 = "vhlo.add_v1"(%137, %138) : (!vhlo.tensor_v1<1x13x512x!vhlo.bf16_v1>, !vhlo.tensor_v1<1x13x512x!vhlo.bf16_v1>) -> !vhlo.tensor_v1<1x13x512x!vhlo.bf16_v1>
    %140 = "vhlo.reshape_v1"(%139) : (!vhlo.tensor_v1<1x13x512x!vhlo.bf16_v1>) -> !vhlo.tensor_v1<1x13x8x64x!vhlo.bf16_v1>
    %141 = "vhlo.transpose_v1"(%140) <{permutation = #vhlo.tensor_v1<dense<[0, 2, 1, 3]> : tensor<4xi64>>}> {result_layout = #vhlo.tensor_v1<dense<[3, 1, 2, 0]> : tensor<4xindex>>, xla_shape = #vhlo.string_v1<"bf16[1,8,13,64]{3,1,2,0}">} : (!vhlo.tensor_v1<1x13x8x64x!vhlo.bf16_v1>) -> !vhlo.tensor_v1<1x8x13x64x!vhlo.bf16_v1>
    %142 = "vhlo.convert_v1"(%arg30) : (!vhlo.tensor_v1<2880x!vhlo.bf16_v1>) -> !vhlo.tensor_v1<2880x!vhlo.f32_v1>
    %143 = "vhlo.broadcast_in_dim_v1"(%142) <{broadcast_dimensions = #vhlo.tensor_v1<dense<2> : tensor<1xi64>>}> : (!vhlo.tensor_v1<2880x!vhlo.f32_v1>) -> !vhlo.tensor_v1<1x13x2880x!vhlo.f32_v1>
    %144 = "vhlo.reduce_v1"(%134, %3) <{dimensions = #vhlo.tensor_v1<dense<3> : tensor<1xi64>>}> ({
    ^bb0(%arg31: !vhlo.tensor_v1<!vhlo.bf16_v1>, %arg32: !vhlo.tensor_v1<!vhlo.bf16_v1>):
      %260 = "vhlo.maximum_v1"(%arg31, %arg32) : (!vhlo.tensor_v1<!vhlo.bf16_v1>, !vhlo.tensor_v1<!vhlo.bf16_v1>) -> !vhlo.tensor_v1<!vhlo.bf16_v1>
      "vhlo.return_v1"(%260) : (!vhlo.tensor_v1<!vhlo.bf16_v1>) -> ()
    }) : (!vhlo.tensor_v1<1x64x13x14x!vhlo.bf16_v1>, !vhlo.tensor_v1<!vhlo.bf16_v1>) -> !vhlo.tensor_v1<1x64x13x!vhlo.bf16_v1>
    %145 = "vhlo.broadcast_in_dim_v1"(%144) <{broadcast_dimensions = #vhlo.tensor_v1<dense<[0, 1, 2]> : tensor<3xi64>>}> : (!vhlo.tensor_v1<1x64x13x!vhlo.bf16_v1>) -> !vhlo.tensor_v1<1x64x13x14x!vhlo.bf16_v1>
    %146 = "vhlo.subtract_v1"(%134, %145) : (!vhlo.tensor_v1<1x64x13x14x!vhlo.bf16_v1>, !vhlo.tensor_v1<1x64x13x14x!vhlo.bf16_v1>) -> !vhlo.tensor_v1<1x64x13x14x!vhlo.bf16_v1>
    %147 = "vhlo.reduce_v1"(%146, %3) <{dimensions = #vhlo.tensor_v1<dense<3> : tensor<1xi64>>}> ({
    ^bb0(%arg31: !vhlo.tensor_v1<!vhlo.bf16_v1>, %arg32: !vhlo.tensor_v1<!vhlo.bf16_v1>):
      %260 = "vhlo.maximum_v1"(%arg31, %arg32) : (!vhlo.tensor_v1<!vhlo.bf16_v1>, !vhlo.tensor_v1<!vhlo.bf16_v1>) -> !vhlo.tensor_v1<!vhlo.bf16_v1>
      "vhlo.return_v1"(%260) : (!vhlo.tensor_v1<!vhlo.bf16_v1>) -> ()
    }) : (!vhlo.tensor_v1<1x64x13x14x!vhlo.bf16_v1>, !vhlo.tensor_v1<!vhlo.bf16_v1>) -> !vhlo.tensor_v1<1x64x13x!vhlo.bf16_v1>
    %148 = "vhlo.broadcast_in_dim_v1"(%147) <{broadcast_dimensions = #vhlo.tensor_v1<dense<[0, 1, 2]> : tensor<3xi64>>}> : (!vhlo.tensor_v1<1x64x13x!vhlo.bf16_v1>) -> !vhlo.tensor_v1<1x64x13x14x!vhlo.bf16_v1>
    %149 = "vhlo.subtract_v1"(%146, %148) : (!vhlo.tensor_v1<1x64x13x14x!vhlo.bf16_v1>, !vhlo.tensor_v1<1x64x13x14x!vhlo.bf16_v1>) -> !vhlo.tensor_v1<1x64x13x14x!vhlo.bf16_v1>
    %150 = "vhlo.exponential_v2"(%149) <{result_accuracy = #vhlo.result_accuracy_v1<atol = 0.000000e+00, rtol = 0.000000e+00, ulps = 0, mode = #vhlo<result_accuracy_mode_v1 DEFAULT>>}> : (!vhlo.tensor_v1<1x64x13x14x!vhlo.bf16_v1>) -> !vhlo.tensor_v1<1x64x13x14x!vhlo.bf16_v1>
    %151 = "vhlo.reduce_v1"(%150, %9) <{dimensions = #vhlo.tensor_v1<dense<3> : tensor<1xi64>>}> ({
    ^bb0(%arg31: !vhlo.tensor_v1<!vhlo.bf16_v1>, %arg32: !vhlo.tensor_v1<!vhlo.bf16_v1>):
      %260 = "vhlo.add_v1"(%arg31, %arg32) : (!vhlo.tensor_v1<!vhlo.bf16_v1>, !vhlo.tensor_v1<!vhlo.bf16_v1>) -> !vhlo.tensor_v1<!vhlo.bf16_v1>
      "vhlo.return_v1"(%260) : (!vhlo.tensor_v1<!vhlo.bf16_v1>) -> ()
    }) : (!vhlo.tensor_v1<1x64x13x14x!vhlo.bf16_v1>, !vhlo.tensor_v1<!vhlo.bf16_v1>) -> !vhlo.tensor_v1<1x64x13x!vhlo.bf16_v1>
    %152 = "vhlo.broadcast_in_dim_v1"(%151) <{broadcast_dimensions = #vhlo.tensor_v1<dense<[0, 1, 2]> : tensor<3xi64>>}> : (!vhlo.tensor_v1<1x64x13x!vhlo.bf16_v1>) -> !vhlo.tensor_v1<1x64x13x14x!vhlo.bf16_v1>
    %153 = "vhlo.divide_v1"(%150, %152) : (!vhlo.tensor_v1<1x64x13x14x!vhlo.bf16_v1>, !vhlo.tensor_v1<1x64x13x14x!vhlo.bf16_v1>) -> !vhlo.tensor_v1<1x64x13x14x!vhlo.bf16_v1>
    %154 = "vhlo.slice_v1"(%153) <{limit_indices = #vhlo.tensor_v1<dense<[1, 64, 13, 13]> : tensor<4xi64>>, start_indices = #vhlo.tensor_v1<dense<0> : tensor<4xi64>>, strides = #vhlo.tensor_v1<dense<1> : tensor<4xi64>>}> : (!vhlo.tensor_v1<1x64x13x14x!vhlo.bf16_v1>) -> !vhlo.tensor_v1<1x64x13x13x!vhlo.bf16_v1>
    %155 = "vhlo.reshape_v1"(%154) : (!vhlo.tensor_v1<1x64x13x13x!vhlo.bf16_v1>) -> !vhlo.tensor_v1<64x13x13x!vhlo.bf16_v1>
    %156 = "vhlo.broadcast_in_dim_v1"(%141) <{broadcast_dimensions = #vhlo.tensor_v1<dense<[0, 1, 3, 4]> : tensor<4xi64>>}> : (!vhlo.tensor_v1<1x8x13x64x!vhlo.bf16_v1>) -> !vhlo.tensor_v1<1x8x8x13x64x!vhlo.bf16_v1>
    %157 = "vhlo.reshape_v1"(%156) : (!vhlo.tensor_v1<1x8x8x13x64x!vhlo.bf16_v1>) -> !vhlo.tensor_v1<64x13x64x!vhlo.bf16_v1>
    %158 = "vhlo.dot_general_v2"(%155, %157) <{accumulation_type = #vhlo.type_v1<!vhlo.none_v1>, allow_imprecise_accumulation = #vhlo.type_v1<!vhlo.none_v1>, lhs_batching_dimensions = #vhlo.tensor_v1<dense<0> : tensor<1xi64>>, lhs_component_count = #vhlo.type_v1<!vhlo.none_v1>, lhs_contracting_dimensions = #vhlo.tensor_v1<dense<2> : tensor<1xi64>>, lhs_precision_type = #vhlo.type_v1<!vhlo.none_v1>, num_primitive_operations = #vhlo.type_v1<!vhlo.none_v1>, precision_config = #vhlo.array_v1<[#vhlo<precision_v1 DEFAULT>, #vhlo<precision_v1 DEFAULT>]>, rhs_batching_dimensions = #vhlo.tensor_v1<dense<0> : tensor<1xi64>>, rhs_component_count = #vhlo.type_v1<!vhlo.none_v1>, rhs_contracting_dimensions = #vhlo.tensor_v1<dense<1> : tensor<1xi64>>, rhs_precision_type = #vhlo.type_v1<!vhlo.none_v1>}> : (!vhlo.tensor_v1<64x13x13x!vhlo.bf16_v1>, !vhlo.tensor_v1<64x13x64x!vhlo.bf16_v1>) -> !vhlo.tensor_v1<64x13x64x!vhlo.bf16_v1>
    %159 = "vhlo.reshape_v1"(%158) : (!vhlo.tensor_v1<64x13x64x!vhlo.bf16_v1>) -> !vhlo.tensor_v1<1x64x13x64x!vhlo.bf16_v1>
    %160 = "vhlo.transpose_v1"(%159) <{permutation = #vhlo.tensor_v1<dense<[0, 2, 1, 3]> : tensor<4xi64>>}> {result_layout = #vhlo.tensor_v1<dense<[3, 1, 2, 0]> : tensor<4xindex>>, xla_shape = #vhlo.string_v1<"bf16[1,13,64,64]{3,1,2,0}">} : (!vhlo.tensor_v1<1x64x13x64x!vhlo.bf16_v1>) -> !vhlo.tensor_v1<1x13x64x64x!vhlo.bf16_v1>
    %161 = "vhlo.reshape_v1"(%160) : (!vhlo.tensor_v1<1x13x64x64x!vhlo.bf16_v1>) -> !vhlo.tensor_v1<13x4096x!vhlo.bf16_v1>
    %162 = "vhlo.transpose_v1"(%arg14) <{permutation = #vhlo.tensor_v1<dense<[1, 0]> : tensor<2xi64>>}> {result_layout = #vhlo.tensor_v1<dense<[0, 1]> : tensor<2xindex>>, xla_shape = #vhlo.string_v1<"bf16[4096,2880]{0,1}">} : (!vhlo.tensor_v1<2880x4096x!vhlo.bf16_v1>) -> !vhlo.tensor_v1<4096x2880x!vhlo.bf16_v1>
    %163 = "vhlo.dot_general_v2"(%161, %162) <{accumulation_type = #vhlo.type_v1<!vhlo.none_v1>, allow_imprecise_accumulation = #vhlo.type_v1<!vhlo.none_v1>, lhs_batching_dimensions = #vhlo.tensor_v1<dense<> : tensor<0xi64>>, lhs_component_count = #vhlo.type_v1<!vhlo.none_v1>, lhs_contracting_dimensions = #vhlo.tensor_v1<dense<1> : tensor<1xi64>>, lhs_precision_type = #vhlo.type_v1<!vhlo.none_v1>, num_primitive_operations = #vhlo.type_v1<!vhlo.none_v1>, precision_config = #vhlo.array_v1<[#vhlo<precision_v1 DEFAULT>, #vhlo<precision_v1 DEFAULT>]>, rhs_batching_dimensions = #vhlo.tensor_v1<dense<> : tensor<0xi64>>, rhs_component_count = #vhlo.type_v1<!vhlo.none_v1>, rhs_contracting_dimensions = #vhlo.tensor_v1<dense<0> : tensor<1xi64>>, rhs_precision_type = #vhlo.type_v1<!vhlo.none_v1>}> : (!vhlo.tensor_v1<13x4096x!vhlo.bf16_v1>, !vhlo.tensor_v1<4096x2880x!vhlo.bf16_v1>) -> !vhlo.tensor_v1<13x2880x!vhlo.bf16_v1>
    %164 = "vhlo.reshape_v1"(%163) : (!vhlo.tensor_v1<13x2880x!vhlo.bf16_v1>) -> !vhlo.tensor_v1<1x13x2880x!vhlo.bf16_v1>
    %165 = "vhlo.broadcast_in_dim_v1"(%arg13) <{broadcast_dimensions = #vhlo.tensor_v1<dense<2> : tensor<1xi64>>}> : (!vhlo.tensor_v1<2880x!vhlo.bf16_v1>) -> !vhlo.tensor_v1<1x13x2880x!vhlo.bf16_v1>
    %166 = "vhlo.add_v1"(%164, %165) : (!vhlo.tensor_v1<1x13x2880x!vhlo.bf16_v1>, !vhlo.tensor_v1<1x13x2880x!vhlo.bf16_v1>) -> !vhlo.tensor_v1<1x13x2880x!vhlo.bf16_v1>
    %167 = "vhlo.add_v1"(%21, %166) : (!vhlo.tensor_v1<1x13x2880x!vhlo.bf16_v1>, !vhlo.tensor_v1<1x13x2880x!vhlo.bf16_v1>) -> !vhlo.tensor_v1<1x13x2880x!vhlo.bf16_v1>
    %168 = "vhlo.broadcast_in_dim_v1"(%arg29) <{broadcast_dimensions = #vhlo.tensor_v1<dense<> : tensor<0xi64>>}> : (!vhlo.tensor_v1<!vhlo.bf16_v1>) -> !vhlo.tensor_v1<32x13x2880x!vhlo.bf16_v1>
    %169 = "vhlo.convert_v1"(%arg21) : (!vhlo.tensor_v1<2880x!vhlo.bf16_v1>) -> !vhlo.tensor_v1<2880x!vhlo.f32_v1>
    %170 = "vhlo.broadcast_in_dim_v1"(%169) <{broadcast_dimensions = #vhlo.tensor_v1<dense<2> : tensor<1xi64>>}> : (!vhlo.tensor_v1<2880x!vhlo.f32_v1>) -> !vhlo.tensor_v1<1x13x2880x!vhlo.f32_v1>
    %171 = "vhlo.convert_v1"(%167) : (!vhlo.tensor_v1<1x13x2880x!vhlo.bf16_v1>) -> !vhlo.tensor_v1<1x13x2880x!vhlo.f32_v1>
    %172 = "vhlo.power_v1"(%171, %14) : (!vhlo.tensor_v1<1x13x2880x!vhlo.f32_v1>, !vhlo.tensor_v1<1x13x2880x!vhlo.f32_v1>) -> !vhlo.tensor_v1<1x13x2880x!vhlo.f32_v1>
    %173 = "vhlo.reduce_v1"(%172, %0) <{dimensions = #vhlo.tensor_v1<dense<2> : tensor<1xi64>>}> ({
    ^bb0(%arg31: !vhlo.tensor_v1<!vhlo.f32_v1>, %arg32: !vhlo.tensor_v1<!vhlo.f32_v1>):
      %260 = "vhlo.add_v1"(%arg31, %arg32) : (!vhlo.tensor_v1<!vhlo.f32_v1>, !vhlo.tensor_v1<!vhlo.f32_v1>) -> !vhlo.tensor_v1<!vhlo.f32_v1>
      "vhlo.return_v1"(%260) : (!vhlo.tensor_v1<!vhlo.f32_v1>) -> ()
    }) : (!vhlo.tensor_v1<1x13x2880x!vhlo.f32_v1>, !vhlo.tensor_v1<!vhlo.f32_v1>) -> !vhlo.tensor_v1<1x13x!vhlo.f32_v1>
    %174 = "vhlo.multiply_v1"(%173, %5) : (!vhlo.tensor_v1<1x13x!vhlo.f32_v1>, !vhlo.tensor_v1<1x13x!vhlo.f32_v1>) -> !vhlo.tensor_v1<1x13x!vhlo.f32_v1>
    %175 = "vhlo.reshape_v1"(%174) : (!vhlo.tensor_v1<1x13x!vhlo.f32_v1>) -> !vhlo.tensor_v1<1x13x1x!vhlo.f32_v1>
    %176 = "vhlo.add_v1"(%175, %27) : (!vhlo.tensor_v1<1x13x1x!vhlo.f32_v1>, !vhlo.tensor_v1<1x13x1x!vhlo.f32_v1>) -> !vhlo.tensor_v1<1x13x1x!vhlo.f32_v1>
    %177 = "vhlo.rsqrt_v2"(%176) <{result_accuracy = #vhlo.result_accuracy_v1<atol = 0.000000e+00, rtol = 0.000000e+00, ulps = 0, mode = #vhlo<result_accuracy_mode_v1 DEFAULT>>}> : (!vhlo.tensor_v1<1x13x1x!vhlo.f32_v1>) -> !vhlo.tensor_v1<1x13x1x!vhlo.f32_v1>
    %178 = "vhlo.reshape_v1"(%177) : (!vhlo.tensor_v1<1x13x1x!vhlo.f32_v1>) -> !vhlo.tensor_v1<1x13x!vhlo.f32_v1>
    %179 = "vhlo.broadcast_in_dim_v1"(%178) <{broadcast_dimensions = #vhlo.tensor_v1<dense<[0, 1]> : tensor<2xi64>>}> : (!vhlo.tensor_v1<1x13x!vhlo.f32_v1>) -> !vhlo.tensor_v1<1x13x2880x!vhlo.f32_v1>
    %180 = "vhlo.multiply_v1"(%171, %179) : (!vhlo.tensor_v1<1x13x2880x!vhlo.f32_v1>, !vhlo.tensor_v1<1x13x2880x!vhlo.f32_v1>) -> !vhlo.tensor_v1<1x13x2880x!vhlo.f32_v1>
    %181 = "vhlo.multiply_v1"(%170, %180) : (!vhlo.tensor_v1<1x13x2880x!vhlo.f32_v1>, !vhlo.tensor_v1<1x13x2880x!vhlo.f32_v1>) -> !vhlo.tensor_v1<1x13x2880x!vhlo.f32_v1>
    %182 = "vhlo.convert_v1"(%181) : (!vhlo.tensor_v1<1x13x2880x!vhlo.f32_v1>) -> !vhlo.tensor_v1<1x13x2880x!vhlo.bf16_v1>
    %183 = "vhlo.reshape_v1"(%182) : (!vhlo.tensor_v1<1x13x2880x!vhlo.bf16_v1>) -> !vhlo.tensor_v1<13x2880x!vhlo.bf16_v1>
    %184 = "vhlo.concatenate_v1"(%183, %183, %183, %183, %183, %183, %183, %183, %183, %183, %183, %183, %183, %183, %183, %183, %183, %183, %183, %183, %183, %183, %183, %183, %183, %183, %183, %183, %183, %183, %183, %183) <{dimension = #vhlo.integer_v1<0 : i64>}> : (!vhlo.tensor_v1<13x2880x!vhlo.bf16_v1>, !vhlo.tensor_v1<13x2880x!vhlo.bf16_v1>, !vhlo.tensor_v1<13x2880x!vhlo.bf16_v1>, !vhlo.tensor_v1<13x2880x!vhlo.bf16_v1>, !vhlo.tensor_v1<13x2880x!vhlo.bf16_v1>, !vhlo.tensor_v1<13x2880x!vhlo.bf16_v1>, !vhlo.tensor_v1<13x2880x!vhlo.bf16_v1>, !vhlo.tensor_v1<13x2880x!vhlo.bf16_v1>, !vhlo.tensor_v1<13x2880x!vhlo.bf16_v1>, !vhlo.tensor_v1<13x2880x!vhlo.bf16_v1>, !vhlo.tensor_v1<13x2880x!vhlo.bf16_v1>, !vhlo.tensor_v1<13x2880x!vhlo.bf16_v1>, !vhlo.tensor_v1<13x2880x!vhlo.bf16_v1>, !vhlo.tensor_v1<13x2880x!vhlo.bf16_v1>, !vhlo.tensor_v1<13x2880x!vhlo.bf16_v1>, !vhlo.tensor_v1<13x2880x!vhlo.bf16_v1>, !vhlo.tensor_v1<13x2880x!vhlo.bf16_v1>, !vhlo.tensor_v1<13x2880x!vhlo.bf16_v1>, !vhlo.tensor_v1<13x2880x!vhlo.bf16_v1>, !vhlo.tensor_v1<13x2880x!vhlo.bf16_v1>, !vhlo.tensor_v1<13x2880x!vhlo.bf16_v1>, !vhlo.tensor_v1<13x2880x!vhlo.bf16_v1>, !vhlo.tensor_v1<13x2880x!vhlo.bf16_v1>, !vhlo.tensor_v1<13x2880x!vhlo.bf16_v1>, !vhlo.tensor_v1<13x2880x!vhlo.bf16_v1>, !vhlo.tensor_v1<13x2880x!vhlo.bf16_v1>, !vhlo.tensor_v1<13x2880x!vhlo.bf16_v1>, !vhlo.tensor_v1<13x2880x!vhlo.bf16_v1>, !vhlo.tensor_v1<13x2880x!vhlo.bf16_v1>, !vhlo.tensor_v1<13x2880x!vhlo.bf16_v1>, !vhlo.tensor_v1<13x2880x!vhlo.bf16_v1>, !vhlo.tensor_v1<13x2880x!vhlo.bf16_v1>) -> !vhlo.tensor_v1<416x2880x!vhlo.bf16_v1>
    %185 = "vhlo.reshape_v1"(%184) : (!vhlo.tensor_v1<416x2880x!vhlo.bf16_v1>) -> !vhlo.tensor_v1<32x13x2880x!vhlo.bf16_v1>
    %186 = "vhlo.dot_general_v2"(%185, %arg28) <{accumulation_type = #vhlo.type_v1<!vhlo.none_v1>, allow_imprecise_accumulation = #vhlo.type_v1<!vhlo.none_v1>, lhs_batching_dimensions = #vhlo.tensor_v1<dense<0> : tensor<1xi64>>, lhs_component_count = #vhlo.type_v1<!vhlo.none_v1>, lhs_contracting_dimensions = #vhlo.tensor_v1<dense<2> : tensor<1xi64>>, lhs_precision_type = #vhlo.type_v1<!vhlo.none_v1>, num_primitive_operations = #vhlo.type_v1<!vhlo.none_v1>, precision_config = #vhlo.array_v1<[#vhlo<precision_v1 DEFAULT>, #vhlo<precision_v1 DEFAULT>]>, rhs_batching_dimensions = #vhlo.tensor_v1<dense<0> : tensor<1xi64>>, rhs_component_count = #vhlo.type_v1<!vhlo.none_v1>, rhs_contracting_dimensions = #vhlo.tensor_v1<dense<1> : tensor<1xi64>>, rhs_precision_type = #vhlo.type_v1<!vhlo.none_v1>}> : (!vhlo.tensor_v1<32x13x2880x!vhlo.bf16_v1>, !vhlo.tensor_v1<32x2880x5760x!vhlo.bf16_v1>) -> !vhlo.tensor_v1<32x13x5760x!vhlo.bf16_v1>
    %187 = "vhlo.broadcast_in_dim_v1"(%arg27) <{broadcast_dimensions = #vhlo.tensor_v1<dense<[0, 2]> : tensor<2xi64>>}> : (!vhlo.tensor_v1<32x5760x!vhlo.bf16_v1>) -> !vhlo.tensor_v1<32x13x5760x!vhlo.bf16_v1>
    %188 = "vhlo.add_v1"(%186, %187) : (!vhlo.tensor_v1<32x13x5760x!vhlo.bf16_v1>, !vhlo.tensor_v1<32x13x5760x!vhlo.bf16_v1>) -> !vhlo.tensor_v1<32x13x5760x!vhlo.bf16_v1>
    %189 = "vhlo.slice_v1"(%188) <{limit_indices = #vhlo.tensor_v1<dense<[32, 13, 5760]> : tensor<3xi64>>, start_indices = #vhlo.tensor_v1<dense<[0, 0, 1]> : tensor<3xi64>>, strides = #vhlo.tensor_v1<dense<[1, 1, 2]> : tensor<3xi64>>}> : (!vhlo.tensor_v1<32x13x5760x!vhlo.bf16_v1>) -> !vhlo.tensor_v1<32x13x2880x!vhlo.bf16_v1>
    %190 = "vhlo.broadcast_in_dim_v1"(%arg25) <{broadcast_dimensions = #vhlo.tensor_v1<dense<> : tensor<0xi64>>}> : (!vhlo.tensor_v1<!vhlo.bf16_v1>) -> !vhlo.tensor_v1<32x13x2880x!vhlo.bf16_v1>
    %191 = "vhlo.clamp_v1"(%168, %189, %190) : (!vhlo.tensor_v1<32x13x2880x!vhlo.bf16_v1>, !vhlo.tensor_v1<32x13x2880x!vhlo.bf16_v1>, !vhlo.tensor_v1<32x13x2880x!vhlo.bf16_v1>) -> !vhlo.tensor_v1<32x13x2880x!vhlo.bf16_v1>
    %192 = "vhlo.add_v1"(%191, %11) : (!vhlo.tensor_v1<32x13x2880x!vhlo.bf16_v1>, !vhlo.tensor_v1<32x13x2880x!vhlo.bf16_v1>) -> !vhlo.tensor_v1<32x13x2880x!vhlo.bf16_v1>
    %193 = "vhlo.convert_v1"(%192) : (!vhlo.tensor_v1<32x13x2880x!vhlo.bf16_v1>) -> !vhlo.tensor_v1<32x13x2880x!vhlo.f32_v1>
    %194 = "vhlo.broadcast_in_dim_v1"(%arg26) <{broadcast_dimensions = #vhlo.tensor_v1<dense<> : tensor<0xi64>>}> : (!vhlo.tensor_v1<!vhlo.bf16_v1>) -> !vhlo.tensor_v1<32x13x2880x!vhlo.bf16_v1>
    %195 = "vhlo.slice_v1"(%188) <{limit_indices = #vhlo.tensor_v1<dense<[32, 13, 5760]> : tensor<3xi64>>, start_indices = #vhlo.tensor_v1<dense<0> : tensor<3xi64>>, strides = #vhlo.tensor_v1<dense<[1, 1, 2]> : tensor<3xi64>>}> : (!vhlo.tensor_v1<32x13x5760x!vhlo.bf16_v1>) -> !vhlo.tensor_v1<32x13x2880x!vhlo.bf16_v1>
    %196 = "vhlo.clamp_v1"(%194, %195, %190) : (!vhlo.tensor_v1<32x13x2880x!vhlo.bf16_v1>, !vhlo.tensor_v1<32x13x2880x!vhlo.bf16_v1>, !vhlo.tensor_v1<32x13x2880x!vhlo.bf16_v1>) -> !vhlo.tensor_v1<32x13x2880x!vhlo.bf16_v1>
    %197 = "vhlo.convert_v1"(%196) : (!vhlo.tensor_v1<32x13x2880x!vhlo.bf16_v1>) -> !vhlo.tensor_v1<32x13x2880x!vhlo.f32_v1>
    %198 = "vhlo.broadcast_in_dim_v1"(%arg24) <{broadcast_dimensions = #vhlo.tensor_v1<dense<> : tensor<0xi64>>}> : (!vhlo.tensor_v1<!vhlo.f32_v1>) -> !vhlo.tensor_v1<32x13x2880x!vhlo.f32_v1>
    %199 = "vhlo.multiply_v1"(%197, %198) : (!vhlo.tensor_v1<32x13x2880x!vhlo.f32_v1>, !vhlo.tensor_v1<32x13x2880x!vhlo.f32_v1>) -> !vhlo.tensor_v1<32x13x2880x!vhlo.f32_v1>
    %200 = "vhlo.convert_v1"(%199) : (!vhlo.tensor_v1<32x13x2880x!vhlo.f32_v1>) -> !vhlo.tensor_v1<32x13x2880x!vhlo.bf16_v1>
    %201 = "vhlo.logistic_v2"(%200) <{result_accuracy = #vhlo.result_accuracy_v1<atol = 0.000000e+00, rtol = 0.000000e+00, ulps = 0, mode = #vhlo<result_accuracy_mode_v1 DEFAULT>>}> : (!vhlo.tensor_v1<32x13x2880x!vhlo.bf16_v1>) -> !vhlo.tensor_v1<32x13x2880x!vhlo.bf16_v1>
    %202 = "vhlo.convert_v1"(%201) : (!vhlo.tensor_v1<32x13x2880x!vhlo.bf16_v1>) -> !vhlo.tensor_v1<32x13x2880x!vhlo.f32_v1>
    %203 = "vhlo.multiply_v1"(%197, %202) : (!vhlo.tensor_v1<32x13x2880x!vhlo.f32_v1>, !vhlo.tensor_v1<32x13x2880x!vhlo.f32_v1>) -> !vhlo.tensor_v1<32x13x2880x!vhlo.f32_v1>
    %204 = "vhlo.convert_v1"(%203) : (!vhlo.tensor_v1<32x13x2880x!vhlo.f32_v1>) -> !vhlo.tensor_v1<32x13x2880x!vhlo.bf16_v1>
    %205 = "vhlo.convert_v1"(%204) : (!vhlo.tensor_v1<32x13x2880x!vhlo.bf16_v1>) -> !vhlo.tensor_v1<32x13x2880x!vhlo.f32_v1>
    %206 = "vhlo.multiply_v1"(%193, %205) : (!vhlo.tensor_v1<32x13x2880x!vhlo.f32_v1>, !vhlo.tensor_v1<32x13x2880x!vhlo.f32_v1>) -> !vhlo.tensor_v1<32x13x2880x!vhlo.f32_v1>
    %207 = "vhlo.convert_v1"(%206) : (!vhlo.tensor_v1<32x13x2880x!vhlo.f32_v1>) -> !vhlo.tensor_v1<32x13x2880x!vhlo.bf16_v1>
    %208 = "vhlo.dot_general_v2"(%207, %arg23) <{accumulation_type = #vhlo.type_v1<!vhlo.none_v1>, allow_imprecise_accumulation = #vhlo.type_v1<!vhlo.none_v1>, lhs_batching_dimensions = #vhlo.tensor_v1<dense<0> : tensor<1xi64>>, lhs_component_count = #vhlo.type_v1<!vhlo.none_v1>, lhs_contracting_dimensions = #vhlo.tensor_v1<dense<2> : tensor<1xi64>>, lhs_precision_type = #vhlo.type_v1<!vhlo.none_v1>, num_primitive_operations = #vhlo.type_v1<!vhlo.none_v1>, precision_config = #vhlo.array_v1<[#vhlo<precision_v1 DEFAULT>, #vhlo<precision_v1 DEFAULT>]>, rhs_batching_dimensions = #vhlo.tensor_v1<dense<0> : tensor<1xi64>>, rhs_component_count = #vhlo.type_v1<!vhlo.none_v1>, rhs_contracting_dimensions = #vhlo.tensor_v1<dense<1> : tensor<1xi64>>, rhs_precision_type = #vhlo.type_v1<!vhlo.none_v1>}> : (!vhlo.tensor_v1<32x13x2880x!vhlo.bf16_v1>, !vhlo.tensor_v1<32x2880x2880x!vhlo.bf16_v1>) -> !vhlo.tensor_v1<32x13x2880x!vhlo.bf16_v1>
    %209 = "vhlo.broadcast_in_dim_v1"(%arg22) <{broadcast_dimensions = #vhlo.tensor_v1<dense<[0, 2]> : tensor<2xi64>>}> : (!vhlo.tensor_v1<32x2880x!vhlo.bf16_v1>) -> !vhlo.tensor_v1<32x13x2880x!vhlo.bf16_v1>
    %210 = "vhlo.add_v1"(%208, %209) : (!vhlo.tensor_v1<32x13x2880x!vhlo.bf16_v1>, !vhlo.tensor_v1<32x13x2880x!vhlo.bf16_v1>) -> !vhlo.tensor_v1<32x13x2880x!vhlo.bf16_v1>
    %211 = "vhlo.reshape_v1"(%210) : (!vhlo.tensor_v1<32x13x2880x!vhlo.bf16_v1>) -> !vhlo.tensor_v1<32x1x13x2880x!vhlo.bf16_v1>
    %212 = "vhlo.convert_v1"(%211) : (!vhlo.tensor_v1<32x1x13x2880x!vhlo.bf16_v1>) -> !vhlo.tensor_v1<32x1x13x2880x!vhlo.f32_v1>
    %213 = "vhlo.iota_v1"() <{iota_dimension = #vhlo.integer_v1<0 : i64>}> : () -> !vhlo.tensor_v1<13x!vhlo.i64_v1>
    %214 = "vhlo.broadcast_in_dim_v1"(%213) <{broadcast_dimensions = #vhlo.tensor_v1<dense<0> : tensor<1xi64>>}> : (!vhlo.tensor_v1<13x!vhlo.i64_v1>) -> !vhlo.tensor_v1<13x4x1x!vhlo.i64_v1>
    %215 = "vhlo.transpose_v1"(%arg12) <{permutation = #vhlo.tensor_v1<dense<[1, 0]> : tensor<2xi64>>}> {result_layout = #vhlo.tensor_v1<dense<[0, 1]> : tensor<2xindex>>, xla_shape = #vhlo.string_v1<"bf16[2880,32]{0,1}">} : (!vhlo.tensor_v1<32x2880x!vhlo.bf16_v1>) -> !vhlo.tensor_v1<2880x32x!vhlo.bf16_v1>
    %216 = "vhlo.dot_general_v2"(%183, %215) <{accumulation_type = #vhlo.type_v1<!vhlo.none_v1>, allow_imprecise_accumulation = #vhlo.type_v1<!vhlo.none_v1>, lhs_batching_dimensions = #vhlo.tensor_v1<dense<> : tensor<0xi64>>, lhs_component_count = #vhlo.type_v1<!vhlo.none_v1>, lhs_contracting_dimensions = #vhlo.tensor_v1<dense<1> : tensor<1xi64>>, lhs_precision_type = #vhlo.type_v1<!vhlo.none_v1>, num_primitive_operations = #vhlo.type_v1<!vhlo.none_v1>, precision_config = #vhlo.array_v1<[#vhlo<precision_v1 DEFAULT>, #vhlo<precision_v1 DEFAULT>]>, rhs_batching_dimensions = #vhlo.tensor_v1<dense<> : tensor<0xi64>>, rhs_component_count = #vhlo.type_v1<!vhlo.none_v1>, rhs_contracting_dimensions = #vhlo.tensor_v1<dense<0> : tensor<1xi64>>, rhs_precision_type = #vhlo.type_v1<!vhlo.none_v1>}> : (!vhlo.tensor_v1<13x2880x!vhlo.bf16_v1>, !vhlo.tensor_v1<2880x32x!vhlo.bf16_v1>) -> !vhlo.tensor_v1<13x32x!vhlo.bf16_v1>
    %217 = "vhlo.broadcast_in_dim_v1"(%arg11) <{broadcast_dimensions = #vhlo.tensor_v1<dense<1> : tensor<1xi64>>}> : (!vhlo.tensor_v1<32x!vhlo.bf16_v1>) -> !vhlo.tensor_v1<13x32x!vhlo.bf16_v1>
    %218 = "vhlo.add_v1"(%216, %217) : (!vhlo.tensor_v1<13x32x!vhlo.bf16_v1>, !vhlo.tensor_v1<13x32x!vhlo.bf16_v1>) -> !vhlo.tensor_v1<13x32x!vhlo.bf16_v1>
    %219 = "vhlo.iota_v1"() <{iota_dimension = #vhlo.integer_v1<0 : i64>}> : () -> !vhlo.tensor_v1<32x!vhlo.i32_v1>
    %220 = "vhlo.broadcast_in_dim_v1"(%219) <{broadcast_dimensions = #vhlo.tensor_v1<dense<1> : tensor<1xi64>>}> : (!vhlo.tensor_v1<32x!vhlo.i32_v1>) -> !vhlo.tensor_v1<13x32x!vhlo.i32_v1>
    %221:2 = "vhlo.sort_v1"(%218, %220) <{dimension = #vhlo.integer_v1<1 : i64>, is_stable = #vhlo.bool_v1<false>}> ({
    ^bb0(%arg31: !vhlo.tensor_v1<!vhlo.bf16_v1>, %arg32: !vhlo.tensor_v1<!vhlo.bf16_v1>, %arg33: !vhlo.tensor_v1<!vhlo.i32_v1>, %arg34: !vhlo.tensor_v1<!vhlo.i32_v1>):
      %260 = "vhlo.compare_v1"(%arg31, %arg32) <{compare_type = #vhlo<comparison_type_v1 TOTALORDER>, comparison_direction = #vhlo<comparison_direction_v1 GT>}> : (!vhlo.tensor_v1<!vhlo.bf16_v1>, !vhlo.tensor_v1<!vhlo.bf16_v1>) -> !vhlo.tensor_v1<!vhlo.bool_v1>
      "vhlo.return_v1"(%260) : (!vhlo.tensor_v1<!vhlo.bool_v1>) -> ()
    }) : (!vhlo.tensor_v1<13x32x!vhlo.bf16_v1>, !vhlo.tensor_v1<13x32x!vhlo.i32_v1>) -> (!vhlo.tensor_v1<13x32x!vhlo.bf16_v1>, !vhlo.tensor_v1<13x32x!vhlo.i32_v1>)
    %222 = "vhlo.slice_v1"(%221#1) <{limit_indices = #vhlo.tensor_v1<dense<[13, 4]> : tensor<2xi64>>, start_indices = #vhlo.tensor_v1<dense<0> : tensor<2xi64>>, strides = #vhlo.tensor_v1<dense<1> : tensor<2xi64>>}> : (!vhlo.tensor_v1<13x32x!vhlo.i32_v1>) -> !vhlo.tensor_v1<13x4x!vhlo.i32_v1>
    %223 = "vhlo.convert_v1"(%222) : (!vhlo.tensor_v1<13x4x!vhlo.i32_v1>) -> !vhlo.tensor_v1<13x4x!vhlo.i64_v1>
    %224 = "vhlo.reshape_v1"(%223) : (!vhlo.tensor_v1<13x4x!vhlo.i64_v1>) -> !vhlo.tensor_v1<13x4x1x!vhlo.i64_v1>
    %225 = "vhlo.concatenate_v1"(%214, %224) <{dimension = #vhlo.integer_v1<2 : i64>}> : (!vhlo.tensor_v1<13x4x1x!vhlo.i64_v1>, !vhlo.tensor_v1<13x4x1x!vhlo.i64_v1>) -> !vhlo.tensor_v1<13x4x2x!vhlo.i64_v1>
    %226 = "vhlo.slice_v1"(%221#0) <{limit_indices = #vhlo.tensor_v1<dense<[13, 4]> : tensor<2xi64>>, start_indices = #vhlo.tensor_v1<dense<0> : tensor<2xi64>>, strides = #vhlo.tensor_v1<dense<1> : tensor<2xi64>>}> : (!vhlo.tensor_v1<13x32x!vhlo.bf16_v1>) -> !vhlo.tensor_v1<13x4x!vhlo.bf16_v1>
    %227 = "vhlo.reduce_v1"(%226, %3) <{dimensions = #vhlo.tensor_v1<dense<1> : tensor<1xi64>>}> ({
    ^bb0(%arg31: !vhlo.tensor_v1<!vhlo.bf16_v1>, %arg32: !vhlo.tensor_v1<!vhlo.bf16_v1>):
      %260 = "vhlo.maximum_v1"(%arg31, %arg32) : (!vhlo.tensor_v1<!vhlo.bf16_v1>, !vhlo.tensor_v1<!vhlo.bf16_v1>) -> !vhlo.tensor_v1<!vhlo.bf16_v1>
      "vhlo.return_v1"(%260) : (!vhlo.tensor_v1<!vhlo.bf16_v1>) -> ()
    }) : (!vhlo.tensor_v1<13x4x!vhlo.bf16_v1>, !vhlo.tensor_v1<!vhlo.bf16_v1>) -> !vhlo.tensor_v1<13x!vhlo.bf16_v1>
    %228 = "vhlo.broadcast_in_dim_v1"(%227) <{broadcast_dimensions = #vhlo.tensor_v1<dense<0> : tensor<1xi64>>}> : (!vhlo.tensor_v1<13x!vhlo.bf16_v1>) -> !vhlo.tensor_v1<13x4x!vhlo.bf16_v1>
    %229 = "vhlo.subtract_v1"(%226, %228) : (!vhlo.tensor_v1<13x4x!vhlo.bf16_v1>, !vhlo.tensor_v1<13x4x!vhlo.bf16_v1>) -> !vhlo.tensor_v1<13x4x!vhlo.bf16_v1>
    %230 = "vhlo.exponential_v2"(%229) <{result_accuracy = #vhlo.result_accuracy_v1<atol = 0.000000e+00, rtol = 0.000000e+00, ulps = 0, mode = #vhlo<result_accuracy_mode_v1 DEFAULT>>}> : (!vhlo.tensor_v1<13x4x!vhlo.bf16_v1>) -> !vhlo.tensor_v1<13x4x!vhlo.bf16_v1>
    %231 = "vhlo.reduce_v1"(%230, %9) <{dimensions = #vhlo.tensor_v1<dense<1> : tensor<1xi64>>}> ({
    ^bb0(%arg31: !vhlo.tensor_v1<!vhlo.bf16_v1>, %arg32: !vhlo.tensor_v1<!vhlo.bf16_v1>):
      %260 = "vhlo.add_v1"(%arg31, %arg32) : (!vhlo.tensor_v1<!vhlo.bf16_v1>, !vhlo.tensor_v1<!vhlo.bf16_v1>) -> !vhlo.tensor_v1<!vhlo.bf16_v1>
…
        %101 = "ttir.slice_static"(%69, %100) <{begins = [0 : i32, 0 : i32, 0 : i32, 32 : i32], ends = [1 : i32, 64 : i32, 13 : i32, 64 : i32], step = [1 : i32, 1 : i32, 1 : i32, 1 : i32]}> : (tensor<1x64x13x64xbf16, #ttnn_layout39>, tensor<1x64x13x32xbf16, #ttnn_layout41>) -> tensor<1x64x13x32xbf16, #ttnn_layout41>
        %102 = ttir.empty() : tensor<1x64x13x32xf32, #ttnn_layout42>
        %103 = "ttir.typecast"(%101, %102) <{conservative_folding = false}> : (tensor<1x64x13x32xbf16, #ttnn_layout41>, tensor<1x64x13x32xf32, #ttnn_layout42>) -> tensor<1x64x13x32xf32, #ttnn_layout42>
        %104 = ttir.empty() : tensor<64x13x32xf32, #ttnn_layout43>
        %105 = "ttir.reshape"(%103, %104) <{shape = [64 : i32, 13 : i32, 32 : i32]}> : (tensor<1x64x13x32xf32, #ttnn_layout42>, tensor<64x13x32xf32, #ttnn_layout43>) -> tensor<64x13x32xf32, #ttnn_layout43>
        %106 = ttir.empty() : tensor<1x13x32xf32, #ttnn_layout23>
        %107 = "ttir.sin"(%81, %106) : (tensor<1x13x32xf32, #ttnn_layout23>, tensor<1x13x32xf32, #ttnn_layout23>) -> tensor<1x13x32xf32, #ttnn_layout23>
        %108 = ttir.empty() : tensor<1x1x13x32xf32, #ttnn_layout44>
        %109 = "ttir.reshape"(%107, %108) <{shape = [1 : i32, 1 : i32, 13 : i32, 32 : i32]}> : (tensor<1x13x32xf32, #ttnn_layout23>, tensor<1x1x13x32xf32, #ttnn_layout44>) -> tensor<1x1x13x32xf32, #ttnn_layout44>
        %110 = ttir.empty() : tensor<1x1x13x32xf32, #ttnn_layout44>
        %111 = "ttir.multiply"(%109, %87, %110) : (tensor<1x1x13x32xf32, #ttnn_layout44>, tensor<1x1x1x1xf32, #ttnn_layout44>, tensor<1x1x13x32xf32, #ttnn_layout44>) -> tensor<1x1x13x32xf32, #ttnn_layout44>
        %112 = ttir.empty() : tensor<1x1x13x32xbf16, #ttnn_layout29>
        %113 = "ttir.typecast"(%111, %112) <{conservative_folding = false}> : (tensor<1x1x13x32xf32, #ttnn_layout44>, tensor<1x1x13x32xbf16, #ttnn_layout29>) -> tensor<1x1x13x32xbf16, #ttnn_layout29>
        %114 = ttir.empty() : tensor<1x1x13x32xf32, #ttnn_layout44>
        %115 = "ttir.typecast"(%113, %114) <{conservative_folding = false}> : (tensor<1x1x13x32xbf16, #ttnn_layout29>, tensor<1x1x13x32xf32, #ttnn_layout44>) -> tensor<1x1x13x32xf32, #ttnn_layout44>
        %116 = ttir.empty() : tensor<1x13x32xf32, #ttnn_layout23>
        %117 = "ttir.reshape"(%115, %116) <{shape = [1 : i32, 13 : i32, 32 : i32]}> : (tensor<1x1x13x32xf32, #ttnn_layout44>, tensor<1x13x32xf32, #ttnn_layout23>) -> tensor<1x13x32xf32, #ttnn_layout23>
        %118 = ttir.empty() : tensor<64x13x32xf32, #ttnn_layout43>
        %119 = "ttir.multiply"(%105, %117, %118) : (tensor<64x13x32xf32, #ttnn_layout43>, tensor<1x13x32xf32, #ttnn_layout23>, tensor<64x13x32xf32, #ttnn_layout43>) -> tensor<64x13x32xf32, #ttnn_layout43>
        %120 = ttir.empty() : tensor<64x13x32xbf16, #ttnn_layout45>
        %121 = "ttir.typecast"(%119, %120) <{conservative_folding = false}> : (tensor<64x13x32xf32, #ttnn_layout43>, tensor<64x13x32xbf16, #ttnn_layout45>) -> tensor<64x13x32xbf16, #ttnn_layout45>
        %122 = ttir.empty() : tensor<64x13x32xbf16, #ttnn_layout45>
        %123 = "ttir.subtract"(%99, %121, %122) : (tensor<64x13x32xbf16, #ttnn_layout45>, tensor<64x13x32xbf16, #ttnn_layout45>, tensor<64x13x32xbf16, #ttnn_layout45>) -> tensor<64x13x32xbf16, #ttnn_layout45>
        %124 = ttir.empty() : tensor<64x13x32xf32, #ttnn_layout43>
        %125 = "ttir.multiply"(%105, %95, %124) : (tensor<64x13x32xf32, #ttnn_layout43>, tensor<1x13x32xf32, #ttnn_layout23>, tensor<64x13x32xf32, #ttnn_layout43>) -> tensor<64x13x32xf32, #ttnn_layout43>
        %126 = ttir.empty() : tensor<64x13x32xbf16, #ttnn_layout45>
        %127 = "ttir.typecast"(%125, %126) <{conservative_folding = false}> : (tensor<64x13x32xf32, #ttnn_layout43>, tensor<64x13x32xbf16, #ttnn_layout45>) -> tensor<64x13x32xbf16, #ttnn_layout45>
        %128 = ttir.empty() : tensor<64x13x32xf32, #ttnn_layout43>
        %129 = "ttir.multiply"(%75, %117, %128) : (tensor<64x13x32xf32, #ttnn_layout43>, tensor<1x13x32xf32, #ttnn_layout23>, tensor<64x13x32xf32, #ttnn_layout43>) -> tensor<64x13x32xf32, #ttnn_layout43>
        %130 = ttir.empty() : tensor<64x13x32xbf16, #ttnn_layout45>
        %131 = "ttir.typecast"(%129, %130) <{conservative_folding = false}> : (tensor<64x13x32xf32, #ttnn_layout43>, tensor<64x13x32xbf16, #ttnn_layout45>) -> tensor<64x13x32xbf16, #ttnn_layout45>
        %132 = ttir.empty() : tensor<64x13x32xbf16, #ttnn_layout45>
        %133 = "ttir.add"(%127, %131, %132) : (tensor<64x13x32xbf16, #ttnn_layout45>, tensor<64x13x32xbf16, #ttnn_layout45>, tensor<64x13x32xbf16, #ttnn_layout45>) -> tensor<64x13x32xbf16, #ttnn_layout45>
        %134 = ttir.empty() : tensor<64x13x64xbf16, #ttnn_layout46>
        %135 = "ttir.concat"(%123, %133, %134) <{dim = 2 : si32}> : (tensor<64x13x32xbf16, #ttnn_layout45>, tensor<64x13x32xbf16, #ttnn_layout45>, tensor<64x13x64xbf16, #ttnn_layout46>) -> tensor<64x13x64xbf16, #ttnn_layout46>
        %136 = ttir.empty() : tensor<13x512xbf16, #ttnn_layout47>
        %137 = "ttir.matmul"(%57, %arg9, %136) <{transpose_a = false, transpose_b = true}> : (tensor<13x2880xbf16, #ttnn_layout8>, tensor<512x2880xbf16, #ttnn_layout1>, tensor<13x512xbf16, #ttnn_layout47>) -> tensor<13x512xbf16, #ttnn_layout47>
        %138 = ttir.empty() : tensor<1x1x8x64xbf16, #ttnn_layout48>
        %139 = "ttir.reshape"(%arg8, %138) <{shape = [1 : i32, 1 : i32, 8 : i32, 64 : i32]}> : (tensor<512xbf16, #ttnn_layout>, tensor<1x1x8x64xbf16, #ttnn_layout48>) -> tensor<1x1x8x64xbf16, #ttnn_layout48>
        %140 = ttir.empty() : tensor<1x8x1x64xbf16, #ttnn_layout20>
        %141 = "ttir.permute"(%139, %140) <{permutation = array<i64: 0, 2, 1, 3>}> : (tensor<1x1x8x64xbf16, #ttnn_layout48>, tensor<1x8x1x64xbf16, #ttnn_layout20>) -> tensor<1x8x1x64xbf16, #ttnn_layout20>
        %142 = ttir.empty() : tensor<1x13x8x64xbf16, #ttnn_layout19>
        %143 = "ttir.reshape"(%137, %142) <{shape = [1 : i32, 13 : i32, 8 : i32, 64 : i32]}> : (tensor<13x512xbf16, #ttnn_layout47>, tensor<1x13x8x64xbf16, #ttnn_layout19>) -> tensor<1x13x8x64xbf16, #ttnn_layout19>
        %144 = ttir.empty() : tensor<1x8x13x64xbf16, #ttnn_layout20>
        %145 = "ttir.permute"(%143, %144) <{permutation = array<i64: 0, 2, 1, 3>}> : (tensor<1x13x8x64xbf16, #ttnn_layout19>, tensor<1x8x13x64xbf16, #ttnn_layout20>) -> tensor<1x8x13x64xbf16, #ttnn_layout20>
        %146 = ttir.empty() : tensor<1x8x13x64xbf16, #ttnn_layout20>
        %147 = "ttir.add"(%145, %141, %146) : (tensor<1x8x13x64xbf16, #ttnn_layout20>, tensor<1x8x1x64xbf16, #ttnn_layout20>, tensor<1x8x13x64xbf16, #ttnn_layout20>) -> tensor<1x8x13x64xbf16, #ttnn_layout20>
        %148 = ttir.empty() : tensor<1x8x13x32xbf16, #ttnn_layout49>
        %149 = "ttir.slice_static"(%147, %148) <{begins = [0 : i32, 0 : i32, 0 : i32, 0 : i32], ends = [1 : i32, 8 : i32, 13 : i32, 32 : i32], step = [1 : i32, 1 : i32, 1 : i32, 1 : i32]}> : (tensor<1x8x13x64xbf16, #ttnn_layout20>, tensor<1x8x13x32xbf16, #ttnn_layout49>) -> tensor<1x8x13x32xbf16, #ttnn_layout49>
        %150 = ttir.empty() : tensor<1x8x13x32xf32, #ttnn_layout50>
        %151 = "ttir.typecast"(%149, %150) <{conservative_folding = false}> : (tensor<1x8x13x32xbf16, #ttnn_layout49>, tensor<1x8x13x32xf32, #ttnn_layout50>) -> tensor<1x8x13x32xf32, #ttnn_layout50>
        %152 = ttir.empty() : tensor<1x8x13x32xf32, #ttnn_layout50>
        %153 = "ttir.multiply"(%151, %93, %152) : (tensor<1x8x13x32xf32, #ttnn_layout50>, tensor<1x1x13x32xf32, #ttnn_layout44>, tensor<1x8x13x32xf32, #ttnn_layout50>) -> tensor<1x8x13x32xf32, #ttnn_layout50>
        %154 = ttir.empty() : tensor<1x8x13x32xbf16, #ttnn_layout49>
        %155 = "ttir.typecast"(%153, %154) <{conservative_folding = false}> : (tensor<1x8x13x32xf32, #ttnn_layout50>, tensor<1x8x13x32xbf16, #ttnn_layout49>) -> tensor<1x8x13x32xbf16, #ttnn_layout49>
        %156 = ttir.empty() : tensor<1x8x13x32xbf16, #ttnn_layout49>
        %157 = "ttir.slice_static"(%147, %156) <{begins = [0 : i32, 0 : i32, 0 : i32, 32 : i32], ends = [1 : i32, 8 : i32, 13 : i32, 64 : i32], step = [1 : i32, 1 : i32, 1 : i32, 1 : i32]}> : (tensor<1x8x13x64xbf16, #ttnn_layout20>, tensor<1x8x13x32xbf16, #ttnn_layout49>) -> tensor<1x8x13x32xbf16, #ttnn_layout49>
        %158 = ttir.empty() : tensor<1x8x13x32xf32, #ttnn_layout50>
        %159 = "ttir.typecast"(%157, %158) <{conservative_folding = false}> : (tensor<1x8x13x32xbf16, #ttnn_layout49>, tensor<1x8x13x32xf32, #ttnn_layout50>) -> tensor<1x8x13x32xf32, #ttnn_layout50>
        %160 = ttir.empty() : tensor<1x8x13x32xf32, #ttnn_layout50>
        %161 = "ttir.multiply"(%159, %115, %160) : (tensor<1x8x13x32xf32, #ttnn_layout50>, tensor<1x1x13x32xf32, #ttnn_layout44>, tensor<1x8x13x32xf32, #ttnn_layout50>) -> tensor<1x8x13x32xf32, #ttnn_layout50>
        %162 = ttir.empty() : tensor<1x8x13x32xbf16, #ttnn_layout49>
        %163 = "ttir.typecast"(%161, %162) <{conservative_folding = false}> : (tensor<1x8x13x32xf32, #ttnn_layout50>, tensor<1x8x13x32xbf16, #ttnn_layout49>) -> tensor<1x8x13x32xbf16, #ttnn_layout49>
        %164 = ttir.empty() : tensor<1x8x13x32xbf16, #ttnn_layout49>
        %165 = "ttir.subtract"(%155, %163, %164) : (tensor<1x8x13x32xbf16, #ttnn_layout49>, tensor<1x8x13x32xbf16, #ttnn_layout49>, tensor<1x8x13x32xbf16, #ttnn_layout49>) -> tensor<1x8x13x32xbf16, #ttnn_layout49>
        %166 = ttir.empty() : tensor<1x8x13x32xf32, #ttnn_layout50>
        %167 = "ttir.multiply"(%159, %93, %166) : (tensor<1x8x13x32xf32, #ttnn_layout50>, tensor<1x1x13x32xf32, #ttnn_layout44>, tensor<1x8x13x32xf32, #ttnn_layout50>) -> tensor<1x8x13x32xf32, #ttnn_layout50>
        %168 = ttir.empty() : tensor<1x8x13x32xbf16, #ttnn_layout49>
        %169 = "ttir.typecast"(%167, %168) <{conservative_folding = false}> : (tensor<1x8x13x32xf32, #ttnn_layout50>, tensor<1x8x13x32xbf16, #ttnn_layout49>) -> tensor<1x8x13x32xbf16, #ttnn_layout49>
        %170 = ttir.empty() : tensor<1x8x13x32xf32, #ttnn_layout50>
        %171 = "ttir.multiply"(%151, %115, %170) : (tensor<1x8x13x32xf32, #ttnn_layout50>, tensor<1x1x13x32xf32, #ttnn_layout44>, tensor<1x8x13x32xf32, #ttnn_layout50>) -> tensor<1x8x13x32xf32, #ttnn_layout50>
        %172 = ttir.empty() : tensor<1x8x13x32xbf16, #ttnn_layout49>
        %173 = "ttir.typecast"(%171, %172) <{conservative_folding = false}> : (tensor<1x8x13x32xf32, #ttnn_layout50>, tensor<1x8x13x32xbf16, #ttnn_layout49>) -> tensor<1x8x13x32xbf16, #ttnn_layout49>
        %174 = ttir.empty() : tensor<1x8x13x32xbf16, #ttnn_layout49>
        %175 = "ttir.add"(%169, %173, %174) : (tensor<1x8x13x32xbf16, #ttnn_layout49>, tensor<1x8x13x32xbf16, #ttnn_layout49>, tensor<1x8x13x32xbf16, #ttnn_layout49>) -> tensor<1x8x13x32xbf16, #ttnn_layout49>
        %176 = ttir.empty() : tensor<1x8x13x64xbf16, #ttnn_layout20>
        %177 = "ttir.concat"(%165, %175, %176) <{dim = 3 : si32}> : (tensor<1x8x13x32xbf16, #ttnn_layout49>, tensor<1x8x13x32xbf16, #ttnn_layout49>, tensor<1x8x13x64xbf16, #ttnn_layout20>) -> tensor<1x8x13x64xbf16, #ttnn_layout20>
        %178 = ttir.empty() : tensor<1x8x1x13x64xbf16, #ttnn_layout51>
        %179 = "ttir.reshape"(%177, %178) <{shape = [1 : i32, 8 : i32, 1 : i32, 13 : i32, 64 : i32]}> : (tensor<1x8x13x64xbf16, #ttnn_layout20>, tensor<1x8x1x13x64xbf16, #ttnn_layout51>) -> tensor<1x8x1x13x64xbf16, #ttnn_layout51>
        %180 = ttir.empty() : tensor<1x8x8x13x64xbf16, #ttnn_layout52>
        %181 = "ttir.broadcast"(%179, %180) <{broadcast_dimensions = array<i64: 1, 1, 8, 1, 1>}> : (tensor<1x8x1x13x64xbf16, #ttnn_layout51>, tensor<1x8x8x13x64xbf16, #ttnn_layout52>) -> tensor<1x8x8x13x64xbf16, #ttnn_layout52>
        %182 = ttir.empty() : tensor<1x64x13x64xbf16, #ttnn_layout39>
        %183 = "ttir.reshape"(%181, %182) <{shape = [1 : i32, 64 : i32, 13 : i32, 64 : i32]}> : (tensor<1x8x8x13x64xbf16, #ttnn_layout52>, tensor<1x64x13x64xbf16, #ttnn_layout39>) -> tensor<1x64x13x64xbf16, #ttnn_layout39>
        %184 = ttir.empty() : tensor<1x64x64x13xbf16, #ttnn_layout53>
        %185 = "ttir.permute"(%183, %184) <{permutation = array<i64: 0, 1, 3, 2>}> : (tensor<1x64x13x64xbf16, #ttnn_layout39>, tensor<1x64x64x13xbf16, #ttnn_layout53>) -> tensor<1x64x64x13xbf16, #ttnn_layout53>
        %186 = ttir.empty() : tensor<64x64x13xbf16, #ttnn_layout54>
        %187 = "ttir.reshape"(%185, %186) <{shape = [64 : i32, 64 : i32, 13 : i32]}> : (tensor<1x64x64x13xbf16, #ttnn_layout53>, tensor<64x64x13xbf16, #ttnn_layout54>) -> tensor<64x64x13xbf16, #ttnn_layout54>
        %188 = ttir.empty() : tensor<64x13x13xbf16, #ttnn_layout45>
        %189 = "ttir.matmul"(%135, %187, %188) <{transpose_a = false, transpose_b = false}> : (tensor<64x13x64xbf16, #ttnn_layout46>, tensor<64x64x13xbf16, #ttnn_layout54>, tensor<64x13x13xbf16, #ttnn_layout45>) -> tensor<64x13x13xbf16, #ttnn_layout45>
        %190 = ttir.empty() : tensor<64x13x13xf32, #ttnn_layout43>
        %191 = "ttir.typecast"(%189, %190) <{conservative_folding = false}> : (tensor<64x13x13xbf16, #ttnn_layout45>, tensor<64x13x13xf32, #ttnn_layout43>) -> tensor<64x13x13xf32, #ttnn_layout43>
        %192 = ttir.empty() : tensor<1x64x13x13xf32, #ttnn_layout42>
        %193 = "ttir.reshape"(%191, %192) <{shape = [1 : i32, 64 : i32, 13 : i32, 13 : i32]}> : (tensor<64x13x13xf32, #ttnn_layout43>, tensor<1x64x13x13xf32, #ttnn_layout42>) -> tensor<1x64x13x13xf32, #ttnn_layout42>
        %194 = ttir.empty() : tensor<1x1x1x1xf32, #ttnn_layout44>
        %195 = "ttir.reshape"(%arg18, %194) <{shape = [1 : i32, 1 : i32, 1 : i32, 1 : i32]}> : (tensor<f32, #ttnn_layout2>, tensor<1x1x1x1xf32, #ttnn_layout44>) -> tensor<1x1x1x1xf32, #ttnn_layout44>
        %196 = ttir.empty() : tensor<1x64x13x13xf32, #ttnn_layout42>
        %197 = "ttir.multiply"(%193, %195, %196) : (tensor<1x64x13x13xf32, #ttnn_layout42>, tensor<1x1x1x1xf32, #ttnn_layout44>, tensor<1x64x13x13xf32, #ttnn_layout42>) -> tensor<1x64x13x13xf32, #ttnn_layout42>
        %198 = ttir.empty() : tensor<1x64x13x13xbf16, #ttnn_layout41>
        %199 = "ttir.typecast"(%197, %198) <{conservative_folding = false}> : (tensor<1x64x13x13xf32, #ttnn_layout42>, tensor<1x64x13x13xbf16, #ttnn_layout41>) -> tensor<1x64x13x13xbf16, #ttnn_layout41>
        %200 = ttir.empty() : tensor<1x1x1x13xsi32, #ttnn_layout55>
        %201 = "ttir.reshape"(%1, %200) <{shape = [1 : i32, 1 : i32, 1 : i32, 13 : i32]}> : (tensor<13xsi32, #ttnn_layout24>, tensor<1x1x1x13xsi32, #ttnn_layout55>) -> tensor<1x1x1x13xsi32, #ttnn_layout55>
        %202 = ttir.empty() : tensor<1x1x1x1xsi32, #ttnn_layout55>
        %203 = "ttir.reshape"(%arg17, %202) <{shape = [1 : i32, 1 : i32, 1 : i32, 1 : i32]}> : (tensor<si32, #ttnn_layout12>, tensor<1x1x1x1xsi32, #ttnn_layout55>) -> tensor<1x1x1x1xsi32, #ttnn_layout55>
        %204 = ttir.empty() : tensor<1x1x13x1xsi32, #ttnn_layout55>
        %205 = "ttir.reshape"(%1, %204) <{shape = [1 : i32, 1 : i32, 13 : i32, 1 : i32]}> : (tensor<13xsi32, #ttnn_layout24>, tensor<1x1x13x1xsi32, #ttnn_layout55>) -> tensor<1x1x13x1xsi32, #ttnn_layout55>
        %206 = ttir.empty() : tensor<1x1x13x1xsi32, #ttnn_layout55>
        %207 = "ttir.subtract"(%205, %203, %206) : (tensor<1x1x13x1xsi32, #ttnn_layout55>, tensor<1x1x1x1xsi32, #ttnn_layout55>, tensor<1x1x13x1xsi32, #ttnn_layout55>) -> tensor<1x1x13x1xsi32, #ttnn_layout55>
        %208 = ttir.empty() : tensor<1x1x13x13xbf16, #ttnn_layout29>
        %209 = "ttir.gt"(%201, %207, %208) : (tensor<1x1x1x13xsi32, #ttnn_layout55>, tensor<1x1x13x1xsi32, #ttnn_layout55>, tensor<1x1x13x13xbf16, #ttnn_layout29>) -> tensor<1x1x13x13xbf16, #ttnn_layout29>
        %210 = ttir.empty() : tensor<1x1x13x13xui8, #ttnn_layout30>
        %211 = "ttir.typecast"(%209, %210) <{conservative_folding = false}> : (tensor<1x1x13x13xbf16, #ttnn_layout29>, tensor<1x1x13x13xui8, #ttnn_layout30>) -> tensor<1x1x13x13xui8, #ttnn_layout30>
        %212 = ttir.empty() : tensor<1x1x13x13xui8, #ttnn_layout30>
        %213 = "ttir.bitwise_and"(%211, %17, %212) : (tensor<1x1x13x13xui8, #ttnn_layout30>, tensor<1x1x1x1xui8, #ttnn_layout30>, tensor<1x1x13x13xui8, #ttnn_layout30>) -> tensor<1x1x13x13xui8, #ttnn_layout30>
        %214 = ttir.empty() : tensor<1x1x13x13xbf16, #ttnn_layout29>
        %215 = "ttir.ne"(%213, %21, %214) : (tensor<1x1x13x13xui8, #ttnn_layout30>, tensor<1x1x1x1xui8, #ttnn_layout30>, tensor<1x1x13x13xbf16, #ttnn_layout29>) -> tensor<1x1x13x13xbf16, #ttnn_layout29>
        %216 = ttir.empty() : tensor<1x1x13x13xui8, #ttnn_layout30>
        %217 = "ttir.typecast"(%215, %216) <{conservative_folding = false}> : (tensor<1x1x13x13xbf16, #ttnn_layout29>, tensor<1x1x13x13xui8, #ttnn_layout30>) -> tensor<1x1x13x13xui8, #ttnn_layout30>
        %218 = ttir.empty() : tensor<1x1x13x1xsi32, #ttnn_layout55>
        %219 = "ttir.reshape"(%1, %218) <{shape = [1 : i32, 1 : i32, 13 : i32, 1 : i32]}> : (tensor<13xsi32, #ttnn_layout24>, tensor<1x1x13x1xsi32, #ttnn_layout55>) -> tensor<1x1x13x1xsi32, #ttnn_layout55>
        %220 = ttir.empty() : tensor<1x1x13x13xbf16, #ttnn_layout29>
        %221 = "ttir.le"(%201, %219, %220) : (tensor<1x1x1x13xsi32, #ttnn_layout55>, tensor<1x1x13x1xsi32, #ttnn_layout55>, tensor<1x1x13x13xbf16, #ttnn_layout29>) -> tensor<1x1x13x13xbf16, #ttnn_layout29>
        %222 = ttir.empty() : tensor<1x1x13x13xui8, #ttnn_layout30>
        %223 = "ttir.typecast"(%221, %222) <{conservative_folding = false}> : (tensor<1x1x13x13xbf16, #ttnn_layout29>, tensor<1x1x13x13xui8, #ttnn_layout30>) -> tensor<1x1x13x13xui8, #ttnn_layout30>
        %224 = ttir.empty() : tensor<1x1x13x13xui8, #ttnn_layout30>
        %225 = "ttir.bitwise_and"(%217, %223, %224) : (tensor<1x1x13x13xui8, #ttnn_layout30>, tensor<1x1x13x13xui8, #ttnn_layout30>, tensor<1x1x13x13xui8, #ttnn_layout30>) -> tensor<1x1x13x13xui8, #ttnn_layout30>
        %226 = ttir.empty() : tensor<1x1x13x13xbf16, #ttnn_layout29>
        %227 = "ttir.ne"(%225, %21, %226) : (tensor<1x1x13x13xui8, #ttnn_layout30>, tensor<1x1x1x1xui8, #ttnn_layout30>, tensor<1x1x13x13xbf16, #ttnn_layout29>) -> tensor<1x1x13x13xbf16, #ttnn_layout29>
        %228 = ttir.empty() : tensor<1x1x1x1xbf16, #ttnn_layout29>
        %229 = "ttir.reshape"(%arg16, %228) <{shape = [1 : i32, 1 : i32, 1 : i32, 1 : i32]}> : (tensor<bf16, #ttnn_layout11>, tensor<1x1x1x1xbf16, #ttnn_layout29>) -> tensor<1x1x1x1xbf16, #ttnn_layout29>
        %230 = ttir.empty() : tensor<1x1x13x13xbf16, #ttnn_layout29>
        %231 = "ttir.where"(%227, %15, %229, %230) : (tensor<1x1x13x13xbf16, #ttnn_layout29>, tensor<1x1x1x1xbf16, #ttnn_layout29>, tensor<1x1x1x1xbf16, #ttnn_layout29>, tensor<1x1x13x13xbf16, #ttnn_layout29>) -> tensor<1x1x13x13xbf16, #ttnn_layout29>
        %232 = ttir.empty() : tensor<1x64x13x13xbf16, #ttnn_layout41>
        %233 = "ttir.add"(%199, %231, %232) : (tensor<1x64x13x13xbf16, #ttnn_layout41>, tensor<1x1x13x13xbf16, #ttnn_layout29>, tensor<1x64x13x13xbf16, #ttnn_layout41>) -> tensor<1x64x13x13xbf16, #ttnn_layout41>
        %234 = ttir.empty() : tensor<1x64x1x1xbf16, #ttnn_layout41>
        %235 = "ttir.reshape"(%arg15, %234) <{shape = [1 : i32, 64 : i32, 1 : i32, 1 : i32]}> : (tensor<64xbf16, #ttnn_layout10>, tensor<1x64x1x1xbf16, #ttnn_layout41>) -> tensor<1x64x1x1xbf16, #ttnn_layout41>
        %236 = ttir.empty() : tensor<1x64x13x1xbf16, #ttnn_layout41>
        %237 = "ttir.broadcast"(%235, %236) <{broadcast_dimensions = array<i64: 1, 1, 13, 1>}> : (tensor<1x64x1x1xbf16, #ttnn_layout41>, tensor<1x64x13x1xbf16, #ttnn_layout41>) -> tensor<1x64x13x1xbf16, #ttnn_layout41>
        %238 = ttir.empty() : tensor<1x64x13x14xbf16, #ttnn_layout41>
        %239 = "ttir.concat"(%233, %237, %238) <{dim = 3 : si32}> : (tensor<1x64x13x13xbf16, #ttnn_layout41>, tensor<1x64x13x1xbf16, #ttnn_layout41>, tensor<1x64x13x14xbf16, #ttnn_layout41>) -> tensor<1x64x13x14xbf16, #ttnn_layout41>
        %240 = ttir.empty() : tensor<13x512xbf16, #ttnn_layout47>
        %241 = "ttir.matmul"(%57, %arg1, %240) <{transpose_a = false, transpose_b = true}> : (tensor<13x2880xbf16, #ttnn_layout8>, tensor<512x2880xbf16, #ttnn_layout1>, tensor<13x512xbf16, #ttnn_layout47>) -> tensor<13x512xbf16, #ttnn_layout47>
        %242 = ttir.empty() : tensor<1x13x512xbf16, #ttnn_layout18>
        %243 = "ttir.reshape"(%241, %242) <{shape = [1 : i32, 13 : i32, 512 : i32]}> : (tensor<13x512xbf16, #ttnn_layout47>, tensor<1x13x512xbf16, #ttnn_layout18>) -> tensor<1x13x512xbf16, #ttnn_layout18>
        %244 = ttir.empty() : tensor<1x1x512xbf16, #ttnn_layout18>
        %245 = "ttir.reshape"(%arg0, %244) <{shape = [1 : i32, 1 : i32, 512 : i32]}> : (tensor<512xbf16, #ttnn_layout>, tensor<1x1x512xbf16, #ttnn_layout18>) -> tensor<1x1x512xbf16, #ttnn_layout18>
        %246 = ttir.empty() : tensor<1x13x512xbf16, #ttnn_layout18>
        %247 = "ttir.add"(%243, %245, %246) : (tensor<1x13x512xbf16, #ttnn_layout18>, tensor<1x1x512xbf16, #ttnn_layout18>, tensor<1x13x512xbf16, #ttnn_layout18>) -> tensor<1x13x512xbf16, #ttnn_layout18>
        %248 = ttir.empty() : tensor<1x13x8x64xbf16, #ttnn_layout19>
        %249 = "ttir.reshape"(%247, %248) <{shape = [1 : i32, 13 : i32, 8 : i32, 64 : i32]}> : (tensor<1x13x512xbf16, #ttnn_layout18>, tensor<1x13x8x64xbf16, #ttnn_layout19>) -> tensor<1x13x8x64xbf16, #ttnn_layout19>
        %250 = ttir.empty() : tensor<1x8x13x64xbf16, #ttnn_layout20>
        %251 = "ttir.permute"(%249, %250) <{permutation = array<i64: 0, 2, 1, 3>}> : (tensor<1x13x8x64xbf16, #ttnn_layout19>, tensor<1x8x13x64xbf16, #ttnn_layout20>) -> tensor<1x8x13x64xbf16, #ttnn_layout20>
        %252 = ttir.empty() : tensor<2880xf32, #ttnn_layout31>
        %253 = "ttir.typecast"(%arg30, %252) <{conservative_folding = false}> : (tensor<2880xbf16, #ttnn_layout5>, tensor<2880xf32, #ttnn_layout31>) -> tensor<2880xf32, #ttnn_layout31>
        %254 = ttir.empty() : tensor<1x2880xf32, #ttnn_layout32>
        %255 = "ttir.reshape"(%253, %254) <{shape = [1 : i32, 2880 : i32]}> : (tensor<2880xf32, #ttnn_layout31>, tensor<1x2880xf32, #ttnn_layout32>) -> tensor<1x2880xf32, #ttnn_layout32>
        %256 = ttir.empty() : tensor<1x64x13x14xbf16, #ttnn_layout41>
        %257 = "ttir.softmax"(%239, %256) <{dimension = 3 : si32, numericStable = true}> : (tensor<1x64x13x14xbf16, #ttnn_layout41>, tensor<1x64x13x14xbf16, #ttnn_layout41>) -> tensor<1x64x13x14xbf16, #ttnn_layout41>
        %258 = ttir.empty() : tensor<1x64x13x13xbf16, #ttnn_layout41>
        %259 = "ttir.slice_static"(%257, %258) <{begins = [0 : i32, 0 : i32, 0 : i32, 0 : i32], ends = [1 : i32, 64 : i32, 13 : i32, 13 : i32], step = [1 : i32, 1 : i32, 1 : i32, 1 : i32]}> : (tensor<1x64x13x14xbf16, #ttnn_layout41>, tensor<1x64x13x13xbf16, #ttnn_layout41>) -> tensor<1x64x13x13xbf16, #ttnn_layout41>
        %260 = ttir.empty() : tensor<64x13x13xbf16, #ttnn_layout45>
        %261 = "ttir.reshape"(%259, %260) <{shape = [64 : i32, 13 : i32, 13 : i32]}> : (tensor<1x64x13x13xbf16, #ttnn_layout41>, tensor<64x13x13xbf16, #ttnn_layout45>) -> tensor<64x13x13xbf16, #ttnn_layout45>
        %262 = ttir.empty() : tensor<1x8x1x13x64xbf16, #ttnn_layout51>
        %263 = "ttir.reshape"(%251, %262) <{shape = [1 : i32, 8 : i32, 1 : i32, 13 : i32, 64 : i32]}> : (tensor<1x8x13x64xbf16, #ttnn_layout20>, tensor<1x8x1x13x64xbf16, #ttnn_layout51>) -> tensor<1x8x1x13x64xbf16, #ttnn_layout51>
        %264 = ttir.empty() : tensor<1x8x8x13x64xbf16, #ttnn_layout52>
        %265 = "ttir.broadcast"(%263, %264) <{broadcast_dimensions = array<i64: 1, 1, 8, 1, 1>}> : (tensor<1x8x1x13x64xbf16, #ttnn_layout51>, tensor<1x8x8x13x64xbf16, #ttnn_layout52>) -> tensor<1x8x8x13x64xbf16, #ttnn_layout52>
        %266 = ttir.empty() : tensor<64x13x64xbf16, #ttnn_layout46>
        %267 = "ttir.reshape"(%265, %266) <{shape = [64 : i32, 13 : i32, 64 : i32]}> : (tensor<1x8x8x13x64xbf16, #ttnn_layout52>, tensor<64x13x64xbf16, #ttnn_layout46>) -> tensor<64x13x64xbf16, #ttnn_layout46>
        %268 = ttir.empty() : tensor<64x13x64xbf16, #ttnn_layout46>
        %269 = "ttir.matmul"(%261, %267, %268) <{transpose_a = false, transpose_b = false}> : (tensor<64x13x13xbf16, #ttnn_layout45>, tensor<64x13x64xbf16, #ttnn_layout46>, tensor<64x13x64xbf16, #ttnn_layout46>) -> tensor<64x13x64xbf16, #ttnn_layout46>
        %270 = ttir.empty() : tensor<1x64x13x64xbf16, #ttnn_layout39>
        %271 = "ttir.reshape"(%269, %270) <{shape = [1 : i32, 64 : i32, 13 : i32, 64 : i32]}> : (tensor<64x13x64xbf16, #ttnn_layout46>, tensor<1x64x13x64xbf16, #ttnn_layout39>) -> tensor<1x64x13x64xbf16, #ttnn_layout39>
        %272 = ttir.empty() : tensor<13x4096xbf16, #ttnn_layout37>
        %273 = ttir.empty() : tensor<1x13x4096xbf16, #ttnn_layout56>
        %274 = "ttir.concatenate_heads"(%271, %273) : (tensor<1x64x13x64xbf16, #ttnn_layout39>, tensor<1x13x4096xbf16, #ttnn_layout56>) -> tensor<1x13x4096xbf16, #ttnn_layout56>
        %275 = "ttir.reshape"(%274, %272) <{shape = [13 : i32, 4096 : i32]}> : (tensor<1x13x4096xbf16, #ttnn_layout56>, tensor<13x4096xbf16, #ttnn_layout37>) -> tensor<13x4096xbf16, #ttnn_layout37>
        %276 = ttir.empty() : tensor<13x2880xbf16, #ttnn_layout8>
        %277 = "ttir.matmul"(%275, %arg14, %276) <{transpose_a = false, transpose_b = true}> : (tensor<13x4096xbf16, #ttnn_layout37>, tensor<2880x4096xbf16, #ttnn_layout9>, tensor<13x2880xbf16, #ttnn_layout8>) -> tensor<13x2880xbf16, #ttnn_layout8>
        %278 = ttir.empty() : tensor<1x13x2880xbf16, #ttnn_layout35>
        %279 = "ttir.reshape"(%277, %278) <{shape = [1 : i32, 13 : i32, 2880 : i32]}> : (tensor<13x2880xbf16, #ttnn_layout8>, tensor<1x13x2880xbf16, #ttnn_layout35>) -> tensor<1x13x2880xbf16, #ttnn_layout35>
        %280 = ttir.empty() : tensor<1x1x2880xbf16, #ttnn_layout35>
        %281 = "ttir.reshape"(%arg13, %280) <{shape = [1 : i32, 1 : i32, 2880 : i32]}> : (tensor<2880xbf16, #ttnn_layout5>, tensor<1x1x2880xbf16, #ttnn_layout35>) -> tensor<1x1x2880xbf16, #ttnn_layout35>
        %282 = ttir.empty() : tensor<1x13x2880xbf16, #ttnn_layout35>
        %283 = "ttir.add"(%279, %281, %282) : (tensor<1x13x2880xbf16, #ttnn_layout35>, tensor<1x1x2880xbf16, #ttnn_layout35>, tensor<1x13x2880xbf16, #ttnn_layout35>) -> tensor<1x13x2880xbf16, #ttnn_layout35>
        %284 = ttir.empty() : tensor<1x13x2880xbf16, #ttnn_layout35>
        %285 = "ttir.add"(%33, %283, %284) : (tensor<1x13x2880xbf16, #ttnn_layout35>, tensor<1x13x2880xbf16, #ttnn_layout35>, tensor<1x13x2880xbf16, #ttnn_layout35>) -> tensor<1x13x2880xbf16, #ttnn_layout35>
        %286 = ttir.empty() : tensor<1x1x1xbf16, #ttnn_layout28>
        %287 = "ttir.reshape"(%arg29, %286) <{shape = [1 : i32, 1 : i32, 1 : i32]}> : (tensor<bf16, #ttnn_layout11>, tensor<1x1x1xbf16, #ttnn_layout28>) -> tensor<1x1x1xbf16, #ttnn_layout28>
        %288 = ttir.empty() : tensor<32x13x2880xbf16, #ttnn_layout57>
        %289 = "ttir.broadcast"(%287, %288) <{broadcast_dimensions = array<i64: 32, 13, 2880>}> : (tensor<1x1x1xbf16, #ttnn_layout28>, tensor<32x13x2880xbf16, #ttnn_layout57>) -> tensor<32x13x2880xbf16, #ttnn_layout57>
        %290 = ttir.empty() : tensor<2880xf32, #ttnn_layout31>
        %291 = "ttir.typecast"(%arg21, %290) <{conservative_folding = false}> : (tensor<2880xbf16, #ttnn_layout5>, tensor<2880xf32, #ttnn_layout31>) -> tensor<2880xf32, #ttnn_layout31>
        %292 = ttir.empty() : tensor<1x2880xf32, #ttnn_layout32>
        %293 = "ttir.reshape"(%291, %292) <{shape = [1 : i32, 2880 : i32]}> : (tensor<2880xf32, #ttnn_layout31>, tensor<1x2880xf32, #ttnn_layout32>) -> tensor<1x2880xf32, #ttnn_layout32>
        %294 = ttir.empty() : tensor<1x13x2880xf32, #ttnn_layout36>
        %295 = "ttir.typecast"(%285, %294) <{conservative_folding = false}> : (tensor<1x13x2880xbf16, #ttnn_layout35>, tensor<1x13x2880xf32, #ttnn_layout36>) -> tensor<1x13x2880xf32, #ttnn_layout36>
        %296 = ttir.empty() : tensor<1x13x2880xf32, #ttnn_layout36>
        %297 = "ttir.pow"(%295, %19, %296) : (tensor<1x13x2880xf32, #ttnn_layout36>, tensor<1x1x1xf32, #ttnn_layout23>, tensor<1x13x2880xf32, #ttnn_layout36>) -> tensor<1x13x2880xf32, #ttnn_layout36>
        %298 = ttir.empty() : tensor<1x13xf32, #ttnn_layout26>
        %299 = "ttir.sum"(%297, %298) <{dim_arg = [2 : i32], keep_dim = false}> : (tensor<1x13x2880xf32, #ttnn_layout36>, tensor<1x13xf32, #ttnn_layout26>) -> tensor<1x13xf32, #ttnn_layout26>
        %300 = ttir.empty() : tensor<1x13xf32, #ttnn_layout26>
        %301 = "ttir.multiply"(%299, %4, %300) : (tensor<1x13xf32, #ttnn_layout26>, tensor<1x13xf32, #ttnn_layout26>, tensor<1x13xf32, #ttnn_layout26>) -> tensor<1x13xf32, #ttnn_layout26>
        %302 = ttir.empty() : tensor<13x1xf32, #ttnn_layout26>
        %303 = "ttir.reshape"(%301, %302) <{shape = [13 : i32, 1 : i32]}> : (tensor<1x13xf32, #ttnn_layout26>, tensor<13x1xf32, #ttnn_layout26>) -> tensor<13x1xf32, #ttnn_layout26>
        %304 = ttir.empty() : tensor<13x1xf32, #ttnn_layout26>
        %305 = "ttir.add"(%303, %45, %304) : (tensor<13x1xf32, #ttnn_layout26>, tensor<1x1xf32, #ttnn_layout26>, tensor<13x1xf32, #ttnn_layout26>) -> tensor<13x1xf32, #ttnn_layout26>
        %306 = ttir.empty() : tensor<13x1xf32, #ttnn_layout26>
        %307 = "ttir.rsqrt"(%305, %306) : (tensor<13x1xf32, #ttnn_layout26>, tensor<13x1xf32, #ttnn_layout26>) -> tensor<13x1xf32, #ttnn_layout26>
        %308 = ttir.empty() : tensor<13x2880xf32, #ttnn_layout32>
        %309 = "ttir.reshape"(%295, %308) <{shape = [13 : i32, 2880 : i32]}> : (tensor<1x13x2880xf32, #ttnn_layout36>, tensor<13x2880xf32, #ttnn_layout32>) -> tensor<13x2880xf32, #ttnn_layout32>
        %310 = ttir.empty() : tensor<13x2880xf32, #ttnn_layout32>
        %311 = "ttir.multiply"(%309, %307, %310) : (tensor<13x2880xf32, #ttnn_layout32>, tensor<13x1xf32, #ttnn_layout26>, tensor<13x2880xf32, #ttnn_layout32>) -> tensor<13x2880xf32, #ttnn_layout32>
        %312 = ttir.empty() : tensor<13x2880xf32, #ttnn_layout32>
        %313 = "ttir.multiply"(%293, %311, %312) : (tensor<1x2880xf32, #ttnn_layout32>, tensor<13x2880xf32, #ttnn_layout32>, tensor<13x2880xf32, #ttnn_layout32>) -> tensor<13x2880xf32, #ttnn_layout32>
        %314 = ttir.empty() : tensor<13x2880xbf16, #ttnn_layout8>
        %315 = "ttir.typecast"(%313, %314) <{conservative_folding = false}> : (tensor<13x2880xf32, #ttnn_layout32>, tensor<13x2880xbf16, #ttnn_layout8>) -> tensor<13x2880xbf16, #ttnn_layout8>
        %316 = ttir.empty() : tensor<416x2880xbf16, #ttnn_layout58>
        %317 = "ttir.concat"(%315, %315, %315, %315, %315, %315, %315, %315, %315, %315, %315, %315, %315, %315, %315, %315, %315, %315, %315, %315, %315, %315, %315, %315, %315, %315, %315, %315, %315, %315, %315, %315, %316) <{dim = 0 : si32}> : (tensor<13x2880xbf16, #ttnn_layout8>, tensor<13x2880xbf16, #ttnn_layout8>, tensor<13x2880xbf16, #ttnn_layout8>, tensor<13x2880xbf16, #ttnn_layout8>, tensor<13x2880xbf16, #ttnn_layout8>, tensor<13x2880xbf16, #ttnn_layout8>, tensor<13x2880xbf16, #ttnn_layout8>, tensor<13x2880xbf16, #ttnn_layout8>, tensor<13x2880xbf16, #ttnn_layout8>, tensor<13x2880xbf16, #ttnn_layout8>, tensor<13x2880xbf16, #ttnn_layout8>, tensor<13x2880xbf16, #ttnn_layout8>, tensor<13x2880xbf16, #ttnn_layout8>, tensor<13x2880xbf16, #ttnn_layout8>, tensor<13x2880xbf16, #ttnn_layout8>, tensor<13x2880xbf16, #ttnn_layout8>, tensor<13x2880xbf16, #ttnn_layout8>, tensor<13x2880xbf16, #ttnn_layout8>, tensor<13x2880xbf16, #ttnn_layout8>, tensor<13x2880xbf16, #ttnn_layout8>, tensor<13x2880xbf16, #ttnn_layout8>, tensor<13x2880xbf16, #ttnn_layout8>, tensor<13x2880xbf16, #ttnn_layout8>, tensor<13x2880xbf16, #ttnn_layout8>, tensor<13x2880xbf16, #ttnn_layout8>, tensor<13x2880xbf16, #ttnn_layout8>, tensor<13x2880xbf16, #ttnn_layout8>, tensor<13x2880xbf16, #ttnn_layout8>, tensor<13x2880xbf16, #ttnn_layout8>, tensor<13x2880xbf16, #ttnn_layout8>, tensor<13x2880xbf16, #ttnn_layout8>, tensor<13x2880xbf16, #ttnn_layout8>, tensor<416x2880xbf16, #ttnn_layout58>) -> tensor<416x2880xbf16, #ttnn_layout58>
        %318 = ttir.empty() : tensor<32x13x2880xbf16, #ttnn_layout57>
        %319 = "ttir.reshape"(%317, %318) <{shape = [32 : i32, 13 : i32, 2880 : i32]}> : (tensor<416x2880xbf16, #ttnn_layout58>, tensor<32x13x2880xbf16, #ttnn_layout57>) -> tensor<32x13x2880xbf16, #ttnn_layout57>
        %320 = ttir.empty() : tensor<32x13x5760xbf16, #ttnn_layout59>
        %321 = "ttir.matmul"(%319, %arg28, %320) <{transpose_a = false, transpose_b = false}> : (tensor<32x13x2880xbf16, #ttnn_layout57>, tensor<32x2880x5760xbf16, #ttnn_layout17>, tensor<32x13x5760xbf16, #ttnn_layout59>) -> tensor<32x13x5760xbf16, #ttnn_layout59>
        %322 = ttir.empty() : tensor<32x1x5760xbf16, #ttnn_layout59>
        %323 = "ttir.reshape"(%arg27, %322) <{shape = [32 : i32, 1 : i32, 5760 : i32]}> : (tensor<32x5760xbf16, #ttnn_layout16>, tensor<32x1x5760xbf16, #ttnn_layout59>) -> tensor<32x1x5760xbf16, #ttnn_layout59>
        %324 = ttir.empty() : tensor<32x13x5760xbf16, #ttnn_layout59>
        %325 = "ttir.add"(%321, %323, %324) : (tensor<32x13x5760xbf16, #ttnn_layout59>, tensor<32x1x5760xbf16, #ttnn_layout59>, tensor<32x13x5760xbf16, #ttnn_layout59>) -> tensor<32x13x5760xbf16, #ttnn_layout59>
        %326 = ttir.empty() : tensor<32x13x2880xbf16, #ttnn_layout57>
        %327 = "ttir.slice_static"(%325, %326) <{begins = [0 : i32, 0 : i32, 1 : i32], ends = [32 : i32, 13 : i32, 5760 : i32], step = [1 : i32, 1 : i32, 2 : i32]}> : (tensor<32x13x5760xbf16, #ttnn_layout59>, tensor<32x13x2880xbf16, #ttnn_layout57>) -> tensor<32x13x2880xbf16, #ttnn_layout57>
        %328 = ttir.empty() : tensor<1x1x1xbf16, #ttnn_layout28>
        %329 = "ttir.reshape"(%arg25, %328) <{shape = [1 : i32, 1 : i32, 1 : i32]}> : (tensor<bf16, #ttnn_layout11>, tensor<1x1x1xbf16, #ttnn_layout28>) -> tensor<1x1x1xbf16, #ttnn_layout28>
        %330 = ttir.empty() : tensor<32x13x2880xbf16, #ttnn_layout57>
        %331 = "ttir.broadcast"(%329, %330) <{broadcast_dimensions = array<i64: 32, 13, 2880>}> : (tensor<1x1x1xbf16, #ttnn_layout28>, tensor<32x13x2880xbf16, #ttnn_layout57>) -> tensor<32x13x2880xbf16, #ttnn_layout57>
        %332 = ttir.empty() : tensor<32x13x2880xbf16, #ttnn_layout57>
        %333 = "ttir.clamp_tensor"(%327, %289, %331, %332) : (tensor<32x13x2880xbf16, #ttnn_layout57>, tensor<32x13x2880xbf16, #ttnn_layout57>, tensor<32x13x2880xbf16, #ttnn_layout57>, tensor<32x13x2880xbf16, #ttnn_layout57>) -> tensor<32x13x2880xbf16, #ttnn_layout57>
        %334 = ttir.empty() : tensor<32x13x2880xbf16, #ttnn_layout57>
        %335 = "ttir.add"(%333, %13, %334) : (tensor<32x13x2880xbf16, #ttnn_layout57>, tensor<1x1x1xbf16, #ttnn_layout28>, tensor<32x13x2880xbf16, #ttnn_layout57>) -> tensor<32x13x2880xbf16, #ttnn_layout57>
        %336 = ttir.empty() : tensor<32x13x2880xf32, #ttnn_layout60>
        %337 = "ttir.typecast"(%335, %336) <{conservative_folding = false}> : (tensor<32x13x2880xbf16, #ttnn_layout57>, tensor<32x13x2880xf32, #ttnn_layout60>) -> tensor<32x13x2880xf32, #ttnn_layout60>
        %338 = ttir.empty() : tensor<1x1x1xbf16, #ttnn_layout28>
        %339 = "ttir.reshape"(%arg26, %338) <{shape = [1 : i32, 1 : i32, 1 : i32]}> : (tensor<bf16, #ttnn_layout11>, tensor<1x1x1xbf16, #ttnn_layout28>) -> tensor<1x1x1xbf16, #ttnn_layout28>
        %340 = ttir.empty() : tensor<32x13x2880xbf16, #ttnn_layout57>
        %341 = "ttir.broadcast"(%339, %340) <{broadcast_dimensions = array<i64: 32, 13, 2880>}> : (tensor<1x1x1xbf16, #ttnn_layout28>, tensor<32x13x2880xbf16, #ttnn_layout57>) -> tensor<32x13x2880xbf16, #ttnn_layout57>
        %342 = ttir.empty() : tensor<32x13x2880xbf16, #ttnn_layout57>
        %343 = "ttir.slice_static"(%325, %342) <{begins = [0 : i32, 0 : i32, 0 : i32], ends = [32 : i32, 13 : i32, 5760 : i32], step = [1 : i32, 1 : i32, 2 : i32]}> : (tensor<32x13x5760xbf16, #ttnn_layout59>, tensor<32x13x2880xbf16, #ttnn_layout57>) -> tensor<32x13x2880xbf16, #ttnn_layout57>
        %344 = ttir.empty() : tensor<32x13x2880xbf16, #ttnn_layout57>
        %345 = "ttir.clamp_tensor"(%343, %341, %331, %344) : (tensor<32x13x2880xbf16, #ttnn_layout57>, tensor<32x13x2880xbf16, #ttnn_layout57>, tensor<32x13x2880xbf16, #ttnn_layout57>, tensor<32x13x2880xbf16, #ttnn_layout57>) -> tensor<32x13x2880xbf16, #ttnn_layout57>
        %346 = ttir.empty() : tensor<32x13x2880xf32, #ttnn_layout60>
        %347 = "ttir.typecast"(%345, %346) <{conservative_folding = false}> : (tensor<32x13x2880xbf16, #ttnn_layout57>, tensor<32x13x2880xf32, #ttnn_layout60>) -> tensor<32x13x2880xf32, #ttnn_layout60>
        %348 = ttir.empty() : tensor<1x1x1xf32, #ttnn_layout23>
        %349 = "ttir.reshape"(%arg24, %348) <{shape = [1 : i32, 1 : i32, 1 : i32]}> : (tensor<f32, #ttnn_layout2>, tensor<1x1x1xf32, #ttnn_layout23>) -> tensor<1x1x1xf32, #ttnn_layout23>
        %350 = ttir.empty() : tensor<32x13x2880xf32, #ttnn_layout60>
        %351 = "ttir.multiply"(%347, %349, %350) : (tensor<32x13x2880xf32, #ttnn_layout60>, tensor<1x1x1xf32, #ttnn_layout23>, tensor<32x13x2880xf32, #ttnn_layout60>) -> tensor<32x13x2880xf32, #ttnn_layout60>
        %352 = ttir.empty() : tensor<32x13x2880xbf16, #ttnn_layout57>
        %353 = "ttir.typecast"(%351, %352) <{conservative_folding = false}> : (tensor<32x13x2880xf32, #ttnn_layout60>, tensor<32x13x2880xbf16, #ttnn_layout57>) -> tensor<32x13x2880xbf16, #ttnn_layout57>
        %354 = ttir.empty() : tensor<32x13x2880xbf16, #ttnn_layout57>
        %355 = "ttir.sigmoid"(%353, %354) : (tensor<32x13x2880xbf16, #ttnn_layout57>, tensor<32x13x2880xbf16, #ttnn_layout57>) -> tensor<32x13x2880xbf16, #ttnn_layout57>
        %356 = ttir.empty() : tensor<32x13x2880xf32, #ttnn_layout60>
        %357 = "ttir.typecast"(%355, %356) <{conservative_folding = false}> : (tensor<32x13x2880xbf16, #ttnn_layout57>, tensor<32x13x2880xf32, #ttnn_layout60>) -> tensor<32x13x2880xf32, #ttnn_layout60>
        %358 = ttir.empty() : tensor<32x13x2880xf32, #ttnn_layout60>
        %359 = "ttir.multiply"(%347, %357, %358) : (tensor<32x13x2880xf32, #ttnn_layout60>, tensor<32x13x2880xf32, #ttnn_layout60>, tensor<32x13x2880xf32, #ttnn_layout60>) -> tensor<32x13x2880xf32, #ttnn_layout60>
        %360 = ttir.empty() : tensor<32x13x2880xf32, #ttnn_layout60>
        %361 = "ttir.multiply"(%337, %359, %360) : (tensor<32x13x2880xf32, #ttnn_layout60>, tensor<32x13x2880xf32, #ttnn_layout60>, tensor<32x13x2880xf32, #ttnn_layout60>) -> tensor<32x13x2880xf32, #ttnn_layout60>
        %362 = ttir.empty() : tensor<32x13x2880xbf16, #ttnn_layout57>
        %363 = "ttir.typecast"(%361, %362) <{conservative_folding = false}> : (tensor<32x13x2880xf32, #ttnn_layout60>, tensor<32x13x2880xbf16, #ttnn_layout57>) -> tensor<32x13x2880xbf16, #ttnn_layout57>
        %364 = ttir.empty() : tensor<32x13x2880xbf16, #ttnn_layout57>
        %365 = "ttir.matmul"(%363, %arg23, %364) <{transpose_a = false, transpose_b = false}> : (tensor<32x13x2880xbf16, #ttnn_layout57>, tensor<32x2880x2880xbf16, #ttnn_layout15>, tensor<32x13x2880xbf16, #ttnn_layout57>) -> tensor<32x13x2880xbf16, #ttnn_layout57>
        %366 = ttir.empty() : tensor<32x1x1x2880xbf16, #ttnn_layout61>
        %367 = "ttir.reshape"(%arg22, %366) <{shape = [32 : i32, 1 : i32, 1 : i32, 2880 : i32]}> : (tensor<32x2880xbf16, #ttnn_layout8>, tensor<32x1x1x2880xbf16, #ttnn_layout61>) -> tensor<32x1x1x2880xbf16, #ttnn_layout61>
        %368 = ttir.empty() : tensor<32x1x13x2880xbf16, #ttnn_layout61>
        %369 = "ttir.reshape"(%365, %368) <{shape = [32 : i32, 1 : i32, 13 : i32, 2880 : i32]}> : (tensor<32x13x2880xbf16, #ttnn_layout57>, tensor<32x1x13x2880xbf16, #ttnn_layout61>) -> tensor<32x1x13x2880xbf16, #ttnn_layout61>
        %370 = ttir.empty() : tensor<32x1x13x2880xbf16, #ttnn_layout61>
        %371 = "ttir.add"(%369, %367, %370) : (tensor<32x1x13x2880xbf16, #ttnn_layout61>, tensor<32x1x1x2880xbf16, #ttnn_layout61>, tensor<32x1x13x2880xbf16, #ttnn_layout61>) -> tensor<32x1x13x2880xbf16, #ttnn_layout61>
        %372 = ttir.empty() : tensor<32x1x13x2880xf32, #ttnn_layout62>
        %373 = "ttir.typecast"(%371, %372) <{conservative_folding = false}> : (tensor<32x1x13x2880xbf16, #ttnn_layout61>, tensor<32x1x13x2880xf32, #ttnn_layout62>) -> tensor<32x1x13x2880xf32, #ttnn_layout62>
        %374 = "ttir.arange"() <{arange_dimension = 0 : i64, end = 13 : si64, start = 0 : si64, step = 1 : si64}> : () -> tensor<13xsi32, #ttnn_layout24>
        %375 = ttir.empty() : tensor<13x1x1xsi32, #ttnn_layout63>
        %376 = "ttir.reshape"(%374, %375) <{shape = [13 : i32, 1 : i32, 1 : i32]}> : (tensor<13xsi32, #ttnn_layout24>, tensor<13x1x1xsi32, #ttnn_layout63>) -> tensor<13x1x1xsi32, #ttnn_layout63>
        %377 = ttir.empty() : tensor<13x4x1xsi32, #ttnn_layout63>
        %378 = "ttir.broadcast"(%376, %377) <{broadcast_dimensions = array<i64: 1, 4, 1>}> : (tensor<13x1x1xsi32, #ttnn_layout63>, tensor<13x4x1xsi32, #ttnn_layout63>) -> tensor<13x4x1xsi32, #ttnn_layout63>
        %379 = ttir.empty() : tensor<13x32xbf16, #ttnn_layout27>
        %380 = "ttir.matmul"(%315, %arg12, %379) <{transpose_a = false, transpose_b = true}> : (tensor<13x2880xbf16, #ttnn_layout8>, tensor<32x2880xbf16, #ttnn_layout8>, tensor<13x32xbf16, #ttnn_layout27>) -> tensor<13x32xbf16, #ttnn_layout27>
        %381 = ttir.empty() : tensor<1x32xbf16, #ttnn_layout27>
        %382 = "ttir.reshape"(%arg11, %381) <{shape = [1 : i32, 32 : i32]}> : (tensor<32xbf16, #ttnn_layout7>, tensor<1x32xbf16, #ttnn_layout27>) -> tensor<1x32xbf16, #ttnn_layout27>
        %383 = ttir.empty() : tensor<13x32xbf16, #ttnn_layout27>
        %384 = "ttir.add"(%380, %382, %383) : (tensor<13x32xbf16, #ttnn_layout27>, tensor<1x32xbf16, #ttnn_layout27>, tensor<13x32xbf16, #ttnn_layout27>) -> tensor<13x32xbf16, #ttnn_layout27>
        %385 = ttir.empty() : tensor<13x32xbf16, #ttnn_layout27>
        %386 = ttir.empty() : tensor<13x32xsi32, #ttnn_layout3>
        %values, %indices = "ttir.sort"(%384, %385, %386) <{descending = true, dim = 1 : si32, stable = false}> : (tensor<13x32xbf16, #ttnn_layout27>, tensor<13x32xbf16, #ttnn_layout27>, tensor<13x32xsi32, #ttnn_layout3>) -> (tensor<13x32xbf16, #ttnn_layout27>, tensor<13x32xsi32, #ttnn_layout3>)
        %387 = ttir.empty() : tensor<13x4xsi32, #ttnn_layout3>
        %388 = "ttir.slice_static"(%indices, %387) <{begins = [0 : i32, 0 : i32], ends = [13 : i32, 4 : i32], step = [1 : i32, 1 : i32]}> : (tensor<13x32xsi32, #ttnn_layout3>, tensor<13x4xsi32, #ttnn_layout3>) -> tensor<13x4xsi32, #ttnn_layout3>
        %389 = ttir.empty() : tensor<13x4x1xsi32, #ttnn_layout63>
        %390 = "ttir.reshape"(%388, %389) <{shape = [13 : i32, 4 : i32, 1 : i32]}> : (tensor<13x4xsi32, #ttnn_layout3>, tensor<13x4x1xsi32, #ttnn_layout63>) -> tensor<13x4x1xsi32, #ttnn_layout63>
        %391 = ttir.empty() : tensor<13x4x2xsi32, #ttnn_layout63>
        %392 = "ttir.concat"(%378, %390, %391) <{dim = 2 : si32}> : (tensor<13x4x1xsi32, #ttnn_layout63>, tensor<13x4x1xsi32, #ttnn_layout63>, tensor<13x4x2xsi32, #ttnn_layout63>) -> tensor<13x4x2xsi32, #ttnn_layout63>
        %393 = ttir.empty() : tensor<13x4xbf16, #ttnn_layout27>
        %394 = "ttir.slice_static"(%values, %393) <{begins = [0 : i32, 0 : i32], ends = [13 : i32, 4 : i32], step = [1 : i32, 1 : i32]}> : (tensor<13x32xbf16, #ttnn_layout27>, tensor<13x4xbf16, #ttnn_layout27>) -> tensor<13x4xbf16, #ttnn_layout27>
        %395 = ttir.empty() : tensor<13x4xbf16, #ttnn_layout27>
        %396 = "ttir.softmax"(%394, %395) <{dimension = 1 : si32, numericStable = true}> : (tensor<13x4xbf16, #ttnn_layout27>, tensor<13x4xbf16, #ttnn_layout27>) -> tensor<13x4xbf16, #ttnn_layout27>
        %397 = ttir.empty() : tensor<13x32xbf16, #ttnn_layout27>
        %398 = "ttir.scatter"(%11, %392, %396, %397) <{index_vector_dim = 2 : i32, indices_are_sorted = false, input_batching_dims = array<i32>, inserted_window_dims = array<i32: 0, 1>, scatter_dims_to_operand_dims = array<i32: 0, 1>, scatter_indices_batching_dims = array<i32>, unique_indices = false, update_window_dims = array<i32>}> : (tensor<13x32xbf16, #ttnn_layout27>, tensor<13x4x2xsi32, #ttnn_layout63>, tensor<13x4xbf16, #ttnn_layout27>, tensor<13x32xbf16, #ttnn_layout27>) -> tensor<13x32xbf16, #ttnn_layout27>
        %399 = ttir.empty() : tensor<13x32xf32, #ttnn_layout26>
        %400 = "ttir.typecast"(%398, %399) <{conservative_folding = false}> : (tensor<13x32xbf16, #ttnn_layout27>, tensor<13x32xf32, #ttnn_layout26>) -> tensor<13x32xf32, #ttnn_layout26>
        %401 = ttir.empty() : tensor<32x13xf32, #ttnn_layout26>
        %402 = "ttir.permute"(%400, %401) <{permutation = array<i64: 1, 0>}> : (tensor<13x32xf32, #ttnn_layout26>, tensor<32x13xf32, #ttnn_layout26>) -> tensor<32x13xf32, #ttnn_layout26>
        %403 = ttir.empty() : tensor<32x1x13x1xf32, #ttnn_layout64>
        %404 = "ttir.reshape"(%402, %403) <{shape = [32 : i32, 1 : i32, 13 : i32, 1 : i32]}> : (tensor<32x13xf32, #ttnn_layout26>, tensor<32x1x13x1xf32, #ttnn_layout64>) -> tensor<32x1x13x1xf32, #ttnn_layout64>
        %405 = ttir.empty() : tensor<32x1x13x2880xf32, #ttnn_layout62>
        %406 = "ttir.multiply"(%373, %404, %405) : (tensor<32x1x13x2880xf32, #ttnn_layout62>, tensor<32x1x13x1xf32, #ttnn_layout64>, tensor<32x1x13x2880xf32, #ttnn_layout62>) -> tensor<32x1x13x2880xf32, #ttnn_layout62>
        %407 = ttir.empty() : tensor<32x1x13x2880xbf16, #ttnn_layout61>
        %408 = "ttir.typecast"(%406, %407) <{conservative_folding = false}> : (tensor<32x1x13x2880xf32, #ttnn_layout62>, tensor<32x1x13x2880xbf16, #ttnn_layout61>) -> tensor<32x1x13x2880xbf16, #ttnn_layout61>
        %409 = ttir.empty() : tensor<1x13x2880xbf16, #ttnn_layout35>
        %410 = "ttir.sum"(%408, %409) <{dim_arg = [0 : i32], keep_dim = false}> : (tensor<32x1x13x2880xbf16, #ttnn_layout61>, tensor<1x13x2880xbf16, #ttnn_layout35>) -> tensor<1x13x2880xbf16, #ttnn_layout35>
        %411 = ttir.empty() : tensor<1x13x2880xbf16, #ttnn_layout35>
        %412 = "ttir.add"(%285, %410, %411) : (tensor<1x13x2880xbf16, #ttnn_layout35>, tensor<1x13x2880xbf16, #ttnn_layout35>, tensor<1x13x2880xbf16, #ttnn_layout35>) -> tensor<1x13x2880xbf16, #ttnn_layout35>
        %413 = ttir.empty() : tensor<1x13x2880xf32, #ttnn_layout36>
        %414 = "ttir.typecast"(%412, %413) <{conservative_folding = false}> : (tensor<1x13x2880xbf16, #ttnn_layout35>, tensor<1x13x2880xf32, #ttnn_layout36>) -> tensor<1x13x2880xf32, #ttnn_layout36>
        %415 = ttir.empty() : tensor<1x13x2880xf32, #ttnn_layout36>
        %416 = "ttir.pow"(%414, %19, %415) : (tensor<1x13x2880xf32, #ttnn_layout36>, tensor<1x1x1xf32, #ttnn_layout23>, tensor<1x13x2880xf32, #ttnn_layout36>) -> tensor<1x13x2880xf32, #ttnn_layout36>
        %417 = ttir.empty() : tensor<1x13xf32, #ttnn_layout26>
        %418 = "ttir.sum"(%416, %417) <{dim_arg = [2 : i32], keep_dim = false}> : (tensor<1x13x2880xf32, #ttnn_layout36>, tensor<1x13xf32, #ttnn_layout26>) -> tensor<1x13xf32, #ttnn_layout26>
        %419 = ttir.empty() : tensor<1x13xf32, #ttnn_layout26>
        %420 = "ttir.multiply"(%418, %4, %419) : (tensor<1x13xf32, #ttnn_layout26>, tensor<1x13xf32, #ttnn_layout26>, tensor<1x13xf32, #ttnn_layout26>) -> tensor<1x13xf32, #ttnn_layout26>
        %421 = ttir.empty() : tensor<13x1xf32, #ttnn_layout26>
        %422 = "ttir.reshape"(%420, %421) <{shape = [13 : i32, 1 : i32]}> : (tensor<1x13xf32, #ttnn_layout26>, tensor<13x1xf32, #ttnn_layout26>) -> tensor<13x1xf32, #ttnn_layout26>
        %423 = ttir.empty() : tensor<13x1xf32, #ttnn_layout26>
        %424 = "ttir.add"(%422, %45, %423) : (tensor<13x1xf32, #ttnn_layout26>, tensor<1x1xf32, #ttnn_layout26>, tensor<13x1xf32, #ttnn_layout26>) -> tensor<13x1xf32, #ttnn_layout26>
        %425 = ttir.empty() : tensor<13x1xf32, #ttnn_layout26>
        %426 = "ttir.rsqrt"(%424, %425) : (tensor<13x1xf32, #ttnn_layout26>, tensor<13x1xf32, #ttnn_layout26>) -> tensor<13x1xf32, #ttnn_layout26>
        %427 = ttir.empty() : tensor<13x2880xf32, #ttnn_layout32>
        %428 = "ttir.reshape"(%414, %427) <{shape = [13 : i32, 2880 : i32]}> : (tensor<1x13x2880xf32, #ttnn_layout36>, tensor<13x2880xf32, #ttnn_layout32>) -> tensor<13x2880xf32, #ttnn_layout32>
        %429 = ttir.empty() : tensor<13x2880xf32, #ttnn_layout32>
        %430 = "ttir.multiply"(%428, %426, %429) : (tensor<13x2880xf32, #ttnn_layout32>, tensor<13x1xf32, #ttnn_layout26>, tensor<13x2880xf32, #ttnn_layout32>) -> tensor<13x2880xf32, #ttnn_layout32>
        %431 = ttir.empty() : tensor<13x2880xf32, #ttnn_layout32>
        %432 = "ttir.multiply"(%255, %430, %431) : (tensor<1x2880xf32, #ttnn_layout32>, tensor<13x2880xf32, #ttnn_layout32>, tensor<13x2880xf32, #ttnn_layout32>) -> tensor<13x2880xf32, #ttnn_layout32>
        %433 = ttir.empty() : tensor<13x2880xbf16, #ttnn_layout8>
        %434 = "ttir.typecast"(%432, %433) <{conservative_folding = false}> : (tensor<13x2880xf32, #ttnn_layout32>, tensor<13x2880xbf16, #ttnn_layout8>) -> tensor<13x2880xbf16, #ttnn_layout8>
        %435 = ttir.empty() : tensor<13x201088xbf16, #ttnn_layout21>
        %436 = "ttir.matmul"(%434, %arg10, %435) <{transpose_a = false, transpose_b = true}> : (tensor<13x2880xbf16, #ttnn_layout8>, tensor<201088x2880xbf16, #ttnn_layout4>, tensor<13x201088xbf16, #ttnn_layout21>) -> tensor<13x201088xbf16, #ttnn_layout21>
        %437 = ttir.empty() : tensor<1x13x201088xbf16, #ttnn_layout22>
        %438 = "ttir.reshape"(%436, %437) <{shape = [1 : i32, 13 : i32, 201088 : i32]}> : (tensor<13x201088xbf16, #ttnn_layout21>, tensor<1x13x201088xbf16, #ttnn_layout22>) -> tensor<1x13x201088xbf16, #ttnn_layout22>
        return %247, %249, %251, %177, %436, %438 : tensor<1x13x512xbf16, #ttnn_layout18>, tensor<1x13x8x64xbf16, #ttnn_layout19>, tensor<1x8x13x64xbf16, #ttnn_layout20>, tensor<1x8x13x64xbf16, #ttnn_layout20>, tensor<13x201088xbf16, #ttnn_layout21>, tensor<1x13x201088xbf16, #ttnn_layout22>
      }
    }
  }
}


Running Tensor Parallel Inference
[HET PYTH] get_op_sharding_v2
[HET PYTH] get_op_sharding_v2
[HET PYTH] get_op_sharding_v2
[HET PYTH] get_op_sharding_v2
[HET PYTH] get_op_sharding_v2
[HET PYTH] get_op_sharding_v2
[HET PYTH] get_op_sharding_v2
[HET PYTH] get_op_sharding_v2
[HET PYTH] get_op_sharding_v2
[HET PYTH] get_op_sharding_v2
[HET PYTH] get_op_sharding_v2
[HET PYTH] get_op_sharding_v2
[HET PYTH] get_op_sharding_v2
[HET PYTH] get_op_sharding_v2
[HET PYTH] get_op_sharding_v2
[HET PYTH] get_op_sharding_v2
Tensor parallel sharding applied successfully!
Preparing inputs for TP: batch_size=1, seq_length=13
[HET PYTH] get_op_sharding_v2
Error during execution: Error code: 13
