WARNING:root:Defaulting to PJRT_DEVICE=CPU
2025-09-15 19:25:04.060534: W torch_xla/csrc/runtime/profiler.cpp:88] Profiler API not found for PJRT plugin
Torch-XLA SPMD Tensor Parallelism for GPT-OSS 20B Model
==================================================
Setting up XLA environment...
XLA environment configured.
Created device mesh: (1, 8) with 8 devices
Loading model...
Loading checkpoint shards:   0%|          | 0/3 [00:00<?, ?it/s]Loading checkpoint shards: 100%|██████████| 3/3 [00:00<00:00, 218.74it/s]
Some weights of the model checkpoint at openai/gpt-oss-20b were not used when initializing GptOssForCausalLM: ['model.layers.0.mlp.experts.down_proj_blocks', 'model.layers.0.mlp.experts.down_proj_scales', 'model.layers.0.mlp.experts.gate_up_proj_blocks', 'model.layers.0.mlp.experts.gate_up_proj_scales', 'model.layers.1.input_layernorm.weight', 'model.layers.1.mlp.experts.down_proj_bias', 'model.layers.1.mlp.experts.down_proj_blocks', 'model.layers.1.mlp.experts.down_proj_scales', 'model.layers.1.mlp.experts.gate_up_proj_bias', 'model.layers.1.mlp.experts.gate_up_proj_blocks', 'model.layers.1.mlp.experts.gate_up_proj_scales', 'model.layers.1.mlp.router.bias', 'model.layers.1.mlp.router.weight', 'model.layers.1.post_attention_layernorm.weight', 'model.layers.1.self_attn.k_proj.bias', 'model.layers.1.self_attn.k_proj.weight', 'model.layers.1.self_attn.o_proj.bias', 'model.layers.1.self_attn.o_proj.weight', 'model.layers.1.self_attn.q_proj.bias', 'model.layers.1.self_attn.q_proj.weight', 'model.layers.1.self_attn.sinks', 'model.layers.1.self_attn.v_proj.bias', 'model.layers.1.self_attn.v_proj.weight', 'model.layers.10.input_layernorm.weight', 'model.layers.10.mlp.experts.down_proj_bias', 'model.layers.10.mlp.experts.down_proj_blocks', 'model.layers.10.mlp.experts.down_proj_scales', 'model.layers.10.mlp.experts.gate_up_proj_bias', 'model.layers.10.mlp.experts.gate_up_proj_blocks', 'model.layers.10.mlp.experts.gate_up_proj_scales', 'model.layers.10.mlp.router.bias', 'model.layers.10.mlp.router.weight', 'model.layers.10.post_attention_layernorm.weight', 'model.layers.10.self_attn.k_proj.bias', 'model.layers.10.self_attn.k_proj.weight', 'model.layers.10.self_attn.o_proj.bias', 'model.layers.10.self_attn.o_proj.weight', 'model.layers.10.self_attn.q_proj.bias', 'model.layers.10.self_attn.q_proj.weight', 'model.layers.10.self_attn.sinks', 'model.layers.10.self_attn.v_proj.bias', 'model.layers.10.self_attn.v_proj.weight', 'model.layers.11.input_layernorm.weight', 'model.layers.11.mlp.experts.down_proj_bias', 'model.layers.11.mlp.experts.down_proj_blocks', 'model.layers.11.mlp.experts.down_proj_scales', 'model.layers.11.mlp.experts.gate_up_proj_bias', 'model.layers.11.mlp.experts.gate_up_proj_blocks', 'model.layers.11.mlp.experts.gate_up_proj_scales', 'model.layers.11.mlp.router.bias', 'model.layers.11.mlp.router.weight', 'model.layers.11.post_attention_layernorm.weight', 'model.layers.11.self_attn.k_proj.bias', 'model.layers.11.self_attn.k_proj.weight', 'model.layers.11.self_attn.o_proj.bias', 'model.layers.11.self_attn.o_proj.weight', 'model.layers.11.self_attn.q_proj.bias', 'model.layers.11.self_attn.q_proj.weight', 'model.layers.11.self_attn.sinks', 'model.layers.11.self_attn.v_proj.bias', 'model.layers.11.self_attn.v_proj.weight', 'model.layers.12.input_layernorm.weight', 'model.layers.12.mlp.experts.down_proj_bias', 'model.layers.12.mlp.experts.down_proj_blocks', 'model.layers.12.mlp.experts.down_proj_scales', 'model.layers.12.mlp.experts.gate_up_proj_bias', 'model.layers.12.mlp.experts.gate_up_proj_blocks', 'model.layers.12.mlp.experts.gate_up_proj_scales', 'model.layers.12.mlp.router.bias', 'model.layers.12.mlp.router.weight', 'model.layers.12.post_attention_layernorm.weight', 'model.layers.12.self_attn.k_proj.bias', 'model.layers.12.self_attn.k_proj.weight', 'model.layers.12.self_attn.o_proj.bias', 'model.layers.12.self_attn.o_proj.weight', 'model.layers.12.self_attn.q_proj.bias', 'model.layers.12.self_attn.q_proj.weight', 'model.layers.12.self_attn.sinks', 'model.layers.12.self_attn.v_proj.bias', 'model.layers.12.self_attn.v_proj.weight', 'model.layers.13.input_layernorm.weight', 'model.layers.13.mlp.experts.down_proj_bias', 'model.layers.13.mlp.experts.down_proj_blocks', 'model.layers.13.mlp.experts.down_proj_scales', 'model.layers.13.mlp.experts.gate_up_proj_bias', 'model.layers.13.mlp.experts.gate_up_proj_blocks', 'model.layers.13.mlp.experts.gate_up_proj_scales', 'model.layers.13.mlp.router.bias', 'model.layers.13.mlp.router.weight', 'model.layers.13.post_attention_layernorm.weight', 'model.layers.13.self_attn.k_proj.bias', 'model.layers.13.self_attn.k_proj.weight', 'model.layers.13.self_attn.o_proj.bias', 'model.layers.13.self_attn.o_proj.weight', 'model.layers.13.self_attn.q_proj.bias', 'model.layers.13.self_attn.q_proj.weight', 'model.layers.13.self_attn.sinks', 'model.layers.13.self_attn.v_proj.bias', 'model.layers.13.self_attn.v_proj.weight', 'model.layers.14.input_layernorm.weight', 'model.layers.14.mlp.experts.down_proj_bias', 'model.layers.14.mlp.experts.down_proj_blocks', 'model.layers.14.mlp.experts.down_proj_scales', 'model.layers.14.mlp.experts.gate_up_proj_bias', 'model.layers.14.mlp.experts.gate_up_proj_blocks', 'model.layers.14.mlp.experts.gate_up_proj_scales', 'model.layers.14.mlp.router.bias', 'model.layers.14.mlp.router.weight', 'model.layers.14.post_attention_layernorm.weight', 'model.layers.14.self_attn.k_proj.bias', 'model.layers.14.self_attn.k_proj.weight', 'model.layers.14.self_attn.o_proj.bias', 'model.layers.14.self_attn.o_proj.weight', 'model.layers.14.self_attn.q_proj.bias', 'model.layers.14.self_attn.q_proj.weight', 'model.layers.14.self_attn.sinks', 'model.layers.14.self_attn.v_proj.bias', 'model.layers.14.self_attn.v_proj.weight', 'model.layers.15.input_layernorm.weight', 'model.layers.15.mlp.experts.down_proj_bias', 'model.layers.15.mlp.experts.down_proj_blocks', 'model.layers.15.mlp.experts.down_proj_scales', 'model.layers.15.mlp.experts.gate_up_proj_bias', 'model.layers.15.mlp.experts.gate_up_proj_blocks', 'model.layers.15.mlp.experts.gate_up_proj_scales', 'model.layers.15.mlp.router.bias', 'model.layers.15.mlp.router.weight', 'model.layers.15.post_attention_layernorm.weight', 'model.layers.15.self_attn.k_proj.bias', 'model.layers.15.self_attn.k_proj.weight', 'model.layers.15.self_attn.o_proj.bias', 'model.layers.15.self_attn.o_proj.weight', 'model.layers.15.self_attn.q_proj.bias', 'model.layers.15.self_attn.q_proj.weight', 'model.layers.15.self_attn.sinks', 'model.layers.15.self_attn.v_proj.bias', 'model.layers.15.self_attn.v_proj.weight', 'model.layers.16.input_layernorm.weight', 'model.layers.16.mlp.experts.down_proj_bias', 'model.layers.16.mlp.experts.down_proj_blocks', 'model.layers.16.mlp.experts.down_proj_scales', 'model.layers.16.mlp.experts.gate_up_proj_bias', 'model.layers.16.mlp.experts.gate_up_proj_blocks', 'model.layers.16.mlp.experts.gate_up_proj_scales', 'model.layers.16.mlp.router.bias', 'model.layers.16.mlp.router.weight', 'model.layers.16.post_attention_layernorm.weight', 'model.layers.16.self_attn.k_proj.bias', 'model.layers.16.self_attn.k_proj.weight', 'model.layers.16.self_attn.o_proj.bias', 'model.layers.16.self_attn.o_proj.weight', 'model.layers.16.self_attn.q_proj.bias', 'model.layers.16.self_attn.q_proj.weight', 'model.layers.16.self_attn.sinks', 'model.layers.16.self_attn.v_proj.bias', 'model.layers.16.self_attn.v_proj.weight', 'model.layers.17.input_layernorm.weight', 'model.layers.17.mlp.experts.down_proj_bias', 'model.layers.17.mlp.experts.down_proj_blocks', 'model.layers.17.mlp.experts.down_proj_scales', 'model.layers.17.mlp.experts.gate_up_proj_bias', 'model.layers.17.mlp.experts.gate_up_proj_blocks', 'model.layers.17.mlp.experts.gate_up_proj_scales', 'model.layers.17.mlp.router.bias', 'model.layers.17.mlp.router.weight', 'model.layers.17.post_attention_layernorm.weight', 'model.layers.17.self_attn.k_proj.bias', 'model.layers.17.self_attn.k_proj.weight', 'model.layers.17.self_attn.o_proj.bias', 'model.layers.17.self_attn.o_proj.weight', 'model.layers.17.self_attn.q_proj.bias', 'model.layers.17.self_attn.q_proj.weight', 'model.layers.17.self_attn.sinks', 'model.layers.17.self_attn.v_proj.bias', 'model.layers.17.self_attn.v_proj.weight', 'model.layers.18.input_layernorm.weight', 'model.layers.18.mlp.experts.down_proj_bias', 'model.layers.18.mlp.experts.down_proj_blocks', 'model.layers.18.mlp.experts.down_proj_scales', 'model.layers.18.mlp.experts.gate_up_proj_bias', 'model.layers.18.mlp.experts.gate_up_proj_blocks', 'model.layers.18.mlp.experts.gate_up_proj_scales', 'model.layers.18.mlp.router.bias', 'model.layers.18.mlp.router.weight', 'model.layers.18.post_attention_layernorm.weight', 'model.layers.18.self_attn.k_proj.bias', 'model.layers.18.self_attn.k_proj.weight', 'model.layers.18.self_attn.o_proj.bias', 'model.layers.18.self_attn.o_proj.weight', 'model.layers.18.self_attn.q_proj.bias', 'model.layers.18.self_attn.q_proj.weight', 'model.layers.18.self_attn.sinks', 'model.layers.18.self_attn.v_proj.bias', 'model.layers.18.self_attn.v_proj.weight', 'model.layers.19.input_layernorm.weight', 'model.layers.19.mlp.experts.down_proj_bias', 'model.layers.19.mlp.experts.down_proj_blocks', 'model.layers.19.mlp.experts.down_proj_scales', 'model.layers.19.mlp.experts.gate_up_proj_bias', 'model.layers.19.mlp.experts.gate_up_proj_blocks', 'model.layers.19.mlp.experts.gate_up_proj_scales', 'model.layers.19.mlp.router.bias', 'model.layers.19.mlp.router.weight', 'model.layers.19.post_attention_layernorm.weight', 'model.layers.19.self_attn.k_proj.bias', 'model.layers.19.self_attn.k_proj.weight', 'model.layers.19.self_attn.o_proj.bias', 'model.layers.19.self_attn.o_proj.weight', 'model.layers.19.self_attn.q_proj.bias', 'model.layers.19.self_attn.q_proj.weight', 'model.layers.19.self_attn.sinks', 'model.layers.19.self_attn.v_proj.bias', 'model.layers.19.self_attn.v_proj.weight', 'model.layers.2.input_layernorm.weight', 'model.layers.2.mlp.experts.down_proj_bias', 'model.layers.2.mlp.experts.down_proj_blocks', 'model.layers.2.mlp.experts.down_proj_scales', 'model.layers.2.mlp.experts.gate_up_proj_bias', 'model.layers.2.mlp.experts.gate_up_proj_blocks', 'model.layers.2.mlp.experts.gate_up_proj_scales', 'model.layers.2.mlp.router.bias', 'model.layers.2.mlp.router.weight', 'model.layers.2.post_attention_layernorm.weight', 'model.layers.2.self_attn.k_proj.bias', 'model.layers.2.self_attn.k_proj.weight', 'model.layers.2.self_attn.o_proj.bias', 'model.layers.2.self_attn.o_proj.weight', 'model.layers.2.self_attn.q_proj.bias', 'model.layers.2.self_attn.q_proj.weight', 'model.layers.2.self_attn.sinks', 'model.layers.2.self_attn.v_proj.bias', 'model.layers.2.self_attn.v_proj.weight', 'model.layers.20.input_layernorm.weight', 'model.layers.20.mlp.experts.down_proj_bias', 'model.layers.20.mlp.experts.down_proj_blocks', 'model.layers.20.mlp.experts.down_proj_scales', 'model.layers.20.mlp.experts.gate_up_proj_bias', 'model.layers.20.mlp.experts.gate_up_proj_blocks', 'model.layers.20.mlp.experts.gate_up_proj_scales', 'model.layers.20.mlp.router.bias', 'model.layers.20.mlp.router.weight', 'model.layers.20.post_attention_layernorm.weight', 'model.layers.20.self_attn.k_proj.bias', 'model.layers.20.self_attn.k_proj.weight', 'model.layers.20.self_attn.o_proj.bias', 'model.layers.20.self_attn.o_proj.weight', 'model.layers.20.self_attn.q_proj.bias', 'model.layers.20.self_attn.q_proj.weight', 'model.layers.20.self_attn.sinks', 'model.layers.20.self_attn.v_proj.bias', 'model.layers.20.self_attn.v_proj.weight', 'model.layers.21.input_layernorm.weight', 'model.layers.21.mlp.experts.down_proj_bias', 'model.layers.21.mlp.experts.down_proj_blocks', 'model.layers.21.mlp.experts.down_proj_scales', 'model.layers.21.mlp.experts.gate_up_proj_bias', 'model.layers.21.mlp.experts.gate_up_proj_blocks', 'model.layers.21.mlp.experts.gate_up_proj_scales', 'model.layers.21.mlp.router.bias', 'model.layers.21.mlp.router.weight', 'model.layers.21.post_attention_layernorm.weight', 'model.layers.21.self_attn.k_proj.bias', 'model.layers.21.self_attn.k_proj.weight', 'model.layers.21.self_attn.o_proj.bias', 'model.layers.21.self_attn.o_proj.weight', 'model.layers.21.self_attn.q_proj.bias', 'model.layers.21.self_attn.q_proj.weight', 'model.layers.21.self_attn.sinks', 'model.layers.21.self_attn.v_proj.bias', 'model.layers.21.self_attn.v_proj.weight', 'model.layers.22.input_layernorm.weight', 'model.layers.22.mlp.experts.down_proj_bias', 'model.layers.22.mlp.experts.down_proj_blocks', 'model.layers.22.mlp.experts.down_proj_scales', 'model.layers.22.mlp.experts.gate_up_proj_bias', 'model.layers.22.mlp.experts.gate_up_proj_blocks', 'model.layers.22.mlp.experts.gate_up_proj_scales', 'model.layers.22.mlp.router.bias', 'model.layers.22.mlp.router.weight', 'model.layers.22.post_attention_layernorm.weight', 'model.layers.22.self_attn.k_proj.bias', 'model.layers.22.self_attn.k_proj.weight', 'model.layers.22.self_attn.o_proj.bias', 'model.layers.22.self_attn.o_proj.weight', 'model.layers.22.self_attn.q_proj.bias', 'model.layers.22.self_attn.q_proj.weight', 'model.layers.22.self_attn.sinks', 'model.layers.22.self_attn.v_proj.bias', 'model.layers.22.self_attn.v_proj.weight', 'model.layers.23.input_layernorm.weight', 'model.layers.23.mlp.experts.down_proj_bias', 'model.layers.23.mlp.experts.down_proj_blocks', 'model.layers.23.mlp.experts.down_proj_scales', 'model.layers.23.mlp.experts.gate_up_proj_bias', 'model.layers.23.mlp.experts.gate_up_proj_blocks', 'model.layers.23.mlp.experts.gate_up_proj_scales', 'model.layers.23.mlp.router.bias', 'model.layers.23.mlp.router.weight', 'model.layers.23.post_attention_layernorm.weight', 'model.layers.23.self_attn.k_proj.bias', 'model.layers.23.self_attn.k_proj.weight', 'model.layers.23.self_attn.o_proj.bias', 'model.layers.23.self_attn.o_proj.weight', 'model.layers.23.self_attn.q_proj.bias', 'model.layers.23.self_attn.q_proj.weight', 'model.layers.23.self_attn.sinks', 'model.layers.23.self_attn.v_proj.bias', 'model.layers.23.self_attn.v_proj.weight', 'model.layers.3.input_layernorm.weight', 'model.layers.3.mlp.experts.down_proj_bias', 'model.layers.3.mlp.experts.down_proj_blocks', 'model.layers.3.mlp.experts.down_proj_scales', 'model.layers.3.mlp.experts.gate_up_proj_bias', 'model.layers.3.mlp.experts.gate_up_proj_blocks', 'model.layers.3.mlp.experts.gate_up_proj_scales', 'model.layers.3.mlp.router.bias', 'model.layers.3.mlp.router.weight', 'model.layers.3.post_attention_layernorm.weight', 'model.layers.3.self_attn.k_proj.bias', 'model.layers.3.self_attn.k_proj.weight', 'model.layers.3.self_attn.o_proj.bias', 'model.layers.3.self_attn.o_proj.weight', 'model.layers.3.self_attn.q_proj.bias', 'model.layers.3.self_attn.q_proj.weight', 'model.layers.3.self_attn.sinks', 'model.layers.3.self_attn.v_proj.bias', 'model.layers.3.self_attn.v_proj.weight', 'model.layers.4.input_layernorm.weight', 'model.layers.4.mlp.experts.down_proj_bias', 'model.layers.4.mlp.experts.down_proj_blocks', 'model.layers.4.mlp.experts.down_proj_scales', 'model.layers.4.mlp.experts.gate_up_proj_bias', 'model.layers.4.mlp.experts.gate_up_proj_blocks', 'model.layers.4.mlp.experts.gate_up_proj_scales', 'model.layers.4.mlp.router.bias', 'model.layers.4.mlp.router.weight', 'model.layers.4.post_attention_layernorm.weight', 'model.layers.4.self_attn.k_proj.bias', 'model.layers.4.self_attn.k_proj.weight', 'model.layers.4.self_attn.o_proj.bias', 'model.layers.4.self_attn.o_proj.weight', 'model.layers.4.self_attn.q_proj.bias', 'model.layers.4.self_attn.q_proj.weight', 'model.layers.4.self_attn.sinks', 'model.layers.4.self_attn.v_proj.bias', 'model.layers.4.self_attn.v_proj.weight', 'model.layers.5.input_layernorm.weight', 'model.layers.5.mlp.experts.down_proj_bias', 'model.layers.5.mlp.experts.down_proj_blocks', 'model.layers.5.mlp.experts.down_proj_scales', 'model.layers.5.mlp.experts.gate_up_proj_bias', 'model.layers.5.mlp.experts.gate_up_proj_blocks', 'model.layers.5.mlp.experts.gate_up_proj_scales', 'model.layers.5.mlp.router.bias', 'model.layers.5.mlp.router.weight', 'model.layers.5.post_attention_layernorm.weight', 'model.layers.5.self_attn.k_proj.bias', 'model.layers.5.self_attn.k_proj.weight', 'model.layers.5.self_attn.o_proj.bias', 'model.layers.5.self_attn.o_proj.weight', 'model.layers.5.self_attn.q_proj.bias', 'model.layers.5.self_attn.q_proj.weight', 'model.layers.5.self_attn.sinks', 'model.layers.5.self_attn.v_proj.bias', 'model.layers.5.self_attn.v_proj.weight', 'model.layers.6.input_layernorm.weight', 'model.layers.6.mlp.experts.down_proj_bias', 'model.layers.6.mlp.experts.down_proj_blocks', 'model.layers.6.mlp.experts.down_proj_scales', 'model.layers.6.mlp.experts.gate_up_proj_bias', 'model.layers.6.mlp.experts.gate_up_proj_blocks', 'model.layers.6.mlp.experts.gate_up_proj_scales', 'model.layers.6.mlp.router.bias', 'model.layers.6.mlp.router.weight', 'model.layers.6.post_attention_layernorm.weight', 'model.layers.6.self_attn.k_proj.bias', 'model.layers.6.self_attn.k_proj.weight', 'model.layers.6.self_attn.o_proj.bias', 'model.layers.6.self_attn.o_proj.weight', 'model.layers.6.self_attn.q_proj.bias', 'model.layers.6.self_attn.q_proj.weight', 'model.layers.6.self_attn.sinks', 'model.layers.6.self_attn.v_proj.bias', 'model.layers.6.self_attn.v_proj.weight', 'model.layers.7.input_layernorm.weight', 'model.layers.7.mlp.experts.down_proj_bias', 'model.layers.7.mlp.experts.down_proj_blocks', 'model.layers.7.mlp.experts.down_proj_scales', 'model.layers.7.mlp.experts.gate_up_proj_bias', 'model.layers.7.mlp.experts.gate_up_proj_blocks', 'model.layers.7.mlp.experts.gate_up_proj_scales', 'model.layers.7.mlp.router.bias', 'model.layers.7.mlp.router.weight', 'model.layers.7.post_attention_layernorm.weight', 'model.layers.7.self_attn.k_proj.bias', 'model.layers.7.self_attn.k_proj.weight', 'model.layers.7.self_attn.o_proj.bias', 'model.layers.7.self_attn.o_proj.weight', 'model.layers.7.self_attn.q_proj.bias', 'model.layers.7.self_attn.q_proj.weight', 'model.layers.7.self_attn.sinks', 'model.layers.7.self_attn.v_proj.bias', 'model.layers.7.self_attn.v_proj.weight', 'model.layers.8.input_layernorm.weight', 'model.layers.8.mlp.experts.down_proj_bias', 'model.layers.8.mlp.experts.down_proj_blocks', 'model.layers.8.mlp.experts.down_proj_scales', 'model.layers.8.mlp.experts.gate_up_proj_bias', 'model.layers.8.mlp.experts.gate_up_proj_blocks', 'model.layers.8.mlp.experts.gate_up_proj_scales', 'model.layers.8.mlp.router.bias', 'model.layers.8.mlp.router.weight', 'model.layers.8.post_attention_layernorm.weight', 'model.layers.8.self_attn.k_proj.bias', 'model.layers.8.self_attn.k_proj.weight', 'model.layers.8.self_attn.o_proj.bias', 'model.layers.8.self_attn.o_proj.weight', 'model.layers.8.self_attn.q_proj.bias', 'model.layers.8.self_attn.q_proj.weight', 'model.layers.8.self_attn.sinks', 'model.layers.8.self_attn.v_proj.bias', 'model.layers.8.self_attn.v_proj.weight', 'model.layers.9.input_layernorm.weight', 'model.layers.9.mlp.experts.down_proj_bias', 'model.layers.9.mlp.experts.down_proj_blocks', 'model.layers.9.mlp.experts.down_proj_scales', 'model.layers.9.mlp.experts.gate_up_proj_bias', 'model.layers.9.mlp.experts.gate_up_proj_blocks', 'model.layers.9.mlp.experts.gate_up_proj_scales', 'model.layers.9.mlp.router.bias', 'model.layers.9.mlp.router.weight', 'model.layers.9.post_attention_layernorm.weight', 'model.layers.9.self_attn.k_proj.bias', 'model.layers.9.self_attn.k_proj.weight', 'model.layers.9.self_attn.o_proj.bias', 'model.layers.9.self_attn.o_proj.weight', 'model.layers.9.self_attn.q_proj.bias', 'model.layers.9.self_attn.q_proj.weight', 'model.layers.9.self_attn.sinks', 'model.layers.9.self_attn.v_proj.bias', 'model.layers.9.self_attn.v_proj.weight']
- This IS expected if you are initializing GptOssForCausalLM from the checkpoint of a model trained on another task or with another architecture (e.g. initializing a BertForSequenceClassification model from a BertForPreTraining model).
- This IS NOT expected if you are initializing GptOssForCausalLM from the checkpoint of a model that you expect to be exactly identical (initializing a BertForSequenceClassification model from a BertForSequenceClassification model).
Some weights of GptOssForCausalLM were not initialized from the model checkpoint at openai/gpt-oss-20b and are newly initialized: ['model.layers.0.mlp.experts.down_proj', 'model.layers.0.mlp.experts.gate_up_proj']
You should probably TRAIN this model on a down-stream task to be able to use it for predictions and inference.
Asking to truncate to max_length but no maximum length is provided and the model has no predefined maximum length. Default to no truncation.
[32m                 Always[0m | [1m[38;5;208m WARNING[0m | User provided a tensor of data type: Int64 which is not supported by runtime/ttnn. Casting to: Int32, this may impact throughput and the integrity of the data.
[32m                 Always[0m | [1m[38;5;208m WARNING[0m | User provided a tensor of data type: Int64 which is not supported by runtime/ttnn. Casting to: Int32, this may impact throughput and the integrity of the data.
[32m                 Always[0m | [1m[38;5;208m WARNING[0m | User provided a tensor of data type: Int64 which is not supported by runtime/ttnn. Casting to: Int32, this may impact throughput and the integrity of the data.
[32m                 Always[0m | [1m[38;5;208m WARNING[0m | User provided a tensor of data type: Int64 which is not supported by runtime/ttnn. Casting to: Int32, this may impact throughput and the integrity of the data.
[32m                 Always[0m | [1m[38;5;208m WARNING[0m | User provided a tensor of data type: Int64 which is not supported by runtime/ttnn. Casting to: Int32, this may impact throughput and the integrity of the data.
[32m                 Always[0m | [1m[38;5;208m WARNING[0m | User provided a tensor of data type: Int64 which is not supported by runtime/ttnn. Casting to: Int32, this may impact throughput and the integrity of the data.
[32m                 Always[0m | [1m[38;5;208m WARNING[0m | User provided a tensor of data type: Int64 which is not supported by runtime/ttnn. Casting to: Int32, this may impact throughput and the integrity of the data.
[32m                 Always[0m | [1m[38;5;208m WARNING[0m | User provided a tensor of data type: Int64 which is not supported by runtime/ttnn. Casting to: Int32, this may impact throughput and the integrity of the data.
[32m                 Always[0m | [1m[38;5;208m WARNING[0m | User provided a tensor of data type: Int64 which is not supported by runtime/ttnn. Casting to: Int32, this may impact throughput and the integrity of the data.
[32m                 Always[0m | [1m[38;5;208m WARNING[0m | User provided a tensor of data type: Int64 which is not supported by runtime/ttnn. Casting to: Int32, this may impact throughput and the integrity of the data.
[32m                 Always[0m | [1m[38;5;208m WARNING[0m | User provided a tensor of data type: Int64 which is not supported by runtime/ttnn. Casting to: Int32, this may impact throughput and the integrity of the data.
[32m                 Always[0m | [1m[38;5;208m WARNING[0m | User provided a tensor of data type: Int64 which is not supported by runtime/ttnn. Casting to: Int32, this may impact throughput and the integrity of the data.
[32m                 Always[0m | [1m[38;5;208m WARNING[0m | User provided a tensor of data type: Int64 which is not supported by runtime/ttnn. Casting to: Int32, this may impact throughput and the integrity of the data.
[32m                 Always[0m | [1m[38;5;208m WARNING[0m | User provided a tensor of data type: Int64 which is not supported by runtime/ttnn. Casting to: Int32, this may impact throughput and the integrity of the data.
[32m                 Always[0m | [1m[38;5;208m WARNING[0m | User provided a tensor of data type: Int64 which is not supported by runtime/ttnn. Casting to: Int32, this may impact throughput and the integrity of the data.
[32m                 Always[0m | [1m[38;5;208m WARNING[0m | User provided a tensor of data type: Int64 which is not supported by runtime/ttnn. Casting to: Int32, this may impact throughput and the integrity of the data.
module @SyncTensorsGraph.577 attributes {mhlo.cross_program_prefetches = [], mhlo.frontend_attributes = {xla.sdy.meshes = "{mesh = #sdy.mesh<[\22_axis_0\22=8]>}"}, mhlo.input_output_alias = [], mhlo.is_dynamic = false, mhlo.use_auto_spmd_partitioning = false} {
  vhlo.func_v1 @main(%arg0: !vhlo.tensor_v1<201088x2880x!vhlo.bf16_v1>, %arg1: !vhlo.tensor_v1<!vhlo.f32_v1>, %arg2: !vhlo.tensor_v1<32x!vhlo.bf16_v1>, %arg3: !vhlo.tensor_v1<32x2880x!vhlo.bf16_v1>, %arg4: !vhlo.tensor_v1<2880x!vhlo.bf16_v1>, %arg5: !vhlo.tensor_v1<2880x4096x!vhlo.bf16_v1>, %arg6: !vhlo.tensor_v1<512x!vhlo.bf16_v1>, %arg7: !vhlo.tensor_v1<512x2880x!vhlo.bf16_v1>, %arg8: !vhlo.tensor_v1<1x13x!vhlo.i64_v1>, %arg9: !vhlo.tensor_v1<201088x2880x!vhlo.bf16_v1>, %arg10: !vhlo.tensor_v1<2880x!vhlo.bf16_v1>, %arg11: !vhlo.tensor_v1<64x!vhlo.bf16_v1>, %arg12: !vhlo.tensor_v1<!vhlo.bf16_v1>, %arg13: !vhlo.tensor_v1<!vhlo.i64_v1>, %arg14: !vhlo.tensor_v1<!vhlo.f32_v1>, %arg15: !vhlo.tensor_v1<!vhlo.f32_v1>, %arg16: !vhlo.tensor_v1<32x!vhlo.f32_v1>, %arg17: !vhlo.tensor_v1<512x!vhlo.bf16_v1>, %arg18: !vhlo.tensor_v1<512x2880x!vhlo.bf16_v1>, %arg19: !vhlo.tensor_v1<4096x!vhlo.bf16_v1>, %arg20: !vhlo.tensor_v1<4096x2880x!vhlo.bf16_v1>, %arg21: !vhlo.tensor_v1<2880x!vhlo.bf16_v1>, %arg22: !vhlo.tensor_v1<32x2880x!vhlo.bf16_v1>, %arg23: !vhlo.tensor_v1<32x2880x2880x!vhlo.bf16_v1>, %arg24: !vhlo.tensor_v1<!vhlo.f32_v1>, %arg25: !vhlo.tensor_v1<!vhlo.bf16_v1>, %arg26: !vhlo.tensor_v1<!vhlo.bf16_v1>, %arg27: !vhlo.tensor_v1<32x5760x!vhlo.bf16_v1>, %arg28: !vhlo.tensor_v1<32x2880x5760x!vhlo.bf16_v1>, %arg29: !vhlo.tensor_v1<!vhlo.bf16_v1>, %arg30: !vhlo.tensor_v1<2880x!vhlo.bf16_v1>) -> (!vhlo.tensor_v1<13x201088x!vhlo.bf16_v1>, !vhlo.tensor_v1<1x13x201088x!vhlo.bf16_v1>) {
    %0 = "vhlo.constant_v1"() <{value = #vhlo.tensor_v1<dense<0.000000e+00> : tensor<f32>>}> : () -> !vhlo.tensor_v1<!vhlo.f32_v1>
    %1 = "vhlo.constant_v1"() <{value = #vhlo.tensor_v1<dense<[0, 1, 2, 3, 4, 5, 6, 7, 8, 9, 10, 11, 12]> : tensor<13xi64>>}> : () -> !vhlo.tensor_v1<13x!vhlo.i64_v1>
    %2 = "vhlo.constant_v1"() <{value = #vhlo.tensor_v1<dense<0> : tensor<ui8>>}> : () -> !vhlo.tensor_v1<!vhlo.ui8_v1>
    %3 = "vhlo.constant_v1"() <{value = #vhlo.tensor_v1<dense<0xFF80> : tensor<bf16>>}> : () -> !vhlo.tensor_v1<!vhlo.bf16_v1>
    %4 = "vhlo.constant_v1"() <{value = #vhlo.tensor_v1<dense<2.000000e+00> : tensor<f32>>}> : () -> !vhlo.tensor_v1<!vhlo.f32_v1>
    %5 = "vhlo.constant_v1"() <{value = #vhlo.tensor_v1<dense<3.47222231E-4> : tensor<1x13xf32>>}> : () -> !vhlo.tensor_v1<1x13x!vhlo.f32_v1>
    %6 = "vhlo.constant_v1"() <{value = #vhlo.tensor_v1<dense<[[[0.000000e+00, 1.000000e+00, 2.000000e+00, 3.000000e+00, 4.000000e+00, 5.000000e+00, 6.000000e+00, 7.000000e+00, 8.000000e+00, 9.000000e+00, 1.000000e+01, 1.100000e+01, 1.200000e+01]]]> : tensor<1x1x13xf32>>}> : () -> !vhlo.tensor_v1<1x1x13x!vhlo.f32_v1>
    %7 = "vhlo.constant_v1"() <{value = #vhlo.tensor_v1<dense<1> : tensor<ui8>>}> : () -> !vhlo.tensor_v1<!vhlo.ui8_v1>
    %8 = "vhlo.constant_v1"() <{value = #vhlo.tensor_v1<dense<1.000000e+00> : tensor<bf16>>}> : () -> !vhlo.tensor_v1<!vhlo.bf16_v1>
    %9 = "vhlo.constant_v1"() <{value = #vhlo.tensor_v1<dense<0.000000e+00> : tensor<bf16>>}> : () -> !vhlo.tensor_v1<!vhlo.bf16_v1>
    %10 = "vhlo.broadcast_in_dim_v1"(%9) <{broadcast_dimensions = #vhlo.tensor_v1<dense<> : tensor<0xi64>>}> : (!vhlo.tensor_v1<!vhlo.bf16_v1>) -> !vhlo.tensor_v1<13x32x!vhlo.bf16_v1>
    %11 = "vhlo.broadcast_in_dim_v1"(%8) <{broadcast_dimensions = #vhlo.tensor_v1<dense<> : tensor<0xi64>>}> : (!vhlo.tensor_v1<!vhlo.bf16_v1>) -> !vhlo.tensor_v1<32x13x2880x!vhlo.bf16_v1>
    %12 = "vhlo.broadcast_in_dim_v1"(%9) <{broadcast_dimensions = #vhlo.tensor_v1<dense<> : tensor<0xi64>>}> : (!vhlo.tensor_v1<!vhlo.bf16_v1>) -> !vhlo.tensor_v1<1x1x13x13x!vhlo.bf16_v1>
    %13 = "vhlo.broadcast_in_dim_v1"(%7) <{broadcast_dimensions = #vhlo.tensor_v1<dense<> : tensor<0xi64>>}> : (!vhlo.tensor_v1<!vhlo.ui8_v1>) -> !vhlo.tensor_v1<13x13x!vhlo.ui8_v1>
    %14 = "vhlo.broadcast_in_dim_v1"(%4) <{broadcast_dimensions = #vhlo.tensor_v1<dense<> : tensor<0xi64>>}> : (!vhlo.tensor_v1<!vhlo.f32_v1>) -> !vhlo.tensor_v1<1x13x2880x!vhlo.f32_v1>
    %15 = "vhlo.broadcast_in_dim_v1"(%2) <{broadcast_dimensions = #vhlo.tensor_v1<dense<> : tensor<0xi64>>}> : (!vhlo.tensor_v1<!vhlo.ui8_v1>) -> !vhlo.tensor_v1<13x13x!vhlo.ui8_v1>
    %16 = "vhlo.convert_v1"(%arg10) : (!vhlo.tensor_v1<2880x!vhlo.bf16_v1>) -> !vhlo.tensor_v1<2880x!vhlo.f32_v1>
    %17 = "vhlo.broadcast_in_dim_v1"(%16) <{broadcast_dimensions = #vhlo.tensor_v1<dense<2> : tensor<1xi64>>}> : (!vhlo.tensor_v1<2880x!vhlo.f32_v1>) -> !vhlo.tensor_v1<1x13x2880x!vhlo.f32_v1>
    %18 = "vhlo.reshape_v1"(%arg8) : (!vhlo.tensor_v1<1x13x!vhlo.i64_v1>) -> !vhlo.tensor_v1<13x!vhlo.i64_v1>
    %19 = "vhlo.convert_v1"(%18) : (!vhlo.tensor_v1<13x!vhlo.i64_v1>) -> !vhlo.tensor_v1<13x!vhlo.ui32_v1>
    %20 = "vhlo.gather_v2"(%arg9, %19) <{collapsed_slice_dims = #vhlo.tensor_v1<dense<0> : tensor<1xi64>>, index_vector_dim = #vhlo.integer_v1<1 : i64>, indices_are_sorted = #vhlo.bool_v1<false>, offset_dims = #vhlo.tensor_v1<dense<1> : tensor<1xi64>>, operand_batching_dims = #vhlo.tensor_v1<dense<> : tensor<0xi64>>, slice_sizes = #vhlo.tensor_v1<dense<[1, 2880]> : tensor<2xi64>>, start_index_map = #vhlo.tensor_v1<dense<0> : tensor<1xi64>>, start_indices_batching_dims = #vhlo.tensor_v1<dense<> : tensor<0xi64>>}> : (!vhlo.tensor_v1<201088x2880x!vhlo.bf16_v1>, !vhlo.tensor_v1<13x!vhlo.ui32_v1>) -> !vhlo.tensor_v1<13x2880x!vhlo.bf16_v1>
    %21 = "vhlo.reshape_v1"(%20) : (!vhlo.tensor_v1<13x2880x!vhlo.bf16_v1>) -> !vhlo.tensor_v1<1x13x2880x!vhlo.bf16_v1>
    %22 = "vhlo.convert_v1"(%21) : (!vhlo.tensor_v1<1x13x2880x!vhlo.bf16_v1>) -> !vhlo.tensor_v1<1x13x2880x!vhlo.f32_v1>
    %23 = "vhlo.power_v1"(%22, %14) : (!vhlo.tensor_v1<1x13x2880x!vhlo.f32_v1>, !vhlo.tensor_v1<1x13x2880x!vhlo.f32_v1>) -> !vhlo.tensor_v1<1x13x2880x!vhlo.f32_v1>
    %24 = "vhlo.reduce_v1"(%23, %0) <{dimensions = #vhlo.tensor_v1<dense<2> : tensor<1xi64>>}> ({
    ^bb0(%arg31: !vhlo.tensor_v1<!vhlo.f32_v1>, %arg32: !vhlo.tensor_v1<!vhlo.f32_v1>):
      %260 = "vhlo.add_v1"(%arg31, %arg32) : (!vhlo.tensor_v1<!vhlo.f32_v1>, !vhlo.tensor_v1<!vhlo.f32_v1>) -> !vhlo.tensor_v1<!vhlo.f32_v1>
      "vhlo.return_v1"(%260) : (!vhlo.tensor_v1<!vhlo.f32_v1>) -> ()
    }) : (!vhlo.tensor_v1<1x13x2880x!vhlo.f32_v1>, !vhlo.tensor_v1<!vhlo.f32_v1>) -> !vhlo.tensor_v1<1x13x!vhlo.f32_v1>
    %25 = "vhlo.multiply_v1"(%24, %5) : (!vhlo.tensor_v1<1x13x!vhlo.f32_v1>, !vhlo.tensor_v1<1x13x!vhlo.f32_v1>) -> !vhlo.tensor_v1<1x13x!vhlo.f32_v1>
    %26 = "vhlo.reshape_v1"(%25) : (!vhlo.tensor_v1<1x13x!vhlo.f32_v1>) -> !vhlo.tensor_v1<1x13x1x!vhlo.f32_v1>
    %27 = "vhlo.broadcast_in_dim_v1"(%arg1) <{broadcast_dimensions = #vhlo.tensor_v1<dense<> : tensor<0xi64>>}> : (!vhlo.tensor_v1<!vhlo.f32_v1>) -> !vhlo.tensor_v1<1x13x1x!vhlo.f32_v1>
    %28 = "vhlo.add_v1"(%26, %27) : (!vhlo.tensor_v1<1x13x1x!vhlo.f32_v1>, !vhlo.tensor_v1<1x13x1x!vhlo.f32_v1>) -> !vhlo.tensor_v1<1x13x1x!vhlo.f32_v1>
    %29 = "vhlo.rsqrt_v2"(%28) <{result_accuracy = #vhlo.result_accuracy_v1<atol = 0.000000e+00, rtol = 0.000000e+00, ulps = 0, mode = #vhlo<result_accuracy_mode_v1 DEFAULT>>}> : (!vhlo.tensor_v1<1x13x1x!vhlo.f32_v1>) -> !vhlo.tensor_v1<1x13x1x!vhlo.f32_v1>
    %30 = "vhlo.reshape_v1"(%29) : (!vhlo.tensor_v1<1x13x1x!vhlo.f32_v1>) -> !vhlo.tensor_v1<1x13x!vhlo.f32_v1>
    %31 = "vhlo.broadcast_in_dim_v1"(%30) <{broadcast_dimensions = #vhlo.tensor_v1<dense<[0, 1]> : tensor<2xi64>>}> : (!vhlo.tensor_v1<1x13x!vhlo.f32_v1>) -> !vhlo.tensor_v1<1x13x2880x!vhlo.f32_v1>
    %32 = "vhlo.multiply_v1"(%22, %31) : (!vhlo.tensor_v1<1x13x2880x!vhlo.f32_v1>, !vhlo.tensor_v1<1x13x2880x!vhlo.f32_v1>) -> !vhlo.tensor_v1<1x13x2880x!vhlo.f32_v1>
    %33 = "vhlo.multiply_v1"(%17, %32) : (!vhlo.tensor_v1<1x13x2880x!vhlo.f32_v1>, !vhlo.tensor_v1<1x13x2880x!vhlo.f32_v1>) -> !vhlo.tensor_v1<1x13x2880x!vhlo.f32_v1>
    %34 = "vhlo.convert_v1"(%33) : (!vhlo.tensor_v1<1x13x2880x!vhlo.f32_v1>) -> !vhlo.tensor_v1<1x13x2880x!vhlo.bf16_v1>
    %35 = "vhlo.reshape_v1"(%34) : (!vhlo.tensor_v1<1x13x2880x!vhlo.bf16_v1>) -> !vhlo.tensor_v1<13x2880x!vhlo.bf16_v1>
    %36 = "vhlo.transpose_v1"(%arg20) <{permutation = #vhlo.tensor_v1<dense<[1, 0]> : tensor<2xi64>>}> {result_layout = #vhlo.tensor_v1<dense<[0, 1]> : tensor<2xindex>>, xla_shape = #vhlo.string_v1<"bf16[2880,4096]{0,1}">} : (!vhlo.tensor_v1<4096x2880x!vhlo.bf16_v1>) -> !vhlo.tensor_v1<2880x4096x!vhlo.bf16_v1>
    %37 = "vhlo.dot_general_v2"(%35, %36) <{accumulation_type = #vhlo.type_v1<!vhlo.none_v1>, allow_imprecise_accumulation = #vhlo.type_v1<!vhlo.none_v1>, lhs_batching_dimensions = #vhlo.tensor_v1<dense<> : tensor<0xi64>>, lhs_component_count = #vhlo.type_v1<!vhlo.none_v1>, lhs_contracting_dimensions = #vhlo.tensor_v1<dense<1> : tensor<1xi64>>, lhs_precision_type = #vhlo.type_v1<!vhlo.none_v1>, num_primitive_operations = #vhlo.type_v1<!vhlo.none_v1>, precision_config = #vhlo.array_v1<[#vhlo<precision_v1 DEFAULT>, #vhlo<precision_v1 DEFAULT>]>, rhs_batching_dimensions = #vhlo.tensor_v1<dense<> : tensor<0xi64>>, rhs_component_count = #vhlo.type_v1<!vhlo.none_v1>, rhs_contracting_dimensions = #vhlo.tensor_v1<dense<0> : tensor<1xi64>>, rhs_precision_type = #vhlo.type_v1<!vhlo.none_v1>}> : (!vhlo.tensor_v1<13x2880x!vhlo.bf16_v1>, !vhlo.tensor_v1<2880x4096x!vhlo.bf16_v1>) -> !vhlo.tensor_v1<13x4096x!vhlo.bf16_v1>
    %38 = "vhlo.reshape_v1"(%37) : (!vhlo.tensor_v1<13x4096x!vhlo.bf16_v1>) -> !vhlo.tensor_v1<1x13x4096x!vhlo.bf16_v1>
    %39 = "vhlo.broadcast_in_dim_v1"(%arg19) <{broadcast_dimensions = #vhlo.tensor_v1<dense<2> : tensor<1xi64>>}> : (!vhlo.tensor_v1<4096x!vhlo.bf16_v1>) -> !vhlo.tensor_v1<1x13x4096x!vhlo.bf16_v1>
    %40 = "vhlo.add_v1"(%38, %39) : (!vhlo.tensor_v1<1x13x4096x!vhlo.bf16_v1>, !vhlo.tensor_v1<1x13x4096x!vhlo.bf16_v1>) -> !vhlo.tensor_v1<1x13x4096x!vhlo.bf16_v1>
    %41 = "vhlo.reshape_v1"(%40) : (!vhlo.tensor_v1<1x13x4096x!vhlo.bf16_v1>) -> !vhlo.tensor_v1<1x13x64x64x!vhlo.bf16_v1>
    %42 = "vhlo.transpose_v1"(%41) <{permutation = #vhlo.tensor_v1<dense<[0, 2, 1, 3]> : tensor<4xi64>>}> {result_layout = #vhlo.tensor_v1<dense<[3, 1, 2, 0]> : tensor<4xindex>>, xla_shape = #vhlo.string_v1<"bf16[1,64,13,64]{3,1,2,0}">} : (!vhlo.tensor_v1<1x13x64x64x!vhlo.bf16_v1>) -> !vhlo.tensor_v1<1x64x13x64x!vhlo.bf16_v1>
    %43 = "vhlo.slice_v1"(%42) <{limit_indices = #vhlo.tensor_v1<dense<[1, 64, 13, 32]> : tensor<4xi64>>, start_indices = #vhlo.tensor_v1<dense<0> : tensor<4xi64>>, strides = #vhlo.tensor_v1<dense<1> : tensor<4xi64>>}> : (!vhlo.tensor_v1<1x64x13x64x!vhlo.bf16_v1>) -> !vhlo.tensor_v1<1x64x13x32x!vhlo.bf16_v1>
    %44 = "vhlo.convert_v1"(%43) : (!vhlo.tensor_v1<1x64x13x32x!vhlo.bf16_v1>) -> !vhlo.tensor_v1<1x64x13x32x!vhlo.f32_v1>
    %45 = "vhlo.reshape_v1"(%arg16) : (!vhlo.tensor_v1<32x!vhlo.f32_v1>) -> !vhlo.tensor_v1<1x32x1x!vhlo.f32_v1>
    %46 = "vhlo.dot_general_v2"(%45, %6) <{accumulation_type = #vhlo.type_v1<!vhlo.none_v1>, allow_imprecise_accumulation = #vhlo.type_v1<!vhlo.none_v1>, lhs_batching_dimensions = #vhlo.tensor_v1<dense<0> : tensor<1xi64>>, lhs_component_count = #vhlo.type_v1<!vhlo.none_v1>, lhs_contracting_dimensions = #vhlo.tensor_v1<dense<2> : tensor<1xi64>>, lhs_precision_type = #vhlo.type_v1<!vhlo.none_v1>, num_primitive_operations = #vhlo.type_v1<!vhlo.none_v1>, precision_config = #vhlo.array_v1<[#vhlo<precision_v1 DEFAULT>, #vhlo<precision_v1 DEFAULT>]>, rhs_batching_dimensions = #vhlo.tensor_v1<dense<0> : tensor<1xi64>>, rhs_component_count = #vhlo.type_v1<!vhlo.none_v1>, rhs_contracting_dimensions = #vhlo.tensor_v1<dense<1> : tensor<1xi64>>, rhs_precision_type = #vhlo.type_v1<!vhlo.none_v1>}> : (!vhlo.tensor_v1<1x32x1x!vhlo.f32_v1>, !vhlo.tensor_v1<1x1x13x!vhlo.f32_v1>) -> !vhlo.tensor_v1<1x32x13x!vhlo.f32_v1>
    %47 = "vhlo.transpose_v1"(%46) <{permutation = #vhlo.tensor_v1<dense<[0, 2, 1]> : tensor<3xi64>>}> {result_layout = #vhlo.tensor_v1<dense<[1, 2, 0]> : tensor<3xindex>>, xla_shape = #vhlo.string_v1<"f32[1,13,32]{1,2,0}">} : (!vhlo.tensor_v1<1x32x13x!vhlo.f32_v1>) -> !vhlo.tensor_v1<1x13x32x!vhlo.f32_v1>
    %48 = "vhlo.cosine_v2"(%47) <{result_accuracy = #vhlo.result_accuracy_v1<atol = 0.000000e+00, rtol = 0.000000e+00, ulps = 0, mode = #vhlo<result_accuracy_mode_v1 DEFAULT>>}> {result_layout = #vhlo.tensor_v1<dense<[1, 2, 0]> : tensor<3xindex>>, xla_shape = #vhlo.string_v1<"f32[1,13,32]{1,2,0}">} : (!vhlo.tensor_v1<1x13x32x!vhlo.f32_v1>) -> !vhlo.tensor_v1<1x13x32x!vhlo.f32_v1>
    %49 = "vhlo.broadcast_in_dim_v1"(%arg15) <{broadcast_dimensions = #vhlo.tensor_v1<dense<> : tensor<0xi64>>}> : (!vhlo.tensor_v1<!vhlo.f32_v1>) -> !vhlo.tensor_v1<1x13x32x!vhlo.f32_v1>
    %50 = "vhlo.multiply_v1"(%48, %49) : (!vhlo.tensor_v1<1x13x32x!vhlo.f32_v1>, !vhlo.tensor_v1<1x13x32x!vhlo.f32_v1>) -> !vhlo.tensor_v1<1x13x32x!vhlo.f32_v1>
    %51 = "vhlo.convert_v1"(%50) : (!vhlo.tensor_v1<1x13x32x!vhlo.f32_v1>) -> !vhlo.tensor_v1<1x13x32x!vhlo.bf16_v1>
    %52 = "vhlo.reshape_v1"(%51) : (!vhlo.tensor_v1<1x13x32x!vhlo.bf16_v1>) -> !vhlo.tensor_v1<1x1x13x32x!vhlo.bf16_v1>
    %53 = "vhlo.convert_v1"(%52) : (!vhlo.tensor_v1<1x1x13x32x!vhlo.bf16_v1>) -> !vhlo.tensor_v1<1x1x13x32x!vhlo.f32_v1>
    %54 = "vhlo.reshape_v1"(%53) : (!vhlo.tensor_v1<1x1x13x32x!vhlo.f32_v1>) -> !vhlo.tensor_v1<1x13x32x!vhlo.f32_v1>
    %55 = "vhlo.broadcast_in_dim_v1"(%54) <{broadcast_dimensions = #vhlo.tensor_v1<dense<[0, 2, 3]> : tensor<3xi64>>}> : (!vhlo.tensor_v1<1x13x32x!vhlo.f32_v1>) -> !vhlo.tensor_v1<1x64x13x32x!vhlo.f32_v1>
    %56 = "vhlo.multiply_v1"(%44, %55) : (!vhlo.tensor_v1<1x64x13x32x!vhlo.f32_v1>, !vhlo.tensor_v1<1x64x13x32x!vhlo.f32_v1>) -> !vhlo.tensor_v1<1x64x13x32x!vhlo.f32_v1>
    %57 = "vhlo.convert_v1"(%56) : (!vhlo.tensor_v1<1x64x13x32x!vhlo.f32_v1>) -> !vhlo.tensor_v1<1x64x13x32x!vhlo.bf16_v1>
    %58 = "vhlo.slice_v1"(%42) <{limit_indices = #vhlo.tensor_v1<dense<[1, 64, 13, 64]> : tensor<4xi64>>, start_indices = #vhlo.tensor_v1<dense<[0, 0, 0, 32]> : tensor<4xi64>>, strides = #vhlo.tensor_v1<dense<1> : tensor<4xi64>>}> : (!vhlo.tensor_v1<1x64x13x64x!vhlo.bf16_v1>) -> !vhlo.tensor_v1<1x64x13x32x!vhlo.bf16_v1>
    %59 = "vhlo.convert_v1"(%58) : (!vhlo.tensor_v1<1x64x13x32x!vhlo.bf16_v1>) -> !vhlo.tensor_v1<1x64x13x32x!vhlo.f32_v1>
    %60 = "vhlo.sine_v2"(%47) <{result_accuracy = #vhlo.result_accuracy_v1<atol = 0.000000e+00, rtol = 0.000000e+00, ulps = 0, mode = #vhlo<result_accuracy_mode_v1 DEFAULT>>}> {result_layout = #vhlo.tensor_v1<dense<[1, 2, 0]> : tensor<3xindex>>, xla_shape = #vhlo.string_v1<"f32[1,13,32]{1,2,0}">} : (!vhlo.tensor_v1<1x13x32x!vhlo.f32_v1>) -> !vhlo.tensor_v1<1x13x32x!vhlo.f32_v1>
    %61 = "vhlo.multiply_v1"(%60, %49) : (!vhlo.tensor_v1<1x13x32x!vhlo.f32_v1>, !vhlo.tensor_v1<1x13x32x!vhlo.f32_v1>) -> !vhlo.tensor_v1<1x13x32x!vhlo.f32_v1>
    %62 = "vhlo.convert_v1"(%61) : (!vhlo.tensor_v1<1x13x32x!vhlo.f32_v1>) -> !vhlo.tensor_v1<1x13x32x!vhlo.bf16_v1>
    %63 = "vhlo.reshape_v1"(%62) : (!vhlo.tensor_v1<1x13x32x!vhlo.bf16_v1>) -> !vhlo.tensor_v1<1x1x13x32x!vhlo.bf16_v1>
    %64 = "vhlo.convert_v1"(%63) : (!vhlo.tensor_v1<1x1x13x32x!vhlo.bf16_v1>) -> !vhlo.tensor_v1<1x1x13x32x!vhlo.f32_v1>
    %65 = "vhlo.reshape_v1"(%64) : (!vhlo.tensor_v1<1x1x13x32x!vhlo.f32_v1>) -> !vhlo.tensor_v1<1x13x32x!vhlo.f32_v1>
    %66 = "vhlo.broadcast_in_dim_v1"(%65) <{broadcast_dimensions = #vhlo.tensor_v1<dense<[0, 2, 3]> : tensor<3xi64>>}> : (!vhlo.tensor_v1<1x13x32x!vhlo.f32_v1>) -> !vhlo.tensor_v1<1x64x13x32x!vhlo.f32_v1>
    %67 = "vhlo.multiply_v1"(%59, %66) : (!vhlo.tensor_v1<1x64x13x32x!vhlo.f32_v1>, !vhlo.tensor_v1<1x64x13x32x!vhlo.f32_v1>) -> !vhlo.tensor_v1<1x64x13x32x!vhlo.f32_v1>
    %68 = "vhlo.convert_v1"(%67) : (!vhlo.tensor_v1<1x64x13x32x!vhlo.f32_v1>) -> !vhlo.tensor_v1<1x64x13x32x!vhlo.bf16_v1>
    %69 = "vhlo.subtract_v1"(%57, %68) : (!vhlo.tensor_v1<1x64x13x32x!vhlo.bf16_v1>, !vhlo.tensor_v1<1x64x13x32x!vhlo.bf16_v1>) -> !vhlo.tensor_v1<1x64x13x32x!vhlo.bf16_v1>
    %70 = "vhlo.multiply_v1"(%59, %55) : (!vhlo.tensor_v1<1x64x13x32x!vhlo.f32_v1>, !vhlo.tensor_v1<1x64x13x32x!vhlo.f32_v1>) -> !vhlo.tensor_v1<1x64x13x32x!vhlo.f32_v1>
    %71 = "vhlo.convert_v1"(%70) : (!vhlo.tensor_v1<1x64x13x32x!vhlo.f32_v1>) -> !vhlo.tensor_v1<1x64x13x32x!vhlo.bf16_v1>
    %72 = "vhlo.multiply_v1"(%44, %66) : (!vhlo.tensor_v1<1x64x13x32x!vhlo.f32_v1>, !vhlo.tensor_v1<1x64x13x32x!vhlo.f32_v1>) -> !vhlo.tensor_v1<1x64x13x32x!vhlo.f32_v1>
    %73 = "vhlo.convert_v1"(%72) : (!vhlo.tensor_v1<1x64x13x32x!vhlo.f32_v1>) -> !vhlo.tensor_v1<1x64x13x32x!vhlo.bf16_v1>
    %74 = "vhlo.add_v1"(%71, %73) : (!vhlo.tensor_v1<1x64x13x32x!vhlo.bf16_v1>, !vhlo.tensor_v1<1x64x13x32x!vhlo.bf16_v1>) -> !vhlo.tensor_v1<1x64x13x32x!vhlo.bf16_v1>
    %75 = "vhlo.concatenate_v1"(%69, %74) <{dimension = #vhlo.integer_v1<3 : i64>}> : (!vhlo.tensor_v1<1x64x13x32x!vhlo.bf16_v1>, !vhlo.tensor_v1<1x64x13x32x!vhlo.bf16_v1>) -> !vhlo.tensor_v1<1x64x13x64x!vhlo.bf16_v1>
    %76 = "vhlo.reshape_v1"(%75) : (!vhlo.tensor_v1<1x64x13x64x!vhlo.bf16_v1>) -> !vhlo.tensor_v1<64x13x64x!vhlo.bf16_v1>
    %77 = "vhlo.transpose_v1"(%arg18) <{permutation = #vhlo.tensor_v1<dense<[1, 0]> : tensor<2xi64>>}> {result_layout = #vhlo.tensor_v1<dense<[0, 1]> : tensor<2xindex>>, xla_shape = #vhlo.string_v1<"bf16[2880,512]{0,1}">} : (!vhlo.tensor_v1<512x2880x!vhlo.bf16_v1>) -> !vhlo.tensor_v1<2880x512x!vhlo.bf16_v1>
    %78 = "vhlo.dot_general_v2"(%35, %77) <{accumulation_type = #vhlo.type_v1<!vhlo.none_v1>, allow_imprecise_accumulation = #vhlo.type_v1<!vhlo.none_v1>, lhs_batching_dimensions = #vhlo.tensor_v1<dense<> : tensor<0xi64>>, lhs_component_count = #vhlo.type_v1<!vhlo.none_v1>, lhs_contracting_dimensions = #vhlo.tensor_v1<dense<1> : tensor<1xi64>>, lhs_precision_type = #vhlo.type_v1<!vhlo.none_v1>, num_primitive_operations = #vhlo.type_v1<!vhlo.none_v1>, precision_config = #vhlo.array_v1<[#vhlo<precision_v1 DEFAULT>, #vhlo<precision_v1 DEFAULT>]>, rhs_batching_dimensions = #vhlo.tensor_v1<dense<> : tensor<0xi64>>, rhs_component_count = #vhlo.type_v1<!vhlo.none_v1>, rhs_contracting_dimensions = #vhlo.tensor_v1<dense<0> : tensor<1xi64>>, rhs_precision_type = #vhlo.type_v1<!vhlo.none_v1>}> : (!vhlo.tensor_v1<13x2880x!vhlo.bf16_v1>, !vhlo.tensor_v1<2880x512x!vhlo.bf16_v1>) -> !vhlo.tensor_v1<13x512x!vhlo.bf16_v1>
    %79 = "vhlo.reshape_v1"(%78) : (!vhlo.tensor_v1<13x512x!vhlo.bf16_v1>) -> !vhlo.tensor_v1<1x13x512x!vhlo.bf16_v1>
    %80 = "vhlo.broadcast_in_dim_v1"(%arg17) <{broadcast_dimensions = #vhlo.tensor_v1<dense<2> : tensor<1xi64>>}> : (!vhlo.tensor_v1<512x!vhlo.bf16_v1>) -> !vhlo.tensor_v1<1x13x512x!vhlo.bf16_v1>
    %81 = "vhlo.add_v1"(%79, %80) : (!vhlo.tensor_v1<1x13x512x!vhlo.bf16_v1>, !vhlo.tensor_v1<1x13x512x!vhlo.bf16_v1>) -> !vhlo.tensor_v1<1x13x512x!vhlo.bf16_v1>
    %82 = "vhlo.reshape_v1"(%81) : (!vhlo.tensor_v1<1x13x512x!vhlo.bf16_v1>) -> !vhlo.tensor_v1<1x13x8x64x!vhlo.bf16_v1>
    %83 = "vhlo.transpose_v1"(%82) <{permutation = #vhlo.tensor_v1<dense<[0, 2, 1, 3]> : tensor<4xi64>>}> {result_layout = #vhlo.tensor_v1<dense<[3, 1, 2, 0]> : tensor<4xindex>>, xla_shape = #vhlo.string_v1<"bf16[1,8,13,64]{3,1,2,0}">} : (!vhlo.tensor_v1<1x13x8x64x!vhlo.bf16_v1>) -> !vhlo.tensor_v1<1x8x13x64x!vhlo.bf16_v1>
    %84 = "vhlo.slice_v1"(%83) <{limit_indices = #vhlo.tensor_v1<dense<[1, 8, 13, 32]> : tensor<4xi64>>, start_indices = #vhlo.tensor_v1<dense<0> : tensor<4xi64>>, strides = #vhlo.tensor_v1<dense<1> : tensor<4xi64>>}> : (!vhlo.tensor_v1<1x8x13x64x!vhlo.bf16_v1>) -> !vhlo.tensor_v1<1x8x13x32x!vhlo.bf16_v1>
    %85 = "vhlo.convert_v1"(%84) : (!vhlo.tensor_v1<1x8x13x32x!vhlo.bf16_v1>) -> !vhlo.tensor_v1<1x8x13x32x!vhlo.f32_v1>
    %86 = "vhlo.broadcast_in_dim_v1"(%54) <{broadcast_dimensions = #vhlo.tensor_v1<dense<[0, 2, 3]> : tensor<3xi64>>}> : (!vhlo.tensor_v1<1x13x32x!vhlo.f32_v1>) -> !vhlo.tensor_v1<1x8x13x32x!vhlo.f32_v1>
    %87 = "vhlo.multiply_v1"(%85, %86) : (!vhlo.tensor_v1<1x8x13x32x!vhlo.f32_v1>, !vhlo.tensor_v1<1x8x13x32x!vhlo.f32_v1>) -> !vhlo.tensor_v1<1x8x13x32x!vhlo.f32_v1>
    %88 = "vhlo.convert_v1"(%87) : (!vhlo.tensor_v1<1x8x13x32x!vhlo.f32_v1>) -> !vhlo.tensor_v1<1x8x13x32x!vhlo.bf16_v1>
    %89 = "vhlo.slice_v1"(%83) <{limit_indices = #vhlo.tensor_v1<dense<[1, 8, 13, 64]> : tensor<4xi64>>, start_indices = #vhlo.tensor_v1<dense<[0, 0, 0, 32]> : tensor<4xi64>>, strides = #vhlo.tensor_v1<dense<1> : tensor<4xi64>>}> : (!vhlo.tensor_v1<1x8x13x64x!vhlo.bf16_v1>) -> !vhlo.tensor_v1<1x8x13x32x!vhlo.bf16_v1>
    %90 = "vhlo.convert_v1"(%89) : (!vhlo.tensor_v1<1x8x13x32x!vhlo.bf16_v1>) -> !vhlo.tensor_v1<1x8x13x32x!vhlo.f32_v1>
    %91 = "vhlo.broadcast_in_dim_v1"(%65) <{broadcast_dimensions = #vhlo.tensor_v1<dense<[0, 2, 3]> : tensor<3xi64>>}> : (!vhlo.tensor_v1<1x13x32x!vhlo.f32_v1>) -> !vhlo.tensor_v1<1x8x13x32x!vhlo.f32_v1>
    %92 = "vhlo.multiply_v1"(%90, %91) : (!vhlo.tensor_v1<1x8x13x32x!vhlo.f32_v1>, !vhlo.tensor_v1<1x8x13x32x!vhlo.f32_v1>) -> !vhlo.tensor_v1<1x8x13x32x!vhlo.f32_v1>
    %93 = "vhlo.convert_v1"(%92) : (!vhlo.tensor_v1<1x8x13x32x!vhlo.f32_v1>) -> !vhlo.tensor_v1<1x8x13x32x!vhlo.bf16_v1>
    %94 = "vhlo.subtract_v1"(%88, %93) : (!vhlo.tensor_v1<1x8x13x32x!vhlo.bf16_v1>, !vhlo.tensor_v1<1x8x13x32x!vhlo.bf16_v1>) -> !vhlo.tensor_v1<1x8x13x32x!vhlo.bf16_v1>
    %95 = "vhlo.multiply_v1"(%90, %86) : (!vhlo.tensor_v1<1x8x13x32x!vhlo.f32_v1>, !vhlo.tensor_v1<1x8x13x32x!vhlo.f32_v1>) -> !vhlo.tensor_v1<1x8x13x32x!vhlo.f32_v1>
    %96 = "vhlo.convert_v1"(%95) : (!vhlo.tensor_v1<1x8x13x32x!vhlo.f32_v1>) -> !vhlo.tensor_v1<1x8x13x32x!vhlo.bf16_v1>
    %97 = "vhlo.multiply_v1"(%85, %91) : (!vhlo.tensor_v1<1x8x13x32x!vhlo.f32_v1>, !vhlo.tensor_v1<1x8x13x32x!vhlo.f32_v1>) -> !vhlo.tensor_v1<1x8x13x32x!vhlo.f32_v1>
    %98 = "vhlo.convert_v1"(%97) : (!vhlo.tensor_v1<1x8x13x32x!vhlo.f32_v1>) -> !vhlo.tensor_v1<1x8x13x32x!vhlo.bf16_v1>
    %99 = "vhlo.add_v1"(%96, %98) : (!vhlo.tensor_v1<1x8x13x32x!vhlo.bf16_v1>, !vhlo.tensor_v1<1x8x13x32x!vhlo.bf16_v1>) -> !vhlo.tensor_v1<1x8x13x32x!vhlo.bf16_v1>
    %100 = "vhlo.concatenate_v1"(%94, %99) <{dimension = #vhlo.integer_v1<3 : i64>}> : (!vhlo.tensor_v1<1x8x13x32x!vhlo.bf16_v1>, !vhlo.tensor_v1<1x8x13x32x!vhlo.bf16_v1>) -> !vhlo.tensor_v1<1x8x13x64x!vhlo.bf16_v1>
    %101 = "vhlo.broadcast_in_dim_v1"(%100) <{broadcast_dimensions = #vhlo.tensor_v1<dense<[0, 1, 3, 4]> : tensor<4xi64>>}> : (!vhlo.tensor_v1<1x8x13x64x!vhlo.bf16_v1>) -> !vhlo.tensor_v1<1x8x8x13x64x!vhlo.bf16_v1>
    %102 = "vhlo.reshape_v1"(%101) : (!vhlo.tensor_v1<1x8x8x13x64x!vhlo.bf16_v1>) -> !vhlo.tensor_v1<1x64x13x64x!vhlo.bf16_v1>
    %103 = "vhlo.transpose_v1"(%102) <{permutation = #vhlo.tensor_v1<dense<[0, 1, 3, 2]> : tensor<4xi64>>}> {result_layout = #vhlo.tensor_v1<dense<[2, 3, 1, 0]> : tensor<4xindex>>, xla_shape = #vhlo.string_v1<"bf16[1,64,64,13]{2,3,1,0}">} : (!vhlo.tensor_v1<1x64x13x64x!vhlo.bf16_v1>) -> !vhlo.tensor_v1<1x64x64x13x!vhlo.bf16_v1>
    %104 = "vhlo.reshape_v1"(%103) : (!vhlo.tensor_v1<1x64x64x13x!vhlo.bf16_v1>) -> !vhlo.tensor_v1<64x64x13x!vhlo.bf16_v1>
    %105 = "vhlo.dot_general_v2"(%76, %104) <{accumulation_type = #vhlo.type_v1<!vhlo.none_v1>, allow_imprecise_accumulation = #vhlo.type_v1<!vhlo.none_v1>, lhs_batching_dimensions = #vhlo.tensor_v1<dense<0> : tensor<1xi64>>, lhs_component_count = #vhlo.type_v1<!vhlo.none_v1>, lhs_contracting_dimensions = #vhlo.tensor_v1<dense<2> : tensor<1xi64>>, lhs_precision_type = #vhlo.type_v1<!vhlo.none_v1>, num_primitive_operations = #vhlo.type_v1<!vhlo.none_v1>, precision_config = #vhlo.array_v1<[#vhlo<precision_v1 DEFAULT>, #vhlo<precision_v1 DEFAULT>]>, rhs_batching_dimensions = #vhlo.tensor_v1<dense<0> : tensor<1xi64>>, rhs_component_count = #vhlo.type_v1<!vhlo.none_v1>, rhs_contracting_dimensions = #vhlo.tensor_v1<dense<1> : tensor<1xi64>>, rhs_precision_type = #vhlo.type_v1<!vhlo.none_v1>}> : (!vhlo.tensor_v1<64x13x64x!vhlo.bf16_v1>, !vhlo.tensor_v1<64x64x13x!vhlo.bf16_v1>) -> !vhlo.tensor_v1<64x13x13x!vhlo.bf16_v1>
    %106 = "vhlo.reshape_v1"(%105) : (!vhlo.tensor_v1<64x13x13x!vhlo.bf16_v1>) -> !vhlo.tensor_v1<1x64x13x13x!vhlo.bf16_v1>
    %107 = "vhlo.convert_v1"(%106) : (!vhlo.tensor_v1<1x64x13x13x!vhlo.bf16_v1>) -> !vhlo.tensor_v1<1x64x13x13x!vhlo.f32_v1>
    %108 = "vhlo.broadcast_in_dim_v1"(%arg14) <{broadcast_dimensions = #vhlo.tensor_v1<dense<> : tensor<0xi64>>}> : (!vhlo.tensor_v1<!vhlo.f32_v1>) -> !vhlo.tensor_v1<1x64x13x13x!vhlo.f32_v1>
    %109 = "vhlo.multiply_v1"(%107, %108) : (!vhlo.tensor_v1<1x64x13x13x!vhlo.f32_v1>, !vhlo.tensor_v1<1x64x13x13x!vhlo.f32_v1>) -> !vhlo.tensor_v1<1x64x13x13x!vhlo.f32_v1>
    %110 = "vhlo.convert_v1"(%109) : (!vhlo.tensor_v1<1x64x13x13x!vhlo.f32_v1>) -> !vhlo.tensor_v1<1x64x13x13x!vhlo.bf16_v1>
    %111 = "vhlo.broadcast_in_dim_v1"(%1) <{broadcast_dimensions = #vhlo.tensor_v1<dense<1> : tensor<1xi64>>}> : (!vhlo.tensor_v1<13x!vhlo.i64_v1>) -> !vhlo.tensor_v1<13x13x!vhlo.i64_v1>
    %112 = "vhlo.broadcast_in_dim_v1"(%arg13) <{broadcast_dimensions = #vhlo.tensor_v1<dense<> : tensor<0xi64>>}> : (!vhlo.tensor_v1<!vhlo.i64_v1>) -> !vhlo.tensor_v1<13x!vhlo.i64_v1>
    %113 = "vhlo.subtract_v1"(%1, %112) : (!vhlo.tensor_v1<13x!vhlo.i64_v1>, !vhlo.tensor_v1<13x!vhlo.i64_v1>) -> !vhlo.tensor_v1<13x!vhlo.i64_v1>
    %114 = "vhlo.broadcast_in_dim_v1"(%113) <{broadcast_dimensions = #vhlo.tensor_v1<dense<0> : tensor<1xi64>>}> : (!vhlo.tensor_v1<13x!vhlo.i64_v1>) -> !vhlo.tensor_v1<13x13x!vhlo.i64_v1>
    %115 = "vhlo.compare_v1"(%111, %114) <{compare_type = #vhlo<comparison_type_v1 NOTYPE>, comparison_direction = #vhlo<comparison_direction_v1 GT>}> : (!vhlo.tensor_v1<13x13x!vhlo.i64_v1>, !vhlo.tensor_v1<13x13x!vhlo.i64_v1>) -> !vhlo.tensor_v1<13x13x!vhlo.bool_v1>
    %116 = "vhlo.convert_v1"(%115) : (!vhlo.tensor_v1<13x13x!vhlo.bool_v1>) -> !vhlo.tensor_v1<13x13x!vhlo.ui8_v1>
    %117 = "vhlo.and_v1"(%116, %13) : (!vhlo.tensor_v1<13x13x!vhlo.ui8_v1>, !vhlo.tensor_v1<13x13x!vhlo.ui8_v1>) -> !vhlo.tensor_v1<13x13x!vhlo.ui8_v1>
    %118 = "vhlo.compare_v1"(%117, %15) <{compare_type = #vhlo<comparison_type_v1 NOTYPE>, comparison_direction = #vhlo<comparison_direction_v1 NE>}> : (!vhlo.tensor_v1<13x13x!vhlo.ui8_v1>, !vhlo.tensor_v1<13x13x!vhlo.ui8_v1>) -> !vhlo.tensor_v1<13x13x!vhlo.bool_v1>
    %119 = "vhlo.convert_v1"(%118) : (!vhlo.tensor_v1<13x13x!vhlo.bool_v1>) -> !vhlo.tensor_v1<13x13x!vhlo.ui8_v1>
    %120 = "vhlo.broadcast_in_dim_v1"(%1) <{broadcast_dimensions = #vhlo.tensor_v1<dense<0> : tensor<1xi64>>}> : (!vhlo.tensor_v1<13x!vhlo.i64_v1>) -> !vhlo.tensor_v1<13x13x!vhlo.i64_v1>
    %121 = "vhlo.compare_v1"(%111, %120) <{compare_type = #vhlo<comparison_type_v1 NOTYPE>, comparison_direction = #vhlo<comparison_direction_v1 LE>}> : (!vhlo.tensor_v1<13x13x!vhlo.i64_v1>, !vhlo.tensor_v1<13x13x!vhlo.i64_v1>) -> !vhlo.tensor_v1<13x13x!vhlo.bool_v1>
    %122 = "vhlo.convert_v1"(%121) : (!vhlo.tensor_v1<13x13x!vhlo.bool_v1>) -> !vhlo.tensor_v1<13x13x!vhlo.ui8_v1>
    %123 = "vhlo.and_v1"(%119, %122) : (!vhlo.tensor_v1<13x13x!vhlo.ui8_v1>, !vhlo.tensor_v1<13x13x!vhlo.ui8_v1>) -> !vhlo.tensor_v1<13x13x!vhlo.ui8_v1>
    %124 = "vhlo.compare_v1"(%123, %15) <{compare_type = #vhlo<comparison_type_v1 NOTYPE>, comparison_direction = #vhlo<comparison_direction_v1 NE>}> : (!vhlo.tensor_v1<13x13x!vhlo.ui8_v1>, !vhlo.tensor_v1<13x13x!vhlo.ui8_v1>) -> !vhlo.tensor_v1<13x13x!vhlo.bool_v1>
    %125 = "vhlo.reshape_v1"(%124) : (!vhlo.tensor_v1<13x13x!vhlo.bool_v1>) -> !vhlo.tensor_v1<1x1x13x13x!vhlo.bool_v1>
    %126 = "vhlo.reshape_v1"(%arg12) : (!vhlo.tensor_v1<!vhlo.bf16_v1>) -> !vhlo.tensor_v1<1x1x!vhlo.bf16_v1>
    %127 = "vhlo.broadcast_in_dim_v1"(%126) <{broadcast_dimensions = #vhlo.tensor_v1<dense<[0, 1]> : tensor<2xi64>>}> : (!vhlo.tensor_v1<1x1x!vhlo.bf16_v1>) -> !vhlo.tensor_v1<1x1x13x13x!vhlo.bf16_v1>
    %128 = "vhlo.select_v1"(%125, %12, %127) : (!vhlo.tensor_v1<1x1x13x13x!vhlo.bool_v1>, !vhlo.tensor_v1<1x1x13x13x!vhlo.bf16_v1>, !vhlo.tensor_v1<1x1x13x13x!vhlo.bf16_v1>) -> !vhlo.tensor_v1<1x1x13x13x!vhlo.bf16_v1>
    %129 = "vhlo.reshape_v1"(%128) : (!vhlo.tensor_v1<1x1x13x13x!vhlo.bf16_v1>) -> !vhlo.tensor_v1<1x13x13x!vhlo.bf16_v1>
    %130 = "vhlo.broadcast_in_dim_v1"(%129) <{broadcast_dimensions = #vhlo.tensor_v1<dense<[0, 2, 3]> : tensor<3xi64>>}> : (!vhlo.tensor_v1<1x13x13x!vhlo.bf16_v1>) -> !vhlo.tensor_v1<1x64x13x13x!vhlo.bf16_v1>
    %131 = "vhlo.add_v1"(%110, %130) : (!vhlo.tensor_v1<1x64x13x13x!vhlo.bf16_v1>, !vhlo.tensor_v1<1x64x13x13x!vhlo.bf16_v1>) -> !vhlo.tensor_v1<1x64x13x13x!vhlo.bf16_v1>
    %132 = "vhlo.reshape_v1"(%arg11) : (!vhlo.tensor_v1<64x!vhlo.bf16_v1>) -> !vhlo.tensor_v1<1x64x1x!vhlo.bf16_v1>
    %133 = "vhlo.broadcast_in_dim_v1"(%132) <{broadcast_dimensions = #vhlo.tensor_v1<dense<[0, 1, 3]> : tensor<3xi64>>}> : (!vhlo.tensor_v1<1x64x1x!vhlo.bf16_v1>) -> !vhlo.tensor_v1<1x64x13x1x!vhlo.bf16_v1>
    %134 = "vhlo.concatenate_v1"(%131, %133) <{dimension = #vhlo.integer_v1<3 : i64>}> : (!vhlo.tensor_v1<1x64x13x13x!vhlo.bf16_v1>, !vhlo.tensor_v1<1x64x13x1x!vhlo.bf16_v1>) -> !vhlo.tensor_v1<1x64x13x14x!vhlo.bf16_v1>
    %135 = "vhlo.convert_v1"(%arg30) : (!vhlo.tensor_v1<2880x!vhlo.bf16_v1>) -> !vhlo.tensor_v1<2880x!vhlo.f32_v1>
    %136 = "vhlo.broadcast_in_dim_v1"(%135) <{broadcast_dimensions = #vhlo.tensor_v1<dense<2> : tensor<1xi64>>}> : (!vhlo.tensor_v1<2880x!vhlo.f32_v1>) -> !vhlo.tensor_v1<1x13x2880x!vhlo.f32_v1>
    %137 = "vhlo.reduce_v1"(%134, %3) <{dimensions = #vhlo.tensor_v1<dense<3> : tensor<1xi64>>}> ({
    ^bb0(%arg31: !vhlo.tensor_v1<!vhlo.bf16_v1>, %arg32: !vhlo.tensor_v1<!vhlo.bf16_v1>):
      %260 = "vhlo.maximum_v1"(%arg31, %arg32) : (!vhlo.tensor_v1<!vhlo.bf16_v1>, !vhlo.tensor_v1<!vhlo.bf16_v1>) -> !vhlo.tensor_v1<!vhlo.bf16_v1>
      "vhlo.return_v1"(%260) : (!vhlo.tensor_v1<!vhlo.bf16_v1>) -> ()
    }) : (!vhlo.tensor_v1<1x64x13x14x!vhlo.bf16_v1>, !vhlo.tensor_v1<!vhlo.bf16_v1>) -> !vhlo.tensor_v1<1x64x13x!vhlo.bf16_v1>
    %138 = "vhlo.broadcast_in_dim_v1"(%137) <{broadcast_dimensions = #vhlo.tensor_v1<dense<[0, 1, 2]> : tensor<3xi64>>}> : (!vhlo.tensor_v1<1x64x13x!vhlo.bf16_v1>) -> !vhlo.tensor_v1<1x64x13x14x!vhlo.bf16_v1>
    %139 = "vhlo.subtract_v1"(%134, %138) : (!vhlo.tensor_v1<1x64x13x14x!vhlo.bf16_v1>, !vhlo.tensor_v1<1x64x13x14x!vhlo.bf16_v1>) -> !vhlo.tensor_v1<1x64x13x14x!vhlo.bf16_v1>
    %140 = "vhlo.reduce_v1"(%139, %3) <{dimensions = #vhlo.tensor_v1<dense<3> : tensor<1xi64>>}> ({
    ^bb0(%arg31: !vhlo.tensor_v1<!vhlo.bf16_v1>, %arg32: !vhlo.tensor_v1<!vhlo.bf16_v1>):
      %260 = "vhlo.maximum_v1"(%arg31, %arg32) : (!vhlo.tensor_v1<!vhlo.bf16_v1>, !vhlo.tensor_v1<!vhlo.bf16_v1>) -> !vhlo.tensor_v1<!vhlo.bf16_v1>
      "vhlo.return_v1"(%260) : (!vhlo.tensor_v1<!vhlo.bf16_v1>) -> ()
    }) : (!vhlo.tensor_v1<1x64x13x14x!vhlo.bf16_v1>, !vhlo.tensor_v1<!vhlo.bf16_v1>) -> !vhlo.tensor_v1<1x64x13x!vhlo.bf16_v1>
    %141 = "vhlo.broadcast_in_dim_v1"(%140) <{broadcast_dimensions = #vhlo.tensor_v1<dense<[0, 1, 2]> : tensor<3xi64>>}> : (!vhlo.tensor_v1<1x64x13x!vhlo.bf16_v1>) -> !vhlo.tensor_v1<1x64x13x14x!vhlo.bf16_v1>
    %142 = "vhlo.subtract_v1"(%139, %141) : (!vhlo.tensor_v1<1x64x13x14x!vhlo.bf16_v1>, !vhlo.tensor_v1<1x64x13x14x!vhlo.bf16_v1>) -> !vhlo.tensor_v1<1x64x13x14x!vhlo.bf16_v1>
    %143 = "vhlo.exponential_v2"(%142) <{result_accuracy = #vhlo.result_accuracy_v1<atol = 0.000000e+00, rtol = 0.000000e+00, ulps = 0, mode = #vhlo<result_accuracy_mode_v1 DEFAULT>>}> : (!vhlo.tensor_v1<1x64x13x14x!vhlo.bf16_v1>) -> !vhlo.tensor_v1<1x64x13x14x!vhlo.bf16_v1>
    %144 = "vhlo.reduce_v1"(%143, %9) <{dimensions = #vhlo.tensor_v1<dense<3> : tensor<1xi64>>}> ({
    ^bb0(%arg31: !vhlo.tensor_v1<!vhlo.bf16_v1>, %arg32: !vhlo.tensor_v1<!vhlo.bf16_v1>):
      %260 = "vhlo.add_v1"(%arg31, %arg32) : (!vhlo.tensor_v1<!vhlo.bf16_v1>, !vhlo.tensor_v1<!vhlo.bf16_v1>) -> !vhlo.tensor_v1<!vhlo.bf16_v1>
      "vhlo.return_v1"(%260) : (!vhlo.tensor_v1<!vhlo.bf16_v1>) -> ()
    }) : (!vhlo.tensor_v1<1x64x13x14x!vhlo.bf16_v1>, !vhlo.tensor_v1<!vhlo.bf16_v1>) -> !vhlo.tensor_v1<1x64x13x!vhlo.bf16_v1>
    %145 = "vhlo.broadcast_in_dim_v1"(%144) <{broadcast_dimensions = #vhlo.tensor_v1<dense<[0, 1, 2]> : tensor<3xi64>>}> : (!vhlo.tensor_v1<1x64x13x!vhlo.bf16_v1>) -> !vhlo.tensor_v1<1x64x13x14x!vhlo.bf16_v1>
    %146 = "vhlo.divide_v1"(%143, %145) : (!vhlo.tensor_v1<1x64x13x14x!vhlo.bf16_v1>, !vhlo.tensor_v1<1x64x13x14x!vhlo.bf16_v1>) -> !vhlo.tensor_v1<1x64x13x14x!vhlo.bf16_v1>
    %147 = "vhlo.slice_v1"(%146) <{limit_indices = #vhlo.tensor_v1<dense<[1, 64, 13, 13]> : tensor<4xi64>>, start_indices = #vhlo.tensor_v1<dense<0> : tensor<4xi64>>, strides = #vhlo.tensor_v1<dense<1> : tensor<4xi64>>}> : (!vhlo.tensor_v1<1x64x13x14x!vhlo.bf16_v1>) -> !vhlo.tensor_v1<1x64x13x13x!vhlo.bf16_v1>
    %148 = "vhlo.reshape_v1"(%147) : (!vhlo.tensor_v1<1x64x13x13x!vhlo.bf16_v1>) -> !vhlo.tensor_v1<64x13x13x!vhlo.bf16_v1>
    %149 = "vhlo.transpose_v1"(%arg7) <{permutation = #vhlo.tensor_v1<dense<[1, 0]> : tensor<2xi64>>}> {result_layout = #vhlo.tensor_v1<dense<[0, 1]> : tensor<2xindex>>, xla_shape = #vhlo.string_v1<"bf16[2880,512]{0,1}">} : (!vhlo.tensor_v1<512x2880x!vhlo.bf16_v1>) -> !vhlo.tensor_v1<2880x512x!vhlo.bf16_v1>
    %150 = "vhlo.dot_general_v2"(%35, %149) <{accumulation_type = #vhlo.type_v1<!vhlo.none_v1>, allow_imprecise_accumulation = #vhlo.type_v1<!vhlo.none_v1>, lhs_batching_dimensions = #vhlo.tensor_v1<dense<> : tensor<0xi64>>, lhs_component_count = #vhlo.type_v1<!vhlo.none_v1>, lhs_contracting_dimensions = #vhlo.tensor_v1<dense<1> : tensor<1xi64>>, lhs_precision_type = #vhlo.type_v1<!vhlo.none_v1>, num_primitive_operations = #vhlo.type_v1<!vhlo.none_v1>, precision_config = #vhlo.array_v1<[#vhlo<precision_v1 DEFAULT>, #vhlo<precision_v1 DEFAULT>]>, rhs_batching_dimensions = #vhlo.tensor_v1<dense<> : tensor<0xi64>>, rhs_component_count = #vhlo.type_v1<!vhlo.none_v1>, rhs_contracting_dimensions = #vhlo.tensor_v1<dense<0> : tensor<1xi64>>, rhs_precision_type = #vhlo.type_v1<!vhlo.none_v1>}> : (!vhlo.tensor_v1<13x2880x!vhlo.bf16_v1>, !vhlo.tensor_v1<2880x512x!vhlo.bf16_v1>) -> !vhlo.tensor_v1<13x512x!vhlo.bf16_v1>
    %151 = "vhlo.reshape_v1"(%150) : (!vhlo.tensor_v1<13x512x!vhlo.bf16_v1>) -> !vhlo.tensor_v1<1x13x512x!vhlo.bf16_v1>
    %152 = "vhlo.broadcast_in_dim_v1"(%arg6) <{broadcast_dimensions = #vhlo.tensor_v1<dense<2> : tensor<1xi64>>}> : (!vhlo.tensor_v1<512x!vhlo.bf16_v1>) -> !vhlo.tensor_v1<1x13x512x!vhlo.bf16_v1>
    %153 = "vhlo.add_v1"(%151, %152) : (!vhlo.tensor_v1<1x13x512x!vhlo.bf16_v1>, !vhlo.tensor_v1<1x13x512x!vhlo.bf16_v1>) -> !vhlo.tensor_v1<1x13x512x!vhlo.bf16_v1>
    %154 = "vhlo.reshape_v1"(%153) : (!vhlo.tensor_v1<1x13x512x!vhlo.bf16_v1>) -> !vhlo.tensor_v1<1x13x8x64x!vhlo.bf16_v1>
    %155 = "vhlo.transpose_v1"(%154) <{permutation = #vhlo.tensor_v1<dense<[0, 2, 1, 3]> : tensor<4xi64>>}> {result_layout = #vhlo.tensor_v1<dense<[3, 1, 2, 0]> : tensor<4xindex>>, xla_shape = #vhlo.string_v1<"bf16[1,8,13,64]{3,1,2,0}">} : (!vhlo.tensor_v1<1x13x8x64x!vhlo.bf16_v1>) -> !vhlo.tensor_v1<1x8x13x64x!vhlo.bf16_v1>
    %156 = "vhlo.broadcast_in_dim_v1"(%155) <{broadcast_dimensions = #vhlo.tensor_v1<dense<[0, 1, 3, 4]> : tensor<4xi64>>}> : (!vhlo.tensor_v1<1x8x13x64x!vhlo.bf16_v1>) -> !vhlo.tensor_v1<1x8x8x13x64x!vhlo.bf16_v1>
    %157 = "vhlo.reshape_v1"(%156) : (!vhlo.tensor_v1<1x8x8x13x64x!vhlo.bf16_v1>) -> !vhlo.tensor_v1<64x13x64x!vhlo.bf16_v1>
    %158 = "vhlo.dot_general_v2"(%148, %157) <{accumulation_type = #vhlo.type_v1<!vhlo.none_v1>, allow_imprecise_accumulation = #vhlo.type_v1<!vhlo.none_v1>, lhs_batching_dimensions = #vhlo.tensor_v1<dense<0> : tensor<1xi64>>, lhs_component_count = #vhlo.type_v1<!vhlo.none_v1>, lhs_contracting_dimensions = #vhlo.tensor_v1<dense<2> : tensor<1xi64>>, lhs_precision_type = #vhlo.type_v1<!vhlo.none_v1>, num_primitive_operations = #vhlo.type_v1<!vhlo.none_v1>, precision_config = #vhlo.array_v1<[#vhlo<precision_v1 DEFAULT>, #vhlo<precision_v1 DEFAULT>]>, rhs_batching_dimensions = #vhlo.tensor_v1<dense<0> : tensor<1xi64>>, rhs_component_count = #vhlo.type_v1<!vhlo.none_v1>, rhs_contracting_dimensions = #vhlo.tensor_v1<dense<1> : tensor<1xi64>>, rhs_precision_type = #vhlo.type_v1<!vhlo.none_v1>}> : (!vhlo.tensor_v1<64x13x13x!vhlo.bf16_v1>, !vhlo.tensor_v1<64x13x64x!vhlo.bf16_v1>) -> !vhlo.tensor_v1<64x13x64x!vhlo.bf16_v1>
    %159 = "vhlo.reshape_v1"(%158) : (!vhlo.tensor_v1<64x13x64x!vhlo.bf16_v1>) -> !vhlo.tensor_v1<1x64x13x64x!vhlo.bf16_v1>
    %160 = "vhlo.transpose_v1"(%159) <{permutation = #vhlo.tensor_v1<dense<[0, 2, 1, 3]> : tensor<4xi64>>}> {result_layout = #vhlo.tensor_v1<dense<[3, 1, 2, 0]> : tensor<4xindex>>, xla_shape = #vhlo.string_v1<"bf16[1,13,64,64]{3,1,2,0}">} : (!vhlo.tensor_v1<1x64x13x64x!vhlo.bf16_v1>) -> !vhlo.tensor_v1<1x13x64x64x!vhlo.bf16_v1>
    %161 = "vhlo.reshape_v1"(%160) : (!vhlo.tensor_v1<1x13x64x64x!vhlo.bf16_v1>) -> !vhlo.tensor_v1<13x4096x!vhlo.bf16_v1>
    %162 = "vhlo.transpose_v1"(%arg5) <{permutation = #vhlo.tensor_v1<dense<[1, 0]> : tensor<2xi64>>}> {result_layout = #vhlo.tensor_v1<dense<[0, 1]> : tensor<2xindex>>, xla_shape = #vhlo.string_v1<"bf16[4096,2880]{0,1}">} : (!vhlo.tensor_v1<2880x4096x!vhlo.bf16_v1>) -> !vhlo.tensor_v1<4096x2880x!vhlo.bf16_v1>
    %163 = "vhlo.dot_general_v2"(%161, %162) <{accumulation_type = #vhlo.type_v1<!vhlo.none_v1>, allow_imprecise_accumulation = #vhlo.type_v1<!vhlo.none_v1>, lhs_batching_dimensions = #vhlo.tensor_v1<dense<> : tensor<0xi64>>, lhs_component_count = #vhlo.type_v1<!vhlo.none_v1>, lhs_contracting_dimensions = #vhlo.tensor_v1<dense<1> : tensor<1xi64>>, lhs_precision_type = #vhlo.type_v1<!vhlo.none_v1>, num_primitive_operations = #vhlo.type_v1<!vhlo.none_v1>, precision_config = #vhlo.array_v1<[#vhlo<precision_v1 DEFAULT>, #vhlo<precision_v1 DEFAULT>]>, rhs_batching_dimensions = #vhlo.tensor_v1<dense<> : tensor<0xi64>>, rhs_component_count = #vhlo.type_v1<!vhlo.none_v1>, rhs_contracting_dimensions = #vhlo.tensor_v1<dense<0> : tensor<1xi64>>, rhs_precision_type = #vhlo.type_v1<!vhlo.none_v1>}> : (!vhlo.tensor_v1<13x4096x!vhlo.bf16_v1>, !vhlo.tensor_v1<4096x2880x!vhlo.bf16_v1>) -> !vhlo.tensor_v1<13x2880x!vhlo.bf16_v1>
    %164 = "vhlo.reshape_v1"(%163) : (!vhlo.tensor_v1<13x2880x!vhlo.bf16_v1>) -> !vhlo.tensor_v1<1x13x2880x!vhlo.bf16_v1>
    %165 = "vhlo.broadcast_in_dim_v1"(%arg4) <{broadcast_dimensions = #vhlo.tensor_v1<dense<2> : tensor<1xi64>>}> : (!vhlo.tensor_v1<2880x!vhlo.bf16_v1>) -> !vhlo.tensor_v1<1x13x2880x!vhlo.bf16_v1>
    %166 = "vhlo.add_v1"(%164, %165) : (!vhlo.tensor_v1<1x13x2880x!vhlo.bf16_v1>, !vhlo.tensor_v1<1x13x2880x!vhlo.bf16_v1>) -> !vhlo.tensor_v1<1x13x2880x!vhlo.bf16_v1>
    %167 = "vhlo.add_v1"(%21, %166) : (!vhlo.tensor_v1<1x13x2880x!vhlo.bf16_v1>, !vhlo.tensor_v1<1x13x2880x!vhlo.bf16_v1>) -> !vhlo.tensor_v1<1x13x2880x!vhlo.bf16_v1>
    %168 = "vhlo.broadcast_in_dim_v1"(%arg29) <{broadcast_dimensions = #vhlo.tensor_v1<dense<> : tensor<0xi64>>}> : (!vhlo.tensor_v1<!vhlo.bf16_v1>) -> !vhlo.tensor_v1<32x13x2880x!vhlo.bf16_v1>
    %169 = "vhlo.convert_v1"(%arg21) : (!vhlo.tensor_v1<2880x!vhlo.bf16_v1>) -> !vhlo.tensor_v1<2880x!vhlo.f32_v1>
    %170 = "vhlo.broadcast_in_dim_v1"(%169) <{broadcast_dimensions = #vhlo.tensor_v1<dense<2> : tensor<1xi64>>}> : (!vhlo.tensor_v1<2880x!vhlo.f32_v1>) -> !vhlo.tensor_v1<1x13x2880x!vhlo.f32_v1>
    %171 = "vhlo.convert_v1"(%167) : (!vhlo.tensor_v1<1x13x2880x!vhlo.bf16_v1>) -> !vhlo.tensor_v1<1x13x2880x!vhlo.f32_v1>
    %172 = "vhlo.power_v1"(%171, %14) : (!vhlo.tensor_v1<1x13x2880x!vhlo.f32_v1>, !vhlo.tensor_v1<1x13x2880x!vhlo.f32_v1>) -> !vhlo.tensor_v1<1x13x2880x!vhlo.f32_v1>
    %173 = "vhlo.reduce_v1"(%172, %0) <{dimensions = #vhlo.tensor_v1<dense<2> : tensor<1xi64>>}> ({
    ^bb0(%arg31: !vhlo.tensor_v1<!vhlo.f32_v1>, %arg32: !vhlo.tensor_v1<!vhlo.f32_v1>):
      %260 = "vhlo.add_v1"(%arg31, %arg32) : (!vhlo.tensor_v1<!vhlo.f32_v1>, !vhlo.tensor_v1<!vhlo.f32_v1>) -> !vhlo.tensor_v1<!vhlo.f32_v1>
      "vhlo.return_v1"(%260) : (!vhlo.tensor_v1<!vhlo.f32_v1>) -> ()
    }) : (!vhlo.tensor_v1<1x13x2880x!vhlo.f32_v1>, !vhlo.tensor_v1<!vhlo.f32_v1>) -> !vhlo.tensor_v1<1x13x!vhlo.f32_v1>
    %174 = "vhlo.multiply_v1"(%173, %5) : (!vhlo.tensor_v1<1x13x!vhlo.f32_v1>, !vhlo.tensor_v1<1x13x!vhlo.f32_v1>) -> !vhlo.tensor_v1<1x13x!vhlo.f32_v1>
    %175 = "vhlo.reshape_v1"(%174) : (!vhlo.tensor_v1<1x13x!vhlo.f32_v1>) -> !vhlo.tensor_v1<1x13x1x!vhlo.f32_v1>
    %176 = "vhlo.add_v1"(%175, %27) : (!vhlo.tensor_v1<1x13x1x!vhlo.f32_v1>, !vhlo.tensor_v1<1x13x1x!vhlo.f32_v1>) -> !vhlo.tensor_v1<1x13x1x!vhlo.f32_v1>
    %177 = "vhlo.rsqrt_v2"(%176) <{result_accuracy = #vhlo.result_accuracy_v1<atol = 0.000000e+00, rtol = 0.000000e+00, ulps = 0, mode = #vhlo<result_accuracy_mode_v1 DEFAULT>>}> : (!vhlo.tensor_v1<1x13x1x!vhlo.f32_v1>) -> !vhlo.tensor_v1<1x13x1x!vhlo.f32_v1>
    %178 = "vhlo.reshape_v1"(%177) : (!vhlo.tensor_v1<1x13x1x!vhlo.f32_v1>) -> !vhlo.tensor_v1<1x13x!vhlo.f32_v1>
    %179 = "vhlo.broadcast_in_dim_v1"(%178) <{broadcast_dimensions = #vhlo.tensor_v1<dense<[0, 1]> : tensor<2xi64>>}> : (!vhlo.tensor_v1<1x13x!vhlo.f32_v1>) -> !vhlo.tensor_v1<1x13x2880x!vhlo.f32_v1>
    %180 = "vhlo.multiply_v1"(%171, %179) : (!vhlo.tensor_v1<1x13x2880x!vhlo.f32_v1>, !vhlo.tensor_v1<1x13x2880x!vhlo.f32_v1>) -> !vhlo.tensor_v1<1x13x2880x!vhlo.f32_v1>
    %181 = "vhlo.multiply_v1"(%170, %180) : (!vhlo.tensor_v1<1x13x2880x!vhlo.f32_v1>, !vhlo.tensor_v1<1x13x2880x!vhlo.f32_v1>) -> !vhlo.tensor_v1<1x13x2880x!vhlo.f32_v1>
    %182 = "vhlo.convert_v1"(%181) : (!vhlo.tensor_v1<1x13x2880x!vhlo.f32_v1>) -> !vhlo.tensor_v1<1x13x2880x!vhlo.bf16_v1>
    %183 = "vhlo.reshape_v1"(%182) : (!vhlo.tensor_v1<1x13x2880x!vhlo.bf16_v1>) -> !vhlo.tensor_v1<13x2880x!vhlo.bf16_v1>
    %184 = "vhlo.concatenate_v1"(%183, %183, %183, %183, %183, %183, %183, %183, %183, %183, %183, %183, %183, %183, %183, %183, %183, %183, %183, %183, %183, %183, %183, %183, %183, %183, %183, %183, %183, %183, %183, %183) <{dimension = #vhlo.integer_v1<0 : i64>}> : (!vhlo.tensor_v1<13x2880x!vhlo.bf16_v1>, !vhlo.tensor_v1<13x2880x!vhlo.bf16_v1>, !vhlo.tensor_v1<13x2880x!vhlo.bf16_v1>, !vhlo.tensor_v1<13x2880x!vhlo.bf16_v1>, !vhlo.tensor_v1<13x2880x!vhlo.bf16_v1>, !vhlo.tensor_v1<13x2880x!vhlo.bf16_v1>, !vhlo.tensor_v1<13x2880x!vhlo.bf16_v1>, !vhlo.tensor_v1<13x2880x!vhlo.bf16_v1>, !vhlo.tensor_v1<13x2880x!vhlo.bf16_v1>, !vhlo.tensor_v1<13x2880x!vhlo.bf16_v1>, !vhlo.tensor_v1<13x2880x!vhlo.bf16_v1>, !vhlo.tensor_v1<13x2880x!vhlo.bf16_v1>, !vhlo.tensor_v1<13x2880x!vhlo.bf16_v1>, !vhlo.tensor_v1<13x2880x!vhlo.bf16_v1>, !vhlo.tensor_v1<13x2880x!vhlo.bf16_v1>, !vhlo.tensor_v1<13x2880x!vhlo.bf16_v1>, !vhlo.tensor_v1<13x2880x!vhlo.bf16_v1>, !vhlo.tensor_v1<13x2880x!vhlo.bf16_v1>, !vhlo.tensor_v1<13x2880x!vhlo.bf16_v1>, !vhlo.tensor_v1<13x2880x!vhlo.bf16_v1>, !vhlo.tensor_v1<13x2880x!vhlo.bf16_v1>, !vhlo.tensor_v1<13x2880x!vhlo.bf16_v1>, !vhlo.tensor_v1<13x2880x!vhlo.bf16_v1>, !vhlo.tensor_v1<13x2880x!vhlo.bf16_v1>, !vhlo.tensor_v1<13x2880x!vhlo.bf16_v1>, !vhlo.tensor_v1<13x2880x!vhlo.bf16_v1>, !vhlo.tensor_v1<13x2880x!vhlo.bf16_v1>, !vhlo.tensor_v1<13x2880x!vhlo.bf16_v1>, !vhlo.tensor_v1<13x2880x!vhlo.bf16_v1>, !vhlo.tensor_v1<13x2880x!vhlo.bf16_v1>, !vhlo.tensor_v1<13x2880x!vhlo.bf16_v1>, !vhlo.tensor_v1<13x2880x!vhlo.bf16_v1>) -> !vhlo.tensor_v1<416x2880x!vhlo.bf16_v1>
    %185 = "vhlo.reshape_v1"(%184) : (!vhlo.tensor_v1<416x2880x!vhlo.bf16_v1>) -> !vhlo.tensor_v1<32x13x2880x!vhlo.bf16_v1>
    %186 = "vhlo.dot_general_v2"(%185, %arg28) <{accumulation_type = #vhlo.type_v1<!vhlo.none_v1>, allow_imprecise_accumulation = #vhlo.type_v1<!vhlo.none_v1>, lhs_batching_dimensions = #vhlo.tensor_v1<dense<0> : tensor<1xi64>>, lhs_component_count = #vhlo.type_v1<!vhlo.none_v1>, lhs_contracting_dimensions = #vhlo.tensor_v1<dense<2> : tensor<1xi64>>, lhs_precision_type = #vhlo.type_v1<!vhlo.none_v1>, num_primitive_operations = #vhlo.type_v1<!vhlo.none_v1>, precision_config = #vhlo.array_v1<[#vhlo<precision_v1 DEFAULT>, #vhlo<precision_v1 DEFAULT>]>, rhs_batching_dimensions = #vhlo.tensor_v1<dense<0> : tensor<1xi64>>, rhs_component_count = #vhlo.type_v1<!vhlo.none_v1>, rhs_contracting_dimensions = #vhlo.tensor_v1<dense<1> : tensor<1xi64>>, rhs_precision_type = #vhlo.type_v1<!vhlo.none_v1>}> : (!vhlo.tensor_v1<32x13x2880x!vhlo.bf16_v1>, !vhlo.tensor_v1<32x2880x5760x!vhlo.bf16_v1>) -> !vhlo.tensor_v1<32x13x5760x!vhlo.bf16_v1>
    %187 = "vhlo.broadcast_in_dim_v1"(%arg27) <{broadcast_dimensions = #vhlo.tensor_v1<dense<[0, 2]> : tensor<2xi64>>}> : (!vhlo.tensor_v1<32x5760x!vhlo.bf16_v1>) -> !vhlo.tensor_v1<32x13x5760x!vhlo.bf16_v1>
    %188 = "vhlo.add_v1"(%186, %187) : (!vhlo.tensor_v1<32x13x5760x!vhlo.bf16_v1>, !vhlo.tensor_v1<32x13x5760x!vhlo.bf16_v1>) -> !vhlo.tensor_v1<32x13x5760x!vhlo.bf16_v1>
    %189 = "vhlo.slice_v1"(%188) <{limit_indices = #vhlo.tensor_v1<dense<[32, 13, 5760]> : tensor<3xi64>>, start_indices = #vhlo.tensor_v1<dense<[0, 0, 1]> : tensor<3xi64>>, strides = #vhlo.tensor_v1<dense<[1, 1, 2]> : tensor<3xi64>>}> : (!vhlo.tensor_v1<32x13x5760x!vhlo.bf16_v1>) -> !vhlo.tensor_v1<32x13x2880x!vhlo.bf16_v1>
    %190 = "vhlo.broadcast_in_dim_v1"(%arg25) <{broadcast_dimensions = #vhlo.tensor_v1<dense<> : tensor<0xi64>>}> : (!vhlo.tensor_v1<!vhlo.bf16_v1>) -> !vhlo.tensor_v1<32x13x2880x!vhlo.bf16_v1>
    %191 = "vhlo.clamp_v1"(%168, %189, %190) : (!vhlo.tensor_v1<32x13x2880x!vhlo.bf16_v1>, !vhlo.tensor_v1<32x13x2880x!vhlo.bf16_v1>, !vhlo.tensor_v1<32x13x2880x!vhlo.bf16_v1>) -> !vhlo.tensor_v1<32x13x2880x!vhlo.bf16_v1>
    %192 = "vhlo.add_v1"(%191, %11) : (!vhlo.tensor_v1<32x13x2880x!vhlo.bf16_v1>, !vhlo.tensor_v1<32x13x2880x!vhlo.bf16_v1>) -> !vhlo.tensor_v1<32x13x2880x!vhlo.bf16_v1>
    %193 = "vhlo.convert_v1"(%192) : (!vhlo.tensor_v1<32x13x2880x!vhlo.bf16_v1>) -> !vhlo.tensor_v1<32x13x2880x!vhlo.f32_v1>
    %194 = "vhlo.broadcast_in_dim_v1"(%arg26) <{broadcast_dimensions = #vhlo.tensor_v1<dense<> : tensor<0xi64>>}> : (!vhlo.tensor_v1<!vhlo.bf16_v1>) -> !vhlo.tensor_v1<32x13x2880x!vhlo.bf16_v1>
    %195 = "vhlo.slice_v1"(%188) <{limit_indices = #vhlo.tensor_v1<dense<[32, 13, 5760]> : tensor<3xi64>>, start_indices = #vhlo.tensor_v1<dense<0> : tensor<3xi64>>, strides = #vhlo.tensor_v1<dense<[1, 1, 2]> : tensor<3xi64>>}> : (!vhlo.tensor_v1<32x13x5760x!vhlo.bf16_v1>) -> !vhlo.tensor_v1<32x13x2880x!vhlo.bf16_v1>
    %196 = "vhlo.clamp_v1"(%194, %195, %190) : (!vhlo.tensor_v1<32x13x2880x!vhlo.bf16_v1>, !vhlo.tensor_v1<32x13x2880x!vhlo.bf16_v1>, !vhlo.tensor_v1<32x13x2880x!vhlo.bf16_v1>) -> !vhlo.tensor_v1<32x13x2880x!vhlo.bf16_v1>
    %197 = "vhlo.convert_v1"(%196) : (!vhlo.tensor_v1<32x13x2880x!vhlo.bf16_v1>) -> !vhlo.tensor_v1<32x13x2880x!vhlo.f32_v1>
    %198 = "vhlo.broadcast_in_dim_v1"(%arg24) <{broadcast_dimensions = #vhlo.tensor_v1<dense<> : tensor<0xi64>>}> : (!vhlo.tensor_v1<!vhlo.f32_v1>) -> !vhlo.tensor_v1<32x13x2880x!vhlo.f32_v1>
    %199 = "vhlo.multiply_v1"(%197, %198) : (!vhlo.tensor_v1<32x13x2880x!vhlo.f32_v1>, !vhlo.tensor_v1<32x13x2880x!vhlo.f32_v1>) -> !vhlo.tensor_v1<32x13x2880x!vhlo.f32_v1>
    %200 = "vhlo.convert_v1"(%199) : (!vhlo.tensor_v1<32x13x2880x!vhlo.f32_v1>) -> !vhlo.tensor_v1<32x13x2880x!vhlo.bf16_v1>
    %201 = "vhlo.logistic_v2"(%200) <{result_accuracy = #vhlo.result_accuracy_v1<atol = 0.000000e+00, rtol = 0.000000e+00, ulps = 0, mode = #vhlo<result_accuracy_mode_v1 DEFAULT>>}> : (!vhlo.tensor_v1<32x13x2880x!vhlo.bf16_v1>) -> !vhlo.tensor_v1<32x13x2880x!vhlo.bf16_v1>
    %202 = "vhlo.convert_v1"(%201) : (!vhlo.tensor_v1<32x13x2880x!vhlo.bf16_v1>) -> !vhlo.tensor_v1<32x13x2880x!vhlo.f32_v1>
    %203 = "vhlo.multiply_v1"(%197, %202) : (!vhlo.tensor_v1<32x13x2880x!vhlo.f32_v1>, !vhlo.tensor_v1<32x13x2880x!vhlo.f32_v1>) -> !vhlo.tensor_v1<32x13x2880x!vhlo.f32_v1>
    %204 = "vhlo.convert_v1"(%203) : (!vhlo.tensor_v1<32x13x2880x!vhlo.f32_v1>) -> !vhlo.tensor_v1<32x13x2880x!vhlo.bf16_v1>
    %205 = "vhlo.convert_v1"(%204) : (!vhlo.tensor_v1<32x13x2880x!vhlo.bf16_v1>) -> !vhlo.tensor_v1<32x13x2880x!vhlo.f32_v1>
    %206 = "vhlo.multiply_v1"(%193, %205) : (!vhlo.tensor_v1<32x13x2880x!vhlo.f32_v1>, !vhlo.tensor_v1<32x13x2880x!vhlo.f32_v1>) -> !vhlo.tensor_v1<32x13x2880x!vhlo.f32_v1>
    %207 = "vhlo.convert_v1"(%206) : (!vhlo.tensor_v1<32x13x2880x!vhlo.f32_v1>) -> !vhlo.tensor_v1<32x13x2880x!vhlo.bf16_v1>
    %208 = "vhlo.dot_general_v2"(%207, %arg23) <{accumulation_type = #vhlo.type_v1<!vhlo.none_v1>, allow_imprecise_accumulation = #vhlo.type_v1<!vhlo.none_v1>, lhs_batching_dimensions = #vhlo.tensor_v1<dense<0> : tensor<1xi64>>, lhs_component_count = #vhlo.type_v1<!vhlo.none_v1>, lhs_contracting_dimensions = #vhlo.tensor_v1<dense<2> : tensor<1xi64>>, lhs_precision_type = #vhlo.type_v1<!vhlo.none_v1>, num_primitive_operations = #vhlo.type_v1<!vhlo.none_v1>, precision_config = #vhlo.array_v1<[#vhlo<precision_v1 DEFAULT>, #vhlo<precision_v1 DEFAULT>]>, rhs_batching_dimensions = #vhlo.tensor_v1<dense<0> : tensor<1xi64>>, rhs_component_count = #vhlo.type_v1<!vhlo.none_v1>, rhs_contracting_dimensions = #vhlo.tensor_v1<dense<1> : tensor<1xi64>>, rhs_precision_type = #vhlo.type_v1<!vhlo.none_v1>}> : (!vhlo.tensor_v1<32x13x2880x!vhlo.bf16_v1>, !vhlo.tensor_v1<32x2880x2880x!vhlo.bf16_v1>) -> !vhlo.tensor_v1<32x13x2880x!vhlo.bf16_v1>
    %209 = "vhlo.broadcast_in_dim_v1"(%arg22) <{broadcast_dimensions = #vhlo.tensor_v1<dense<[0, 2]> : tensor<2xi64>>}> : (!vhlo.tensor_v1<32x2880x!vhlo.bf16_v1>) -> !vhlo.tensor_v1<32x13x2880x!vhlo.bf16_v1>
    %210 = "vhlo.add_v1"(%208, %209) : (!vhlo.tensor_v1<32x13x2880x!vhlo.bf16_v1>, !vhlo.tensor_v1<32x13x2880x!vhlo.bf16_v1>) -> !vhlo.tensor_v1<32x13x2880x!vhlo.bf16_v1>
    %211 = "vhlo.reshape_v1"(%210) : (!vhlo.tensor_v1<32x13x2880x!vhlo.bf16_v1>) -> !vhlo.tensor_v1<32x1x13x2880x!vhlo.bf16_v1>
    %212 = "vhlo.convert_v1"(%211) : (!vhlo.tensor_v1<32x1x13x2880x!vhlo.bf16_v1>) -> !vhlo.tensor_v1<32x1x13x2880x!vhlo.f32_v1>
    %213 = "vhlo.iota_v1"() <{iota_dimension = #vhlo.integer_v1<0 : i64>}> : () -> !vhlo.tensor_v1<13x!vhlo.i64_v1>
    %214 = "vhlo.broadcast_in_dim_v1"(%213) <{broadcast_dimensions = #vhlo.tensor_v1<dense<0> : tensor<1xi64>>}> : (!vhlo.tensor_v1<13x!vhlo.i64_v1>) -> !vhlo.tensor_v1<13x4x1x!vhlo.i64_v1>
    %215 = "vhlo.transpose_v1"(%arg3) <{permutation = #vhlo.tensor_v1<dense<[1, 0]> : tensor<2xi64>>}> {result_layout = #vhlo.tensor_v1<dense<[0, 1]> : tensor<2xindex>>, xla_shape = #vhlo.string_v1<"bf16[2880,32]{0,1}">} : (!vhlo.tensor_v1<32x2880x!vhlo.bf16_v1>) -> !vhlo.tensor_v1<2880x32x!vhlo.bf16_v1>
    %216 = "vhlo.dot_general_v2"(%183, %215) <{accumulation_type = #vhlo.type_v1<!vhlo.none_v1>, allow_imprecise_accumulation = #vhlo.type_v1<!vhlo.none_v1>, lhs_batching_dimensions = #vhlo.tensor_v1<dense<> : tensor<0xi64>>, lhs_component_count = #vhlo.type_v1<!vhlo.none_v1>, lhs_contracting_dimensions = #vhlo.tensor_v1<dense<1> : tensor<1xi64>>, lhs_precision_type = #vhlo.type_v1<!vhlo.none_v1>, num_primitive_operations = #vhlo.type_v1<!vhlo.none_v1>, precision_config = #vhlo.array_v1<[#vhlo<precision_v1 DEFAULT>, #vhlo<precision_v1 DEFAULT>]>, rhs_batching_dimensions = #vhlo.tensor_v1<dense<> : tensor<0xi64>>, rhs_component_count = #vhlo.type_v1<!vhlo.none_v1>, rhs_contracting_dimensions = #vhlo.tensor_v1<dense<0> : tensor<1xi64>>, rhs_precision_type = #vhlo.type_v1<!vhlo.none_v1>}> : (!vhlo.tensor_v1<13x2880x!vhlo.bf16_v1>, !vhlo.tensor_v1<2880x32x!vhlo.bf16_v1>) -> !vhlo.tensor_v1<13x32x!vhlo.bf16_v1>
    %217 = "vhlo.broadcast_in_dim_v1"(%arg2) <{broadcast_dimensions = #vhlo.tensor_v1<dense<1> : tensor<1xi64>>}> : (!vhlo.tensor_v1<32x!vhlo.bf16_v1>) -> !vhlo.tensor_v1<13x32x!vhlo.bf16_v1>
    %218 = "vhlo.add_v1"(%216, %217) : (!vhlo.tensor_v1<13x32x!vhlo.bf16_v1>, !vhlo.tensor_v1<13x32x!vhlo.bf16_v1>) -> !vhlo.tensor_v1<13x32x!vhlo.bf16_v1>
    %219 = "vhlo.iota_v1"() <{iota_dimension = #vhlo.integer_v1<0 : i64>}> : () -> !vhlo.tensor_v1<32x!vhlo.i32_v1>
    %220 = "vhlo.broadcast_in_dim_v1"(%219) <{broadcast_dimensions = #vhlo.tensor_v1<dense<1> : tensor<1xi64>>}> : (!vhlo.tensor_v1<32x!vhlo.i32_v1>) -> !vhlo.tensor_v1<13x32x!vhlo.i32_v1>
    %221:2 = "vhlo.sort_v1"(%218, %220) <{dimension = #vhlo.integer_v1<1 : i64>, is_stable = #vhlo.bool_v1<false>}> ({
    ^bb0(%arg31: !vhlo.tensor_v1<!vhlo.bf16_v1>, %arg32: !vhlo.tensor_v1<!vhlo.bf16_v1>, %arg33: !vhlo.tensor_v1<!vhlo.i32_v1>, %arg34: !vhlo.tensor_v1<!vhlo.i32_v1>):
      %260 = "vhlo.compare_v1"(%arg31, %arg32) <{compare_type = #vhlo<comparison_type_v1 TOTALORDER>, comparison_direction = #vhlo<comparison_direction_v1 GT>}> : (!vhlo.tensor_v1<!vhlo.bf16_v1>, !vhlo.tensor_v1<!vhlo.bf16_v1>) -> !vhlo.tensor_v1<!vhlo.bool_v1>
      "vhlo.return_v1"(%260) : (!vhlo.tensor_v1<!vhlo.bool_v1>) -> ()
    }) : (!vhlo.tensor_v1<13x32x!vhlo.bf16_v1>, !vhlo.tensor_v1<13x32x!vhlo.i32_v1>) -> (!vhlo.tensor_v1<13x32x!vhlo.bf16_v1>, !vhlo.tensor_v1<13x32x!vhlo.i32_v1>)
    %222 = "vhlo.slice_v1"(%221#1) <{limit_indices = #vhlo.tensor_v1<dense<[13, 4]> : tensor<2xi64>>, start_indices = #vhlo.tensor_v1<dense<0> : tensor<2xi64>>, strides = #vhlo.tensor_v1<dense<1> : tensor<2xi64>>}> : (!vhlo.tensor_v1<13x32x!vhlo.i32_v1>) -> !vhlo.tensor_v1<13x4x!vhlo.i32_v1>
    %223 = "vhlo.convert_v1"(%222) : (!vhlo.tensor_v1<13x4x!vhlo.i32_v1>) -> !vhlo.tensor_v1<13x4x!vhlo.i64_v1>
    %224 = "vhlo.reshape_v1"(%223) : (!vhlo.tensor_v1<13x4x!vhlo.i64_v1>) -> !vhlo.tensor_v1<13x4x1x!vhlo.i64_v1>
    %225 = "vhlo.concatenate_v1"(%214, %224) <{dimension = #vhlo.integer_v1<2 : i64>}> : (!vhlo.tensor_v1<13x4x1x!vhlo.i64_v1>, !vhlo.tensor_v1<13x4x1x!vhlo.i64_v1>) -> !vhlo.tensor_v1<13x4x2x!vhlo.i64_v1>
    %226 = "vhlo.slice_v1"(%221#0) <{limit_indices = #vhlo.tensor_v1<dense<[13, 4]> : tensor<2xi64>>, start_indices = #vhlo.tensor_v1<dense<0> : tensor<2xi64>>, strides = #vhlo.tensor_v1<dense<1> : tensor<2xi64>>}> : (!vhlo.tensor_v1<13x32x!vhlo.bf16_v1>) -> !vhlo.tensor_v1<13x4x!vhlo.bf16_v1>
    %227 = "vhlo.reduce_v1"(%226, %3) <{dimensions = #vhlo.tensor_v1<dense<1> : tensor<1xi64>>}> ({
    ^bb0(%arg31: !vhlo.tensor_v1<!vhlo.bf16_v1>, %arg32: !vhlo.tensor_v1<!vhlo.bf16_v1>):
      %260 = "vhlo.maximum_v1"(%arg31, %arg32) : (!vhlo.tensor_v1<!vhlo.bf16_v1>, !vhlo.tensor_v1<!vhlo.bf16_v1>) -> !vhlo.tensor_v1<!vhlo.bf16_v1>
      "vhlo.return_v1"(%260) : (!vhlo.tensor_v1<!vhlo.bf16_v1>) -> ()
    }) : (!vhlo.tensor_v1<13x4x!vhlo.bf16_v1>, !vhlo.tensor_v1<!vhlo.bf16_v1>) -> !vhlo.tensor_v1<13x!vhlo.bf16_v1>
    %228 = "vhlo.broadcast_in_dim_v1"(%227) <{broadcast_dimensions = #vhlo.tensor_v1<dense<0> : tensor<1xi64>>}> : (!vhlo.tensor_v1<13x!vhlo.bf16_v1>) -> !vhlo.tensor_v1<13x4x!vhlo.bf16_v1>
    %229 = "vhlo.subtract_v1"(%226, %228) : (!vhlo.tensor_v1<13x4x!vhlo.bf16_v1>, !vhlo.tensor_v1<13x4x!vhlo.bf16_v1>) -> !vhlo.tensor_v1<13x4x!vhlo.bf16_v1>
    %230 = "vhlo.exponential_v2"(%229) <{result_accuracy = #vhlo.result_accuracy_v1<atol = 0.000000e+00, rtol = 0.000000e+00, ulps = 0, mode = #vhlo<result_accuracy_mode_v1 DEFAULT>>}> : (!vhlo.tensor_v1<13x4x!vhlo.bf16_v1>) -> !vhlo.tensor_v1<13x4x!vhlo.bf16_v1>
    %231 = "vhlo.reduce_v1"(%230, %9) <{dimensions = #vhlo.tensor_v1<dense<1> : tensor<1xi64>>}> ({
    ^bb0(%arg31: !vhlo.tensor_v1<!vhlo.bf16_v1>, %arg32: !vhlo.tensor_v1<!vhlo.bf16_v1>):
      %260 = "vhlo.add_v1"(%arg31, %arg32) : (!vhlo.tensor_v1<!vhlo.bf16_v1>, !vhlo.tensor_v1<!vhlo.bf16_v1>) -> !vhlo.tensor_v1<!vhlo.bf16_v1>
      "vhlo.return_v1"(%260) : (!vhlo.tensor_v1<!vhlo.bf16_v1>) -> ()
    }) : (!vhlo.tensor_v1<13x4x!vhlo.bf16_v1>, !vhlo.tensor_v1<!vhlo.bf16_v1>) -> !vhlo.tensor_v1<13x!vhlo.bf16_v1>
    %232 = "vhlo.broadcast_in_dim_v1"(%231) <{broadcast_dimensions = #vhlo.tensor_v1<dense<0> : tensor<1xi64>>}> : (!vhlo.tensor_v1<13x!vhlo.bf16_v1>) -> !vhlo.tensor_v1<13x4x!vhlo.bf16_v1>
    %233 = "vhlo.divide_v1"(%230, %232) : (!vhlo.tensor_v1<13x4x!vhlo.bf16_v1>, !vhlo.tensor_v1<13x4x!vhlo.bf16_v1>) -> !vhlo.tensor_v1<13x4x!vhlo.bf16_v1>
    %234 = "vhlo.scatter_v2"(%10, %225, %233) <{index_vector_dim = #vhlo.integer_v1<2 : i64>, indices_are_sorted = #vhlo.bool_v1<false>, input_batching_dims = #vhlo.tensor_v1<dense<> : tensor<0xi64>>, inserted_window_dims = #vhlo.tensor_v1<dense<[0, 1]> : tensor<2xi64>>, scatter_dims_to_operand_dims = #vhlo.tensor_v1<dense<[0, 1]> : tensor<2xi64>>, scatter_indices_batching_dims = #vhlo.tensor_v1<dense<> : tensor<0xi64>>, unique_indices = #vhlo.bool_v1<false>, update_window_dims = #vhlo.tensor_v1<dense<> : tensor<0xi64>>}> ({
    ^bb0(%arg31: !vhlo.tensor_v1<!vhlo.bf16_v1>, %arg32: !vhlo.tensor_v1<!vhlo.bf16_v1>):
      "vhlo.return_v1"(%arg32) : (!vhlo.tensor_v1<!vhlo.bf16_v1>) -> ()
    }) : (!vhlo.tensor_v1<13x32x!vhlo.bf16_v1>, !vhlo.tensor_v1<13x4x2x!vhlo.i64_v1>, !vhlo.tensor_v1<13x4x!vhlo.bf16_v1>) -> !vhlo.tensor_v1<13x32x!vhlo.bf16_v1>
    %235 = "vhlo.transpose_v1"(%234) <{permutation = #vhlo.tensor_v1<dense<[1, 0]> : tensor<2xi64>>}> {result_layout = #vhlo.tensor_v1<dense<[0, 1]> : tensor<2xindex>>, xla_shape = #vhlo.string_v1<"bf16[32,13]{0,1}">} : (!vhlo.tensor_v1<13x32x!vhlo.bf16_v1>) -> !vhlo.tensor_v1<32x13x!vhlo.bf16_v1>
    %236 = "vhlo.reshape_v1"(%235) : (!vhlo.tensor_v1<32x13x!vhlo.bf16_v1>) -> !vhlo.tensor_v1<32x1x13x1x!vhlo.bf16_v1>
    %237 = "vhlo.convert_v1"(%236) : (!vhlo.tensor_v1<32x1x13x1x!vhlo.bf16_v1>) -> !vhlo.tensor_v1<32x1x13x1x!vhlo.f32_v1>
    %238 = "vhlo.reshape_v1"(%237) : (!vhlo.tensor_v1<32x1x13x1x!vhlo.f32_v1>) -> !vhlo.tensor_v1<32x1x13x!vhlo.f32_v1>
    %239 = "vhlo.broadcast_in_dim_v1"(%238) <{broadcast_dimensions = #vhlo.tensor_v1<dense<[0, 1, 2]> : tensor<3xi64>>}> : (!vhlo.tensor_v1<32x1x13x!vhlo.f32_v1>) -> !vhlo.tensor_v1<32x1x13x2880x!vhlo.f32_v1>
    %240 = "vhlo.multiply_v1"(%212, %239) : (!vhlo.tensor_v1<32x1x13x2880x!vhlo.f32_v1>, !vhlo.tensor_v1<32x1x13x2880x!vhlo.f32_v1>) -> !vhlo.tensor_v1<32x1x13x2880x!vhlo.f32_v1>
    %241 = "vhlo.convert_v1"(%240) : (!vhlo.tensor_v1<32x1x13x2880x!vhlo.f32_v1>) -> !vhlo.tensor_v1<32x1x13x2880x!vhlo.bf16_v1>
    %242 = "vhlo.reduce_v1"(%241, %9) <{dimensions = #vhlo.tensor_v1<dense<0> : tensor<1xi64>>}> ({
    ^bb0(%arg31: !vhlo.tensor_v1<!vhlo.bf16_v1>, %arg32: !vhlo.tensor_v1<!vhlo.bf16_v1>):
      %260 = "vhlo.add_v1"(%arg31, %arg32) : (!vhlo.tensor_v1<!vhlo.bf16_v1>, !vhlo.tensor_v1<!vhlo.bf16_v1>) -> !vhlo.tensor_v1<!vhlo.bf16_v1>
      "vhlo.return_v1"(%260) : (!vhlo.tensor_v1<!vhlo.bf16_v1>) -> ()
    }) : (!vhlo.tensor_v1<32x1x13x2880x!vhlo.bf16_v1>, !vhlo.tensor_v1<!vhlo.bf16_v1>) -> !vhlo.tensor_v1<1x13x2880x!vhlo.bf16_v1>
    %243 = "vhlo.add_v1"(%167, %242) : (!vhlo.tensor_v1<1x13x2880x!vhlo.bf16_v1>, !vhlo.tensor_v1<1x13x2880x!vhlo.bf16_v1>) -> !vhlo.tensor_v1<1x13x2880x!vhlo.bf16_v1>
    %244 = "vhlo.convert_v1"(%243) : (!vhlo.tensor_v1<1x13x2880x!vhlo.bf16_v1>) -> !vhlo.tensor_v1<1x13x2880x!vhlo.f32_v1>
    %245 = "vhlo.power_v1"(%244, %14) : (!vhlo.tensor_v1<1x13x2880x!vhlo.f32_v1>, !vhlo.tensor_v1<1x13x2880x!vhlo.f32_v1>) -> !vhlo.tensor_v1<1x13x2880x!vhlo.f32_v1>
    %246 = "vhlo.reduce_v1"(%245, %0) <{dimensions = #vhlo.tensor_v1<dense<2> : tensor<1xi64>>}> ({
    ^bb0(%arg31: !vhlo.tensor_v1<!vhlo.f32_v1>, %arg32: !vhlo.tensor_v1<!vhlo.f32_v1>):
      %260 = "vhlo.add_v1"(%arg31, %arg32) : (!vhlo.tensor_v1<!vhlo.f32_v1>, !vhlo.tensor_v1<!vhlo.f32_v1>) -> !vhlo.tensor_v1<!vhlo.f32_v1>
      "vhlo.return_v1"(%260) : (!vhlo.tensor_v1<!vhlo.f32_v1>) -> ()
    }) : (!vhlo.tensor_v1<1x13x2880x!vhlo.f32_v1>, !vhlo.tensor_v1<!vhlo.f32_v1>) -> !vhlo.tensor_v1<1x13x!vhlo.f32_v1>
    %247 = "vhlo.multiply_v1"(%246, %5) : (!vhlo.tensor_v1<1x13x!vhlo.f32_v1>, !vhlo.tensor_v1<1x13x!vhlo.f32_v1>) -> !vhlo.tensor_v1<1x13x!vhlo.f32_v1>
    %248 = "vhlo.reshape_v1"(%247) : (!vhlo.tensor_v1<1x13x!vhlo.f32_v1>) -> !vhlo.tensor_v1<1x13x1x!vhlo.f32_v1>
    %249 = "vhlo.add_v1"(%248, %27) : (!vhlo.tensor_v1<1x13x1x!vhlo.f32_v1>, !vhlo.tensor_v1<1x13x1x!vhlo.f32_v1>) -> !vhlo.tensor_v1<1x13x1x!vhlo.f32_v1>
    %250 = "vhlo.rsqrt_v2"(%249) <{result_accuracy = #vhlo.result_accuracy_v1<atol = 0.000000e+00, rtol = 0.000000e+00, ulps = 0, mode = #vhlo<result_accuracy_mode_v1 DEFAULT>>}> : (!vhlo.tensor_v1<1x13x1x!vhlo.f32_v1>) -> !vhlo.tensor_v1<1x13x1x!vhlo.f32_v1>
    %251 = "vhlo.reshape_v1"(%250) : (!vhlo.tensor_v1<1x13x1x!vhlo.f32_v1>) -> !vhlo.tensor_v1<1x13x!vhlo.f32_v1>
    %252 = "vhlo.broadcast_in_dim_v1"(%251) <{broadcast_dimensions = #vhlo.tensor_v1<dense<[0, 1]> : tensor<2xi64>>}> : (!vhlo.tensor_v1<1x13x!vhlo.f32_v1>) -> !vhlo.tensor_v1<1x13x2880x!vhlo.f32_v1>
    %253 = "vhlo.multiply_v1"(%244, %252) : (!vhlo.tensor_v1<1x13x2880x!vhlo.f32_v1>, !vhlo.tensor_v1<1x13x2880x!vhlo.f32_v1>) -> !vhlo.tensor_v1<1x13x2880x!vhlo.f32_v1>
    %254 = "vhlo.multiply_v1"(%136, %253) : (!vhlo.tensor_v1<1x13x2880x!vhlo.f32_v1>, !vhlo.tensor_v1<1x13x2880x!vhlo.f32_v1>) -> !vhlo.tensor_v1<1x13x2880x!vhlo.f32_v1>
    %255 = "vhlo.convert_v1"(%254) : (!vhlo.tensor_v1<1x13x2880x!vhlo.f32_v1>) -> !vhlo.tensor_v1<1x13x2880x!vhlo.bf16_v1>
    %256 = "vhlo.reshape_v1"(%255) : (!vhlo.tensor_v1<1x13x2880x!vhlo.bf16_v1>) -> !vhlo.tensor_v1<13x2880x!vhlo.bf16_v1>
    %257 = "vhlo.transpose_v1"(%arg0) <{permutation = #vhlo.tensor_v1<dense<[1, 0]> : tensor<2xi64>>}> {result_layout = #vhlo.tensor_v1<dense<[0, 1]> : tensor<2xindex>>, xla_shape = #vhlo.string_v1<"bf16[2880,201088]{0,1}">} : (!vhlo.tensor_v1<201088x2880x!vhlo.bf16_v1>) -> !vhlo.tensor_v1<2880x201088x!vhlo.bf16_v1>
    %258 = "vhlo.dot_general_v2"(%256, %257) <{accumulation_type = #vhlo.type_v1<!vhlo.none_v1>, allow_imprecise_accumulation = #vhlo.type_v1<!vhlo.none_v1>, lhs_batching_dimensions = #vhlo.tensor_v1<dense<> : tensor<0xi64>>, lhs_component_count = #vhlo.type_v1<!vhlo.none_v1>, lhs_contracting_dimensions = #vhlo.tensor_v1<dense<1> : tensor<1xi64>>, lhs_precision_type = #vhlo.type_v1<!vhlo.none_v1>, num_primitive_operations = #vhlo.type_v1<!vhlo.none_v1>, precision_config = #vhlo.array_v1<[#vhlo<precision_v1 DEFAULT>, #vhlo<precision_v1 DEFAULT>]>, rhs_batching_dimensions = #vhlo.tensor_v1<dense<> : tensor<0xi64>>, rhs_component_count = #vhlo.type_v1<!vhlo.none_v1>, rhs_contracting_dimensions = #vhlo.tensor_v1<dense<0> : tensor<1xi64>>, rhs_precision_type = #vhlo.type_v1<!vhlo.none_v1>}> : (!vhlo.tensor_v1<13x2880x!vhlo.bf16_v1>, !vhlo.tensor_v1<2880x201088x!vhlo.bf16_v1>) -> !vhlo.tensor_v1<13x201088x!vhlo.bf16_v1>
    %259 = "vhlo.reshape_v1"(%258) : (!vhlo.tensor_v1<13x201088x!vhlo.bf16_v1>) -> !vhlo.tensor_v1<1x13x201088x!vhlo.bf16_v1>
    "vhlo.return_v1"(%258, %259) : (!vhlo.tensor_v1<13x201088x!vhlo.bf16_v1>, !vhlo.tensor_v1<1x13x201088x!vhlo.bf16_v1>) -> ()
  } {arg_attrs = #vhlo.array_v1<[#vhlo.dict_v1<{#vhlo.string_v1<"mhlo.frontend_attributes"> = #vhlo.dict_v1<{#vhlo.string_v1<"xla.sdy.sharding"> = #vhlo.string_v1<"#sdy.sharding<@mesh, [{\22_axis_0\22}, {}]>">}>, #vhlo.string_v1<"mhlo.sharding"> = #vhlo.string_v1<"{devices=[8,1]<=[8]}">}>, #vhlo.dict_v1<{#vhlo.string_v1<"mhlo.frontend_attributes"> = #vhlo.dict_v1<{#vhlo.string_v1<"xla.sdy.sharding"> = #vhlo.string_v1<"#sdy.sharding<@mesh, []>">}>, #vhlo.string_v1<"mhlo.sharding"> = #vhlo.string_v1<"{replicated}">}>, #vhlo.dict_v1<{#vhlo.string_v1<"mhlo.frontend_attributes"> = #vhlo.dict_v1<{#vhlo.string_v1<"xla.sdy.sharding"> = #vhlo.string_v1<"#sdy.sharding<@mesh, [{}]>">}>, #vhlo.string_v1<"mhlo.sharding"> = #vhlo.string_v1<"{replicated}">}>, #vhlo.dict_v1<{#vhlo.string_v1<"mhlo.frontend_attributes"> = #vhlo.dict_v1<{#vhlo.string_v1<"xla.sdy.sharding"> = #vhlo.string_v1<"#sdy.sharding<@mesh, [{}, {}]>">}>, #vhlo.string_v1<"mhlo.sharding"> = #vhlo.string_v1<"{replicated}">}>, #vhlo.dict_v1<{#vhlo.string_v1<"mhlo.frontend_attributes"> = #vhlo.dict_v1<{#vhlo.string_v1<"xla.sdy.sharding"> = #vhlo.string_v1<"#sdy.sharding<@mesh, [{}]>">}>, #vhlo.string_v1<"mhlo.sharding"> = #vhlo.string_v1<"{replicated}">}>, #vhlo.dict_v1<{#vhlo.string_v1<"mhlo.frontend_attributes"> = #vhlo.dict_v1<{#vhlo.string_v1<"xla.sdy.sharding"> = #vhlo.string_v1<"#sdy.sharding<@mesh, [{}, {\22_axis_0\22}]>">}>, #vhlo.string_v1<"mhlo.sharding"> = #vhlo.string_v1<"{devices=[1,8]<=[8]}">}>, #vhlo.dict_v1<{#vhlo.string_v1<"mhlo.frontend_attributes"> = #vhlo.dict_v1<{#vhlo.string_v1<"xla.sdy.sharding"> = #vhlo.string_v1<"#sdy.sharding<@mesh, [{\22_axis_0\22}]>">}>, #vhlo.string_v1<"mhlo.sharding"> = #vhlo.string_v1<"{devices=[8]<=[8]}">}>, #vhlo.dict_v1<{#vhlo.string_v1<"mhlo.frontend_attributes"> = #vhlo.dict_v1<{#vhlo.string_v1<"xla.sdy.sharding"> = #vhlo.string_v1<"#sdy.sharding<@mesh, [{\22_axis_0\22}, {}]>">}>, #vhlo.string_v1<"mhlo.sharding"> = #vhlo.string_v1<"{devices=[8,1]<=[8]}">}>, #vhlo.dict_v1<{#vhlo.string_v1<"mhlo.frontend_attributes"> = #vhlo.dict_v1<{#vhlo.string_v1<"xla.sdy.sharding"> = #vhlo.string_v1<"#sdy.sharding<@mesh, [{}, {}]>">}>, #vhlo.string_v1<"mhlo.sharding"> = #vhlo.string_v1<"{replicated}">}>, #vhlo.dict_v1<{#vhlo.string_v1<"mhlo.frontend_attributes"> = #vhlo.dict_v1<{#vhlo.string_v1<"xla.sdy.sharding"> = #vhlo.string_v1<"#sdy.sharding<@mesh, [{\22_axis_0\22}, {}]>">}>, #vhlo.string_v1<"mhlo.sharding"> = #vhlo.string_v1<"{devices=[8,1]<=[8]}">}>, #vhlo.dict_v1<{#vhlo.string_v1<"mhlo.frontend_attributes"> = #vhlo.dict_v1<{#vhlo.string_v1<"xla.sdy.sharding"> = #vhlo.string_v1<"#sdy.sharding<@mesh, [{}]>">}>, #vhlo.string_v1<"mhlo.sharding"> = #vhlo.string_v1<"{replicated}">}>, #vhlo.dict_v1<{#vhlo.string_v1<"mhlo.frontend_attributes"> = #vhlo.dict_v1<{#vhlo.string_v1<"xla.sdy.sharding"> = #vhlo.string_v1<"#sdy.sharding<@mesh, [{\22_axis_0\22}]>">}>, #vhlo.string_v1<"mhlo.sharding"> = #vhlo.string_v1<"{devices=[8]<=[8]}">}>, #vhlo.dict_v1<{#vhlo.string_v1<"mhlo.frontend_attributes"> = #vhlo.dict_v1<{#vhlo.string_v1<"xla.sdy.sharding"> = #vhlo.string_v1<"#sdy.sharding<@mesh, []>">}>, #vhlo.string_v1<"mhlo.sharding"> = #vhlo.string_v1<"{replicated}">}>, #vhlo.dict_v1<{#vhlo.string_v1<"mhlo.frontend_attributes"> = #vhlo.dict_v1<{#vhlo.string_v1<"xla.sdy.sharding"> = #vhlo.string_v1<"#sdy.sharding<@mesh, []>">}>, #vhlo.string_v1<"mhlo.sharding"> = #vhlo.string_v1<"{replicated}">}>, #vhlo.dict_v1<{#vhlo.string_v1<"mhlo.frontend_attributes"> = #vhlo.dict_v1<{#vhlo.string_v1<"xla.sdy.sharding"> = #vhlo.string_v1<"#sdy.sharding<@mesh, []>">}>, #vhlo.string_v1<"mhlo.sharding"> = #vhlo.string_v1<"{replicated}">}>, #vhlo.dict_v1<{#vhlo.string_v1<"mhlo.frontend_attributes"> = #vhlo.dict_v1<{#vhlo.string_v1<"xla.sdy.sharding"> = #vhlo.string_v1<"#sdy.sharding<@mesh, []>">}>, #vhlo.string_v1<"mhlo.sharding"> = #vhlo.string_v1<"{replicated}">}>, #vhlo.dict_v1<{#vhlo.string_v1<"mhlo.frontend_attributes"> = #vhlo.dict_v1<{#vhlo.string_v1<"xla.sdy.sharding"> = #vhlo.string_v1<"#sdy.sharding<@mesh, [{}]>">}>, #vhlo.string_v1<"mhlo.sharding"> = #vhlo.string_v1<"{replicated}">}>, #vhlo.dict_v1<{#vhlo.string_v1<"mhlo.frontend_attributes"> = #vhlo.dict_v1<{#vhlo.string_v1<"xla.sdy.sharding"> = #vhlo.string_v1<"#sdy.sharding<@mesh, [{\22_axis_0\22}]>">}>, #vhlo.string_v1<"mhlo.sharding"> = #vhlo.string_v1<"{devices=[8]<=[8]}">}>, #vhlo.dict_v1<{#vhlo.string_v1<"mhlo.frontend_attributes"> = #vhlo.dict_v1<{#vhlo.string_v1<"xla.sdy.sharding"> = #vhlo.string_v1<"#sdy.sharding<@mesh, [{\22_axis_0\22}, {}]>">}>, #vhlo.string_v1<"mhlo.sharding"> = #vhlo.string_v1<"{devices=[8,1]<=[8]}">}>, #vhlo.dict_v1<{#vhlo.string_v1<"mhlo.frontend_attributes"> = #vhlo.dict_v1<{#vhlo.string_v1<"xla.sdy.sharding"> = #vhlo.string_v1<"#sdy.sharding<@mesh, [{\22_axis_0\22}]>">}>, #vhlo.string_v1<"mhlo.sharding"> = #vhlo.string_v1<"{devices=[8]<=[8]}">}>, #vhlo.dict_v1<{#vhlo.string_v1<"mhlo.frontend_attributes"> = #vhlo.dict_v1<{#vhlo.string_v1<"xla.sdy.sharding"> = #vhlo.string_v1<"#sdy.sharding<@mesh, [{\22_axis_0\22}, {}]>">}>, #vhlo.string_v1<"mhlo.sharding"> = #vhlo.string_v1<"{devices=[8,1]<=[8]}">}>, #vhlo.dict_v1<{#vhlo.string_v1<"mhlo.frontend_attributes"> = #vhlo.dict_v1<{#vhlo.string_v1<"xla.sdy.sharding"> = #vhlo.string_v1<"#sdy.sharding<@mesh, [{}]>">}>, #vhlo.string_v1<"mhlo.sharding"> = #vhlo.string_v1<"{replicated}">}>, #vhlo.dict_v1<{#vhlo.string_v1<"mhlo.frontend_attributes"> = #vhlo.dict_v1<{#vhlo.string_v1<"xla.sdy.sharding"> = #vhlo.string_v1<"#sdy.sharding<@mesh, [{\22_axis_0\22}, {}]>">}>, #vhlo.string_v1<"mhlo.sharding"> = #vhlo.string_v1<"{devices=[8,1]<=[8]}">}>, #vhlo.dict_v1<{#vhlo.string_v1<"mhlo.frontend_attributes"> = #vhlo.dict_v1<{#vhlo.string_v1<"xla.sdy.sharding"> = #vhlo.string_v1<"#sdy.sharding<@mesh, [{\22_axis_0\22}, {}, {}]>">}>, #vhlo.string_v1<"mhlo.sharding"> = #vhlo.string_v1<"{devices=[8,1,1]<=[8]}">}>, #vhlo.dict_v1<{#vhlo.string_v1<"mhlo.frontend_attributes"> = #vhlo.dict_v1<{#vhlo.string_v1<"xla.sdy.sharding"> = #vhlo.string_v1<"#sdy.sharding<@mesh, []>">}>, #vhlo.string_v1<"mhlo.sharding"> = #vhlo.string_v1<"{replicated}">}>, #vhlo.dict_v1<{#vhlo.string_v1<"mhlo.frontend_attributes"> = #vhlo.dict_v1<{#vhlo.string_v1<"xla.sdy.sharding"> = #vhlo.string_v1<"#sdy.sharding<@mesh, []>">}>, #vhlo.string_v1<"mhlo.sharding"> = #vhlo.string_v1<"{replicated}">}>, #vhlo.dict_v1<{#vhlo.string_v1<"mhlo.frontend_attributes"> = #vhlo.dict_v1<{#vhlo.string_v1<"xla.sdy.sharding"> = #vhlo.string_v1<"#sdy.sharding<@mesh, []>">}>, #vhlo.string_v1<"mhlo.sharding"> = #vhlo.string_v1<"{replicated}">}>, #vhlo.dict_v1<{#vhlo.string_v1<"mhlo.frontend_attributes"> = #vhlo.dict_v1<{#vhlo.string_v1<"xla.sdy.sharding"> = #vhlo.string_v1<"#sdy.sharding<@mesh, [{\22_axis_0\22}, {}]>">}>, #vhlo.string_v1<"mhlo.sharding"> = #vhlo.string_v1<"{devices=[8,1]<=[8]}">}>, #vhlo.dict_v1<{#vhlo.string_v1<"mhlo.frontend_attributes"> = #vhlo.dict_v1<{#vhlo.string_v1<"xla.sdy.sharding"> = #vhlo.string_v1<"#sdy.sharding<@mesh, [{\22_axis_0\22}, {}, {}]>">}>, #vhlo.string_v1<"mhlo.sharding"> = #vhlo.string_v1<"{devices=[8,1,1]<=[8]}">}>, #vhlo.dict_v1<{#vhlo.string_v1<"mhlo.frontend_attributes"> = #vhlo.dict_v1<{#vhlo.string_v1<"xla.sdy.sharding"> = #vhlo.string_v1<"#sdy.sharding<@mesh, []>">}>, #vhlo.string_v1<"mhlo.sharding"> = #vhlo.string_v1<"{replicated}">}>, #vhlo.dict_v1<{#vhlo.string_v1<"mhlo.frontend_attributes"> = #vhlo.dict_v1<{#vhlo.string_v1<"xla.sdy.sharding"> = #vhlo.string_v1<"#sdy.sharding<@mesh, [{}]>">}>, #vhlo.string_v1<"mhlo.sharding"> = #vhlo.string_v1<"{replicated}">}>]>, res_attrs = #vhlo.array_v1<[]>, sym_visibility = #vhlo.string_v1<"">}
}
// -----// IR Dump Before VhloToVersionPass (vhlo-to-version) ('builtin.module' operation: @SyncTensorsGraph.577) //----- //
module @SyncTensorsGraph.577 attributes {mhlo.cross_program_prefetches = [], mhlo.frontend_attributes = {xla.sdy.meshes = "{mesh = #sdy.mesh<[\22_axis_0\22=8]>}"}, mhlo.input_output_alias = [], mhlo.is_dynamic = false, mhlo.use_auto_spmd_partitioning = false} {
  vhlo.func_v1 @main(%arg0: !vhlo.tensor_v1<201088x2880x!vhlo.bf16_v1>, %arg1: !vhlo.tensor_v1<!vhlo.f32_v1>, %arg2: !vhlo.tensor_v1<32x!vhlo.bf16_v1>, %arg3: !vhlo.tensor_v1<32x2880x!vhlo.bf16_v1>, %arg4: !vhlo.tensor_v1<2880x!vhlo.bf16_v1>, %arg5: !vhlo.tensor_v1<2880x4096x!vhlo.bf16_v1>, %arg6: !vhlo.tensor_v1<512x!vhlo.bf16_v1>, %arg7: !vhlo.tensor_v1<512x2880x!vhlo.bf16_v1>, %arg8: !vhlo.tensor_v1<1x13x!vhlo.i64_v1>, %arg9: !vhlo.tensor_v1<201088x2880x!vhlo.bf16_v1>, %arg10: !vhlo.tensor_v1<2880x!vhlo.bf16_v1>, %arg11: !vhlo.tensor_v1<64x!vhlo.bf16_v1>, %arg12: !vhlo.tensor_v1<!vhlo.bf16_v1>, %arg13: !vhlo.tensor_v1<!vhlo.i64_v1>, %arg14: !vhlo.tensor_v1<!vhlo.f32_v1>, %arg15: !vhlo.tensor_v1<!vhlo.f32_v1>, %arg16: !vhlo.tensor_v1<32x!vhlo.f32_v1>, %arg17: !vhlo.tensor_v1<512x!vhlo.bf16_v1>, %arg18: !vhlo.tensor_v1<512x2880x!vhlo.bf16_v1>, %arg19: !vhlo.tensor_v1<4096x!vhlo.bf16_v1>, %arg20: !vhlo.tensor_v1<4096x2880x!vhlo.bf16_v1>, %arg21: !vhlo.tensor_v1<2880x!vhlo.bf16_v1>, %arg22: !vhlo.tensor_v1<32x2880x!vhlo.bf16_v1>, %arg23: !vhlo.tensor_v1<32x2880x2880x!vhlo.bf16_v1>, %arg24: !vhlo.tensor_v1<!vhlo.f32_v1>, %arg25: !vhlo.tensor_v1<!vhlo.bf16_v1>, %arg26: !vhlo.tensor_v1<!vhlo.bf16_v1>, %arg27: !vhlo.tensor_v1<32x5760x!vhlo.bf16_v1>, %arg28: !vhlo.tensor_v1<32x2880x5760x!vhlo.bf16_v1>, %arg29: !vhlo.tensor_v1<!vhlo.bf16_v1>, %arg30: !vhlo.tensor_v1<2880x!vhlo.bf16_v1>) -> (!vhlo.tensor_v1<13x201088x!vhlo.bf16_v1>, !vhlo.tensor_v1<1x13x201088x!vhlo.bf16_v1>) {
    %0 = "vhlo.constant_v1"() <{value = #vhlo.tensor_v1<dense<0.000000e+00> : tensor<f32>>}> : () -> !vhlo.tensor_v1<!vhlo.f32_v1>
    %1 = "vhlo.constant_v1"() <{value = #vhlo.tensor_v1<dense<[0, 1, 2, 3, 4, 5, 6, 7, 8, 9, 10, 11, 12]> : tensor<13xi64>>}> : () -> !vhlo.tensor_v1<13x!vhlo.i64_v1>
    %2 = "vhlo.constant_v1"() <{value = #vhlo.tensor_v1<dense<0> : tensor<ui8>>}> : () -> !vhlo.tensor_v1<!vhlo.ui8_v1>
    %3 = "vhlo.constant_v1"() <{value = #vhlo.tensor_v1<dense<0xFF80> : tensor<bf16>>}> : () -> !vhlo.tensor_v1<!vhlo.bf16_v1>
    %4 = "vhlo.constant_v1"() <{value = #vhlo.tensor_v1<dense<2.000000e+00> : tensor<f32>>}> : () -> !vhlo.tensor_v1<!vhlo.f32_v1>
    %5 = "vhlo.constant_v1"() <{value = #vhlo.tensor_v1<dense<3.47222231E-4> : tensor<1x13xf32>>}> : () -> !vhlo.tensor_v1<1x13x!vhlo.f32_v1>
    %6 = "vhlo.constant_v1"() <{value = #vhlo.tensor_v1<dense<[[[0.000000e+00, 1.000000e+00, 2.000000e+00, 3.000000e+00, 4.000000e+00, 5.000000e+00, 6.000000e+00, 7.000000e+00, 8.000000e+00, 9.000000e+00, 1.000000e+01, 1.100000e+01, 1.200000e+01]]]> : tensor<1x1x13xf32>>}> : () -> !vhlo.tensor_v1<1x1x13x!vhlo.f32_v1>
    %7 = "vhlo.constant_v1"() <{value = #vhlo.tensor_v1<dense<1> : tensor<ui8>>}> : () -> !vhlo.tensor_v1<!vhlo.ui8_v1>
    %8 = "vhlo.constant_v1"() <{value = #vhlo.tensor_v1<dense<1.000000e+00> : tensor<bf16>>}> : () -> !vhlo.tensor_v1<!vhlo.bf16_v1>
    %9 = "vhlo.constant_v1"() <{value = #vhlo.tensor_v1<dense<0.000000e+00> : tensor<bf16>>}> : () -> !vhlo.tensor_v1<!vhlo.bf16_v1>
    %10 = "vhlo.broadcast_in_dim_v1"(%9) <{broadcast_dimensions = #vhlo.tensor_v1<dense<> : tensor<0xi64>>}> : (!vhlo.tensor_v1<!vhlo.bf16_v1>) -> !vhlo.tensor_v1<13x32x!vhlo.bf16_v1>
    %11 = "vhlo.broadcast_in_dim_v1"(%8) <{broadcast_dimensions = #vhlo.tensor_v1<dense<> : tensor<0xi64>>}> : (!vhlo.tensor_v1<!vhlo.bf16_v1>) -> !vhlo.tensor_v1<32x13x2880x!vhlo.bf16_v1>
    %12 = "vhlo.broadcast_in_dim_v1"(%9) <{broadcast_dimensions = #vhlo.tensor_v1<dense<> : tensor<0xi64>>}> : (!vhlo.tensor_v1<!vhlo.bf16_v1>) -> !vhlo.tensor_v1<1x1x13x13x!vhlo.bf16_v1>
    %13 = "vhlo.broadcast_in_dim_v1"(%7) <{broadcast_dimensions = #vhlo.tensor_v1<dense<> : tensor<0xi64>>}> : (!vhlo.tensor_v1<!vhlo.ui8_v1>) -> !vhlo.tensor_v1<13x13x!vhlo.ui8_v1>
    %14 = "vhlo.broadcast_in_dim_v1"(%4) <{broadcast_dimensions = #vhlo.tensor_v1<dense<> : tensor<0xi64>>}> : (!vhlo.tensor_v1<!vhlo.f32_v1>) -> !vhlo.tensor_v1<1x13x2880x!vhlo.f32_v1>
    %15 = "vhlo.broadcast_in_dim_v1"(%2) <{broadcast_dimensions = #vhlo.tensor_v1<dense<> : tensor<0xi64>>}> : (!vhlo.tensor_v1<!vhlo.ui8_v1>) -> !vhlo.tensor_v1<13x13x!vhlo.ui8_v1>
    %16 = "vhlo.convert_v1"(%arg10) : (!vhlo.tensor_v1<2880x!vhlo.bf16_v1>) -> !vhlo.tensor_v1<2880x!vhlo.f32_v1>
    %17 = "vhlo.broadcast_in_dim_v1"(%16) <{broadcast_dimensions = #vhlo.tensor_v1<dense<2> : tensor<1xi64>>}> : (!vhlo.tensor_v1<2880x!vhlo.f32_v1>) -> !vhlo.tensor_v1<1x13x2880x!vhlo.f32_v1>
    %18 = "vhlo.reshape_v1"(%arg8) : (!vhlo.tensor_v1<1x13x!vhlo.i64_v1>) -> !vhlo.tensor_v1<13x!vhlo.i64_v1>
    %19 = "vhlo.convert_v1"(%18) : (!vhlo.tensor_v1<13x!vhlo.i64_v1>) -> !vhlo.tensor_v1<13x!vhlo.ui32_v1>
    %20 = "vhlo.gather_v2"(%arg9, %19) <{collapsed_slice_dims = #vhlo.tensor_v1<dense<0> : tensor<1xi64>>, index_vector_dim = #vhlo.integer_v1<1 : i64>, indices_are_sorted = #vhlo.bool_v1<false>, offset_dims = #vhlo.tensor_v1<dense<1> : tensor<1xi64>>, operand_batching_dims = #vhlo.tensor_v1<dense<> : tensor<0xi64>>, slice_sizes = #vhlo.tensor_v1<dense<[1, 2880]> : tensor<2xi64>>, start_index_map = #vhlo.tensor_v1<dense<0> : tensor<1xi64>>, start_indices_batching_dims = #vhlo.tensor_v1<dense<> : tensor<0xi64>>}> : (!vhlo.tensor_v1<201088x2880x!vhlo.bf16_v1>, !vhlo.tensor_v1<13x!vhlo.ui32_v1>) -> !vhlo.tensor_v1<13x2880x!vhlo.bf16_v1>
    %21 = "vhlo.reshape_v1"(%20) : (!vhlo.tensor_v1<13x2880x!vhlo.bf16_v1>) -> !vhlo.tensor_v1<1x13x2880x!vhlo.bf16_v1>
    %22 = "vhlo.convert_v1"(%21) : (!vhlo.tensor_v1<1x13x2880x!vhlo.bf16_v1>) -> !vhlo.tensor_v1<1x13x2880x!vhlo.f32_v1>
    %23 = "vhlo.power_v1"(%22, %14) : (!vhlo.tensor_v1<1x13x2880x!vhlo.f32_v1>, !vhlo.tensor_v1<1x13x2880x!vhlo.f32_v1>) -> !vhlo.tensor_v1<1x13x2880x!vhlo.f32_v1>
    %24 = "vhlo.reduce_v1"(%23, %0) <{dimensions = #vhlo.tensor_v1<dense<2> : tensor<1xi64>>}> ({
    ^bb0(%arg31: !vhlo.tensor_v1<!vhlo.f32_v1>, %arg32: !vhlo.tensor_v1<!vhlo.f32_v1>):
      %260 = "vhlo.add_v1"(%arg31, %arg32) : (!vhlo.tensor_v1<!vhlo.f32_v1>, !vhlo.tensor_v1<!vhlo.f32_v1>) -> !vhlo.tensor_v1<!vhlo.f32_v1>
      "vhlo.return_v1"(%260) : (!vhlo.tensor_v1<!vhlo.f32_v1>) -> ()
    }) : (!vhlo.tensor_v1<1x13x2880x!vhlo.f32_v1>, !vhlo.tensor_v1<!vhlo.f32_v1>) -> !vhlo.tensor_v1<1x13x!vhlo.f32_v1>
    %25 = "vhlo.multiply_v1"(%24, %5) : (!vhlo.tensor_v1<1x13x!vhlo.f32_v1>, !vhlo.tensor_v1<1x13x!vhlo.f32_v1>) -> !vhlo.tensor_v1<1x13x!vhlo.f32_v1>
    %26 = "vhlo.reshape_v1"(%25) : (!vhlo.tensor_v1<1x13x!vhlo.f32_v1>) -> !vhlo.tensor_v1<1x13x1x!vhlo.f32_v1>
    %27 = "vhlo.broadcast_in_dim_v1"(%arg1) <{broadcast_dimensions = #vhlo.tensor_v1<dense<> : tensor<0xi64>>}> : (!vhlo.tensor_v1<!vhlo.f32_v1>) -> !vhlo.tensor_v1<1x13x1x!vhlo.f32_v1>
    %28 = "vhlo.add_v1"(%26, %27) : (!vhlo.tensor_v1<1x13x1x!vhlo.f32_v1>, !vhlo.tensor_v1<1x13x1x!vhlo.f32_v1>) -> !vhlo.tensor_v1<1x13x1x!vhlo.f32_v1>
    %29 = "vhlo.rsqrt_v2"(%28) <{result_accuracy = #vhlo.result_accuracy_v1<atol = 0.000000e+00, rtol = 0.000000e+00, ulps = 0, mode = #vhlo<result_accuracy_mode_v1 DEFAULT>>}> : (!vhlo.tensor_v1<1x13x1x!vhlo.f32_v1>) -> !vhlo.tensor_v1<1x13x1x!vhlo.f32_v1>
    %30 = "vhlo.reshape_v1"(%29) : (!vhlo.tensor_v1<1x13x1x!vhlo.f32_v1>) -> !vhlo.tensor_v1<1x13x!vhlo.f32_v1>
    %31 = "vhlo.broadcast_in_dim_v1"(%30) <{broadcast_dimensions = #vhlo.tensor_v1<dense<[0, 1]> : tensor<2xi64>>}> : (!vhlo.tensor_v1<1x13x!vhlo.f32_v1>) -> !vhlo.tensor_v1<1x13x2880x!vhlo.f32_v1>
    %32 = "vhlo.multiply_v1"(%22, %31) : (!vhlo.tensor_v1<1x13x2880x!vhlo.f32_v1>, !vhlo.tensor_v1<1x13x2880x!vhlo.f32_v1>) -> !vhlo.tensor_v1<1x13x2880x!vhlo.f32_v1>
    %33 = "vhlo.multiply_v1"(%17, %32) : (!vhlo.tensor_v1<1x13x2880x!vhlo.f32_v1>, !vhlo.tensor_v1<1x13x2880x!vhlo.f32_v1>) -> !vhlo.tensor_v1<1x13x2880x!vhlo.f32_v1>
    %34 = "vhlo.convert_v1"(%33) : (!vhlo.tensor_v1<1x13x2880x!vhlo.f32_v1>) -> !vhlo.tensor_v1<1x13x2880x!vhlo.bf16_v1>
    %35 = "vhlo.reshape_v1"(%34) : (!vhlo.tensor_v1<1x13x2880x!vhlo.bf16_v1>) -> !vhlo.tensor_v1<13x2880x!vhlo.bf16_v1>
    %36 = "vhlo.transpose_v1"(%arg20) <{permutation = #vhlo.tensor_v1<dense<[1, 0]> : tensor<2xi64>>}> {result_layout = #vhlo.tensor_v1<dense<[0, 1]> : tensor<2xindex>>, xla_shape = #vhlo.string_v1<"bf16[2880,4096]{0,1}">} : (!vhlo.tensor_v1<4096x2880x!vhlo.bf16_v1>) -> !vhlo.tensor_v1<2880x4096x!vhlo.bf16_v1>
    %37 = "vhlo.dot_general_v2"(%35, %36) <{accumulation_type = #vhlo.type_v1<!vhlo.none_v1>, allow_imprecise_accumulation = #vhlo.type_v1<!vhlo.none_v1>, lhs_batching_dimensions = #vhlo.tensor_v1<dense<> : tensor<0xi64>>, lhs_component_count = #vhlo.type_v1<!vhlo.none_v1>, lhs_contracting_dimensions = #vhlo.tensor_v1<dense<1> : tensor<1xi64>>, lhs_precision_type = #vhlo.type_v1<!vhlo.none_v1>, num_primitive_operations = #vhlo.type_v1<!vhlo.none_v1>, precision_config = #vhlo.array_v1<[#vhlo<precision_v1 DEFAULT>, #vhlo<precision_v1 DEFAULT>]>, rhs_batching_dimensions = #vhlo.tensor_v1<dense<> : tensor<0xi64>>, rhs_component_count = #vhlo.type_v1<!vhlo.none_v1>, rhs_contracting_dimensions = #vhlo.tensor_v1<dense<0> : tensor<1xi64>>, rhs_precision_type = #vhlo.type_v1<!vhlo.none_v1>}> : (!vhlo.tensor_v1<13x2880x!vhlo.bf16_v1>, !vhlo.tensor_v1<2880x4096x!vhlo.bf16_v1>) -> !vhlo.tensor_v1<13x4096x!vhlo.bf16_v1>
    %38 = "vhlo.reshape_v1"(%37) : (!vhlo.tensor_v1<13x4096x!vhlo.bf16_v1>) -> !vhlo.tensor_v1<1x13x4096x!vhlo.bf16_v1>
    %39 = "vhlo.broadcast_in_dim_v1"(%arg19) <{broadcast_dimensions = #vhlo.tensor_v1<dense<2> : tensor<1xi64>>}> : (!vhlo.tensor_v1<4096x!vhlo.bf16_v1>) -> !vhlo.tensor_v1<1x13x4096x!vhlo.bf16_v1>
    %40 = "vhlo.add_v1"(%38, %39) : (!vhlo.tensor_v1<1x13x4096x!vhlo.bf16_v1>, !vhlo.tensor_v1<1x13x4096x!vhlo.bf16_v1>) -> !vhlo.tensor_v1<1x13x4096x!vhlo.bf16_v1>
    %41 = "vhlo.reshape_v1"(%40) : (!vhlo.tensor_v1<1x13x4096x!vhlo.bf16_v1>) -> !vhlo.tensor_v1<1x13x64x64x!vhlo.bf16_v1>
    %42 = "vhlo.transpose_v1"(%41) <{permutation = #vhlo.tensor_v1<dense<[0, 2, 1, 3]> : tensor<4xi64>>}> {result_layout = #vhlo.tensor_v1<dense<[3, 1, 2, 0]> : tensor<4xindex>>, xla_shape = #vhlo.string_v1<"bf16[1,64,13,64]{3,1,2,0}">} : (!vhlo.tensor_v1<1x13x64x64x!vhlo.bf16_v1>) -> !vhlo.tensor_v1<1x64x13x64x!vhlo.bf16_v1>
    %43 = "vhlo.slice_v1"(%42) <{limit_indices = #vhlo.tensor_v1<dense<[1, 64, 13, 32]> : tensor<4xi64>>, start_indices = #vhlo.tensor_v1<dense<0> : tensor<4xi64>>, strides = #vhlo.tensor_v1<dense<1> : tensor<4xi64>>}> : (!vhlo.tensor_v1<1x64x13x64x!vhlo.bf16_v1>) -> !vhlo.tensor_v1<1x64x13x32x!vhlo.bf16_v1>
    %44 = "vhlo.convert_v1"(%43) : (!vhlo.tensor_v1<1x64x13x32x!vhlo.bf16_v1>) -> !vhlo.tensor_v1<1x64x13x32x!vhlo.f32_v1>
    %45 = "vhlo.reshape_v1"(%arg16) : (!vhlo.tensor_v1<32x!vhlo.f32_v1>) -> !vhlo.tensor_v1<1x32x1x!vhlo.f32_v1>
    %46 = "vhlo.dot_general_v2"(%45, %6) <{accumulation_type = #vhlo.type_v1<!vhlo.none_v1>, allow_imprecise_accumulation = #vhlo.type_v1<!vhlo.none_v1>, lhs_batching_dimensions = #vhlo.tensor_v1<dense<0> : tensor<1xi64>>, lhs_component_count = #vhlo.type_v1<!vhlo.none_v1>, lhs_contracting_dimensions = #vhlo.tensor_v1<dense<2> : tensor<1xi64>>, lhs_precision_type = #vhlo.type_v1<!vhlo.none_v1>, num_primitive_operations = #vhlo.type_v1<!vhlo.none_v1>, precision_config = #vhlo.array_v1<[#vhlo<precision_v1 DEFAULT>, #vhlo<precision_v1 DEFAULT>]>, rhs_batching_dimensions = #vhlo.tensor_v1<dense<0> : tensor<1xi64>>, rhs_component_count = #vhlo.type_v1<!vhlo.none_v1>, rhs_contracting_dimensions = #vhlo.tensor_v1<dense<1> : tensor<1xi64>>, rhs_precision_type = #vhlo.type_v1<!vhlo.none_v1>}> : (!vhlo.tensor_v1<1x32x1x!vhlo.f32_v1>, !vhlo.tensor_v1<1x1x13x!vhlo.f32_v1>) -> !vhlo.tensor_v1<1x32x13x!vhlo.f32_v1>
    %47 = "vhlo.transpose_v1"(%46) <{permutation = #vhlo.tensor_v1<dense<[0, 2, 1]> : tensor<3xi64>>}> {result_layout = #vhlo.tensor_v1<dense<[1, 2, 0]> : tensor<3xindex>>, xla_shape = #vhlo.string_v1<"f32[1,13,32]{1,2,0}">} : (!vhlo.tensor_v1<1x32x13x!vhlo.f32_v1>) -> !vhlo.tensor_v1<1x13x32x!vhlo.f32_v1>
    %48 = "vhlo.cosine_v2"(%47) <{result_accuracy = #vhlo.result_accuracy_v1<atol = 0.000000e+00, rtol = 0.000000e+00, ulps = 0, mode = #vhlo<result_accuracy_mode_v1 DEFAULT>>}> {result_layout = #vhlo.tensor_v1<dense<[1, 2, 0]> : tensor<3xindex>>, xla_shape = #vhlo.string_v1<"f32[1,13,32]{1,2,0}">} : (!vhlo.tensor_v1<1x13x32x!vhlo.f32_v1>) -> !vhlo.tensor_v1<1x13x32x!vhlo.f32_v1>
    %49 = "vhlo.broadcast_in_dim_v1"(%arg15) <{broadcast_dimensions = #vhlo.tensor_v1<dense<> : tensor<0xi64>>}> : (!vhlo.tensor_v1<!vhlo.f32_v1>) -> !vhlo.tensor_v1<1x13x32x!vhlo.f32_v1>
    %50 = "vhlo.multiply_v1"(%48, %49) : (!vhlo.tensor_v1<1x13x32x!vhlo.f32_v1>, !vhlo.tensor_v1<1x13x32x!vhlo.f32_v1>) -> !vhlo.tensor_v1<1x13x32x!vhlo.f32_v1>
    %51 = "vhlo.convert_v1"(%50) : (!vhlo.tensor_v1<1x13x32x!vhlo.f32_v1>) -> !vhlo.tensor_v1<1x13x32x!vhlo.bf16_v1>
    %52 = "vhlo.reshape_v1"(%51) : (!vhlo.tensor_v1<1x13x32x!vhlo.bf16_v1>) -> !vhlo.tensor_v1<1x1x13x32x!vhlo.bf16_v1>
    %53 = "vhlo.convert_v1"(%52) : (!vhlo.tensor_v1<1x1x13x32x!vhlo.bf16_v1>) -> !vhlo.tensor_v1<1x1x13x32x!vhlo.f32_v1>
    %54 = "vhlo.reshape_v1"(%53) : (!vhlo.tensor_v1<1x1x13x32x!vhlo.f32_v1>) -> !vhlo.tensor_v1<1x13x32x!vhlo.f32_v1>
    %55 = "vhlo.broadcast_in_dim_v1"(%54) <{broadcast_dimensions = #vhlo.tensor_v1<dense<[0, 2, 3]> : tensor<3xi64>>}> : (!vhlo.tensor_v1<1x13x32x!vhlo.f32_v1>) -> !vhlo.tensor_v1<1x64x13x32x!vhlo.f32_v1>
    %56 = "vhlo.multiply_v1"(%44, %55) : (!vhlo.tensor_v1<1x64x13x32x!vhlo.f32_v1>, !vhlo.tensor_v1<1x64x13x32x!vhlo.f32_v1>) -> !vhlo.tensor_v1<1x64x13x32x!vhlo.f32_v1>
    %57 = "vhlo.convert_v1"(%56) : (!vhlo.tensor_v1<1x64x13x32x!vhlo.f32_v1>) -> !vhlo.tensor_v1<1x64x13x32x!vhlo.bf16_v1>
    %58 = "vhlo.slice_v1"(%42) <{limit_indices = #vhlo.tensor_v1<dense<[1, 64, 13, 64]> : tensor<4xi64>>, start_indices = #vhlo.tensor_v1<dense<[0, 0, 0, 32]> : tensor<4xi64>>, strides = #vhlo.tensor_v1<dense<1> : tensor<4xi64>>}> : (!vhlo.tensor_v1<1x64x13x64x!vhlo.bf16_v1>) -> !vhlo.tensor_v1<1x64x13x32x!vhlo.bf16_v1>
    %59 = "vhlo.convert_v1"(%58) : (!vhlo.tensor_v1<1x64x13x32x!vhlo.bf16_v1>) -> !vhlo.tensor_v1<1x64x13x32x!vhlo.f32_v1>
    %60 = "vhlo.sine_v2"(%47) <{result_accuracy = #vhlo.result_accuracy_v1<atol = 0.000000e+00, rtol = 0.000000e+00, ulps = 0, mode = #vhlo<result_accuracy_mode_v1 DEFAULT>>}> {result_layout = #vhlo.tensor_v1<dense<[1, 2, 0]> : tensor<3xindex>>, xla_shape = #vhlo.string_v1<"f32[1,13,32]{1,2,0}">} : (!vhlo.tensor_v1<1x13x32x!vhlo.f32_v1>) -> !vhlo.tensor_v1<1x13x32x!vhlo.f32_v1>
    %61 = "vhlo.multiply_v1"(%60, %49) : (!vhlo.tensor_v1<1x13x32x!vhlo.f32_v1>, !vhlo.tensor_v1<1x13x32x!vhlo.f32_v1>) -> !vhlo.tensor_v1<1x13x32x!vhlo.f32_v1>
    %62 = "vhlo.convert_v1"(%61) : (!vhlo.tensor_v1<1x13x32x!vhlo.f32_v1>) -> !vhlo.tensor_v1<1x13x32x!vhlo.bf16_v1>
    %63 = "vhlo.reshape_v1"(%62) : (!vhlo.tensor_v1<1x13x32x!vhlo.bf16_v1>) -> !vhlo.tensor_v1<1x1x13x32x!vhlo.bf16_v1>
    %64 = "vhlo.convert_v1"(%63) : (!vhlo.tensor_v1<1x1x13x32x!vhlo.bf16_v1>) -> !vhlo.tensor_v1<1x1x13x32x!vhlo.f32_v1>
    %65 = "vhlo.reshape_v1"(%64) : (!vhlo.tensor_v1<1x1x13x32x!vhlo.f32_v1>) -> !vhlo.tensor_v1<1x13x32x!vhlo.f32_v1>
    %66 = "vhlo.broadcast_in_dim_v1"(%65) <{broadcast_dimensions = #vhlo.tensor_v1<dense<[0, 2, 3]> : tensor<3xi64>>}> : (!vhlo.tensor_v1<1x13x32x!vhlo.f32_v1>) -> !vhlo.tensor_v1<1x64x13x32x!vhlo.f32_v1>
    %67 = "vhlo.multiply_v1"(%59, %66) : (!vhlo.tensor_v1<1x64x13x32x!vhlo.f32_v1>, !vhlo.tensor_v1<1x64x13x32x!vhlo.f32_v1>) -> !vhlo.tensor_v1<1x64x13x32x!vhlo.f32_v1>
    %68 = "vhlo.convert_v1"(%67) : (!vhlo.tensor_v1<1x64x13x32x!vhlo.f32_v1>) -> !vhlo.tensor_v1<1x64x13x32x!vhlo.bf16_v1>
    %69 = "vhlo.subtract_v1"(%57, %68) : (!vhlo.tensor_v1<1x64x13x32x!vhlo.bf16_v1>, !vhlo.tensor_v1<1x64x13x32x!vhlo.bf16_v1>) -> !vhlo.tensor_v1<1x64x13x32x!vhlo.bf16_v1>
    %70 = "vhlo.multiply_v1"(%59, %55) : (!vhlo.tensor_v1<1x64x13x32x!vhlo.f32_v1>, !vhlo.tensor_v1<1x64x13x32x!vhlo.f32_v1>) -> !vhlo.tensor_v1<1x64x13x32x!vhlo.f32_v1>
    %71 = "vhlo.convert_v1"(%70) : (!vhlo.tensor_v1<1x64x13x32x!vhlo.f32_v1>) -> !vhlo.tensor_v1<1x64x13x32x!vhlo.bf16_v1>
    %72 = "vhlo.multiply_v1"(%44, %66) : (!vhlo.tensor_v1<1x64x13x32x!vhlo.f32_v1>, !vhlo.tensor_v1<1x64x13x32x!vhlo.f32_v1>) -> !vhlo.tensor_v1<1x64x13x32x!vhlo.f32_v1>
    %73 = "vhlo.convert_v1"(%72) : (!vhlo.tensor_v1<1x64x13x32x!vhlo.f32_v1>) -> !vhlo.tensor_v1<1x64x13x32x!vhlo.bf16_v1>
    %74 = "vhlo.add_v1"(%71, %73) : (!vhlo.tensor_v1<1x64x13x32x!vhlo.bf16_v1>, !vhlo.tensor_v1<1x64x13x32x!vhlo.bf16_v1>) -> !vhlo.tensor_v1<1x64x13x32x!vhlo.bf16_v1>
    %75 = "vhlo.concatenate_v1"(%69, %74) <{dimension = #vhlo.integer_v1<3 : i64>}> : (!vhlo.tensor_v1<1x64x13x32x!vhlo.bf16_v1>, !vhlo.tensor_v1<1x64x13x32x!vhlo.bf16_v1>) -> !vhlo.tensor_v1<1x64x13x64x!vhlo.bf16_v1>
    %76 = "vhlo.reshape_v1"(%75) : (!vhlo.tensor_v1<1x64x13x64x!vhlo.bf16_v1>) -> !vhlo.tensor_v1<64x13x64x!vhlo.bf16_v1>
    %77 = "vhlo.transpose_v1"(%arg18) <{permutation = #vhlo.tensor_v1<dense<[1, 0]> : tensor<2xi64>>}> {result_layout = #vhlo.tensor_v1<dense<[0, 1]> : tensor<2xindex>>, xla_shape = #vhlo.string_v1<"bf16[2880,512]{0,1}">} : (!vhlo.tensor_v1<512x2880x!vhlo.bf16_v1>) -> !vhlo.tensor_v1<2880x512x!vhlo.bf16_v1>
    %78 = "vhlo.dot_general_v2"(%35, %77) <{accumulation_type = #vhlo.type_v1<!vhlo.none_v1>, allow_imprecise_accumulation = #vhlo.type_v1<!vhlo.none_v1>, lhs_batching_dimensions = #vhlo.tensor_v1<dense<> : tensor<0xi64>>, lhs_component_count = #vhlo.type_v1<!vhlo.none_v1>, lhs_contracting_dimensions = #vhlo.tensor_v1<dense<1> : tensor<1xi64>>, lhs_precision_type = #vhlo.type_v1<!vhlo.none_v1>, num_primitive_operations = #vhlo.type_v1<!vhlo.none_v1>, precision_config = #vhlo.array_v1<[#vhlo<precision_v1 DEFAULT>, #vhlo<precision_v1 DEFAULT>]>, rhs_batching_dimensions = #vhlo.tensor_v1<dense<> : tensor<0xi64>>, rhs_component_count = #vhlo.type_v1<!vhlo.none_v1>, rhs_contracting_dimensions = #vhlo.tensor_v1<dense<0> : tensor<1xi64>>, rhs_precision_type = #vhlo.type_v1<!vhlo.none_v1>}> : (!vhlo.tensor_v1<13x2880x!vhlo.bf16_v1>, !vhlo.tensor_v1<2880x512x!vhlo.bf16_v1>) -> !vhlo.tensor_v1<13x512x!vhlo.bf16_v1>
    %79 = "vhlo.reshape_v1"(%78) : (!vhlo.tensor_v1<13x512x!vhlo.bf16_v1>) -> !vhlo.tensor_v1<1x13x512x!vhlo.bf16_v1>
    %80 = "vhlo.broadcast_in_dim_v1"(%arg17) <{broadcast_dimensions = #vhlo.tensor_v1<dense<2> : tensor<1xi64>>}> : (!vhlo.tensor_v1<512x!vhlo.bf16_v1>) -> !vhlo.tensor_v1<1x13x512x!vhlo.bf16_v1>
    %81 = "vhlo.add_v1"(%79, %80) : (!vhlo.tensor_v1<1x13x512x!vhlo.bf16_v1>, !vhlo.tensor_v1<1x13x512x!vhlo.bf16_v1>) -> !vhlo.tensor_v1<1x13x512x!vhlo.bf16_v1>
    %82 = "vhlo.reshape_v1"(%81) : (!vhlo.tensor_v1<1x13x512x!vhlo.bf16_v1>) -> !vhlo.tensor_v1<1x13x8x64x!vhlo.bf16_v1>
    %83 = "vhlo.transpose_v1"(%82) <{permutation = #vhlo.tensor_v1<dense<[0, 2, 1, 3]> : tensor<4xi64>>}> {result_layout = #vhlo.tensor_v1<dense<[3, 1, 2, 0]> : tensor<4xindex>>, xla_shape = #vhlo.string_v1<"bf16[1,8,13,64]{3,1,2,0}">} : (!vhlo.tensor_v1<1x13x8x64x!vhlo.bf16_v1>) -> !vhlo.tensor_v1<1x8x13x64x!vhlo.bf16_v1>
    %84 = "vhlo.slice_v1"(%83) <{limit_indices = #vhlo.tensor_v1<dense<[1, 8, 13, 32]> : tensor<4xi64>>, start_indices = #vhlo.tensor_v1<dense<0> : tensor<4xi64>>, strides = #vhlo.tensor_v1<dense<1> : tensor<4xi64>>}> : (!vhlo.tensor_v1<1x8x13x64x!vhlo.bf16_v1>) -> !vhlo.tensor_v1<1x8x13x32x!vhlo.bf16_v1>
    %85 = "vhlo.convert_v1"(%84) : (!vhlo.tensor_v1<1x8x13x32x!vhlo.bf16_v1>) -> !vhlo.tensor_v1<1x8x13x32x!vhlo.f32_v1>
    %86 = "vhlo.broadcast_in_dim_v1"(%54) <{broadcast_dimensions = #vhlo.tensor_v1<dense<[0, 2, 3]> : tensor<3xi64>>}> : (!vhlo.tensor_v1<1x13x32x!vhlo.f32_v1>) -> !vhlo.tensor_v1<1x8x13x32x!vhlo.f32_v1>
    %87 = "vhlo.multiply_v1"(%85, %86) : (!vhlo.tensor_v1<1x8x13x32x!vhlo.f32_v1>, !vhlo.tensor_v1<1x8x13x32x!vhlo.f32_v1>) -> !vhlo.tensor_v1<1x8x13x32x!vhlo.f32_v1>
    %88 = "vhlo.convert_v1"(%87) : (!vhlo.tensor_v1<1x8x13x32x!vhlo.f32_v1>) -> !vhlo.tensor_v1<1x8x13x32x!vhlo.bf16_v1>
    %89 = "vhlo.slice_v1"(%83) <{limit_indices = #vhlo.tensor_v1<dense<[1, 8, 13, 64]> : tensor<4xi64>>, start_indices = #vhlo.tensor_v1<dense<[0, 0, 0, 32]> : tensor<4xi64>>, strides = #vhlo.tensor_v1<dense<1> : tensor<4xi64>>}> : (!vhlo.tensor_v1<1x8x13x64x!vhlo.bf16_v1>) -> !vhlo.tensor_v1<1x8x13x32x!vhlo.bf16_v1>
    %90 = "vhlo.convert_v1"(%89) : (!vhlo.tensor_v1<1x8x13x32x!vhlo.bf16_v1>) -> !vhlo.tensor_v1<1x8x13x32x!vhlo.f32_v1>
    %91 = "vhlo.broadcast_in_dim_v1"(%65) <{broadcast_dimensions = #vhlo.tensor_v1<dense<[0, 2, 3]> : tensor<3xi64>>}> : (!vhlo.tensor_v1<1x13x32x!vhlo.f32_v1>) -> !vhlo.tensor_v1<1x8x13x32x!vhlo.f32_v1>
    %92 = "vhlo.multiply_v1"(%90, %91) : (!vhlo.tensor_v1<1x8x13x32x!vhlo.f32_v1>, !vhlo.tensor_v1<1x8x13x32x!vhlo.f32_v1>) -> !vhlo.tensor_v1<1x8x13x32x!vhlo.f32_v1>
    %93 = "vhlo.convert_v1"(%92) : (!vhlo.tensor_v1<1x8x13x32x!vhlo.f32_v1>) -> !vhlo.tensor_v1<1x8x13x32x!vhlo.bf16_v1>
    %94 = "vhlo.subtract_v1"(%88, %93) : (!vhlo.tensor_v1<1x8x13x32x!vhlo.bf16_v1>, !vhlo.tensor_v1<1x8x13x32x!vhlo.bf16_v1>) -> !vhlo.tensor_v1<1x8x13x32x!vhlo.bf16_v1>
    %95 = "vhlo.multiply_v1"(%90, %86) : (!vhlo.tensor_v1<1x8x13x32x!vhlo.f32_v1>, !vhlo.tensor_v1<1x8x13x32x!vhlo.f32_v1>) -> !vhlo.tensor_v1<1x8x13x32x!vhlo.f32_v1>
    %96 = "vhlo.convert_v1"(%95) : (!vhlo.tensor_v1<1x8x13x32x!vhlo.f32_v1>) -> !vhlo.tensor_v1<1x8x13x32x!vhlo.bf16_v1>
    %97 = "vhlo.multiply_v1"(%85, %91) : (!vhlo.tensor_v1<1x8x13x32x!vhlo.f32_v1>, !vhlo.tensor_v1<1x8x13x32x!vhlo.f32_v1>) -> !vhlo.tensor_v1<1x8x13x32x!vhlo.f32_v1>
    %98 = "vhlo.convert_v1"(%97) : (!vhlo.tensor_v1<1x8x13x32x!vhlo.f32_v1>) -> !vhlo.tensor_v1<1x8x13x32x!vhlo.bf16_v1>
    %99 = "vhlo.add_v1"(%96, %98) : (!vhlo.tensor_v1<1x8x13x32x!vhlo.bf16_v1>, !vhlo.tensor_v1<1x8x13x32x!vhlo.bf16_v1>) -> !vhlo.tensor_v1<1x8x13x32x!vhlo.bf16_v1>
    %100 = "vhlo.concatenate_v1"(%94, %99) <{dimension = #vhlo.integer_v1<3 : i64>}> : (!vhlo.tensor_v1<1x8x13x32x!vhlo.bf16_v1>, !vhlo.tensor_v1<1x8x13x32x!vhlo.bf16_v1>) -> !vhlo.tensor_v1<1x8x13x64x!vhlo.bf16_v1>
    %101 = "vhlo.broadcast_in_dim_v1"(%100) <{broadcast_dimensions = #vhlo.tensor_v1<dense<[0, 1, 3, 4]> : tensor<4xi64>>}> : (!vhlo.tensor_v1<1x8x13x64x!vhlo.bf16_v1>) -> !vhlo.tensor_v1<1x8x8x13x64x!vhlo.bf16_v1>
    %102 = "vhlo.reshape_v1"(%101) : (!vhlo.tensor_v1<1x8x8x13x64x!vhlo.bf16_v1>) -> !vhlo.tensor_v1<1x64x13x64x!vhlo.bf16_v1>
    %103 = "vhlo.transpose_v1"(%102) <{permutation = #vhlo.tensor_v1<dense<[0, 1, 3, 2]> : tensor<4xi64>>}> {result_layout = #vhlo.tensor_v1<dense<[2, 3, 1, 0]> : tensor<4xindex>>, xla_shape = #vhlo.string_v1<"bf16[1,64,64,13]{2,3,1,0}">} : (!vhlo.tensor_v1<1x64x13x64x!vhlo.bf16_v1>) -> !vhlo.tensor_v1<1x64x64x13x!vhlo.bf16_v1>
    %104 = "vhlo.reshape_v1"(%103) : (!vhlo.tensor_v1<1x64x64x13x!vhlo.bf16_v1>) -> !vhlo.tensor_v1<64x64x13x!vhlo.bf16_v1>
    %105 = "vhlo.dot_general_v2"(%76, %104) <{accumulation_type = #vhlo.type_v1<!vhlo.none_v1>, allow_imprecise_accumulation = #vhlo.type_v1<!vhlo.none_v1>, lhs_batching_dimensions = #vhlo.tensor_v1<dense<0> : tensor<1xi64>>, lhs_component_count = #vhlo.type_v1<!vhlo.none_v1>, lhs_contracting_dimensions = #vhlo.tensor_v1<dense<2> : tensor<1xi64>>, lhs_precision_type = #vhlo.type_v1<!vhlo.none_v1>, num_primitive_operations = #vhlo.type_v1<!vhlo.none_v1>, precision_config = #vhlo.array_v1<[#vhlo<precision_v1 DEFAULT>, #vhlo<precision_v1 DEFAULT>]>, rhs_batching_dimensions = #vhlo.tensor_v1<dense<0> : tensor<1xi64>>, rhs_component_count = #vhlo.type_v1<!vhlo.none_v1>, rhs_contracting_dimensions = #vhlo.tensor_v1<dense<1> : tensor<1xi64>>, rhs_precision_type = #vhlo.type_v1<!vhlo.none_v1>}> : (!vhlo.tensor_v1<64x13x64x!vhlo.bf16_v1>, !vhlo.tensor_v1<64x64x13x!vhlo.bf16_v1>) -> !vhlo.tensor_v1<64x13x13x!vhlo.bf16_v1>
    %106 = "vhlo.reshape_v1"(%105) : (!vhlo.tensor_v1<64x13x13x!vhlo.bf16_v1>) -> !vhlo.tensor_v1<1x64x13x13x!vhlo.bf16_v1>
    %107 = "vhlo.convert_v1"(%106) : (!vhlo.tensor_v1<1x64x13x13x!vhlo.bf16_v1>) -> !vhlo.tensor_v1<1x64x13x13x!vhlo.f32_v1>
    %108 = "vhlo.broadcast_in_dim_v1"(%arg14) <{broadcast_dimensions = #vhlo.tensor_v1<dense<> : tensor<0xi64>>}> : (!vhlo.tensor_v1<!vhlo.f32_v1>) -> !vhlo.tensor_v1<1x64x13x13x!vhlo.f32_v1>
    %109 = "vhlo.multiply_v1"(%107, %108) : (!vhlo.tensor_v1<1x64x13x13x!vhlo.f32_v1>, !vhlo.tensor_v1<1x64x13x13x!vhlo.f32_v1>) -> !vhlo.tensor_v1<1x64x13x13x!vhlo.f32_v1>
    %110 = "vhlo.convert_v1"(%109) : (!vhlo.tensor_v1<1x64x13x13x!vhlo.f32_v1>) -> !vhlo.tensor_v1<1x64x13x13x!vhlo.bf16_v1>
    %111 = "vhlo.broadcast_in_dim_v1"(%1) <{broadcast_dimensions = #vhlo.tensor_v1<dense<1> : tensor<1xi64>>}> : (!vhlo.tensor_v1<13x!vhlo.i64_v1>) -> !vhlo.tensor_v1<13x13x!vhlo.i64_v1>
    %112 = "vhlo.broadcast_in_dim_v1"(%arg13) <{broadcast_dimensions = #vhlo.tensor_v1<dense<> : tensor<0xi64>>}> : (!vhlo.tensor_v1<!vhlo.i64_v1>) -> !vhlo.tensor_v1<13x!vhlo.i64_v1>
    %113 = "vhlo.subtract_v1"(%1, %112) : (!vhlo.tensor_v1<13x!vhlo.i64_v1>, !vhlo.tensor_v1<13x!vhlo.i64_v1>) -> !vhlo.tensor_v1<13x!vhlo.i64_v1>
    %114 = "vhlo.broadcast_in_dim_v1"(%113) <{broadcast_dimensions = #vhlo.tensor_v1<dense<0> : tensor<1xi64>>}> : (!vhlo.tensor_v1<13x!vhlo.i64_v1>) -> !vhlo.tensor_v1<13x13x!vhlo.i64_v1>
    %115 = "vhlo.compare_v1"(%111, %114) <{compare_type = #vhlo<comparison_type_v1 NOTYPE>, comparison_direction = #vhlo<comparison_direction_v1 GT>}> : (!vhlo.tensor_v1<13x13x!vhlo.i64_v1>, !vhlo.tensor_v1<13x13x!vhlo.i64_v1>) -> !vhlo.tensor_v1<13x13x!vhlo.bool_v1>
    %116 = "vhlo.convert_v1"(%115) : (!vhlo.tensor_v1<13x13x!vhlo.bool_v1>) -> !vhlo.tensor_v1<13x13x!vhlo.ui8_v1>
    %117 = "vhlo.and_v1"(%116, %13) : (!vhlo.tensor_v1<13x13x!vhlo.ui8_v1>, !vhlo.tensor_v1<13x13x!vhlo.ui8_v1>) -> !vhlo.tensor_v1<13x13x!vhlo.ui8_v1>
    %118 = "vhlo.compare_v1"(%117, %15) <{compare_type = #vhlo<comparison_type_v1 NOTYPE>, comparison_direction = #vhlo<comparison_direction_v1 NE>}> : (!vhlo.tensor_v1<13x13x!vhlo.ui8_v1>, !vhlo.tensor_v1<13x13x!vhlo.ui8_v1>) -> !vhlo.tensor_v1<13x13x!vhlo.bool_v1>
    %119 = "vhlo.convert_v1"(%118) : (!vhlo.tensor_v1<13x13x!vhlo.bool_v1>) -> !vhlo.tensor_v1<13x13x!vhlo.ui8_v1>
    %120 = "vhlo.broadcast_in_dim_v1"(%1) <{broadcast_dimensions = #vhlo.tensor_v1<dense<0> : tensor<1xi64>>}> : (!vhlo.tensor_v1<13x!vhlo.i64_v1>) -> !vhlo.tensor_v1<13x13x!vhlo.i64_v1>
    %121 = "vhlo.compare_v1"(%111, %120) <{compare_type = #vhlo<comparison_type_v1 NOTYPE>, comparison_direction = #vhlo<comparison_direction_v1 LE>}> : (!vhlo.tensor_v1<13x13x!vhlo.i64_v1>, !vhlo.tensor_v1<13x13x!vhlo.i64_v1>) -> !vhlo.tensor_v1<13x13x!vhlo.bool_v1>
    %122 = "vhlo.convert_v1"(%121) : (!vhlo.tensor_v1<13x13x!vhlo.bool_v1>) -> !vhlo.tensor_v1<13x13x!vhlo.ui8_v1>
    %123 = "vhlo.and_v1"(%119, %122) : (!vhlo.tensor_v1<13x13x!vhlo.ui8_v1>, !vhlo.tensor_v1<13x13x!vhlo.ui8_v1>) -> !vhlo.tensor_v1<13x13x!vhlo.ui8_v1>
    %124 = "vhlo.compare_v1"(%123, %15) <{compare_type = #vhlo<comparison_type_v1 NOTYPE>, comparison_direction = #vhlo<comparison_direction_v1 NE>}> : (!vhlo.tensor_v1<13x13x!vhlo.ui8_v1>, !vhlo.tensor_v1<13x13x!vhlo.ui8_v1>) -> !vhlo.tensor_v1<13x13x!vhlo.bool_v1>
    %125 = "vhlo.reshape_v1"(%124) : (!vhlo.tensor_v1<13x13x!vhlo.bool_v1>) -> !vhlo.tensor_v1<1x1x13x13x!vhlo.bool_v1>
    %126 = "vhlo.reshape_v1"(%arg12) : (!vhlo.tensor_v1<!vhlo.bf16_v1>) -> !vhlo.tensor_v1<1x1x!vhlo.bf16_v1>
    %127 = "vhlo.broadcast_in_dim_v1"(%126) <{broadcast_dimensions = #vhlo.tensor_v1<dense<[0, 1]> : tensor<2xi64>>}> : (!vhlo.tensor_v1<1x1x!vhlo.bf16_v1>) -> !vhlo.tensor_v1<1x1x13x13x!vhlo.bf16_v1>
    %128 = "vhlo.select_v1"(%125, %12, %127) : (!vhlo.tensor_v1<1x1x13x13x!vhlo.bool_v1>, !vhlo.tensor_v1<1x1x13x13x!vhlo.bf16_v1>, !vhlo.tensor_v1<1x1x13x13x!vhlo.bf16_v1>) -> !vhlo.tensor_v1<1x1x13x13x!vhlo.bf16_v1>
    %129 = "vhlo.reshape_v1"(%128) : (!vhlo.tensor_v1<1x1x13x13x!vhlo.bf16_v1>) -> !vhlo.tensor_v1<1x13x13x!vhlo.bf16_v1>
    %130 = "vhlo.broadcast_in_dim_v1"(%129) <{broadcast_dimensions = #vhlo.tensor_v1<dense<[0, 2, 3]> : tensor<3xi64>>}> : (!vhlo.tensor_v1<1x13x13x!vhlo.bf16_v1>) -> !vhlo.tensor_v1<1x64x13x13x!vhlo.bf16_v1>
    %131 = "vhlo.add_v1"(%110, %130) : (!vhlo.tensor_v1<1x64x13x13x!vhlo.bf16_v1>, !vhlo.tensor_v1<1x64x13x13x!vhlo.bf16_v1>) -> !vhlo.tensor_v1<1x64x13x13x!vhlo.bf16_v1>
    %132 = "vhlo.reshape_v1"(%arg11) : (!vhlo.tensor_v1<64x!vhlo.bf16_v1>) -> !vhlo.tensor_v1<1x64x1x!vhlo.bf16_v1>
    %133 = "vhlo.broadcast_in_dim_v1"(%132) <{broadcast_dimensions = #vhlo.tensor_v1<dense<[0, 1, 3]> : tensor<3xi64>>}> : (!vhlo.tensor_v1<1x64x1x!vhlo.bf16_v1>) -> !vhlo.tensor_v1<1x64x13x1x!vhlo.bf16_v1>
    %134 = "vhlo.concatenate_v1"(%131, %133) <{dimension = #vhlo.integer_v1<3 : i64>}> : (!vhlo.tensor_v1<1x64x13x13x!vhlo.bf16_v1>, !vhlo.tensor_v1<1x64x13x1x!vhlo.bf16_v1>) -> !vhlo.tensor_v1<1x64x13x14x!vhlo.bf16_v1>
    %135 = "vhlo.convert_v1"(%arg30) : (!vhlo.tensor_v1<2880x!vhlo.bf16_v1>) -> !vhlo.tensor_v1<2880x!vhlo.f32_v1>
    %136 = "vhlo.broadcast_in_dim_v1"(%135) <{broadcast_dimensions = #vhlo.tensor_v1<dense<2> : tensor<1xi64>>}> : (!vhlo.tensor_v1<2880x!vhlo.f32_v1>) -> !vhlo.tensor_v1<1x13x2880x!vhlo.f32_v1>
    %137 = "vhlo.reduce_v1"(%134, %3) <{dimensions = #vhlo.tensor_v1<dense<3> : tensor<1xi64>>}> ({
    ^bb0(%arg31: !vhlo.tensor_v1<!vhlo.bf16_v1>, %arg32: !vhlo.tensor_v1<!vhlo.bf16_v1>):
      %260 = "vhlo.maximum_v1"(%arg31, %arg32) : (!vhlo.tensor_v1<!vhlo.bf16_v1>, !vhlo.tensor_v1<!vhlo.bf16_v1>) -> !vhlo.tensor_v1<!vhlo.bf16_v1>
      "vhlo.return_v1"(%260) : (!vhlo.tensor_v1<!vhlo.bf16_v1>) -> ()
    }) : (!vhlo.tensor_v1<1x64x13x14x!vhlo.bf16_v1>, !vhlo.tensor_v1<!vhlo.bf16_v1>) -> !vhlo.tensor_v1<1x64x13x!vhlo.bf16_v1>
    %138 = "vhlo.broadcast_in_dim_v1"(%137) <{broadcast_dimensions = #vhlo.tensor_v1<dense<[0, 1, 2]> : tensor<3xi64>>}> : (!vhlo.tensor_v1<1x64x13x!vhlo.bf16_v1>) -> !vhlo.tensor_v1<1x64x13x14x!vhlo.bf16_v1>
    %139 = "vhlo.subtract_v1"(%134, %138) : (!vhlo.tensor_v1<1x64x13x14x!vhlo.bf16_v1>, !vhlo.tensor_v1<1x64x13x14x!vhlo.bf16_v1>) -> !vhlo.tensor_v1<1x64x13x14x!vhlo.bf16_v1>
    %140 = "vhlo.reduce_v1"(%139, %3) <{dimensions = #vhlo.tensor_v1<dense<3> : tensor<1xi64>>}> ({
    ^bb0(%arg31: !vhlo.tensor_v1<!vhlo.bf16_v1>, %arg32: !vhlo.tensor_v1<!vhlo.bf16_v1>):
      %260 = "vhlo.maximum_v1"(%arg31, %arg32) : (!vhlo.tensor_v1<!vhlo.bf16_v1>, !vhlo.tensor_v1<!vhlo.bf16_v1>) -> !vhlo.tensor_v1<!vhlo.bf16_v1>
      "vhlo.return_v1"(%260) : (!vhlo.tensor_v1<!vhlo.bf16_v1>) -> ()
    }) : (!vhlo.tensor_v1<1x64x13x14x!vhlo.bf16_v1>, !vhlo.tensor_v1<!vhlo.bf16_v1>) -> !vhlo.tensor_v1<1x64x13x!vhlo.bf16_v1>
    %141 = "vhlo.broadcast_in_dim_v1"(%140) <{broadcast_dimensions = #vhlo.tensor_v1<dense<[0, 1, 2]> : tensor<3xi64>>}> : (!vhlo.tensor_v1<1x64x13x!vhlo.bf16_v1>) -> !vhlo.tensor_v1<1x64x13x14x!vhlo.bf16_v1>
    %142 = "vhlo.subtract_v1"(%139, %141) : (!vhlo.tensor_v1<1x64x13x14x!vhlo.bf16_v1>, !vhlo.tensor_v1<1x64x13x14x!vhlo.bf16_v1>) -> !vhlo.tensor_v1<1x64x13x14x!vhlo.bf16_v1>
    %143 = "vhlo.exponential_v2"(%142) <{result_accuracy = #vhlo.result_accuracy_v1<atol = 0.000000e+00, rtol = 0.000000e+00, ulps = 0, mode = #vhlo<result_accuracy_mode_v1 DEFAULT>>}> : (!vhlo.tensor_v1<1x64x13x14x!vhlo.bf16_v1>) -> !vhlo.tensor_v1<1x64x13x14x!vhlo.bf16_v1>
    %144 = "vhlo.reduce_v1"(%143, %9) <{dimensions = #vhlo.tensor_v1<dense<3> : tensor<1xi64>>}> ({
    ^bb0(%arg31: !vhlo.tensor_v1<!vhlo.bf16_v1>, %arg32: !vhlo.tensor_v1<!vhlo.bf16_v1>):
      %260 = "vhlo.add_v1"(%arg31, %arg32) : (!vhlo.tensor_v1<!vhlo.bf16_v1>, !vhlo.tensor_v1<!vhlo.bf16_v1>) -> !vhlo.tensor_v1<!vhlo.bf16_v1>
      "vhlo.return_v1"(%260) : (!vhlo.tensor_v1<!vhlo.bf16_v1>) -> ()
    }) : (!vhlo.tensor_v1<1x64x13x14x!vhlo.bf16_v1>, !vhlo.tensor_v1<!vhlo.bf16_v1>) -> !vhlo.tensor_v1<1x64x13x!vhlo.bf16_v1>
    %145 = "vhlo.broadcast_in_dim_v1"(%144) <{broadcast_dimensions = #vhlo.tensor_v1<dense<[0, 1, 2]> : tensor<3xi64>>}> : (!vhlo.tensor_v1<1x64x13x!vhlo.bf16_v1>) -> !vhlo.tensor_v1<1x64x13x14x!vhlo.bf16_v1>
    %146 = "vhlo.divide_v1"(%143, %145) : (!vhlo.tensor_v1<1x64x13x14x!vhlo.bf16_v1>, !vhlo.tensor_v1<1x64x13x14x!vhlo.bf16_v1>) -> !vhlo.tensor_v1<1x64x13x14x!vhlo.bf16_v1>
    %147 = "vhlo.slice_v1"(%146) <{limit_indices = #vhlo.tensor_v1<dense<[1, 64, 13, 13]> : tensor<4xi64>>, start_indices = #vhlo.tensor_v1<dense<0> : tensor<4xi64>>, strides = #vhlo.tensor_v1<dense<1> : tensor<4xi64>>}> : (!vhlo.tensor_v1<1x64x13x14x!vhlo.bf16_v1>) -> !vhlo.tensor_v1<1x64x13x13x!vhlo.bf16_v1>
    %148 = "vhlo.reshape_v1"(%147) : (!vhlo.tensor_v1<1x64x13x13x!vhlo.bf16_v1>) -> !vhlo.tensor_v1<64x13x13x!vhlo.bf16_v1>
    %149 = "vhlo.transpose_v1"(%arg7) <{permutation = #vhlo.tensor_v1<dense<[1, 0]> : tensor<2xi64>>}> {result_layout = #vhlo.tensor_v1<dense<[0, 1]> : tensor<2xindex>>, xla_shape = #vhlo.string_v1<"bf16[2880,512]{0,1}">} : (!vhlo.tensor_v1<512x2880x!vhlo.bf16_v1>) -> !vhlo.tensor_v1<2880x512x!vhlo.bf16_v1>
    %150 = "vhlo.dot_general_v2"(%35, %149) <{accumulation_type = #vhlo.type_v1<!vhlo.none_v1>, allow_imprecise_accumulation = #vhlo.type_v1<!vhlo.none_v1>, lhs_batching_dimensions = #vhlo.tensor_v1<dense<> : tensor<0xi64>>, lhs_component_count = #vhlo.type_v1<!vhlo.none_v1>, lhs_contracting_dimensions = #vhlo.tensor_v1<dense<1> : tensor<1xi64>>, lhs_precision_type = #vhlo.type_v1<!vhlo.none_v1>, num_primitive_operations = #vhlo.type_v1<!vhlo.none_v1>, precision_config = #vhlo.array_v1<[#vhlo<precision_v1 DEFAULT>, #vhlo<precision_v1 DEFAULT>]>, rhs_batching_dimensions = #vhlo.tensor_v1<dense<> : tensor<0xi64>>, rhs_component_count = #vhlo.type_v1<!vhlo.none_v1>, rhs_contracting_dimensions = #vhlo.tensor_v1<dense<0> : tensor<1xi64>>, rhs_precision_type = #vhlo.type_v1<!vhlo.none_v1>}> : (!vhlo.tensor_v1<13x2880x!vhlo.bf16_v1>, !vhlo.tensor_v1<2880x512x!vhlo.bf16_v1>) -> !vhlo.tensor_v1<13x512x!vhlo.bf16_v1>
    %151 = "vhlo.reshape_v1"(%150) : (!vhlo.tensor_v1<13x512x!vhlo.bf16_v1>) -> !vhlo.tensor_v1<1x13x512x!vhlo.bf16_v1>
    %152 = "vhlo.broadcast_in_dim_v1"(%arg6) <{broadcast_dimensions = #vhlo.tensor_v1<dense<2> : tensor<1xi64>>}> : (!vhlo.tensor_v1<512x!vhlo.bf16_v1>) -> !vhlo.tensor_v1<1x13x512x!vhlo.bf16_v1>
    %153 = "vhlo.add_v1"(%151, %152) : (!vhlo.tensor_v1<1x13x512x!vhlo.bf16_v1>, !vhlo.tensor_v1<1x13x512x!vhlo.bf16_v1>) -> !vhlo.tensor_v1<1x13x512x!vhlo.bf16_v1>
    %154 = "vhlo.reshape_v1"(%153) : (!vhlo.tensor_v1<1x13x512x!vhlo.bf16_v1>) -> !vhlo.tensor_v1<1x13x8x64x!vhlo.bf16_v1>
    %155 = "vhlo.transpose_v1"(%154) <{permutation = #vhlo.tensor_v1<dense<[0, 2, 1, 3]> : tensor<4xi64>>}> {result_layout = #vhlo.tensor_v1<dense<[3, 1, 2, 0]> : tensor<4xindex>>, xla_shape = #vhlo.string_v1<"bf16[1,8,13,64]{3,1,2,0}">} : (!vhlo.tensor_v1<1x13x8x64x!vhlo.bf16_v1>) -> !vhlo.tensor_v1<1x8x13x64x!vhlo.bf16_v1>
    %156 = "vhlo.broadcast_in_dim_v1"(%155) <{broadcast_dimensions = #vhlo.tensor_v1<dense<[0, 1, 3, 4]> : tensor<4xi64>>}> : (!vhlo.tensor_v1<1x8x13x64x!vhlo.bf16_v1>) -> !vhlo.tensor_v1<1x8x8x13x64x!vhlo.bf16_v1>
    %157 = "vhlo.reshape_v1"(%156) : (!vhlo.tensor_v1<1x8x8x13x64x!vhlo.bf16_v1>) -> !vhlo.tensor_v1<64x13x64x!vhlo.bf16_v1>
    %158 = "vhlo.dot_general_v2"(%148, %157) <{accumulation_type = #vhlo.type_v1<!vhlo.none_v1>, allow_imprecise_accumulation = #vhlo.type_v1<!vhlo.none_v1>, lhs_batching_dimensions = #vhlo.tensor_v1<dense<0> : tensor<1xi64>>, lhs_component_count = #vhlo.type_v1<!vhlo.none_v1>, lhs_contracting_dimensions = #vhlo.tensor_v1<dense<2> : tensor<1xi64>>, lhs_precision_type = #vhlo.type_v1<!vhlo.none_v1>, num_primitive_operations = #vhlo.type_v1<!vhlo.none_v1>, precision_config = #vhlo.array_v1<[#vhlo<precision_v1 DEFAULT>, #vhlo<precision_v1 DEFAULT>]>, rhs_batching_dimensions = #vhlo.tensor_v1<dense<0> : tensor<1xi64>>, rhs_component_count = #vhlo.type_v1<!vhlo.none_v1>, rhs_contracting_dimensions = #vhlo.tensor_v1<dense<1> : tensor<1xi64>>, rhs_precision_type = #vhlo.type_v1<!vhlo.none_v1>}> : (!vhlo.tensor_v1<64x13x13x!vhlo.bf16_v1>, !vhlo.tensor_v1<64x13x64x!vhlo.bf16_v1>) -> !vhlo.tensor_v1<64x13x64x!vhlo.bf16_v1>
    %159 = "vhlo.reshape_v1"(%158) : (!vhlo.tensor_v1<64x13x64x!vhlo.bf16_v1>) -> !vhlo.tensor_v1<1x64x13x64x!vhlo.bf16_v1>
    %160 = "vhlo.transpose_v1"(%159) <{permutation = #vhlo.tensor_v1<dense<[0, 2, 1, 3]> : tensor<4xi64>>}> {result_layout = #vhlo.tensor_v1<dense<[3, 1, 2, 0]> : tensor<4xindex>>, xla_shape = #vhlo.string_v1<"bf16[1,13,64,64]{3,1,2,0}">} : (!vhlo.tensor_v1<1x64x13x64x!vhlo.bf16_v1>) -> !vhlo.tensor_v1<1x13x64x64x!vhlo.bf16_v1>
    %161 = "vhlo.reshape_v1"(%160) : (!vhlo.tensor_v1<1x13x64x64x!vhlo.bf16_v1>) -> !vhlo.tensor_v1<13x4096x!vhlo.bf16_v1>
    %162 = "vhlo.transpose_v1"(%arg5) <{permutation = #vhlo.tensor_v1<dense<[1, 0]> : tensor<2xi64>>}> {result_layout = #vhlo.tensor_v1<dense<[0, 1]> : tensor<2xindex>>, xla_shape = #vhlo.string_v1<"bf16[4096,2880]{0,1}">} : (!vhlo.tensor_v1<2880x4096x!vhlo.bf16_v1>) -> !vhlo.tensor_v1<4096x2880x!vhlo.bf16_v1>
    %163 = "vhlo.dot_general_v2"(%161, %162) <{accumulation_type = #vhlo.type_v1<!vhlo.none_v1>, allow_imprecise_accumulation = #vhlo.type_v1<!vhlo.none_v1>, lhs_batching_dimensions = #vhlo.tensor_v1<dense<> : tensor<0xi64>>, lhs_component_count = #vhlo.type_v1<!vhlo.none_v1>, lhs_contracting_dimensions = #vhlo.tensor_v1<dense<1> : tensor<1xi64>>, lhs_precision_type = #vhlo.type_v1<!vhlo.none_v1>, num_primitive_operations = #vhlo.type_v1<!vhlo.none_v1>, precision_config = #vhlo.array_v1<[#vhlo<precision_v1 DEFAULT>, #vhlo<precision_v1 DEFAULT>]>, rhs_batching_dimensions = #vhlo.tensor_v1<dense<> : tensor<0xi64>>, rhs_component_count = #vhlo.type_v1<!vhlo.none_v1>, rhs_contracting_dimensions = #vhlo.tensor_v1<dense<0> : tensor<1xi64>>, rhs_precision_type = #vhlo.type_v1<!vhlo.none_v1>}> : (!vhlo.tensor_v1<13x4096x!vhlo.bf16_v1>, !vhlo.tensor_v1<4096x2880x!vhlo.bf16_v1>) -> !vhlo.tensor_v1<13x2880x!vhlo.bf16_v1>
    %164 = "vhlo.reshape_v1"(%163) : (!vhlo.tensor_v1<13x2880x!vhlo.bf16_v1>) -> !vhlo.tensor_v1<1x13x2880x!vhlo.bf16_v1>
    %165 = "vhlo.broadcast_in_dim_v1"(%arg4) <{broadcast_dimensions = #vhlo.tensor_v1<dense<2> : tensor<1xi64>>}> : (!vhlo.tensor_v1<2880x!vhlo.bf16_v1>) -> !vhlo.tensor_v1<1x13x2880x!vhlo.bf16_v1>
    %166 = "vhlo.add_v1"(%164, %165) : (!vhlo.tensor_v1<1x13x2880x!vhlo.bf16_v1>, !vhlo.tensor_v1<1x13x2880x!vhlo.bf16_v1>) -> !vhlo.tensor_v1<1x13x2880x!vhlo.bf16_v1>
    %167 = "vhlo.add_v1"(%21, %166) : (!vhlo.tensor_v1<1x13x2880x!vhlo.bf16_v1>, !vhlo.tensor_v1<1x13x2880x!vhlo.bf16_v1>) -> !vhlo.tensor_v1<1x13x2880x!vhlo.bf16_v1>
    %168 = "vhlo.broadcast_in_dim_v1"(%arg29) <{broadcast_dimensions = #vhlo.tensor_v1<dense<> : tensor<0xi64>>}> : (!vhlo.tensor_v1<!vhlo.bf16_v1>) -> !vhlo.tensor_v1<32x13x2880x!vhlo.bf16_v1>
    %169 = "vhlo.convert_v1"(%arg21) : (!vhlo.tensor_v1<2880x!vhlo.bf16_v1>) -> !vhlo.tensor_v1<2880x!vhlo.f32_v1>
    %170 = "vhlo.broadcast_in_dim_v1"(%169) <{broadcast_dimensions = #vhlo.tensor_v1<dense<2> : tensor<1xi64>>}> : (!vhlo.tensor_v1<2880x!vhlo.f32_v1>) -> !vhlo.tensor_v1<1x13x2880x!vhlo.f32_v1>
    %171 = "vhlo.convert_v1"(%167) : (!vhlo.tensor_v1<1x13x2880x!vhlo.bf16_v1>) -> !vhlo.tensor_v1<1x13x2880x!vhlo.f32_v1>
    %172 = "vhlo.power_v1"(%171, %14) : (!vhlo.tensor_v1<1x13x2880x!vhlo.f32_v1>, !vhlo.tensor_v1<1x13x2880x!vhlo.f32_v1>) -> !vhlo.tensor_v1<1x13x2880x!vhlo.f32_v1>
    %173 = "vhlo.reduce_v1"(%172, %0) <{dimensions = #vhlo.tensor_v1<dense<2> : tensor<1xi64>>}> ({
    ^bb0(%arg31: !vhlo.tensor_v1<!vhlo.f32_v1>, %arg32: !vhlo.tensor_v1<!vhlo.f32_v1>):
      %260 = "vhlo.add_v1"(%arg31, %arg32) : (!vhlo.tensor_v1<!vhlo.f32_v1>, !vhlo.tensor_v1<!vhlo.f32_v1>) -> !vhlo.tensor_v1<!vhlo.f32_v1>
      "vhlo.return_v1"(%260) : (!vhlo.tensor_v1<!vhlo.f32_v1>) -> ()
    }) : (!vhlo.tensor_v1<1x13x2880x!vhlo.f32_v1>, !vhlo.tensor_v1<!vhlo.f32_v1>) -> !vhlo.tensor_v1<1x13x!vhlo.f32_v1>
    %174 = "vhlo.multiply_v1"(%173, %5) : (!vhlo.tensor_v1<1x13x!vhlo.f32_v1>, !vhlo.tensor_v1<1x13x!vhlo.f32_v1>) -> !vhlo.tensor_v1<1x13x!vhlo.f32_v1>
    %175 = "vhlo.reshape_v1"(%174) : (!vhlo.tensor_v1<1x13x!vhlo.f32_v1>) -> !vhlo.tensor_v1<1x13x1x!vhlo.f32_v1>
    %176 = "vhlo.add_v1"(%175, %27) : (!vhlo.tensor_v1<1x13x1x!vhlo.f32_v1>, !vhlo.tensor_v1<1x13x1x!vhlo.f32_v1>) -> !vhlo.tensor_v1<1x13x1x!vhlo.f32_v1>
    %177 = "vhlo.rsqrt_v2"(%176) <{result_accuracy = #vhlo.result_accuracy_v1<atol = 0.000000e+00, rtol = 0.000000e+00, ulps = 0, mode = #vhlo<result_accuracy_mode_v1 DEFAULT>>}> : (!vhlo.tensor_v1<1x13x1x!vhlo.f32_v1>) -> !vhlo.tensor_v1<1x13x1x!vhlo.f32_v1>
    %178 = "vhlo.reshape_v1"(%177) : (!vhlo.tensor_v1<1x13x1x!vhlo.f32_v1>) -> !vhlo.tensor_v1<1x13x!vhlo.f32_v1>
    %179 = "vhlo.broadcast_in_dim_v1"(%178) <{broadcast_dimensions = #vhlo.tensor_v1<dense<[0, 1]> : tensor<2xi64>>}> : (!vhlo.tensor_v1<1x13x!vhlo.f32_v1>) -> !vhlo.tensor_v1<1x13x2880x!vhlo.f32_v1>
    %180 = "vhlo.multiply_v1"(%171, %179) : (!vhlo.tensor_v1<1x13x2880x!vhlo.f32_v1>, !vhlo.tensor_v1<1x13x2880x!vhlo.f32_v1>) -> !vhlo.tensor_v1<1x13x2880x!vhlo.f32_v1>
    %181 = "vhlo.multiply_v1"(%170, %180) : (!vhlo.tensor_v1<1x13x2880x!vhlo.f32_v1>, !vhlo.tensor_v1<1x13x2880x!vhlo.f32_v1>) -> !vhlo.tensor_v1<1x13x2880x!vhlo.f32_v1>
    %182 = "vhlo.convert_v1"(%181) : (!vhlo.tensor_v1<1x13x2880x!vhlo.f32_v1>) -> !vhlo.tensor_v1<1x13x2880x!vhlo.bf16_v1>
    %183 = "vhlo.reshape_v1"(%182) : (!vhlo.tensor_v1<1x13x2880x!vhlo.bf16_v1>) -> !vhlo.tensor_v1<13x2880x!vhlo.bf16_v1>
    %184 = "vhlo.concatenate_v1"(%183, %183, %183, %183, %183, %183, %183, %183, %183, %183, %183, %183, %183, %183, %183, %183, %183, %183, %183, %183, %183, %183, %183, %183, %183, %183, %183, %183, %183, %183, %183, %183) <{dimension = #vhlo.integer_v1<0 : i64>}> : (!vhlo.tensor_v1<13x2880x!vhlo.bf16_v1>, !vhlo.tensor_v1<13x2880x!vhlo.bf16_v1>, !vhlo.tensor_v1<13x2880x!vhlo.bf16_v1>, !vhlo.tensor_v1<13x2880x!vhlo.bf16_v1>, !vhlo.tensor_v1<13x2880x!vhlo.bf16_v1>, !vhlo.tensor_v1<13x2880x!vhlo.bf16_v1>, !vhlo.tensor_v1<13x2880x!vhlo.bf16_v1>, !vhlo.tensor_v1<13x2880x!vhlo.bf16_v1>, !vhlo.tensor_v1<13x2880x!vhlo.bf16_v1>, !vhlo.tensor_v1<13x2880x!vhlo.bf16_v1>, !vhlo.tensor_v1<13x2880x!vhlo.bf16_v1>, !vhlo.tensor_v1<13x2880x!vhlo.bf16_v1>, !vhlo.tensor_v1<13x2880x!vhlo.bf16_v1>, !vhlo.tensor_v1<13x2880x!vhlo.bf16_v1>, !vhlo.tensor_v1<13x2880x!vhlo.bf16_v1>, !vhlo.tensor_v1<13x2880x!vhlo.bf16_v1>, !vhlo.tensor_v1<13x2880x!vhlo.bf16_v1>, !vhlo.tensor_v1<13x2880x!vhlo.bf16_v1>, !vhlo.tensor_v1<13x2880x!vhlo.bf16_v1>, !vhlo.tensor_v1<13x2880x!vhlo.bf16_v1>, !vhlo.tensor_v1<13x2880x!vhlo.bf16_v1>, !vhlo.tensor_v1<13x2880x!vhlo.bf16_v1>, !vhlo.tensor_v1<13x2880x!vhlo.bf16_v1>, !vhlo.tensor_v1<13x2880x!vhlo.bf16_v1>, !vhlo.tensor_v1<13x2880x!vhlo.bf16_v1>, !vhlo.tensor_v1<13x2880x!vhlo.bf16_v1>, !vhlo.tensor_v1<13x2880x!vhlo.bf16_v1>, !vhlo.tensor_v1<13x2880x!vhlo.bf16_v1>, !vhlo.tensor_v1<13x2880x!vhlo.bf16_v1>, !vhlo.tensor_v1<13x2880x!vhlo.bf16_v1>, !vhlo.tensor_v1<13x2880x!vhlo.bf16_v1>, !vhlo.tensor_v1<13x2880x!vhlo.bf16_v1>) -> !vhlo.tensor_v1<416x2880x!vhlo.bf16_v1>
    %185 = "vhlo.reshape_v1"(%184) : (!vhlo.tensor_v1<416x2880x!vhlo.bf16_v1>) -> !vhlo.tensor_v1<32x13x2880x!vhlo.bf16_v1>
    %186 = "vhlo.dot_general_v2"(%185, %arg28) <{accumulation_type = #vhlo.type_v1<!vhlo.none_v1>, allow_imprecise_accumulation = #vhlo.type_v1<!vhlo.none_v1>, lhs_batching_dimensions = #vhlo.tensor_v1<dense<0> : tensor<1xi64>>, lhs_component_count = #vhlo.type_v1<!vhlo.none_v1>, lhs_contracting_dimensions = #vhlo.tensor_v1<dense<2> : tensor<1xi64>>, lhs_precision_type = #vhlo.type_v1<!vhlo.none_v1>, num_primitive_operations = #vhlo.type_v1<!vhlo.none_v1>, precision_config = #vhlo.array_v1<[#vhlo<precision_v1 DEFAULT>, #vhlo<precision_v1 DEFAULT>]>, rhs_batching_dimensions = #vhlo.tensor_v1<dense<0> : tensor<1xi64>>, rhs_component_count = #vhlo.type_v1<!vhlo.none_v1>, rhs_contracting_dimensions = #vhlo.tensor_v1<dense<1> : tensor<1xi64>>, rhs_precision_type = #vhlo.type_v1<!vhlo.none_v1>}> : (!vhlo.tensor_v1<32x13x2880x!vhlo.bf16_v1>, !vhlo.tensor_v1<32x2880x5760x!vhlo.bf16_v1>) -> !vhlo.tensor_v1<32x13x5760x!vhlo.bf16_v1>
    %187 = "vhlo.broadcast_in_dim_v1"(%arg27) <{broadcast_dimensions = #vhlo.tensor_v1<dense<[0, 2]> : tensor<2xi64>>}> : (!vhlo.tensor_v1<32x5760x!vhlo.bf16_v1>) -> !vhlo.tensor_v1<32x13x5760x!vhlo.bf16_v1>
    %188 = "vhlo.add_v1"(%186, %187) : (!vhlo.tensor_v1<32x13x5760x!vhlo.bf16_v1>, !vhlo.tensor_v1<32x13x5760x!vhlo.bf16_v1>) -> !vhlo.tensor_v1<32x13x5760x!vhlo.bf16_v1>
    %189 = "vhlo.slice_v1"(%188) <{limit_indices = #vhlo.tensor_v1<dense<[32, 13, 5760]> : tensor<3xi64>>, start_indices = #vhlo.tensor_v1<dense<[0, 0, 1]> : tensor<3xi64>>, strides = #vhlo.tensor_v1<dense<[1, 1, 2]> : tensor<3xi64>>}> : (!vhlo.tensor_v1<32x13x5760x!vhlo.bf16_v1>) -> !vhlo.tensor_v1<32x13x2880x!vhlo.bf16_v1>
    %190 = "vhlo.broadcast_in_dim_v1"(%arg25) <{broadcast_dimensions = #vhlo.tensor_v1<dense<> : tensor<0xi64>>}> : (!vhlo.tensor_v1<!vhlo.bf16_v1>) -> !vhlo.tensor_v1<32x13x2880x!vhlo.bf16_v1>
    %191 = "vhlo.clamp_v1"(%168, %189, %190) : (!vhlo.tensor_v1<32x13x2880x!vhlo.bf16_v1>, !vhlo.tensor_v1<32x13x2880x!vhlo.bf16_v1>, !vhlo.tensor_v1<32x13x2880x!vhlo.bf16_v1>) -> !vhlo.tensor_v1<32x13x2880x!vhlo.bf16_v1>
    %192 = "vhlo.add_v1"(%191, %11) : (!vhlo.tensor_v1<32x13x2880x!vhlo.bf16_v1>, !vhlo.tensor_v1<32x13x2880x!vhlo.bf16_v1>) -> !vhlo.tensor_v1<32x13x2880x!vhlo.bf16_v1>
    %193 = "vhlo.convert_v1"(%192) : (!vhlo.tensor_v1<32x13x2880x!vhlo.bf16_v1>) -> !vhlo.tensor_v1<32x13x2880x!vhlo.f32_v1>
    %194 = "vhlo.broadcast_in_dim_v1"(%arg26) <{broadcast_dimensions = #vhlo.tensor_v1<dense<> : tensor<0xi64>>}> : (!vhlo.tensor_v1<!vhlo.bf16_v1>) -> !vhlo.tensor_v1<32x13x2880x!vhlo.bf16_v1>
    %195 = "vhlo.slice_v1"(%188) <{limit_indices = #vhlo.tensor_v1<dense<[32, 13, 5760]> : tensor<3xi64>>, start_indices = #vhlo.tensor_v1<dense<0> : tensor<3xi64>>, strides = #vhlo.tensor_v1<dense<[1, 1, 2]> : tensor<3xi64>>}> : (!vhlo.tensor_v1<32x13x5760x!vhlo.bf16_v1>) -> !vhlo.tensor_v1<32x13x2880x!vhlo.bf16_v1>
    %196 = "vhlo.clamp_v1"(%194, %195, %190) : (!vhlo.tensor_v1<32x13x2880x!vhlo.bf16_v1>, !vhlo.tensor_v1<32x13x2880x!vhlo.bf16_v1>, !vhlo.tensor_v1<32x13x2880x!vhlo.bf16_v1>) -> !vhlo.tensor_v1<32x13x2880x!vhlo.bf16_v1>
    %197 = "vhlo.convert_v1"(%196) : (!vhlo.tensor_v1<32x13x2880x!vhlo.bf16_v1>) -> !vhlo.tensor_v1<32x13x2880x!vhlo.f32_v1>
    %198 = "vhlo.broadcast_in_dim_v1"(%arg24) <{broadcast_dimensions = #vhlo.tensor_v1<dense<> : tensor<0xi64>>}> : (!vhlo.tensor_v1<!vhlo.f32_v1>) -> !vhlo.tensor_v1<32x13x2880x!vhlo.f32_v1>
    %199 = "vhlo.multiply_v1"(%197, %198) : (!vhlo.tensor_v1<32x13x2880x!vhlo.f32_v1>, !vhlo.tensor_v1<32x13x2880x!vhlo.f32_v1>) -> !vhlo.tensor_v1<32x13x2880x!vhlo.f32_v1>
    %200 = "vhlo.convert_v1"(%199) : (!vhlo.tensor_v1<32x13x2880x!vhlo.f32_v1>) -> !vhlo.tensor_v1<32x13x2880x!vhlo.bf16_v1>
    %201 = "vhlo.logistic_v2"(%200) <{result_accuracy = #vhlo.result_accuracy_v1<atol = 0.000000e+00, rtol = 0.000000e+00, ulps = 0, mode = #vhlo<result_accuracy_mode_v1 DEFAULT>>}> : (!vhlo.tensor_v1<32x13x2880x!vhlo.bf16_v1>) -> !vhlo.tensor_v1<32x13x2880x!vhlo.bf16_v1>
    %202 = "vhlo.convert_v1"(%201) : (!vhlo.tensor_v1<32x13x2880x!vhlo.bf16_v1>) -> !vhlo.tensor_v1<32x13x2880x!vhlo.f32_v1>
    %203 = "vhlo.multiply_v1"(%197, %202) : (!vhlo.tensor_v1<32x13x2880x!vhlo.f32_v1>, !vhlo.tensor_v1<32x13x2880x!vhlo.f32_v1>) -> !vhlo.tensor_v1<32x13x2880x!vhlo.f32_v1>
    %204 = "vhlo.convert_v1"(%203) : (!vhlo.tensor_v1<32x13x2880x!vhlo.f32_v1>) -> !vhlo.tensor_v1<32x13x2880x!vhlo.bf16_v1>
    %205 = "vhlo.convert_v1"(%204) : (!vhlo.tensor_v1<32x13x2880x!vhlo.bf16_v1>) -> !vhlo.tensor_v1<32x13x2880x!vhlo.f32_v1>
    %206 = "vhlo.multiply_v1"(%193, %205) : (!vhlo.tensor_v1<32x13x2880x!vhlo.f32_v1>, !vhlo.tensor_v1<32x13x2880x!vhlo.f32_v1>) -> !vhlo.tensor_v1<32x13x2880x!vhlo.f32_v1>
    %207 = "vhlo.convert_v1"(%206) : (!vhlo.tensor_v1<32x13x2880x!vhlo.f32_v1>) -> !vhlo.tensor_v1<32x13x2880x!vhlo.bf16_v1>
    %208 = "vhlo.dot_general_v2"(%207, %arg23) <{accumulation_type = #vhlo.type_v1<!vhlo.none_v1>, allow_imprecise_accumulation = #vhlo.type_v1<!vhlo.none_v1>, lhs_batching_dimensions = #vhlo.tensor_v1<dense<0> : tensor<1xi64>>, lhs_component_count = #vhlo.type_v1<!vhlo.none_v1>, lhs_contracting_dimensions = #vhlo.tensor_v1<dense<2> : tensor<1xi64>>, lhs_precision_type = #vhlo.type_v1<!vhlo.none_v1>, num_primitive_operations = #vhlo.type_v1<!vhlo.none_v1>, precision_config = #vhlo.array_v1<[#vhlo<precision_v1 DEFAULT>, #vhlo<precision_v1 DEFAULT>]>, rhs_batching_dimensions = #vhlo.tensor_v1<dense<0> : tensor<1xi64>>, rhs_component_count = #vhlo.type_v1<!vhlo.none_v1>, rhs_contracting_dimensions = #vhlo.tensor_v1<dense<1> : tensor<1xi64>>, rhs_precision_type = #vhlo.type_v1<!vhlo.none_v1>}> : (!vhlo.tensor_v1<32x13x2880x!vhlo.bf16_v1>, !vhlo.tensor_v1<32x2880x2880x!vhlo.bf16_v1>) -> !vhlo.tensor_v1<32x13x2880x!vhlo.bf16_v1>
    %209 = "vhlo.broadcast_in_dim_v1"(%arg22) <{broadcast_dimensions = #vhlo.tensor_v1<dense<[0, 2]> : tensor<2xi64>>}> : (!vhlo.tensor_v1<32x2880x!vhlo.bf16_v1>) -> !vhlo.tensor_v1<32x13x2880x!vhlo.bf16_v1>
    %210 = "vhlo.add_v1"(%208, %209) : (!vhlo.tensor_v1<32x13x2880x!vhlo.bf16_v1>, !vhlo.tensor_v1<32x13x2880x!vhlo.bf16_v1>) -> !vhlo.tensor_v1<32x13x2880x!vhlo.bf16_v1>
    %211 = "vhlo.reshape_v1"(%210) : (!vhlo.tensor_v1<32x13x2880x!vhlo.bf16_v1>) -> !vhlo.tensor_v1<32x1x13x2880x!vhlo.bf16_v1>
    %212 = "vhlo.convert_v1"(%211) : (!vhlo.tensor_v1<32x1x13x2880x!vhlo.bf16_v1>) -> !vhlo.tensor_v1<32x1x13x2880x!vhlo.f32_v1>
    %213 = "vhlo.iota_v1"() <{iota_dimension = #vhlo.integer_v1<0 : i64>}> : () -> !vhlo.tensor_v1<13x!vhlo.i64_v1>
    %214 = "vhlo.broadcast_in_dim_v1"(%213) <{broadcast_dimensions = #vhlo.tensor_v1<dense<0> : tensor<1xi64>>}> : (!vhlo.tensor_v1<13x!vhlo.i64_v1>) -> !vhlo.tensor_v1<13x4x1x!vhlo.i64_v1>
    %215 = "vhlo.transpose_v1"(%arg3) <{permutation = #vhlo.tensor_v1<dense<[1, 0]> : tensor<2xi64>>}> {result_layout = #vhlo.tensor_v1<dense<[0, 1]> : tensor<2xindex>>, xla_shape = #vhlo.string_v1<"bf16[2880,32]{0,1}">} : (!vhlo.tensor_v1<32x2880x!vhlo.bf16_v1>) -> !vhlo.tensor_v1<2880x32x!vhlo.bf16_v1>
    %216 = "vhlo.dot_general_v2"(%183, %215) <{accumulation_type = #vhlo.type_v1<!vhlo.none_v1>, allow_imprecise_accumulation = #vhlo.type_v1<!vhlo.none_v1>, lhs_batching_dimensions = #vhlo.tensor_v1<dense<> : tensor<0xi64>>, lhs_component_count = #vhlo.type_v1<!vhlo.none_v1>, lhs_contracting_dimensions = #vhlo.tensor_v1<dense<1> : tensor<1xi64>>, lhs_precision_type = #vhlo.type_v1<!vhlo.none_v1>, num_primitive_operations = #vhlo.type_v1<!vhlo.none_v1>, precision_config = #vhlo.array_v1<[#vhlo<precision_v1 DEFAULT>, #vhlo<precision_v1 DEFAULT>]>, rhs_batching_dimensions = #vhlo.tensor_v1<dense<> : tensor<0xi64>>, rhs_component_count = #vhlo.type_v1<!vhlo.none_v1>, rhs_contracting_dimensions = #vhlo.tensor_v1<dense<0> : tensor<1xi64>>, rhs_precision_type = #vhlo.type_v1<!vhlo.none_v1>}> : (!vhlo.tensor_v1<13x2880x!vhlo.bf16_v1>, !vhlo.tensor_v1<2880x32x!vhlo.bf16_v1>) -> !vhlo.tensor_v1<13x32x!vhlo.bf16_v1>
    %217 = "vhlo.broadcast_in_dim_v1"(%arg2) <{broadcast_dimensions = #vhlo.tensor_v1<dense<1> : tensor<1xi64>>}> : (!vhlo.tensor_v1<32x!vhlo.bf16_v1>) -> !vhlo.tensor_v1<13x32x!vhlo.bf16_v1>
    %218 = "vhlo.add_v1"(%216, %217) : (!vhlo.tensor_v1<13x32x!vhlo.bf16_v1>, !vhlo.tensor_v1<13x32x!vhlo.bf16_v1>) -> !vhlo.tensor_v1<13x32x!vhlo.bf16_v1>
    %219 = "vhlo.iota_v1"() <{iota_dimension = #vhlo.integer_v1<0 : i64>}> : () -> !vhlo.tensor_v1<32x!vhlo.i32_v1>
    %220 = "vhlo.broadcast_in_dim_v1"(%219) <{broadcast_dimensions = #vhlo.tensor_v1<dense<1> : tensor<1xi64>>}> : (!vhlo.tensor_v1<32x!vhlo.i32_v1>) -> !vhlo.tensor_v1<13x32x!vhlo.i32_v1>
    %221:2 = "vhlo.sort_v1"(%218, %220) <{dimension = #vhlo.integer_v1<1 : i64>, is_stable = #vhlo.bool_v1<false>}> ({
    ^bb0(%arg31: !vhlo.tensor_v1<!vhlo.bf16_v1>, %arg32: !vhlo.tensor_v1<!vhlo.bf16_v1>, %arg33: !vhlo.tensor_v1<!vhlo.i32_v1>, %arg34: !vhlo.tensor_v1<!vhlo.i32_v1>):
      %260 = "vhlo.compare_v1"(%arg31, %arg32) <{compare_type = #vhlo<comparison_type_v1 TOTALORDER>, comparison_direction = #vhlo<comparison_direction_v1 GT>}> : (!vhlo.tensor_v1<!vhlo.bf16_v1>, !vhlo.tensor_v1<!vhlo.bf16_v1>) -> !vhlo.tensor_v1<!vhlo.bool_v1>
      "vhlo.return_v1"(%260) : (!vhlo.tensor_v1<!vhlo.bool_v1>) -> ()
    }) : (!vhlo.tensor_v1<13x32x!vhlo.bf16_v1>, !vhlo.tensor_v1<13x32x!vhlo.i32_v1>) -> (!vhlo.tensor_v1<13x32x!vhlo.bf16_v1>, !vhlo.tensor_v1<13x32x!vhlo.i32_v1>)
    %222 = "vhlo.slice_v1"(%221#1) <{limit_indices = #vhlo.tensor_v1<dense<[13, 4]> : tensor<2xi64>>, start_indices = #vhlo.tensor_v1<dense<0> : tensor<2xi64>>, strides = #vhlo.tensor_v1<dense<1> : tensor<2xi64>>}> : (!vhlo.tensor_v1<13x32x!vhlo.i32_v1>) -> !vhlo.tensor_v1<13x4x!vhlo.i32_v1>
    %223 = "vhlo.convert_v1"(%222) : (!vhlo.tensor_v1<13x4x!vhlo.i32_v1>) -> !vhlo.tensor_v1<13x4x!vhlo.i64_v1>
    %224 = "vhlo.reshape_v1"(%223) : (!vhlo.tensor_v1<13x4x!vhlo.i64_v1>) -> !vhlo.tensor_v1<13x4x1x!vhlo.i64_v1>
    %225 = "vhlo.concatenate_v1"(%214, %224) <{dimension = #vhlo.integer_v1<2 : i64>}> : (!vhlo.tensor_v1<13x4x1x!vhlo.i64_v1>, !vhlo.tensor_v1<13x4x1x!vhlo.i64_v1>) -> !vhlo.tensor_v1<13x4x2x!vhlo.i64_v1>
    %226 = "vhlo.slice_v1"(%221#0) <{limit_indices = #vhlo.tensor_v1<dense<[13, 4]> : tensor<2xi64>>, start_indices = #vhlo.tensor_v1<dense<0> : tensor<2xi64>>, strides = #vhlo.tensor_v1<dense<1> : tensor<2xi64>>}> : (!vhlo.tensor_v1<13x32x!vhlo.bf16_v1>) -> !vhlo.tensor_v1<13x4x!vhlo.bf16_v1>
    %227 = "vhlo.reduce_v1"(%226, %3) <{dimensions = #vhlo.tensor_v1<dense<1> : tensor<1xi64>>}> ({
    ^bb0(%arg31: !vhlo.tensor_v1<!vhlo.bf16_v1>, %arg32: !vhlo.tensor_v1<!vhlo.bf16_v1>):
      %260 = "vhlo.maximum_v1"(%arg31, %arg32) : (!vhlo.tensor_v1<!vhlo.bf16_v1>, !vhlo.tensor_v1<!vhlo.bf16_v1>) -> !vhlo.tensor_v1<!vhlo.bf16_v1>
      "vhlo.return_v1"(%260) : (!vhlo.tensor_v1<!vhlo.bf16_v1>) -> ()
    }) : (!vhlo.tensor_v1<13x4x!vhlo.bf16_v1>, !vhlo.tensor_v1<!vhlo.bf16_v1>) -> !vhlo.tensor_v1<13x!vhlo.bf16_v1>
    %228 = "vhlo.broadcast_in_dim_v1"(%227) <{broadcast_dimensions = #vhlo.tensor_v1<dense<0> : tensor<1xi64>>}> : (!vhlo.tensor_v1<13x!vhlo.bf16_v1>) -> !vhlo.tensor_v1<13x4x!vhlo.bf16_v1>
    %229 = "vhlo.subtract_v1"(%226, %228) : (!vhlo.tensor_v1<13x4x!vhlo.bf16_v1>, !vhlo.tensor_v1<13x4x!vhlo.bf16_v1>) -> !vhlo.tensor_v1<13x4x!vhlo.bf16_v1>
    %230 = "vhlo.exponential_v2"(%229) <{result_accuracy = #vhlo.result_accuracy_v1<atol = 0.000000e+00, rtol = 0.000000e+00, ulps = 0, mode = #vhlo<result_accuracy_mode_v1 DEFAULT>>}> : (!vhlo.tensor_v1<13x4x!vhlo.bf16_v1>) -> !vhlo.tensor_v1<13x4x!vhlo.bf16_v1>
    %231 = "vhlo.reduce_v1"(%230, %9) <{dimensions = #vhlo.tensor_v1<dense<1> : tensor<1xi64>>}> ({
    ^bb0(%arg31: !vhlo.tensor_v1<!vhlo.bf16_v1>, %arg32: !vhlo.tensor_v1<!vhlo.bf16_v1>):
      %260 = "vhlo.add_v1"(%arg31, %arg32) : (!vhlo.tensor_v1<!vhlo.bf16_v1>, !vhlo.tensor_v1<!vhlo.bf16_v1>) -> !vhlo.tensor_v1<!vhlo.bf16_v1>
      "vhlo.return_v1"(%260) : (!vhlo.tensor_v1<!vhlo.bf16_v1>) -> ()
    }) : (!vhlo.tensor_v1<13x4x!vhlo.bf16_v1>, !vhlo.tensor_v1<!vhlo.bf16_v1>) -> !vhlo.tensor_v1<13x!vhlo.bf16_v1>
    %232 = "vhlo.broadcast_in_dim_v1"(%231) <{broadcast_dimensions = #vhlo.tensor_v1<dense<0> : tensor<1xi64>>}> : (!vhlo.tensor_v1<13x!vhlo.bf16_v1>) -> !vhlo.tensor_v1<13x4x!vhlo.bf16_v1>
    %233 = "vhlo.divide_v1"(%230, %232) : (!vhlo.tensor_v1<13x4x!vhlo.bf16_v1>, !vhlo.tensor_v1<13x4x!vhlo.bf16_v1>) -> !vhlo.tensor_v1<13x4x!vhlo.bf16_v1>
…
ction_type = (tensor<201088x2880xbf16>, tensor<f32>, tensor<32xbf16>, tensor<32x2880xbf16>, tensor<2880xbf16>, tensor<2880x4096xbf16>, tensor<512xbf16>, tensor<512x2880xbf16>, tensor<1x13xi64>, tensor<201088x2880xbf16>, tensor<2880xbf16>, tensor<64xbf16>, tensor<bf16>, tensor<i64>, tensor<f32>, tensor<f32>, tensor<32xf32>, tensor<512xbf16>, tensor<512x2880xbf16>, tensor<4096xbf16>, tensor<4096x2880xbf16>, tensor<2880xbf16>, tensor<32x2880xbf16>, tensor<32x2880x2880xbf16>, tensor<f32>, tensor<bf16>, tensor<bf16>, tensor<32x5760xbf16>, tensor<32x2880x5760xbf16>, tensor<bf16>, tensor<2880xbf16>) -> (tensor<13x201088xbf16>, tensor<1x13x201088xbf16>), res_attrs = [{ttcore.shard_status = #ttcore.shard_status<unsharded>}, {ttcore.shard_status = #ttcore.shard_status<unsharded>}], sym_name = "main"}> ({
  ^bb0(%arg0: tensor<201088x2880xbf16>, %arg1: tensor<f32>, %arg2: tensor<32xbf16>, %arg3: tensor<32x2880xbf16>, %arg4: tensor<2880xbf16>, %arg5: tensor<2880x4096xbf16>, %arg6: tensor<512xbf16>, %arg7: tensor<512x2880xbf16>, %arg8: tensor<1x13xi64>, %arg9: tensor<201088x2880xbf16>, %arg10: tensor<2880xbf16>, %arg11: tensor<64xbf16>, %arg12: tensor<bf16>, %arg13: tensor<i64>, %arg14: tensor<f32>, %arg15: tensor<f32>, %arg16: tensor<32xf32>, %arg17: tensor<512xbf16>, %arg18: tensor<512x2880xbf16>, %arg19: tensor<4096xbf16>, %arg20: tensor<4096x2880xbf16>, %arg21: tensor<2880xbf16>, %arg22: tensor<32x2880xbf16>, %arg23: tensor<32x2880x2880xbf16>, %arg24: tensor<f32>, %arg25: tensor<bf16>, %arg26: tensor<bf16>, %arg27: tensor<32x5760xbf16>, %arg28: tensor<32x2880x5760xbf16>, %arg29: tensor<bf16>, %arg30: tensor<2880xbf16>):
    %0:2 = "sdy.manual_computation"(%arg0, %arg1, %arg2, %arg3, %arg4, %arg5, %arg6, %arg7, %arg8, %arg9, %arg10, %arg11, %arg12, %arg13, %arg14, %arg15, %arg16, %arg17, %arg18, %arg19, %arg20, %arg21, %arg22, %arg23, %arg24, %arg25, %arg26, %arg27, %arg28, %arg29, %arg30) <{in_shardings = #sdy.sharding_per_value<[<@mesh, [{"_axis_0", ?}, {?}]>, <@mesh, []>, <@mesh, [{?}]>, <@mesh, [{?}, {?}]>, <@mesh, [{?}]>, <@mesh, [{?}, {"_axis_0", ?}]>, <@mesh, [{"_axis_0", ?}]>, <@mesh, [{"_axis_0", ?}, {?}]>, <@mesh, [{?}, {?}]>, <@mesh, [{"_axis_0", ?}, {?}]>, <@mesh, [{?}]>, <@mesh, [{"_axis_0", ?}]>, <@mesh, []>, <@mesh, []>, <@mesh, []>, <@mesh, []>, <@mesh, [{?}]>, <@mesh, [{"_axis_0", ?}]>, <@mesh, [{"_axis_0", ?}, {?}]>, <@mesh, [{"_axis_0", ?}]>, <@mesh, [{"_axis_0", ?}, {?}]>, <@mesh, [{?}]>, <@mesh, [{"_axis_0", ?}, {?}]>, <@mesh, [{"_axis_0", ?}, {?}, {?}]>, <@mesh, []>, <@mesh, []>, <@mesh, []>, <@mesh, [{"_axis_0", ?}, {?}]>, <@mesh, [{"_axis_0", ?}, {?}, {?}]>, <@mesh, []>, <@mesh, [{?}]>]>, manual_axes = #sdy<manual_axes{"_axis_0_updated", "_axis_0"}>, out_shardings = #sdy.sharding_per_value<[<@mesh, [{?}, {"_axis_0", ?}]>, <@mesh, [{?}, {?}, {"_axis_0", ?}]>]>}> ({
    ^bb0(%arg31: tensor<25136x2880xbf16>, %arg32: tensor<f32>, %arg33: tensor<32xbf16>, %arg34: tensor<32x2880xbf16>, %arg35: tensor<2880xbf16>, %arg36: tensor<2880x512xbf16>, %arg37: tensor<64xbf16>, %arg38: tensor<64x2880xbf16>, %arg39: tensor<1x13xi64>, %arg40: tensor<25136x2880xbf16>, %arg41: tensor<2880xbf16>, %arg42: tensor<8xbf16>, %arg43: tensor<bf16>, %arg44: tensor<i64>, %arg45: tensor<f32>, %arg46: tensor<f32>, %arg47: tensor<32xf32>, %arg48: tensor<64xbf16>, %arg49: tensor<64x2880xbf16>, %arg50: tensor<512xbf16>, %arg51: tensor<512x2880xbf16>, %arg52: tensor<2880xbf16>, %arg53: tensor<4x2880xbf16>, %arg54: tensor<4x2880x2880xbf16>, %arg55: tensor<f32>, %arg56: tensor<bf16>, %arg57: tensor<bf16>, %arg58: tensor<4x5760xbf16>, %arg59: tensor<4x2880x5760xbf16>, %arg60: tensor<bf16>, %arg61: tensor<2880xbf16>):
      %1 = "stablehlo.constant"() <{value = dense<0.000000e+00> : tensor<f32>}> : () -> tensor<f32>
      %2 = "stablehlo.constant"() <{value = dense<[0, 1, 2, 3, 4, 5, 6, 7, 8, 9, 10, 11, 12]> : tensor<13xi64>}> : () -> tensor<13xi64>
      %3 = "stablehlo.constant"() <{value = dense<0> : tensor<ui8>}> : () -> tensor<ui8>
      %4 = "stablehlo.constant"() <{value = dense<0xFF80> : tensor<bf16>}> : () -> tensor<bf16>
      %5 = "stablehlo.constant"() <{value = dense<2.000000e+00> : tensor<f32>}> : () -> tensor<f32>
      %6 = "stablehlo.constant"() <{value = dense<3.47222231E-4> : tensor<1x13xf32>}> : () -> tensor<1x13xf32>
      %7 = "stablehlo.constant"() <{value = dense<[[[0.000000e+00, 1.000000e+00, 2.000000e+00, 3.000000e+00, 4.000000e+00, 5.000000e+00, 6.000000e+00, 7.000000e+00, 8.000000e+00, 9.000000e+00, 1.000000e+01, 1.100000e+01, 1.200000e+01]]]> : tensor<1x1x13xf32>}> : () -> tensor<1x1x13xf32>
      %8 = "stablehlo.constant"() <{value = dense<1> : tensor<ui8>}> : () -> tensor<ui8>
      %9 = "stablehlo.constant"() <{value = dense<1.000000e+00> : tensor<bf16>}> : () -> tensor<bf16>
      %10 = "stablehlo.constant"() <{value = dense<0.000000e+00> : tensor<bf16>}> : () -> tensor<bf16>
      %11 = "stablehlo.broadcast_in_dim"(%10) <{broadcast_dimensions = array<i64>}> : (tensor<bf16>) -> tensor<13x4xbf16>
      %12 = "stablehlo.broadcast_in_dim"(%9) <{broadcast_dimensions = array<i64>}> : (tensor<bf16>) -> tensor<4x13x2880xbf16>
      %13 = "stablehlo.broadcast_in_dim"(%10) <{broadcast_dimensions = array<i64>}> : (tensor<bf16>) -> tensor<1x1x13x13xbf16>
      %14 = "stablehlo.broadcast_in_dim"(%8) <{broadcast_dimensions = array<i64>}> : (tensor<ui8>) -> tensor<13x13xui8>
      %15 = "stablehlo.broadcast_in_dim"(%5) <{broadcast_dimensions = array<i64>}> : (tensor<f32>) -> tensor<1x13x2880xf32>
      %16 = "stablehlo.broadcast_in_dim"(%3) <{broadcast_dimensions = array<i64>}> : (tensor<ui8>) -> tensor<13x13xui8>
      %17 = "stablehlo.convert"(%arg41) : (tensor<2880xbf16>) -> tensor<2880xf32>
      %18 = "stablehlo.broadcast_in_dim"(%17) <{broadcast_dimensions = array<i64: 2>}> : (tensor<2880xf32>) -> tensor<1x13x2880xf32>
      %19 = "stablehlo.reshape"(%arg39) : (tensor<1x13xi64>) -> tensor<13xi64>
      %20 = "stablehlo.convert"(%19) : (tensor<13xi64>) -> tensor<13xui32>
      %21 = "stablehlo.gather"(%arg40, %20) <{dimension_numbers = #stablehlo.gather<offset_dims = [1], collapsed_slice_dims = [0], start_index_map = [0], index_vector_dim = 1>, slice_sizes = array<i64: 1, 2880>}> : (tensor<25136x2880xbf16>, tensor<13xui32>) -> tensor<13x2880xbf16>
      %22 = "stablehlo.all_reduce"(%21) <{channel_handle = #stablehlo.channel_handle<handle = 1, type = 1>, replica_groups = dense<[[0, 1, 2, 3, 4, 5, 6, 7]]> : tensor<1x8xi64>}> ({
      ^bb0(%arg90: tensor<bf16>, %arg91: tensor<bf16>):
        %308 = "stablehlo.add"(%arg90, %arg91) : (tensor<bf16>, tensor<bf16>) -> tensor<bf16>
        "stablehlo.return"(%308) : (tensor<bf16>) -> ()
      }) : (tensor<13x2880xbf16>) -> tensor<13x2880xbf16>
      %23 = "stablehlo.reshape"(%22) : (tensor<13x2880xbf16>) -> tensor<1x13x2880xbf16>
      %24 = "stablehlo.convert"(%23) : (tensor<1x13x2880xbf16>) -> tensor<1x13x2880xf32>
      %25 = "stablehlo.power"(%24, %15) : (tensor<1x13x2880xf32>, tensor<1x13x2880xf32>) -> tensor<1x13x2880xf32>
      %26 = "stablehlo.reduce"(%25, %1) <{dimensions = array<i64: 2>}> ({
      ^bb0(%arg88: tensor<f32>, %arg89: tensor<f32>):
        %307 = "stablehlo.add"(%arg88, %arg89) : (tensor<f32>, tensor<f32>) -> tensor<f32>
        "stablehlo.return"(%307) : (tensor<f32>) -> ()
      }) : (tensor<1x13x2880xf32>, tensor<f32>) -> tensor<1x13xf32>
      %27 = "stablehlo.multiply"(%26, %6) : (tensor<1x13xf32>, tensor<1x13xf32>) -> tensor<1x13xf32>
      %28 = "stablehlo.reshape"(%27) : (tensor<1x13xf32>) -> tensor<1x13x1xf32>
      %29 = "stablehlo.broadcast_in_dim"(%arg32) <{broadcast_dimensions = array<i64>}> : (tensor<f32>) -> tensor<1x13x1xf32>
      %30 = "stablehlo.add"(%28, %29) : (tensor<1x13x1xf32>, tensor<1x13x1xf32>) -> tensor<1x13x1xf32>
      %31 = "stablehlo.rsqrt"(%30) : (tensor<1x13x1xf32>) -> tensor<1x13x1xf32>
      %32 = "stablehlo.reshape"(%31) : (tensor<1x13x1xf32>) -> tensor<1x13xf32>
      %33 = "stablehlo.broadcast_in_dim"(%32) <{broadcast_dimensions = array<i64: 0, 1>}> : (tensor<1x13xf32>) -> tensor<1x13x2880xf32>
      %34 = "stablehlo.multiply"(%24, %33) : (tensor<1x13x2880xf32>, tensor<1x13x2880xf32>) -> tensor<1x13x2880xf32>
      %35 = "stablehlo.multiply"(%18, %34) : (tensor<1x13x2880xf32>, tensor<1x13x2880xf32>) -> tensor<1x13x2880xf32>
      %36 = "stablehlo.convert"(%35) : (tensor<1x13x2880xf32>) -> tensor<1x13x2880xbf16>
      %37 = "stablehlo.reshape"(%36) : (tensor<1x13x2880xbf16>) -> tensor<13x2880xbf16>
      %38 = "stablehlo.transpose"(%arg51) <{permutation = array<i64: 1, 0>}> {result_layout = dense<[0, 1]> : tensor<2xindex>, xla_shape = "bf16[2880,4096]{0,1}"} : (tensor<512x2880xbf16>) -> tensor<2880x512xbf16>
      %39 = "stablehlo.dot_general"(%37, %38) <{dot_dimension_numbers = #stablehlo.dot<lhs_contracting_dimensions = [1], rhs_contracting_dimensions = [0]>}> : (tensor<13x2880xbf16>, tensor<2880x512xbf16>) -> tensor<13x512xbf16>
      %40 = "stablehlo.reshape"(%39) : (tensor<13x512xbf16>) -> tensor<1x13x512xbf16>
      %41 = "stablehlo.broadcast_in_dim"(%arg50) <{broadcast_dimensions = array<i64: 2>}> : (tensor<512xbf16>) -> tensor<1x13x512xbf16>
      %42 = "stablehlo.add"(%40, %41) : (tensor<1x13x512xbf16>, tensor<1x13x512xbf16>) -> tensor<1x13x512xbf16>
      %43 = "stablehlo.reshape"(%42) : (tensor<1x13x512xbf16>) -> tensor<1x13x8x64xbf16>
      %44 = "stablehlo.transpose"(%43) <{permutation = array<i64: 0, 2, 1, 3>}> {result_layout = dense<[3, 1, 2, 0]> : tensor<4xindex>, xla_shape = "bf16[1,64,13,64]{3,1,2,0}"} : (tensor<1x13x8x64xbf16>) -> tensor<1x8x13x64xbf16>
      %45 = "stablehlo.slice"(%44) <{limit_indices = array<i64: 1, 8, 13, 32>, start_indices = array<i64: 0, 0, 0, 0>, strides = array<i64: 1, 1, 1, 1>}> : (tensor<1x8x13x64xbf16>) -> tensor<1x8x13x32xbf16>
      %46 = "stablehlo.convert"(%45) : (tensor<1x8x13x32xbf16>) -> tensor<1x8x13x32xf32>
      %47 = "stablehlo.reshape"(%arg47) : (tensor<32xf32>) -> tensor<1x32x1xf32>
      %48 = "stablehlo.dot_general"(%47, %7) <{dot_dimension_numbers = #stablehlo.dot<lhs_batching_dimensions = [0], rhs_batching_dimensions = [0], lhs_contracting_dimensions = [2], rhs_contracting_dimensions = [1]>}> : (tensor<1x32x1xf32>, tensor<1x1x13xf32>) -> tensor<1x32x13xf32>
      %49 = "stablehlo.transpose"(%48) <{permutation = array<i64: 0, 2, 1>}> {result_layout = dense<[1, 2, 0]> : tensor<3xindex>, xla_shape = "f32[1,13,32]{1,2,0}"} : (tensor<1x32x13xf32>) -> tensor<1x13x32xf32>
      %50 = "stablehlo.cosine"(%49) {result_layout = dense<[1, 2, 0]> : tensor<3xindex>, xla_shape = "f32[1,13,32]{1,2,0}"} : (tensor<1x13x32xf32>) -> tensor<1x13x32xf32>
      %51 = "stablehlo.broadcast_in_dim"(%arg46) <{broadcast_dimensions = array<i64>}> : (tensor<f32>) -> tensor<1x13x32xf32>
      %52 = "stablehlo.multiply"(%50, %51) : (tensor<1x13x32xf32>, tensor<1x13x32xf32>) -> tensor<1x13x32xf32>
      %53 = "stablehlo.convert"(%52) : (tensor<1x13x32xf32>) -> tensor<1x13x32xbf16>
      %54 = "stablehlo.reshape"(%53) : (tensor<1x13x32xbf16>) -> tensor<1x1x13x32xbf16>
      %55 = "stablehlo.convert"(%54) : (tensor<1x1x13x32xbf16>) -> tensor<1x1x13x32xf32>
      %56 = "stablehlo.reshape"(%55) : (tensor<1x1x13x32xf32>) -> tensor<1x13x32xf32>
      %57 = "stablehlo.broadcast_in_dim"(%56) <{broadcast_dimensions = array<i64: 0, 2, 3>}> : (tensor<1x13x32xf32>) -> tensor<1x8x13x32xf32>
      %58 = "stablehlo.multiply"(%46, %57) : (tensor<1x8x13x32xf32>, tensor<1x8x13x32xf32>) -> tensor<1x8x13x32xf32>
      %59 = "stablehlo.convert"(%58) : (tensor<1x8x13x32xf32>) -> tensor<1x8x13x32xbf16>
      %60 = "stablehlo.slice"(%44) <{limit_indices = array<i64: 1, 8, 13, 64>, start_indices = array<i64: 0, 0, 0, 32>, strides = array<i64: 1, 1, 1, 1>}> : (tensor<1x8x13x64xbf16>) -> tensor<1x8x13x32xbf16>
      %61 = "stablehlo.convert"(%60) : (tensor<1x8x13x32xbf16>) -> tensor<1x8x13x32xf32>
      %62 = "stablehlo.sine"(%49) {result_layout = dense<[1, 2, 0]> : tensor<3xindex>, xla_shape = "f32[1,13,32]{1,2,0}"} : (tensor<1x13x32xf32>) -> tensor<1x13x32xf32>
      %63 = "stablehlo.multiply"(%62, %51) : (tensor<1x13x32xf32>, tensor<1x13x32xf32>) -> tensor<1x13x32xf32>
      %64 = "stablehlo.convert"(%63) : (tensor<1x13x32xf32>) -> tensor<1x13x32xbf16>
      %65 = "stablehlo.reshape"(%64) : (tensor<1x13x32xbf16>) -> tensor<1x1x13x32xbf16>
      %66 = "stablehlo.convert"(%65) : (tensor<1x1x13x32xbf16>) -> tensor<1x1x13x32xf32>
      %67 = "stablehlo.reshape"(%66) : (tensor<1x1x13x32xf32>) -> tensor<1x13x32xf32>
      %68 = "stablehlo.broadcast_in_dim"(%67) <{broadcast_dimensions = array<i64: 0, 2, 3>}> : (tensor<1x13x32xf32>) -> tensor<1x8x13x32xf32>
      %69 = "stablehlo.multiply"(%61, %68) : (tensor<1x8x13x32xf32>, tensor<1x8x13x32xf32>) -> tensor<1x8x13x32xf32>
      %70 = "stablehlo.convert"(%69) : (tensor<1x8x13x32xf32>) -> tensor<1x8x13x32xbf16>
      %71 = "stablehlo.subtract"(%59, %70) : (tensor<1x8x13x32xbf16>, tensor<1x8x13x32xbf16>) -> tensor<1x8x13x32xbf16>
      %72 = "stablehlo.multiply"(%61, %57) : (tensor<1x8x13x32xf32>, tensor<1x8x13x32xf32>) -> tensor<1x8x13x32xf32>
      %73 = "stablehlo.convert"(%72) : (tensor<1x8x13x32xf32>) -> tensor<1x8x13x32xbf16>
      %74 = "stablehlo.multiply"(%46, %68) : (tensor<1x8x13x32xf32>, tensor<1x8x13x32xf32>) -> tensor<1x8x13x32xf32>
      %75 = "stablehlo.convert"(%74) : (tensor<1x8x13x32xf32>) -> tensor<1x8x13x32xbf16>
      %76 = "stablehlo.add"(%73, %75) : (tensor<1x8x13x32xbf16>, tensor<1x8x13x32xbf16>) -> tensor<1x8x13x32xbf16>
      %77 = "stablehlo.concatenate"(%71, %76) <{dimension = 3 : i64}> : (tensor<1x8x13x32xbf16>, tensor<1x8x13x32xbf16>) -> tensor<1x8x13x64xbf16>
      %78 = "stablehlo.reshape"(%77) : (tensor<1x8x13x64xbf16>) -> tensor<8x13x64xbf16>
      %79 = "stablehlo.transpose"(%arg49) <{permutation = array<i64: 1, 0>}> {result_layout = dense<[0, 1]> : tensor<2xindex>, xla_shape = "bf16[2880,512]{0,1}"} : (tensor<64x2880xbf16>) -> tensor<2880x64xbf16>
      %80 = "stablehlo.dot_general"(%37, %79) <{dot_dimension_numbers = #stablehlo.dot<lhs_contracting_dimensions = [1], rhs_contracting_dimensions = [0]>}> : (tensor<13x2880xbf16>, tensor<2880x64xbf16>) -> tensor<13x64xbf16>
      %81 = "stablehlo.reshape"(%80) : (tensor<13x64xbf16>) -> tensor<1x13x64xbf16>
      %82 = "stablehlo.broadcast_in_dim"(%arg48) <{broadcast_dimensions = array<i64: 2>}> : (tensor<64xbf16>) -> tensor<1x13x64xbf16>
      %83 = "stablehlo.add"(%81, %82) : (tensor<1x13x64xbf16>, tensor<1x13x64xbf16>) -> tensor<1x13x64xbf16>
      %84 = "stablehlo.reshape"(%83) : (tensor<1x13x64xbf16>) -> tensor<1x13x1x64xbf16>
      %85 = "stablehlo.transpose"(%84) <{permutation = array<i64: 0, 2, 1, 3>}> {result_layout = dense<[3, 1, 2, 0]> : tensor<4xindex>, xla_shape = "bf16[1,8,13,64]{3,1,2,0}"} : (tensor<1x13x1x64xbf16>) -> tensor<1x1x13x64xbf16>
      %86 = "stablehlo.slice"(%85) <{limit_indices = array<i64: 1, 1, 13, 32>, start_indices = array<i64: 0, 0, 0, 0>, strides = array<i64: 1, 1, 1, 1>}> : (tensor<1x1x13x64xbf16>) -> tensor<1x1x13x32xbf16>
      %87 = "stablehlo.convert"(%86) : (tensor<1x1x13x32xbf16>) -> tensor<1x1x13x32xf32>
      %88 = "stablehlo.broadcast_in_dim"(%56) <{broadcast_dimensions = array<i64: 0, 2, 3>}> : (tensor<1x13x32xf32>) -> tensor<1x1x13x32xf32>
      %89 = "stablehlo.multiply"(%87, %88) : (tensor<1x1x13x32xf32>, tensor<1x1x13x32xf32>) -> tensor<1x1x13x32xf32>
      %90 = "stablehlo.convert"(%89) : (tensor<1x1x13x32xf32>) -> tensor<1x1x13x32xbf16>
      %91 = "stablehlo.slice"(%85) <{limit_indices = array<i64: 1, 1, 13, 64>, start_indices = array<i64: 0, 0, 0, 32>, strides = array<i64: 1, 1, 1, 1>}> : (tensor<1x1x13x64xbf16>) -> tensor<1x1x13x32xbf16>
      %92 = "stablehlo.convert"(%91) : (tensor<1x1x13x32xbf16>) -> tensor<1x1x13x32xf32>
      %93 = "stablehlo.broadcast_in_dim"(%67) <{broadcast_dimensions = array<i64: 0, 2, 3>}> : (tensor<1x13x32xf32>) -> tensor<1x1x13x32xf32>
      %94 = "stablehlo.multiply"(%92, %93) : (tensor<1x1x13x32xf32>, tensor<1x1x13x32xf32>) -> tensor<1x1x13x32xf32>
      %95 = "stablehlo.convert"(%94) : (tensor<1x1x13x32xf32>) -> tensor<1x1x13x32xbf16>
      %96 = "stablehlo.subtract"(%90, %95) : (tensor<1x1x13x32xbf16>, tensor<1x1x13x32xbf16>) -> tensor<1x1x13x32xbf16>
      %97 = "stablehlo.multiply"(%92, %88) : (tensor<1x1x13x32xf32>, tensor<1x1x13x32xf32>) -> tensor<1x1x13x32xf32>
      %98 = "stablehlo.convert"(%97) : (tensor<1x1x13x32xf32>) -> tensor<1x1x13x32xbf16>
      %99 = "stablehlo.multiply"(%87, %93) : (tensor<1x1x13x32xf32>, tensor<1x1x13x32xf32>) -> tensor<1x1x13x32xf32>
      %100 = "stablehlo.convert"(%99) : (tensor<1x1x13x32xf32>) -> tensor<1x1x13x32xbf16>
      %101 = "stablehlo.add"(%98, %100) : (tensor<1x1x13x32xbf16>, tensor<1x1x13x32xbf16>) -> tensor<1x1x13x32xbf16>
      %102 = "stablehlo.concatenate"(%96, %101) <{dimension = 3 : i64}> : (tensor<1x1x13x32xbf16>, tensor<1x1x13x32xbf16>) -> tensor<1x1x13x64xbf16>
      %103 = "stablehlo.broadcast_in_dim"(%102) <{broadcast_dimensions = array<i64: 0, 1, 3, 4>}> : (tensor<1x1x13x64xbf16>) -> tensor<1x1x8x13x64xbf16>
      %104 = "stablehlo.reshape"(%103) : (tensor<1x1x8x13x64xbf16>) -> tensor<1x8x13x64xbf16>
      %105 = "stablehlo.transpose"(%104) <{permutation = array<i64: 0, 1, 3, 2>}> {result_layout = dense<[2, 3, 1, 0]> : tensor<4xindex>, xla_shape = "bf16[1,64,64,13]{2,3,1,0}"} : (tensor<1x8x13x64xbf16>) -> tensor<1x8x64x13xbf16>
      %106 = "stablehlo.reshape"(%105) : (tensor<1x8x64x13xbf16>) -> tensor<8x64x13xbf16>
      %107 = "stablehlo.dot_general"(%78, %106) <{dot_dimension_numbers = #stablehlo.dot<lhs_batching_dimensions = [0], rhs_batching_dimensions = [0], lhs_contracting_dimensions = [2], rhs_contracting_dimensions = [1]>}> : (tensor<8x13x64xbf16>, tensor<8x64x13xbf16>) -> tensor<8x13x13xbf16>
      %108 = "stablehlo.reshape"(%107) : (tensor<8x13x13xbf16>) -> tensor<1x8x13x13xbf16>
      %109 = "stablehlo.convert"(%108) : (tensor<1x8x13x13xbf16>) -> tensor<1x8x13x13xf32>
      %110 = "stablehlo.broadcast_in_dim"(%arg45) <{broadcast_dimensions = array<i64>}> : (tensor<f32>) -> tensor<1x8x13x13xf32>
      %111 = "stablehlo.multiply"(%109, %110) : (tensor<1x8x13x13xf32>, tensor<1x8x13x13xf32>) -> tensor<1x8x13x13xf32>
      %112 = "stablehlo.convert"(%111) : (tensor<1x8x13x13xf32>) -> tensor<1x8x13x13xbf16>
      %113 = "stablehlo.broadcast_in_dim"(%2) <{broadcast_dimensions = array<i64: 1>}> : (tensor<13xi64>) -> tensor<13x13xi64>
      %114 = "stablehlo.broadcast_in_dim"(%arg44) <{broadcast_dimensions = array<i64>}> : (tensor<i64>) -> tensor<13xi64>
      %115 = "stablehlo.subtract"(%2, %114) : (tensor<13xi64>, tensor<13xi64>) -> tensor<13xi64>
      %116 = "stablehlo.broadcast_in_dim"(%115) <{broadcast_dimensions = array<i64: 0>}> : (tensor<13xi64>) -> tensor<13x13xi64>
      %117 = "stablehlo.compare"(%113, %116) <{comparison_direction = #stablehlo<comparison_direction GT>}> : (tensor<13x13xi64>, tensor<13x13xi64>) -> tensor<13x13xi1>
      %118 = "stablehlo.convert"(%117) : (tensor<13x13xi1>) -> tensor<13x13xui8>
      %119 = "stablehlo.and"(%118, %14) : (tensor<13x13xui8>, tensor<13x13xui8>) -> tensor<13x13xui8>
      %120 = "stablehlo.compare"(%119, %16) <{comparison_direction = #stablehlo<comparison_direction NE>}> : (tensor<13x13xui8>, tensor<13x13xui8>) -> tensor<13x13xi1>
      %121 = "stablehlo.convert"(%120) : (tensor<13x13xi1>) -> tensor<13x13xui8>
      %122 = "stablehlo.broadcast_in_dim"(%2) <{broadcast_dimensions = array<i64: 0>}> : (tensor<13xi64>) -> tensor<13x13xi64>
      %123 = "stablehlo.compare"(%113, %122) <{comparison_direction = #stablehlo<comparison_direction LE>}> : (tensor<13x13xi64>, tensor<13x13xi64>) -> tensor<13x13xi1>
      %124 = "stablehlo.convert"(%123) : (tensor<13x13xi1>) -> tensor<13x13xui8>
      %125 = "stablehlo.and"(%121, %124) : (tensor<13x13xui8>, tensor<13x13xui8>) -> tensor<13x13xui8>
      %126 = "stablehlo.compare"(%125, %16) <{comparison_direction = #stablehlo<comparison_direction NE>}> : (tensor<13x13xui8>, tensor<13x13xui8>) -> tensor<13x13xi1>
      %127 = "stablehlo.reshape"(%126) : (tensor<13x13xi1>) -> tensor<1x1x13x13xi1>
      %128 = "stablehlo.reshape"(%arg43) : (tensor<bf16>) -> tensor<1x1xbf16>
      %129 = "stablehlo.broadcast_in_dim"(%128) <{broadcast_dimensions = array<i64: 0, 1>}> : (tensor<1x1xbf16>) -> tensor<1x1x13x13xbf16>
      %130 = "stablehlo.select"(%127, %13, %129) : (tensor<1x1x13x13xi1>, tensor<1x1x13x13xbf16>, tensor<1x1x13x13xbf16>) -> tensor<1x1x13x13xbf16>
      %131 = "stablehlo.reshape"(%130) : (tensor<1x1x13x13xbf16>) -> tensor<1x13x13xbf16>
      %132 = "stablehlo.broadcast_in_dim"(%131) <{broadcast_dimensions = array<i64: 0, 2, 3>}> : (tensor<1x13x13xbf16>) -> tensor<1x8x13x13xbf16>
      %133 = "stablehlo.add"(%112, %132) : (tensor<1x8x13x13xbf16>, tensor<1x8x13x13xbf16>) -> tensor<1x8x13x13xbf16>
      %134 = "stablehlo.reshape"(%arg42) : (tensor<8xbf16>) -> tensor<1x8x1xbf16>
      %135 = "stablehlo.broadcast_in_dim"(%134) <{broadcast_dimensions = array<i64: 0, 1, 3>}> : (tensor<1x8x1xbf16>) -> tensor<1x8x13x1xbf16>
      %136 = "stablehlo.concatenate"(%133, %135) <{dimension = 3 : i64}> : (tensor<1x8x13x13xbf16>, tensor<1x8x13x1xbf16>) -> tensor<1x8x13x14xbf16>
      %137 = "stablehlo.convert"(%arg61) : (tensor<2880xbf16>) -> tensor<2880xf32>
      %138 = "stablehlo.broadcast_in_dim"(%137) <{broadcast_dimensions = array<i64: 2>}> : (tensor<2880xf32>) -> tensor<1x13x2880xf32>
      %139 = "stablehlo.reduce"(%136, %4) <{dimensions = array<i64: 3>}> ({
      ^bb0(%arg86: tensor<bf16>, %arg87: tensor<bf16>):
        %306 = "stablehlo.maximum"(%arg86, %arg87) : (tensor<bf16>, tensor<bf16>) -> tensor<bf16>
        "stablehlo.return"(%306) : (tensor<bf16>) -> ()
      }) : (tensor<1x8x13x14xbf16>, tensor<bf16>) -> tensor<1x8x13xbf16>
      %140 = "stablehlo.broadcast_in_dim"(%139) <{broadcast_dimensions = array<i64: 0, 1, 2>}> : (tensor<1x8x13xbf16>) -> tensor<1x8x13x14xbf16>
      %141 = "stablehlo.subtract"(%136, %140) : (tensor<1x8x13x14xbf16>, tensor<1x8x13x14xbf16>) -> tensor<1x8x13x14xbf16>
      %142 = "stablehlo.reduce"(%141, %4) <{dimensions = array<i64: 3>}> ({
      ^bb0(%arg84: tensor<bf16>, %arg85: tensor<bf16>):
        %305 = "stablehlo.maximum"(%arg84, %arg85) : (tensor<bf16>, tensor<bf16>) -> tensor<bf16>
        "stablehlo.return"(%305) : (tensor<bf16>) -> ()
      }) : (tensor<1x8x13x14xbf16>, tensor<bf16>) -> tensor<1x8x13xbf16>
      %143 = "stablehlo.broadcast_in_dim"(%142) <{broadcast_dimensions = array<i64: 0, 1, 2>}> : (tensor<1x8x13xbf16>) -> tensor<1x8x13x14xbf16>
      %144 = "stablehlo.subtract"(%141, %143) : (tensor<1x8x13x14xbf16>, tensor<1x8x13x14xbf16>) -> tensor<1x8x13x14xbf16>
      %145 = "stablehlo.exponential"(%144) : (tensor<1x8x13x14xbf16>) -> tensor<1x8x13x14xbf16>
      %146 = "stablehlo.reduce"(%145, %10) <{dimensions = array<i64: 3>}> ({
      ^bb0(%arg82: tensor<bf16>, %arg83: tensor<bf16>):
        %304 = "stablehlo.add"(%arg82, %arg83) : (tensor<bf16>, tensor<bf16>) -> tensor<bf16>
        "stablehlo.return"(%304) : (tensor<bf16>) -> ()
      }) : (tensor<1x8x13x14xbf16>, tensor<bf16>) -> tensor<1x8x13xbf16>
      %147 = "stablehlo.broadcast_in_dim"(%146) <{broadcast_dimensions = array<i64: 0, 1, 2>}> : (tensor<1x8x13xbf16>) -> tensor<1x8x13x14xbf16>
      %148 = "stablehlo.divide"(%145, %147) : (tensor<1x8x13x14xbf16>, tensor<1x8x13x14xbf16>) -> tensor<1x8x13x14xbf16>
      %149 = "stablehlo.slice"(%148) <{limit_indices = array<i64: 1, 8, 13, 13>, start_indices = array<i64: 0, 0, 0, 0>, strides = array<i64: 1, 1, 1, 1>}> : (tensor<1x8x13x14xbf16>) -> tensor<1x8x13x13xbf16>
      %150 = "stablehlo.reshape"(%149) : (tensor<1x8x13x13xbf16>) -> tensor<8x13x13xbf16>
      %151 = "stablehlo.transpose"(%arg38) <{permutation = array<i64: 1, 0>}> {result_layout = dense<[0, 1]> : tensor<2xindex>, xla_shape = "bf16[2880,512]{0,1}"} : (tensor<64x2880xbf16>) -> tensor<2880x64xbf16>
      %152 = "stablehlo.dot_general"(%37, %151) <{dot_dimension_numbers = #stablehlo.dot<lhs_contracting_dimensions = [1], rhs_contracting_dimensions = [0]>}> : (tensor<13x2880xbf16>, tensor<2880x64xbf16>) -> tensor<13x64xbf16>
      %153 = "stablehlo.reshape"(%152) : (tensor<13x64xbf16>) -> tensor<1x13x64xbf16>
      %154 = "stablehlo.broadcast_in_dim"(%arg37) <{broadcast_dimensions = array<i64: 2>}> : (tensor<64xbf16>) -> tensor<1x13x64xbf16>
      %155 = "stablehlo.add"(%153, %154) : (tensor<1x13x64xbf16>, tensor<1x13x64xbf16>) -> tensor<1x13x64xbf16>
      %156 = "stablehlo.reshape"(%155) : (tensor<1x13x64xbf16>) -> tensor<1x13x1x64xbf16>
      %157 = "stablehlo.transpose"(%156) <{permutation = array<i64: 0, 2, 1, 3>}> {result_layout = dense<[3, 1, 2, 0]> : tensor<4xindex>, xla_shape = "bf16[1,8,13,64]{3,1,2,0}"} : (tensor<1x13x1x64xbf16>) -> tensor<1x1x13x64xbf16>
      %158 = "stablehlo.broadcast_in_dim"(%157) <{broadcast_dimensions = array<i64: 0, 1, 3, 4>}> : (tensor<1x1x13x64xbf16>) -> tensor<1x1x8x13x64xbf16>
      %159 = "stablehlo.reshape"(%158) : (tensor<1x1x8x13x64xbf16>) -> tensor<8x13x64xbf16>
      %160 = "stablehlo.dot_general"(%150, %159) <{dot_dimension_numbers = #stablehlo.dot<lhs_batching_dimensions = [0], rhs_batching_dimensions = [0], lhs_contracting_dimensions = [2], rhs_contracting_dimensions = [1]>}> : (tensor<8x13x13xbf16>, tensor<8x13x64xbf16>) -> tensor<8x13x64xbf16>
      %161 = "stablehlo.reshape"(%160) : (tensor<8x13x64xbf16>) -> tensor<1x8x13x64xbf16>
      %162 = "stablehlo.transpose"(%161) <{permutation = array<i64: 0, 2, 1, 3>}> {result_layout = dense<[3, 1, 2, 0]> : tensor<4xindex>, xla_shape = "bf16[1,13,64,64]{3,1,2,0}"} : (tensor<1x8x13x64xbf16>) -> tensor<1x13x8x64xbf16>
      %163 = "stablehlo.reshape"(%162) : (tensor<1x13x8x64xbf16>) -> tensor<13x512xbf16>
      %164 = "stablehlo.transpose"(%arg36) <{permutation = array<i64: 1, 0>}> {result_layout = dense<[0, 1]> : tensor<2xindex>, xla_shape = "bf16[4096,2880]{0,1}"} : (tensor<2880x512xbf16>) -> tensor<512x2880xbf16>
      %165 = "stablehlo.dot_general"(%163, %164) <{dot_dimension_numbers = #stablehlo.dot<lhs_contracting_dimensions = [1], rhs_contracting_dimensions = [0]>}> : (tensor<13x512xbf16>, tensor<512x2880xbf16>) -> tensor<13x2880xbf16>
      %166 = "stablehlo.all_reduce"(%165) <{channel_handle = #stablehlo.channel_handle<handle = 1, type = 1>, replica_groups = dense<[[0, 1, 2, 3, 4, 5, 6, 7]]> : tensor<1x8xi64>}> ({
      ^bb0(%arg80: tensor<bf16>, %arg81: tensor<bf16>):
        %303 = "stablehlo.add"(%arg80, %arg81) : (tensor<bf16>, tensor<bf16>) -> tensor<bf16>
        "stablehlo.return"(%303) : (tensor<bf16>) -> ()
      }) : (tensor<13x2880xbf16>) -> tensor<13x2880xbf16>
      %167 = "stablehlo.reshape"(%166) : (tensor<13x2880xbf16>) -> tensor<1x13x2880xbf16>
      %168 = "stablehlo.broadcast_in_dim"(%arg35) <{broadcast_dimensions = array<i64: 2>}> : (tensor<2880xbf16>) -> tensor<1x13x2880xbf16>
      %169 = "stablehlo.add"(%167, %168) : (tensor<1x13x2880xbf16>, tensor<1x13x2880xbf16>) -> tensor<1x13x2880xbf16>
      %170 = "stablehlo.add"(%23, %169) : (tensor<1x13x2880xbf16>, tensor<1x13x2880xbf16>) -> tensor<1x13x2880xbf16>
      %171 = "stablehlo.broadcast_in_dim"(%arg60) <{broadcast_dimensions = array<i64>}> : (tensor<bf16>) -> tensor<4x13x2880xbf16>
      %172 = "stablehlo.convert"(%arg52) : (tensor<2880xbf16>) -> tensor<2880xf32>
      %173 = "stablehlo.broadcast_in_dim"(%172) <{broadcast_dimensions = array<i64: 2>}> : (tensor<2880xf32>) -> tensor<1x13x2880xf32>
      %174 = "stablehlo.convert"(%170) : (tensor<1x13x2880xbf16>) -> tensor<1x13x2880xf32>
      %175 = "stablehlo.power"(%174, %15) : (tensor<1x13x2880xf32>, tensor<1x13x2880xf32>) -> tensor<1x13x2880xf32>
      %176 = "stablehlo.reduce"(%175, %1) <{dimensions = array<i64: 2>}> ({
      ^bb0(%arg78: tensor<f32>, %arg79: tensor<f32>):
        %302 = "stablehlo.add"(%arg78, %arg79) : (tensor<f32>, tensor<f32>) -> tensor<f32>
        "stablehlo.return"(%302) : (tensor<f32>) -> ()
      }) : (tensor<1x13x2880xf32>, tensor<f32>) -> tensor<1x13xf32>
      %177 = "stablehlo.multiply"(%176, %6) : (tensor<1x13xf32>, tensor<1x13xf32>) -> tensor<1x13xf32>
      %178 = "stablehlo.reshape"(%177) : (tensor<1x13xf32>) -> tensor<1x13x1xf32>
      %179 = "stablehlo.add"(%178, %29) : (tensor<1x13x1xf32>, tensor<1x13x1xf32>) -> tensor<1x13x1xf32>
      %180 = "stablehlo.rsqrt"(%179) : (tensor<1x13x1xf32>) -> tensor<1x13x1xf32>
      %181 = "stablehlo.reshape"(%180) : (tensor<1x13x1xf32>) -> tensor<1x13xf32>
      %182 = "stablehlo.broadcast_in_dim"(%181) <{broadcast_dimensions = array<i64: 0, 1>}> : (tensor<1x13xf32>) -> tensor<1x13x2880xf32>
      %183 = "stablehlo.multiply"(%174, %182) : (tensor<1x13x2880xf32>, tensor<1x13x2880xf32>) -> tensor<1x13x2880xf32>
      %184 = "stablehlo.multiply"(%173, %183) : (tensor<1x13x2880xf32>, tensor<1x13x2880xf32>) -> tensor<1x13x2880xf32>
      %185 = "stablehlo.convert"(%184) : (tensor<1x13x2880xf32>) -> tensor<1x13x2880xbf16>
      %186 = "stablehlo.reshape"(%185) : (tensor<1x13x2880xbf16>) -> tensor<13x2880xbf16>
      %187 = "sdy.all_slice"(%186) <{out_sharding = #sdy.sharding<@mesh, [{"_axis_0"}, {}]>, slicing_axes = #sdy<list_of_axis_ref_lists[{"_axis_0"}, {}]>}> : (tensor<13x2880xbf16>) -> tensor<13x2880xbf16>
      %188 = "sdy.all_slice"(%186) <{out_sharding = #sdy.sharding<@mesh, [{"_axis_0"}, {}]>, slicing_axes = #sdy<list_of_axis_ref_lists[{"_axis_0"}, {}]>}> : (tensor<13x2880xbf16>) -> tensor<13x2880xbf16>
      %189 = "sdy.all_slice"(%186) <{out_sharding = #sdy.sharding<@mesh, [{"_axis_0"}, {}]>, slicing_axes = #sdy<list_of_axis_ref_lists[{"_axis_0"}, {}]>}> : (tensor<13x2880xbf16>) -> tensor<13x2880xbf16>
      %190 = "sdy.all_slice"(%186) <{out_sharding = #sdy.sharding<@mesh, [{"_axis_0"}, {}]>, slicing_axes = #sdy<list_of_axis_ref_lists[{"_axis_0"}, {}]>}> : (tensor<13x2880xbf16>) -> tensor<13x2880xbf16>
      %191 = "sdy.all_slice"(%186) <{out_sharding = #sdy.sharding<@mesh, [{"_axis_0"}, {}]>, slicing_axes = #sdy<list_of_axis_ref_lists[{"_axis_0"}, {}]>}> : (tensor<13x2880xbf16>) -> tensor<13x2880xbf16>
      %192 = "sdy.all_slice"(%186) <{out_sharding = #sdy.sharding<@mesh, [{"_axis_0"}, {}]>, slicing_axes = #sdy<list_of_axis_ref_lists[{"_axis_0"}, {}]>}> : (tensor<13x2880xbf16>) -> tensor<13x2880xbf16>
      %193 = "sdy.all_slice"(%186) <{out_sharding = #sdy.sharding<@mesh, [{"_axis_0"}, {}]>, slicing_axes = #sdy<list_of_axis_ref_lists[{"_axis_0"}, {}]>}> : (tensor<13x2880xbf16>) -> tensor<13x2880xbf16>
      %194 = "sdy.all_slice"(%186) <{out_sharding = #sdy.sharding<@mesh, [{"_axis_0"}, {}]>, slicing_axes = #sdy<list_of_axis_ref_lists[{"_axis_0"}, {}]>}> : (tensor<13x2880xbf16>) -> tensor<13x2880xbf16>
      %195 = "sdy.all_slice"(%186) <{out_sharding = #sdy.sharding<@mesh, [{"_axis_0"}, {}]>, slicing_axes = #sdy<list_of_axis_ref_lists[{"_axis_0"}, {}]>}> : (tensor<13x2880xbf16>) -> tensor<13x2880xbf16>
      %196 = "sdy.all_slice"(%186) <{out_sharding = #sdy.sharding<@mesh, [{"_axis_0"}, {}]>, slicing_axes = #sdy<list_of_axis_ref_lists[{"_axis_0"}, {}]>}> : (tensor<13x2880xbf16>) -> tensor<13x2880xbf16>
      %197 = "sdy.all_slice"(%186) <{out_sharding = #sdy.sharding<@mesh, [{"_axis_0"}, {}]>, slicing_axes = #sdy<list_of_axis_ref_lists[{"_axis_0"}, {}]>}> : (tensor<13x2880xbf16>) -> tensor<13x2880xbf16>
      %198 = "sdy.all_slice"(%186) <{out_sharding = #sdy.sharding<@mesh, [{"_axis_0"}, {}]>, slicing_axes = #sdy<list_of_axis_ref_lists[{"_axis_0"}, {}]>}> : (tensor<13x2880xbf16>) -> tensor<13x2880xbf16>
      %199 = "sdy.all_slice"(%186) <{out_sharding = #sdy.sharding<@mesh, [{"_axis_0"}, {}]>, slicing_axes = #sdy<list_of_axis_ref_lists[{"_axis_0"}, {}]>}> : (tensor<13x2880xbf16>) -> tensor<13x2880xbf16>
      %200 = "sdy.all_slice"(%186) <{out_sharding = #sdy.sharding<@mesh, [{"_axis_0"}, {}]>, slicing_axes = #sdy<list_of_axis_ref_lists[{"_axis_0"}, {}]>}> : (tensor<13x2880xbf16>) -> tensor<13x2880xbf16>
      %201 = "sdy.all_slice"(%186) <{out_sharding = #sdy.sharding<@mesh, [{"_axis_0"}, {}]>, slicing_axes = #sdy<list_of_axis_ref_lists[{"_axis_0"}, {}]>}> : (tensor<13x2880xbf16>) -> tensor<13x2880xbf16>
      %202 = "sdy.all_slice"(%186) <{out_sharding = #sdy.sharding<@mesh, [{"_axis_0"}, {}]>, slicing_axes = #sdy<list_of_axis_ref_lists[{"_axis_0"}, {}]>}> : (tensor<13x2880xbf16>) -> tensor<13x2880xbf16>
      %203 = "sdy.all_slice"(%186) <{out_sharding = #sdy.sharding<@mesh, [{"_axis_0"}, {}]>, slicing_axes = #sdy<list_of_axis_ref_lists[{"_axis_0"}, {}]>}> : (tensor<13x2880xbf16>) -> tensor<13x2880xbf16>
      %204 = "sdy.all_slice"(%186) <{out_sharding = #sdy.sharding<@mesh, [{"_axis_0"}, {}]>, slicing_axes = #sdy<list_of_axis_ref_lists[{"_axis_0"}, {}]>}> : (tensor<13x2880xbf16>) -> tensor<13x2880xbf16>
      %205 = "sdy.all_slice"(%186) <{out_sharding = #sdy.sharding<@mesh, [{"_axis_0"}, {}]>, slicing_axes = #sdy<list_of_axis_ref_lists[{"_axis_0"}, {}]>}> : (tensor<13x2880xbf16>) -> tensor<13x2880xbf16>
      %206 = "sdy.all_slice"(%186) <{out_sharding = #sdy.sharding<@mesh, [{"_axis_0"}, {}]>, slicing_axes = #sdy<list_of_axis_ref_lists[{"_axis_0"}, {}]>}> : (tensor<13x2880xbf16>) -> tensor<13x2880xbf16>
      %207 = "sdy.all_slice"(%186) <{out_sharding = #sdy.sharding<@mesh, [{"_axis_0"}, {}]>, slicing_axes = #sdy<list_of_axis_ref_lists[{"_axis_0"}, {}]>}> : (tensor<13x2880xbf16>) -> tensor<13x2880xbf16>
      %208 = "sdy.all_slice"(%186) <{out_sharding = #sdy.sharding<@mesh, [{"_axis_0"}, {}]>, slicing_axes = #sdy<list_of_axis_ref_lists[{"_axis_0"}, {}]>}> : (tensor<13x2880xbf16>) -> tensor<13x2880xbf16>
      %209 = "sdy.all_slice"(%186) <{out_sharding = #sdy.sharding<@mesh, [{"_axis_0"}, {}]>, slicing_axes = #sdy<list_of_axis_ref_lists[{"_axis_0"}, {}]>}> : (tensor<13x2880xbf16>) -> tensor<13x2880xbf16>
      %210 = "sdy.all_slice"(%186) <{out_sharding = #sdy.sharding<@mesh, [{"_axis_0"}, {}]>, slicing_axes = #sdy<list_of_axis_ref_lists[{"_axis_0"}, {}]>}> : (tensor<13x2880xbf16>) -> tensor<13x2880xbf16>
      %211 = "sdy.all_slice"(%186) <{out_sharding = #sdy.sharding<@mesh, [{"_axis_0"}, {}]>, slicing_axes = #sdy<list_of_axis_ref_lists[{"_axis_0"}, {}]>}> : (tensor<13x2880xbf16>) -> tensor<13x2880xbf16>
      %212 = "sdy.all_slice"(%186) <{out_sharding = #sdy.sharding<@mesh, [{"_axis_0"}, {}]>, slicing_axes = #sdy<list_of_axis_ref_lists[{"_axis_0"}, {}]>}> : (tensor<13x2880xbf16>) -> tensor<13x2880xbf16>
      %213 = "sdy.all_slice"(%186) <{out_sharding = #sdy.sharding<@mesh, [{"_axis_0"}, {}]>, slicing_axes = #sdy<list_of_axis_ref_lists[{"_axis_0"}, {}]>}> : (tensor<13x2880xbf16>) -> tensor<13x2880xbf16>
      %214 = "sdy.all_slice"(%186) <{out_sharding = #sdy.sharding<@mesh, [{"_axis_0"}, {}]>, slicing_axes = #sdy<list_of_axis_ref_lists[{"_axis_0"}, {}]>}> : (tensor<13x2880xbf16>) -> tensor<13x2880xbf16>
      %215 = "sdy.all_slice"(%186) <{out_sharding = #sdy.sharding<@mesh, [{"_axis_0"}, {}]>, slicing_axes = #sdy<list_of_axis_ref_lists[{"_axis_0"}, {}]>}> : (tensor<13x2880xbf16>) -> tensor<13x2880xbf16>
      %216 = "sdy.all_slice"(%186) <{out_sharding = #sdy.sharding<@mesh, [{"_axis_0"}, {}]>, slicing_axes = #sdy<list_of_axis_ref_lists[{"_axis_0"}, {}]>}> : (tensor<13x2880xbf16>) -> tensor<13x2880xbf16>
      %217 = "sdy.all_slice"(%186) <{out_sharding = #sdy.sharding<@mesh, [{"_axis_0"}, {}]>, slicing_axes = #sdy<list_of_axis_ref_lists[{"_axis_0"}, {}]>}> : (tensor<13x2880xbf16>) -> tensor<13x2880xbf16>
      %218 = "sdy.all_slice"(%186) <{out_sharding = #sdy.sharding<@mesh, [{"_axis_0"}, {}]>, slicing_axes = #sdy<list_of_axis_ref_lists[{"_axis_0"}, {}]>}> : (tensor<13x2880xbf16>) -> tensor<13x2880xbf16>
      %219 = "stablehlo.concatenate"(%187, %188, %189, %190, %191, %192, %193, %194, %195, %196, %197, %198, %199, %200, %201, %202, %203, %204, %205, %206, %207, %208, %209, %210, %211, %212, %213, %214, %215, %216, %217, %218) <{dimension = 0 : i64}> : (tensor<13x2880xbf16>, tensor<13x2880xbf16>, tensor<13x2880xbf16>, tensor<13x2880xbf16>, tensor<13x2880xbf16>, tensor<13x2880xbf16>, tensor<13x2880xbf16>, tensor<13x2880xbf16>, tensor<13x2880xbf16>, tensor<13x2880xbf16>, tensor<13x2880xbf16>, tensor<13x2880xbf16>, tensor<13x2880xbf16>, tensor<13x2880xbf16>, tensor<13x2880xbf16>, tensor<13x2880xbf16>, tensor<13x2880xbf16>, tensor<13x2880xbf16>, tensor<13x2880xbf16>, tensor<13x2880xbf16>, tensor<13x2880xbf16>, tensor<13x2880xbf16>, tensor<13x2880xbf16>, tensor<13x2880xbf16>, tensor<13x2880xbf16>, tensor<13x2880xbf16>, tensor<13x2880xbf16>, tensor<13x2880xbf16>, tensor<13x2880xbf16>, tensor<13x2880xbf16>, tensor<13x2880xbf16>, tensor<13x2880xbf16>) -> tensor<52x2880xbf16>
      %220 = "stablehlo.reshape"(%219) : (tensor<52x2880xbf16>) -> tensor<4x13x2880xbf16>
      %221 = "stablehlo.dot_general"(%220, %arg59) <{dot_dimension_numbers = #stablehlo.dot<lhs_batching_dimensions = [0], rhs_batching_dimensions = [0], lhs_contracting_dimensions = [2], rhs_contracting_dimensions = [1]>}> : (tensor<4x13x2880xbf16>, tensor<4x2880x5760xbf16>) -> tensor<4x13x5760xbf16>
      %222 = "stablehlo.broadcast_in_dim"(%arg58) <{broadcast_dimensions = array<i64: 0, 2>}> : (tensor<4x5760xbf16>) -> tensor<4x13x5760xbf16>
      %223 = "stablehlo.add"(%221, %222) : (tensor<4x13x5760xbf16>, tensor<4x13x5760xbf16>) -> tensor<4x13x5760xbf16>
      %224 = "stablehlo.slice"(%223) <{limit_indices = array<i64: 4, 13, 5760>, start_indices = array<i64: 0, 0, 1>, strides = array<i64: 1, 1, 2>}> : (tensor<4x13x5760xbf16>) -> tensor<4x13x2880xbf16>
      %225 = "stablehlo.broadcast_in_dim"(%arg56) <{broadcast_dimensions = array<i64>}> : (tensor<bf16>) -> tensor<4x13x2880xbf16>
      %226 = "stablehlo.clamp"(%171, %224, %225) : (tensor<4x13x2880xbf16>, tensor<4x13x2880xbf16>, tensor<4x13x2880xbf16>) -> tensor<4x13x2880xbf16>
      %227 = "stablehlo.add"(%226, %12) : (tensor<4x13x2880xbf16>, tensor<4x13x2880xbf16>) -> tensor<4x13x2880xbf16>
      %228 = "stablehlo.convert"(%227) : (tensor<4x13x2880xbf16>) -> tensor<4x13x2880xf32>
      %229 = "stablehlo.broadcast_in_dim"(%arg57) <{broadcast_dimensions = array<i64>}> : (tensor<bf16>) -> tensor<4x13x2880xbf16>
      %230 = "stablehlo.slice"(%223) <{limit_indices = array<i64: 4, 13, 5760>, start_indices = array<i64: 0, 0, 0>, strides = array<i64: 1, 1, 2>}> : (tensor<4x13x5760xbf16>) -> tensor<4x13x2880xbf16>
      %231 = "stablehlo.clamp"(%229, %230, %225) : (tensor<4x13x2880xbf16>, tensor<4x13x2880xbf16>, tensor<4x13x2880xbf16>) -> tensor<4x13x2880xbf16>
      %232 = "stablehlo.convert"(%231) : (tensor<4x13x2880xbf16>) -> tensor<4x13x2880xf32>
      %233 = "stablehlo.broadcast_in_dim"(%arg55) <{broadcast_dimensions = array<i64>}> : (tensor<f32>) -> tensor<4x13x2880xf32>
      %234 = "stablehlo.multiply"(%232, %233) : (tensor<4x13x2880xf32>, tensor<4x13x2880xf32>) -> tensor<4x13x2880xf32>
      %235 = "stablehlo.convert"(%234) : (tensor<4x13x2880xf32>) -> tensor<4x13x2880xbf16>
      %236 = "stablehlo.logistic"(%235) : (tensor<4x13x2880xbf16>) -> tensor<4x13x2880xbf16>
      %237 = "stablehlo.convert"(%236) : (tensor<4x13x2880xbf16>) -> tensor<4x13x2880xf32>
      %238 = "stablehlo.multiply"(%232, %237) : (tensor<4x13x2880xf32>, tensor<4x13x2880xf32>) -> tensor<4x13x2880xf32>
      %239 = "stablehlo.convert"(%238) : (tensor<4x13x2880xf32>) -> tensor<4x13x2880xbf16>
      %240 = "stablehlo.convert"(%239) : (tensor<4x13x2880xbf16>) -> tensor<4x13x2880xf32>
      %241 = "stablehlo.multiply"(%228, %240) : (tensor<4x13x2880xf32>, tensor<4x13x2880xf32>) -> tensor<4x13x2880xf32>
      %242 = "stablehlo.convert"(%241) : (tensor<4x13x2880xf32>) -> tensor<4x13x2880xbf16>
      %243 = "stablehlo.dot_general"(%242, %arg54) <{dot_dimension_numbers = #stablehlo.dot<lhs_batching_dimensions = [0], rhs_batching_dimensions = [0], lhs_contracting_dimensions = [2], rhs_contracting_dimensions = [1]>}> : (tensor<4x13x2880xbf16>, tensor<4x2880x2880xbf16>) -> tensor<4x13x2880xbf16>
      %244 = "stablehlo.broadcast_in_dim"(%arg53) <{broadcast_dimensions = array<i64: 0, 2>}> : (tensor<4x2880xbf16>) -> tensor<4x13x2880xbf16>
      %245 = "stablehlo.add"(%243, %244) : (tensor<4x13x2880xbf16>, tensor<4x13x2880xbf16>) -> tensor<4x13x2880xbf16>
      %246 = "stablehlo.reshape"(%245) : (tensor<4x13x2880xbf16>) -> tensor<4x1x13x2880xbf16>
      %247 = "stablehlo.convert"(%246) : (tensor<4x1x13x2880xbf16>) -> tensor<4x1x13x2880xf32>
      %248 = "stablehlo.iota"() <{iota_dimension = 0 : i64}> : () -> tensor<13xi64>
      %249 = "stablehlo.broadcast_in_dim"(%248) <{broadcast_dimensions = array<i64: 0>}> : (tensor<13xi64>) -> tensor<13x4x1xi64>
      %250 = "stablehlo.transpose"(%arg34) <{permutation = array<i64: 1, 0>}> {result_layout = dense<[0, 1]> : tensor<2xindex>, xla_shape = "bf16[2880,32]{0,1}"} : (tensor<32x2880xbf16>) -> tensor<2880x32xbf16>
      %251 = "stablehlo.dot_general"(%186, %250) <{dot_dimension_numbers = #stablehlo.dot<lhs_contracting_dimensions = [1], rhs_contracting_dimensions = [0]>}> : (tensor<13x2880xbf16>, tensor<2880x32xbf16>) -> tensor<13x32xbf16>
      %252 = "stablehlo.broadcast_in_dim"(%arg33) <{broadcast_dimensions = array<i64: 1>}> : (tensor<32xbf16>) -> tensor<13x32xbf16>
      %253 = "stablehlo.add"(%251, %252) : (tensor<13x32xbf16>, tensor<13x32xbf16>) -> tensor<13x32xbf16>
      %254 = "stablehlo.iota"() <{iota_dimension = 0 : i64}> : () -> tensor<32xi32>
      %255 = "stablehlo.broadcast_in_dim"(%254) <{broadcast_dimensions = array<i64: 1>}> : (tensor<32xi32>) -> tensor<13x32xi32>
      %256:2 = "stablehlo.sort"(%253, %255) <{dimension = 1 : i64}> ({
      ^bb0(%arg74: tensor<bf16>, %arg75: tensor<bf16>, %arg76: tensor<i32>, %arg77: tensor<i32>):
        %301 = "stablehlo.compare"(%arg74, %arg75) <{compare_type = #stablehlo<comparison_type TOTALORDER>, comparison_direction = #stablehlo<comparison_direction GT>}> : (tensor<bf16>, tensor<bf16>) -> tensor<i1>
        "stablehlo.return"(%301) : (tensor<i1>) -> ()
      }) : (tensor<13x32xbf16>, tensor<13x32xi32>) -> (tensor<13x32xbf16>, tensor<13x32xi32>)
      %257 = "stablehlo.slice"(%256#1) <{limit_indices = array<i64: 13, 4>, start_indices = array<i64: 0, 0>, strides = array<i64: 1, 1>}> : (tensor<13x32xi32>) -> tensor<13x4xi32>
      %258 = "stablehlo.convert"(%257) : (tensor<13x4xi32>) -> tensor<13x4xi64>
      %259 = "stablehlo.reshape"(%258) : (tensor<13x4xi64>) -> tensor<13x4x1xi64>
      %260 = "stablehlo.concatenate"(%249, %259) <{dimension = 2 : i64}> : (tensor<13x4x1xi64>, tensor<13x4x1xi64>) -> tensor<13x4x2xi64>
      %261 = "stablehlo.slice"(%256#0) <{limit_indices = array<i64: 13, 4>, start_indices = array<i64: 0, 0>, strides = array<i64: 1, 1>}> : (tensor<13x32xbf16>) -> tensor<13x4xbf16>
      %262 = "stablehlo.reduce"(%261, %4) <{dimensions = array<i64: 1>}> ({
      ^bb0(%arg72: tensor<bf16>, %arg73: tensor<bf16>):
        %300 = "stablehlo.maximum"(%arg72, %arg73) : (tensor<bf16>, tensor<bf16>) -> tensor<bf16>
        "stablehlo.return"(%300) : (tensor<bf16>) -> ()
      }) : (tensor<13x4xbf16>, tensor<bf16>) -> tensor<13xbf16>
      %263 = "stablehlo.broadcast_in_dim"(%262) <{broadcast_dimensions = array<i64: 0>}> : (tensor<13xbf16>) -> tensor<13x4xbf16>
      %264 = "stablehlo.subtract"(%261, %263) : (tensor<13x4xbf16>, tensor<13x4xbf16>) -> tensor<13x4xbf16>
      %265 = "stablehlo.exponential"(%264) : (tensor<13x4xbf16>) -> tensor<13x4xbf16>
      %266 = "stablehlo.reduce"(%265, %10) <{dimensions = array<i64: 1>}> ({
      ^bb0(%arg70: tensor<bf16>, %arg71: tensor<bf16>):
        %299 = "stablehlo.add"(%arg70, %arg71) : (tensor<bf16>, tensor<bf16>) -> tensor<bf16>
        "stablehlo.return"(%299) : (tensor<bf16>) -> ()
      }) : (tensor<13x4xbf16>, tensor<bf16>) -> tensor<13xbf16>
      %267 = "stablehlo.broadcast_in_dim"(%266) <{broadcast_dimensions = array<i64: 0>}> : (tensor<13xbf16>) -> tensor<13x4xbf16>
      %268 = "stablehlo.divide"(%265, %267) : (tensor<13x4xbf16>, tensor<13x4xbf16>) -> tensor<13x4xbf16>
      %269 = "stablehlo.scatter"(%11, %260, %268) <{scatter_dimension_numbers = #stablehlo.scatter<inserted_window_dims = [0, 1], scatter_dims_to_operand_dims = [0, 1], index_vector_dim = 2>}> ({
      ^bb0(%arg68: tensor<bf16>, %arg69: tensor<bf16>):
        "stablehlo.return"(%arg69) : (tensor<bf16>) -> ()
      }) : (tensor<13x4xbf16>, tensor<13x4x2xi64>, tensor<13x4xbf16>) -> tensor<13x4xbf16>
      %270 = "stablehlo.transpose"(%269) <{permutation = array<i64: 1, 0>}> {result_layout = dense<[0, 1]> : tensor<2xindex>, xla_shape = "bf16[32,13]{0,1}"} : (tensor<13x4xbf16>) -> tensor<4x13xbf16>
      %271 = "stablehlo.reshape"(%270) : (tensor<4x13xbf16>) -> tensor<4x1x13x1xbf16>
      %272 = "stablehlo.convert"(%271) : (tensor<4x1x13x1xbf16>) -> tensor<4x1x13x1xf32>
      %273 = "stablehlo.reshape"(%272) : (tensor<4x1x13x1xf32>) -> tensor<4x1x13xf32>
      %274 = "stablehlo.broadcast_in_dim"(%273) <{broadcast_dimensions = array<i64: 0, 1, 2>}> : (tensor<4x1x13xf32>) -> tensor<4x1x13x2880xf32>
      %275 = "stablehlo.multiply"(%247, %274) : (tensor<4x1x13x2880xf32>, tensor<4x1x13x2880xf32>) -> tensor<4x1x13x2880xf32>
      %276 = "stablehlo.convert"(%275) : (tensor<4x1x13x2880xf32>) -> tensor<4x1x13x2880xbf16>
      %277 = "stablehlo.reduce"(%276, %10) <{dimensions = array<i64: 0>}> ({
      ^bb0(%arg66: tensor<bf16>, %arg67: tensor<bf16>):
        %298 = "stablehlo.add"(%arg66, %arg67) : (tensor<bf16>, tensor<bf16>) -> tensor<bf16>
        "stablehlo.return"(%298) : (tensor<bf16>) -> ()
      }) : (tensor<4x1x13x2880xbf16>, tensor<bf16>) -> tensor<1x13x2880xbf16>
      %278 = "stablehlo.all_reduce"(%277) <{channel_handle = #stablehlo.channel_handle<handle = 1, type = 1>, replica_groups = dense<[[0, 1, 2, 3, 4, 5, 6, 7]]> : tensor<1x8xi64>}> ({
      ^bb0(%arg64: tensor<bf16>, %arg65: tensor<bf16>):
        %297 = "stablehlo.add"(%arg64, %arg65) : (tensor<bf16>, tensor<bf16>) -> tensor<bf16>
        "stablehlo.return"(%297) : (tensor<bf16>) -> ()
      }) : (tensor<1x13x2880xbf16>) -> tensor<1x13x2880xbf16>
      %279 = "stablehlo.add"(%170, %278) : (tensor<1x13x2880xbf16>, tensor<1x13x2880xbf16>) -> tensor<1x13x2880xbf16>
      %280 = "stablehlo.convert"(%279) : (tensor<1x13x2880xbf16>) -> tensor<1x13x2880xf32>
      %281 = "stablehlo.power"(%280, %15) : (tensor<1x13x2880xf32>, tensor<1x13x2880xf32>) -> tensor<1x13x2880xf32>
      %282 = "stablehlo.reduce"(%281, %1) <{dimensions = array<i64: 2>}> ({
      ^bb0(%arg62: tensor<f32>, %arg63: tensor<f32>):
        %296 = "stablehlo.add"(%arg62, %arg63) : (tensor<f32>, tensor<f32>) -> tensor<f32>
        "stablehlo.return"(%296) : (tensor<f32>) -> ()
      }) : (tensor<1x13x2880xf32>, tensor<f32>) -> tensor<1x13xf32>
      %283 = "stablehlo.multiply"(%282, %6) : (tensor<1x13xf32>, tensor<1x13xf32>) -> tensor<1x13xf32>
      %284 = "stablehlo.reshape"(%283) : (tensor<1x13xf32>) -> tensor<1x13x1xf32>
      %285 = "stablehlo.add"(%284, %29) : (tensor<1x13x1xf32>, tensor<1x13x1xf32>) -> tensor<1x13x1xf32>
      %286 = "stablehlo.rsqrt"(%285) : (tensor<1x13x1xf32>) -> tensor<1x13x1xf32>
      %287 = "stablehlo.reshape"(%286) : (tensor<1x13x1xf32>) -> tensor<1x13xf32>
      %288 = "stablehlo.broadcast_in_dim"(%287) <{broadcast_dimensions = array<i64: 0, 1>}> : (tensor<1x13xf32>) -> tensor<1x13x2880xf32>
      %289 = "stablehlo.multiply"(%280, %288) : (tensor<1x13x2880xf32>, tensor<1x13x2880xf32>) -> tensor<1x13x2880xf32>
      %290 = "stablehlo.multiply"(%138, %289) : (tensor<1x13x2880xf32>, tensor<1x13x2880xf32>) -> tensor<1x13x2880xf32>
      %291 = "stablehlo.convert"(%290) : (tensor<1x13x2880xf32>) -> tensor<1x13x2880xbf16>
      %292 = "stablehlo.reshape"(%291) : (tensor<1x13x2880xbf16>) -> tensor<13x2880xbf16>
      %293 = "stablehlo.transpose"(%arg31) <{permutation = array<i64: 1, 0>}> {result_layout = dense<[0, 1]> : tensor<2xindex>, xla_shape = "bf16[2880,201088]{0,1}"} : (tensor<25136x2880xbf16>) -> tensor<2880x25136xbf16>
      %294 = "stablehlo.dot_general"(%292, %293) <{dot_dimension_numbers = #stablehlo.dot<lhs_contracting_dimensions = [1], rhs_contracting_dimensions = [0]>}> : (tensor<13x2880xbf16>, tensor<2880x25136xbf16>) -> tensor<13x25136xbf16>
      %295 = "stablehlo.reshape"(%294) : (tensor<13x25136xbf16>) -> tensor<1x13x25136xbf16>
      "sdy.return"(%294, %295) : (tensor<13x25136xbf16>, tensor<1x13x25136xbf16>) -> ()
    }) : (tensor<201088x2880xbf16>, tensor<f32>, tensor<32xbf16>, tensor<32x2880xbf16>, tensor<2880xbf16>, tensor<2880x4096xbf16>, tensor<512xbf16>, tensor<512x2880xbf16>, tensor<1x13xi64>, tensor<201088x2880xbf16>, tensor<2880xbf16>, tensor<64xbf16>, tensor<bf16>, tensor<i64>, tensor<f32>, tensor<f32>, tensor<32xf32>, tensor<512xbf16>, tensor<512x2880xbf16>, tensor<4096xbf16>, tensor<4096x2880xbf16>, tensor<2880xbf16>, tensor<32x2880xbf16>, tensor<32x2880x2880xbf16>, tensor<f32>, tensor<bf16>, tensor<bf16>, tensor<32x5760xbf16>, tensor<32x2880x5760xbf16>, tensor<bf16>, tensor<2880xbf16>) -> (tensor<13x201088xbf16>, tensor<1x13x201088xbf16>)
    "func.return"(%0#0, %0#1) : (tensor<13x201088xbf16>, tensor<1x13x201088xbf16>) -> ()
  }) : () -> ()
}) {mhlo.cross_program_prefetches = [], mhlo.input_output_alias = [], mhlo.is_dynamic = false, mhlo.use_auto_spmd_partitioning = false} : () -> ()


Running Tensor Parallel Inference
Sharded sinks: torch.Size([64])
Tensor parallel sharding applied successfully!
Preparing inputs for TP: batch_size=1, seq_length=13
Error during execution: Error code: 13
eOp rewrite called
[HET DEBUG] AllSliceOp rewrite called
[HET DEBUG] AllSliceOp rewrite called
[HET DEBUG] AllSliceOp rewrite called
[HET DEBUG] AllSliceOp rewrite called
[HET DEBUG] AllSliceOp rewrite called
[HET DEBUG] AllSliceOp rewrite called
[HET DEBUG] AllSliceOp rewrite called
[HET DEBUG] AllSliceOp rewrite called
[HET DEBUG] AllSliceOp rewrite called
[HET DEBUG] AllSliceOp rewrite called
[HET DEBUG] AllSliceOp rewrite called
[HET DEBUG] AllSliceOp rewrite called
[HET DEBUG] AllSliceOp rewrite called
[HET DEBUG] AllSliceOp rewrite called
[HET DEBUG] AllSliceOp rewrite called
[HET DEBUG] AllSliceOp rewrite called
[HET DEBUG] AllSliceOp rewrite called
[HET DEBUG] AllSliceOp rewrite called
[HET DEBUG] AllSliceOp rewrite called
[HET DEBUG] AllSliceOp rewrite called
